light_mappo-main/results/MyEnv/MyEnv/mappo/check/run46/models/actor.pt (torch, 44533 bytes, 16 tensors)

base.feature_norm.weight f4 [15]
0	0x3f85d967	1.0456971
1	0x3f71bff8	0.94433546
2	0x3f80aba3	1.0052379
3	0x3f8397b9	1.0280677
4	0x3f7e574d	0.9935196
5	0x3f6f4382	0.93462384
6	0x3f7a9fed	0.9790028
7	0x3f705a69	0.93887955
8	0x3f907670	1.1286144
9	0x3f74c3c2	0.956112
10	0x3f797704	0.9744723
11	0x3f82facb	1.0232786
12	0x3f8596a8	1.0436602
13	0x3f89d418	1.0767851
14	0x3f6de7e6	0.92931974

base.feature_norm.bias f4 [15]
0	0x3c82f964	0.01598806
1	0x3d11954d	0.035542775
2	0xbd8ad8eb	-0.06779655
3	0x3c801f80	0.01564002
4	0xbcb82c20	-0.022481978
5	0xbb0784e6	-0.002067858
6	0xbc8ce86e	-0.017200675
7	0x3d8ec264	0.06970671
8	0x3d033b3c	0.032038912
9	0xbd12c3c4	-0.035831228
10	0x3d21aee6	0.039473437
11	0x3a4c410d	0.0007791676
12	0x3cb4ac4f	0.02205482
13	0xbc1b7751	-0.0094888965
14	0x3bccd5f7	0.0062510925

base.mlp.fc1.0.weight f4 [64, 15]
0	0x3e8fc27f	0.28078076
1	0xbe90876b	-0.28228316
2	0xbdb8c9c0	-0.09022856
3	0xbda0a2e8	-0.07843572
4	0xbc309b24	-0.010779176
5	0xbd9941f0	-0.0748328
6	0x3e1840f6	0.1486853
7	0xbdce7e98	-0.100827396
8	0xbe56a595	-0.20961602
9	0xbdc4bafa	-0.096059754
10	0xbea5bf99	-0.3237274
11	0x3c68f27b	0.014217968
12	0xbd1acb2e	-0.037791423
13	0xbe0afe1f	-0.13573502
14	0x3e4a84bd	0.19777198
15	0xbd3df71d	-0.046378244
16	0xbca26865	-0.01982517
17	0xbeb897d7	-0.36053345
18	0xbc72298b	-0.014780412
19	0x3ec3a799	0.38213804
20	0x3e067957	0.13132225
21	0xbe9fd47d	-0.31216803
22	0xbcbfb9bd	-0.023403997
23	0xbe9723d4	-0.29519522
24	0xbd1c2393	-0.038119864
25	0x3dcba64a	0.099438265
26	0x3e4b4dea	0.1985394
27	0x3d4b4756	0.049628578
28	0xbe6ad4e8	-0.2293278
29	0x3c7285dc	0.014802422
30	0xbe7a676f	-0.2445352
31	0xbdae4f98	-0.08511275
32	0x3e0c3321	0.13691379
33	0xbe0fa5d6	-0.14028105
34	0xbd4904f5	-0.049076993
35	0x3e7b5227	0.24543057
36	0x3e5e9675	0.21737082
37	0xbe9b9d0c	-0.30393255
38	0xbd28fcf4	-0.04125686
39	0x3e7b3131	0.24530484
40	0xbd3ad9b4	-0.045617774
41	0x3d1fb08b	0.038986724
42	0xbe028d17	-0.12749134
43	0x3e2e6c66	0.17033538
44	0x3d563be3	0.052303206
45	0x3db49e20	0.088192225
46	0xbda9da35	-0.08293573
47	0x3cbba0b9	0.022903787
48	0x3e321adc	0.17393059
49	0xbdb6183e	-0.088913426
50	0x3de8872b	0.11353906
51	0xbceceb15	-0.02892069
52	0x3e0d43d4	0.13795406
53	0xbeda4af2	-0.42635304
54	0x3e996f6d	0.29967824
55	0x3cf9251d	0.030413205
56	0xbdc6c542	-0.09705593
57	0xbd111fb4	-0.035430625
58	0xbd94335f	-0.07236361
59	0xbda1871b	-0.078870974
60	0xbba9a9fc	-0.0051777344
61	0xbe9f22ef	-0.3108134
62	0x3d5d926a	0.05409471
63	0x3dfc8db5	0.12331716
64	0x3c270a5e	0.010195343
65	0xbe69bc88	-0.22825825
66	0xbe271e61	-0.16320182
67	0xbe67d94f	-0.2264149
68	0xbd058c65	-0.032604594
69	0xbe7576c8	-0.23971093
70	0x3ed5efcb	0.4178451
71	0xbd5b1afe	-0.05349254
72	0xbd058efb	-0.03260706
73	0xbd2c9a98	-0.04213962
74	0x3e8ac4a7	0.2710316
75	0x3b2de4e7	0.0026534142
76	0xbe0ad8de	-0.13559291
77	0xbdbc6d50	-0.09200537
78	0x3e60b322	0.21943334
79	0xbc17ba25	-0.009260689
80	0x3e14988e	0.1451132
81	0xbe95db93	-0.29269084
82	0xbe780d95	-0.24223931
83	0x3e8121e9	0.25221184
84	0x3e579efe	0.21056744
85	0x3ef01599	0.46891478
86	0x3de2c83c	0.11073348
87	0xbe496f21	-0.19671299
88	0x3c944f5c	0.018104248
89	0xbdf83132	-0.12118758
90	0xbdc9169f	-0.09818768
91	0x3b851e9b	0.0040624863
92	0x3eabf7af	0.33587405
93	0x3c8e231a	0.017350722
94	0xbd07f016	-0.03318795
95	0xbdcb4360	-0.0992496
96	0x3e211729	0.15731491
97	0xbe22295a	-0.15836087
98	0x3dff00ae	0.124513015
99	0x3e88ddf2	0.2673183
100	0x3d251cec	0.040310785
101	0x3e6c3448	0.23066819
102	0xbbcc1ba4	-0.006228881
103	0xbe07d1d3	-0.13263635
104	0x3e85365d	0.26018038
105	0xbea3a3b8	-0.31960845
106	0xbeb1019e	-0.34571546
107	0xbe246b86	-0.16056642
108	0x3cc0ddcf	0.023543267
109	0xbe1b99fd	-0.1519546
110	0x3e08d024	0.1336065
111	0x3db80d27	0.089868836
112	0xbecd3358	-0.40078235
113	0xbe588a35	-0.21146472
114	0x3c268109	0.0101626
115	0xbc7f9a31	-0.015600727
116	0xbd435b64	-0.04769458
117	0x3e5eab7e	0.21745107
118	0x3e1dc560	0.15407324
119	0xbe366c59	-0.17814769
120	0xbe4a54f7	-0.19758974
121	0x3e4274a2	0.18989804
122	0x3dac17d6	0.08402984
123	0x3eb83428	0.35977292
124	0xbca3a6b5	-0.019976953
125	0x3e5623fe	0.20912167
126	0x3e26cb8c	0.16288584
127	0x3d129f9d	0.03579675
128	0x3e314132	0.17310026
129	0xbc806308	-0.015672222
130	0xbbd03e28	-0.006355066
131	0x3d349159	0.044083927
132	0xbe051ca9	-0.12999214
133	0x3d05bbfd	0.032649983
134	0x3e38efab	0.18060176
135	0xbe08bfe5	-0.13354452
136	0xbca96e02	-0.020682339
137	0xbe1359c8	-0.14389718
138	0xbdc19669	-0.094525166
139	0x3e4142af	0.18873094
140	0x3ed8181e	0.422059
141	0xbd6dab53	-0.058024716
142	0xbb2de043	-0.0026531375
143	0xbcd9c263	-0.026581949
144	0xbd2fa813	-0.042884897
145	0x3db3061d	0.087414004
146	0xbe945b6d	-0.28976002
147	0x3d8dad8b	0.06917866
148	0x3e8fc4f6	0.28079957
149	0x3e957c55	0.2919642
150	0xbca6a1ec	-0.020340882
151	0xbdc5a843	-0.09651234
152	0xbda3ae0e	-0.07992183
153	0xbd1d5655	-0.03841241
154	0x3c579ae2	0.0131594855
155	0x3dd4fe5f	0.1040008
156	0xbc2e80cc	-0.010650825
157	0xbd824805	-0.06361393
158	0xbe140208	-0.144539
159	0xbd5d0a56	-0.053964935
160	0xbe8c2fef	-0.2738032
161	0xbe3160db	-0.17322104
162	0xbe956bbd	-0.2918376
163	0x3e5e2742	0.21694663
164	0x3ec2c92a	0.380441
165	0x3c9b78fb	0.018978586
166	0xbec6d0a3	-0.38831052
167	0xbde21725	-0.11039571
168	0xbd8d1004	-0.0688782
169	0x3e11aac6	0.14225301
170	0xbda7962e	-0.081829414
171	0xbdc0f8fb	-0.09422489
172	0xbe940c92	-0.2891584
173	0x3e300adf	0.17191647
174	0x3dfae1da	0.12250109
175	0xbe3bf790	-0.18356156
176	0x3e5b003c	0.21386808
177	0x3ebc3d59	0.36765555
178	0x3e090d2c	0.13383931
179	0xbcff1324	-0.031137057
180	0x3e31ff7d	0.17382617
181	0xbcb48456	-0.022035759
182	0x3d01c575	0.03168245
183	0x3c374d09	0.0111878
184	0x3db28665	0.0871704
185	0x3d9d137f	0.07669734
186	0xbe4c4d29	-0.1995131
187	0xbe461575	-0.19344123
188	0x3deec944	0.11659482
189	0xbd9db83f	-0.07701158
190	0xbe2039b7	-0.15647016
191	0xbe88b026	-0.2669689
192	0x3b721c5f	0.003694318
193	0x3e1aedc2	0.1512976
194	0xbdb27a9c	-0.08714792
195	0xbd526242	-0.051363237
196	0xbd8c1703	-0.06840327
197	0x3d9f4fe8	0.07778913
198	0x3e58844e	0.2114422
199	0x3e23ee07	0.16008769
200	0xbec099a4	-0.37617218
201	0x3e6405bb	0.22267811
202	0x3da7044c	0.081551164
203	0x3da7946d	0.08182607
204	0x3e7bbf61	0.24584724
205	0x3e0eb566	0.13936386
206	0xbe5bf90e	-0.21481726
207	0xbe9e5523	-0.3092433
208	0xbe6d6c9f	-0.23185967
209	0xbde29d9c	-0.11065218
210	0xbb968899	-0.0045939204
211	0x3e7e573b	0.24837963
212	0xbe21c742	-0.15798667
213	0x3d05b446	0.032642625
214	0x3d7c00f9	0.061524365
215	0xbbb775e0	-0.0055987686
216	0xbdeb5299	-0.11490364
217	0x3d3aac59	0.04557452
218	0xbecc3a5d	-0.39888278
219	0x3d6ce017	0.057830896
220	0x3e98f4e5	0.2987434
221	0x3e15d8d6	0.14633498
222	0xbdbdbeb1	-0.09264887
223	0xbdc32d91	-0.095301755
224	0xbdc7d882	-0.097580925
225	0xbda963c7	-0.08270984
226	0x3e8cc779	0.27495936
227	0xbe5b486a	-0.21414343
228	0xbe8bd7ce	-0.27313083
229	0xbdb41793	-0.08793559
230	0xbe390e39	-0.18071832
231	0x3d6b0b2f	0.057383712
232	0xbd8c92aa	-0.068639114
233	0xbbd96d30	-0.0066353306
234	0xbeaa7981	-0.33295825
235	0xbd781a55	-0.060571987
236	0xbe7063d8	-0.23475587
237	0x3e042ac8	0.12906945
238	0x3e2a2cd8	0.16618669
239	0x3ea2c8c8	0.3179381
240	0x3edcea6d	0.43147603
241	0xbdc5d040	-0.09658861
242	0x3e2deac7	0.16984092
243	0xbd1f3331	-0.03886718
244	0x3e6051ee	0.21906254
245	0x3e6d1e67	0.23156129
246	0x3d9f224d	0.07770214
247	0x3ea19990	0.3156247
248	0xbf2e8073	-0.6816475
249	0xbd5d4ccf	-0.05402833
250	0x3e089f4a	0.13342014
251	0x3e675fab	0.22595088
252	0x3d1e943c	0.038715586
253	0x3c2774bc	0.010220703
254	0xbd80ad4e	-0.06283055
255	0x3e179dd7	0.14806305

base.mlp.fc1.0.bias f4 [64]
0	0xbd6c5d8b	-0.057706397
1	0x3d22a340	0.03970647
2	0xbd8a348e	-0.06748305
3	0x3db60976	0.08888523
4	0xbdba7db7	-0.091060095
5	0xbc8d0a56	-0.017216843
6	0xbcc9fab3	-0.024655676
7	0xbc82706a	-0.015922744
8	0x3bf2ca16	0.0074093444
9	0x3cd98746	0.026553761
10	0xbc91ebc0	-0.01781261
11	0xbc61804e	-0.0137635
12	0xbd26b6b2	-0.040701576
13	0xbd5e66c9	-0.054297242
14	0x3d878fc8	0.06619221
15	0x3b97e9cd	0.0046360255
16	0xbd03281f	-0.032020684
17	0x3c9e2c5e	0.019308265
18	0xbd49a419	-0.04922876
19	0x3d8f2647	0.06989723
20	0xbc884d6e	-0.016638484
21	0x3ce902af	0.028443662
22	0xbad63d7e	-0.001634523
23	0xbc40da14	-0.011770744
24	0xbc52a3a7	-0.012856401
25	0xbd8d98c9	-0.06913907
26	0x3c329f89	0.010902294
27	0x3d74cb66	0.05976429
28	0xbd0cfddf	-0.034421798
29	0xbc476fb6	-0.01217263
30	0x3ce20234	0.027588941
31	0x3c5ed8a3	0.013601455
32	0x3c299bc5	0.01035208
33	0x3a16fe47	0.0005759936
34	0xbc8c634b	-0.01713719
35	0x3c0c9644	0.008580748
36	0xbc11212d	-0.008858007
37	0xbd1f70fc	-0.03892611
38	0x3c502d83	0.012706163
39	0xbc8bc6c3	-0.01706255
40	0x3b904f37	0.0044039744
41	0xbd41b115	-0.04728802
42	0xbc36412e	-0.0111239385
43	0xbd03feca	-0.032225408
44	0xbd5c483d	-0.05377983
45	0x3ccf9a67	0.02534218
46	0xbd66c298	-0.056337923
47	0xbd64833a	-0.05578921
48	0x3d93a099	0.07208366
49	0xbc6a047e	-0.014283298
50	0xbd818d85	-0.06325821
51	0x3b449606	0.0029996647
52	0x3cb4df98	0.022079274
53	0x3bcbfdf4	0.006225342
54	0xbd011e6b	-0.03152315
55	0xbb51e3c3	-0.0032026626
56	0xbb3f2255	-0.002916475
57	0xbd0d0c84	-0.034435764
58	0x3cb51e2e	0.022109117
59	0x3b40a973	0.0029397875
60	0x3c845695	0.016154567
61	0x3cfba6cb	0.030719182
62	0xbd8b5d43	-0.06804898
63	0xbc529046	-0.01285178

base.mlp.fc1.2.weight f4 [64]
0	0x3f888369	1.0665103
1	0x3f7bb682	0.9832536
2	0x3f7410f8	0.9533839
3	0x3f73683a	0.9508091
4	0x3f6d5e14	0.92721677
5	0x3f75f6ca	0.96079695
6	0x3f80e688	1.0070353
7	0x3f732b11	0.9498759
8	0x3f671fcd	0.902829
9	0x3f8f1589	1.1178447
10	0x3f7fd44a	0.999333
11	0x3f7acc32	0.9796783
12	0x3f67cf0a	0.9055029
13	0x3f840d8b	1.0316633
14	0x3f89c36d	1.0762764
15	0x3f7852ee	0.9700154
16	0x3f8e4b61	1.1116754
17	0x3f742a4d	0.95377046
18	0x3f74e6c0	0.95664597
19	0x3f834657	1.0255841
20	0x3f6e62d5	0.93119556
21	0x3f69645c	0.9116876
22	0x3f787eba	0.9706837
23	0x3f83e39f	1.030384
24	0x3f6f8dce	0.9357575
25	0x3f6c83ab	0.9238841
26	0x3f80845b	1.0040392
27	0x3f7c9079	0.9865795
28	0x3f82ae8a	1.0209515
29	0x3f85996a	1.0437443
30	0x3f82a011	1.0205098
31	0x3f75afb6	0.9597124
32	0x3f840344	1.0313497
33	0x3f8304e7	1.0235871
34	0x3f819710	1.0124226
35	0x3f8412b9	1.0318214
36	0x3f800ed4	1.0004525
37	0x3f84d498	1.0377378
38	0x3f8a97b7	1.082755
39	0x3f802daa	1.0013936
40	0x3f86326b	1.0484136
41	0x3f7875d1	0.97054774
42	0x3f79e62d	0.97616845
43	0x3f867e1d	1.0507237
44	0x3f823f11	1.0175496
45	0x3f861973	1.0476516
46	0x3f757f95	0.958978
47	0x3f77e7d0	0.9683809
48	0x3f876c90	1.0580006
49	0x3f809f44	1.0048604
50	0x3f755b1e	0.9584216
51	0x3f8117e9	1.0085422
52	0x3f7c36dd	0.98521215
53	0x3f867408	1.050416
54	0x3f736e69	0.9509035
55	0x3f7e2479	0.992744
56	0x3f805d4b	1.0028471
57	0x3f84640d	1.0343033
58	0x3f7485a0	0.95516396
59	0x3f85d1f9	1.0454704
60	0x3f87c820	1.0607948
61	0x3f75ae20	0.9596882
62	0x3f85ae4c	1.0443816
63	0x3f81c233	1.013739

base.mlp.fc1.2.bias f4 [64]
0	0x3c0fe7aa	0.00878326
1	0x3d522709	0.051306758
2	0xbd2562ec	-0.040377542
3	0x3dd5f972	0.104479685
4	0xbbf3705c	-0.0074291658
5	0xbbc59582	-0.0060297856
6	0xbc356fd2	-0.011074023
7	0x3c9b3c25	0.018949578
8	0x3d80f71d	0.06297133
9	0x3ca189b7	0.019718988
10	0xbd23eaf3	-0.040018987
11	0xbc34f526	-0.011044776
12	0xbd608aad	-0.05481975
13	0xbd61db68	-0.055140883
14	0x3be4d80b	0.006983762
15	0xbd04e484	-0.032444492
16	0x3c76307a	0.015026206
17	0x37c0d0ed	2.2985472e-05
18	0xbd95a09e	-0.07306026
19	0xbc8121e1	-0.015763225
20	0xbc887731	-0.016658397
21	0x3d3a031f	0.045413133
22	0x3d17e576	0.037084065
23	0x3d64afc2	0.05583168
24	0x3b752fee	0.0037412602
25	0x3b8bb99f	0.004264071
26	0x3b33fdb4	0.0027464451
27	0x3d597d5b	0.053098064
28	0xbd25ce83	-0.040480148
29	0x3ba771c1	0.005109996
30	0x3aabcaf0	0.0013106745
31	0x3c872e20	0.016501486
32	0x3bf0fd8b	0.0073544434
33	0xbd65b542	-0.056081064
34	0xbc8de33d	-0.01732027
35	0xbcccee45	-0.02501596
36	0x3c32ea8a	0.010920176
37	0xbc41d783	-0.011831167
38	0xbc9935b0	-0.018702358
39	0x3c848554	0.016176857
40	0x3bbdab1c	0.00578822
41	0xbd2abd88	-0.041684657
42	0x3d12dfb9	0.03585789
43	0xbcda4c74	-0.026647784
44	0xbd39de7d	-0.045378197
45	0x3d439b92	0.047755785
46	0x3c580499	0.01318469
47	0xbd7e8f60	-0.06214845
48	0x3ca98ad7	0.020696087
49	0xbb870434	-0.004120374
50	0x3c631d11	0.01386191
51	0x3baf8645	0.0053565823
52	0xbd012a7c	-0.031534657
53	0xbcca9404	-0.024728782
54	0xbc16e655	-0.009210189
55	0x3c4bb392	0.01243295
56	0x3c64c9be	0.013964115
57	0x3c8dfd53	0.017332708
58	0x3c1a880c	0.00943185
59	0xbcf166e4	-0.029468007
60	0x3c4b11cc	0.01239438
61	0x3c8ea376	0.017411929
62	0xbcbb3655	-0.022853056
63	0xbc61812a	-0.013763705

base.mlp.fc_h.0.weight f4 [64, 64]
0	0x3e0f0a5d	0.13968797
1	0x3e81f8e4	0.253852
2	0x3da5fb8c	0.081046194
3	0x3e8f7266	0.28016967
4	0xbe242199	-0.16028441
5	0x3e82af86	0.2552454
6	0xbe146e69	-0.14495243
7	0xbdef7703	-0.116926216
8	0xbe9716cd	-0.29509583
9	0xbe9592b4	-0.29213488
10	0xbe857613	-0.26066646
11	0x3d82a533	0.063791655
12	0xbe041551	-0.12898757
13	0x3d71e2d9	0.05905423
14	0xbe229781	-0.15878107
15	0x3e9f38ba	0.31097966
16	0x3a0cc9f0	0.0005370667
17	0x3ddfa5c1	0.10920287
18	0x3e3bb302	0.18330005
19	0xbe481eef	-0.1954305
20	0x3de5b218	0.11215609
21	0xbed16a79	-0.40901545
22	0x3cc7c393	0.02438525
23	0xbe87f355	-0.26552835
24	0xbdcc595a	-0.0997798
25	0xbd8c0314	-0.068365246
26	0xbbb6974b	-0.0055722347
27	0xbe82fea5	-0.25584903
28	0x3d94d212	0.0726663
29	0xbbadb9a0	-0.0053016692
30	0x3ded17e3	0.11576822
31	0xbe9e5ebc	-0.30931652
32	0xbd7d0b9c	-0.06177865
33	0xbd971bb5	-0.073783316
34	0x3cf6e085	0.030136356
35	0xbed6d1fa	-0.41957074
36	0x3e205149	0.15656008
37	0xbdd1fdac	-0.10253462
38	0x3e8ebd14	0.2787863
39	0xbea084a7	-0.31351206
40	0xbd89db62	-0.06731297
41	0x3da6281a	0.081131175
42	0x3ddcc96b	0.10780605
43	0xbd2a62cf	-0.041598137
44	0x3c0bef9f	0.008541017
45	0xbddcb6fc	-0.10777089
46	0xbd78e335	-0.060763557
47	0xbe05287b	-0.13003723
48	0x3e69ee38	0.2284478
49	0xbe2beddc	-0.16789955
50	0x3e30d587	0.17268954
51	0x3e85297e	0.2600822
52	0xbe603685	-0.21895798
53	0x3da247e2	0.07923867
54	0xbd8868ce	-0.06660615
55	0x3c059da6	0.008155262
56	0xbc23db90	-0.010001078
57	0xbcefe52c	-0.029284082
58	0xbe716f6a	-0.23577657
59	0x3dd3c4f3	0.103402995
60	0x3d41177b	0.047141533
61	0x3e07858e	0.13234541
62	0x3d697f7a	0.057006337
63	0x3dc2166c	0.09476933
64	0x3dee7aad	0.11644492
65	0xbc85a37f	-0.016313313
66	0x3c846135	0.016159633
67	0x3e1d9084	0.1538716
68	0xbe1fc1f0	-0.15601325
69	0x3e2ce4b9	0.16884126
70	0x3e0fca63	0.14042048
71	0x3e040f7a	0.12896529
72	0x3d76bd13	0.06023891
73	0xbe1359cc	-0.14389724
74	0x3d9342e1	0.071904905
75	0xbe24e267	-0.1610199
76	0x3ba03e29	0.0048902226
77	0x3e8d105e	0.2755155
78	0xbdff8e20	-0.1247828
79	0xbe3e8ce6	-0.18608436
80	0x3e30e107	0.17273341
81	0xbe3c7ee8	-0.18407786
82	0xbe5a4a24	-0.21317345
83	0xbe054ef3	-0.13018398
84	0x3e363ffd	0.17797847
85	0x3e034e37	0.12822805
86	0x3e2210cd	0.15826721
87	0x3e4c12a1	0.19928981
88	0xbde424bb	-0.11139818
89	0xbd05777a	-0.032584645
90	0xbcefd1b6	-0.029274803
91	0xbdce9e2c	-0.10088763
92	0x3eb1b6cc	0.34709775
93	0xbdc6581f	-0.096847765
94	0x3ee43e7e	0.44578928
95	0xbe34e505	-0.17665489
96	0xbd8cb58c	-0.06870565
97	0x3da5b9d2	0.08092083
98	0x3d81e0bc	0.06341693
99	0xbce8275d	-0.028339082
100	0x3dbcd070	0.09219444
101	0x3dd908f3	0.1059741
102	0xbd018788	-0.031623393
103	0x3d094949	0.033517156
104	0x3e851aac	0.25996912
105	0x3e4d60cd	0.20056458
106	0xbe3231bb	-0.17401783
107	0xbdcffa44	-0.10155156
108	0x3ea5d14a	0.32386237
109	0xbc13d329	-0.0090225125
110	0xbe5c13f8	-0.21491992
111	0x3e766d9d	0.24065252
112	0xbeaa4347	-0.33254454
113	0x3e849b1e	0.25899595
114	0x3e142e56	0.14470801
115	0x3dac416c	0.08410916
116	0xbe1913c8	-0.14948952
117	0x3ecefc10	0.40426683
118	0xbe1736ff	-0.14767073
119	0xbd69aa28	-0.05704704
120	0xbd94d39f	-0.07266926
121	0xbe96707d	-0.29382697
122	0x3e92a342	0.2864018
123	0xbdbf73c5	-0.09348253
124	0x3df21f9d	0.11822436
125	0x3b118deb	0.0022209834
126	0xbe5808d9	-0.21097125
127	0xbdfddfea	-0.12396224
128	0xbe946eef	-0.28990886
129	0xbe714034	-0.23559648
130	0x3e0900fa	0.13379279
131	0x3e44321a	0.19159737
132	0xbe92e71d	-0.2869195
133	0xbe52e0bf	-0.20593546
134	0xbe3bce3c	-0.18340391
135	0xbdde4f8d	-0.10855017
136	0x3e3a3729	0.18185104
137	0xbd93a1d6	-0.07208602
138	0xbe8448f5	-0.25836912
139	0xbca14caa	-0.019689877
140	0x3dc40f55	0.09573237
141	0xbe492906	-0.19644555
142	0xbd4571d9	-0.048204277
143	0xbe836f23	-0.25670728
144	0xbdcf34c9	-0.1011749
145	0x3ea780df	0.32715508
146	0x3e0307c2	0.12795928
147	0xbcaa8ed1	-0.020820053
148	0xbd0adf20	-0.033904195
149	0x3ea1e531	0.31620172
150	0xbe1b9b23	-0.15195899
151	0x3bb89aff	0.0056337113
152	0xbe16e0bb	-0.14734165
153	0x3d848348	0.064703524
154	0xbe778bd8	-0.2417444
155	0x3e13df06	0.14440545
156	0x3d8af9a8	0.067858994
157	0xbd50c098	-0.05096492
158	0xbd99a573	-0.0750226
159	0x3d4b5249	0.04963902
160	0x3cf1bcbf	0.029508946
161	0xbe12d119	-0.14337577
162	0x3cc7f354	0.02440802
163	0xbcde0d2a	-0.027105886
164	0xbe275826	-0.1634222
165	0x3e402c8d	0.18766995
166	0x3e8af748	0.27141786
167	0x3b20cda3	0.0024536632
168	0x3ee4dd5d	0.44700137
169	0x3e4fa3a3	0.20277266
170	0x3df8aac4	0.12141946
171	0xbea06bca	-0.31332237
172	0x3e408c1d	0.18803449
173	0xbe7fca5e	-0.2497954
174	0xbe06c987	-0.13162814
175	0x3db33765	0.087508
176	0x3d9a403f	0.07531785
177	0xbdfef386	-0.12448792
178	0x3c98d070	0.018654078
179	0xbe78b166	-0.24286422
180	0xbe5ce29b	-0.21570818
181	0xbd37ae90	-0.04484421
182	0xbe8fa2ce	-0.28053898
183	0x3e7e8101	0.24853899
184	0x3d52f33c	0.051501498
185	0x3e12fbd7	0.14353882
186	0xbd79a030	-0.060943782
187	0x3e851de7	0.25999376
188	0x3d25c875	0.040474374
189	0xbcda23de	-0.026628431
190	0x3cf4a19e	0.029862221
191	0x3e3aa772	0.18227938
192	0x3dce0d5a	0.1006114
193	0xbd5334e4	-0.051564112
194	0x3e587228	0.21137297
195	0x3d8e12d9	0.06937189
196	0xbe64a997	-0.22330318
197	0x3d4a9bc0	0.04946494
198	0xbd2b6b29	-0.041850243
199	0x3d090963	0.033456217
200	0x3e410f21	0.18853427
201	0x3e7e3714	0.24825698
202	0xbe236135	-0.1595505
203	0x3dfa166a	0.122113064
204	0x3e256fd4	0.1615594
205	0xbd80af69	-0.06283457
206	0xbe230708	-0.15920651
207	0xbed4a4d6	-0.4153201
208	0x3e228e60	0.15874624
209	0x3e5cd8e3	0.2156711
210	0x3ea57838	0.32318282
211	0xbd834382	-0.064093605
212	0xbe47cf44	-0.1951266
213	0xbd9adb7c	-0.075613946
214	0xbe718c2b	-0.23588626
215	0x3d8b7674	0.068097025
216	0x3ea28eb4	0.317495
217	0xbd4a59bc	-0.049401984
218	0x3e27c001	0.16381837
219	0xbe888801	-0.26666263
220	0xbdccb553	-0.09995522
221	0xbe482b45	-0.19547756
222	0x3daec3a7	0.085334115
223	0x3e5b9588	0.2144376
224	0x3d810b10	0.06300938
225	0x3e0d7bc8	0.1381675
226	0xbe22b374	-0.15888768
227	0xbe40472d	-0.18777151
228	0x3de5bd5a	0.112177566
229	0xbdf1cb47	-0.1180635
230	0x3deb2e8a	0.11483486
231	0xbdaf074e	-0.08546315
232	0xbe9343db	-0.28762707
233	0x3c519f98	0.012794398
234	0xbe3e8b8e	-0.18607923
235	0xbd636e62	-0.05552519
236	0xbdab3b5b	-0.083609305
237	0xbe92d710	-0.28679705
238	0x3e85606a	0.2605012
239	0x3e011b66	0.12608108
240	0xbda4137c	-0.08011529
241	0x3c0f768e	0.008756293
242	0xbdbf8bd9	-0.09352846
243	0x3dc146f1	0.09437359
244	0x3e7dde51	0.24791838
245	0x3e61e839	0.22061242
246	0xbcbfd0c8	-0.023414984
247	0xbd6583a2	-0.056033738
248	0xbda2f3a5	-0.07956628
249	0xbeaf33c5	-0.34219185
250	0x3e852270	0.26002836
251	0x3ddd2856	0.10798709
252	0xbeaf763e	-0.342699
253	0x3cadab85	0.021199951
254	0x3e5eceb8	0.21758544
255	0x3bafa76c	0.0053605344

base.mlp.fc_h.0.bias f4 [64]
0	0x00000000	0.0
1	0x00000000	0.0
2	0x00000000	0.0
3	0x00000000	0.0
4	0x00000000	0.0
5	0x00000000	0.0
6	0x00000000	0.0
7	0x00000000	0.0
8	0x00000000	0.0
9	0x00000000	0.0
10	0x00000000	0.0
11	0x00000000	0.0
12	0x00000000	0.0
13	0x00000000	0.0
14	0x00000000	0.0
15	0x00000000	0.0
16	0x00000000	0.0
17	0x00000000	0.0
18	0x00000000	0.0
19	0x00000000	0.0
20	0x00000000	0.0
21	0x00000000	0.0
22	0x00000000	0.0
23	0x00000000	0.0
24	0x00000000	0.0
25	0x00000000	0.0
26	0x00000000	0.0
27	0x00000000	0.0
28	0x00000000	0.0
29	0x00000000	0.0
30	0x00000000	0.0
31	0x00000000	0.0
32	0x00000000	0.0
33	0x00000000	0.0
34	0x00000000	0.0
35	0x00000000	0.0
36	0x00000000	0.0
37	0x00000000	0.0
38	0x00000000	0.0
39	0x00000000	0.0
40	0x00000000	0.0
41	0x00000000	0.0
42	0x00000000	0.0
43	0x00000000	0.0
44	0x00000000	0.0
45	0x00000000	0.0
46	0x00000000	0.0
47	0x00000000	0.0
48	0x00000000	0.0
49	0x00000000	0.0
50	0x00000000	0.0
51	0x00000000	0.0
52	0x00000000	0.0
53	0x00000000	0.0
54	0x00000000	0.0
55	0x00000000	0.0
56	0x00000000	0.0
57	0x00000000	0.0
58	0x00000000	0.0
59	0x00000000	0.0
60	0x00000000	0.0
61	0x00000000	0.0
62	0x00000000	0.0
63	0x00000000	0.0

base.mlp.fc_h.2.weight f4 [64]
0	0x3f800000	1.0
1	0x3f800000	1.0
2	0x3f800000	1.0
3	0x3f800000	1.0
4	0x3f800000	1.0
5	0x3f800000	1.0
6	0x3f800000	1.0
7	0x3f800000	1.0
8	0x3f800000	1.0
9	0x3f800000	1.0
10	0x3f800000	1.0
11	0x3f800000	1.0
12	0x3f800000	1.0
13	0x3f800000	1.0
14	0x3f800000	1.0
15	0x3f800000	1.0
16	0x3f800000	1.0
17	0x3f800000	1.0
18	0x3f800000	1.0
19	0x3f800000	1.0
20	0x3f800000	1.0
21	0x3f800000	1.0
22	0x3f800000	1.0
23	0x3f800000	1.0
24	0x3f800000	1.0
25	0x3f800000	1.0
26	0x3f800000	1.0
27	0x3f800000	1.0
28	0x3f800000	1.0
29	0x3f800000	1.0
30	0x3f800000	1.0
31	0x3f800000	1.0
32	0x3f800000	1.0
33	0x3f800000	1.0
34	0x3f800000	1.0
35	0x3f800000	1.0
36	0x3f800000	1.0
37	0x3f800000	1.0
38	0x3f800000	1.0
39	0x3f800000	1.0
40	0x3f800000	1.0
41	0x3f800000	1.0
42	0x3f800000	1.0
43	0x3f800000	1.0
44	0x3f800000	1.0
45	0x3f800000	1.0
46	0x3f800000	1.0
47	0x3f800000	1.0
48	0x3f800000	1.0
49	0x3f800000	1.0
50	0x3f800000	1.0
51	0x3f800000	1.0
52	0x3f800000	1.0
53	0x3f800000	1.0
54	0x3f800000	1.0
55	0x3f800000	1.0
56	0x3f800000	1.0
57	0x3f800000	1.0
58	0x3f800000	1.0
59	0x3f800000	1.0
60	0x3f800000	1.0
61	0x3f800000	1.0
62	0x3f800000	1.0
63	0x3f800000	1.0

base.mlp.fc_h.2.bias f4 [64]
0	0x00000000	0.0
1	0x00000000	0.0
2	0x00000000	0.0
3	0x00000000	0.0
4	0x00000000	0.0
5	0x00000000	0.0
6	0x00000000	0.0
7	0x00000000	0.0
8	0x00000000	0.0
9	0x00000000	0.0
10	0x00000000	0.0
11	0x00000000	0.0
12	0x00000000	0.0
13	0x00000000	0.0
14	0x00000000	0.0
15	0x00000000	0.0
16	0x00000000	0.0
17	0x00000000	0.0
18	0x00000000	0.0
19	0x00000000	0.0
20	0x00000000	0.0
21	0x00000000	0.0
22	0x00000000	0.0
23	0x00000000	0.0
24	0x00000000	0.0
25	0x00000000	0.0
26	0x00000000	0.0
27	0x00000000	0.0
28	0x00000000	0.0
29	0x00000000	0.0
30	0x00000000	0.0
31	0x00000000	0.0
32	0x00000000	0.0
33	0x00000000	0.0
34	0x00000000	0.0
35	0x00000000	0.0
36	0x00000000	0.0
37	0x00000000	0.0
38	0x00000000	0.0
39	0x00000000	0.0
40	0x00000000	0.0
41	0x00000000	0.0
42	0x00000000	0.0
43	0x00000000	0.0
44	0x00000000	0.0
45	0x00000000	0.0
46	0x00000000	0.0
47	0x00000000	0.0
48	0x00000000	0.0
49	0x00000000	0.0
50	0x00000000	0.0
51	0x00000000	0.0
52	0x00000000	0.0
53	0x00000000	0.0
54	0x00000000	0.0
55	0x00000000	0.0
56	0x00000000	0.0
57	0x00000000	0.0
58	0x00000000	0.0
59	0x00000000	0.0
60	0x00000000	0.0
61	0x00000000	0.0
62	0x00000000	0.0
63	0x00000000	0.0

base.mlp.fc2.0.0.weight f4 [64, 64]
0	0x3da7b57d	0.08188913
1	0x3e85fab3	0.2616783
2	0x3db85b7b	0.090018235
3	0x3e90cab6	0.28279656
4	0xbe17a7f8	-0.14810169
5	0x3e9869bd	0.29768172
6	0xbe12cfd4	-0.14337093
7	0xbdcd0c09	-0.10012061
8	0xbe9ee0b8	-0.31030822
9	0xbe9a1a88	-0.30098367
10	0xbe91b5fd	-0.2845916
11	0x3d969890	0.07353318
12	0xbe600167	-0.21875535
13	0x3de64243	0.11243107
14	0xbdd5996d	-0.10429654
15	0x3ec98597	0.39359733
16	0x3cab3e86	0.020903837
17	0x3cb14b88	0.021642461
18	0x3e044e9e	0.12920615
19	0xbe1d98ce	-0.15390322
20	0x3d3cd92a	0.04610554
21	0xbeaf9151	-0.34290555
22	0x3dbfc11c	0.093630046
23	0xbea0cc90	-0.3140607
24	0xbd54fad3	-0.051997017
25	0xbd0d2eff	-0.034468647
26	0x3ba054fc	0.0048929434
27	0xbe7eccd8	-0.24882829
28	0x3e0c99fc	0.13730615
29	0x3c9b943e	0.018991586
30	0x3e053622	0.13008931
31	0xbe3ea5c1	-0.18617918
32	0xbdb51ac1	-0.088429935
33	0x3bc9e8fe	0.006161808
34	0x3d7615b6	0.0600793
35	0xbec757be	-0.3893413
36	0x3e17cbfd	0.14823909
37	0xbdd36fa8	-0.10324031
38	0x3ddeb3aa	0.10874112
39	0xbe99730f	-0.29970595
40	0xbd47a1ee	-0.048738413
41	0x3e25b32d	0.16181631
42	0x3d7f48e1	0.062325362
43	0xbd1f21a9	-0.03885046
44	0x3d21c2a1	0.039492253
45	0xbe071504	-0.1319161
46	0xbd72c0b5	-0.05926581
47	0xbdaca4b8	-0.08429855
48	0x3e3ea12e	0.18616173
49	0xbe60f775	-0.21969397
50	0x3dd6678d	0.104689695
51	0x3e9c46e8	0.30522847
52	0xbe4cad26	-0.19987926
53	0x3decac66	0.1155632
54	0x3ba5a32a	0.005054851
55	0x3d6cbfe5	0.057800192
56	0xbdc59a3e	-0.0964856
57	0xbdc74335	-0.097296156
58	0xbe4646c5	-0.19362934
59	0x3dcadbfb	0.09905239
60	0x3d634832	0.055488773
61	0x3e08f6e2	0.13375428
62	0x3d391fc5	0.045196313
63	0xb968c63c	-0.00022199092
64	0x3e16c2f7	0.1472281
65	0x3c021f97	0.007942102
66	0x3d9807a5	0.07423333
67	0x3e16ea0c	0.1473772
68	0xbe351a9c	-0.17685932
69	0x3e127cb6	0.14305386
70	0x3e0ef6ec	0.1396138
71	0x3dd123ff	0.10211944
72	0x3cb98a9c	0.022649102
73	0xbe1bf84b	-0.15231435
74	0x3dc222a6	0.09479265
75	0xbd9c9853	-0.07646241
76	0xbd20a0d0	-0.039215863
77	0x3e9fd022	0.3121348
78	0xbdd54303	-0.10413172
79	0xbe52bf84	-0.2058087
80	0x3e18303f	0.14862154
81	0xbe7eb9ce	-0.24875566
82	0xbe66de1c	-0.22545666
83	0xbde7516f	-0.11294829
84	0x3e1e087d	0.15432926
85	0x3dde8ccc	0.108666986
86	0x3de81f60	0.11334109
87	0x3d5551c7	0.052079942
88	0xbd82bbc0	-0.06383467
89	0xbcd1141c	-0.025522284
90	0xbde7af00	-0.113126755
91	0xbdfb5bcf	-0.122733705
92	0x3eb0ff3d	0.3456973
93	0xbdad3987	-0.08458238
94	0x3edc8e0c	0.43077123
95	0xbdb03d9b	-0.086055
96	0xbe1c2309	-0.1524774
97	0x3debc10a	0.11511429
98	0x3dc89199	0.097933955
99	0x3c9e7786	0.019344103
100	0x3e2fd333	0.1717041
101	0x3e882c76	0.2659642
102	0xbd153523	-0.03642763
103	0x3dda5188	0.10660082
104	0x3e8104c8	0.2519896
105	0x3e4dba11	0.2009051
106	0xbe6987b4	-0.22805673
107	0xbe235950	-0.15952039
108	0x3e8c6636	0.2742173
109	0xbd124471	-0.035709802
110	0xbe829727	-0.25505945
111	0x3e6b5264	0.22980648
112	0xbea14f68	-0.31505895
113	0x3e90f71d	0.28313532
114	0x3e2cbf7a	0.16869918
115	0x3df25269	0.11832125
116	0xbe0a24b2	-0.1349056
117	0x3ecfab0f	0.40560195
118	0xbe00fb0e	-0.1259577
119	0xbda1958f	-0.07889854
120	0xbe15ac90	-0.14616609
121	0xbe7121e6	-0.23548087
122	0x3e771bc7	0.2413169
123	0xbcf6ccc4	-0.030126937
124	0x3d4f926c	0.05067675
125	0xbd068bd0	-0.03284818
126	0xbe804801	-0.25054935
127	0xbe42a0eb	-0.19006698
128	0xbea68020	-0.32519627
129	0xbe60b511	-0.21944071
130	0x3e07bc4e	0.13255426
131	0x3e2bef7b	0.16790573
132	0xbe8ac5e8	-0.27104115
133	0xbe611847	-0.21981917
134	0xbe18a7af	-0.14907716
135	0xbe166c26	-0.14689693
136	0x3e3b295f	0.182775
137	0xbe1c3609	-0.15254988
138	0xbe949fe7	-0.29028246
139	0x3d3659a2	0.044519074
140	0x3df4b4db	0.11948558
141	0xbe3b2342	-0.18275169
142	0xbd00c32e	-0.031436138
143	0xbe8aa6e0	-0.2708044
144	0xbde3843f	-0.11109208
145	0x3e9a277e	0.30108255
146	0x3e32d49a	0.17463914
147	0x3c2e290b	0.010629903
148	0xbc8dba07	-0.017300619
149	0x3e98b0d2	0.29822403
150	0xbe4da968	-0.20084155
151	0x3cbe4131	0.023224445
152	0xbe1dd4a5	-0.15413149
153	0x3d96d248	0.07364327
154	0xbe7a6e20	-0.24456072
155	0x3d8feaba	0.070271924
156	0x3dc7bf0c	0.09753236
157	0xbb82fb68	-0.003997255
158	0xbdc73006	-0.097259566
159	0x3d4b449e	0.049625985
160	0xbd81f82a	-0.06346162
161	0xbe1a7915	-0.15085252
162	0x3c18581a	0.009298349
163	0xbcd26205	-0.025681505
164	0xbe5d2e25	-0.21599634
165	0x3e9ecfe3	0.3101798
166	0x3e8dae02	0.2767182
167	0x3c97b44c	0.01851859
168	0x3f026411	0.5093394
169	0x3e0e5043	0.13897805
170	0x3dc85d52	0.097834244
171	0xbea61772	-0.32439762
172	0x3e521146	0.20514402
173	0xbe9684b6	-0.29398125
174	0xbdcaccf2	-0.099023715
175	0x3d741a83	0.059595596
176	0x3de83754	0.11338678
177	0xbdff4428	-0.12464172
178	0x3d4ce420	0.050022244
179	0xbe995c42	-0.299532
180	0xbe6da2a3	-0.23206572
181	0xbbffd260	-0.007807061
182	0xbea5995a	-0.3234356
183	0x3e843b7f	0.25826642
184	0x3da29722	0.079389825
185	0x3e1c9c41	0.15293981
186	0xbd113bc6	-0.035457395
187	0x3e6e075e	0.23244998
188	0x3c8eff14	0.017455615
189	0xbd0c669e	-0.03427755
190	0x3d34e87e	0.044167034
191	0x3e1e4043	0.15454201
192	0x3e723aa7	0.23655187
193	0xbc70b92c	-0.014692586
194	0x3e0dbee8	0.13842356
195	0x3e2c7f1c	0.16845363
196	0xbe5359d8	-0.20639741
197	0xbad98550	-0.0016595516
198	0xbd9b037a	-0.075690225
199	0xbb84b92b	-0.004050394
200	0x3e1868a2	0.14883664
201	0x3ea9c2ea	0.3315652
202	0xbd674555	-0.056462605
203	0x3d4dd0fe	0.05024814
204	0x3df1523b	0.11783262
205	0xbdbc23c0	-0.09186506
206	0xbd9a749f	-0.07541775
207	0xbed09ca0	-0.40744495
208	0x3e8c7a2b	0.27436957
209	0x3e82c791	0.25542882
210	0x3e9f3d2e	0.31101364
211	0xbe251cf0	-0.1612432
212	0xbe38a676	-0.1803225
213	0x3c82aed9	0.015952514
214	0xbe8d2d91	-0.27573827
215	0x3d882b2b	0.06648859
216	0x3ea374fd	0.31925192
217	0xbdca23c7	-0.09870105
218	0x3e31a7f9	0.17349233
219	0xbe8e5c7c	-0.27804935
220	0xbd8f8235	-0.07007257
221	0xbea083c4	-0.3135053
222	0x3e1ac410	0.15113854
223	0x3e259cea	0.16173139
224	0x3d45dad5	0.048304398
225	0x3e05fd31	0.13084866
226	0xbe3b957e	-0.18318745
227	0xbe8aaff5	-0.2708737
228	0x3dd65fcd	0.10467491
229	0xbe176682	-0.14785197
230	0x3e20dcb0	0.15709186
231	0xbd25ae70	-0.04044956
232	0xbeac22ea	-0.33620387
233	0x3bf38ab5	0.0074323067
234	0xbdbe3da4	-0.09289101
235	0x3d399065	0.04530372
236	0xbe0ead0d	-0.13933201
237	0xbe9c2160	-0.30494213
238	0x3e8e6831	0.27813867
239	0x3dbf96a8	0.09354907
240	0x3c0e9c9f	0.008704334
241	0x3dd0f129	0.10202248
242	0xbe0acdb3	-0.1355503
243	0x3db9a358	0.090643585
244	0x3e8cbb73	0.27486762
245	0x3df07f40	0.11743021
246	0xbb50b41e	-0.003184564
247	0xbe45268e	-0.19252989
248	0xbd2ebf73	-0.04266305
249	0xbec79013	-0.38977107
250	0x3e72c952	0.2370961
251	0x3d720782	0.05908919
252	0xbe9e7259	-0.30946615
253	0xbd8c4696	-0.06849401
254	0x3e25f4f9	0.16206731
255	0x3d56d19a	0.052445985

base.mlp.fc2.0.0.bias f4 [64]
0	0xbd807e80	-0.06274128
1	0xbc8aaf8b	-0.016929409
2	0x3cc292ca	0.023751635
3	0xbc2f5f07	-0.010703809
4	0xbd2fe0cf	-0.042939004
5	0xbcfad00a	-0.030616779
6	0xbd15d265	-0.0365776
7	0xbc9c8a65	-0.01910896
8	0xbcd50189	-0.026001709
9	0x3cde9b4c	0.02717366
10	0x3c9d790b	0.019222757
11	0xbc694a9b	-0.014238979
12	0xbd26210a	-0.040558852
13	0xbd188cff	-0.03724384
14	0x3c9b8589	0.018984573
15	0xbd6cc35c	-0.057803497
16	0xbdaf2949	-0.085527964
17	0xbca44a1a	-0.020054866
18	0x3cdde2f1	0.027085753
19	0xbc88bf67	-0.01669283
20	0x3d8f809f	0.070069544
21	0xbdee84c5	-0.116464175
22	0x3c85ac01	0.01631737
23	0xbc2f15c3	-0.010686341
24	0xbdfc4939	-0.123186536
25	0x3c80c444	0.015718587
26	0xbd35eccc	-0.04441528
27	0xbd6c766b	-0.05773012
28	0xbc7ed43b	-0.015553529
29	0x3ba478df	0.005019292
30	0xbd8d6861	-0.06904674
31	0xbdaa535c	-0.08316681
32	0xbd36956e	-0.0445761
33	0xbd671a56	-0.0564216
34	0xbd196eb9	-0.03745911
35	0xbc374848	-0.011186667
36	0xbd58dc61	-0.052944545
37	0xbc72884a	-0.014803002
38	0x3cb92076	0.022598486
39	0xbc7bf9ed	-0.015379411
40	0x3cd15d30	0.02555713
41	0xbd82619f	-0.06366276
42	0x3d035068	0.032059103
43	0x3cd9bb02	0.02657843
44	0x3cccf2d3	0.025018131
45	0xbd7f6d25	-0.062359948
46	0xbd8a2c38	-0.06746715
47	0xbd5126fb	-0.051062565
48	0xbb1c8863	-0.0023885004
49	0xbc8347c8	-0.016025439
50	0x3c49d5ef	0.012319072
51	0x3c7bb947	0.015363998
52	0x3d80ab4a	0.06282671
53	0xbd04d7b0	-0.032432258
54	0xbb5e9c62	-0.0033967723
55	0xbd01d6bf	-0.03169894
56	0xbd51e6bd	-0.05124544
57	0xbd4a6fa6	-0.049422882
58	0xbdd3952a	-0.10331185
59	0xbc8a06e4	-0.016848989
60	0xbd004fd9	-0.03132615
61	0xbc5c03a8	-0.013428606
62	0xbd5e5d33	-0.0542881
63	0x3b1b9ffe	0.0023746486

base.mlp.fc2.0.2.weight f4 [64]
0	0x3f801eeb	1.0009435
1	0x3f834855	1.0256449
2	0x3f82f8e6	1.0232208
3	0x3f8f9595	1.1217524
4	0x3f8a8258	1.0821028
5	0x3f85a77d	1.0441738
6	0x3f8809da	1.0628006
7	0x3f8426cf	1.0324343
8	0x3f84a8dd	1.0364033
9	0x3f9a2e4f	1.2045382
10	0x3f99a1bf	1.2002486
11	0x3f7b9ff7	0.9829096
12	0x3f93116b	1.148969
13	0x3f88c28f	1.0684375
14	0x3f7f51c5	0.99734145
15	0x3f793e04	0.97360253
16	0x3f8217a3	1.0163463
17	0x3f85c066	1.044934
18	0x3f92c1af	1.1465358
19	0x3f8e0afd	1.1097103
20	0x3f8605eb	1.0470556
21	0x3f83c353	1.0293983
22	0x3f82c4ec	1.0216346
23	0x3f809179	1.0044395
24	0x3f7f8dd3	0.9982578
25	0x3f81d2b6	1.0142429
26	0x3f7db26d	0.9910038
27	0x3f87ca2f	1.0608577
28	0x3f8b38ea	1.0876744
29	0x3f803c77	1.0018452
30	0x3f803144	1.0015035
31	0x3f802862	1.0012324
32	0x3f7beaa6	0.9840492
33	0x3f8193ab	1.012319
34	0x3f861b18	1.0477018
35	0x3f8b0cd5	1.0863291
36	0x3f873abd	1.05648
37	0x3f819548	1.0123682
38	0x3f91e5a8	1.139821
39	0x3f8820d9	1.0635024
40	0x3f8850bc	1.0649638
41	0x3f841581	1.0319062
42	0x3f839677	1.0280293
43	0x3f8b73a2	1.0894663
44	0x3f86084b	1.0471281
45	0x3f823e05	1.0175177
46	0x3f77cd5b	0.9679772
47	0x3f7bae12	0.98312485
48	0x3f7cacfc	0.98701453
49	0x3f792b74	0.9733193
50	0x3f88404e	1.0644624
51	0x3f84ff7a	1.0390465
52	0x3f8e95fd	1.1139523
53	0x3f76f2eb	0.96464413
54	0x3f85c2fc	1.045013
55	0x3f7f6446	0.9976238
56	0x3f7ca8f1	0.98695284
57	0x3f851500	1.0397034
58	0x3f76eca4	0.96454835
59	0x3f883f5a	1.0644333
60	0x3f8081ea	1.0039647
61	0x3f843a86	1.033036
62	0x3f7cd0f6	0.9875635
63	0x3f912c4c	1.1341643

base.mlp.fc2.0.2.bias f4 [64]
0	0xbd15b1c6	-0.03654649
1	0xbc1cc380	-0.009568095
2	0x3c061ae9	0.008185127
3	0xba9831f3	-0.0011611566
4	0x3abbda53	0.0014332033
5	0xbbd196dc	-0.0063961577
6	0xbbedc5c7	-0.007256243
7	0xba9db06c	-0.0012030727
8	0xb993e172	-0.00028205995
9	0xbae0a1eb	-0.0017138099
10	0x3ad88bc5	0.0016521147
11	0x3a794035	0.0009508164
12	0x3bdde66e	0.006771854
13	0xbd086926	-0.033303402
14	0x3c324b1f	0.010882168
15	0x3c1c1cf7	0.00952839
16	0x3bd72ca6	0.006566602
17	0xbc4a0ce5	-0.012332176
18	0x3a7aee05	0.0009572211
19	0xbbbb7739	-0.0057209996
20	0x3cca38bc	0.024685256
21	0x3ca6c50c	0.020357631
22	0x3bb6e9e1	0.0055820798
23	0xbca216f9	-0.019786345
24	0xbba2bb25	-0.004966157
25	0x3b362e3d	0.0027798556
26	0xbb0ec378	-0.002178399
27	0x3bee67da	0.0072755637
28	0xbba8ec07	-0.00515509
29	0x3bbd1c10	0.0057711676
30	0x3c4dee75	0.01256906
31	0x3c0d6121	0.008629114
32	0x3b20cda8	0.0024536643
33	0xbc63faa4	-0.013914738
34	0xbd0f6434	-0.03500767
35	0x3b9b9182	0.0047475705
36	0xbb8f45f7	-0.004372354
37	0x3d0789e2	0.03309048
38	0xbad23156	-0.0016036432
39	0x3b1f74ed	0.0024331168
40	0xbd12c694	-0.03583391
41	0xbc830798	-0.015994832
42	0xbc1bba22	-0.009504827
43	0x39a6eb33	0.00031837224
44	0x3aec067d	0.0018007305
45	0xbd2ae707	-0.04172423
46	0xbc1be930	-0.009516045
47	0x3ca1e303	0.019761568
48	0xbd1d95ba	-0.03847287
49	0x3cea85a5	0.02862818
50	0x3cba0d11	0.022711309
51	0xbba0c488	-0.004906241
52	0xbb1482fc	-0.002266108
53	0x3ce3804a	0.027771134
54	0xba5767d8	-0.0008217073
55	0x3b741f6f	0.0037250181
56	0x3b51baa4	0.0032002116
57	0x3b2e87cf	0.0026631241
58	0xbc8ed529	-0.017435627
59	0xbc83c96f	-0.016087262
60	0x3c88b364	0.016687103
61	0xbb234a63	-0.0024916164
62	0xbc15340d	-0.009106648
63	0xbc01e9f8	-0.007929318

act.action_out.linear.weight f4 [2, 64]
0	0x3ce4f2f4	0.02794788
1	0x3d104798	0.035224527
2	0x3c70a113	0.014686841
3	0xbdb561f4	-0.08856574
4	0x3d5dc161	0.0541395
5	0xbd0bd361	-0.034137134
6	0xbd37baf0	-0.044856012
7	0x3d123809	0.03569797
8	0x3d282349	0.041049276
9	0xbe1b104d	-0.15142937
10	0xbe19ddf5	-0.15026076
11	0xbb906d75	-0.0044075795
12	0x3dc1e3a3	0.094672464
13	0x3d86bfa0	0.06579518
14	0x3c46870c	0.012117159
15	0x3be2a1d6	0.006916265
16	0xbcfb96d6	-0.030711573
17	0xbd19e219	-0.03756914
18	0xbde0ab4e	-0.10970174
19	0xbdbab6d6	-0.091169044
20	0xbd4b8f40	-0.04969716
21	0x3d246dcf	0.040143784
22	0x3cd54e4a	0.026038308
23	0xbce8b0e2	-0.028404657
24	0xbca8beed	-0.020598853
25	0xbc42b1f4	-0.011883248
26	0x3bdf1b38	0.0068086646
27	0x3d3cf443	0.046131384
28	0xbd8e25a2	-0.06940772
29	0x3c665f53	0.014060813
30	0x3c828cd8	0.0159363
31	0xbcc07897	-0.023495002
32	0xbb061fe8	-0.0020465795
33	0xbbd8a733	-0.0066117286
34	0x3d1a5c6b	0.037685793
35	0x3d944b7a	0.072409585
36	0xbd4a8e3a	-0.049452044
37	0xbc25b59e	-0.010114102
38	0xbde07dfd	-0.1096153
39	0x3d50d532	0.05098457
40	0x3d820fa3	0.06350639
41	0xbcf91600	-0.030405998
42	0xbd125360	-0.035724044
43	0x3db2cc9e	0.08730434
44	0x3d462dfa	0.04838369
45	0x3d0fb4f3	0.035084676
46	0xba0dbffd	-0.00054073316
47	0xbbfa9914	-0.007647643
48	0x3d13d3f4	0.036090806
49	0xbc43fcaf	-0.0119621
50	0x3d5531e3	0.05204953
51	0xbd20f63c	-0.039297327
52	0x3daa7bcf	0.08324396
53	0x3bfec91e	0.00777544
54	0x3d3ea6f0	0.046545923
55	0xba207781	-0.0006121323
56	0x3cb53fbe	0.022125121
57	0x3d2fe6a3	0.04294456
58	0x3bd51a93	0.006503412
59	0x3d7aff3a	0.06127856
60	0x3cc3b557	0.02389018
61	0xbcb42615	-0.021990815
62	0x3bdb01d1	0.006683566
63	0xbdd51423	-0.104042314
64	0xbce588a5	-0.028019259
65	0xbd1336ec	-0.03594105
66	0xbc75b2eb	-0.014996271
67	0x3db303e2	0.08740975
68	0xbd660735	-0.056159217
69	0x3d1346dd	0.035956252
70	0x3d38ae8d	0.04508834
71	0xbd1b3174	-0.03788896
72	0xbd1d13ee	-0.038349085
73	0x3e1be92f	0.15225671
74	0x3e1984f1	0.1499212
75	0x3b16ec15	0.00230289
76	0xbdc2f166	-0.09518699
77	0xbd8b3c8e	-0.06798659
78	0xbc32a55c	-0.010903683
79	0xbbb01736	-0.0053738607
80	0x3ceec729	0.029147701
81	0x3d136553	0.035985302
82	0x3de4f89b	0.1118023
83	0x3dbf5542	0.093424335
84	0x3d462b7c	0.048381314
85	0xbd2bfc7f	-0.041988846
86	0xbcca3a0f	-0.024685888
87	0x3cd93f1c	0.02651935
88	0x3cab94e4	0.02094502
89	0x3c43f2a5	0.011959706
90	0xbbe0f605	-0.0068652653
91	0xbd37a948	-0.044839174
92	0x3d8add71	0.06780518
93	0xbc5f001d	-0.013610867
94	0xbc4f6fa5	-0.0126608955
95	0x3ccb30e6	0.02480359
96	0x3b899bf4	0.0041994993
97	0x3b852153	0.0040628104
98	0xbd27c015	-0.040954668
99	0xbd9a1e39	-0.07525296
100	0x3d4d420c	0.050111815
101	0x3c275a39	0.010214382
102	0x3de0e7af	0.1098169
103	0xbd4d44b2	-0.05011434
104	0xbd84587d	-0.0646219
105	0x3cfaba46	0.0306064
106	0x3d204299	0.039126012
107	0xbdb7d144	-0.08975461
108	0xbd407065	-0.046982188
109	0xbd125a86	-0.03573086
110	0x39b65379	0.00034775937
111	0x3bf48189	0.007461731
112	0xbd116ed6	-0.035506092
113	0x3c61aa99	0.013773584
114	0xbd52363e	-0.05132126
115	0x3d23d1e8	0.039995104
116	0xbdaa3dac	-0.08312544
117	0xbc3939f6	-0.011305323
118	0xbd33822e	-0.04382532
119	0xba867095	-0.0010256941
120	0xbcbc180f	-0.02296069
121	0xbd324bc3	-0.043529283
122	0xbb9e690c	-0.0048343
123	0xbd6e6bfd	-0.058208454
124	0xbcc5aa77	-0.024129136
125	0x3ccf86c0	0.025332808
126	0xbb7b1dc0	-0.0038317293
127	0x3ddb978e	0.10722266

act.action_out.linear.bias f4 [2]
0	0x3ab21425	0.0013586326
1	0xbab2145a	-0.0013586388
