light_mappo-main/results/MyEnv/MyEnv/mappo/check/run46/models/critic.pt (torch, 52149 bytes, 15 tensors)

base.feature_norm.weight f4 [45]
00000000: af59 813f 5acf 743f b297 843f daa4 783f
00000010: 8d2f 803f 0b5b 7f3f f05e 763f a42a 703f
00000020: 924f 803f e00c 7a3f 46ed 833f 696c 783f
00000030: bae0 6d3f 9413 863f 929f 7e3f a24c 853f
00000040: c4b2 833f 9e40 803f 5acf 873f a02e 803f
00000050: 79be 713f b639 813f 45b3 843f 2978 743f
00000060: 8882 833f 377d 733f bfb7 7b3f 6803 803f
00000070: d87e 813f eade 733f cef5 863f a5c5 7c3f
00000080: 280a 7b3f 928c 863f 8370 763f 9584 6f3f
00000090: a758 7f3f 5f72 7e3f ecbe 793f e693 773f
000000a0: 2ac7 863f 7a31 823f 094c 773f b9b6 783f
000000b0: a7aa 793f
1.0105494 0.95628893 1.0358794 0.97126544 1.0014511 0.99748296 0.96238613 0.93815064
1.0024283 0.97675896 1.0306785 0.9704042 0.9292103 1.0474725 0.99462235 1.0414011
1.028893 1.001972 1.0610154 1.0014229 0.94431263 1.0095737 1.0367209 0.9549585
1.027421 0.9511294 0.9832725 1.000104 1.0116835 0.95262015 1.0543764 0.9873908
0.9806237 1.0511649 0.9626543 0.9356168 0.9974465 0.99393266 0.9755695 0.9671005
1.052953 1.0171349 0.96600395 0.9715381 0.9752602

base.feature_norm.bias f4 [45]
00000000: c24c 3dbd b57f d4bc e557 9d3c 79dc 18bd
00000010: d81d dbbc 7b59 d4bc b6ba 023d 3a58 003d
00000020: c23a 213d 0e73 db3c 66fd 1abd ea4e acbc
00000030: accc 9f3d 23a3 f2bc 5114 a1bd febf 983c
00000040: 1487 69bd 3648 5ebd 0937 d63c 0bed 0ebd
00000050: ae0f bb3c f4c1 5a3c 21a8 083d dc4e 2cbd
00000060: afdb 0abd 2cde c1bc 1bb4 123d 5168 603c
00000070: b42b 81bc f9fe 593d 17b0 48bc 555b bebc
00000080: 6686 e5bc 1993 47bd fc57 df3c 9601 7f3c
00000090: ab44 62bc 3b18 abbc b973 0c3c 593e 81bd
000000a0: 7c90 1cbd 120f 5cbd ae5d a0bc d5a4 ffbb
000000b0: 7522 9dbd
-0.04621578 -0.025939802 0.01920695 -0.037319634 -0.026747629 -0.025921574 0.031916343 0.03133414
0.039362676 0.02678826 -0.037839316 -0.021033723 0.0780271 -0.029618805 -0.07865203 0.018646237
-0.057013586 -0.054268084 0.02614929 -0.03489403 0.022834625 0.013351906 0.033363465 -0.042067394
-0.033900913 -0.02366551 0.035816293 0.013696746 -0.01576791 0.053221676 -0.012249014 -0.02323691
-0.028018188 -0.048724268 0.027263634 0.015564343 -0.013810317 -0.020885577 0.008572512 -0.0631072
-0.03822373 -0.05372531 -0.01957592 -0.007801632 -0.07672588

base.mlp.fc1.0.weight f4 [64, 45]
00000000: 25f0 3b3d ef11 5abe f6bb d73d cb01 33bd
00000010: a183 ccbd 4a01 9bbc 8f8f 473e 57b4 963e
00000020: 14f4 ad3e fddf 523d 1915 503e 882e 663b
00000030: 4309 5abe 03ad 6dbd cb7d 2f3e 7dc1 bfbe
00000040: 0925 0c3d ccef c53c 18b6 a6bd ffd5 f03d
00000050: e36d 043e cee6 013e 525d dfbe 73ab 06be
00000060: bd16 c7be 5fab e4bd 76d7 c63c 8d7c 0b3e
00000070: 4275 e2bd 29a5 dfbd f786 17be 8b31 f33d
00000080: 0328 1abe 9cec 47be b32d 073f 23f4 a0bc
00000090: 8bb9 1a3e 8ea9 3cbe 0baa e1bb f598 e2bd
000000a0: c8f2 8bbd 76a9 b53d 035b bbbe 9909 7d3d
000000b0: b5f4 8c3d ac0a 3f3d 2a66 8d3d 9d38 0dbe
000000c0: c41d 323e 3768 793c 8858 38be 6057 ce3d
000000d0: e129 ac3c c237 25bd e687 653d 5560 263e
000000e0: 27f9 8cbc 7ac4 c93d a270 e83d 20be 79bd
000000f0: a8c5 983d 9b2e aabd 0946 3cbe ba87 6b3e
00000100: dc14 16bd a3fe 4a3e 5f83 45be 8aa8 41bd
00000110: 65e4 b53e 4044 60be 8784 e4bd 6012 0ebe
00000120: cbef c7be c3d9 213e b619 acbd 3b7d 9ebd
00000130: c877 47bd 6cf7 a13e bd4c 05bb 00b8 c13e
00000140: 8471 5dbe 42f2 523d f840 183e 2de9 1dbe
00000150: 8570 04bd 44cd 65bd 111a be3b f447 543b
00000160: 5287 0bbd cfed 5f3e 7f38 e63d 6f3d 803d
00000170: 5fe0 7ebe b7c6 553e a6c3 d3bd 6cb6 0e3d
00000180: d457 ffbc 1b77 c43e 5bcc 833c 6c9a cf3d
00000190: 0437 673d 2882 a83d e665 923e a505 29be
000001a0: cbd0 cd3e cd43 a73d 8e3c 6bbe 5cc3 7abe
000001b0: 2263 e03d 16ef 18be a8bd 4c3d 3a13 36bc
000001c0: 6540 6d3e f4fc 0fbe 16ca 14bd 0619 9abd
000001d0: cce4 743e 89ec 4bbe 1fd5 7bbd 218f 6fbc
000001e0: 1dbe 6fbd fa34 013e 4751 eebd e870 98be
000001f0: 3645 51bd 28c9 133e f100 a33e 2f9f e83e
00000200: b603 46be d684 2dbe 29c0 ce3e 4433 1f3d
00000210: f1f6 68be 86d7 933d a37b 89be 9d28 9bbc
00000220: 8a69 23be d9fa 8a3e 0473 883e 894f 083e
00000230: 71cd 993d c6bb f43d 8718 583e fef5 603e
00000240: 9e54 1bbe 3d8e d0be ab67 28be 66a3 883e
00000250: 4554 423d 7cce 7d3d 64fc ef3e ee7f c6be
00000260: 81c7 c43d f7b9 09bd 0ded 91bd 5d1d f1bd
00000270: 5366 3fbe 6684 85bd a93e 72be c630 15be
00000280: 250e abbe 50a7 7bbe b3f3 0c3c e3bd 8f3e
00000290: 6b70 d6bd 550f 853e 7e1f 8d3e 00be c4bd
000002a0: 9c48 6f3d 7f99 92bc 0a14 23be 0767 29be
000002b0: 2d57 253c bb2a 5bbe 52f3 d63d 2c47 5abd
000002c0: 5eb1 b6bd c1a9 ba3b 01f4 ce3d a1e0 86bd
000002d0: 7962 c43d 8bf7 a23e 6534 32be 950d 65bd
000002e0: a266 3ebd e56c 4d3d 9c16 3d3d 2faa dbbe
000002f0: 8ae8 093e 2877 c1be db1b 97be 5f21 673e
00000300: b4ad 213e 62a6 14be cd15 d8be 83b4 3e3e
00000310: 20cc c63c 1cec f2bd 52a0 e9bd 3dad ccbc
00000320: b7ee 9abe 91ed c23d a3ca 16bc 073d 64bd
00000330: 28bf a6bd dfe8 9abd f311 b2bb ccd5 a53e
00000340: 7f00 8e3e 3c54 453e 1d76 a8be 24da 063e
00000350: 3c31 57bd 2180 b63d de8f 463e 57ac a5bc
00000360: f9c4 55bd c748 823e ade2 723c 4410 8b3e
00000370: a193 b3bd 2e24 9e3d e2e0 0f3e a120 59bb
00000380: 9404 6dbe e977 403d 87fd 8cbe 5b48 abbd
00000390: 4ec8 183c 3c2f 4d3e 525c f43b 052b e23d
000003a0: 7db6 433e 96b3 c8bd 2edf 76be cd24 653e
000003b0: 26cc febd 2314 94be 78ab 923e 5b20 ac3c
000003c0: 1838 253d cfe5 91bd 99e8 56be bd5c 11be
000003d0: dd99 5ebe 76c7 30be b760 03be 9b8a 17bd
000003e0: 6094 7e3d cdc0 5c3d 20b1 ff3d 7a13 623c
000003f0: 9023 ac3e 4188 b13c f6df 91be 530a 91be
0.045883317 -0.21295904 0.105338976 -0.04370288 -0.09986044 -0.018921513 0.19488357 0.29434463
0.3397528 0.051483143 0.20320548 0.003512295 -0.21292596 -0.058026325 0.1713783 -0.37452307
0.034215007 0.024162196 -0.081402004 0.117595665 0.12932543 0.12685701 -0.43625885 -0.1315134
-0.38884535 -0.11165499 0.024272662 0.13621731 -0.110575214 -0.10920174 -0.14797579 0.11874684
-0.15054326 -0.19523853 0.52804106 -0.019647663 0.15109842 -0.18424055 -0.006886726 -0.110643305
-0.06833416 0.08870213 -0.36592874 0.06177673 0.06882612 0.046641037 0.06904252 -0.13791128
0.17394167 0.015222601 -0.18002522 0.10075259 0.021016063 -0.040336378 0.056037806 0.16247685
-0.017208649 0.09851928 0.11349608 -0.060972333 0.07459575 -0.083096705 -0.18386091 0.23000994
-0.036640987 0.19823699 -0.19288395 -0.047279872 0.35525814 -0.21901035 -0.1115809 -0.13874197
-0.39050135 0.15805726 -0.084033415 -0.077387296 -0.048698217 0.3163408 -0.002033993 0.37835693
-0.21625334 0.051500566 0.14868534 -0.15420981 -0.03233387 -0.05610396 0.005801447 0.003239152
-0.0340646 0.2186806 0.112412445 0.062617175 -0.24890278 0.20876585 -0.10340051 0.03484194
-0.03116981 0.3837212 0.016088655 0.101368755 0.05644895 0.0822795 0.28593367 -0.1650606
0.4019836 0.08167229 -0.22972319 -0.24488586 0.10956408 -0.14934954 0.049985558 -0.011112982
0.23169096 -0.14061338 -0.036325537 -0.07524304 0.23915404 -0.1991445 -0.061482545 -0.014621527
-0.058530916 0.12617865 -0.11636596 -0.2977364 -0.051091395 0.14432204 0.31836656 0.45433947
-0.19337353 -0.16945204 0.40380982 0.03886725 -0.2275045 0.07218842 -0.2685214 -0.018940264
-0.15958229 0.27144507 0.2665025 0.1331159 0.07509888 0.119498774 0.21103106 0.21968839
-0.15168998 -0.4073352 -0.16445796 0.26687163 0.047443647 0.061964497 0.46872246 -0.38769478
0.09608365 -0.033624616 -0.07125292 -0.11773179 -0.18691377 -0.065193936 -0.23656715 -0.14569387
-0.3340923 -0.24575543 0.008603024 0.2807456 -0.10470661 0.2598826 0.2756309 -0.09606552
0.058418855 -0.017895458 -0.15925613 -0.16543208 0.010091585 -0.21403019 0.104956284 -0.05329053
-0.08920549 0.005696506 0.10105134 -0.06585813 0.09589095 0.31829485 -0.174028 -0.055921156
-0.046484597 0.050152678 0.04616414 -0.42903277 0.13467613 -0.37786222 -0.2951344 0.22571324
0.15788919 -0.14516595 -0.42204133 0.18623547 0.024267256 -0.118614405 -0.11407532 -0.02498495
-0.3026025 0.095179684 -0.009203586 -0.055722263 -0.08141929 -0.07563948 -0.0054342686 0.32389677
0.27734753 0.19270414 -0.32902613 0.13169152 -0.052537188 0.089111574 0.19390818 -0.02022378
-0.0521898 0.2544615 0.0148245515 0.27160847 -0.08768392 0.077217445 0.1405063 -0.003313102
-0.23146278 0.046989355 -0.27537176 -0.0836341 0.0093251 0.2003755 0.0074572945 0.110433616
0.19112583 -0.09799878 -0.24108574 0.2237732 -0.12441282 -0.28921613 0.28646445 0.021011522
0.0403367 -0.07123911 -0.20987166 -0.14195533 -0.21738382 -0.17263588 -0.12829863 -0.03699742
0.06215322 0.053894807 0.12484956 0.013798589 0.33620882 0.021671416 -0.2849118 -0.2832819

base.mlp.fc1.0.bias f4 [64]
00000000: 472b 3c3d 0c35 4ebd 11b7 a63d 3d9a 143d
00000010: 45a7 d53d 4cc5 f2bc 71db 323d e001 b23c
00000020: c2d5 b23c 7cec cf3c a2bd bf3c 1f38 553d
00000030: 2227 f9bc aaf3 e73c 891d 3e3d a69f 5fbd
00000040: 0bc2 39bc d003 aa3c 5762 2dbd 9630 be3c
00000050: 8d48 8f3d 8cd1 013d c645 15bd 1f43 9b3c
00000060: a6d8 22bd eeab 3cbc 4083 853d d4de 11bd
00000070: 5eba 49bd 0561 a1bd 64b0 2d3d a740 d33b
00000080: 72bf 6e3a 2da1 153d 64f2 3a3d 430b 8c3c
00000090: 2ab8 f23c 037b 2e3d 5f35 c2bc 5dc5 8b3d
000000a0: ab65 94bd c035 e5bb b12f 103d 9a76 363d
000000b0: 21d1 763d 0d30 413b 9300 0abd cf6c 17bd
000000c0: ce89 213d b643 213d 6936 16bd b8a3 2abd
000000d0: f31c 2e3d 1680 583d 4a9d edbc 23de b7bc
000000e0: 8624 893c 878e 76bd 864f 35bd 2101 63bd
000000f0: 81c6 04bd 3783 123d 23eb 8cbc 9ad5 cebc
0.04593971 -0.05034356 0.08140386 0.036279906 0.10432295 -0.029635094 0.043666307 0.02172941
0.021830443 0.02538132 0.023405854 0.052055474 -0.030414168 0.02831443 0.046414886 -0.054595612
-0.011337767 0.020753771 -0.042330112 0.023216527 0.0699626 0.03169398 -0.036443494 0.018952904
-0.039757393 -0.011515601 0.065191746 -0.035612896 -0.04925 -0.07879833 0.042404547 0.006446916
0.0009107507 0.036530662 0.045641318 0.017095214 0.029628832 0.042597782 -0.02370709 0.068247534
-0.07245954 -0.006994933 0.035201732 0.0445467 0.060258035 0.0029478103 -0.033691954 -0.036969002
0.03943806 0.039371215 -0.036672983 -0.04166004 0.042508077 0.052856527 -0.029005665 -0.02244479
0.016741049 -0.06019452 -0.044265293 -0.055421 -0.03241587 0.035769667 -0.017201966 -0.025248338

base.mlp.fc1.2.weight f4 [64]
00000000: 97f9 823f 68d2 843f d5d6 873f 39bb 833f
00000010: f514 7f3f 7483 763f 3c27 733f a840 793f
00000020: 2304 7b3f 0955 743f 66d2 753f 5905 773f
00000030: 43e1 763f 8f9e 7f3f 2bb5 843f f38d 843f
00000040: 56b2 823f 06b4 6e3f 269f 713f fd3e 723f
00000050: c22c 893f cbcc 773f 0ea2 6f3f 443d 883f
00000060: 2137 803f 2926 853f 92ec 7d3f f320 833f
00000070: 98dc 753f 088f 833f b4b4 793f baf7 753f
00000080: 470a 853f 4b8d 713f 2f93 763f 005e 833f
00000090: 481f 773f 2b77 793f c795 853f 4191 873f
000000a0: 95d3 773f 1d7a 7f3f 7e19 833f fc46 7f3f
000000b0: feba 793f a28a 743f e846 843f 2432 763f
000000c0: b3d4 823f adee 773f b2e6 7f3f 32d8 6e3f
000000d0: 6ec9 823f e900 7c3f 9866 753f 77e9 753f
000000e0: dee8 813f 191d 853f e574 803f 3928 833f
000000f0: 34c2 873f 85f3 7e3f 69c7 833f c5f9 823f
1.0232419 1.0376711 1.0612437 1.0291511 0.9964135 0.9629433 0.9498174 0.9736428
0.9805319 0.95442253 0.9602417 0.96492535 0.9643747 0.99851316 1.0367788 1.035582
1.0210674 0.93243444 0.94383466 0.9462736 1.0716784 0.96796864 0.9360665 1.0643697
1.0016824 1.040227 0.991891 1.024443 0.96039724 1.0278025 0.97541356 0.96081126
1.0393761 0.9435622 0.96318334 1.0263062 0.96532106 0.9744746 1.0436333 1.0591203
0.96807224 0.99795705 1.0242155 0.9971769 0.9755095 0.95524037 1.0334139 0.9617026
1.0221161 0.96848565 0.9996139 0.9329864 1.0217721 0.9843889 0.9585967 0.96059364
1.014919 1.0399505 1.0035673 1.024665 1.0606141 0.9959033 1.029523 1.0232474

base.mlp.fc1.2.bias f4 [64]
00000000: 06a3 2b3d 2768 81bd a6ae a53d 25b7 183d
00000010: df7b 8f3d c33a cabc 048a 2e3d 7851 363d
00000020: a8b4 ff3c 1d9b e33c 0e94 023d 07a4 343d
00000030: e506 96bc a168 063d 3b6e 373d 31ae 59bd
00000040: e8bf 19bc a320 f53c 13a6 23bd 1797 e53c
00000050: 7e28 3b3d ca9b 183d b999 0abd e27f e13b
00000060: 2d6a 27bd 908d 103b bba2 843d 0d92 1cbd
00000070: f595 93bd 5228 02be d66b 2a3d cc1c e53c
00000080: 78c5 e6bc eee0 283d 3be1 253d f9cc b53c
00000090: d83f d03c 3666 293d 9aa5 98bc d7de 2c3d
000000a0: 1b30 b4bd 6493 263b 01c2 0a3d d9ee 233d
000000b0: 27a0 353d 7189 c13d 6fa0 81bc 0876 4dbd
000000c0: 6c4d 103d 44ea 193d 3b8e 4cbd d393 fabc
000000d0: ef65 233d 9c39 463d 81f4 f4bc 3123 e2bc
000000e0: 3030 783c 7592 69bd 93fa 10bd 77ca 93bd
000000f0: d74d 47bd 370b 0f3d 5953 90bc 859e 08bd
0.04190352 -0.063186936 0.08089952 0.037284035 0.070060484 -0.024686223 0.04261209 0.04451129
0.031214073 0.027783925 0.031879477 0.04410174 -0.018313834 0.032814626 0.04478286 -0.053144637
-0.009384133 0.029922789 -0.039953303 0.028026147 0.045692913 0.037257947 -0.033838008 0.0068817
-0.04087274 0.0022057034 0.06476351 -0.038225222 -0.072063364 -0.12710693 0.041606747 0.027967833
-0.028170332 0.041230135 0.040498 0.022192465 0.025421068 0.04135724 -0.018633652 0.042204704
-0.08798238 0.0025417442 0.033876423 0.040022705 0.044342186 0.09450043 -0.015823571 -0.05016139
0.035230085 0.03757693 -0.04994033 -0.030588066 0.039892133 0.048394784 -0.029901745 -0.027604671
0.015148208 -0.057024438 -0.035395216 -0.072163515 -0.04865822 0.034922805 -0.017617868 -0.0333543

base.mlp.fc_h.0.weight f4 [64, 64]
00000000: 67e9 263d 237c fd3c fadb 2abd 3887 2a3e
00000010: c6bc d6bd 82ef 9e3e ee98 bc3c 6699 6fbe
00000020: b076 9b3e aae3 06be 772f 2f3d 6214 2ebe
00000030: 2c52 4c3c 40c6 4e3e 9cdc d1be be94 363e
00000040: c204 603d 5460 7fbd 43b1 61be 5bf6 7a3e
00000050: 01fc 343e e334 b23e 7101 99be c405 a0bd
00000060: 5728 84bd 9a1c 17be a701 123d b8fa 863e
00000070: 72f4 8b3d 996f 38be e158 f3bd 442c 92bb
00000080: 15e5 563c b005 983d ffa7 e53d c776 9cbe
00000090: 5095 393d 2192 a9bd dee1 bd3c 9f8c 663e
000000a0: c2bf eebe b407 85be 5c4e 3d3d 2eb1 da3d
000000b0: 4d9d 803e ac32 20be 71bf 013e e96e 1e3e
000000c0: 8451 f23d 2c8c 06be 48e5 9c3d 5c56 af3e
000000d0: 57c2 88bd 4ea6 6b3d 1d47 6b3c ed49 0d3d
000000e0: a3b2 33be b50c a43d b830 2abe 1cd9 b4bb
000000f0: 2701 033e dd07 78be 399f cebd 4096 1e3d
00000100: 031b 583e 927a 693e 20e1 59be 38ff 093d
00000110: c916 a53e c0b4 22be 583e 8e3d 7d9f e73d
00000120: 13a3 c1bc 6c4f dabd b540 ea3d 4cef 99bd
00000130: 4401 2b3d 0a90 ff3d 8b4c 84bd 5dd3 4c3c
00000140: ef7d 10be ac05 1b3e c6b0 15bd 804d e3bd
00000150: 74dc e53d d8aa 59bb a75c 973d 04e3 e4bd
00000160: 6dab babc 3c83 7a3e 4e40 0f3e 3ec7 fbbd
00000170: 6788 a33e f390 adbe 1251 4f3e 5410 dbbd
00000180: c83e 6e3e 1e44 013e c82f ad3d 6e36 c3bd
00000190: 9ed7 383d ef21 0ebe 4b7b 433e 5f1c 8c3c
000001a0: 5052 b6be 6654 463e ce7f b9bb 7374 dabe
000001b0: 0bab 14be 1f54 d7bd 1524 bcbd 5cfa 75be
000001c0: eceb ba3e 4d10 2abe dcb3 6ebd 4c34 ebbc
000001d0: c91b c1be 1956 52be 9007 d0bc 9cdc adbd
000001e0: 708e 953d 81fc babe 32e0 0a3e 9298 f93d
000001f0: b348 363e 8dc9 3e3e 749d d23d d53d d8bd
00000200: 1400 7dbc cbc0 b93d da0d f83d 5aaf a7bd
00000210: 233f ae3e 98d3 3e3d 1e02 783d 70a3 a5be
00000220: 0cd2 ac3a 7d5f 693e 6eb0 69be e3dd 193e
00000230: b274 e6bb 4d6d fdbd 63c4 90be 8557 8d3e
00000240: 6246 18bc ace8 4bbe e340 24be 81cb 213e
00000250: 480e 55be b5b7 9d3d 32a2 913e 0971 033e
00000260: adc7 e43d 1f7f ae3e 0faa 18be 7922 853e
00000270: 8087 f1bc ef66 943d 25fc 37be 40ec 35be
00000280: 8ec6 52be e82c 493d ed2f 573d 3c58 a73d
00000290: cc13 9fbe 26aa 52be 0e4b 0cbe 410a 543d
000002a0: d5e5 4d3e 312e b33d 7fa8 2abe a4a8 8ebe
000002b0: 2940 8d3e 9c4e 02bf d6a3 c73d 0a2c 08bd
000002c0: bbec b2bd aefd 0a3e 62f1 91bd 85fe 76be
000002d0: 0c08 59bd 0432 ccbb 9772 50bd 22fb 75bd
000002e0: b04c afbd 562c 29be 53b9 173d 85f5 93bd
000002f0: cc91 303e 3782 693d 09ed e0bb 9b51 3c3e
00000300: f964 863c e6fb 59bc a812 3fbe 03fc b53b
00000310: 8f33 b73d 8fe1 b3be 52e9 bbbe 303b 3ebe
00000320: 7751 493e 5936 b53b e826 053e 3f51 b7bd
00000330: 4b7b 7f3e 77ea c43d 36a2 34bd 5687 8abe
00000340: dabd 4abe b29e 063e bc70 2f3c 2272 18be
00000350: f0d9 17be 3e85 c33c fd57 bf3c c861 643e
00000360: 64ee f7bd 5b1e c3bd dce5 d0be e8b8 a0be
00000370: e909 1ebe 0769 f6bb 58e4 4b3e 3f9d 55be
00000380: 3781 88be 13bf 67bd 3f37 1a3e bfdd 99bd
00000390: 4d65 073d b579 1c3e 7861 61bd 2680 afbd
000003a0: f640 0bbe 6a52 5bbe 711a 7e3d 5872 523d
000003b0: 5fd7 cf3d 640b 1abe 32d1 4f3e cd3c 1bbe
000003c0: ae77 f7bd defe cebe 41d3 0abd a440 a7be
000003d0: d29e 923c df3d e03d 994a 223d 18cf 9f3e
000003e0: b603 98be 953f 8b3d 61b7 043e bf98 1ebd
000003f0: 369f 543e 8d5f 11bd 17ac 56be c791 88bd
0.040749934 0.030942982 -0.041713692 0.16653144 -0.104852244 0.31042105 0.023022141 -0.2339836
0.3036399 -0.13172784 0.042769875 -0.16999963 0.012470763 0.20192814 -0.40988624 0.17830178
0.054692037 -0.062347725 -0.22040276 0.2450804 0.17674257 0.34805974 -0.29883912 -0.078136
-0.06453007 -0.14757004 0.035646107 0.26363158 0.068337336 -0.18011321 -0.11882187 -0.0044608433
0.013116141 0.0742296 0.11213683 -0.3055937 0.04530841 -0.08279825 0.02317899 0.2251458
-0.46630675 -0.2598244 0.046217307 0.106783256 0.2512001 -0.1564433 0.12670685 0.15471996
0.11831954 -0.13139409 0.076609194 0.34245574 -0.066776924 0.057531647 0.014360216 0.03449433
-0.17548613 0.08010236 -0.16620147 -0.0055190455 0.12793408 -0.2422175 -0.10088963 0.03871751
0.21104054 0.22800663 -0.21277285 0.03369066 0.32243946 -0.15889263 0.06945485 0.11309717
-0.02363733 -0.1065968 0.11438123 -0.075163454 0.041749254 0.12478645 -0.06459912 0.012501565
-0.1411054 0.15138882 -0.036545537 -0.11098766 0.11223689 -0.0033213403 0.07390719 -0.11176112
-0.02278682 0.24464124 0.13989374 -0.12293862 0.31940004 -0.3389965 0.2024577 -0.10696474
0.23266137 0.12623641 0.08456379 -0.09531866 0.045127504 -0.13880132 0.19090001 0.017103372
-0.35609674 0.19368133 -0.0056609875 -0.4266697 -0.14518373 -0.10514092 -0.091865696 -0.24021286
0.3650812 -0.16607781 -0.058276996 -0.02871146 -0.3771651 -0.20540656 -0.025394231 -0.084893435
0.073025584 -0.3652077 0.13562086 0.121873036 0.1780117 0.18631573 0.10283938 -0.105586685
-0.015441913 0.090699755 0.12112017 -0.081877425 0.34032544 0.04658851 0.060548894 -0.32351255
0.0013185157 0.22790332 -0.22821209 0.1502605 -0.007032954 -0.12374363 -0.2827483 0.27605835
-0.009294124 -0.19912976 -0.16040377 0.15800287 -0.20806229 0.07701055 0.28444058 0.12836088
0.11170898 0.3408136 -0.14908622 0.26002863 -0.029483557 0.072461955 -0.1796728 -0.17765903
-0.20583555 0.04911509 0.05253594 0.08171126 -0.3106979 -0.20572719 -0.13700506 0.05176759
0.20107205 0.08749045 -0.16665839 -0.27863038 0.27588013 -0.509012 0.09748046 -0.033245124
-0.08736559 0.13573334 -0.07126118 -0.24120529 -0.05298619 -0.0062315483 -0.05089053 -0.060053952
-0.08559549 -0.16520819 0.037041973 -0.072245635 0.17243117 0.05700895 -0.0068641943 0.18390505
0.01640557 -0.013304686 -0.1865946 0.005553724 0.08945381 -0.35133025 -0.36701447 -0.18577266
0.19659983 0.0055301604 0.13003123 -0.08951043 0.24949376 0.09615033 -0.04410001 -0.27056378
-0.19798985 0.13146475 0.01070803 -0.14887288 -0.1482923 0.023867246 0.023357386 0.22302926
-0.12106016 -0.09527274 -0.4080037 -0.31391072 -0.15433468 -0.0075198445 0.19911325 -0.20860766
-0.26661083 -0.056578707 0.15060137 -0.07512998 0.033055592 0.15280803 -0.055024594 -0.08569364
-0.13599 -0.21418157 0.062036935 0.051378578 0.10148501 -0.15043408 0.20294645 -0.15159912
-0.12083374 -0.40428823 -0.033892874 -0.32666504 0.017897997 0.10949301 0.039621923 0.31212687
-0.2969033 0.06799237 0.12960579 -0.03871989 0.20763859 -0.035491515 -0.20964085 -0.0666843

base.mlp.fc_h.0.bias f4 [64]
00000000: 0000 0000 0000 0000 0000 0000 0000 0000
00000010: 0000 0000 0000 0000 0000 0000 0000 0000
00000020: 0000 0000 0000 0000 0000 0000 0000 0000
00000030: 0000 0000 0000 0000 0000 0000 0000 0000
00000040: 0000 0000 0000 0000 0000 0000 0000 0000
00000050: 0000 0000 0000 0000 0000 0000 0000 0000
00000060: 0000 0000 0000 0000 0000 0000 0000 0000
00000070: 0000 0000 0000 0000 0000 0000 0000 0000
00000080: 0000 0000 0000 0000 0000 0000 0000 0000
00000090: 0000 0000 0000 0000 0000 0000 0000 0000
000000a0: 0000 0000 0000 0000 0000 0000 0000 0000
000000b0: 0000 0000 0000 0000 0000 0000 0000 0000
000000c0: 0000 0000 0000 0000 0000 0000 0000 0000
000000d0: 0000 0000 0000 0000 0000 0000 0000 0000
000000e0: 0000 0000 0000 0000 0000 0000 0000 0000
000000f0: 0000 0000 0000 0000 0000 0000 0000 0000
0.0 0.0 0.0 0.0 0.0 0.0 0.0 0.0
0.0 0.0 0.0 0.0 0.0 0.0 0.0 0.0
0.0 0.0 0.0 0.0 0.0 0.0 0.0 0.0
0.0 0.0 0.0 0.0 0.0 0.0 0.0 0.0
0.0 0.0 0.0 0.0 0.0 0.0 0.0 0.0
0.0 0.0 0.0 0.0 0.0 0.0 0.0 0.0
0.0 0.0 0.0 0.0 0.0 0.0 0.0 0.0
0.0 0.0 0.0 0.0 0.0 0.0 0.0 0.0

base.mlp.fc_h.2.weight f4 [64]
00000000: 0000 803f 0000 803f 0000 803f 0000 803f
00000010: 0000 803f 0000 803f 0000 803f 0000 803f
00000020: 0000 803f 0000 803f 0000 803f 0000 803f
00000030: 0000 803f 0000 803f 0000 803f 0000 803f
00000040: 0000 803f 0000 803f 0000 803f 0000 803f
00000050: 0000 803f 0000 803f 0000 803f 0000 803f
00000060: 0000 803f 0000 803f 0000 803f 0000 803f
00000070: 0000 803f 0000 803f 0000 803f 0000 803f
00000080: 0000 803f 0000 803f 0000 803f 0000 803f
00000090: 0000 803f 0000 803f 0000 803f 0000 803f
000000a0: 0000 803f 0000 803f 0000 803f 0000 803f
000000b0: 0000 803f 0000 803f 0000 803f 0000 803f
000000c0: 0000 803f 0000 803f 0000 803f 0000 803f
000000d0: 0000 803f 0000 803f 0000 803f 0000 803f
000000e0: 0000 803f 0000 803f 0000 803f 0000 803f
000000f0: 0000 803f 0000 803f 0000 803f 0000 803f
1.0 1.0 1.0 1.0 1.0 1.0 1.0 1.0
1.0 1.0 1.0 1.0 1.0 1.0 1.0 1.0
1.0 1.0 1.0 1.0 1.0 1.0 1.0 1.0
1.0 1.0 1.0 1.0 1.0 1.0 1.0 1.0
1.0 1.0 1.0 1.0 1.0 1.0 1.0 1.0
1.0 1.0 1.0 1.0 1.0 1.0 1.0 1.0
1.0 1.0 1.0 1.0 1.0 1.0 1.0 1.0
1.0 1.0 1.0 1.0 1.0 1.0 1.0 1.0

base.mlp.fc_h.2.bias f4 [64]
00000000: 0000 0000 0000 0000 0000 0000 0000 0000
00000010: 0000 0000 0000 0000 0000 0000 0000 0000
00000020: 0000 0000 0000 0000 0000 0000 0000 0000
00000030: 0000 0000 0000 0000 0000 0000 0000 0000
00000040: 0000 0000 0000 0000 0000 0000 0000 0000
00000050: 0000 0000 0000 0000 0000 0000 0000 0000
00000060: 0000 0000 0000 0000 0000 0000 0000 0000
00000070: 0000 0000 0000 0000 0000 0000 0000 0000
00000080: 0000 0000 0000 0000 0000 0000 0000 0000
00000090: 0000 0000 0000 0000 0000 0000 0000 0000
000000a0: 0000 0000 0000 0000 0000 0000 0000 0000
000000b0: 0000 0000 0000 0000 0000 0000 0000 0000
000000c0: 0000 0000 0000 0000 0000 0000 0000 0000
000000d0: 0000 0000 0000 0000 0000 0000 0000 0000
000000e0: 0000 0000 0000 0000 0000 0000 0000 0000
000000f0: 0000 0000 0000 0000 0000 0000 0000 0000
0.0 0.0 0.0 0.0 0.0 0.0 0.0 0.0
0.0 0.0 0.0 0.0 0.0 0.0 0.0 0.0
0.0 0.0 0.0 0.0 0.0 0.0 0.0 0.0
0.0 0.0 0.0 0.0 0.0 0.0 0.0 0.0
0.0 0.0 0.0 0.0 0.0 0.0 0.0 0.0
0.0 0.0 0.0 0.0 0.0 0.0 0.0 0.0
0.0 0.0 0.0 0.0 0.0 0.0 0.0 0.0
0.0 0.0 0.0 0.0 0.0 0.0 0.0 0.0

base.mlp.fc2.0.0.weight f4 [64, 64]
00000000: af80 943d fbf8 783b cbef 5cbd 3196 343e
00000010: 864b 76bd 4e01 883e b7a6 ba3d b783 60be
00000020: 0a9e ad3e e73e a5bd 970f 083d c299 3dbe
00000030: e0bc 4e3a a93a 523e 0e4b bbbe ba90 2d3e
00000040: 8874 d23c 3164 2abd bca0 60be 2039 783e
00000050: 7140 303e 2325 b03e af92 91be d626 febd
00000060: 44fa dabd f2a0 35be 0232 f73c f586 5f3e
00000070: ab36 873d 8642 1cbe 138d 44bd 9a18 64bc
00000080: d327 31bd 4064 bf3d ce4f 023e c3f8 8abe
00000090: 49ba f03d b0ef f0bd 9176 0abd 1109 6a3e
000000a0: 1f75 e4be 8c61 6abe f740 fc3d 5f80 b63d
000000b0: 0479 6c3e ac95 16be 7a43 1e3e e466 ec3d
000000c0: cdab 053e a4f1 fbbd 0840 6c3d e467 833e
000000d0: f48b b3bc e104 983d 50d0 08bd c3f5 013d
000000e0: b29b 01be 7399 203d 5caa 45be 245a d2bc
000000f0: a324 ca3d 0169 2dbe 72bf d6bd bc5b 323c
00000100: aff7 893e 690d 8c3e d7a8 83be 50bc cbba
00000110: 9a87 b73e cb1a 02be 22f8 0d3d dd55 0c3e
00000120: 5a95 81bd 47c0 e2bd 44bb dd3d fec5 7ebd
00000130: 7165 933d 4f88 b23d 0667 57bd 067d 0fbc
00000140: ea18 2cbe 52f4 203e 5c45 1c3b ab14 22be
00000150: 5815 073e 912f bebc 7f5e c43d 6198 c2bd
00000160: 0499 b2b9 74e1 803e 0699 1f3e 9806 d9bd
00000170: 998b bd3e 96b1 bcbe 8580 653e 066d 06be
00000180: ac0a 8b3e c166 263e 3586 bb3d 0bd4 c6bd
00000190: a207 ea3c 2442 2abe 6f7d 643e fffc 7b3c
000001a0: 6904 cbbe 2ac8 373e 9b88 bebc febb ebbe
000001b0: ecb5 16be 19c6 0bbe 19f9 84bd eec6 86be
000001c0: 1f90 cf3e 7273 55be 100b abbd a53c f83c
000001d0: 115a dfbe 8c45 81be 430d 323d d939 f1bd
000001e0: 83d4 2d3d 7e5c ccbe e357 2c3e beda 283e
000001f0: 0e0a 513e 0e0e 4c3e e83f 0c3e 805a 10be
00000200: 26eb 90bc 2e8b 7e3d 1bcb ee3d 3b4b 8ebd
00000210: 349c a03e 9b16 013d a8cb 633d 40b9 95be
00000220: a9e4 1dbb fcac 473e fad8 31be 5d69 1b3e
00000230: 6de2 4d3b 6ffc 92bd 60a1 84be 2694 593e
00000240: 2eb6 5abd 7818 26be 4b43 03be 23f6 f13d
00000250: fcb7 05be 931d ee3d 1ac3 743e 5bee c23d
00000260: d415 623d 4c4f 993e ac71 d1bd 64a3 4e3e
00000270: 2d85 5d3c 8cd3 5c3c 0b68 27be b141 24be
00000280: c386 54be 081d 4e3d d516 523d 13c6 e63d
00000290: c8a0 72be 5e53 1fbe e049 22be 7431 913d
000002a0: da93 373e 397a 0d3e 4c76 02be 4393 73be
000002b0: 1550 743e a3e5 edbe cf70 bd3d 63b6 81bd
000002c0: 4f6e 9ebd c49a 1f3e 94e2 1dbd 2664 5ebe
000002d0: d66c 06bc 0e94 3a3d 8448 c6bd d568 57bd
000002e0: 762f 8abd 620a 19be 4643 3ebd 2773 b1bd
000002f0: 7db1 ec3d 8f37 fd3d d9d9 2cbd 5bf7 023e
00000300: 1808 563b ab55 44bc eda1 41be 7c9b 4b3b
00000310: 85f3 be3d 7f81 b9be 65c3 cfbe fa31 56be
00000320: 8b73 3f3e b48b c1bc 164b 1a3e 3365 eabd
00000330: 4abd 9d3e 4901 c03d 2752 91bd d7d1 99be
00000340: 130a 4fbe 3948 1a3e ed6e 8c3d 58e1 33be
00000350: 413a 29be d089 f43b c38f 6a3d 3f0f 8e3e
00000360: f574 b2bd 3d91 aebd ac3b eabe dea5 afbe
00000370: 7fe9 43be 08ca 5fbc 02c0 503e dbac 64be
00000380: 4b47 8cbe 8ae3 86bc 0f94 1d3e 9337 f2bd
00000390: 80c0 763d 0538 3e3e 1c46 2cbd 039e c8bd
000003a0: bf93 32be 33e5 76be b85a 173d 9140 083d
000003b0: 2778 f43d b0c1 11be 42eb 763e b10d 38be
000003c0: 9ec0 dfbd 5f0b e1be f793 cdbc d53a b1be
000003d0: 1fbf 6ebc c579 ee3d 62dc 9e3d 3859 c13e
000003e0: 93bf aebe 91f9 8d3d a7ff 2b3e f2dd 6b3c
000003f0: b9d9 833e ef24 e4bc ac7d 57be 61c2 f8bc
0.07251107 0.00379902 -0.053939622 0.17635418 -0.06013062 0.26563495 0.091138296 -0.21925245
0.33909637 -0.08068638 0.033217993 -0.18515685 0.0007886421 0.2053019 -0.365807 0.1694974
0.025690332 -0.041599456 -0.21936315 0.24240541 0.17212082 0.34403333 -0.28432223 -0.12409751
-0.10692266 -0.17737177 0.030175213 0.21828826 0.06602224 -0.15259752 -0.0479861 -0.013921881
-0.04325087 0.09345293 0.12725756 -0.27142915 0.11754281 -0.11764467 -0.03380448 0.22855021
-0.44620606 -0.22888774 0.123170786 0.089112036 0.23093039 -0.14705533 0.15455428 0.11543062
0.13053818 -0.12301949 0.057678252 0.256652 -0.02191732 0.074228056 -0.033401787 0.031728517
-0.1265705 0.03920884 -0.19303268 -0.025677748 0.09870269 -0.16934587 -0.10485734 0.010886129
0.2694678 0.2735398 -0.25714752 -0.0015543792 0.35845643 -0.12705533 0.034660466 0.13704629
-0.06327315 -0.1107183 0.10826734 -0.06220054 0.07197083 0.08717405 -0.052588485 -0.008757835
-0.16806379 0.15718201 0.0023845052 -0.15828197 0.13191736 -0.02321604 0.09588336 -0.0950172
-0.0003406481 0.25172007 0.15585718 -0.10596961 0.37020567 -0.36854237 0.22412308 -0.13127527
0.2715658 0.16250135 0.09156457 -0.09708413 0.028568093 -0.16626793 0.22313474 0.015380143
-0.39651802 0.1794745 -0.023258498 -0.46041864 -0.14717835 -0.13649787 -0.06492824 -0.26323646
0.40539643 -0.2084482 -0.083517194 0.030302355 -0.43623403 -0.25248373 0.04346968 -0.11778612
0.042438995 -0.39914316 0.16830401 0.16489694 0.20413992 0.19927236 0.13696253 -0.14097023
-0.017690253 0.06214445 0.11659833 -0.06947943 0.31369174 0.0315157 0.055614144 -0.29242897
-0.002409259 0.19499582 -0.17367926 0.15176912 0.0031415478 -0.07177054 -0.2590437 0.2124792
-0.053396396 -0.16220272 -0.12818639 0.11814525 -0.13058466 0.116267346 0.2390255 0.09518119
0.0551966 0.2994331 -0.10226759 0.20179516 0.013520521 0.013478171 -0.16348283 -0.16040684
-0.20754533 0.050320655 0.051291306 0.112682484 -0.23694146 -0.15559146 -0.15848494 0.070895106
0.17927495 0.13816155 -0.12740439 -0.23786645 0.23858674 -0.4646426 0.09250032 -0.06333616
-0.077358834 0.15586382 -0.03854616 -0.21717891 -0.008204659 0.045551352 -0.096818 -0.05259021
-0.06747334 -0.14945367 -0.046450876 -0.08664542 0.11557291 0.123641126 -0.042199943 0.12789671
0.0032658633 -0.011983315 -0.18909426 0.0031068018 0.093237914 -0.3623161 -0.40578762 -0.20917502
0.1869642 -0.023626186 0.15067706 -0.114450835 0.3080848 0.09375245 -0.070957474 -0.30042908
-0.20218687 0.15066613 0.06857095 -0.1756643 -0.16526128 0.0074627176 0.057266008 0.27746007
-0.08713714 -0.08523796 -0.4574865 -0.34306234 -0.1913204 -0.013659008 0.20385745 -0.22331564
-0.27398142 -0.016465921 0.15388511 -0.11827006 0.060242176 0.18576057 -0.04205905 -0.09795763
-0.17439173 -0.2411087 0.03695175 0.0332647 0.1193698 -0.14234042 0.24113181 -0.17973973
-0.10925411 -0.43953988 -0.02509497 -0.34615198 -0.014571934 0.116443194 0.077568784 0.3776338
-0.34130535 0.06932367 0.16796742 0.014396178 0.25752047 -0.027849643 -0.21044034 -0.030366125

base.mlp.fc2.0.0.bias f4 [64]
00000000: 6af9 a8bc 9ff5 333d 92d2 3ebd d6ac 2f3d
00000010: d140 013d 9319 1cbd b254 48bd 4261 603d
00000020: 65d6 25bd 73d1 12bd a8db 13bd a163 88bc
00000030: ce1a 603d a38c 373d b024 273d ff08 8f3d
00000040: f801 9ebb e0b7 12bd 0d6e 143e c93d 423d
00000050: 26c2 15bd a082 813d 34c3 1b3d 7e7d 093e
00000060: cc27 123d 283a 0abd f94a 19bd ab05 0ebd
00000070: 4b09 223d ce4d 3e3d 2f65 a7bc 9c50 1fbd
00000080: d60d 413d 0776 293e cdc6 e339 d7f3 27bd
00000090: 0824 08bd 8c7b db3d da89 143d c12e 0dbd
000000a0: dba6 99bc a55a 10bd 58b3 40bd f655 2fbd
000000b0: 9c53 d93d 9970 19bd 340f 5a3d f688 1b3d
000000c0: c2b0 283d 9793 593d d92f 513d af38 41bd
000000d0: 4e6f 413d 14d9 683d b143 593d a116 eb3d
000000e0: 3206 15bd b0b9 073d 268b 04bd 4cb6 21bd
000000f0: 97eb 23bd eda5 0cbd 9419 4e3d 5ad8 3d3d
-0.020626742 0.043935414 -0.046587534 0.04288944 0.031555954 -0.038110327 -0.048908897 0.054780252
-0.040487666 -0.035844278 -0.036098152 -0.01664907 0.054713063 0.044811856 0.040806472 0.06984138
-0.004822012 -0.035819888 0.14495106 0.047422204 -0.036562108 0.06323743 0.038027957 0.13426778
0.035682485 -0.03374687 -0.037425015 -0.034673374 0.039559644 0.04646092 -0.02043399 -0.038895234
0.047132336 0.1654893 0.00043444932 -0.04100403 -0.033237487 0.10716924 0.036264278 -0.034468416
-0.01875632 -0.035242695 -0.047046036 -0.042806588 0.1061165 -0.037460897 0.053237155 0.037972413
0.041184194 0.05311927 0.05107102 -0.0471732 0.04722529 0.056847647 0.05304307 0.114789255
-0.03638286 0.03313607 -0.032359265 -0.039480492 -0.040019598 -0.034337927 0.050317362 0.046348907

base.mlp.fc2.0.2.weight f4 [64]
00000000: f480 783f 5719 723f 07ee 6f3f 46b5 6e3f
00000010: ce8e 693f efb9 643f 6945 753f bdd9 793f
00000020: 6d22 7b3f f838 743f d576 743f d119 793f
00000030: 0c7f 743f 9da9 613f f747 673f 7a31 7d3f
00000040: 497e 7b3f 452c 713f f668 7f3f 0e84 6b3f
00000050: 2026 6c3f fed8 7b3f ed83 5d3f 0be2 833f
00000060: f70b 673f 962e 6a3f 291d 6e3f d201 6f3f
00000070: c6ea 6c3f d63b 733f ee84 763f 9abf 703f
00000080: 48a9 6b3f 8c8a 813f 9150 793f 12d6 753f
00000090: 97aa 793f f5ec 813f 6f60 683f 642e 713f
000000a0: 6bee 783f 79f7 6f3f 634c 6a3f 4878 773f
000000b0: 273e 7e3f f385 6a3f 2567 773f 43e7 6b3f
000000c0: 378c 6b3f 7a99 753f ae50 723f b74c 683f
000000d0: d6bc 723f d49f 7b3f 391f 783f 50a3 833f
000000e0: fdb4 723f f727 5c3f 3af8 703f 84fe 6d3f
000000f0: 2f7f 6a3f c893 643f c4cf 773f 15a8 743f
0.97071767 0.94569916 0.93722576 0.9324535 0.9123353 0.8934621 0.95809036 0.9759787
0.98099405 0.9539943 0.95493823 0.9730502 0.9550636 0.88149434 0.90344185 0.9890362
0.9823957 0.94208175 0.9976953 0.91998374 0.92245674 0.9837798 0.8652943 1.0303358
0.9025263 0.91477334 0.93013245 0.9336215 0.92545736 0.9501318 0.96296585 0.9404236
0.9205518 1.0120406 0.9738856 0.9602977 0.97525924 1.0150439 0.90772146 0.9421141
0.97238797 0.9373699 0.91522807 0.9666791 0.99313587 0.9161064 0.9664176 0.9214975
0.92010826 0.9593731 0.9465436 0.9074206 0.9481939 0.98290753 0.9692264 1.0284214
0.94807416 0.8599848 0.94128764 0.92966485 0.91600317 0.89287996 0.968014 0.9556897

base.mlp.fc2.0.2.bias f4 [64]
00000000: fd90 0cbd cbf4 123d 1032 1dbd 2c96 153d
00000010: 053e 0f3d be4b 14bd a2af 20bd 0ba4 103d
00000020: 9809 33bd c15d 22bd b129 22bd 51d7 19bd
00000030: b7c4 1c3d 682a 133d d815 0f3d 978d 393d
00000040: 4197 2ebd 10fa 0fbd 16bf 213d afc6 0c3d
00000050: 93ae 16bd 3a21 2c3d 63dc 123d 3bae 8e3d
00000060: f123 103d 491c 14bd fe48 16bd fccf 14bd
00000070: e0ac 113d 00bc 153d 8e9a fabc b8c2 12bd
00000080: 6852 173d 092f 1b3c d5d8 0fbd 1304 29bd
00000090: 3734 2abd eebf 5b3d a710 123d 65f9 1abd
000000a0: 3101 25bd e4e7 17bd 291b 1bbd 2aa7 24bd
000000b0: 9ede 343d f641 12bd 69a6 1b3d d37b 123d
000000c0: dac0 173d b30a 1e3d a94c 1c3d fd68 14bd
000000d0: 34ef 193d c44e 233d 3125 273d cfe1 683d
000000e0: 04a8 1bbd 9701 133d 569e 13bd a567 12bd
000000f0: d539 12bd 124b 12bd 6150 203d 3020 143d
-0.03431796 0.035877984 -0.03837782 0.03652017 0.034971256 -0.036205046 -0.039229997 0.035312694
-0.04371032 -0.039640192 -0.03959054 -0.037558857 0.03827354 0.035929114 0.03493294 0.045301046
-0.042624716 -0.035150588 0.039488874 0.034369167 -0.03678758 0.042023875 0.03585471 0.069668256
0.035190526 -0.036159787 -0.036690705 -0.03633116 0.035565257 0.036556244 -0.030591276 -0.03583023
0.036943823 0.009471663 -0.035118897 -0.04126365 -0.041553702 0.053649835 0.035660412 -0.037835497
-0.04028434 -0.037086383 -0.0378677 -0.040198483 0.044157617 -0.035707437 0.038000498 0.03576262
0.037049152 0.038584422 0.038159046 -0.036232937 0.037581638 0.03987004 0.040806953 0.056855973
-0.03800203 0.035890188 -0.036039673 -0.035743374 -0.035699684 -0.035716124 0.039139155 0.03616351

v_out.weight f4 [1, 64]
00000000: fd95 f3bb ef4f 393d 2122 9abd f8b5 0b3d
00000010: 799f 883d ade0 f4bd 9dd9 38bd 56ae f83c
00000020: b2a1 53bc 04e0 88bc 07a4 eebc ebb7 403c
00000030: c386 233d 043a e13d 01ea 733d c8e9 dc3c
00000040: 65c0 61bc 26c1 17bd 1c22 973c e984 453d
00000050: ea5b 92bd bfa6 d33c c3a7 e13d fc0d 003d
00000060: 5a48 8c3d 71a8 0fbd 3ef4 1cbd a9c4 5dbd
00000070: eac5 913d b128 f63c 4706 4ebc 7ec6 dfbc
00000080: 29c2 4a3d cfe8 ba3c 6502 c13a 9f79 61bd
00000090: 421b 2ebd 52c7 ce3c f55e 883d a1e7 26bd
000000a0: 788c 99bb 05c8 fbbb c06c cabd 77be f2bc
000000b0: 680f ab3c 639d 67bd 2c76 283d 19de 4a3d
000000c0: a13f 5e3d 5aa6 0b3d 22a9 3f3d 1b63 bfbd
000000d0: c71a 3f3d 9a56 163d f213 1b3d bec6 d93c
000000e0: b20c 1dbd 9ef8 be3d 1827 03bd 4ad2 1bbd
000000f0: 7d6b 7ebd 94fe 2bbd 9b79 183d b36b 333d
-0.0074336515 0.045242246 -0.07526041 0.034109086 0.06671042 -0.11956916 -0.045129407 0.030356567
-0.012916969 -0.016708381 -0.029130949 0.011762599 0.03992344 0.10997394 0.059549335 0.026966944
-0.013778781 -0.037049435 0.018448882 0.048222456 -0.071464375 0.025836347 0.11018326 0.031263337
0.068497375 -0.035072748 -0.038318865 -0.054142628 0.07117827 0.0300487 -0.012574739 -0.027316328
0.04950157 0.02281609 0.0014725445 -0.055047628 -0.042506464 0.025241528 0.066587366 -0.040748242
-0.0046859346 -0.0076837563 -0.09884024 -0.029631836 0.02088137 -0.05654658 0.041128322 0.049528215
0.0542599 0.034094192 0.046792157 -0.09345075 0.046656396 0.036703683 0.03786082 0.026584025
-0.038342185 0.09324764 -0.032019705 -0.038042344 -0.062114228 -0.04199083 0.037225347 0.04380388
