light_mappo-main/results/MyEnv/MyEnv/mappo/check/run65/models/actor.pt (torch, 41717 bytes, 16 tensors)

base.feature_norm.weight f4 [4]
0	0x3f7bdb8c	0.98381877
1	0x3f82936a	1.0201237
2	0x3f805cb1	1.0028287
3	0x3f7ef2b8	0.9958911

base.feature_norm.bias f4 [4]
0	0x3cd0125e	0.025399383
1	0x3c1ade7b	0.009452458
2	0xbd5a4cce	-0.053295903
3	0xbba3acba	-0.004994956

base.mlp.fc1.0.weight f4 [64, 4]
0	0x3e0a3d73	0.13500004
1	0xbe29f2e3	-0.1659656
2	0x3caaa8f9	0.020832526
3	0xbdbc37e4	-0.09190348
4	0x3e8bfb39	0.27340105
5	0x3db53e44	0.08849767
6	0xbe1a3551	-0.15059401
7	0xbe30fe23	-0.17284445
8	0x3e09e273	0.1346529
9	0x3e17abb7	0.14811598
10	0xbe5e8981	-0.21732141
11	0xbe116481	-0.14198495
12	0xbe20eeb6	-0.15716061
13	0x3e1d6ee4	0.15374333
14	0xb9b4c0f7	-0.00034476045
15	0x3e535fe9	0.20642056
16	0xbdd41fd1	-0.10357631
17	0xbdfd9191	-0.1238128
18	0xbdc8711a	-0.097871974
19	0xbc4d71c0	-0.012539327
20	0x3dfe28d2	0.124101296
21	0x3c91d807	0.017803205
22	0x3d383b59	0.044978473
23	0xbed37d1d	-0.4130639
24	0x3dc6fc7b	0.097161256
25	0x3d1abac0	0.037775755
26	0x3e95d767	0.292659
27	0x3e5056c6	0.20345601
28	0x3d06389f	0.03276884
29	0x3dc486e7	0.09596043
30	0xbdb4c63c	-0.08826873
31	0xbea241dd	-0.31690875
32	0x3d1ac3bf	0.037784334
33	0x3e2a9397	0.16657864
34	0x3dea38b9	0.114366
35	0xbe8a5cbc	-0.27023876
36	0xbe026948	-0.12735474
37	0xbe8c327c	-0.27382267
38	0x3ea95454	0.3307215
39	0xbbc4ce16	-0.0060060127
40	0x3e09a4cb	0.1344177
41	0x3d03e351	0.032199208
42	0xbeb6f2c6	-0.35732096
43	0x3e140af8	0.14457309
44	0xbeeee37d	-0.46657935
45	0xbc654c4e	-0.013995243
46	0x3d2ad615	0.04170807
47	0x3e7eaa90	0.24869752
48	0xbdc69fbf	-0.09698438
49	0x3e3fe408	0.18739331
50	0xbca90f74	-0.020637251
51	0xbe5cfefe	-0.21581647
52	0xbe28944f	-0.16462825
53	0x3e231ac8	0.15928185
54	0x3e54dfea	0.20788541
55	0xbde49d52	-0.11162819
56	0x3e753a84	0.23948103
57	0xbda5660d	-0.08076105
58	0xbcc6c7ad	-0.024265135
59	0xbe052bb5	-0.13004954
60	0x3dd46ae4	0.1037195
61	0x3d899a19	0.06718845
62	0xbe56de34	-0.20983201
63	0x3e24f86d	0.16110392
64	0xbdd7d21f	-0.10538124
65	0xbca7e720	-0.020495951
66	0x3e8fa3f5	0.28054777
67	0xbe4879cf	-0.19577716
68	0x3e0d134b	0.13776891
69	0xbe087b01	-0.13328172
70	0x3e8d93f5	0.27651945
71	0x3d8e9465	0.06961898
72	0xbdd0bb13	-0.101919316
73	0x3ecaa3e7	0.39578173
74	0xbd002583	-0.031285774
75	0x3d50a882	0.05094195
76	0xbdf77953	-0.12083688
77	0xbdf04e55	-0.11733691
78	0xbd8d42fe	-0.06897543
79	0xbeb645ca	-0.3560012
80	0x3d97e300	0.07416344
81	0xbea21930	-0.31659842
82	0xbe360185	-0.17774017
83	0xbd4dcaa3	-0.050242078
84	0xbd8ac060	-0.06774974
85	0x3ccbd419	0.02488141
86	0xbd6e2c9e	-0.05814802
87	0xbc3b660d	-0.011437905
88	0xbda14c98	-0.07875937
89	0x3e583239	0.21112908
90	0x3dde396a	0.108507946
91	0xbd55d60c	-0.052206084
92	0xbe5c2c97	-0.21501385
93	0x3daf2743	0.085524105
94	0xbe138c24	-0.14408928
95	0xbd81c39e	-0.06336139
96	0xbdb9862e	-0.09058796
97	0x3d7ecb3b	0.062205534
98	0xbd9c4fe9	-0.07632429
99	0x3e10da5c	0.14145797
100	0xbd9aaa9e	-0.07552074
101	0xbef1a63e	-0.47197145
102	0xbe63cbfc	-0.22245783
103	0xbd5f0502	-0.054448135
104	0xbc883f7d	-0.016631836
105	0xbeea5c9a	-0.45773774
106	0x3e0f99bb	0.14023487
107	0x3d7a40ba	0.061096884
108	0xbc3af022	-0.011409791
109	0x3e2a0a13	0.16605406
110	0x3d257b9f	0.040401097
111	0x3ed1860a	0.40922576
112	0x3e40804d	0.18798943
113	0x3e899e63	0.26878652
114	0x3e8c761d	0.27433863
115	0x3d35d0c9	0.044388566
116	0xbe90b3fc	-0.28262317
117	0xbcd530a0	-0.026024163
118	0x3d659964	0.056054488
119	0x3de566d7	0.11201256
120	0x3e030ae2	0.1279712
121	0xbd40888a	-0.047005214
122	0x3d05b818	0.03264627
123	0xbdccd5cc	-0.10001716
124	0xbd746ebf	-0.05967593
125	0xbe7e8a5e	-0.2485747
126	0x3ec98380	0.3935814
127	0xbe99a87f	-0.30011365
128	0x3d0a0353	0.033694576
129	0x3c8d1d28	0.017225817
130	0x3d5da0e9	0.054108534
131	0x3d2b6f0e	0.041853957
132	0xbc25c703	-0.010118249
133	0x3e0f80ac	0.14013928
134	0x3eb0c3fd	0.34524527
135	0xbe428b8b	-0.18998544
136	0x3e0a408a	0.13501182
137	0x3cbacbe7	0.022802306
138	0xbe93c2ec	-0.2885965
139	0x3e8108da	0.25202066
140	0xbf1cb27b	-0.6120984
141	0x3ddfdea3	0.109311365
142	0xbede9b6f	-0.4347796
143	0xbe5b18dd	-0.21396203
144	0x3e3c282b	0.18374698
145	0x3e833e01	0.25633243
146	0x3daf6a34	0.085651785
147	0x3e20d5e6	0.15706596
148	0x3e6c6e3f	0.2308893
149	0xbdc5b760	-0.09654117
150	0xbd852349	-0.06500871
151	0x3d4e80de	0.050415866
152	0xbc950bba	-0.018194068
153	0xbe08f102	-0.13373187
154	0xbccbcc54	-0.024877705
155	0xbdf013e8	-0.11722547
156	0x3cf295d8	0.029612467
157	0xbe0d04cd	-0.13771363
158	0xbe2463f8	-0.1605376
159	0x3d9a79c6	0.07542758
160	0xbddf317a	-0.10898109
161	0x3d4024cc	0.046910092
162	0xbe0c7610	-0.13716912
163	0xbd594f72	-0.05305428
164	0x3e162f7f	0.14666556
165	0x3e073add	0.13206048
166	0xbdc2d70a	-0.09513672
167	0xbdba4494	-0.090951115
168	0xbe984c59	-0.2974575
169	0xbddd46e1	-0.10804535
170	0xbe6a4641	-0.22878362
171	0x3e66afbc	0.22527975
172	0xbebce601	-0.3689423
173	0x3d5c8ebe	0.053847067
174	0xbd43df24	-0.047820225
175	0xbece82d3	-0.40334186
176	0xbe9c79f8	-0.30561805
177	0x3cee8ed4	0.02912084
178	0xbc7f6965	-0.015589093
179	0x3e8a4f03	0.27013406
180	0x3d30005e	0.0429691
181	0xbd883247	-0.06650215
182	0x3d1cc5fc	0.03827475
183	0xbdc7ae7f	-0.09750079
184	0x3e5d448d	0.21608181
185	0x3e0fd4f5	0.1404608
186	0x3dd103c9	0.102058
187	0x3db25773	0.08708086
188	0xbdc610d4	-0.096711785
189	0x3d9592af	0.07303368
190	0x3cdefa72	0.027219031
191	0xbd9ba7a2	-0.07600333
192	0x3d820fd9	0.06350679
193	0x3e8a3ba7	0.26998636
194	0xbd7a11a0	-0.061051965
195	0x3c8fef90	0.017570287
196	0xbd194b33	-0.03742523
197	0x3dc2f0a5	0.095185556
198	0xbd2e11fa	-0.042497613
199	0xbe574825	-0.21023615
200	0xbc52f7c6	-0.012876457
201	0x3e9efe86	0.3105356
202	0xbecb6100	-0.39722443
203	0x3d158313	0.036501955
204	0x3da2a974	0.07942477
205	0x3d8f1fd1	0.069884904
206	0xbe1652d5	-0.14680035
207	0xbd3b1526	-0.045674466
208	0x3d88e586	0.06684403
209	0xbdf85e34	-0.12127343
210	0x3e093c94	0.13402015
211	0x3e5e609e	0.21716544
212	0x3d8e5b92	0.069510594
213	0x3e5c1436	0.21492085
214	0xbc537709	-0.012906798
215	0xbd1b974f	-0.037986096
216	0xbe03efa5	-0.12884386
217	0xbc6eaef0	-0.014568076
218	0x3e713d27	0.23558484
219	0xbda681dd	-0.08130238
220	0xbea4fd37	-0.32224438
221	0x3e4daa32	0.20084456
222	0x3e3d857f	0.18507956
223	0x3e12f4a5	0.14351137
224	0x3d97271d	0.07380507
225	0x3e76ee56	0.24114355
226	0xbc90a00e	-0.017654445
227	0xbec5d3d1	-0.38638166
228	0x3e098372	0.13429049
229	0xbdbce406	-0.092231795
230	0x3da14438	0.0787434
231	0x3d4eb3fe	0.050464623
232	0xbdf2650b	-0.11835679
233	0x3e666c21	0.22502185
234	0x3dd93a6b	0.106068455
235	0xbdeb7936	-0.114977285
236	0xbdd520d5	-0.10406653
237	0x3eb2d8e3	0.34931096
238	0x3e2d6c4e	0.16935846
239	0x3e3bff3d	0.18359084
240	0xbdd11f12	-0.10211004
241	0xbe396912	-0.18106487
242	0x3e074e35	0.13213427
243	0xbdd08e34	-0.10183373
244	0x3e732dee	0.2374799
245	0x3e15f2b5	0.14643367
246	0xbdb6c00a	-0.08923347
247	0xbdd2da22	-0.10295512
248	0xbe0d5667	-0.13802491
249	0x3d1b215b	0.037873607
250	0xbe22b21a	-0.15888253
251	0x3db6e871	0.089310534
252	0x3e0ff7dc	0.14059395
253	0x3e1fe3b1	0.15614201
254	0x3dd99815	0.106247105
255	0x3d859fb4	0.065246016

base.mlp.fc1.0.bias f4 [64]
0	0x3c072a79	0.008249872
1	0x3bfc682e	0.007702849
2	0x3c88e3eb	0.016710242
3	0x3be2cfab	0.0069217286
4	0xbbf723a3	-0.00754209
5	0x3bba140f	0.0056786607
6	0xbcde65f5	-0.027148226
7	0xbc0b814a	-0.008514712
8	0xbc1a6939	-0.009424501
9	0xbc560ac2	-0.013064088
10	0x3c979bdb	0.018506935
11	0xbc6de527	-0.014519966
12	0xbc07f7b2	-0.008298801
13	0xbc36c279	-0.011154764
14	0xbbca320d	-0.0061705173
15	0x3c610f4d	0.013736558
16	0x3aefc660	0.0018293373
17	0x3c0054d0	0.007832721
18	0x3cdb5d26	0.026777815
19	0x3c106f96	0.008815667
20	0x3c31db61	0.010855527
21	0xbc19f8c2	-0.009397687
22	0xbd113141	-0.035447363
23	0x3c7dcea8	0.015491165
24	0x3951e7c0	0.00020018127
25	0x3bb47951	0.005507626
26	0x3b090081	0.0020904841
27	0x3c6421f1	0.013924108
28	0xbb20a428	-0.0024511907
29	0xbd310497	-0.043217268
30	0xbb41ce62	-0.0029572477
31	0xbba73a67	-0.0051033976
32	0xbca9426d	-0.020661557
33	0xbd7bf6eb	-0.061514776
34	0xbb10dca9	-0.002210418
35	0xbc4ea553	-0.012612659
36	0xbc9e2aa8	-0.01930745
37	0xba176af6	-0.00057761313
38	0xbc3cbb90	-0.011519328
39	0xbc09bb85	-0.008406525
40	0x3d3c7648	0.04601124
41	0x3bc6e2a1	0.0060694967
42	0x3bd001b7	0.0063478607
43	0xbcd5b060	-0.026085079
44	0xbb0f8c7c	-0.0021903804
45	0x3abd910f	0.0014462786
46	0x3c28a5cd	0.010293436
47	0x3c65bc09	0.014021882
48	0x3c2097d3	0.009801823
49	0xbc1cf02c	-0.009578746
50	0x3d0e3e6d	0.034727503
51	0x3c1a02f3	0.009400117
52	0xbc3e7dcd	-0.011626673
53	0xbb5c9b05	-0.0033661735
54	0xbcd5b6ff	-0.026088236
55	0x3b4e4bd5	0.0031478305
56	0xbbdd29a5	-0.006749349
57	0x3ba8f65a	0.0051563205
58	0x3c21b247	0.009869165
59	0xba1f7968	-0.00060834596
60	0xbc59d33e	-0.013294993
61	0xba422fff	-0.00074076647
62	0x3cb2ec31	0.02184114
63	0xbbeb7fc4	-0.0071868617

base.mlp.fc1.2.weight f4 [64]
0	0x3f7c8abc	0.9864919
1	0x3f7fc173	0.99904555
2	0x3f805aa0	1.0027657
3	0x3f815c02	1.0106204
4	0x3f8031e6	1.0015228
5	0x3f7eb506	0.9949497
6	0x3f80bf78	1.0058432
7	0x3f80896e	1.004194
8	0x3f81cc68	1.0140505
9	0x3f80b3f3	1.0054916
10	0x3f807839	1.0036689
11	0x3f7d0205	0.98831207
12	0x3f80d86a	1.0066044
13	0x3f7b04ba	0.9805409
14	0x3f81f49f	1.0152777
15	0x3f7b9c6f	0.98285574
16	0x3f7be654	0.9839833
17	0x3f81401c	1.009769
18	0x3f84d9a5	1.037892
19	0x3f8313f2	1.0240462
20	0x3f84ac2a	1.036504
21	0x3f808a68	1.0042238
22	0x3f7a825c	0.9785516
23	0x3f83cb77	1.0296468
24	0x3f7fe1f4	0.9995415
25	0x3f795054	0.97388196
26	0x3f83943f	1.0279616
27	0x3f7ecf4d	0.99535066
28	0x3f80ff7c	1.0077968
29	0x3f7c6c52	0.98602784
30	0x3f7fe3d5	0.9995702
31	0x3f7c5c06	0.98577917
32	0x3f826ee4	1.0190091
33	0x3f849638	1.0358343
34	0x3f7e5cd8	0.9936042
35	0x3f7afab3	0.98038787
36	0x3f7c3876	0.9852365
37	0x3f802ccf	1.0013674
38	0x3f7ed2a0	0.9954014
39	0x3f847213	1.0347313
40	0x3f797631	0.9744597
41	0x3f8105ff	1.0079955
42	0x3f800def	1.0004252
43	0x3f79776a	0.97447836
44	0x3f7ec5aa	0.9952036
45	0x3f804675	1.0021502
46	0x3f82a8df	1.0207785
47	0x3f7e9425	0.994448
48	0x3f795b88	0.9740529
49	0x3f803977	1.0017537
50	0x3f822978	1.0168905
51	0x3f7ed43c	0.99542594
52	0x3f829c0c	1.0203872
53	0x3f80e72f	1.0070552
54	0x3f7fd0b3	0.99927825
55	0x3f816b10	1.0110798
56	0x3f7e8e38	0.9943576
57	0x3f78addc	0.9714029
58	0x3f813a22	1.0095866
59	0x3f7d8927	0.990374
60	0x3f8084cc	1.0040526
61	0x3f830dd8	1.02386
62	0x3f835007	1.0258797
63	0x3f801ddf	1.0009116

base.mlp.fc1.2.bias f4 [64]
0	0x3c8c6e7a	0.017142523
1	0x3ca5d4ba	0.020243037
2	0x3c227075	0.009914507
3	0xbb142665	-0.0022605893
4	0xbbf29c35	-0.0074038752
5	0x3c40729c	0.011746075
6	0xbc2d84d0	-0.010590747
7	0xbc6ef75f	-0.014585345
8	0xbcc54526	-0.024080824
9	0xbc98af62	-0.018638317
10	0x3ce1a248	0.027543202
11	0xbca3e575	-0.020006875
12	0xbc82cc31	-0.015966507
13	0xba0216c5	-0.00049624994
14	0xbc8e1dab	-0.017348131
15	0x3c45d039	0.01207357
16	0xbc8cc19d	-0.017182166
17	0xbc2130d6	-0.009838304
18	0x3c8fc713	0.01755098
19	0xbc8064c5	-0.01567305
20	0xbc88e076	-0.016708594
21	0xbc5c2df1	-0.013438688
22	0xbca9c06d	-0.020721639
23	0x3b83f459	0.0040269312
24	0x3b23c555	0.0024989445
25	0x3cde50ae	0.02713808
26	0xbd037f51	-0.03210384
27	0x3bbc2563	0.0057417615
28	0xbc770871	-0.015077696
29	0xbcccd13d	-0.025002116
30	0xbad6683d	-0.001635797
31	0x3ba12abd	0.004918425
32	0xbcb5c0be	-0.022186633
33	0xbd53a07f	-0.051666733
34	0xbbf2d2ad	-0.0074103684
35	0xbc7abbb9	-0.015303546
36	0xbc59ef65	-0.013301705
37	0x3bd7eb91	0.006589361
38	0x3bca7010	0.0061779097
39	0xbd06db95	-0.032924253
40	0x3d20d252	0.039263077
41	0xbb3b1606	-0.0028547063
42	0xbad36746	-0.00161288
43	0xbc5dc358	-0.013535343
44	0xbb3366fc	-0.0027374616
45	0x3a379751	0.0007003444
46	0xbc19ec14	-0.009394664
47	0xbb771d2c	-0.0037706597
48	0x3c93c8b8	0.018040046
49	0xbc1d7587	-0.00961054
50	0x3d0b0e10	0.033948958
51	0x3c4a163c	0.012334403
52	0xbcb6217f	-0.022232769
53	0xbc0867ac	-0.008325499
54	0xbc6507c5	-0.013978903
55	0xba483412	-0.00076371536
56	0x3c010b32	0.007876204
57	0x3d02037b	0.0317416
58	0xba9c2eac	-0.0011915765
59	0xbc033ce2	-0.008010121
60	0xbb6dd341	-0.0036289247
61	0xbcd990f0	-0.02655837
62	0x3cad4d94	0.021155156
63	0xbadeebc5	-0.0017007521

base.mlp.fc_h.0.weight f4 [64, 64]
0	0x3d5d155b	0.053975444
1	0x3dc81fd7	0.09771698
2	0x3d550a0f	0.052011546
3	0xbc51ebcd	-0.012812567
4	0xbd8fff3f	-0.07031106
5	0x3d5d8744	0.054084077
6	0x3d2ca7c8	0.042152196
7	0x3eaf7e04	0.3427583
8	0x3ecf940c	0.40542638
9	0xbdf30048	-0.11865288
10	0x3e1b68f8	0.15176761
11	0xbdd2fb79	-0.10301871
12	0x3dfa549b	0.122231685
13	0xbd429f4c	-0.0475152
14	0xbcf16325	-0.029466221
15	0xbdc1c535	-0.094614424
16	0xbbe55516	-0.0069986684
17	0xbceacc0e	-0.028661754
18	0x3d6c0681	0.05762339
19	0xbd12096b	-0.035653513
20	0xbea7dfb9	-0.32787874
21	0x3c580f2c	0.013187211
22	0x3d83d238	0.064365804
23	0x3e537139	0.2064866
24	0x3c5cdf43	0.013480964
25	0xbd840dc2	-0.064479366
26	0x3e2a620c	0.16638964
27	0xbe20a7de	-0.15689036
28	0xbc7d5b0f	-0.015463605
29	0xbe3452cf	-0.17609714
30	0xbdf0b342	-0.11752941
31	0xbe47c16c	-0.19507378
32	0x3af43bb5	0.0018633517
33	0xbd0e2a8b	-0.03470854
34	0xbe2621d1	-0.16223837
35	0x3ec7e19f	0.39039323
36	0xbe6f7ecc	-0.23388213
37	0x3eb1c808	0.34722924
38	0xbea3f636	-0.32023782
39	0x3de8ed26	0.113733575
40	0x3ddb161d	0.10697577
41	0xbe3fb9d1	-0.18723227
42	0x3e5c11b0	0.21491122
43	0x3e3e9668	0.18612063
44	0x3ddc8cf1	0.1076907
45	0x3d8a1bc8	0.0674358
46	0xbcebc9c8	-0.02878274
47	0xbef7c00b	-0.48388705
48	0xbb422c8c	-0.0029628603
49	0x3e747623	0.2387319
50	0x3d90d5d1	0.07072032
51	0xbe8b0b8d	-0.2715725
52	0x3da75df2	0.081722155
53	0x3c6694b3	0.014073539
54	0xbd05f7ba	-0.032706954
55	0x3d94f34a	0.07272966
56	0x3d63ad19	0.055585
57	0x3e826df2	0.25474507
58	0x3da6ba94	0.08141056
59	0xbe16087d	-0.14651676
60	0x3e00f473	0.1259325
61	0x3dcd3548	0.10019928
62	0x3ee0de5c	0.43919647
63	0x3d9b4477	0.07581418
64	0x3edf6ddb	0.436385
65	0x3e130490	0.14357209
66	0xbe559990	-0.2085936
67	0xbbc3847d	-0.0059667216
68	0xbe05f186	-0.13080415
69	0xbea2f238	-0.31825423
70	0xbd945024	-0.07241848
71	0xbe29e58f	-0.16591476
72	0xbe105489	-0.14094748
73	0xbe1e2799	-0.15444793
74	0xbec1464d	-0.37748948
75	0xbc62d3ae	-0.013844414
76	0xbdc93219	-0.098240085
77	0xbe51a97e	-0.20474812
78	0x3d967932	0.07347335
79	0x3e190502	0.14943317
80	0x3e0772e9	0.13227428
81	0xbcea57a1	-0.028606238
82	0x3df5f805	0.120101966
83	0x3e6e9583	0.23299222
84	0xbe96f0e7	-0.2948067
85	0xbd6c7d29	-0.05773655
86	0x3e1c8121	0.15283634
87	0x3dd250c7	0.10269313
88	0x3d86c318	0.0658018
89	0x3e178f21	0.14800693
90	0x3e08fc27	0.13377438
91	0xbd1d6a24	-0.0384313
92	0xbe108301	-0.14112474
93	0xbd9d6395	-0.076850094
94	0xbe8b5c26	-0.2721874
95	0x3de422ad	0.111394264
96	0x3e9f547b	0.3111914
97	0xbe3b31fb	-0.18280785
98	0x3dfddcd9	0.12395639
99	0x3da5c498	0.08094138
100	0xbd62fbfe	-0.0554161
101	0x3e8361fe	0.256607
102	0x3e32d0bf	0.17462443
103	0x3e0577b4	0.13033944
104	0xbcd0bdec	-0.025481187
105	0xbe10a0e1	-0.1412387
106	0xbe089a8c	-0.13340205
107	0xbe91dc33	-0.2848831
108	0xbba40b78	-0.00500625
109	0x3e9f87ef	0.31158397
110	0x3c05938c	0.008152854
111	0x3e4d83d3	0.20069818
112	0xbcd05aee	-0.025433984
113	0x3dd7dbc1	0.105399616
114	0xbd81a632	-0.06330527
115	0x3d5e5236	0.05427762
116	0xbd60d582	-0.054891117
117	0x3de2608a	0.110535696
118	0x3e5e5aec	0.21714371
119	0xbd448467	-0.04797783
120	0x3e89749e	0.26846784
121	0x3e80d0bb	0.2515925
122	0x3b4697e5	0.0030302939
123	0x3d49c489	0.049259696
124	0x3ecad5ce	0.39616245
125	0xbe3fe6d7	-0.18740402
126	0xbdea8b60	-0.11452365
127	0xbdb0e751	-0.0863787
128	0x3e4be63c	0.19912046
129	0xbd536796	-0.05161246
130	0x3d925f81	0.07147122
131	0x3e866540	0.26249123
132	0x3d61e044	0.055145517
133	0xbe3115d2	-0.1729348
134	0x3daa8543	0.08326199
135	0xbdd80453	-0.105477
136	0x3dc43308	0.09580046
137	0x3d725685	0.059164543
138	0x3e0f481b	0.1399235
139	0xbdcf1f59	-0.10113401
140	0x3ebbc47a	0.36673337
141	0xbcb082e9	-0.021546798
142	0xbd75013a	-0.059815623
143	0x3e592e26	0.2120901
144	0xbe2b11ae	-0.16705963
145	0xbd55bcb3	-0.05218191
146	0x3d437de3	0.047727477
147	0xbc694c40	-0.014239371
148	0x3c329e79	0.010902041
149	0x3ddeab2b	0.108724914
150	0xbd78a0db	-0.06070028
151	0xbe048cbd	-0.12944312
152	0xbe362fc5	-0.1779166
153	0x3d535d1f	0.05160248
154	0x3e667460	0.22505331
155	0xbe8223cd	-0.2541794
156	0xbde13f8c	-0.10998449
157	0x3d83e595	0.06440274
158	0xbe588ee1	-0.21148254
159	0x3d1ba347	0.03799751
160	0xbdc64516	-0.09681146
161	0xbe877f43	-0.2646428
162	0x3e1afaa8	0.1513468
163	0x3bfc5475	0.0077004978
164	0xbd7ebd63	-0.062192332
165	0xbc67ef12	-0.01415612
166	0xbe2bf3c9	-0.16792215
167	0x3e992b75	0.29915968
168	0xbe447b6a	-0.19187704
169	0x3e7ad30d	0.24494572
170	0xbe4d4682	-0.20046428
171	0x3e35b627	0.17745267
172	0x3e17aa13	0.14810972
173	0xbdd87670	-0.10569465
174	0xbe6e3d72	-0.23265627
175	0x3ba6c45e	0.0050893268
176	0xbd80498c	-0.06264028
177	0x3e51cb0c	0.20487612
178	0x3e7c73cd	0.2465355
179	0x3c510bff	0.012759208
180	0x3d296455	0.04135545
181	0xbeb2d8f1	-0.34931138
182	0xbee148ba	-0.44000798
183	0xbecf16a9	-0.40446976
184	0x3e395f41	0.18102743
185	0xbd0ae0cd	-0.033905793
186	0x3d4b31e4	0.049608126
187	0x3d539ce1	0.051663283
188	0xbe0f148c	-0.13972682
189	0xbe5da83b	-0.21646206
190	0xbeaab608	-0.33342004
191	0x3e590dc1	0.21196653
192	0x3ed4dce1	0.41574767
193	0x3e1150b0	0.14190936
194	0xbde2c639	-0.11072964
195	0xbb94e404	-0.004543783
196	0xbe707905	-0.23483665
197	0xbc84e964	-0.01622457
198	0x3e18da29	0.14926971
199	0xbe185905	-0.14877708
200	0x3df54c32	0.11977424
201	0x3e03148f	0.12800811
202	0xbccd3ac5	-0.025052438
203	0x3c41d1b7	0.011829785
204	0xbcee2e90	-0.029074937
205	0xbe6a8206	-0.22901163
206	0xbe01d56c	-0.1267907
207	0xba3a7297	-0.0007112412
208	0xbc9972c6	-0.018731486
209	0x3e88a1d1	0.26685956
210	0x3e091905	0.1338845
211	0xbe1649c2	-0.14676574
212	0x3dae8ba7	0.0852273
213	0x3de2d614	0.110759884
214	0x3eae2981	0.3401604
215	0x3dcb0fc8	0.099151194
216	0x3e08fbbf	0.13377284
217	0xbeadb980	-0.33930588
218	0xbcef889c	-0.029239945
219	0x3d80511e	0.06265472
220	0x3d653d3c	0.0559666
221	0xbc99ae67	-0.01875992
222	0x3e64bf12	0.22338513
223	0x3e9cd8e5	0.30634227
224	0xbeb3e7c9	-0.35137776
225	0xbe2c0454	-0.16798526
226	0xbd26e011	-0.04074103
227	0xbd27f097	-0.04100093
228	0x3e39cbcc	0.18144149
229	0xbe840f2c	-0.25792825
230	0x3e2b2111	0.16711833
231	0xbdaa5e2f	-0.08318745
232	0x3deafc4d	0.11473904
233	0xbdb31664	-0.08744505
234	0x3ec48547	0.38382933
235	0xbe61cf14	-0.2205165
236	0x3e6dc136	0.23218235
237	0xbc8d26cf	-0.01723042
238	0xbd94786f	-0.072495334
239	0xbe142c39	-0.14469995
240	0x3e41c84d	0.18924065
241	0xbdb8cbd4	-0.09023252
242	0x3e1738df	0.14767788
243	0xbe3f1290	-0.18659425
244	0x3e18980e	0.14901754
245	0xbdc55fb9	-0.09637398
246	0xba502304	-0.0007939788
247	0xbe09828d	-0.13428707
248	0x3d87f022	0.066375986
249	0x3e30af20	0.17254305
250	0x3ed476a1	0.41496757
251	0x3ddfc613	0.109264515
252	0xbe65942f	-0.22419809
253	0x3cdc7728	0.026912287
254	0xbd2bf927	-0.041985657
255	0xbe59cec3	-0.2127028

base.mlp.fc_h.0.bias f4 [64]
0	0x00000000	0.0
1	0x00000000	0.0
2	0x00000000	0.0
3	0x00000000	0.0
4	0x00000000	0.0
5	0x00000000	0.0
6	0x00000000	0.0
7	0x00000000	0.0
8	0x00000000	0.0
9	0x00000000	0.0
10	0x00000000	0.0
11	0x00000000	0.0
12	0x00000000	0.0
13	0x00000000	0.0
14	0x00000000	0.0
15	0x00000000	0.0
16	0x00000000	0.0
17	0x00000000	0.0
18	0x00000000	0.0
19	0x00000000	0.0
20	0x00000000	0.0
21	0x00000000	0.0
22	0x00000000	0.0
23	0x00000000	0.0
24	0x00000000	0.0
25	0x00000000	0.0
26	0x00000000	0.0
27	0x00000000	0.0
28	0x00000000	0.0
29	0x00000000	0.0
30	0x00000000	0.0
31	0x00000000	0.0
32	0x00000000	0.0
33	0x00000000	0.0
34	0x00000000	0.0
35	0x00000000	0.0
36	0x00000000	0.0
37	0x00000000	0.0
38	0x00000000	0.0
39	0x00000000	0.0
40	0x00000000	0.0
41	0x00000000	0.0
42	0x00000000	0.0
43	0x00000000	0.0
44	0x00000000	0.0
45	0x00000000	0.0
46	0x00000000	0.0
47	0x00000000	0.0
48	0x00000000	0.0
49	0x00000000	0.0
50	0x00000000	0.0
51	0x00000000	0.0
52	0x00000000	0.0
53	0x00000000	0.0
54	0x00000000	0.0
55	0x00000000	0.0
56	0x00000000	0.0
57	0x00000000	0.0
58	0x00000000	0.0
59	0x00000000	0.0
60	0x00000000	0.0
61	0x00000000	0.0
62	0x00000000	0.0
63	0x00000000	0.0

base.mlp.fc_h.2.weight f4 [64]
0	0x3f800000	1.0
1	0x3f800000	1.0
2	0x3f800000	1.0
3	0x3f800000	1.0
4	0x3f800000	1.0
5	0x3f800000	1.0
6	0x3f800000	1.0
7	0x3f800000	1.0
8	0x3f800000	1.0
9	0x3f800000	1.0
10	0x3f800000	1.0
11	0x3f800000	1.0
12	0x3f800000	1.0
13	0x3f800000	1.0
14	0x3f800000	1.0
15	0x3f800000	1.0
16	0x3f800000	1.0
17	0x3f800000	1.0
18	0x3f800000	1.0
19	0x3f800000	1.0
20	0x3f800000	1.0
21	0x3f800000	1.0
22	0x3f800000	1.0
23	0x3f800000	1.0
24	0x3f800000	1.0
25	0x3f800000	1.0
26	0x3f800000	1.0
27	0x3f800000	1.0
28	0x3f800000	1.0
29	0x3f800000	1.0
30	0x3f800000	1.0
31	0x3f800000	1.0
32	0x3f800000	1.0
33	0x3f800000	1.0
34	0x3f800000	1.0
35	0x3f800000	1.0
36	0x3f800000	1.0
37	0x3f800000	1.0
38	0x3f800000	1.0
39	0x3f800000	1.0
40	0x3f800000	1.0
41	0x3f800000	1.0
42	0x3f800000	1.0
43	0x3f800000	1.0
44	0x3f800000	1.0
45	0x3f800000	1.0
46	0x3f800000	1.0
47	0x3f800000	1.0
48	0x3f800000	1.0
49	0x3f800000	1.0
50	0x3f800000	1.0
51	0x3f800000	1.0
52	0x3f800000	1.0
53	0x3f800000	1.0
54	0x3f800000	1.0
55	0x3f800000	1.0
56	0x3f800000	1.0
57	0x3f800000	1.0
58	0x3f800000	1.0
59	0x3f800000	1.0
60	0x3f800000	1.0
61	0x3f800000	1.0
62	0x3f800000	1.0
63	0x3f800000	1.0

base.mlp.fc_h.2.bias f4 [64]
0	0x00000000	0.0
1	0x00000000	0.0
2	0x00000000	0.0
3	0x00000000	0.0
4	0x00000000	0.0
5	0x00000000	0.0
6	0x00000000	0.0
7	0x00000000	0.0
8	0x00000000	0.0
9	0x00000000	0.0
10	0x00000000	0.0
11	0x00000000	0.0
12	0x00000000	0.0
13	0x00000000	0.0
14	0x00000000	0.0
15	0x00000000	0.0
16	0x00000000	0.0
17	0x00000000	0.0
18	0x00000000	0.0
19	0x00000000	0.0
20	0x00000000	0.0
21	0x00000000	0.0
22	0x00000000	0.0
23	0x00000000	0.0
24	0x00000000	0.0
25	0x00000000	0.0
26	0x00000000	0.0
27	0x00000000	0.0
28	0x00000000	0.0
29	0x00000000	0.0
30	0x00000000	0.0
31	0x00000000	0.0
32	0x00000000	0.0
33	0x00000000	0.0
34	0x00000000	0.0
35	0x00000000	0.0
36	0x00000000	0.0
37	0x00000000	0.0
38	0x00000000	0.0
39	0x00000000	0.0
40	0x00000000	0.0
41	0x00000000	0.0
42	0x00000000	0.0
43	0x00000000	0.0
44	0x00000000	0.0
45	0x00000000	0.0
46	0x00000000	0.0
47	0x00000000	0.0
48	0x00000000	0.0
49	0x00000000	0.0
50	0x00000000	0.0
51	0x00000000	0.0
52	0x00000000	0.0
53	0x00000000	0.0
54	0x00000000	0.0
55	0x00000000	0.0
56	0x00000000	0.0
57	0x00000000	0.0
58	0x00000000	0.0
59	0x00000000	0.0
60	0x00000000	0.0
61	0x00000000	0.0
62	0x00000000	0.0
63	0x00000000	0.0

base.mlp.fc2.0.0.weight f4 [64, 64]
0	0x3d1f4f8f	0.038894232
1	0x3d9a846d	0.075447895
2	0x3cebc1cb	0.028778931
3	0x3c738019	0.014862084
4	0xbdb2b313	-0.08725562
5	0x3cfd2a8f	0.030904083
6	0x3d0eb895	0.034844
7	0x3ea31d21	0.3185816
8	0x3ec37a6a	0.38179332
9	0xbdebbd22	-0.115106836
10	0x3e0b9949	0.13632692
11	0xbd8a1b0c	-0.0674344
12	0x3de0684d	0.10957394
13	0xbbc82e45	-0.0061090314
14	0xbd4310d5	-0.047623474
15	0xbdf0054f	-0.117197625
16	0xbc37a511	-0.0112087885
17	0xbd33c109	-0.043885265
18	0x3d996e79	0.07491774
19	0xbd6e837d	-0.058230866
20	0xbeb560df	-0.3542547
21	0x3ac85f78	0.0015287241
22	0x3daf7411	0.0856706
23	0x3e6d6ea6	0.2318674
24	0x3d04f9e1	0.032464866
25	0xbda34636	-0.07972376
26	0x3e1ac746	0.1511508
27	0xbe06b7a3	-0.1315599
28	0xbd1b3f4d	-0.037902165
29	0xbe103874	-0.14084035
30	0xbe053d4a	-0.13011661
31	0xbe5f050a	-0.21779266
32	0xbc504988	-0.012712844
33	0xbd42b2af	-0.047533687
34	0xbe38aaec	-0.18033952
35	0x3ecde710	0.4021535
36	0xbe881ddb	-0.26585278
37	0x3ea4f58e	0.32218593
38	0xbeab71c2	-0.33485228
39	0x3daf0f7f	0.085478775
40	0x3e0da02f	0.13830636
41	0xbe5b51b0	-0.2141788
42	0x3e6f685e	0.23379657
43	0x3e619ae2	0.2203174
44	0x3e126ee3	0.14300112
45	0x3d55cd0e	0.05219751
46	0xbd33ef58	-0.043929428
47	0xbee8926e	-0.45424217
48	0xbcdff740	-0.027339578
49	0x3e5fe544	0.21864802
50	0x3d890b8e	0.06691657
51	0xbe98775e	-0.2977857
52	0x3d87c855	0.06630007
53	0xbcd2be85	-0.025725612
54	0xbc8d2924	-0.017231531
55	0x3dd690fb	0.104768716
56	0x3d0de8e1	0.03464592
57	0x3e76aafa	0.2408866
58	0x3de91f36	0.11382906
59	0xbdf1f6b4	-0.11814633
60	0x3de334d1	0.11094058
61	0x3d9786f7	0.073987894
62	0x3ee86c46	0.45395106
63	0x3d7a8793	0.06116445
64	0x3edf6911	0.43634847
65	0x3e10fd84	0.14159209
66	0xbe57a4c8	-0.21058953
67	0xbc0265b4	-0.007958818
68	0xbe07f6ba	-0.13277712
69	0xbea1d044	-0.31604207
70	0xbd904cb5	-0.07045881
71	0xbe2be9e2	-0.16788438
72	0xbe0e9d8f	-0.13927291
73	0xbe1b6720	-0.15176058
74	0xbec24d05	-0.37949386
75	0xbc5761a9	-0.013145843
76	0xbdcce94e	-0.10005437
77	0xbe4f5238	-0.20246208
78	0x3d9266f0	0.0714854
79	0x3e170117	0.1474651
80	0x3e0a10e3	0.13483004
81	0xbcd5bd54	-0.026091255
82	0x3df1db8f	0.118094556
83	0x3e70adb1	0.23503758
84	0xbe97f254	-0.2967707
85	0xbd74c00b	-0.05975346
86	0x3e1aa01c	0.1510014
87	0x3dce34b0	0.10068643
88	0x3d82ae1e	0.063808665
89	0x3e158390	0.14600968
90	0x3e0b9737	0.13631903
91	0xbd2593e7	-0.040424254
92	0xbe0f52c5	-0.13996418
93	0xbda03db9	-0.07824273
94	0xbe8c0782	-0.27349478
95	0x3de9b066	0.114105985
96	0x3e9e38a0	0.30902576
97	0xbe3885c1	-0.18019773
98	0x3df9cdbb	0.12197443
99	0x3da1af2b	0.07894739
100	0xbd6b2524	-0.057408467
101	0x3e825baa	0.2546056
102	0x3e31f602	0.17379001
103	0x3e037007	0.12835704
104	0xbce1320e	-0.027489688
105	0xbe12af68	-0.14324725
106	0xbe0aa2af	-0.13538621
107	0xbe90cde9	-0.28282097
108	0xbbe50a56	-0.0069897575
109	0x3e9f76f6	0.31145447
110	0x3bc9b11b	0.006155146
111	0x3e4ef78e	0.20211622
112	0xbce08c9d	-0.0274108
113	0x3dd3c773	0.10340776
114	0xbd85acf7	-0.06527131
115	0x3d5639b0	0.05230111
116	0xbd6008ce	-0.054695897
117	0x3dde4ceb	0.10854515
118	0x3e60d7c8	0.21957314
119	0xbd3cb43a	-0.046070315
120	0x3e886739	0.26641253
121	0x3e8034fc	0.25040424
122	0x3b724a7d	0.0036970668
123	0x3d42314f	0.047410306
124	0x3ecc1031	0.39856103
125	0xbe41f166	-0.18939742
126	0xbdeeaacd	-0.116536714
127	0xbdb4eea8	-0.088345826
128	0x3e4d885b	0.20071547
129	0xbd508dbd	-0.050916422
130	0x3d93a241	0.07208682
131	0x3e80c1aa	0.25147754
132	0x3d5d10e7	0.053971197
133	0xbe2d1b1b	-0.16904871
134	0x3db2e38f	0.087348096
135	0xbdc81174	-0.09768954
136	0x3dcc0039	0.0996098
137	0x3d8890fa	0.06668277
138	0x3e0a9d89	0.13536657
139	0xbdce4527	-0.100717835
140	0x3ebc1b97	0.367398
141	0xbc88372f	-0.016627876
142	0xbd7636f6	-0.06011101
143	0x3e533970	0.2062738
144	0xbe24f6a3	-0.1610971
145	0xbd4340fb	-0.047669392
146	0x3d277883	0.040886413
147	0xbc2a41ff	-0.010391711
148	0x3c6a9ccd	0.014319611
149	0x3ddb77b2	0.107161894
150	0xbd7600ff	-0.060059544
151	0xbe130584	-0.14357573
152	0xbe3f22ec	-0.18665665
153	0x3d814daa	0.06313641
154	0x3e73c288	0.23804677
155	0xbe822a18	-0.2542274
156	0xbdd8ad3b	-0.10579916
157	0x3d782064	0.060577765
158	0xbe54adae	-0.20769379
159	0x3d35af24	0.04435648
160	0xbdc39db8	-0.09551567
161	0xbe84df6b	-0.25951704
162	0x3e1b1481	0.1514454
163	0xbbd6632e	-0.006542585
164	0xbd8b220b	-0.067936026
165	0xbc5fc3d3	-0.013657528
166	0xbe2ad016	-0.16680941
167	0x3e99f4e7	0.30069658
168	0xbe355287	-0.17707263
169	0x3e7953e1	0.24348404
170	0xbe4f8da2	-0.20268872
171	0x3e37d930	0.17953944
172	0x3e17d3a0	0.14826822
173	0xbdd6be40	-0.10485506
174	0xbe69ccc5	-0.2283202
175	0x3b473be8	0.0030400697
176	0xbd85d1aa	-0.06534131
177	0x3e595d49	0.21226992
178	0x3e77b4d5	0.24190076
179	0x3bd05d7c	0.0063588005
180	0x3d5620c3	0.052277338
181	0xbeb2d9e0	-0.3493185
182	0xbee03967	-0.43793795
183	0xbed3ab11	-0.4134145
184	0x3e437922	0.19089177
185	0xbcfd70e9	-0.030937629
186	0x3d559a2b	0.05214898
187	0x3d2f57f8	0.042808503
188	0xbe0c4c91	-0.13701083
189	0xbe5cbe3c	-0.21556944
190	0xbeaf66df	-0.34258172
191	0x3e58c38f	0.2116835
192	0x3ecd3b38	0.40084243
193	0x3e0d96e8	0.13827097
194	0xbded32d8	-0.11581963
195	0x3b5e7414	0.00339437
196	0xbe85927f	-0.2608833
197	0xbcedfe26	-0.029051851
198	0x3dfdc8dc	0.123918265
199	0xbe2a4171	-0.16626526
200	0x3dd8fa27	0.10594588
201	0x3dd4b50a	0.10386093
202	0xbd0bc770	-0.034125745
203	0x3c9adb82	0.018903498
204	0xbd2e049b	-0.04248486
205	0xbe520c3c	-0.2051248
206	0xbe13f750	-0.14449811
207	0xbc3fb989	-0.01170195
208	0xbcab4eef	-0.020911662
209	0x3e7d7a5c	0.24753708
210	0x3e2553b0	0.16145205
211	0xbe247d32	-0.16063383
212	0x3d5d685b	0.0540546
213	0x3dc7bd49	0.097529
214	0x3eb133c6	0.34609812
215	0x3df9f153	0.12204232
216	0x3e176d08	0.14787686
217	0xbebd1996	-0.36933583
218	0xbd712d5b	-0.058881145
219	0x3d9680c8	0.07348782
220	0x3d2a4e81	0.041578773
221	0xbc633741	-0.013868154
222	0x3e553c3d	0.2082376
223	0x3e97a185	0.29615417
224	0xbebe26f8	-0.37139106
225	0xbe33b369	-0.17548908
226	0xbd5bd7f0	-0.05367273
227	0xbc6b03e8	-0.014344193
228	0x3e33850b	0.1753122
229	0xbe8c403d	-0.2739276
230	0x3e1be10f	0.15222572
231	0xbddb612c	-0.107118934
232	0x3df1ba44	0.118031055
233	0xbdc2113b	-0.09475943
234	0x3eca48d5	0.3950869
235	0xbe432716	-0.19057879
236	0x3e765360	0.24055243
237	0xbd01eed8	-0.03172192
238	0xbdb06571	-0.086130984
239	0xbdf89f35	-0.12139741
240	0x3e39591d	0.181004
241	0xbddac7ad	-0.106826164
242	0x3e2db012	0.16961697
243	0xbe480b5e	-0.19535586
244	0x3df34bc3	0.11879685
245	0xbdeae296	-0.11468999
246	0x3c5cf079	0.0134850675
247	0xbe039423	-0.12849478
248	0x3d505030	0.050857723
249	0x3e1c2e49	0.15252031
250	0x3edf0ebd	0.43565932
251	0x3df21627	0.118206315
252	0xbe73c6d1	-0.23806311
253	0x3cbb19aa	0.022839386
254	0xbcc10ea6	-0.023566555
255	0xbe6aa98b	-0.22916238

base.mlp.fc2.0.0.bias f4 [64]
0	0x3c799402	0.015233042
1	0x3b152657	0.0022758448
2	0xb99c19b5	-0.00029773792
3	0x3c89d1e1	0.01682371
4	0xbc3e3fd0	-0.011611894
5	0xbca0082c	-0.019535147
6	0x3b8a2f06	0.0042170314
7	0xbb214485	-0.0024607491
8	0xbbdd90ad	-0.0067616315
9	0x39997b1f	0.00029274166
10	0xbbb9f326	-0.0056747375
11	0x3b93f8ba	0.0045157345
12	0xba89da3b	-0.0010517308
13	0x3b4ad1f9	0.0030947907
14	0xbc0c0bc9	-0.008547732
15	0x3c052675	0.008126845
16	0xbb76875b	-0.00376173
17	0x3c067b26	0.008208072
18	0xbc50e6f6	-0.012750378
19	0xbbecfab5	-0.007232035
20	0x3ce583ba	0.028016914
21	0x3d1e4703	0.03864194
22	0x3d774c3c	0.060375437
23	0xbb0eeed4	-0.0021809833
24	0x3be1fc67	0.006896544
25	0xbc31be00	-0.010848522
26	0x3c231600	0.009953976
27	0x3bb00f1e	0.005372896
28	0x3d047a76	0.03234335
29	0xbcb812cb	-0.022469899
30	0xba867ffa	-0.0010261529
31	0xbbf59f62	-0.0074958066
32	0xbbe46fc9	-0.0069713336
33	0x3abd3b7c	0.0014437283
34	0xbbfb2b07	-0.0076650414
35	0x3cde22a9	0.027116137
36	0x3ab35e82	0.0013684782
37	0xbb8e015b	-0.0043336577
38	0x3ce47696	0.027888577
39	0xbc3db7ff	-0.011579513
40	0xbc3207a0	-0.010866076
41	0x3c0f1b18	0.008734487
42	0x3c03bc3a	0.008040482
43	0x3a1d466a	0.0005999567
44	0xbd0b4beb	-0.034007948
45	0x3b4bf725	0.0031122651
46	0xbb4ccc53	-0.0031249716
47	0xba9bb6a0	-0.0011879988
48	0x3b2b4677	0.002613453
49	0x3b0166e0	0.0019745156
50	0xbc02a9db	-0.007975067
51	0x3a948133	0.0011330008
52	0x3ccf7427	0.02532394
53	0x3b338b46	0.0027396246
54	0x3c7c959e	0.015416531
55	0xbd07b71c	-0.03313361
56	0x3cc85f12	0.024459396
57	0x3be6f32a	0.0070480304
58	0x3be5cd48	0.007012997
59	0xbc3659ed	-0.011129838
60	0xbbabf940	-0.005248219
61	0xbbf7bd87	-0.007560435
62	0x3b1eeeef	0.0024251302
63	0xbbc1d106	-0.00591481

base.mlp.fc2.0.2.weight f4 [64]
0	0x3f82364f	1.0172824
1	0x3f8362d9	1.0264541
2	0x3f858c8f	1.043352
3	0x3f852908	1.0403147
4	0x3f85ff11	1.0468465
5	0x3f7c5066	0.9856018
6	0x3f858699	1.0431701
7	0x3f865fb9	1.0497962
8	0x3f856b82	1.0423434
9	0x3f840fb2	1.031729
10	0x3f856764	1.0422177
11	0x3f843938	1.0329962
12	0x3f84697e	1.0344694
13	0x3f85dbe2	1.0457728
14	0x3f859f8c	1.0439315
15	0x3f828faf	1.0200099
16	0x3f8680bb	1.0508035
17	0x3f867762	1.0505183
18	0x3f85890b	1.0432447
19	0x3f839f66	1.028302
20	0x3f852894	1.0403008
21	0x3f7ebd6c	0.99507785
22	0x3f84e3f9	1.0382072
23	0x3f841a33	1.0320495
24	0x3f85eda9	1.0463153
25	0x3f861c75	1.0477434
26	0x3f82a5cc	1.0206847
27	0x3f7b7139	0.9821964
28	0x3f85b45d	1.0445668
29	0x3f852114	1.040072
30	0x3f85e98a	1.0461895
31	0x3f83e54a	1.0304348
32	0x3f85462d	1.0412041
33	0x3f8267ab	1.0187887
34	0x3f809560	1.0045586
35	0x3f85ff7c	1.0468593
36	0x3f864ad5	1.0491587
37	0x3f85d626	1.0455978
38	0x3f8568e4	1.0422635
39	0x3f868ebe	1.0512311
40	0x3f7c8604	0.9864199
41	0x3f81895b	1.0120043
42	0x3f80a8fa	1.0051568
43	0x3f86893b	1.051063
44	0x3f84fc8c	1.0389571
45	0x3f837658	1.0270491
46	0x3f8038a0	1.001728
47	0x3f860488	1.0470133
48	0x3f86565f	1.0495108
49	0x3f841828	1.0319872
50	0x3f8637bd	1.048576
51	0x3f8638b0	1.048605
52	0x3f8697c9	1.0515071
53	0x3f849146	1.0356834
54	0x3f81d812	1.0144064
55	0x3f84c8ef	1.037382
56	0x3f86c18d	1.0527817
57	0x3f84fed1	1.0390264
58	0x3f833ff1	1.0253888
59	0x3f848278	1.0352316
60	0x3f8416aa	1.0319417
61	0x3f863b30	1.0486813
62	0x3f86a843	1.0520099
63	0x3f85697c	1.0422816

base.mlp.fc2.0.2.bias f4 [64]
0	0x3cf557a9	0.029949026
1	0xbcb856ac	-0.022502266
2	0xbd501716	-0.050803266
3	0x3d6b9ce6	0.057522677
4	0xbd24cd5b	-0.040234905
5	0xbcbba880	-0.022907495
6	0xbd38fb47	-0.04516151
7	0xbd457a3e	-0.048212282
8	0xbd3c4be0	-0.045970798
9	0xbd036b1c	-0.03208457
10	0xbd47c5cf	-0.04877263
11	0xbcf29792	-0.02961329
12	0x3d46ae91	0.048506323
13	0x3d362be9	0.04447547
14	0xbd54d8a1	-0.051964406
15	0x3d07b871	0.03313488
16	0xbd43d6df	-0.04781234
17	0x3d38f0ed	0.04515164
18	0xbd6373ac	-0.055530235
19	0xbcce19b5	-0.025158742
20	0x3d651725	0.055930275
21	0xbc3fb3d2	-0.011700587
22	0x3d38cbb8	0.045116156
23	0xbcf24d6f	-0.029577939
24	0x3d91e170	0.07123077
25	0xbd3ae87c	-0.04563187
26	0xbc71523c	-0.014729079
27	0x3d75da63	0.060022723
28	0x3d3c7844	0.04601313
29	0x3d56f036	0.052475177
30	0xbd3fe381	-0.046847824
31	0xbcfc0c03	-0.030767446
32	0xbd5d4de9	-0.05402938
33	0xbb9cbae3	-0.004783021
34	0x3bfd7c29	0.0077357483
35	0x3da20a98	0.07912177
36	0xbd3fdddb	-0.046842437
37	0xbd555656	-0.05208429
38	0x3d34a575	0.044103105
39	0xbd39b290	-0.045336306
40	0xbcb8087e	-0.022464987
41	0xbbad4b33	-0.0052885055
42	0x3c193764	0.009351585
43	0xbd516caf	-0.05112904
44	0xbd316474	-0.04330869
45	0xbcb952a1	-0.022622408
46	0xb948c4ee	-0.00019146848
47	0xbd3a6ebe	-0.04551577
48	0xbd34911e	-0.044083707
49	0xbcf21206	-0.02954961
50	0xbd467c9b	-0.048458677
51	0x3d31c83a	0.04340384
52	0x3d513e40	0.051084757
53	0xbd160bf3	-0.03663249
54	0xbcb25635	-0.021769622
55	0xbd0e8f0f	-0.0348044
56	0x3d32b46a	0.043629088
57	0xbd3dd703	-0.04634763
58	0xbc7c4d47	-0.015399284
59	0x3d012da8	0.03153768
60	0xbcf727e5	-0.03017039
61	0xbd3666c8	-0.044531614
62	0xbd36412a	-0.04449574
63	0x3d48d199	0.049028013

act.action_out.linear.weight f4 [2, 64]
0	0xbcc3e61f	-0.023913441
1	0x3ce5fb68	0.028073981
2	0x3cd5c9e7	0.026097251
3	0xbd245f0a	-0.0401297
4	0x3d25fa12	0.04052169
5	0x39e390bc	0.0004340465
6	0x3d0bc3fa	0.034122445
7	0x3d1ebeaf	0.03875607
8	0x3d1194f9	0.035542462
9	0x3cf598e3	0.029980129
10	0x3d05deb6	0.032683097
11	0x3cf19d1a	0.029493857
12	0xbd1196d7	-0.035544243
13	0xbd428ec3	-0.04749943
14	0x3d0a3200	0.03373909
15	0xbc9009e2	-0.017582837
16	0x3d122de6	0.035688303
17	0xbd2f5419	-0.04280481
18	0x3d1ad268	0.037798315
19	0x3ccea459	0.025224851
20	0xbd19f91c	-0.037591085
21	0x3b390a6b	0.002823497
22	0xbd051dc6	-0.032499097
23	0x3ce51ad1	0.027966889
24	0xbd2e0122	-0.04248155
25	0x3d09f9ab	0.033685368
26	0x3cbad8bb	0.022808423
27	0xbc83cf2a	-0.016089994
28	0xbd1b8b4a	-0.037974633
29	0xbd42f1aa	-0.04759375
30	0x3d0bb951	0.03411228
31	0x3cfef5f3	0.031123137
32	0x3d037420	0.032093167
33	0x3cb2a4b3	0.02180705
34	0x3c25acc3	0.01011199
35	0xbd3218c1	-0.04348064
36	0x3d06d012	0.032913275
37	0x3d180057	0.0371097
38	0xbd081ef1	-0.033232633
39	0x3d2dc6c7	0.042425897
40	0x3b9f032f	0.0048526744
41	0x3ca32352	0.019914303
42	0x3c1f364a	0.009717533
43	0x3d113cdb	0.035458427
44	0x3ce4d5f4	0.027934052
45	0x3cc9eb95	0.024648467
46	0x3c3f327a	0.011669749
47	0x3d0d1862	0.03444708
48	0x3d239daa	0.039945282
49	0x3ce2c60c	0.027682327
50	0x3d1b97f1	0.0379867
51	0xbd3b3266	-0.04570236
52	0xbd30a9e8	-0.043130785
53	0x3d108f68	0.035293013
54	0x3c966589	0.018358963
55	0x3d0fbdff	0.035093304
56	0xbd29bdbc	-0.04144071
57	0x3d19c77e	0.037543766
58	0x3cdf0bff	0.0272274
59	0xbd038cc5	-0.03211667
60	0x3ceb2bf6	0.028707486
61	0x3d150f31	0.03639144
62	0x3d30c8ee	0.04316037
63	0xbd256943	-0.04038359
64	0x3cc69e02	0.024245266
65	0xbcd6115a	-0.02613132
66	0xbcecade9	-0.02889152
67	0x3d27d64d	0.040975858
68	0xbd2ed0fe	-0.04267978
69	0x3abd398f	0.001443671
70	0xbd09f689	-0.03368238
71	0xbd133b00	-0.03594494
72	0xbd06dc74	-0.032925084
73	0xbcf338f7	-0.029690249
74	0xbd09d4f3	-0.03365035
75	0xbce82776	-0.028339129
76	0x3d0afd7c	0.033933148
77	0x3d4e0105	0.05029394
78	0xbd1597e6	-0.036521815
79	0x3ca29d02	0.019850258
80	0xbd0db876	-0.034599744
81	0x3d311260	0.043230414
82	0xbd1290f2	-0.035782762
83	0xbcce605b	-0.02519243
84	0x3d1629e3	0.03666104
85	0xbabf7f7a	-0.0014610135
86	0x3d093644	0.033499017
87	0xbcd21b28	-0.025647715
88	0x3d2806cd	0.04102211
89	0xbd0c839d	-0.034305204
90	0xbcd46073	-0.025924897
91	0x3c86fde0	0.016478479
92	0x3d1379ec	0.036004946
93	0x3d34143a	0.043964602
94	0xbd0af729	-0.033927117
95	0xbcec7619	-0.028864907
96	0xbcfc2a96	-0.030782025
97	0xbcb2cc64	-0.021825977
98	0xbc41c673	-0.011827099
99	0x3d3ee65c	0.046606407
100	0xbd115655	-0.035482723
101	0xbd1da1fa	-0.03848455
102	0x3d142010	0.03616339
103	0xbd2bbad8	-0.041926235
104	0xbb99c069	-0.0046921265
105	0xbcaaa897	-0.020832343
106	0xbc4bb127	-0.012432373
107	0xbd10319d	-0.035203565
108	0xbcdfdf36	-0.027328115
109	0xbccc21a8	-0.024918392
110	0xbc2a6acb	-0.010401438
111	0xbd10df43	-0.03536917
112	0xbd276465	-0.040867228
113	0xbcd70176	-0.026245814
114	0xbd187167	-0.037217524
115	0x3d355771	0.044272844
116	0x3d3656bd	0.044516314
117	0xbd09a69f	-0.033606168
118	0xbc9bb2a3	-0.019006079
119	0xbd16f874	-0.036858037
120	0x3d360250	0.0444358
121	0xbd181a24	-0.037134305
122	0xbcc6f1f5	-0.024285296
123	0x3cf7fa68	0.03027077
124	0xbcd85dd0	-0.02641192
125	0xbd1865c7	-0.037206437
126	0xbd36788a	-0.04454855
127	0x3d2d7396	0.04234656

act.action_out.linear.bias f4 [2]
0	0xbcdac96c	-0.026707374
1	0x3cdac96e	0.026707377
