light_mappo-main/results/MyEnv/MyEnv/mappo/check/run65/models/critic.pt (torch, 41397 bytes, 15 tensors)

base.feature_norm.weight f4 [4]
0.9944574 0.9937459 1.0068055 1.0085171
00000000: c394 7e3f 2266 7e3f 01df 803f 1717 813f

base.feature_norm.bias f4 [4]
0.003383243 -0.0055781915 -0.0036160082 -0.0010079304
00000000: 66b9 5d3b 43c9 b6bb 8dfa 6cbb 881c 84ba

base.mlp.fc1.0.weight f4 [64, 4]
0.12339661 -0.054755535 -0.010142473 -0.019839078 0.28234655 -0.06283458 -0.037254144 -0.024318116
-0.012015072 0.22751659 -0.01726304 0.10235158 0.13351162 0.20191859 -0.060514577 0.10888129
0.14444686 0.10605981 -0.0051211244 0.23980792 -0.08646004 0.06208298 0.05204269 0.015881453
-0.25569847 -0.21524271 -0.31646782 -0.23145664 0.198224 -0.21155567 0.08135531 -0.14362422
-0.037798002 -0.04925411 0.2236628 -0.199219 -0.3433927 0.12551631 0.23345989 -0.12514132
0.25812906 -0.070316084 0.07867847 -0.048522078 -0.034595236 -0.2879029 0.122398056 0.72979707
-0.042734697 -0.08367932 -0.26775298 -0.1729152 -0.027983623 0.18559358 -0.28493485 -0.046877198
0.06964693 -0.1070606 -0.13952482 0.09314046 -0.04774237 -0.37018597 -0.47088104 0.10091352
-0.41233656 0.2685271 0.097560786 -0.049396046 -0.20462567 -0.12216516 0.15142712 -0.09353713
-2.9871915e-05 0.12778531 0.10762419 0.070034765 -0.29022327 -0.13512476 0.29968834 -0.11037057
-0.08972172 0.07595148 -0.0061866436 -0.0205693 0.27064216 0.19761416 -0.28452274 0.23280601
-0.21524586 0.21071948 -0.15992054 0.06888508 0.08544339 -0.17376377 0.07310181 -0.016305625
0.12579548 -0.1424172 -0.253034 0.06146396 -0.024468588 -0.2473864 0.27375463 -0.06070475
-0.18987182 0.13610484 -0.14061207 0.01465523 -0.017416608 -0.29842407 0.20411327 -0.049737092
0.024465656 0.18831591 0.064843625 0.026788747 -0.17145143 0.23867898 0.045389522 -0.18633634
0.3805157 -0.047606267 0.42764774 -0.18541151 -0.2591176 -0.1639726 -0.0727252 0.100160934
0.08477515 -0.25605372 -0.4250267 -0.32623005 0.15657689 0.19347815 -0.16927998 0.20392056
-0.10221587 -0.04514707 -0.13401704 -0.098525114 -0.22602764 -0.02472528 0.19369248 -0.2660522
0.16423549 0.029328825 -0.05106374 0.0675219 0.049701862 0.06962728 -0.13045304 -0.121990725
0.39066756 0.10562535 -0.07158221 -0.25234514 -0.16029648 -0.23345962 -0.1867054 0.14574483
0.11816845 -0.3628045 0.06027964 0.090150826 0.04893376 0.025032602 -0.0027477583 0.12917356
-0.2624426 0.06165334 -0.22176991 0.1577752 0.013809675 0.24674568 -0.0924835 -0.37963885
0.025708351 0.215429 0.20866266 -0.07143831 -0.16918126 -0.40613097 0.057139695 -0.09517208
-0.16297835 -0.054039646 -0.09636802 0.13994302 0.17437357 0.1591709 0.090819485 0.08005907
0.18034774 -0.19546293 -0.112334415 0.048553083 -0.013014966 -0.33947346 -0.01915806 -0.14632677
-0.10807994 -0.023289382 -0.14434291 -0.08246757 -0.08087075 0.018354027 -0.19681041 -0.21259317
-0.06636845 -0.000169254 0.19218847 0.14554982 -0.21820068 0.18180133 -0.20577908 0.25522703
0.22363721 -0.025546065 0.18121357 0.08958071 -0.1774589 -0.07945229 0.09313952 -0.14786586
0.079758 -0.28499743 -0.001897222 0.11374673 -0.14401235 0.1315375 0.08611236 0.31341547
0.13021533 0.098526984 -0.14181583 -0.08906379 -0.018804688 0.03741873 -0.08593903 -0.1638413
-0.29200485 -0.15594582 0.18341361 0.3030194 -0.0031560338 0.03928013 -0.046718758 0.21133088
-0.0070345774 -0.0040707584 0.010383601 0.006920339 0.18370377 0.06908381 0.15534797 0.102034844
00000000: 5db7 fc3d 5747 60bd 9d2c 26bc 9085 a2bc
00000010: ba8f 903e 6baf 80bd cd97 18bd c936 c7bc
00000020: ddda 44bc 1cfa 683e 386b 8dbc b59d d13d
00000030: 45b7 083e bfc3 4e3e 22de 77bd 27fd de3d
00000040: e1e9 133e e335 d93d 1bcf a7bb 3590 753e
00000050: f611 b1bd b94a 7e3d b72a 553d d219 823c
00000060: e9ea 82be 9668 5cbe 1208 a2be f802 6dbe
00000070: 3bfb 4a3e 0da2 58be 9d9d a63d 3a12 13be
00000080: 14d2 1abd adbe 49bd dc07 653e 1100 4cbe
00000090: 2bd1 afbe 5987 003e 1c10 6f3e 0c25 00be
000000a0: 7e29 843e e101 90bd 2d22 a13d 16bf 46bd
000000b0: bcb3 0dbd 0268 93be d5ab fa3d fbd3 3a3f
000000c0: 940a 2fbd 1060 abbd eb16 89be af10 31be
000000d0: e93d e5bc 3e0c 3e3e fbe2 91be 4e02 40bd
000000e0: 0da3 8e3d 9642 dbbd 98df 0ebe 6dc0 be3d
000000f0: 818d 43bd 0489 bdbe 5217 f1be bfab ce3d
00000100: c71d d3be 627c 893e f3cd c73d 8253 4abd
00000110: 6489 51be ba31 fabd b60f 1b3e 6590 bfbd
00000120: 7395 fab7 27da 023e 126a dc3d 636e 8f3d
00000130: 2598 94be 255e 0abe c070 993e f709 e2bd
00000140: 05c0 b7bd 738c 9b3d 54b9 cabb f380 a8bc
00000150: 9c91 8a3e 5e5b 4a3e f7ac 91be b364 6e3e
00000160: 6969 5cbe d9c6 573e 36c2 23be 9f13 8d3d
00000170: f2fc ae3d 21ef 31be 67b6 953d 6093 85bc
00000180: 88d0 003e d1d5 11be ac8d 81be a2c1 7b3d
00000190: 5972 c8bc dc52 7dbe 9129 8c3e 8ba5 78bd
000001a0: c26d 42be 115f 0b3e 9cfc 0fbe 7d1c 703c
000001b0: 46ad 8ebc 0acb 98be 1203 513e 1fb9 4bbd
000001c0: 336c c83c e3d5 403e bccc 843d 1374 db3c
000001d0: f790 2fbe 4368 743e 5dea 393d f4ce 3ebe
000001e0: f4d2 c23e cafe 42bd a5f4 da3e 84dc 3dbe
000001f0: 10ab 84be 6fe8 27be f3f0 94bd 2d21 cd3d
00000200: 989e ad3d 7919 83be 1a9d d9be a007 a7be
00000210: b155 203e 231f 463e bb57 2dbe 8dd0 503e
00000220: 8e56 d1bd 22ec 38bd c33b 09be 89c7 c9bd
00000230: ca73 67be ac8c cabc 5257 463e fe37 88be
00000240: 592d 283e 0143 f03c 3628 51bd ec48 8a3d
00000250: 2e94 4b3d bf98 8e3d 7b95 05be 46d6 f9bd
00000260: 9405 c83e 1a52 d83d b299 92bd 6233 81be
00000270: c324 24be 0a10 6fbe b32f 3fbe 223e 153e
00000280: 4d02 f23d 83c1 b9be c9e7 763d ffa0 b83d
00000290: c46e 483d 2c11 cd3c bc13 34bb 1346 043e
000002a0: e05e 86be 3688 7c3d a717 63be d28f 213e
000002b0: fa41 623c e6aa 7c3e fd67 bdbd 0660 c2be
000002c0: 529a d23c 6b99 5c3e aaab 553e 404e 92bd
000002d0: da3d 2dbe 66f0 cfbe 500b 6a3d 94e9 c2bd
000002e0: cce3 26be ad58 5dbd 995c c5bd 394d 0f3e
000002f0: fc8e 323e b2fd 223e 91ff b93d 02f6 a33d
00000300: 14ad 383e 6f27 48be 960f e6bd 99df 463d
00000310: b93c 55bc 77cf adbe 5df1 9cbc afd6 15be
00000320: 0459 ddbd 60c9 bebc a1ce 13be c2e4 a8bd
00000330: 909f a5bd 2f5b 963c ab88 49be 06b2 59be
00000340: 2fec 87bd c679 31b9 0ecd 443e 030b 153e
00000350: 0070 5fbe 212a 3a3e c0b7 52be 1ead 823e
00000360: 2701 653e fb45 d1bc 0d90 393e 1776 b73d
00000370: c9b7 35be e2b7 a2bd efbf be3d 266a 17be
00000380: 2a58 a33d 2feb 91be 35ac f8ba 0cf4 e83d
00000390: f977 13be c4b1 063e ad5b b03d fe77 a03e
000003a0: 2b57 053e 84c8 c93d 2b38 11be 1467 b6bd
000003b0: 4a0c 9abc 6244 193d cd00 b0bd 04c6 27be
000003c0: a981 95be 43b0 1fbe c7d0 3b3e 5c25 9b3e
000003d0: 76d5 4ebb 34e4 203d 2b5c 3fbd 1f67 583e
000003e0: 5082 e6bb ff63 85bb fb1f 2a3c 03c4 e23b
000003f0: d71c 3c3e d07b 8d3d 8a13 1f3e a5f7 d03d

base.mlp.fc1.0.bias f4 [64]
-0.0025695823 0.0029365683 -0.004478716 0.000651311 -0.0043318025 7.4396703e-06 0.0041868896 -0.0040306184
0.003811712 0.004870138 0.00019263953 0.007348457 -0.0002689328 -0.0005416721 -0.0009587473 -0.0061314525
-0.007836262 -0.014713109 -0.012230719 -0.0043174187 -0.0052441824 0.0059303287 0.0018890704 0.005678613
0.002174539 0.0035396318 0.00054185576 0.0059187296 0.003145686 -0.005476362 0.00030400278 0.00597466
-0.0021501132 -0.0019189835 0.0013739495 -0.0018331637 -0.00074953644 0.0017537544 0.006158462 0.006950401
-0.005600741 -0.0016865117 0.002665064 0.0043908004 0.0023575642 -0.0057143713 -0.009442359 0.004733424
0.003539972 -0.0058943448 -0.00012704753 0.0013830498 0.0035450396 -0.004302473 -0.0042692353 -0.0037252142
0.0058463938 -0.0014723897 -0.0014783016 -0.0037395789 -0.009741918 -9.328809e-05 -0.016126437 0.0009245857
00000000: 7066 28bb 7173 403b 31c2 92bb bebc 2a3a
00000010: cbf1 8dbb 48a2 f936 2d32 893b 4713 84bb
00000020: eacd 793b ae95 9f3b 48ff 4939 53cb f03b
00000030: 8dff 8cb9 00ff 0dba 7154 7bba 5aea c8bb
00000040: aa63 00bc 400f 71bc 5b63 48bc 2279 8dbb
00000050: 64d7 abbb 3453 c23b af9a f73a a913 ba3b
00000060: b682 0e3b 2bf9 673b 530b 0e3a e7f1 c13b
00000070: da27 4e3b 0e73 b3bb 9062 9f39 15c7 c33b
00000080: eae8 0cbb 6786 fbba 1816 b43a c446 f0ba
00000090: 8a7c 44ba 3cde e53a eccc c93b 30c0 e33b
000000a0: 6c86 b7bb f10d ddba 5ba8 2e3b b4e0 8f3b
000000b0: 5d81 1a3b 9f3f bbbb 20b4 1abc d71a 9b3b
000000c0: e0fe 673b 5925 c1bb 1038 05b9 7347 b53a
000000d0: e553 683b c2fb 8cbb f1e4 8bbb b922 74bb
000000e0: 1b93 bf3b 33fd c0ba 92c3 c1ba b913 75bb
000000f0: 919c 1fbc a9a3 c3b8 971b 84bc e55f 723a

base.mlp.fc1.2.weight f4 [64]
0.9911422 0.9929009 0.99848473 1.0015254 0.99291176 0.9979542 0.99396664 1.0021424
1.0082734 1.0087298 0.99542177 1.005237 0.99535924 0.9985713 0.99372256 0.9930932
0.9962258 1.0010405 0.9978966 0.9998539 1.0022401 1.0107341 0.997712 1.0021015
1.0036824 1.00128 0.99203813 0.9956082 0.996177 1.0056019 1.00506 1.0052735
0.9972691 0.99860394 0.99622786 0.9959728 0.994432 1.0039003 1.0065656 1.0016025
0.9978638 0.9961282 0.9924023 1.0096785 0.9943354 0.9967885 0.9945994 0.9967699
0.99780494 0.9979995 0.99842346 0.9992981 1.0026596 1.0122254 1.0022991 0.98968154
1.0009308 1.0092549 0.99560404 0.99856216 0.99271846 0.9992739 1.000308 1.0063941
00000000: 7fbb 7d3f c12e 7e3f b29c 7f3f fc31 803f
00000010: 772f 7e3f ed79 7f3f 9974 7e3f 3446 803f
00000020: 1a0f 813f 0f1e 813f f6d3 7e3f 9bab 803f
00000030: ddcf 7e3f 5ea2 7f3f 9a64 7e3f 5b3b 7e3f
00000040: a708 7f3f 1822 803f 2776 7f3f 6df6 7f3f
00000050: 6749 803f bc5f 813f 0e6a 7f3f dd44 803f
00000060: aa78 803f f129 803f 36f6 7d3f 2ee0 7e3f
00000070: 7505 7f3f 90b7 803f cea5 803f cdac 803f
00000080: 074d 7f3f 82a4 7f3f ca08 7f3f 13f8 7e3f
00000090: 1893 7e3f ce7f 803f 24d7 803f 8334 803f
000000a0: 0174 7f3f 4202 7f3f 140e 7e3f 253d 813f
000000b0: c48c 7e3f 882d 7f3f 119e 7e3f 502c 7f3f
000000c0: 2570 7f3f e57c 7f3f ae98 7f3f 00d2 7f3f
000000d0: 2657 803f 9a90 813f 564b 803f c55b 7d3f
000000e0: 801e 803f 442f 813f e8df 7e3f c5a1 7f3f
000000f0: cc22 7e3f 6ad0 7f3f 180a 803f 86d1 803f

base.mlp.fc1.2.bias f4 [64]
-0.00015037529 0.005411298 -0.0035829889 0.0012909241 -0.0031442493 0.0016624812 0.0045720423 -0.0028816795
0.0031852461 0.0061088596 -0.0032650114 0.0022947732 0.0008719218 0.0008614046 0.0018683966 -0.0005064006
-0.0009354743 -0.0035182189 9.095206e-05 -0.0015389723 -0.0033445032 0.0044888817 0.0013051104 -0.0018139447
0.000670426 0.0008372823 0.0006961395 0.0055390736 -0.00038464047 -0.0026614736 -0.000647632 -0.0020173942
-0.0015872339 -0.0010898745 0.0014619534 0.00034651303 0.0042707464 0.001984914 0.006406918 -0.0010319073
0.0023305896 -0.00097295287 0.0048251175 -0.001037949 0.0016101314 -0.00042418 0.002190611 0.0029397476
0.0013864718 0.0011686917 -0.0010748922 0.004190487 -0.0034532167 -0.006615254 -0.002402458 0.0023585558
0.002094652 -0.000609844 -0.0009424591 -0.0042741173 0.0017029134 0.0036338212 -0.00026610395 -0.0066633
00000000: 0fae 1db9 4251 b13b 94d0 6abb 3a34 a93a
00000010: c00f 4ebb 9de7 d93a 12d1 953b 8fda 3cbb
00000020: 90bf 503b d42c c83b cdf9 55bb e863 163b
00000030: ae91 643a e2cf 613a fde4 f43a f8bf 04ba
00000040: 9e3a 75ba eb91 66bb 84bd be38 57b7 c9ba
00000050: 742f 5bbb 7817 933b 3d10 ab3a e2c1 edba
00000060: 87bf 2f3a 107d 5b3a 227d 363a 1e81 b53b
00000070: 92a9 c9b9 1e6c 2ebb d9c5 29ba 4236 04bb
00000080: bb0a d0ba 1fda 8eba 049f bf3a 31ac b539
00000090: 9ef1 8b3b 5515 023b 20f1 d13b 1041 87ba
000000a0: cebc 183b c30d 7fba 051c 9e3b ca0b 88ba
000000b0: 0b0b d33a 7a64 deb9 5b90 0f3b c8a8 403b
000000c0: 46ba b53a c92e 993a 66e3 8cba 5a50 893b
000000d0: 5d4f 62bb c6c4 d8bb 8f72 1dbb 0092 1a3b
000000e0: 6e46 093b f0dd 1fba 5c0f 77ba e50d 8cbb
000000f0: 4b34 df3a 6725 6e3b de83 8bb9 d057 dabb

base.mlp.fc_h.0.weight f4 [64, 64]
-0.26434165 -0.1774396 -0.015179225 0.1294849 0.2097808 0.19468719 0.27953532 0.005559991
-0.028897375 0.0965418 0.30730158 0.03726613 0.067792654 -0.04382317 -0.13655695 -0.047758047
0.061151177 0.47742298 -0.043288395 0.13031384 0.0705898 -0.20466097 -0.3858152 -0.07870474
-0.15078667 0.17885317 0.09634996 0.1124727 -0.17104398 0.13651577 -0.16273569 0.061826434
0.12158765 -0.017583296 -0.024394408 -0.23813823 -0.1447722 -0.06404661 0.03900962 -0.26472905
-0.29156014 -0.11477345 0.072579615 -0.41523403 -0.41110614 -0.093886584 0.10361058 -0.054783925
0.054302514 0.1144901 -0.23979276 0.12248647 0.054929577 -0.14673336 -0.2108469 0.087615155
-0.2623278 -0.20889822 0.050051294 -0.07432466 -0.20801821 -0.02908486 0.03748421 -0.11445161
-0.20260967 -0.030297983 -0.004045672 -0.066438 -0.026770532 -0.316544 0.07511128 0.050986532
-0.20807035 0.3161856 0.16564275 -0.090623565 -0.09806082 -0.06914564 -0.2604443 0.029524958
0.11087725 -0.09223873 -0.023502382 0.15357281 0.04297627 0.049291044 -0.19331086 -0.077137865
-0.081100516 -0.000948744 0.27826762 -0.037563942 -0.01736906 -0.03940194 0.2516446 0.24153069
-0.085516036 0.20769745 -0.21777612 0.25628638 0.14624192 0.22182891 -0.084934264 -0.02407493
-0.12829398 0.22625911 0.2663533 -0.1359393 0.22669658 -0.10766605 0.29074976 -0.21814291
-0.166914 -0.48002553 0.15811618 0.030455481 -0.04718183 6.797496e-06 -0.086622186 -0.013940146
0.09890935 -0.011455642 0.11315623 0.3885715 -0.20503812 -0.15626968 0.030750806 0.3893249
0.021206586 -0.34956098 0.16304588 -0.14581893 -0.19076748 0.43422666 -0.16084814 -0.14097603
-0.12385589 0.12311428 0.21217908 -0.06558297 -0.08441667 0.15920566 -0.111581765 0.048208944
-0.13201854 0.4177547 -0.10332447 0.20371597 0.14790548 0.34093326 -0.15986626 -0.20172969
-0.008052568 -0.15413769 -0.10282358 -0.09743298 0.2131871 -0.03580637 -0.0009838659 -0.057902582
-0.15744771 0.110907905 0.05761816 -0.109051965 0.31125084 -0.1001637 0.077906236 0.07194773
0.14165245 0.023844197 0.06591908 0.04577303 0.20854874 0.18686372 0.2830003 0.24105519
-0.14733216 0.05802281 -0.0043342113 0.19718778 0.12673749 0.2004908 0.12671383 0.22752325
0.070542336 -0.19285059 -0.41497153 0.09101432 0.24780032 -0.0054140934 -0.054781083 -0.002537157
0.21453717 -0.03627548 -0.35642275 -0.07796046 -0.27779096 -0.14385447 -0.012373585 0.12128609
0.060848173 -0.19726577 0.095133446 0.32473102 -0.04822412 0.086139366 -0.16967027 0.020203726
-0.08190298 0.21183786 0.27431554 0.06474499 0.036646027 -0.3317698 -0.19666351 -0.038532853
-0.047817886 0.08169192 0.22181863 -0.21110415 0.019491041 0.014162235 0.19827113 -0.0952965
0.019151872 0.055099566 -0.33967656 -0.17123072 -0.14397396 -0.23796037 -0.08208911 -0.005775725
0.20329945 -0.2758826 0.023747778 -0.17497641 0.21077721 0.31603926 -0.14191033 -0.15359744
0.1423328 0.05471596 0.2329482 0.10919304 -0.11064452 -0.20928527 0.06341655 0.36563915
0.35368302 0.26270026 -0.06687 0.014728825 -0.083562076 0.12162365 -0.056161787 -0.025499688
00000000: ca57 87be bab2 35be 49b2 78bc b197 043e
00000010: c7d0 563e 145c 473e 411f 8f3e 9630 b63b
00000020: 30ba ecbc b5b7 c53d a256 9d3e 5fa4 183d
00000030: e0d6 8a3d ed7f 33bd 96d5 0bbe f19d 43bd
00000040: a879 7a3d c970 f43e 2c4f 31bd fe70 053e
00000050: 6391 903d a592 51be 9289 c5be f32f a1bd
00000060: d267 1abe 4925 373e 2153 c53d 1658 e63d
00000070: 2726 2fbe caca 0b3e 2fa4 26be b73d 7d3d
00000080: f202 f93d d80a 90bc c8d6 c7bc 82da 73be
00000090: 2a3f 14be de2a 83bd 8dc8 1f3d 918a 87be
000000a0: 5f47 95be 580e ebbd 9fa4 943d 8e99 d4be
000000b0: 817c d2be 9c47 c0bd c931 d43d 1c65 60bd
000000c0: 506c 5e3d c979 ea3d 3c8c 75be 30da fa3d
000000d0: d6fd 603d 4541 16be 40e8 57be 936f b33d
000000e0: d44f 86be 6ae9 55be 9602 4d3d 8737 98bd
000000f0: ba02 55be 5f43 eebc 0b89 193d 9b65 eabd
00000100: e978 4fbe 7a33 f8bc 8e91 84bb a510 88bd
00000110: e04d dbbc 0e12 a2be f1d3 993d 41d7 503d
00000120: 6510 55be 14e3 a13e 419e 293e d998 b9bd
00000130: 1cd4 c8bd 3b9c 8dbd f558 85be 53de f13c
00000140: 9d13 e33d a9e7 bcbd 1188 c0bc 3142 1d3e
00000150: e307 303d 68e5 493d 48f3 45be 75fa 9dbd
00000160: 0718 a6bd 22b5 78ba 1879 8e3e a6dc 19bd
00000170: 8f49 8ebc ee63 21bd 90d7 803e d253 773e
00000180: 0823 afbd a4ae 543e b400 5fbe f837 833e
00000190: 71c0 153e 1e27 633e 04f2 adbd ca38 c5bc
000001a0: 7f5f 03be 78b0 673e 765f 883e ac33 0bbe
000001b0: 2623 683e 0580 dcbd 27dd 943e db60 5fbe
000001c0: 81eb 2abe e8c5 f5be 35e9 213e c67d f93c
000001d0: bc41 41bd 0c16 e436 f966 b1bd 3665 64bc
000001e0: fc90 ca3d 72b0 3bbc 74be e73d d8f2 c63e
000001f0: 83f5 51be 2905 20be 1de9 fb3c 9855 c73e
00000200: 6fb9 ad3c a8f9 b2be 80f5 263e 8f51 15be
00000210: 8d58 43be f552 de3e 60b5 24be 055c 10be
00000220: 28a8 fdbd 5723 fc3d 7945 593e 5d50 86bd
00000230: a6e2 acbd cf06 233e fb84 e4bd be76 453d
00000240: de2f 07be f2e3 d53e c89b d3bd eb9a 503e
00000250: 8974 173e ce8e ae3e fbb3 23be 3a92 4ebe
00000260: ebee 03bc 45d6 1dbe 2b95 d2bd f18a c7bd
00000270: b84d 5a3e b3a9 12bd 10f5 80ba 422b 6dbd
00000280: f939 21be af23 e33d 0501 6c3d a356 dfbd
00000290: 455c 9f3e a022 cdbd 4e8d 9f3d 5559 933d
000002a0: 570d 113e e854 c33c 9500 873d 807c 3b3d
000002b0: cd8d 553e 3459 3f3e 6ae5 903e 2cd7 763e
000002c0: 3ede 16be 53a9 6d3d 0006 8ebb 98eb 493e
000002d0: 79c7 013e 764d 4d3e 45c1 013e dbfb 683e
000002e0: 8078 903d a07a 45be 2677 d4be b765 ba3d
000002f0: 5ebf 7d3e b568 b1bb 2162 60bd 6e46 26bb
00000300: a2af 5b3e 9995 14bd 0b7d b6be bca9 9fbd
00000310: 9e3a 8ebe 964e 13be 94ba 4abc d764 f83d
00000320: ef3b 793d 0a00 4abe 53d5 c23d 2543 a63e
00000330: a886 45bd d669 b03d 0bbe 2dbe 4982 a53c
00000340: c0bc a7bd 06ec 583e 1673 8c3e 0599 843d
00000350: 251a 163d bbdd a9be 2962 49be a0d4 1dbd
00000360: b0dc 43bd 184e a73d 6c24 633e b02b 58be
00000370: adab 9f3c b808 683c 9607 4b3e d02a c3bd
00000380: 63e4 9c3c 15b0 613d 16ea adbe 1b57 2fbe
00000390: e96d 13be e2ab 73be 561e a8bd 4b42 bdbb
000003a0: bb2d 503e 7c40 8dbe b38a c23c 042d 33be
000003b0: fbd5 573e e6cf a13e f150 11be a648 1dbe
000003c0: b1bf 113e d81d 603d f989 6e3e 9aa0 df3d
000003d0: 9899 e2bd e14e 56be 89e0 813d 0e35 bb3e
000003e0: f115 b53e a680 863e 23f3 88bd 2b51 713c
000003f0: 9822 abbd d215 f93d e709 66bd b9e4 d0bc

base.mlp.fc_h.0.bias f4 [64]
0.0 0.0 0.0 0.0 0.0 0.0 0.0 0.0
0.0 0.0 0.0 0.0 0.0 0.0 0.0 0.0
0.0 0.0 0.0 0.0 0.0 0.0 0.0 0.0
0.0 0.0 0.0 0.0 0.0 0.0 0.0 0.0
0.0 0.0 0.0 0.0 0.0 0.0 0.0 0.0
0.0 0.0 0.0 0.0 0.0 0.0 0.0 0.0
0.0 0.0 0.0 0.0 0.0 0.0 0.0 0.0
0.0 0.0 0.0 0.0 0.0 0.0 0.0 0.0
00000000: 0000 0000 0000 0000 0000 0000 0000 0000
00000010: 0000 0000 0000 0000 0000 0000 0000 0000
00000020: 0000 0000 0000 0000 0000 0000 0000 0000
00000030: 0000 0000 0000 0000 0000 0000 0000 0000
00000040: 0000 0000 0000 0000 0000 0000 0000 0000
00000050: 0000 0000 0000 0000 0000 0000 0000 0000
00000060: 0000 0000 0000 0000 0000 0000 0000 0000
00000070: 0000 0000 0000 0000 0000 0000 0000 0000
00000080: 0000 0000 0000 0000 0000 0000 0000 0000
00000090: 0000 0000 0000 0000 0000 0000 0000 0000
000000a0: 0000 0000 0000 0000 0000 0000 0000 0000
000000b0: 0000 0000 0000 0000 0000 0000 0000 0000
000000c0: 0000 0000 0000 0000 0000 0000 0000 0000
000000d0: 0000 0000 0000 0000 0000 0000 0000 0000
000000e0: 0000 0000 0000 0000 0000 0000 0000 0000
000000f0: 0000 0000 0000 0000 0000 0000 0000 0000

base.mlp.fc_h.2.weight f4 [64]
1.0 1.0 1.0 1.0 1.0 1.0 1.0 1.0
1.0 1.0 1.0 1.0 1.0 1.0 1.0 1.0
1.0 1.0 1.0 1.0 1.0 1.0 1.0 1.0
1.0 1.0 1.0 1.0 1.0 1.0 1.0 1.0
1.0 1.0 1.0 1.0 1.0 1.0 1.0 1.0
1.0 1.0 1.0 1.0 1.0 1.0 1.0 1.0
1.0 1.0 1.0 1.0 1.0 1.0 1.0 1.0
1.0 1.0 1.0 1.0 1.0 1.0 1.0 1.0
00000000: 0000 803f 0000 803f 0000 803f 0000 803f
00000010: 0000 803f 0000 803f 0000 803f 0000 803f
00000020: 0000 803f 0000 803f 0000 803f 0000 803f
00000030: 0000 803f 0000 803f 0000 803f 0000 803f
00000040: 0000 803f 0000 803f 0000 803f 0000 803f
00000050: 0000 803f 0000 803f 0000 803f 0000 803f
00000060: 0000 803f 0000 803f 0000 803f 0000 803f
00000070: 0000 803f 0000 803f 0000 803f 0000 803f
00000080: 0000 803f 0000 803f 0000 803f 0000 803f
00000090: 0000 803f 0000 803f 0000 803f 0000 803f
000000a0: 0000 803f 0000 803f 0000 803f 0000 803f
000000b0: 0000 803f 0000 803f 0000 803f 0000 803f
000000c0: 0000 803f 0000 803f 0000 803f 0000 803f
000000d0: 0000 803f 0000 803f 0000 803f 0000 803f
000000e0: 0000 803f 0000 803f 0000 803f 0000 803f
000000f0: 0000 803f 0000 803f 0000 803f 0000 803f

base.mlp.fc_h.2.bias f4 [64]
0.0 0.0 0.0 0.0 0.0 0.0 0.0 0.0
0.0 0.0 0.0 0.0 0.0 0.0 0.0 0.0
0.0 0.0 0.0 0.0 0.0 0.0 0.0 0.0
0.0 0.0 0.0 0.0 0.0 0.0 0.0 0.0
0.0 0.0 0.0 0.0 0.0 0.0 0.0 0.0
0.0 0.0 0.0 0.0 0.0 0.0 0.0 0.0
0.0 0.0 0.0 0.0 0.0 0.0 0.0 0.0
0.0 0.0 0.0 0.0 0.0 0.0 0.0 0.0
00000000: 0000 0000 0000 0000 0000 0000 0000 0000
00000010: 0000 0000 0000 0000 0000 0000 0000 0000
00000020: 0000 0000 0000 0000 0000 0000 0000 0000
00000030: 0000 0000 0000 0000 0000 0000 0000 0000
00000040: 0000 0000 0000 0000 0000 0000 0000 0000
00000050: 0000 0000 0000 0000 0000 0000 0000 0000
00000060: 0000 0000 0000 0000 0000 0000 0000 0000
00000070: 0000 0000 0000 0000 0000 0000 0000 0000
00000080: 0000 0000 0000 0000 0000 0000 0000 0000
00000090: 0000 0000 0000 0000 0000 0000 0000 0000
000000a0: 0000 0000 0000 0000 0000 0000 0000 0000
000000b0: 0000 0000 0000 0000 0000 0000 0000 0000
000000c0: 0000 0000 0000 0000 0000 0000 0000 0000
000000d0: 0000 0000 0000 0000 0000 0000 0000 0000
000000e0: 0000 0000 0000 0000 0000 0000 0000 0000
000000f0: 0000 0000 0000 0000 0000 0000 0000 0000

base.mlp.fc2.0.0.weight f4 [64, 64]
-0.2635402 -0.17666714 -0.027118161 0.12857576 0.20848878 0.1816372 0.278209 0.02734306
-0.02022146 0.09666283 0.31106263 0.014976204 0.06861609 -0.049358822 -0.13575228 -0.04693409
0.052499644 0.48309064 -0.049377512 0.13484934 0.06247276 -0.20406151 -0.4054013 -0.05703698
-0.14990464 0.18692137 0.079546995 0.1210731 -0.17623252 0.12304297 -0.1542309 0.038219187
0.122443415 -0.02036172 -0.025550041 -0.23210275 -0.14397551 -0.063175745 0.039856702 -0.2738514
-0.27125555 -0.115770586 0.0524062 -0.414308 -0.40134454 -0.08486387 0.08907439 -0.053948935
0.05515118 0.12938167 -0.24252112 0.12331001 0.056634016 -0.16797934 -0.20104936 0.094569586
-0.25879395 -0.23272413 0.05089184 -0.073434204 -0.2105683 -0.038381573 0.038737763 -0.10982448
-0.19226184 -0.02040926 -0.018194426 -0.06271441 -0.026711196 -0.3168596 0.07688605 0.062282823
-0.21455054 0.3095877 0.17619452 -0.09007643 -0.0899079 -0.07122624 -0.25627846 0.028366419
0.098615326 -0.09215291 -0.025346337 0.15210043 0.03878606 0.052557327 -0.20268188 -0.072707914
-0.079088986 9.1857175e-05 0.26909938 -0.03584761 -0.021311296 -0.043782238 0.25146934 0.24290809
-0.07693368 0.20919698 -0.21084899 0.24898973 0.1574792 0.22472636 -0.08328674 -0.02298778
-0.12396701 0.22729392 0.26464137 -0.1374802 0.22289336 -0.105524346 0.29035905 -0.20895246
-0.1612358 -0.47614613 0.1566409 0.030267388 -0.04246889 -0.002089879 -0.081692696 -0.018845398
0.10405626 -0.011306003 0.117693715 0.3893093 -0.20324174 -0.15542169 0.035969667 0.3947073
0.030366747 -0.33843315 0.16507241 -0.14061856 -0.18449317 0.44017428 -0.15575327 -0.1316349
-0.13045843 0.1174778 0.22109301 -0.073622435 -0.07267414 0.16172989 -0.099862255 0.043596614
-0.14823171 0.4148412 -0.0973046 0.20008251 0.15299393 0.34701818 -0.15759237 -0.19098319
0.0009114782 -0.15695092 -0.1011672 -0.100209154 0.21578549 -0.044493765 -0.0076732635 -0.064484194
-0.1438345 0.116591625 0.06611104 -0.11551862 0.32516527 -0.09085854 0.08017494 0.06590076
0.13907509 0.0288062 0.07092481 0.039052654 0.20146143 0.18379821 0.27837998 0.24934573
-0.13463153 0.05931503 -0.0020492608 0.20295963 0.12775265 0.20564748 0.13689972 0.22246031
0.06922958 -0.20181653 -0.4049026 0.09459337 0.24312341 -0.0012598146 -0.045867942 0.006731933
0.22044185 -0.030368155 -0.3505137 -0.07205154 -0.2727061 -0.13797873 -0.0064649605 0.12710719
0.05592621 -0.20309542 0.10102573 0.3188711 -0.042315114 0.09204844 -0.17518337 0.014351348
-0.07655691 0.20586735 0.2801981 0.05876743 0.04254913 -0.3258888 -0.1907545 -0.044401094
-0.053480532 0.07573751 0.22772732 -0.21703929 0.025396835 0.020007871 0.19277208 -0.101134755
0.025061002 0.061000057 -0.33376747 -0.1771103 -0.13807595 -0.23205143 -0.076180205 -0.011603474
0.19743344 -0.26993263 0.029028637 -0.16906747 0.21644431 0.3101293 -0.14763106 -0.14768885
0.13660192 0.048824716 0.23885703 0.115101844 -0.11655961 -0.20333688 0.06928318 0.36920387
0.34784395 0.25690624 -0.06096091 0.02063829 -0.08945205 0.11611494 -0.050247613 -0.019599684
00000000: beee 86be 3be8 34be e826 debc 5da9 033e
00000010: 157e 553e 1aff 393e 6971 8e3e 8efe df3c
00000020: 7aa7 a5bc 29f7 c53d 9a43 9f3e c15e 753c
00000030: 9886 8c3d 7a2c 4abd a502 0bbe f63d 40bd
00000040: de09 573d a857 f73e 1340 4abd f215 0a3e
00000050: 70e3 7f3d 80f5 50be c290 cfbe 9c9f 69bd
00000060: 9a80 19be 5168 3f3e 89e9 a23d 2cf5 f73d
00000070: 4c76 34be f4fd fb3d b4ee 1dbe b98b 1c3d
00000080: 9dc3 fa3d 9fcd a6bc 524e d1bc 58ac 6dbe
00000090: 516e 13be 4962 81bd c840 233d 4036 8cbe
000000a0: 02e2 8abe 2119 edbd e2a7 563d 2e20 d4be
000000b0: 087d cdbe 1ccd adbd a26c b63d 8ff9 5cbd
000000c0: 34e6 613d a17c 043e 7557 78be f589 fc3d
000000d0: 12f9 673d c702 2cbe e2df 4dbe b3ad c13d
000000e0: a480 84be 3c4f 6ebe f673 503d ac64 96bd
000000f0: 379f 57be ff35 1dbd 7dab 1e3d a8eb e0bd
00000100: 4ae0 44be 5231 a7bc 7a0c 95bc 6a70 80bd
00000110: 70d1 dabc 6c3b a2be 6f76 9d3d 461c 7f3d
00000120: 23b3 5bbe 4782 9e3e 566c 343e fe79 b8bd
00000130: a221 b8bd 10df 91bd ee36 83be b160 e83c
00000140: d5f6 c93d aaba bcbd 1fa3 cfbc 37c0 1b3e
00000150: 22de 1e3d 5a46 573d d78b 4fbe e3e7 94bd
00000160: 68f9 a1bd 72a3 c038 65c7 893e f2d4 12bd
00000170: 0795 aebc 0155 33bd 97c0 803e e6bc 783e
00000180: 688f 9dbd bc37 563e cce8 57be 2af7 7e3e
00000190: 3a42 213e ab1e 663e 3d92 aabd de50 bcbc
000001a0: 6ae2 fdbd bdbf 683e 137f 873e 9cc7 0cbe
000001b0: 283e 643e 261d d8bd f1a9 943e a2f7 55be
000001c0: ff1a 25be 6dc9 f3be 7966 203e 50f3 f73c
000001d0: dcf3 2dbd 5af6 08bb 804e a7bd aa61 9abc
000001e0: 731b d53d d03c 39bc 6709 f13d 8c53 c73e
000001f0: 9a1e 50be dd26 1fbe ee54 133d 1317 ca3e
00000200: afc3 f83c 1c47 adbe be08 293e 50fe 0fbe
00000210: c7eb 3cbe 865e e13e c97d 1fbe 4dcb 06be
00000220: e596 05be 3398 f03d 3566 623e 5cc7 96bd
00000230: 2ed6 94bd 859c 253e 9584 ccbd 5d92 323d
00000240: 0eca 17be 1166 d43e a247 c7bd 6ee2 4c3e
00000250: 71aa 1c3e 5eac b13e e55f 21be 1991 43be
00000260: 44f0 6e3a beb7 20be c030 cfbd 753a cdbd
00000270: dff6 5c3e 183f 36bd 0070 fbbb 4a10 84bd
00000280: 5a49 13be 97c7 ee3d 3a65 873d 0795 ecbd
00000290: 107c a63e 0b14 babd c232 a43d faf6 863d
000002a0: b369 0e3e fbfa eb3c 0741 913d adf5 1f3d
000002b0: e84b 4e3e 9935 3c3e d287 8e3e 7d54 7f3e
000002c0: d9dc 09be 51f4 723d e44c 06bb a6d4 4f3e
000002d0: 97d1 023e 4195 523e 712f 0c3e a3cc 633e
000002e0: 3dc8 8d3d fea8 4ebe 654f cfbe 2bba c13d
000002f0: 58f5 783e 5d20 a5ba 06e0 3bbd 8c97 dc3b
00000300: 82bb 613e a3c6 f8bc 8876 b3be c28f 93bd
00000310: 22a0 8bbe 4c4a 0dbe 05d8 d3bb 6328 023e
00000320: e212 653d 3ff8 4fbe 94e6 ce3d 1343 a33e
00000330: 9d52 2dbd e483 bc3d 4563 33be eb21 6b3c
00000340: dfc9 9cbd e4ce 523e 2076 8f3e 1eb6 703d
00000350: ff47 2e3d e6da a6be 2655 43be ecdd 35bd
00000360: 670e 5bbd 451c 9b3d 5a31 693e 8c3f 5ebe
00000370: 060d d03c 8ce7 a33c 0b66 453e bd1f cfbd
00000380: bb4c cd3c 32db 793d 92e3 aabe 675c 35be
00000390: c863 0dbe e49e 6dbe 5e04 9cbd 7f1c 3ebc
000003a0: fe2b 4a3e 9c34 8abe 77cd ed3c 0620 2dbe
000003b0: 94a3 5d3e 45c9 9e3e 992c 17be bf3b 17be
000003c0: 60e1 0b3e 6dfc 473d f096 743e 84ba eb3d
000003d0: ceb6 eebd 8b37 50be 57e4 8d3d 4a08 bd3e
000003e0: 9a18 b23e 3789 833e 26b2 79bd a211 a93c
000003f0: a332 b7bd abcd ed3d 71d0 4dbd 848f a0bc

base.mlp.fc2.0.0.bias f4 [64]
-0.0003937067 -0.004922939 -0.008679959 -0.00591114 0.0012386033 0.002414814 -0.0017011039 0.003093575
0.0006110387 -0.0038159587 -9.834247e-05 0.01564231 0.0016288254 0.0030914247 0.0007383877 -0.0055166986
0.013906364 -0.0076144384 0.001247155 -0.01305347 0.0026639402 0.0013261884 -0.0083463965 0.009996303
0.0020024464 0.00985769 0.005195371 -0.013467815 -0.0064120744 0.004366228 0.0038317125 -0.0072405804
-0.007327968 -0.009432415 0.00025184537 -0.002329832 -0.0062523126 0.0022849683 0.00729149 0.00027081
-0.0012523056 0.00011676584 -0.007813458 -0.0018151457 -0.0013662593 0.0024555 0.008561218 -0.00076075876
0.0009386624 0.0022769405 0.0018469264 -0.0031707683 0.003402939 0.004748567 0.0026087584 -0.0016927397
0.0008229516 0.0019936434 -3.410881e-05 0.00040096376 0.0044660135 0.0015529817 -0.0053522596 0.009241556
00000000: 6b6a ceb9 9b50 a1bb 6336 0ebc 3cb2 c1bb
00000010: a158 a23a db41 1e3b 93f7 deba 93bd 4a3b
00000020: 1d2e 203a 2a15 7abb 363d ceb8 4d24 803c
00000030: 507e d53a 8099 4a3b 5c90 413a 6cc5 b4bb
00000040: 85d7 633c 8a82 f9bb 9477 a33a 39de 55bc
00000050: 8095 2e3b 80d3 ad3a 53bf 08bc 89c7 233c
00000060: 7a3b 033b 2682 213c ee3d aa3b 1ca8 5cbc
00000070: 611c d2bb 9312 8f3b 781d 7b3b 6442 edbb
00000080: 731f f0bb 6a8a 1abc 1d0a 8439 18b0 18bb
00000090: 33e0 ccbb 68bf 153b 74ed ee3b 81fb 8d39
000000a0: 6724 a4ba 2fe0 f438 0504 00bc 2fea edba
000000b0: 0e14 b3ba 74ec 203b 5a44 0c3c a86d 47ba
000000c0: 9110 763a b938 153b 9114 f23a aacc 4fbb
000000d0: d803 5f3b de99 9b3b b4f7 2a3b ebde ddba
000000e0: 59bb 573a c9a7 023b 0e10 0fb8 7238 d239
000000f0: a357 923b 6b8d cb3a 0262 afbb e569 173c

base.mlp.fc2.0.2.weight f4 [64]
1.0001029 0.991826 0.9974804 0.9969659 0.9997832 1.0026829 0.99474585 1.0038731
0.9939006 0.9943683 1.0025061 0.99840635 1.0017997 0.99926674 1.0033356 0.99999267
1.0042794 0.9948279 0.99465096 0.99484795 1.0046375 1.000433 0.99439394 1.0031571
1.0057045 1.0034118 0.9996121 0.99470794 0.99299276 0.99939233 1.0024902 0.9998131
1.0006671 0.99483645 0.9949381 0.99663633 0.99489146 0.9935617 1.0031599 1.0026915
0.9955827 0.996657 0.99592847 0.99488705 0.9953628 1.0038065 0.99938637 1.0031942
1.0048796 1.0049453 1.0019238 0.9915793 0.9995765 1.0005229 1.0002033 0.9902409
0.99899316 1.0010846 0.994185 0.9997949 1.0005405 0.99877954 0.9984389 0.9873351
00000000: 5f03 803f 4fe8 7d3f e05a 7f3f 2839 7f3f
00000010: cbf1 7f3f ea57 803f aaa7 7e3f ea7e 803f
00000020: 4570 7e3f ec8e 7e3f 1f52 803f 8f97 7f3f
00000030: f93a 803f f2cf 7f3f 4d6d 803f 85ff 7f3f
00000040: 3a8c 803f 0bad 7e3f 72a1 7e3f 5bae 7e3f
00000050: f697 803f 300e 803f 9a90 7e3f 7467 803f
00000060: edba 803f cc6f 803f 94e6 7f3f 2ea5 7e3f
00000070: c634 7e3f 2dd8 7f3f 9951 803f c0f3 7f3f
00000080: dc15 803f 9aad 7e3f 43b4 7e3f 8f23 7f3f
00000090: 35b1 7e3f 0f5a 7e3f 8b67 803f 3258 803f
000000a0: 82de 7e3f ea24 7f3f 2bf5 7e3f ebb0 7e3f
000000b0: 19d0 7e3f bb7c 803f c9d7 7f3f ab68 803f
000000c0: e59f 803f 0ca2 803f 0a3f 803f 24d8 7d3f
000000d0: 3fe4 7f3f 2211 803f a906 803f 6d80 7d3f
000000e0: 04be 7f3f 8a23 803f e882 7e3f 8ff2 7f3f
000000f0: b611 803f 04b0 7f3f b199 7f3f fec1 7c3f

base.mlp.fc2.0.2.bias f4 [64]
0.0008307015 -0.0006923698 -0.0005763288 -0.0006342924 -0.00086223654 -0.00092699984 0.00070879795 -0.0008179532
-0.0011872124 -0.00041000466 0.0008408921 5.6675424e-05 0.0007791714 -0.0006144613 -0.0008249767 -0.0005574783
0.0006119416 -0.00074807025 -0.00082089193 0.002936783 -0.00085767783 -0.00086208596 -0.0010066425 0.0008147067
-0.0008006563 0.0010508908 0.0008970134 -0.00074553007 -0.0007860932 0.0008923043 -0.0012948402 -0.0005130838
0.0009050891 -0.0007244488 -0.00071783696 -0.0006894109 -0.00036053092 -0.0008194714 0.00083359814 0.0008089074
0.0007478713 -0.00019482063 -0.0005494675 0.0007007873 0.000701625 0.0011590081 0.0008535596 0.0007397277
-0.0006665337 -0.00077976054 -0.0008199038 0.00075700844 0.0016344792 0.00094972266 -0.0010460032 0.0008096041
0.00096192217 -0.0007865621 0.0006194962 0.0007749806 -0.0011852495 0.000691492 -0.0005325768 -0.0012165202
00000000: 6fc3 593a 2780 35ba c514 17ba a446 26ba
00000010: b707 62ba e801 73ba a0ce 393a e96b 56ba
00000020: 3d9c 9bba e5f5 d6b9 506f 5c3a c6b6 6d38
00000030: 4f41 4c3a cd13 21ba 4043 58ba bc23 12ba
00000040: b56a 203a 251a 44ba 2031 57ba 0b77 403b
00000050: c9d5 60ba 9cfd 61ba 51f1 83ba 0b92 553a
00000060: 22e3 51ba 0bbe 893a 8d25 6b3a ad6f 43ba
00000070: d211 4eba 87e9 693a a1b7 a9ba 7980 06ba
00000080: 8043 6d3a f0e8 3dba 392d 3cba 95b9 34ba
00000090: a405 bdb9 cbd1 56ba d385 5a3a db0c 543a
000000a0: cb0c 443a c448 4cb9 240a 10ba 0ab5 373a
000000b0: 42ed 373a dce9 973a 6ac1 5f3a 49ea 413a
000000c0: 52ba 2eba d868 4cba d0ee 56ba fa71 463a
000000d0: 053c d63a cff6 783a 0b1a 89ba 9d3b 543a
000000e0: 8129 7c3a 4a31 4eba b065 223a 1128 4b3a
000000f0: 605a 9bba 3e45 353a a09c 0bba a573 9fba

v_out.weight f4 [1, 64]
0.17183173 -0.086170696 -0.050667465 -0.11204274 -0.08692245 -0.07021101 0.24464591 -0.12749523
-0.02907853 -0.045680724 0.10175334 0.018288728 0.049849935 -0.119938016 -0.10683886 -0.06818507
0.033395957 -0.19454381 -0.19193192 -0.0020421145 -0.023606425 -0.18791921 -0.007290994 0.05660528
-0.023345368 0.027176825 0.09029022 -0.076522626 -0.07670139 0.09201858 -0.011406302 -0.05542204
0.093975626 -0.11283801 -0.11647034 -0.24952468 -0.036543407 -0.15747738 0.19008031 0.21189553
0.34848058 -0.03205522 -0.07013879 0.1343138 0.28102106 0.03959697 0.08215321 0.23051754
-0.08594924 -0.13779534 -0.07621832 0.17659743 0.014385971 0.06840261 -0.031640716 0.19086142
0.06559253 -0.050962433 0.05606744 0.10217998 -0.019071002 0.14366099 -0.06222061 0.0026093433
00000000: a8f4 2f3e 437a b0bd b088 4fbd aa76 e5bd
00000010: 6604 b2bd caca 8fbd 7584 7a3e 1c8e 02be
00000020: 1936 eebc b61b 3bbd 0e64 d03d 3ed2 953c
00000030: 722f 4c3d 10a2 f5bd 55ce dabd 9da4 8bbd
00000040: 33ca 083d 7e36 47be cd89 44be ffd4 05bb
00000050: 4362 c1bc e56d 40be 4ae9 eebb f0da 673d
00000060: c93e bfbc efa1 de3c 14ea b83d e5b7 9cbd
00000070: 9e15 9dbd 3d74 bc3d 80e1 3abc 3902 63bd
00000080: 4b76 c03d 9d17 e7bd 0088 eebd 6683 7fbe
00000090: 8aae 15bd c041 21be 6aa4 423e 24fb 583e
000000a0: 0c6c b23e 564c 03bd eda4 8fbd 8f89 093e
000000b0: fee1 8f3e 6f30 223d f13f a83d ca0c 6c3e
000000c0: 2806 b0bd 391a 0dbe 5a18 9cbd f5d5 343e
000000d0: 23b3 6b3c ab16 8c3d b299 01bd 2d71 433e
000000e0: 6055 863d fcbd 50bd f9a6 653d bd43 d13d
000000f0: ca3a 9cbc de1b 133e 0adb 7ebd 8401 2b3b
