light_mappo-main/results/MyEnv/MyEnv/mappo/check/run31/models/actor.pt (torch, 46581 bytes, 16 tensors)

base.feature_norm.weight f4 [15]
00000000: 3f1c 913f cc0d 893f 1fca 633f 05ed 933f
00000010: 2c4e 8d3f e8e6 6e3f dcd4 513f 4b75 893f
00000020: 5d28 893f 8c35 903f 5e31 4f3f f8f1 9c3f
00000030: 17b4 883f c13d 733f 4b0e 853f
1.1336745 1.0707335 0.8898029 1.1556708 1.1039481 0.93321085 0.8196542 1.073892
1.0715443 1.1266341 0.80934703 1.2261343 1.0679959 0.95016104 1.0394987

base.feature_norm.bias f4 [15]
00000000: 1e63 8bbd 840f 41bd 4e8b 67bd a749 ed3d
00000010: 4d08 903b dde9 06bd d829 113d fe47 1cbd
00000020: f21a 943c 6302 a9bd ce8a 01bc dde2 b83d
00000030: ec6d 333e 11a8 fa3c 8f5d 21bd
-0.068060145 -0.047133937 -0.056529336 0.11586314 0.004395521 -0.032937873 0.035440296 -0.038154595
0.018079255 -0.08252408 -0.007906629 0.09027646 0.175224 0.030597718 -0.039395865

base.mlp.fc1.0.weight f4 [64, 15]
00000000: b875 6cbd c269 1b3d e07a f9bd 40a8 e13c
00000010: 514c eebb 15f5 febd 650d dd3c 2238 b03b
00000020: 8fff 4bbe b381 4abe 6a33 07bf f29f 8e3e
00000030: 6318 03be d5b6 273d 3472 633e 0863 a2be
00000040: 55bb 82be fa4a 13bf e215 7f3d cd0a 6c3e
00000050: 0c30 be3e 0ecf 30be 6318 183e 08ed ddbe
00000060: 59df ea3d e760 3e3d d1d1 343e 112f 41be
00000070: 3d2a 933c 3385 b73c 5ccd 9fbe fa18 56bc
00000080: 1fe1 9e3e dea8 71be 16fc 9b3d 0f3f 013f
00000090: 1345 0f3f a263 74be 4061 3abe f1ca cc3d
000000a0: 1e3b ccba 23b9 95be f1e3 90be 92dc 343e
000000b0: 1dd9 c8bc 0c7b 21be 7cb9 e53d 5c59 26be
000000c0: 4f6e 343e e2c3 ccbd afa5 62be 9fcd 433e
000000d0: 4194 a13e 4f29 96be 54e0 a53e d667 d73d
000000e0: 6595 d5be 7666 4abe b624 8d3e 5c0b a0bb
000000f0: 52b6 35be 5858 103e be1e 2dbd 9188 823e
00000100: 971e 823e 3081 fabd c667 64be 80b7 01bf
00000110: a2ac 88bb 9d79 fcbe bd80 3d3e fa7c 48be
00000120: 1646 23be 4eee 923e 2b14 a63e e2cf 7fbe
00000130: c4f1 e1be 4c77 e43d 303b c63e 18cd 0dbd
00000140: c885 303e 67a2 bfbd 8594 c3be c0b5 e93e
00000150: d35a 68bd cc0f a73e 79b2 013f 2fd1 afbe
00000160: e28f 8ebb 6a0c 8d3d 1ce6 8abe 7d0e a1be
00000170: 2b89 d03e 7a9f b83e b354 d13d 92a0 0cbe
00000180: c9fa ba3e a6e7 b2be 68da 8c3b 3d7b 523d
00000190: d838 873e b5b7 dd3e 4f38 a2bc 9887 d0bd
000001a0: 928a c53d 1d83 dfbd 75eb b1be cf3d 38be
000001b0: a360 533d 9c92 c5be c0a8 d3bc db24 8cbc
000001c0: 88e1 9dbe 8240 ebbe 3670 c43c be26 6cbe
000001d0: 0bcc 463e 7f19 ee3e 8aeb c13d 96a6 243e
000001e0: c710 9fbe dc08 703e b1d2 40bd ad70 c23e
000001f0: 7dae 383e 11b3 543d 60cd 12be 29c1 04be
00000200: dc9a 983e ffee 99be d1d6 ac3e 79a8 fd3e
00000210: 8d16 65be cdb1 b2bd 24c6 af3e 5d8e 9dbe
00000220: ffe8 ee3d 2d74 0abe 637d 46bd 244b d9bc
00000230: 5d99 623e 167d 83bd 6bf9 ca3e 111b 93be
00000240: c00e 7b3e 54da 783e 0b1f c7be 963b 523e
00000250: e098 88bc 4b37 933e 7d2c 68be 18c8 b4bd
00000260: 8a15 c8bc 3b76 66bd 94f8 fd3d 0af5 e8bd
00000270: a2c7 623e d551 ddbd c2ab 6cbe a72d af3b
00000280: 0f66 e2be 2e89 67be 6923 d2bb 495a aa3e
00000290: 2229 a03e 3a1f 00be 001d f0be 6725 55be
000002a0: cc69 713e be95 743e 2e4b f8bd 9bd6 eabd
000002b0: f9b3 c1be 3f4e a33e 4f31 4bbd 3e04 34be
000002c0: a351 2a3e 7a9e 903e 3d34 603e d3ce de3d
000002d0: 955f de3e 38e1 a5bc 887a f53b 35b6 6f3e
000002e0: d4a7 da3e 6803 043e e37e d2bc 02d1 8bbd
000002f0: 8d23 3fbe a5a2 323b d495 00bf dd26 b2be
00000300: 1f42 30be 9952 433e 96c6 91be 3967 05bf
00000310: d2cf 9fbd b4fe 923d 3e03 f33e 7c87 0b3c
00000320: 6a45 f4be 8806 c03e cb30 d5bd 2d66 fb3d
00000330: ff19 223e 833e 183e 30e9 703c a30e 53be
00000340: 78e4 3fbe 9b1b ce3d 73bd 83be 7dd7 313e
00000350: 95b0 0abe 1884 b23e 1225 fa3d 2b9b 10be
00000360: bab8 11bf 3f8b 90bd 9b8e f5bd cc30 9bbd
00000370: afc4 e13e 28af b53e d8a8 3a3e 936c 9bbe
00000380: 4dad 04be 68af 77be 1dc0 be3e 2774 98be
00000390: fefc 05bf d6f5 5fbe 1bd1 553d face 2dbd
000003a0: cdeb 9a3e 3718 043f e7b0 77be 764a 60bd
000003b0: d484 8dbe 0c61 dabd 1807 c63d 40fa 063e
000003c0: 9576 963e 4bcc 7c3e e6e4 543e 9bcd 0fbe
000003d0: ad51 59bd 8ad4 d9bc 12cb 3c3e 9e33 5c3e
000003e0: beb8 34bf 3333 adbd 4509 a93e 98dd 883e
000003f0: 8cb7 0ebe b981 ad3e ba4b a73d a0ed d83d
-0.057729453 0.037942655 -0.1218164 0.027546048 -0.007272281 -0.124490894 0.026983926 0.0053777853
-0.19921707 -0.19776039 -0.52812827 0.27856404 -0.12802272 0.040945847 0.22211534 -0.3171618
-0.25533548 -0.5753628 0.06227673 0.23050995 0.37146032 -0.17266485 0.14853053 -0.43344903
0.114683814 0.046479132 0.17658164 -0.1886561 0.017964477 0.022402382 -0.31211364 -0.013067478
0.3103113 -0.23599574 0.07616441 0.50486845 0.55964774 -0.23866132 -0.1820116 0.099996455
-0.0015581583 -0.2924281 -0.28298905 0.17662266 -0.02451759 -0.15769595 0.11217019 -0.16245025
0.17620204 -0.09998299 -0.22133516 0.19121407 0.3155842 -0.2932839 0.3239771 0.10517852
-0.4171554 -0.19765648 0.2756707 -0.0048841666 -0.17745331 0.140962 -0.042265646 0.25494817
0.25413963 -0.12231672 -0.22305211 -0.50670624 -0.00417097 -0.49311534 0.18506141 -0.19578925
-0.15944704 0.28697437 0.32437262 -0.24981645 -0.44129765 0.111555666 0.3871703 -0.03461942
0.17238533 -0.09357148 -0.3819925 0.45646477 -0.05672724 0.3262924 0.5066295 -0.34339282
-0.0043506483 0.068871334 -0.27128685 -0.31456366 0.4072965 0.3605917 0.10221233 -0.13733128
0.3651946 -0.3494236 0.004298497 0.05138706 0.26410556 0.4330422 -0.01980224 -0.101821125
0.09645571 -0.1091368 -0.34749952 -0.17992328 0.05160583 -0.38588417 -0.025837302 -0.017107418
-0.3083613 -0.45947653 0.023979288 -0.23061654 0.19413774 0.46503827 0.09468754 0.16079172
-0.31067488 0.2344088 -0.04707593 0.3797659 0.18035312 0.051928584 -0.14336157 -0.1296431
0.29805648 -0.30065152 0.33757642 0.49542597 -0.22371884 -0.08725319 0.34330857 -0.30772677
0.11665534 -0.1352088 -0.04845942 -0.026525088 0.22128816 -0.064203426 0.39643416 -0.28731588
0.24517345 0.24302036 -0.3889087 0.20530543 -0.016674459 0.28753123 -0.22673221 -0.08827227
-0.024424333 -0.056265097 0.12400928 -0.113748625 0.22146466 -0.10806624 -0.23112395 0.0053460184
-0.4421849 -0.22610924 -0.0064129126 0.33272007 0.31281382 -0.12511912 -0.46897125 -0.20815049
0.23575515 0.23885247 -0.121237144 -0.11466714 -0.3783262 0.31895635 -0.04960757 -0.17579743
0.16632704 0.28245908 0.21894927 0.10879292 0.43432298 -0.020248994 0.0074914135 0.2340935
0.42706168 0.12891924 -0.02569527 -0.068269745 -0.18665905 0.0027257588 -0.5022862 -0.34795275
-0.17212723 0.19074477 -0.28471822 -0.5211063 -0.078033105 0.07177487 0.4746341 0.008516189
-0.4770921 0.37504983 -0.10409697 0.12275348 0.15830229 0.14867596 0.014704034 -0.20611052
-0.18739498 0.10063859 -0.25730476 0.17367359 -0.13543923 0.34866405 0.12214102 -0.14121692
-0.56922495 -0.07057809 -0.119900905 -0.07577667 0.4409537 0.35485196 0.18228471 -0.30356273
-0.12956734 -0.24188006 0.37255946 -0.29776117 -0.5233916 -0.21871123 0.05220137 -0.042433716
0.30258027 0.5159945 -0.24188577 -0.05475851 -0.27640402 -0.106630415 0.09669322 0.131814
0.29387346 0.24687307 0.20790443 -0.14043276 -0.053056408 -0.026590604 0.1843684 0.21504065
-0.70594394 -0.08457031 0.33014885 0.26731563 -0.13937205 0.33888033 0.081687406 0.10592198

base.mlp.fc1.0.bias f4 [64]
00000000: 9853 9abd 2739 32bc fbad 9bbc 0de8 1d3e
00000010: f156 a7bd db7f 18bd 6541 913d 8c2f 35bd
00000020: fc7a d3bc a2db cabd 2895 c6bd fa64 083e
00000030: 7a8a 94bd 741d c7bd 2233 8c3e b93a 753e
00000040: b9e2 c5bd 5933 033e 8cf3 b5bd d8df 84bd
00000050: bbbf 43be 386b f6bb c681 33bd a47b 3ebd
00000060: 212a 15be 3f7a f13c 5be2 95be aef6 d7bc
00000070: 7946 8ebe f267 363d d6e6 213c 2e31 38bb
00000080: 64de 49be 5776 02be b92f 50be 01f1 403d
00000090: d810 7b3d ea3f 75be ca04 d0bc 0379 babe
000000a0: 891c 1ebe 642a 0cbe c0da 3fbe 2039 97be
000000b0: 11cb 1b3d f1f1 ba3d ab73 4abe 6baa 5839
000000c0: 4b0e 063d 2f49 d1bd 9793 df3d 1f44 27bd
000000d0: 80e1 c73d 5134 5b3e 85df 523e f1bd 173c
000000e0: 7188 81be 3ae0 20be 5b46 643c 4622 92be
000000f0: c697 2cbe 410b 50be 1eeb 9abd 132e 593e
-0.075354755 -0.010877884 -0.019003859 0.15420552 -0.0817088 -0.037231307 0.07092551 -0.044234797
-0.02581548 -0.09905173 -0.09696418 0.1331977 -0.07252975 -0.097224146 0.2738276 0.23948182
-0.096623845 0.12812556 -0.088843435 -0.06488007 -0.19116108 -0.0075201057 -0.043824933 -0.04650463
-0.14566852 0.029477237 -0.29274258 -0.026362743 -0.2778814 0.044532724 0.009881696 -0.0028105485
-0.19713742 -0.12740456 -0.20330705 0.04710484 0.06129536 -0.23950163 -0.025392909 -0.3642045
-0.15440573 -0.13688046 -0.1873579 -0.2953577 0.038035456 0.09128178 -0.19770686 0.00020662851
0.032728475 -0.10219037 0.109168224 -0.04083645 0.097598076 0.21406676 0.20593078 0.009261594
-0.2529941 -0.15710536 0.01393279 -0.28541774 -0.16854772 -0.20316793 -0.07564376 0.21208982

base.mlp.fc1.2.weight f4 [64]
00000000: f017 623f b90f 8a3f ecff 893f f695 8b3f
00000010: 0e17 873f ccb5 973f 0eb8 9d3f d2c7 5e3f
00000020: 67e4 923f ca16 8b3f 27df 493f 09d9 573f
00000030: 2e86 9a3f 90cf 873f 1145 8e3f 228d 953f
00000040: 62bf 6b3f fc6a 923f 56e9 8e3f 3eb1 4a3f
00000050: aa6e 433f 988f 5a3f e01f 863f 13d9 703f
00000060: 3d32 8d3f e32d 963f fbbb 903f b01d 903f
00000070: aa67 563f 4d91 6a3f 2a26 9d3f 1cf4 833f
00000080: b6a1 903f 2479 903f 47b6 903f 44af 863f
00000090: ad6c 593f 8e6f 5e3f 1034 af3f d533 513f
000000a0: 8c8e 853f 71d3 593f 591a 3f3f 18de 803f
000000b0: 66a5 913f 1348 7d3f 2889 6f3f df71 8a3f
000000c0: ca4f 973f 9519 8f3f 5e72 8b3f c721 553f
000000d0: da35 7f3f 96e1 a43f 0bf1 913f 0bd9 813f
000000e0: e33d 473f 30e0 7e3f a30a 883f 6f53 973f
000000f0: 0e1b 8e3f 6081 603f 417e 823f ad0a 7f3f
0.88317776 1.0786048 1.0781226 1.090514 1.0553911 1.1852355 1.2321794 0.8702365
1.1475953 1.086633 0.7885613 0.84315544 1.2072198 1.0610218 1.1114827 1.1683695
0.920889 1.1438899 1.1164958 0.791767 0.76340735 0.85375357 1.0478477 0.9408123
1.1030957 1.1732754 1.1307367 1.125906 0.8375193 0.9162796 1.2277272 1.0308871
1.129935 1.1286969 1.1305627 1.0522237 0.8493145 0.8688897 1.3687763 0.81719714
1.0434127 0.8508826 0.7464958 1.0067778 1.1378601 0.989381 0.9356866 1.0816001
1.1821225 1.1179682 1.0894277 0.83254665 0.99691546 1.2881343 1.1401685 1.0144361
0.77828807 0.9956083 1.0628246 1.1822337 1.1102006 0.8769741 1.019478 0.99625665

base.mlp.fc1.2.bias f4 [64]
00000000: 7dfe dcbd a361 4c3e b12b df3d 0933 653d
00000010: 5bcd f1bc 0ebc 29bd 81a3 bcbd f777 bc3d
00000020: 9c3f d23d 744c 26bc 5581 f53d 753a 813e
00000030: 2bf4 6dbe 13e8 033d 3ade 963d 2bf9 363d
00000040: d224 1bbc 7370 fa3d f774 44be 9db1 953d
00000050: ec34 29bd db83 203e 64fa cf3c f93b 423d
00000060: 6f0f d53d 05f7 4c3e 1217 1a3d 5abc d23d
00000070: 93c9 983c 8c01 b33d cf4a 72bd 2a04 353e
00000080: 7394 39bd 1fa0 b4be bd75 7dbd 9a7f 983e
00000090: ecd7 643e 42bb 80be a9fe c7bd 80c7 7cbe
000000a0: f799 44be 326c c43b d023 6c3e c0e0 90bd
000000b0: 748c 2ebe 7559 a53d e06a fdbd 6678 7d3d
000000c0: 486c 9bbd 6a16 ba3d 0385 013e ec3f e13d
000000d0: cf53 243e c3c5 843c 1d9f cb3c 1f92 3b3e
000000e0: 2056 433c 4d30 2ebd 4adb 6fbc 380e 4fbe
000000f0: ce7b 41bd c768 77bd 1f1f 3abe 3004 203e
-0.10790727 0.1995912 0.10897005 0.055956874 -0.029516866 -0.04143911 -0.092108734 0.09202569
0.10266039 -0.010150064 0.11987559 0.25239912 -0.23237674 0.032203745 0.07366605 0.04467122
-0.009469228 0.12228479 -0.19185244 0.07309268 -0.041310236 0.15675299 0.02538795 0.047420476
0.10403334 0.20016105 0.037619658 0.102898315 0.018650806 0.087405294 -0.059153374 0.1767737
-0.045307588 -0.35278413 -0.061879862 0.29784852 0.22347993 -0.25142866 -0.097653694 -0.24685478
-0.19199358 0.005994343 0.23060536 -0.07074118 -0.17045766 0.08073703 -0.123739004 0.0618824
-0.075890124 0.090863064 0.12648396 0.1099852 0.16047595 0.016207581 0.024856145 0.1831746
0.011922389 -0.042526532 -0.014639685 -0.20220268 -0.04723721 -0.060402658 -0.18175934 0.15626597

base.mlp.fc_h.0.weight f4 [64, 64]
00000000: 5d0a 0f3e e4f8 813e 8cfb a53d 6672 8f3e
00000010: 9921 24be 86af 823e 696e 14be 0377 efbd
00000020: cd16 97be b492 95be 1376 85be 33a5 823d
00000030: 5115 04be d9e2 713d 8197 22be ba38 9f3e
00000040: f0c9 0c3a c1a5 df3d 02b3 3b3e ef1e 48be
00000050: 18b2 e53d 796a d1be 93c3 c73c 55f3 87be
00000060: 5a59 ccbd 1403 8cbd 4b97 b6bb a5fe 82be
00000070: 12d2 943d a0b9 adbb e317 ed3d bc5e 9ebe
00000080: 9c0b 7dbd b51b 97bd 85e0 f63c fad1 d6be
00000090: 4951 203e acfd d1bd 14bd 8e3e a784 a0be
000000a0: 62db 89bd 1a28 a63d 6bc9 dc3d cf62 2abd
000000b0: 9fef 0b3c fcb6 dcbd 35e3 78bd 7b28 05be
000000c0: 38ee 693e dced 2bbe 87d5 303e 7e29 853e
000000d0: 8536 60be e247 a23d ce68 88bd a69d 053c
000000e0: 90db 23bc 2ce5 efbc 6a6f 71be f3c4 d33d
000000f0: 7b17 413d 8e85 073e 7a7f 693d 6c16 c23d
00000100: ad7a ee3d 7fa3 85bc 3561 843c 8490 1d3e
00000110: f0c1 1fbe b9e4 2c3e 63ca 0f3e 7a0f 043e
00000120: 13bd 763d cc59 13be e142 933d 67e2 24be
00000130: 293e a03b 5e10 8d3e 208e ffbd e68c 3ebe
00000140: 07e1 303e e87e 3cbe 244a 5abe f34e 05be
00000150: fd3f 363e 374e 033e cd10 223e a112 4c3e
00000160: bb24 e4bd 7a77 05bd b6d1 efbc 2c9e cebd
00000170: ccb6 b13e 1f58 c6bd 7e3e e43e 05e5 34be
00000180: 8cb5 8cbd d2b9 a53d bce0 813d 5d27 e8bc
00000190: 70d0 bc3d f308 d93d 8887 01bd 4949 093d
000001a0: ac1a 853e cd60 4d3e bb31 32be 44fa cfbd
000001b0: 4ad1 a53e 29d3 13bc f813 5cbe 9d6d 763e
000001c0: 4743 aabe 1e9b 843e 562e 143e 6c41 ac3d
000001d0: c813 19be 10fc ce3e ff36 17be 28aa 69bd
000001e0: 9fd3 94bd 7d70 96be 42a3 923e c573 bfbd
000001f0: 9d1f f23d eb8d 113b d908 58be eadf fdbd
00000200: ef6e 94be 3440 71be fa00 093e 1a32 443e
00000210: 1de7 92be bfe0 52be 3cce 3bbe 8d4f debd
00000220: 2937 3a3e d6a1 93bd f548 84be aa4c a1bc
00000230: 550f c43d 0629 49be d971 45bd 236f 83be
00000240: c934 cfbd df80 a73e c207 033e d18e aabc
00000250: 20df 0abd 31e5 a13e 239b 1bbe ff9a b83b
00000260: bbe0 16be 4883 843d d88b 77be 06df 133e
00000270: a8f9 8a3d 98c0 50bd 73a5 99bd 4952 4b3d
00000280: bfbc f13c 19d1 12be 54f3 c73c 2a0d debc
00000290: 2658 27be 8d2c 403e 48f7 8a3e a3cd 203b
000002a0: 5ddd e43e a3a3 4f3e c4aa f83d ca6b a0be
000002b0: 1d8c 403e 5eca 7fbe 87c9 06be 6537 b33d
000002c0: 3f40 9a3d 86f3 febd 70d0 983c 66b1 78be
000002d0: 9be2 5cbe 90ae 37bd cea2 8fbe 0181 7e3e
000002e0: 3cf3 523d d7fb 123e 30a0 79bd e71d 853e
000002f0: 75c8 253d de23 dabc 9ea1 f43c 72a7 3a3e
00000300: 5a0d ce3d e434 53bd 2872 583e d912 8e3d
00000310: 97a9 64be c09b 4a3d 296b 2bbd 6309 093d
00000320: 210f 413e 1437 7e3e 3561 23be 6a16 fa3d
00000330: d46f 253e 69af 80bd 0807 23be d6a4 d4be
00000340: 608e 223e e3d8 5c3e 3878 a53e 8243 83bd
00000350: 44cf 47be 7cdb 9abd 2b8c 71be 7476 8b3d
00000360: b48e a23e bc59 4abd 01c0 273e 0188 88be
00000370: 53b5 ccbd 452b 48be a7c3 ae3d 8895 5b3e
00000380: 100b 813d c87b 0d3e 74b3 22be 2d47 40be
00000390: 5abd e53d 47cb f1bd 8a2e eb3d 4e07 afbd
000003a0: db43 93be 989f 513c 8e8b 3ebe 626e 63bd
000003b0: 5b3b abbd 10d7 92be 6a60 853e 661b 013e
000003c0: 7c13 a4bd 8e76 0f3c d98b bfbd f146 c13d
000003d0: 51de 7d3e 39e8 613e c8d0 bfbc a283 65bd
000003e0: a5f3 a2bd c533 afbe 7022 853e 5628 dd3d
000003f0: 3e76 afbe 85ab ad3c b8ce 5e3e 6ca7 af3b
0.13968797 0.253852 0.081046194 0.28016967 -0.16028441 0.2552454 -0.14495243 -0.116926216
-0.29509583 -0.29213488 -0.26066646 0.063791655 -0.12898757 0.05905423 -0.15878107 0.31097966
0.0005370667 0.10920287 0.18330005 -0.1954305 0.11215609 -0.40901545 0.02438525 -0.26552835
-0.0997798 -0.068365246 -0.0055722347 -0.25584903 0.0726663 -0.0053016692 0.11576822 -0.30931652
-0.06177865 -0.073783316 0.030136356 -0.41957074 0.15656008 -0.10253462 0.2787863 -0.31351206
-0.06731297 0.081131175 0.10780605 -0.041598137 0.008541017 -0.10777089 -0.060763557 -0.13003723
0.2284478 -0.16789955 0.17268954 0.2600822 -0.21895798 0.07923867 -0.06660615 0.008155262
-0.010001078 -0.029284082 -0.23577657 0.103402995 0.047141533 0.13234541 0.057006337 0.09476933
0.11644492 -0.016313313 0.016159633 0.1538716 -0.15601325 0.16884126 0.14042048 0.12896529
0.06023891 -0.14389724 0.071904905 -0.1610199 0.0048902226 0.2755155 -0.1247828 -0.18608436
0.17273341 -0.18407786 -0.21317345 -0.13018398 0.17797847 0.12822805 0.15826721 0.19928981
-0.11139818 -0.032584645 -0.029274803 -0.10088763 0.34709775 -0.096847765 0.44578928 -0.17665489
-0.06870565 0.08092083 0.06341693 -0.028339082 0.09219444 0.1059741 -0.031623393 0.033517156
0.25996912 0.20056458 -0.17401783 -0.10155156 0.32386237 -0.0090225125 -0.21491992 0.24065252
-0.33254454 0.25899595 0.14470801 0.08410916 -0.14948952 0.40426683 -0.14767073 -0.05704704
-0.07266926 -0.29382697 0.2864018 -0.09348253 0.11822436 0.0022209834 -0.21097125 -0.12396224
-0.28990886 -0.23559648 0.13379279 0.19159737 -0.2869195 -0.20593546 -0.18340391 -0.10855017
0.18185104 -0.07208602 -0.25836912 -0.019689877 0.09573237 -0.19644555 -0.048204277 -0.25670728
-0.1011749 0.32715508 0.12795928 -0.020820053 -0.033904195 0.31620172 -0.15195899 0.0056337113
-0.14734165 0.064703524 -0.2417444 0.14440545 0.067858994 -0.05096492 -0.0750226 0.04963902
0.029508946 -0.14337577 0.02440802 -0.027105886 -0.1634222 0.18766995 0.27141786 0.0024536632
0.44700137 0.20277266 0.12141946 -0.31332237 0.18803449 -0.2497954 -0.13162814 0.087508
0.07531785 -0.12448792 0.018654078 -0.24286422 -0.21570818 -0.04484421 -0.28053898 0.24853899
0.051501498 0.14353882 -0.060943782 0.25999376 0.040474374 -0.026628431 0.029862221 0.18227938
0.1006114 -0.051564112 0.21137297 0.06937189 -0.22330318 0.04946494 -0.041850243 0.033456217
0.18853427 0.24825698 -0.1595505 0.122113064 0.1615594 -0.06283457 -0.15920651 -0.4153201
0.15874624 0.2156711 0.32318282 -0.064093605 -0.1951266 -0.075613946 -0.23588626 0.068097025
0.317495 -0.049401984 0.16381837 -0.26666263 -0.09995522 -0.19547756 0.085334115 0.2144376
0.06300938 0.1381675 -0.15888768 -0.18777151 0.112177566 -0.1180635 0.11483486 -0.08546315
-0.28762707 0.012794398 -0.18607923 -0.05552519 -0.083609305 -0.28679705 0.2605012 0.12608108
-0.08011529 0.008756293 -0.09352846 0.09437359 0.24791838 0.22061242 -0.023414984 -0.056033738
-0.07956628 -0.34219185 0.26002836 0.10798709 -0.342699 0.021199951 0.21758544 0.0053605344

base.mlp.fc_h.0.bias f4 [64]
00000000: 0000 0000 0000 0000 0000 0000 0000 0000
00000010: 0000 0000 0000 0000 0000 0000 0000 0000
00000020: 0000 0000 0000 0000 0000 0000 0000 0000
00000030: 0000 0000 0000 0000 0000 0000 0000 0000
00000040: 0000 0000 0000 0000 0000 0000 0000 0000
00000050: 0000 0000 0000 0000 0000 0000 0000 0000
00000060: 0000 0000 0000 0000 0000 0000 0000 0000
00000070: 0000 0000 0000 0000 0000 0000 0000 0000
00000080: 0000 0000 0000 0000 0000 0000 0000 0000
00000090: 0000 0000 0000 0000 0000 0000 0000 0000
000000a0: 0000 0000 0000 0000 0000 0000 0000 0000
000000b0: 0000 0000 0000 0000 0000 0000 0000 0000
000000c0: 0000 0000 0000 0000 0000 0000 0000 0000
000000d0: 0000 0000 0000 0000 0000 0000 0000 0000
000000e0: 0000 0000 0000 0000 0000 0000 0000 0000
000000f0: 0000 0000 0000 0000 0000 0000 0000 0000
0.0 0.0 0.0 0.0 0.0 0.0 0.0 0.0
0.0 0.0 0.0 0.0 0.0 0.0 0.0 0.0
0.0 0.0 0.0 0.0 0.0 0.0 0.0 0.0
0.0 0.0 0.0 0.0 0.0 0.0 0.0 0.0
0.0 0.0 0.0 0.0 0.0 0.0 0.0 0.0
0.0 0.0 0.0 0.0 0.0 0.0 0.0 0.0
0.0 0.0 0.0 0.0 0.0 0.0 0.0 0.0
0.0 0.0 0.0 0.0 0.0 0.0 0.0 0.0

base.mlp.fc_h.2.weight f4 [64]
00000000: 0000 803f 0000 803f 0000 803f 0000 803f
00000010: 0000 803f 0000 803f 0000 803f 0000 803f
00000020: 0000 803f 0000 803f 0000 803f 0000 803f
00000030: 0000 803f 0000 803f 0000 803f 0000 803f
00000040: 0000 803f 0000 803f 0000 803f 0000 803f
00000050: 0000 803f 0000 803f 0000 803f 0000 803f
00000060: 0000 803f 0000 803f 0000 803f 0000 803f
00000070: 0000 803f 0000 803f 0000 803f 0000 803f
00000080: 0000 803f 0000 803f 0000 803f 0000 803f
00000090: 0000 803f 0000 803f 0000 803f 0000 803f
000000a0: 0000 803f 0000 803f 0000 803f 0000 803f
000000b0: 0000 803f 0000 803f 0000 803f 0000 803f
000000c0: 0000 803f 0000 803f 0000 803f 0000 803f
000000d0: 0000 803f 0000 803f 0000 803f 0000 803f
000000e0: 0000 803f 0000 803f 0000 803f 0000 803f
000000f0: 0000 803f 0000 803f 0000 803f 0000 803f
1.0 1.0 1.0 1.0 1.0 1.0 1.0 1.0
1.0 1.0 1.0 1.0 1.0 1.0 1.0 1.0
1.0 1.0 1.0 1.0 1.0 1.0 1.0 1.0
1.0 1.0 1.0 1.0 1.0 1.0 1.0 1.0
1.0 1.0 1.0 1.0 1.0 1.0 1.0 1.0
1.0 1.0 1.0 1.0 1.0 1.0 1.0 1.0
1.0 1.0 1.0 1.0 1.0 1.0 1.0 1.0
1.0 1.0 1.0 1.0 1.0 1.0 1.0 1.0

base.mlp.fc_h.2.bias f4 [64]
00000000: 0000 0000 0000 0000 0000 0000 0000 0000
00000010: 0000 0000 0000 0000 0000 0000 0000 0000
00000020: 0000 0000 0000 0000 0000 0000 0000 0000
00000030: 0000 0000 0000 0000 0000 0000 0000 0000
00000040: 0000 0000 0000 0000 0000 0000 0000 0000
00000050: 0000 0000 0000 0000 0000 0000 0000 0000
00000060: 0000 0000 0000 0000 0000 0000 0000 0000
00000070: 0000 0000 0000 0000 0000 0000 0000 0000
00000080: 0000 0000 0000 0000 0000 0000 0000 0000
00000090: 0000 0000 0000 0000 0000 0000 0000 0000
000000a0: 0000 0000 0000 0000 0000 0000 0000 0000
000000b0: 0000 0000 0000 0000 0000 0000 0000 0000
000000c0: 0000 0000 0000 0000 0000 0000 0000 0000
000000d0: 0000 0000 0000 0000 0000 0000 0000 0000
000000e0: 0000 0000 0000 0000 0000 0000 0000 0000
000000f0: 0000 0000 0000 0000 0000 0000 0000 0000
0.0 0.0 0.0 0.0 0.0 0.0 0.0 0.0
0.0 0.0 0.0 0.0 0.0 0.0 0.0 0.0
0.0 0.0 0.0 0.0 0.0 0.0 0.0 0.0
0.0 0.0 0.0 0.0 0.0 0.0 0.0 0.0
0.0 0.0 0.0 0.0 0.0 0.0 0.0 0.0
0.0 0.0 0.0 0.0 0.0 0.0 0.0 0.0
0.0 0.0 0.0 0.0 0.0 0.0 0.0 0.0
0.0 0.0 0.0 0.0 0.0 0.0 0.0 0.0

base.mlp.fc2.0.0.weight f4 [64, 64]
00000000: 5534 873d 6186 a43e 9793 193d df7d d13d
00000010: 0055 b3be c758 373f 0e45 0b3e f5ef fe3c
00000020: b129 3cbe 08e9 d5be 78ae c7be 0235 843d
00000030: 726e cfbe 056d af3d e738 0d3d e4d4 983e
00000040: 85a7 89bd 809c 4b3d 91aa 8c3e 578f 24be
00000050: 9b01 883e 33cd 99bc 39b4 833e 86ef e4bd
00000060: 7083 99be c7f9 bdbe 15ce f73d c382 c1be
00000070: efe9 c8bd 1261 123f 2677 683e 1bbc 85bd
00000080: 77b4 fa3d 4cc0 fbbd e805 b3be 23cd 23bf
00000090: c93e 273e 34c2 87bd 1c0a 50bd 931d 8abe
000000a0: 4d8a 8c3d edbe 7c3e 109c 6a3e f365 ffbd
000000b0: bd6d 14be 4726 9dbe 6e36 5bbe b1a6 b8bb
000000c0: 134f 1dbd b6e5 093c db2a 5fbe cde4 2c3e
000000d0: 9894 02be b8fc 24be acb7 d2bd c5c1 cb3e
000000e0: 6cb2 c3bd 855a dfbc f7f1 9abe bfff 813d
000000f0: 092b 5cbc dd0f 8c3e 466e 1e3e 8afd 233d
00000100: a120 053e 60ec a03e aa35 4ebe 0708 be3e
00000110: d7e1 81be 7d04 b93d bcb3 cf3e 0e7c d83d
00000120: 0abe 09be 7c0b 333e 1f9d 253e e082 66be
00000130: 646d 263d 39a3 c73e 3b51 9dbe bc71 1ebd
00000140: 0191 dc3e 8e1a 04bf c472 28be a5c1 3ebe
00000150: c2f9 c03e c73f 463e 5720 403e a3f6 95bd
00000160: 2c9a a33e 65ca 17be 8c0d 443c f80a bcbe
00000170: 8670 833e c964 33bd 6ebe 253f df24 dcbe
00000180: 8340 103e cad7 5cbb 9671 05be 58ae 843d
00000190: 9d07 4ebc 883b e13d 9868 84bd 8652 5dbd
000001a0: 352d 903e a3ca 143e 006f 9ebc 79fa 173d
000001b0: 165b e83e 1952 cb3d 71bc 0cbe abc2 df3d
000001c0: e792 f1be 2d66 263e 7fba 76bd 369d 79bd
000001d0: 8db1 41be e055 b63e c06f ad3d 4d2c 7fbe
000001e0: fda5 ba3d 9e73 19be b503 bc3e 813d e0bd
000001f0: c355 82be 8c9e 613c 35c3 9dbe 8d7a 92bc
00000200: f550 98be c188 83be 34fc 423e dd1f 95bb
00000210: dc6e 10be d06d 1fbd 6d4c c0be 6d5a 57be
00000220: 8311 853d 5ab4 ccbd 28f8 8bbe 62ed 8f3d
00000230: 4f23 d63e dc6a 5bbe bc6c 173e 8b9f 49bf
00000240: 0681 51be e338 c83e 2c4d 493e 6744 723d
00000250: 351a 043e 8c3d a03e b07b adbe 753b ad3d
00000260: d85b d3bb 8d8d b2bc 8dab 78be c3ab 643e
00000270: 9b86 bd3e 0367 233e e053 3bbe 7beb 9e3e
00000280: d901 01be 570c a2be cf46 b73e b928 4abe
00000290: ab04 12be 9517 043e 870e 22be 6b31 503e
000002a0: c1a5 893e 20ea 203e edae 093e 6352 8fbe
000002b0: e979 45bd 8797 9bbe 7e58 93bd 2b75 fb3e
000002c0: f434 a2bd 0079 993d 710f adbc 9415 18bd
000002d0: 24dc cbbd a35c f6bd 5d75 1ebf f62e 863e
000002e0: c526 e53c 2490 983e 50db 17bf 2633 c83e
000002f0: 6d4c 9a3d ec30 0c3e d5d5 273e 3afd 26bd
00000300: 70a8 a0bb 1e68 95be 6029 e73e af3b 8a3c
00000310: 6644 663d 9010 d2bd 64df 09be 3785 31be
00000320: d2d5 193e 54b5 df3c 8de9 00bd 1696 f2bd
00000330: 9350 6c3e 050d 63be 6134 89be 2cb7 18bf
00000340: c4ef d43d e58d 5b3e 036c d53e 9eb8 abbd
00000350: 516d 5b3d fe89 82be 775a b2be ec89 cd3d
00000360: 7e70 e33e f5a1 d3be f4f3 783e a416 36bd
00000370: 87f2 00be db07 b2be f9a8 993e 7678 c73e
00000380: 33fa ab3e c6f0 733e fc94 2d3e cf7c b2be
00000390: f1ed e93d 8976 89be 061f ffbc 57ad 9cbd
000003a0: a52b 64be f478 073d 4c65 fabd 5268 7a3c
000003b0: 5a31 5ebe 575b 2fbc f1e3 7d3e 8559 c03e
000003c0: 4530 9ebe e06f 223e 77ab c1bd 21af d43d
000003d0: 978b c53e 9b54 7c3e f69b 803c 4624 bf3d
000003e0: 0508 2abe 957f 46bf cb1a dd3e 626b 173e
000003f0: 146b 783d 23a0 13be 1ac8 d53e f164 613d
0.066017784 0.32133773 0.03749427 0.10229086 -0.35025787 0.7161984 0.13600561 0.03112028
-0.18375279 -0.4177935 -0.39000297 0.06455423 -0.4051395 0.08565716 0.034478094 0.29849923
-0.06721405 0.049709797 0.27473882 -0.16070305 0.26563725 -0.018774604 0.25723436 -0.11178498
-0.2998309 -0.37104627 0.12099854 -0.37795076 -0.09810244 0.5717937 0.22701702 -0.06530019
0.12241452 -0.12292537 -0.34965444 -0.6398489 0.16332544 -0.06628838 -0.05079089 -0.26975688
0.06862316 0.24682207 0.22911096 -0.12470617 -0.14494987 -0.30693266 -0.21407482 -0.0056351055
-0.03840549 0.008416584 -0.21793692 0.16884156 -0.12751997 -0.1611203 -0.10288939 0.39796272
-0.09555516 -0.027264843 -0.3026273 0.06347608 -0.013437995 0.27355853 0.15471753 0.040036716
0.13000728 0.3143034 -0.20137659 0.371155 -0.25367615 0.09034059 0.40566814 0.105705366
-0.134514 0.1748485 0.16173218 -0.22510862 0.040631667 0.38991717 -0.30726036 -0.038682684
0.4307938 -0.5160302 -0.1645003 -0.18628557 0.3769055 0.19360267 0.18762337 -0.07322433
0.3195356 -0.14823301 0.01196612 -0.36727118 0.25671786 -0.043797288 0.647437 -0.4299688
0.1408711 -0.0033697956 -0.13031611 0.06478566 -0.012575057 0.10997683 -0.06465262 -0.05403378
0.2815949 0.14530425 -0.019340038 0.037104104 0.45381993 0.09927768 -0.1374376 0.10925802
-0.4718239 0.16249914 -0.06023645 -0.060940944 -0.18915386 0.35612392 0.0846858 -0.24919243
0.09113691 -0.1498551 0.36721578 -0.10949231 -0.25456056 0.013770711 -0.30812994 -0.017880702
-0.29749265 -0.25690272 0.1904152 -0.0045509175 -0.1410479 -0.038923085 -0.37558308 -0.21030588
0.06497481 -0.09995337 -0.27337766 0.07027699 0.41823813 -0.21427482 0.14787573 -0.7875907
-0.20459375 0.391059 0.19658345 0.059147265 0.12900622 0.31296957 -0.3388343 0.08458606
-0.0064501576 -0.021796012 -0.24284191 0.22331147 0.37016758 0.15957265 -0.18293715 0.31039032
-0.12598361 -0.3165004 0.3579621 -0.19742097 -0.14259593 0.12899621 -0.15825854 0.20331351
0.26884273 0.15714312 0.13445635 -0.27992544 -0.048211966 -0.30389044 -0.07194613 0.4911283
-0.07920256 0.07493782 -0.021125527 -0.037129954 -0.09954098 -0.12029388 -0.6189783 0.26207703
0.027972588 0.2979747 -0.5931902 0.39101523 0.07534108 0.13690537 0.16390164 -0.04076884
-0.004902892 -0.29180998 0.45148754 0.016874162 0.056217574 -0.10257065 -0.13464123 -0.17335974
0.15022972 0.027308144 -0.03147273 -0.11845033 0.23077612 -0.22172935 -0.26797774 -0.596545
0.10397294 0.21440847 0.4168397 -0.08384822 0.05357105 -0.25495905 -0.34834644 0.10036072
0.44421762 -0.413345 0.2431181 -0.044455186 -0.12592517 -0.34771618 0.30011728 0.38959092
0.33589324 0.23822317 0.16951364 -0.34860846 0.11422337 -0.26848248 -0.031142723 -0.076502495
-0.22282274 0.033074334 -0.12226352 0.015283661 -0.21698514 -0.010702929 0.24793984 0.37568298
-0.30896202 0.1586299 -0.094565324 0.10384966 0.3858306 0.2464165 0.015699368 0.093330905
-0.16604622 -0.77538425 0.43184504 0.14787057 0.060648993 -0.14416556 0.41754228 0.055027906

base.mlp.fc2.0.0.bias f4 [64]
00000000: 7c8b 7fbd 7f61 9cbd 58a9 08be 4d60 d03d
00000010: 8bf8 94bd 116d 1bbe 96df 2dbe 9ff0 20be
00000020: 6d52 d53d 591b 92bc c55f d6bc 9ada dcbd
00000030: 49ce 2dbe 6964 0d3e 22b5 01bd 436b 47be
00000040: f8d9 80bd f608 e4bd fa69 38bd 232e 16be
00000050: e217 bcbd 70ef 93be 126e 17be 63cf 8fbe
00000060: 064c 85be 8d74 5bbe d73a bbbd 75af 00be
00000070: 1ee6 1bbd 25d0 063c 27d3 a3bd 1739 afbd
00000080: 6431 2abe e933 08be eff2 64be 093c a3bd
00000090: d938 92bc 0663 04be 31f8 8fbe a891 2cbe
000000a0: 4fa3 dabd 9c06 d3bd d0dc dbbd 59da 4abe
000000b0: 3755 03be f792 51be c806 b23d 03d6 bd3b
000000c0: 52ab fdbd f72d 56bd d68a 52bc 8b3b 33be
000000d0: da39 31be 79ee bebd 59db 2abd d105 943d
000000e0: 6ec5 a0bc 0cc4 75bc ffb9 2bbe 6412 59bd
000000f0: ce1d 6bbe b8e2 cabd 7678 d6bd cce9 d2ba
-0.062388882 -0.076357834 -0.1334585 0.10174618 -0.07273968 -0.15178324 -0.16979823 -0.1571679
0.10416112 -0.017835306 -0.026168713 -0.107838824 -0.16973223 0.13807835 -0.031666882 -0.19474511
-0.06291574 -0.11134522 -0.045022942 -0.14666037 -0.09184243 -0.28893614 -0.14788082 -0.2808791
-0.26034564 -0.2143118 -0.09142082 -0.12566932 -0.038061254 0.008228336 -0.079992585 -0.08555811
-0.16620404 -0.13301052 -0.22358297 -0.07970435 -0.017849373 -0.129284 -0.28119043 -0.16852438
-0.1067568 -0.10303995 -0.10735476 -0.19809856 -0.12825476 -0.20466219 0.086927 0.0057933345
-0.123861924 -0.05228993 -0.012850484 -0.17503183 -0.17307225 -0.09322829 -0.041713092 0.07227672
-0.019625392 -0.0150003545 -0.1677017 -0.052996054 -0.22960588 -0.099065244 -0.10472195 -0.0016091405

base.mlp.fc2.0.2.weight f4 [64]
00000000: e1da 8e3f 110b 913f 313c aa3f d686 943f
00000010: c70d af3f 3ebc c43f 28d9 9b3f d97d 893f
00000020: 6dfa 843f be27 b13f c9bd 8f3f 2d53 b43f
00000030: 8f25 953f ad80 9e3f 3632 883f 1cfc 893f
00000040: ae6a 943f 4a07 853f cf85 823f 3927 9f3f
00000050: 4978 a53f 3e52 633f 5167 8b3f 3bff 9f3f
00000060: e5ac 9d3f f1ef 713f dd5c 933f 338c a13f
00000070: 7dba 983f ef3d a63f 6c90 aa3f dc36 7d3f
00000080: 4e07 5c3f 74e0 743f db72 6c3f 56fe 833f
00000090: 93db b43f 8cbc 963f 3aab 7e3f 0aaf 553f
000000a0: 3596 963f 3405 673f ef2f 8b3f e65b 8c3f
000000b0: 3192 973f 154e 853f 542b ad3f 7a96 953f
000000c0: 0417 983f 5ca2 9d3f 3bae 883f 9832 5b3f
000000d0: 70b5 943f 72a5 823f 0e2d 9c3f 54eb a03f
000000e0: f488 823f e286 8f3f 7122 873f a483 6e3f
000000f0: c088 8b3f f8fd af3f 038e a03f 6a8f ac3f
1.1160547 1.1331502 1.3299619 1.1603649 1.367608 1.5369947 1.2175646 1.0741531
1.0388924 1.3840253 1.1229793 1.4087883 1.1652087 1.2383019 1.0640323 1.0780063
1.1595056 1.039285 1.0197085 1.2433845 1.2927333 0.88797367 1.0890905 1.2499765
1.2318388 0.94506747 1.1512715 1.262091 1.1931912 1.2987651 1.3325324 0.98911834
0.85948646 0.9565499 0.92362756 1.0311992 1.4129509 1.177629 0.9948002 0.83470213
1.176459 0.90242314 1.0874003 1.0965545 1.1841489 1.0414454 1.3528848 1.1686547
1.1882024 1.2315173 1.0678171 0.85624075 1.161787 1.020674 1.220125 1.2571816
1.0198045 1.1213038 1.0557386 0.9316962 1.0901108 1.374938 1.2543339 1.3481266

base.mlp.fc2.0.2.bias f4 [64]
00000000: 46f1 8a3d a3fa 42bd a262 3b3d 439a e13d
00000010: 7563 3abd 5109 b33d ecbd bfbc 36a2 053e
00000020: bc82 3ebe 1924 75bb ed2d 82bd 7821 e6bd
00000030: c06c 413d 8150 d2bb f86c 4bbd db75 0c3d
00000040: 455d b9bc 9d69 623d ff06 4c3c 019f 4bbd
00000050: 1d78 f339 de89 68bc 6254 703c d386 833d
00000060: 31e2 cb3d c130 8bbc 6f96 4e3d 28e9 373d
00000070: 5a4a ad3c b518 b43b 108a ccbb d483 aabd
00000080: 95f9 063e ae30 54bc 56f1 9c3d 59ec a43c
00000090: c6d9 05bd 7c11 9f3c c2a4 e23d cae0 63bd
000000a0: 3635 fb3d 1db3 14bd f306 4fbc 2eeb f4bb
000000b0: 6b17 88bb f67d bc3c c439 bf3d a962 353d
000000c0: b70f 8ebd 3da6 273d 0757 b83c 112d d93d
000000d0: 02ac 6b3d 1b98 ca3d ee55 46bd 350f a03d
000000e0: c53a 2bbd f368 bebc d5c4 95bd 8e4e 98bc
000000f0: 45e3 573d f040 073d a8db 603c 4f58 3fbd
0.067843005 -0.047602307 0.04574836 0.11015751 -0.045505006 0.08742011 -0.023405991 0.1305016
-0.18604559 -0.003740555 -0.06356416 -0.112368524 0.047222853 -0.006418288 -0.049664468 0.034292083
-0.022627482 0.055276502 0.01245284 -0.049712185 0.00046438063 -0.014193026 0.014668556 0.064222
0.09955252 -0.016991021 0.050436433 0.04490009 0.021153618 0.0054961094 -0.0062420443 -0.083259255
0.13181145 -0.012951059 0.07663219 0.02013223 -0.032678388 0.019417517 0.11066581 -0.055634297
0.122660086 -0.03630363 -0.012635934 -0.0074743247 -0.0041531823 0.023009282 0.0933719 0.044283543
-0.06936591 0.04093002 0.022502435 0.10604299 0.057537086 0.09892293 -0.048421793 0.078154005
-0.041804094 -0.023243403 -0.07312933 -0.018592145 0.052706975 0.033020914 0.013724245 -0.046715077

act.action_out.linear.weight f4 [10, 64]
00000000: 62b7 223e e9c8 833c e65b 04be 1e20 24be
00000010: 3a86 90be c730 87be f6cb 8ebb fdae 783d
00000020: 1683 82be ef99 893e 23f0 aabd 4d40 f5bd
00000030: 825d 583c 7463 4c3e 3fdd e4bd 317f 3fbd
00000040: aaa1 62be cd33 723c 1662 293e a1dd 633e
00000050: 945f 833e d34f 39be 1e3c b9bd ba3c 473d
00000060: 4d41 82be 6b15 11be 7b6a df3d 35cb dbbd
00000070: d93a acbe 65c3 cf3d 26d3 90bd aaff e23d
00000080: 5d24 0dbe 564e 483d dff0 803d 823e 22be
00000090: c2d7 af3e 05f6 46be 1090 f1bc 5686 c4bd
000000a0: 75ed 3c3e e736 a8bd 3f38 de3d 2676 b03d
000000b0: a08e b53c cc37 6e3e 5206 533d 1b88 533d
000000c0: 5eda bc3d c6e6 d23c 3874 813e be4b 513c
000000d0: ae28 aebc 2302 8f3e 9d6c a73e 910f 263e
000000e0: bafc 7dbd 1dc7 d5bd 8e5b 133e 4c52 983d
000000f0: dee7 ef3d 951d 03bf 7550 f83d 3a26 783d
00000100: 0143 c0be ba5d b2bd 7241 3a3e 0e41 133e
00000110: 5886 853d d8b2 7bbe 0d54 a63b 7d64 083e
00000120: 5387 b23d b060 803e 2a35 48bd 0a70 2c3e
00000130: 7c46 21be 9df2 53be 7c5a 3e3e 8cdc f3bd
00000140: e1f5 bd3b 1072 093e edd7 aa3d 09ed 17bd
00000150: 8ac0 dfbe f5a5 01bd f934 3abe dc5f 9bbd
00000160: d6ff a43e 69cb 67bc 3b9d 24be 6d9e e23d
00000170: fb47 a7bd b04a 9bbe 3a58 87be 316c 0f3e
00000180: 9dcd 37be 8f8d f2bd 20b2 b5bd 3989 173e
00000190: a762 3c3c 29ca 523e 0b48 733e 4c7e 7dbd
000001a0: 4e7e 37be 5a5f c03d a596 ec3d 7234 803d
000001b0: d825 e3bd 13e0 8f3d 91b0 12be 610f 913e
000001c0: 80c5 0d3d eb31 4e3e 81ed 2bbd 838b 8e3d
000001d0: fb48 3ebe 7096 b03e bc0e 863c 68cd cb3e
000001e0: 065a 31bc 1230 3e3d 62c5 abbd 566f 113d
000001f0: 78f7 cebc 6880 98bd 8d2b 7f3e 5892 22bd
00000200: eed3 c1bc ede5 79bb d5a5 2b3e 2e96 cdbd
00000210: 1b6c f13c 6d19 b7be 1c9b b33e 68f2 35be
00000220: 4949 903d a769 cabe efa8 e53d c44d a93e
00000230: a9cc 80be a0ba 433e 95f8 fb3d 1af5 5ebe
00000240: 9b85 2f3e 534b 0a3d e41a b23c 2bc8 ec3d
00000250: 73f4 083e e081 3e3d f9d4 703d 4648 173d
00000260: f8a6 273e 5700 393e b427 25bd 96ac e1ba
00000270: d127 8b3d feb0 35be 0f0d 38be 776e 81be
00000280: 82db 9b3d 7d97 503e 12de 143e 8ba4 9a3e
00000290: a5e7 5ebe afac 01be e0b7 03bd 90e2 043e
000002a0: 0848 823d 4971 153e b26c 24be 238e 3e3e
000002b0: e31e 6abd 60c4 25be fd5b 4c3e 6f53 24be
000002c0: 26bb aa3e 4903 f7be b55b 8a3d a89b 673d
000002d0: 06aa fa3c 3c94 193d 3571 00be 3942 f3be
000002e0: 304b f13d 2c2b 223e 6dc7 65be c0fd 68be
000002f0: a40c 00bd 49da 33be 4067 253e c206 223e
00000300: 8552 aabc 48f2 a93e 2780 7d3e 92b3 293e
00000310: 9f05 76be e8c0 d93e 13b2 2b3e 29e3 8c3d
00000320: daa1 cf3d 8863 813e 6a15 c3bd c108 74be
00000330: 57b1 5c3e e7eb fa3d df56 f03d e051 af3d
00000340: dc52 1d3e 463b 94be d8ab 7a3e 144e 2c3d
00000350: 9aa7 823e ea87 7dbc 29ed ce3d d183 84be
00000360: fd2d e03d 0027 acbc 1be4 d63d 5a85 98be
00000370: 6f28 343e 93d7 8e3e bcfe 7fbe 917e 86bc
00000380: f487 6d3d 8ecf aabe 4a95 8ebe 6456 9b3d
00000390: 62dd ecbd 43f8 b93c 9b26 6abe b6c0 d93d
000003a0: 44e6 583e adb9 623d a4f9 9bbe 611c c4bd
000003b0: 3e5e c6bd 0ea8 72bc 5fbe 0c3e d363 8bbe
000003c0: 7aa8 a0be 1696 2f3d cb1f 5cbe 9035 f93d
000003d0: ce4c a1bd fac3 d2bd e9d9 a3be ec53 00bd
000003e0: b514 d3bd c8f6 3bbc aef4 01be ebcd 013e
000003f0: a77f db3d b521 0c3d f0b4 bbbc 7d8d 053e
0.15890267 0.016087012 -0.12925681 -0.16027877 -0.28227407 -0.26404402 -0.00435781 0.060713757
-0.25490636 0.26875255 -0.08346584 -0.11975155 0.013205888 0.19959813 -0.11175012 -0.04675216
-0.22131982 0.014782858 0.16541323 0.22252513 0.25658858 -0.18096857 -0.090446696 0.048641898
-0.25440446 -0.14168327 0.109089814 -0.10732118 -0.33638647 0.101446904 -0.07071523 0.1108392
-0.13783403 0.048902832 0.062959425 -0.15844157 0.34344298 -0.19429787 -0.02948764 -0.09595935
0.18449958 -0.08213597 0.10850572 0.08616285 0.022162735 0.23263472 0.0515197 0.051643472
0.09221338 0.025744807 0.2528398 0.012774406 -0.021259632 0.27931318 0.32700053 0.16216876
-0.062008597 -0.104383685 0.14390394 0.07437572 0.11714147 -0.51217014 0.12124721 0.06058333
-0.3755112 -0.08709283 0.18189028 0.14380285 0.06519765 -0.24579942 0.0050759376 0.13319583
0.08717217 0.25073767 -0.048878826 0.16839615 -0.15749544 -0.20698018 0.18589205 -0.119073
0.0057971333 0.13422418 0.08341966 -0.03709129 -0.43701583 -0.03165241 -0.1818427 -0.07586643
0.32226437 -0.014147618 -0.16075604 0.110653736 -0.08168026 -0.3033042 -0.264345 0.14006115
-0.17949529 -0.118434064 -0.08871865 0.1479844 0.01149813 0.2058493 0.23757951 -0.061888024
-0.17919275 0.09393187 0.11552171 0.06260003 -0.110912025 0.07025161 -0.14325167 0.28332046
0.03461218 0.2013623 -0.04197455 0.069602035 -0.18582527 0.34489775 0.016364448 0.3980515
-0.010824686 0.046432562 -0.08387257 0.03550657 -0.025264487 -0.074463665 0.24918957 -0.039690346
-0.023660626 -0.0038131431 0.16762479 -0.1003841 0.029470494 -0.35761586 0.35079277 -0.17768252
0.07045228 -0.3953373 0.11213862 0.33067143 -0.25156143 0.1911416 0.12303273 -0.21773186
0.1714081 0.03376324 0.021741338 0.115616165 0.133745 0.046510577 0.058796857 0.03693416
0.16372287 0.18066536 -0.040321067 -0.0017217572 0.06794704 -0.17743298 -0.17973731 -0.2527959
0.07610227 0.20370288 0.14537838 0.3020366 -0.21768053 -0.1266353 -0.03215778 0.12977052
0.06361395 0.14593996 -0.16057089 0.18608908 -0.057158362 -0.16188192 0.19956966 -0.16047452
0.33345908 -0.48244694 0.06755773 0.05654493 0.030598652 0.037494883 -0.12543185 -0.4751146
0.11781919 0.15836781 -0.22439356 -0.22753048 -0.031262055 -0.17563738 0.16152668 0.1582289
-0.020791302 0.33192658 0.24755917 0.16572407 -0.24025582 0.42529988 0.16767149 0.06879265
0.101382926 0.2527125 -0.09525569 -0.23831464 0.21552025 0.12252026 0.11735319 0.08560538
0.1536364 -0.28951472 0.24479616 0.04206665 0.25518495 -0.015474299 0.101038285 -0.25881818
0.109462716 -0.02101469 0.104927264 -0.2978924 0.17593549 0.27898845 -0.24999517 -0.016417773
0.057990983 -0.33361477 -0.27848274 0.07584837 -0.11565663 0.022701388 -0.2286629 0.1063246
0.2118159 0.055352855 -0.30463898 -0.09575725 -0.09685944 -0.014810575 0.13744496 -0.27224597
-0.31378537 0.042867742 -0.21496503 0.12168419 -0.078759775 -0.10291286 -0.3200219 -0.031330034
-0.10306684 -0.011472411 -0.12690994 0.12676208 0.10717707 0.034211833 -0.022913426 0.13042255

act.action_out.linear.bias f4 [10]
00000000: 7367 adba 8502 d2bd 42fe 993c 9284 143d
00000010: 5813 953d 869d 523d 18f1 cc3d 7091 55bd
00000020: bd27 fcbd ded2 8a3d
-0.0013229683 -0.10254387 0.018797997 0.03625924 0.0727908 0.051419757 0.100069225 -0.052140653
-0.12312267 0.06778501
