light_mappo-main/results/MyEnv/MyEnv/mappo/check/run43/models/critic.pt (torch, 52149 bytes, 15 tensors)

base.feature_norm.weight f4 [45]
1.034041 1.0398799 1.0209594 0.97675985 1.0258988 0.9691677 0.9814653 0.960874
1.01717 0.9841851 1.0086113 1.0507375 1.0314184 0.99229336 1.0417712 0.9828481
0.9589927 1.02327 0.979222 0.96245664 1.0309858 1.0362152 0.98820806 0.9930304
0.9750838 0.9817922 1.0043919 1.0192418 0.9709173 0.9687048 0.93848836 1.0643486
0.96514875 1.042807 0.95047927 0.985369 1.0177711 1.0357506 1.0399356 0.995187
1.0216883 0.95570946 0.9978691 0.9892208 1.0065666
00000000: 755b 843f c91a 853f ccae 823f ef0c 7a3f
00000010: a750 833f 601b 783f 4f41 7b3f d7fb 753f
00000020: a032 823f 8ef3 7b3f 2d1a 813f 917e 863f
00000030: 8505 843f f006 7e3f c258 853f ef9b 7b3f
00000040: 8c80 753f 83fa 823f 4bae 7a3f 8f63 763f
00000050: 58f7 833f b3a2 843f 34fb 7c3f 3e37 7e3f
00000060: 189f 793f bc56 7b3f ea8f 803f 8476 823f
00000070: 098e 783f 0afd 773f c640 703f 933c 883f
00000080: fd13 773f b37a 853f 9c52 733f 2541 7c3f
00000090: 5346 823f 7a93 843f 9c1c 853f 93c4 7e3f
000000a0: afc6 823f 60a9 743f 5974 7f3f 933d 7d3f
000000b0: 2dd7 803f

base.feature_norm.bias f4 [45]
-0.01044866 -0.028431185 -0.04196575 -0.037140194 -0.01343144 0.027360525 -0.05553578 0.031519484
-0.03525058 -0.019747758 0.012212258 -0.039777834 -0.009381393 -0.034419026 -0.019621814 -0.03572819
-0.044649523 -0.04298364 0.011140994 -0.02421776 -0.042236574 -0.03238822 0.010938868 0.022936929
0.00097603 -0.026216336 -0.0036417055 0.031483345 0.026518423 -0.007816654 0.021210663 0.018883687
-0.07521782 -0.047855485 -0.01349626 -0.0041628606 -0.058765188 -0.008684197 -0.052263945 0.037611723
-0.04065642 -0.031768978 -0.00061042403 -0.015917862 -0.032585815
00000000: db30 2bbc 84e8 e8bc 47e4 2bbd 5120 18bd
00000010: 8b0f 5cbc 2e23 e03c 7c79 63bd 931a 013d
00000020: ea62 10bd 0dc6 a1bc ec15 483c 15ee 22bd
00000030: 6ab4 19bc f7fa 0cbd edbd a0bc b957 12bd
00000040: 6be2 36bd 9d0f 30bd b788 363c 5364 c6bc
00000050: 4200 2dbd 83a9 04bd f038 333c 3ae6 bb3c
00000060: 44dc 7f3a a4c3 d6bc aea9 6ebb aef4 003d
00000070: 2a3d d93c 6c11 00bc fcc1 ad3c f6b1 9a3c
00000080: cd0b 9abd 1d04 44bd 6b1f 5dbc 9b68 88bb
00000090: c4b3 70bd 2a48 0ebc b812 56bd c00e 1a3d
000000a0: 5987 26bd 3020 02bd dd04 20ba 2d66 82bc
000000b0: b478 05bd

base.mlp.fc1.0.weight f4 [64, 45]
-0.3333994 0.09886526 -0.14992271 -0.076467186 0.23898011 -0.19983873 -0.029430928 -0.22588329
0.039349657 -0.01049162 -0.055214684 -0.15762664 -0.1542948 -0.20913416 -0.01932471 -0.023774577
0.3001889 0.09680809 -0.24636513 0.29414162 0.020984456 0.08653767 -0.14620914 0.21250923
-0.15473802 -0.024933742 -0.2633089 -0.18172714 -0.05277407 -0.15412344 0.15067177 -0.050634027
-0.11601505 -0.039238535 -0.008696484 -0.07275052 0.046896305 0.025430426 0.057682518 0.17001936
-0.21353835 -0.13448058 0.10570336 0.15230508 0.21809575 0.037038695 0.006083645 -0.20317636
0.01697492 0.021252505 -0.020850426 0.082638666 -0.046151157 -0.056863386 -0.08908202 0.09605818
0.14190207 0.0794764 -0.12446094 -0.18203118 0.23852615 -0.030722918 -0.08932685 -0.44995654
0.2277544 0.06142952 -0.42505965 0.030402746 -0.03759776 -0.11728702 0.03888878 0.093914576
-0.028264968 -0.23419097 0.11548122 -0.07949081 0.10100621 0.12638822 0.30102775 -0.1805579
0.35269362 0.16439709 0.12693447 0.13695525 -0.03599042 -0.040076442 -0.3803508 0.2163751
0.0019127531 0.16053976 -0.11661748 0.09531381 0.25501403 0.03916367 -0.07957658 -0.3291746
-0.2116729 0.4101153 -0.00021317606 -0.10455749 -0.49691683 -0.2511441 0.11662782 -0.2811789
0.2480697 -0.09556346 0.04864195 0.16539603 -0.09803279 -0.24566719 0.20959052 0.0489494
0.40525648 -0.18767692 0.06274319 0.012202452 -0.15881816 0.15126458 0.13408493 -0.0041548987
-0.09356594 -0.38253835 -0.022142168 -0.048422836 -0.26310557 -0.18772753 0.19626728 -0.11310297
0.07782203 0.28373665 0.07587694 -0.16304395 0.048761062 -0.043016884 -0.12888016 -0.02680342
-0.076696515 0.06907688 -0.0410882 -0.119221084 -0.02314183 0.11271131 -0.0033616058 0.1397323
0.045815054 -0.045896176 -0.30990857 -0.013732253 0.04525724 -0.16080177 0.2571418 -0.36392707
0.00046969915 0.03664866 -0.13475364 0.32571393 0.5128519 -0.16620213 0.2062017 0.12931582
-0.06679867 0.081827305 -0.0033084678 -0.12855025 -0.19962604 0.042468555 0.19138281 -0.25964084
0.28025672 -0.1005089 0.034117095 -0.049305037 0.35363856 -0.27421996 0.03898449 -0.12953466
0.05708707 -0.24447595 0.23003249 0.4013268 0.068032116 0.08163085 -0.30677325 0.118113585
-0.015799642 -0.101994246 0.22684376 0.004176384 -0.28410003 0.050773926 -0.019513233 -0.11593757
0.035722494 -0.16562964 0.4184608 0.19255342 -0.034273326 -0.40706196 0.40785176 0.1504296
-0.04686272 -0.15347064 -0.059476107 -0.15811257 0.15358911 -0.27667624 -0.3291532 -0.17309313
-0.24667545 0.0075486153 0.02211597 0.2012323 0.078968585 0.14052403 0.06815686 -0.017511835
0.07599262 0.0424821 0.03224722 -0.13451743 -0.16406229 0.015598293 0.34811452 -0.21673717
0.033707045 -0.11863646 0.08030988 -0.23973837 0.05113722 -0.15324254 -0.0003724711 0.039401554
0.14870855 0.17618512 -0.3093128 0.013812406 -0.20456252 -0.26003724 0.07103927 -0.22348042
-0.01410742 -0.19771937 0.10891454 -0.15403089 -0.17061502 0.4117357 -0.083009884 0.103621826
-0.005133302 -0.08725856 -0.16503568 0.11035364 0.08029908 -0.032638095 0.17696123 0.10815521
00000000: 53b3 aabe df79 ca3d 5785 19be d49a 9cbd
00000010: 34b7 743e 86a2 4cbe 2119 f1bc f34d 67be
00000020: 1b2d 213d 0be5 2bbc cb28 62bd e168 21be
00000030: 75ff 1dbe 4427 56be db4e 9ebc e7c2 c2bc
00000040: 5cb2 993e 5243 c63d 2447 7cbe bb99 963e
00000050: 98e7 ab3c a93a b13d d9b7 15be 059c 593e
00000060: a573 1ebe d941 ccbc 6dd0 86be ae16 3abe
00000070: a029 58bd 89d2 1dbe b349 1a3e a065 4fbd
00000080: 4c99 edbd 96b8 20bd b37b 0ebc 3afe 94bd
00000090: 5716 403d 7853 d03c 8144 6c3d 8e19 2e3e
000000a0: cca9 5abe 47b5 09be 017b d83d ddf5 1b3e
000000b0: 7e54 5f3e e3b5 173d 5059 c73b 770d 50be
000000c0: fd0e 8b3c bc19 ae3c 83ce aabc 763e a93d
000000d0: ff08 3dbd 95e9 68bd a270 b6bd 27ba c43d
000000e0: c74e 113e 86c4 a23d 61e5 febd 6266 3abe
000000f0: 3340 743e a1ae fbbc fff0 b6bd b460 e6be
00000100: 7338 693e 859d 7b3d 6ba1 d9be 2e0f f93c
00000110: 1c00 1abd 2d34 f0bd d749 1f3d 4956 c03d
00000120: ef8b e7bc c2cf 6fbe 6b81 ec3d 14cc a2bd
00000130: 58dc ce3d ea6b 013e 4f20 9a3e 2ce4 38be
00000140: 4294 b43e b657 283e 1cfb 013e ff3d 0c3e
00000150: b16a 13bd 3227 24bd 57bd c2be 6f91 5d3e
00000160: 58b5 fa3a 8964 243e 25d5 eebd e333 c33d
00000170: 3391 823e 166a 203d 0cf9 a2bd 9389 a8be
00000180: c8c0 58be a2fa d13e 0388 5fb9 3d22 d6bd
00000190: e26b febe f695 80be 91da ee3d aef6 8fbe
000001a0: fc05 7e3e c6b6 c3bd c83c 473d 945d 293e
000001b0: 6ac5 c8bd 2e90 7bbe e69e 563e 2b7f 483d
000001c0: c77d cf3e 612e 40be 807f 803d cbec 473c
000001d0: 3aa1 22be 1ae5 1a3e 8f4d 093e d125 88bb
000001e0: 809f bfbd 11dc c3be 7e63 b5bc 0657 46bd
000001f0: c6b5 86be a53b 40be 4afa 483e 88a2 e7bd
00000200: 2861 9f3d ee45 913e 5e65 9b3d fef4 26be
00000210: aeb9 473d 7932 30bd 29f9 03be d992 dbbc
00000220: 1013 9dbd 2e78 8d3d 1a4c 28bd 2f2a f4bd
00000230: ef93 bdbc 30d5 e63d 634e 5cbb fc15 0f3e
00000240: 91a8 3b3d a1fd 3bbd 56ac 9ebe 3efd 60bc
00000250: a85f 393d 38a9 24be 17a8 833e a654 babe
00000260: f441 f639 e81c 163d dcfc 09be fac3 a63e
00000270: 434a 033f e430 2abe 8a26 533e 5e6b 043e
00000280: becd 88bd 1395 a73d e1d2 58bb ada2 03be
00000290: c56a 4cbe 82f3 2d3d dbf9 433e a5ef 84be
000002a0: cf7d 8f3e 9cd7 cdbd 5ebe 0b3d 14f4 49bd
000002b0: 1d10 b53e 8f66 8cbe 33ae 1f3d bca4 04be
000002c0: 22d4 693d e757 7abe a38d 6b3e b57a cd3e
000002d0: 6c54 8b3d 132e a73d 6211 9dbe 89e5 f13d
000002e0: 406e 81bc 5ce2 d0bd bb49 683e 0cda 883b
000002f0: 8f75 91be 52f8 4f3d 37da 9fbc ad70 edbd
00000300: c051 123d d19a 29be 7e40 d63e b92c 453e
00000310: 3062 0cbd 6d6a d0be f2d1 d03e 380a 1a3e
00000320: 20f3 3fbd 6827 1dbe 389d 73bd 43e8 21be
00000330: 7746 1d3e 82a8 8dbe c586 a8be 533f 31be
00000340: 7d98 7cbe 605a f73b 8d2c b53c d70f 4e3e
00000350: 48ba a13d 88e5 0f3e d395 8b3d fb74 8fbc
00000360: 05a2 9b3d b601 2e3d a915 043d f0be 09be
00000370: f2ff 27be fc8f 7f3c 113c b23e 59f0 5dbe
00000380: 6610 0a3d acf7 f2bd 8279 a43d fa7d 75be
00000390: 4375 513d 9deb 1cbe 3a48 c3b9 8663 213d
000003a0: 0e47 183e df69 343e 3f5e 9ebe 6e4d 623c
000003b0: d678 51be 9a23 85be 097d 913d 0dd8 64be
000003c0: cf22 67bc f276 4abe 960e df3d 46ba 1dbe
000003d0: b4b5 2ebe 06cf d23e 1601 aabd ae37 d43d
000003e0: 4235 a8bb 9eb4 b2bd 1dff 28be 1701 e23d
000003f0: d873 a43d 86af 05bd 5335 353e 7b80 dd3d

base.mlp.fc1.0.bias f4 [64]
-0.0420907 -0.032026935 0.04084954 0.05051154 0.015604108 0.018537952 -0.041618787 -0.04691156
-0.039023302 0.040000994 0.030032111 0.030256335 0.04656261 -0.041658483 -0.04919991 -0.020992132
-0.04708539 0.019051807 0.070480466 -0.019290255 -0.020675039 -0.039690062 0.039267104 -0.026762167
-0.060889963 0.029077062 0.035445157 0.061763275 -0.03682282 -0.036867827 0.10294218 0.07253776
-0.059564635 -0.047212914 -0.025919283 0.023633884 0.052348107 -0.023087721 0.045269925 0.03273998
0.06361854 0.049057122 0.042172454 0.04069183 -0.060858645 0.11414254 0.08483532 0.068973824
-0.03152271 -0.022186298 0.053111907 0.00042666876 -0.041255746 0.028375914 0.040865168 -0.044938084
-0.040606625 -0.031376638 0.0041910484 0.005210536 0.009675656 -0.06164087 0.026088545 0.018677002
00000000: 4c67 2cbd ad2e 03bd d951 273d 30e5 4e3d
00000010: 5fa8 7f3c e7dc 973c 7678 2abd 5626 40bd
00000020: e6d6 1fbd 15d8 233d e705 f63c 22dc f73c
00000030: 6fb8 3e3d 16a2 2abd d885 49bd b1f7 abbc
00000040: 9cdc 40bd 8912 9c3c 1058 903d 9906 9ebc
00000050: b35e a9bc 0c92 22bd 8bd6 203d 553c dbbc
00000060: c167 79bd 0533 ee3c f12e 113d 7dfb 7c3d
00000070: 86d3 16bd b802 17bd 5ad3 d23d ad8e 943d
00000080: 0cfa 73bd 5462 41bd ad54 d4bc d99b c13c
00000090: f86a 563d 7622 bdbc f56c 393d 5b1a 063d
000000a0: 704a 823d 1ff0 483d 06bd 2c3d 7aac 263d
000000b0: ea46 79bd 90c3 e93d 24be ad3d 2642 8d3d
000000c0: f51d 01bd 0ac0 b5bc df8b 593d 83b2 df39
000000d0: c9fb 28bd 9b74 e83c 3c62 273d ff10 38bd
000000e0: 2253 26bd ca84 00bd 1055 893b 25bd aa3b
000000f0: a586 1e3c 237b 7cbd a5b7 d53c 8300 993c

base.mlp.fc1.2.weight f4 [64]
0.9663792 1.0218177 0.9901705 1.0308787 1.0291276 0.96426463 0.9706623 1.0310063
1.0451639 0.9710497 1.0229164 0.9697485 0.9727905 0.9984197 1.0266429 1.0312018
1.0460794 0.97460186 1.0290463 1.0512184 0.96921617 0.9539189 1.0075785 0.98630184
1.0307645 1.0118495 0.9987653 1.034735 0.94886166 1.0013927 1.0058333 0.9788964
1.0564368 0.9538687 0.9663401 1.0010073 1.0373629 1.0409055 0.98402536 0.9567422
0.95168835 1.0348647 1.0230782 0.97175664 0.97270685 0.986955 1.0265472 1.0053396
0.9552146 1.0537653 1.0537184 0.9444708 0.97908205 1.0074362 0.9617 0.9753718
0.9616373 1.0121909 1.0152712 0.978786 0.9630931 1.0253459 0.9860184 0.9335859
00000000: a164 773f ecca 823f d07b 7d3f d5f3 833f
00000010: 74ba 833f 0cda 763f 537d 783f 04f8 833f
00000020: eec7 853f b796 783f edee 823f 7041 783f
00000030: cc08 793f 6f98 7f3f 0969 833f 6cfe 833f
00000040: eee5 853f 827f 793f cab7 833f 538e 863f
00000050: 8d1e 783f 0734 743f 55f8 803f 477e 7c3f
00000060: 17f0 833f 4984 813f 15af 7f3f 3272 843f
00000070: 99e8 723f a32d 803f 25bf 803f f498 7a3f
00000080: 5239 873f bd30 743f 1162 773f 0221 803f
00000090: 4fc8 843f 643c 853f 16e9 7b3f 0fed 743f
000000a0: d9a1 733f 7276 843f 3af4 823f 0bc5 783f
000000b0: 5103 793f 15a9 7c3f e665 833f f8ae 803f
000000c0: f288 743f c8e1 863f 3fe0 863f d7c8 713f
000000d0: 1fa5 7a3f abf3 803f f931 763f f7b1 793f
000000e0: dd2d 763f 798f 813f 68f4 813f b891 7a3f
000000f0: 458d 763f 893e 833f b46b 7c3f 7cff 6e3f

base.mlp.fc1.2.bias f4 [64]
-0.044593323 -0.051417843 0.034576043 0.04195365 0.012602969 0.020148316 -0.030528776 -0.058945343
-0.054515723 0.035931084 0.033084113 0.035384256 0.044594504 -0.03857664 -0.059499275 -0.022316383
-0.0529495 0.021886287 0.061880928 -0.029169915 -0.023196682 -0.034639496 0.036522023 -0.030285979
-0.074881524 0.023501905 0.0277663 0.050490893 -0.04050685 -0.09784907 0.08180533 0.050915144
-0.07946354 -0.06526374 -0.010431179 0.022550415 0.037978336 -0.027278047 0.040770333 0.032556344
0.04812976 0.07455477 0.015781319 0.04310623 -0.07561026 0.07832501 0.059669483 0.05195066
0.021073531 -0.04992583 0.006438127 0.070395276 -0.034818385 0.024124974 0.031136522 -0.040361907
-0.04136005 -0.02041697 0.016830271 0.03401001 0.010657193 -0.05942998 0.030895384 0.029740794
00000000: 7da7 36bd 849b 52bd 9c9f 0d3d 97d7 2b3d
00000010: af7c 4e3c 150e a53c 7c17 fabc ac70 71bd
00000020: e14b 5fbd 792c 133d 3583 073d 15ef 103d
00000030: baa8 363d 8a02 1ebd 83b5 73bd d9d0 b6bc
00000040: 93e1 58bd df4a b33c db76 7d3d bff5 eebc
00000050: f806 bebc 25e2 0dbd 1e98 153d 4d1a f8bc
00000060: 7c5b 99bd 1187 c03c 2776 e33c 8acf 4e3d
00000070: 83ea 25bd 1865 c8bd 8e89 a73d 668c 503d
00000080: c8bd a2bd ffa8 85bd 89e7 2abc a6bb b83c
00000090: 2c8f 1b3d 3676 dfbc cbfe 263d cd59 053d
000000a0: b623 453d 2cb0 983d d347 813c 2990 303d
000000b0: 8dd9 9abd dd68 a03d fd67 743d 37ca 543d
000000c0: 66a2 ac3c 077f 4cbd ecf6 d23b 662b 903d
000000d0: b99d 0ebd bda1 c53c 0512 ff3c 8752 25bd
000000e0: 2869 29bd 7d41 a7bc a3df 893c 154e 0b3d
000000f0: 829b 2e3c da6c 73bd 5118 fd3c f7a2 f33c

base.mlp.fc_h.0.weight f4 [64, 64]
0.42538577 0.3086296 -0.25652775 0.03974705 -0.085802115 0.015946357 0.12247197 0.1946923
0.1765795 -0.07476678 -0.085895136 -0.27277675 0.024185063 0.20575556 -0.08630947 -0.09623087
-0.0211829 0.20095167 0.06289768 0.09206161 0.074707635 0.36704418 -0.03453405 0.0002484438
0.14454329 0.20762013 -0.05580721 -0.050803136 -0.21326265 0.21280369 -0.08811527 -0.25656185
0.13580205 -0.44725055 -0.03541627 -0.109559424 -0.07727189 -0.028772514 -0.32050458 0.10950067
-0.078257926 0.027948054 0.33347702 -0.17535278 0.23740561 0.04223242 -0.049017653 -0.28419706
-0.13328415 0.17914622 -0.017886195 -0.1028542 -0.013841357 0.17080863 -0.2139731 -0.0009511911
0.19711515 -0.07409102 0.22475763 0.24390996 0.105829135 0.16191012 0.09160627 -0.09698617
-0.1630542 0.095469415 0.12000969 0.06652483 0.15888007 -0.10124829 0.21412683 0.294364
0.24401194 0.12615521 -0.1637375 0.14434233 0.09752349 -0.14468347 0.05930077 0.065639794
0.10182848 -0.22389139 -0.19345345 0.2932042 -0.28204232 0.34446964 0.4716522 0.069444396
0.13175617 0.10900513 -0.026061775 0.101697564 0.13740663 -0.104175955 -0.11508438 0.021689381
0.0754051 0.17808679 0.19073628 -0.038943168 -0.080206156 0.043669727 -0.21450818 -0.11359591
-0.06689253 -0.07030113 0.1154085 0.31671908 -0.016724372 0.20446049 0.15338717 -0.1690415
-0.2208067 0.34569138 0.2480873 0.039677534 0.27123117 -0.13447988 0.07484013 0.08530447
-0.120976016 -0.010264064 -0.00031877638 -0.3074117 0.29166642 0.025638478 -0.17945081 -0.01224661
-0.11387385 0.036724888 -0.09624743 0.14795694 0.019175133 -0.11244128 -0.47462553 -0.1103557
-0.06029614 0.052258223 0.33242282 -0.19781585 -0.14875913 -0.31131512 0.14947507 -0.0059966343
0.17771007 0.20043692 0.34343556 0.2134628 -0.07777943 0.09965147 0.07729725 0.23864129
0.09712763 -0.087239176 -0.28487223 -0.169198 0.29264677 0.13777103 0.1523799 -0.27279583
0.07895135 -0.2476679 0.11483051 -0.08721668 -0.3288567 -0.16478743 -0.08100949 -0.303551
-0.17564228 0.101255074 0.024664761 0.094315074 0.06021009 -0.045591827 0.3986161 0.1724687
-0.037514083 -0.012193698 0.014174048 -0.10671172 -0.23121955 0.015991243 0.033105288 0.206076
-0.13971168 0.16723722 -0.14343667 -0.054715276 -0.07851222 -0.046201777 0.0333247 0.07190173
0.008739387 0.060696293 0.22040473 0.010117613 0.17309476 -0.15965411 0.18184024 0.11945629
-0.14360188 0.365719 0.1342956 -0.12071012 0.06904956 0.008655882 -0.09351401 -0.2748873
-0.034062434 -0.00024008335 0.32102463 0.25136957 -0.108137846 -0.115820795 -0.10116052 -0.23072584
-0.06328458 0.21967094 0.21344295 0.06152903 0.21749854 -0.04515215 0.41638368 -0.08849264
-0.1522001 0.08897724 0.21565422 0.1531735 -0.0913061 0.34477225 -0.20137654 0.06833088
0.017760236 0.055697586 0.077730015 -0.106934845 0.051337857 0.099695615 0.1651198 0.14057833
0.25597256 0.120770656 -0.052533764 0.14957845 0.09001487 0.08745569 0.01922326 -0.23669364
0.24224274 0.14357713 0.38563004 0.07196623 -0.1287497 -0.42840332 -0.0033816898 -0.12588494
00000000: 2acc d93e b304 9e3e 9b57 83be cdcd 223d
00000010: 05b9 afbd efa1 823c 96d2 fa3d 6b5d 473e
00000020: 42d1 343e 531f 99bd cae9 afbd 65a9 8bbe
00000030: c11f c63c 96b1 523e 05c3 b0bd b114 c5bd
00000040: c387 adbc 46c6 4d3e 80d0 803d cc8a bc3d
00000050: 5100 993d 37ed bb3e 9373 0dbd 9041 8239
00000060: 2803 143e 5f9a 543e 1a96 64bd f316 50bd
00000070: 8661 5abe 36e9 593e c775 b4bd 135c 83be
00000080: b10f 0b3e 06fe e4be a710 11bd b160 e0bd
00000090: ba40 9ebd 56b4 ebbc 2d19 a4be e341 e03d
000000a0: b145 a0bd 51f3 e43c 80bd aa3e ae8f 33be
000000b0: 751a 733e e7fb 2c3d bcc6 48bd 4782 91be
000000c0: a47b 08be 1b72 373e 1286 92bc 39a5 d2bd
000000d0: dcc6 62bc 75e8 2e3e c41b 5bbe 5b59 79ba
000000e0: 8ed8 493e 08bd 97bd dd26 663e 88c3 793e
000000f0: f2bc d83d c4cb 253e 119c bb3d afa0 c6bd
00000100: aef7 26be 7885 c33d a4c7 f53d 2c3e 883d
00000110: 75b1 223e 435b cfbd 1044 5b3e e1b6 963e
00000120: 44de 793e d52e 013e ceaa 27be 7ace 133e
00000130: 65ba c73d e727 14be 5de5 723d 286e 863d
00000140: 738b d03d c943 65be a918 46be dc1e 963e
00000150: da67 90be 535e b03e 667c f13e dd38 8e3d
00000160: 17eb 063e 153e df3d 817f d5bc d046 d03d
00000170: 53b4 0c3e 345a d5bd 5cb1 ebbd eead b13c
00000180: fd6d 9a3d 625c 363e 5f50 433e df82 1fbd
00000190: 2043 a4bd 07df 323d 08a8 5bbe f9a4 e8bd
000001a0: f3fe 88bd 0afa 8fbd 4b5b ec3d 0129 a23e
000001b0: 8d01 89bc 175e 513e 8711 1d3e 3719 2dbe
000001c0: 271b 62be 76fe b03e 990a 7e3e e984 223d
000001d0: d0de 8a3e 18b5 09be c845 993d 1cb4 ae3d
000001e0: 46c2 f7bd 9b2a 28bc 7121 a7b9 1165 9dbe
000001f0: 4d55 953e c907 d23c f4c1 37be 01a6 48bc
00000200: b136 e9bd d66c 163d 5f1d c5bd 0682 173e
00000210: 2b15 9d3c 9d47 e6bd 1e02 f3be 2b02 e2bd
00000220: 16f9 76bd b80c 563d 5333 aa3e 3d90 4abe
00000230: 5054 18be b264 9fbe fe0f 193e 6a7f c4bb
00000240: a1f9 353e 563f 4d3e c9d6 af3e fe95 5a3e
00000250: d24a 9fbd 1216 cc3d 054e 9e3d 625e 743e
00000260: daea c63d 74aa b2bd c6da 91be 3e42 2dbe
00000270: ccd5 953e d913 0d3e 7a09 1c3e e5ab 8bbe
00000280: 3fb1 a13d a79c 7dbe 422c eb3d a99e b2bd
00000290: e85f a8be 09be 28be 4ee8 a5bd 096b 9bbe
000002a0: 92db 33be d25e cf3d c10d ca3c 4328 c13d
000002b0: db9e 763d 7fbe 3abd 6917 cc3e a39b 303e
000002c0: 5ea8 19bd 14c8 47bc 443a 683c ad8b dabd
000002d0: d1c4 6cbe 1100 833c 6999 073d 9605 533e
000002e0: 9410 0fbe 3c40 2b3e 10e1 12be 201d 60bd
000002f0: 04cb a0bd 133e 3dbd 7b7f 083d 3741 933d
00000300: a52f 0f3c ad9c 783d c7b1 613e 58c4 253c
00000310: c13f 313e 5e7c 23be 5434 3a3e 80a5 f43d
00000320: 5f0c 13be 853f bb3e c984 093e de36 f7bd
00000330: db69 8d3d 67d1 0d3c 4684 bfbd 07be 8cbe
00000340: 0d85 0bbd e2be 7bb9 575d a43e 83b3 803e
00000350: 6077 ddbd 7433 edbd 3f2d cfbd 6543 6cbe
00000360: 599b 81bd 6bf1 603e ca90 5a3e dd05 7c3d
00000370: f0b7 5e3e 76f1 38bd 3e30 d53e a13b b5bd
00000380: 58da 1bbe b339 b63d 76d4 5c3e 84d9 1c3e
00000390: b1fe babd fd85 b03e a735 4ebe 0ff1 8b3d
000003a0: ea7d 913c 2723 643d ea30 9f3d a800 dbbd
000003b0: a547 523d 372d cc3d 2a15 293e c4f3 0f3e
000003c0: d60e 833e 9b56 f73d a52d 57bd 182b 193e
000003d0: b759 b83d f81b b33d 197a 9d3c d15f 72be
000003e0: 7b0e 783e e205 133e 4d71 c53e 0863 933d
000003f0: f6d6 03be ae57 dbbe 579f 5dbb fbe7 00be

base.mlp.fc_h.0.bias f4 [64]
0.0 0.0 0.0 0.0 0.0 0.0 0.0 0.0
0.0 0.0 0.0 0.0 0.0 0.0 0.0 0.0
0.0 0.0 0.0 0.0 0.0 0.0 0.0 0.0
0.0 0.0 0.0 0.0 0.0 0.0 0.0 0.0
0.0 0.0 0.0 0.0 0.0 0.0 0.0 0.0
0.0 0.0 0.0 0.0 0.0 0.0 0.0 0.0
0.0 0.0 0.0 0.0 0.0 0.0 0.0 0.0
0.0 0.0 0.0 0.0 0.0 0.0 0.0 0.0
00000000: 0000 0000 0000 0000 0000 0000 0000 0000
00000010: 0000 0000 0000 0000 0000 0000 0000 0000
00000020: 0000 0000 0000 0000 0000 0000 0000 0000
00000030: 0000 0000 0000 0000 0000 0000 0000 0000
00000040: 0000 0000 0000 0000 0000 0000 0000 0000
00000050: 0000 0000 0000 0000 0000 0000 0000 0000
00000060: 0000 0000 0000 0000 0000 0000 0000 0000
00000070: 0000 0000 0000 0000 0000 0000 0000 0000
00000080: 0000 0000 0000 0000 0000 0000 0000 0000
00000090: 0000 0000 0000 0000 0000 0000 0000 0000
000000a0: 0000 0000 0000 0000 0000 0000 0000 0000
000000b0: 0000 0000 0000 0000 0000 0000 0000 0000
000000c0: 0000 0000 0000 0000 0000 0000 0000 0000
000000d0: 0000 0000 0000 0000 0000 0000 0000 0000
000000e0: 0000 0000 0000 0000 0000 0000 0000 0000
000000f0: 0000 0000 0000 0000 0000 0000 0000 0000

base.mlp.fc_h.2.weight f4 [64]
1.0 1.0 1.0 1.0 1.0 1.0 1.0 1.0
1.0 1.0 1.0 1.0 1.0 1.0 1.0 1.0
1.0 1.0 1.0 1.0 1.0 1.0 1.0 1.0
1.0 1.0 1.0 1.0 1.0 1.0 1.0 1.0
1.0 1.0 1.0 1.0 1.0 1.0 1.0 1.0
1.0 1.0 1.0 1.0 1.0 1.0 1.0 1.0
1.0 1.0 1.0 1.0 1.0 1.0 1.0 1.0
1.0 1.0 1.0 1.0 1.0 1.0 1.0 1.0
00000000: 0000 803f 0000 803f 0000 803f 0000 803f
00000010: 0000 803f 0000 803f 0000 803f 0000 803f
00000020: 0000 803f 0000 803f 0000 803f 0000 803f
00000030: 0000 803f 0000 803f 0000 803f 0000 803f
00000040: 0000 803f 0000 803f 0000 803f 0000 803f
00000050: 0000 803f 0000 803f 0000 803f 0000 803f
00000060: 0000 803f 0000 803f 0000 803f 0000 803f
00000070: 0000 803f 0000 803f 0000 803f 0000 803f
00000080: 0000 803f 0000 803f 0000 803f 0000 803f
00000090: 0000 803f 0000 803f 0000 803f 0000 803f
000000a0: 0000 803f 0000 803f 0000 803f 0000 803f
000000b0: 0000 803f 0000 803f 0000 803f 0000 803f
000000c0: 0000 803f 0000 803f 0000 803f 0000 803f
000000d0: 0000 803f 0000 803f 0000 803f 0000 803f
000000e0: 0000 803f 0000 803f 0000 803f 0000 803f
000000f0: 0000 803f 0000 803f 0000 803f 0000 803f

base.mlp.fc_h.2.bias f4 [64]
0.0 0.0 0.0 0.0 0.0 0.0 0.0 0.0
0.0 0.0 0.0 0.0 0.0 0.0 0.0 0.0
0.0 0.0 0.0 0.0 0.0 0.0 0.0 0.0
0.0 0.0 0.0 0.0 0.0 0.0 0.0 0.0
0.0 0.0 0.0 0.0 0.0 0.0 0.0 0.0
0.0 0.0 0.0 0.0 0.0 0.0 0.0 0.0
0.0 0.0 0.0 0.0 0.0 0.0 0.0 0.0
0.0 0.0 0.0 0.0 0.0 0.0 0.0 0.0
00000000: 0000 0000 0000 0000 0000 0000 0000 0000
00000010: 0000 0000 0000 0000 0000 0000 0000 0000
00000020: 0000 0000 0000 0000 0000 0000 0000 0000
00000030: 0000 0000 0000 0000 0000 0000 0000 0000
00000040: 0000 0000 0000 0000 0000 0000 0000 0000
00000050: 0000 0000 0000 0000 0000 0000 0000 0000
00000060: 0000 0000 0000 0000 0000 0000 0000 0000
00000070: 0000 0000 0000 0000 0000 0000 0000 0000
00000080: 0000 0000 0000 0000 0000 0000 0000 0000
00000090: 0000 0000 0000 0000 0000 0000 0000 0000
000000a0: 0000 0000 0000 0000 0000 0000 0000 0000
000000b0: 0000 0000 0000 0000 0000 0000 0000 0000
000000c0: 0000 0000 0000 0000 0000 0000 0000 0000
000000d0: 0000 0000 0000 0000 0000 0000 0000 0000
000000e0: 0000 0000 0000 0000 0000 0000 0000 0000
000000f0: 0000 0000 0000 0000 0000 0000 0000 0000

base.mlp.fc2.0.0.weight f4 [64, 64]
0.3888833 0.27388966 -0.2037007 0.032284096 -0.03858627 -0.0017297722 0.10535323 0.18670648
0.13577643 -0.02630474 -0.03733875 -0.21084821 0.014936327 0.17404734 -0.065409005 -0.05325911
-0.0143187875 0.18423177 0.02048451 0.084196694 0.053083077 0.3290463 -0.0200838 0.010184989
0.157844 0.15966398 -0.03289477 -0.012137942 -0.17074534 0.1680399 -0.07781403 -0.22591724
0.14181742 -0.39591435 0.015528517 -0.10198769 -0.08928617 -0.07636031 -0.2859531 0.11886109
-0.0750123 -0.014287216 0.28692865 -0.12708436 0.22011648 -0.006976092 -0.020969387 -0.23751259
-0.11428096 0.14397374 -0.004152458 -0.11197642 -0.0030462558 0.13235553 -0.18127371 -0.0071972264
0.13069606 -0.051786322 0.16590782 0.21808873 0.13880959 0.1390847 0.11738498 -0.06339903
-0.12720197 0.040484317 0.11910861 0.072398625 0.13954586 -0.07235697 0.15206769 0.30223098
0.22402208 0.09791901 -0.12771235 0.169962 0.09589406 -0.119255476 0.055822697 0.04762727
0.112390555 -0.16376175 -0.16487405 0.25883844 -0.26619485 0.30423236 0.42747176 0.016931996
0.122978024 0.08693147 -0.012605219 0.07083899 0.09759691 -0.06132225 -0.10323969 -0.009246451
0.12871528 0.14290851 0.19338244 -0.048289955 0.0076729814 -0.0019461542 -0.18893988 -0.05610287
-0.02640991 -0.06023965 0.15829019 0.29645497 0.0040849918 0.1637699 0.1347621 -0.11580371
-0.16580684 0.31967083 0.20398213 0.008041159 0.23045093 -0.07885661 0.0991093 0.10228188
-0.09625852 -0.03005112 -0.023455838 -0.2685239 0.26168692 0.047923047 -0.139303 -0.01674026
-0.13019861 -0.012402453 -0.0639577 0.13918835 0.046221107 -0.07728776 -0.45274267 -0.08846819
-0.030421467 0.08510698 0.35397503 -0.1640654 -0.12952606 -0.27583513 0.11223643 -0.0071118013
0.14045827 0.17485192 0.32112324 0.18407279 -0.13275592 0.03923692 0.104164205 0.1704357
0.09208697 -0.058466073 -0.22759728 -0.15453948 0.21800168 0.12865508 0.12766233 -0.24486752
-0.015400491 -0.2420239 0.102570914 -0.078237414 -0.30298564 -0.2207956 -0.06283743 -0.26958904
-0.14810036 0.05940459 0.04339765 0.07970748 0.08698544 -0.05778762 0.36788353 0.154799
-0.029148173 -0.009231722 -0.004774548 -0.12558319 -0.22659859 0.04708369 0.057188295 0.09848331
-0.14937194 0.12808093 -0.12530388 -0.0536836 -0.054331116 -0.027971933 0.05332912 0.06599488
0.025503067 0.101303235 0.22413945 -0.03178315 0.18275028 -0.23466931 0.2470259 0.09822366
-0.17207709 0.39977846 0.13721298 -0.19328 0.062018905 -0.045035698 -0.14224572 -0.33620673
0.015472881 -0.049194347 0.35942566 0.29368252 -0.09132699 -0.13333923 -0.12637925 -0.26981008
-0.08420746 0.2606215 0.205841 0.005240722 0.24896681 -0.010991086 0.5004175 -0.11805598
-0.20898266 0.12321689 0.2374522 0.090247884 -0.15277664 0.41293478 -0.27114928 0.0363933
0.017483205 0.100763425 0.08079871 -0.16046698 -0.012387535 0.13398424 0.13846771 0.16984215
0.31116024 0.06683212 -0.03226194 0.20012969 0.14896007 0.09907769 0.014432699 -0.2478976
0.30224767 0.19818705 0.45586613 0.061548334 -0.14800173 -0.49804118 -0.06091384 -0.14833722
00000000: b61b c73e 443b 8c3e eb96 50be 543c 043d
00000010: a30c 1ebd 86b9 e2ba 6fc3 d73d fc2f 3f3e
00000020: fa08 0b3e 0a7d d7bc 84f0 18bd 98e8 57be
00000030: 7fb7 743c 7739 323e 28f5 85bd 3926 5abd
00000040: 5999 6abc 41a7 3c3e 22cf a73c 516f ac3d
00000050: a46d 593d c278 a83e c886 a4bc f1de 263c
00000060: dca1 213e f47e 233e abbc 06bd 38de 46bc
00000070: ded7 2ebe a712 2c3e f65c 9fbd d956 67be
00000080: 9638 113e 49b5 cabe 526b 7e3c ecde d0bd
00000090: abdb b6bd cb62 9cbd 7268 92be 716d f33d
000000a0: 0ca0 99bd ed14 6abc 50e8 923e 6722 02be
000000b0: 3766 613e b397 e4bb fec7 abbc 8036 73be
000000c0: 230c eabd da6d 133e 5811 88bb e553 e5bd
000000d0: b1a3 47bb 3588 073e d19f 39be b6d6 ebbb
000000e0: 30d5 053e e51d 54bd bde3 293e a752 5f3e
000000f0: 1a24 0e3e 386c 0e3e 8967 f03d 5ad7 81bd
00000100: 3c41 02be e2d2 253d 37ef f33d bb45 943d
00000110: 1ce5 0e3e e42f 94bd a2b7 1b3e 05be 9a3e
00000120: 0b66 653e c389 c83d 07c7 02be 850a 2e3e
00000130: 1b64 c43d 373c f4bd 57a6 643d d014 433d
00000140: 052d e63d 29b1 27be bed4 28be 7986 843e
00000150: b14a 88be 58c4 9b3e 94dd da3e f8b4 8a3c
00000160: e7db fb3d 2009 b23d 1f86 4ebc 0814 913d
00000170: e4e0 c73d 0a2d 7bbd 556f d3bd 6d7e 17bc
00000180: f0cd 033e 9c56 123e 0c06 463e b0cb 45bd
00000190: a26d fb3b 1916 ffba 7579 41be 1fcc 65bd
000001a0: 9859 d8bc dabd 76bd d316 223e f2c8 973e
000001b0: 65db 853b 4cb3 273e 13ff 093e 7f2a edbd
000001c0: 45c9 29be e5ab a33e b1e0 503e 11bf 033c
000001d0: 54fb 6b3e 937f a1bd d1f9 ca3d 2a79 d13d
000001e0: 3023 c5bd c42d f6bc 7526 c0bc f77b 89be
000001f0: d4fb 853e f54a 443d 72a5 0ebe df22 89bc
00000200: c952 05be a933 4bbc 41fc 82bd 6487 0e3e
00000210: 5852 3d3d 0c49 9ebd e3cd e7be cf2e b5bd
00000220: 7136 f9bc 914c ae3d 373c b53e c300 28be
00000230: 7ba2 04be 433a 8dbe 37dc e53d 1d0a e9bb
00000240: 4bd4 0f3e 620c 333e 446a a43e 947d 3c3e
00000250: 2bf1 07be e5b6 203d 0b54 d53d b286 2e3e
00000260: 1898 bc3d 1f7a 6fbd 430f 69be 993f 1ebe
00000270: d53b 5f3e 28be 033e eab9 023e 8dbe 7abe
00000280: 5752 7cbc 1dd5 77be b310 d23d f03a a0bd
00000290: ef20 9bbe 3e18 62be e9b0 80bd 9307 8abe
000002a0: 9fa7 17be 3a52 733d bcc1 313d ad3d a33d
000002b0: 6c25 b23d b6b2 6cbd 3b5b bc3e a183 1e3e
000002c0: 26c8 eebc a640 17bc d073 9cbb e198 00be
000002d0: 7609 68be d4da 403d 463e 6a3d 9eb1 c93d
000002e0: f5f4 18be a627 033e a94f 00be 56e3 5bbd
000002f0: 4e8a 5ebd 6525 e5bc a36f 5a3d 5328 873d
00000300: cfeb d03c 1278 cf3d d084 653e 0c2f 02bd
00000310: e422 3b3e 274d 70be 5cf4 7c3e 7c29 c93d
00000320: fa34 30be c3af cc3e 8f81 0c3e 31eb 45be
00000330: 8907 7e3d 5a77 38bd dda8 11be 4a23 acbe
00000340: f781 7d3c 0380 49bd a406 b83e 8e5d 963e
00000350: a509 bbbd 148a 08be 9069 01be 8c24 8abe
00000360: f674 acbd 2e70 853e fcc7 523e 5dba ab3b
00000370: 28f1 7e3e f513 34bc 5c1b 003f 55c7 f1bd
00000380: 8dff 55be 2359 fc3d ab26 733e e2d3 b83d
00000390: 7b71 1cbe 306c d33e 14d4 8abe 2411 153d
000003a0: f038 8f3c 0e5d ce3d cb79 a53d 7551 24be
000003b0: 16f5 4abc 2a33 093e 7bca 0d3e 1aeb 2d3e
000003c0: 6550 9f3e 47df 883d 1925 04bd ccee 4c3e
000003d0: fd88 183e 3ee9 ca3d 2177 6c3c ded8 7dbe
000003e0: 35c0 9a3e 8cf1 4a3e 4967 e93e 1b1a 7c3d
000003f0: c48d 17be 41ff febe ca80 79bd b6e5 17be

base.mlp.fc2.0.0.bias f4 [64]
-0.05153635 -0.041475795 -0.026959796 0.063138455 0.060499545 0.037459664 0.038965784 0.039568473
0.06191376 0.053124398 -0.04057359 0.03487724 0.06331687 -0.017766444 -0.03572133 0.09018951
-0.02351634 0.032605264 -0.040389393 0.049146395 0.035233073 0.049860876 -0.033870347 0.033483278
0.033976626 0.03172508 0.03955036 0.04635085 -0.045248374 0.051248327 -0.043818306 -0.0027663927
-0.01842053 0.13438885 -0.03773303 -0.034203812 0.04696631 -0.03776864 -0.041580573 0.05098677
0.03340361 0.04210264 -0.03282502 -0.022520771 0.031212123 -0.033639174 0.03326398 -0.03124904
-0.021157507 -0.03574298 -0.026625823 0.044592135 0.049702484 0.031608228 0.07107818 -0.043643847
0.033208556 -0.044132028 -0.030354628 0.0560774 -0.022318762 -0.04000864 0.07943196 0.035530414
00000000: c817 53bd 86e2 29bd cada dcbc bc4e 813d
00000010: 5fce 773d 4e6f 193d 969a 1f3d 8d12 223d
00000020: 4899 7d3d f898 593d 7e30 26bd 70db 0e3d
00000030: 46ac 813d ef8a 91bc 8850 12bd 47b5 b83d
00000040: 57a5 c0bc 198d 053d 596f 25bd bb4d 493d
00000050: 8e50 103d eb3a 4c3d a2bb 0abd c325 093d
00000060: 132b 0b3d 28f2 013d 8fff 213d 64da 3d3d
00000070: 5c56 39bd c4e9 513d d37a 33bd 5e4c 35bb
00000080: a7e6 96bc 3b9d 093e f38d 1abd 4c19 0cbd
00000090: bf5f 403d 4ab3 1abd 6450 2abd 81d7 503d
000000a0: 39d2 083d d173 2c3d 8773 06bd 7b7d b8bc
000000b0: 91b0 ff3c 3bc9 09bd d03f 083d fdfd ffbc
000000c0: 8252 adbc 3b67 12bd 661e dabc 3ea6 363d
000000d0: d594 4b3d a177 013d 7091 913d e4c3 32bd
000000e0: b205 083d c9c3 34bd 45aa f8bc 6ab1 653d
000000f0: d6d5 b6bc 1ae0 23bd 39ad a23d 5788 113d

base.mlp.fc2.0.2.weight f4 [64]
0.9137879 0.9079742 0.9458847 0.9981124 0.97691184 0.92596954 0.951394 0.9442252
0.97314423 0.9634959 0.92973214 0.8678409 0.9809974 0.96896034 0.91990095 1.0208491
0.9495807 0.91964495 0.96541494 0.9764892 0.9239261 0.96983606 0.94518065 0.8957096
0.9392655 0.8801145 0.97219795 0.9571906 0.9298185 0.94287694 0.9243298 0.9692179
0.9617362 1.0076419 0.91029614 0.929412 0.93665427 0.9191126 0.9292693 0.96079874
0.9009026 0.9406186 0.95429647 0.9378761 0.8993526 0.92916757 0.9718877 0.9491142
0.9493995 0.9218442 0.94364095 0.9277599 0.96855515 0.9305676 0.9946225 0.89009035
0.8771346 0.936814 0.89659876 0.96124536 0.9659234 0.98500615 1.0044495 0.9305598
00000000: 01ee 693f ff70 683f 8025 723f 4b84 7f3f
00000010: e516 7a3f 570c 6d3f 8f8e 733f beb8 713f
00000020: fb1f 793f aba7 763f ed02 6e3f d22a 5e3f
00000030: a522 7b3f c90d 783f a17e 6b3f 2fab 823f
00000040: b917 733f da6d 6b3f 6f25 773f 32fb 793f
00000050: 6c86 6c3f 2d47 783f 5cf7 713f 394d 653f
00000060: b473 703f 2f4f 613f f7e1 783f 710a 753f
00000070: 9608 6e3f 6260 713f e1a0 6c3f aa1e 783f
00000080: 5834 763f 69fa 803f 2b09 693f f2ed 6d3f
00000090: 93c8 6f3f f74a 6b3f 98e4 6d3f e8f6 753f
000000a0: 8ea1 663f 61cc 703f c64c 743f a618 703f
000000b0: f93b 663f eddd 6d3f a2cd 783f 26f9 723f
000000c0: d80b 733f fbfd 6b3f 7492 713f ac81 6d3f
000000d0: 3bf3 773f ae39 6e3f 959f 7e3f f6dc 633f
000000e0: e58b 603f 0bd3 6f3f 7f87 653f 2d14 763f
000000f0: c246 773f 5d29 7c3f cd91 803f 2b39 6e3f

base.mlp.fc2.0.2.bias f4 [64]
-0.03587102 -0.035211265 -0.034560386 0.042846072 -0.052888706 0.03417675 0.03426215 0.035657156
0.038379777 0.03580818 -0.036175363 0.034450125 0.034052756 -0.037950214 -0.033805933 0.05822273
-0.03404139 0.03380844 -0.039817505 0.038254995 0.034497492 0.03568878 -0.034440123 0.034489024
0.03629059 0.034368962 -0.036960036 0.03624263 -0.036813606 0.038120735 -0.034922373 -0.033812832
-0.03234134 0.0053165057 -0.034458265 -0.035954397 0.03384675 -0.03463076 -0.035514817 0.037751675
0.03528916 0.035091605 -0.037656244 -0.034043703 0.03423952 -0.03231657 -0.017600393 -0.03271684
-0.033433028 -0.03673801 -0.034678616 0.033836573 0.032753933 0.03433249 0.043958142 -0.03499277
0.034371078 -0.03652024 -0.034739558 0.036028 -0.031845227 -0.04288894 0.03427148 0.03416672
00000000: 7eed 12bd b039 10bd 318f 0dbd 5d7f 2f3d
00000010: d4a1 58bd ebfc 0b3d 7856 0c3d 3d0d 123d
00000020: 1d34 1d3d 99ab 123d 9e2c 14bd 931b 0d3d
00000030: e77a 0b3d af71 1bbd 1778 0abd f57a 6e3d
00000040: fc6e 0bbd b87a 0a3d ae17 23bd 45b1 1c3d
00000050: 3e4d 0d3d 662e 123d 1611 0dbd 5d44 0d3d
00000060: 71a5 143d 78c6 0c3d 6863 17bd 2773 143d
00000070: ddc9 16bd 7d24 1c3d c30a 0fbd 537f 0abd
00000080: 5a78 04bd 1536 ae3b 1c24 0dbd eb44 13bd
00000090: e4a2 0a3d fcd8 0dbd fc77 11bd 80a1 1a3d
000000a0: 5e8b 103d 37bc 0f3d 6f3d 1abd 6971 0bbd
000000b0: bd3e 0c3d 615e 04bd b32e 90bc 1802 06bd
000000c0: 12f1 08bd 987a 16bd 2a0b 0ebd 3898 0a3d
000000d0: fd28 063d 3aa0 0c3d 740d 343d 9454 0fbd
000000e0: b0c8 0c3d 3f96 15bd 114b 0ebd 1992 133d
000000f0: 2470 02bd 50ac 2fbd 4060 0c3d 67f2 0b3d

v_out.weight f4 [1, 64]
-0.115127444 -0.054038487 -0.005982881 0.033009343 0.0027618383 0.032337923 0.050824538 0.038444903
0.02340471 0.026048876 -0.06696952 0.090094455 0.02656671 0.008724554 -0.03482729 0.02440867
-0.015600869 0.059525624 -0.035698872 0.039143912 0.044294972 0.03320964 -0.03241502 0.091705486
0.047554776 0.12477593 0.0010892955 0.04196993 -0.09948519 0.042899452 -0.039258853 -0.0006655838
-0.020103307 0.026983358 -0.07949031 -0.03221173 0.015062167 -0.029871956 -0.058827985 0.031815212
0.057108212 0.042423353 -0.016386893 -0.008510973 0.06065461 -0.016851839 0.0115237925 -0.0057687443
-0.010910299 -0.12453579 -0.021875711 0.03689348 0.026805889 0.037021145 0.023293564 -0.07518246
0.07141692 -0.035019793 -0.093232825 0.023238022 -0.0063520246 -0.01124428 0.021925665 0.05056071
00000000: f0c7 ebbd 7657 5dbd 0b0c c4bb ce34 073d
00000010: f5ff 343b c574 043d 642d 503d 6778 1d3d
00000020: 3cbb bf3c 7464 d53c 5127 89bd 7183 b83d
00000030: 6ea2 d93c 6ff1 0e3c 0fa7 0ebd b1f4 c73c
00000040: ca9a 7fbc 24d1 733d fb38 12bd 5e55 203d
00000050: a56e 353d d506 083d 9dc5 04bd 16d0 bb3d
00000060: ccc8 423d 868a ff3d b1c6 8e3a a9e8 2b3d
00000070: e4be cbbd 56b7 2f3d e4cd 20bd 937a 2eba
00000080: b1af a4bc 340c dd3c d1cb a2bd 72f0 03bd
00000090: 4fc7 763c 08b6 f4bc 9df5 70bd ab50 023d
000000a0: 4dea 693d 1cc4 2d3d ce3d 86bc 9c71 0bbc
000000b0: f870 783d de0c 8abc 4ace 3c3c bc07 bdbb
000000c0: 1cc1 32bc 9f0c ffbd b134 b3bc 9e1d 173d
000000d0: 0698 db3c 7ca3 173d 25d2 be3c 43f9 99bd
000000e0: 0943 923d ea70 0fbd daf0 bebd aa5d be3c
000000f0: a524 d0bb ee39 38bc 749d b33c bf18 4f3d
