light_mappo-main/results/MyEnv/MyEnv/mappo/check/run15/models/actor.pt (torch, 45045 bytes, 16 tensors)

base.feature_norm.weight f4 [14]
0	0x3f656859	0.89612347
1	0x3f63ce4b	0.88986653
2	0x3f68b42c	0.9089992
3	0x3f7ad657	0.97983307
4	0x3f6ba922	0.9205495
5	0x3f90b4e1	1.13052
6	0x3f73c5de	0.95223796
7	0x3f570eec	0.84007144
8	0x3f87df1d	1.0614964
9	0x3f91ef3e	1.1401136
10	0x3f80d460	1.0064812
11	0x3f8542f7	1.0411061
12	0x3f8496f1	1.0358564
13	0x3f7b0beb	0.9806506

base.feature_norm.bias f4 [14]
0	0xbd397504	-0.04527761
1	0x3c945980	0.018109083
2	0xbcd890f1	-0.026436301
3	0x3db63640	0.08897066
4	0x3d111e97	0.035429563
5	0x3d30f5be	0.043203108
6	0x3d6625e7	0.05618849
7	0xbd5f32c7	-0.054491784
8	0xbcb51df9	-0.022109019
9	0xbc4ea05b	-0.012611474
10	0x3dde4d20	0.10854554
11	0x3cfc3716	0.030787986
12	0x3d55915f	0.05214059
13	0xbde9ea63	-0.11421659

base.mlp.fc1.0.weight f4 [64, 14]
0	0x3da9bc75	0.082878985
1	0x3cde50c4	0.027138121
2	0xbd5fddfe	-0.054655068
3	0xbd90f729	-0.07078392
4	0xbe756d59	-0.23967494
5	0xbe08d3a9	-0.13361992
6	0xbe8efebe	-0.27928728
7	0x3e1728c0	0.14761639
8	0xbd6b3caf	-0.05743092
9	0xbe33d13e	-0.17560288
10	0x3e390495	0.18068154
11	0x3e238124	0.15967232
12	0x3ecd7055	0.40124765
13	0x3f06dac9	0.5267759
14	0x3e29dde5	0.16588552
15	0xbe56df26	-0.20983562
16	0x3c46789d	0.012113717
17	0xbd3ea93e	-0.04654812
18	0x3dab0ae0	0.083516836
19	0x3ecbc6fa	0.39800245
20	0x3e6fde91	0.23424746
21	0x3d9daa9f	0.07698559
22	0xbd2f8f2f	-0.04286116
23	0x3e0af0e3	0.13568453
24	0xbe17dd70	-0.14830565
25	0xbd8cec61	-0.06881023
26	0x3ef92352	0.4865976
27	0xbde600de	-0.11230634
28	0x3dcffee1	0.10156036
29	0x3ea7fb0a	0.32808715
30	0xbe20722b	-0.15668552
31	0xbe01eb35	-0.1268738
32	0xbe57e6c0	-0.21084118
33	0x3e010f84	0.12603575
34	0xbdff1cd1	-0.12456668
35	0xbd68171b	-0.05666266
36	0xbe8c7c74	-0.274387
37	0xbd5a23e2	-0.053256877
38	0x3cca1b85	0.024671325
39	0x3d69f1ee	0.057115488
40	0x3e3464f9	0.17616643
41	0x3d276b20	0.040873647
42	0x3d0a2991	0.033731047
43	0x3e8e2004	0.277588
44	0x3d8e8c29	0.06960327
45	0xbcb662f8	-0.022263989
46	0xbe77b078	-0.24188411
47	0x3ec938c9	0.39301136
48	0xbd8e1b75	-0.06938831
49	0x3e00e5e0	0.1258769
50	0xbeb2e5ae	-0.34940857
51	0x3ed9a1ed	0.42506352
52	0x3eccdd1a	0.40012437
53	0xbeadf7fa	-0.33978254
54	0xbe10c8f4	-0.14139158
55	0x3de92e1c	0.11385748
56	0xbde21689	-0.110394545
57	0x3db4c4b6	0.08826582
58	0x3d0ef147	0.03489807
59	0x3ef6df6b	0.4821733
60	0xbe4a2287	-0.19739734
61	0x3b3a7ca1	0.0028455632
62	0x3e2ecd09	0.17070402
63	0x3da98ca1	0.08278776
64	0x3df7acc6	0.12093501
65	0x3c90b118	0.01766257
66	0x3e18304f	0.14862178
67	0xbc82a78d	-0.015949035
68	0xbe72e014	-0.23718292
69	0xbe1e77b6	-0.15475354
70	0x3dba7c25	0.0910571
71	0xbe71c0ee	-0.23608753
72	0xbdb91bb2	-0.090384856
73	0xbdf1e496	-0.118111774
74	0xbe6acc1e	-0.22929427
75	0x3e7e4ffb	0.24835198
76	0x3d0d9c64	0.034572974
77	0xbe13b944	-0.14426142
78	0x3e6ae816	0.22940096
79	0xbd31f1b7	-0.043443408
80	0x3a92ee5d	0.0011209954
81	0xbec38356	-0.3818614
82	0xbdad21f0	-0.08453739
83	0x3df13fa0	0.11779714
84	0x3dd9cb82	0.10634519
85	0xbeab7469	-0.3348725
86	0x3d48977d	0.048972595
87	0xbea491f5	-0.32142606
88	0xbd46ffab	-0.048583668
89	0x3e534e8f	0.20635436
90	0xbdaf511a	-0.08560391
91	0x3e874f10	0.26427507
92	0xbdce58d0	-0.100755334
93	0xbcc32f8b	-0.023826381
94	0xbeaafc5b	-0.33395657
95	0x3e021b6f	0.12705778
96	0x3ec06bbd	0.37582198
97	0xbe9031c2	-0.28162962
98	0x3ca282c4	0.019837745
99	0x3e5ff609	0.21871199
100	0x3dedc1dd	0.11609242
101	0xbe51cd15	-0.20488389
102	0x3e9c83a8	0.30569196
103	0x3e2bc28d	0.16773434
104	0xbde77071	-0.11300743
105	0x3e03e1c2	0.12879089
106	0xbcca9e1d	-0.024733597
107	0x3df2b2ba	0.11850496
108	0xbe36e1d9	-0.17859592
109	0xbc0cac74	-0.008586038
110	0x3dd767ab	0.1051782
111	0x3dc3a72b	0.09553369
112	0x3e4ac137	0.19800268
113	0xbd995403	-0.07486727
114	0x3c980e83	0.018561607
115	0xbdf6ce5a	-0.12051077
116	0x3e70a71c	0.23501247
117	0xbeb75df4	-0.35813868
118	0xbdb547d2	-0.08851589
119	0x3e1f8d67	0.15581284
120	0xbeab95f2	-0.33512837
121	0xbd96894b	-0.07350405
122	0x3ee06eb4	0.4383446
123	0xbcf821e5	-0.0302896
124	0xbe4f6f80	-0.20257378
125	0xbd646385	-0.05575897
126	0x3e9ef90a	0.31049377
127	0x3ea5c9ea	0.3238061
128	0x3cbccc6a	0.023046691
129	0xbe18c61a	-0.1491932
130	0x3c822c9a	0.015890408
131	0xbe7d9c30	-0.24766612
132	0xbdb03066	-0.08602981
133	0x3d15c590	0.036565363
134	0x3d3c221f	0.045930978
135	0xbe96eb16	-0.2947623
136	0xbd8c5c19	-0.06853504
137	0xbe339edf	-0.17541073
138	0x3db8f7b2	0.09031619
139	0x3e158e63	0.14605097
140	0xbe07db75	-0.1326731
141	0xbe4f89de	-0.20267436
142	0x3e61cd22	0.22050908
143	0x3da30163	0.07959249
144	0x3dd58def	0.10427462
145	0xbe65684f	-0.22403072
146	0xbec6ff4b	-0.38866648
147	0x3e613d0f	0.21995948
148	0x3e4a446e	0.19752666
149	0x3e9e762e	0.3094954
150	0xbd8e7567	-0.069559865
151	0xbe00be2a	-0.12572542
152	0xbe03d8cd	-0.12875672
153	0x3e4ad615	0.19808228
154	0x3d58eba8	0.052959114
155	0xbe4d9062	-0.20074609
156	0x3f026624	0.50937104
157	0x3d4ca459	0.04996142
158	0xbda85f28	-0.082212746
159	0xbe295ff6	-0.16540512
160	0x3cc5f66d	0.024165357
161	0xbca888b1	-0.020572992
162	0x3d860de0	0.06545615
163	0x3dc0f2f9	0.09421343
164	0x3e60837e	0.2192516
165	0x3dc0c943	0.094133876
166	0x3e3c7719	0.18404807
167	0x3c1561be	0.009117542
168	0x3e44e312	0.19227245
169	0xbe76654c	-0.24062079
170	0xbeb13774	-0.3461262
171	0xbe84b33f	-0.25918004
172	0x3e7732a4	0.24140412
173	0x3cba4fb9	0.022743093
174	0x3daa9830	0.08329809
175	0xbe47a172	-0.1949518
176	0xbecba52a	-0.39774448
177	0x3d96e24b	0.07367381
178	0x3c4ab616	0.012372514
179	0xbd2491a2	-0.04017795
180	0xbdd7365f	-0.10508417
181	0x3edef3b5	0.4354531
182	0x3eb198c9	0.34686878
183	0xbd682e2c	-0.056684658
184	0xbe008b56	-0.12553152
185	0x3ddc5765	0.10758857
186	0x3dddc132	0.10827865
187	0x3eb91be5	0.36154094
188	0xbe310dd9	-0.17290439
189	0x3e79b0dd	0.24383874
190	0x3eb813b3	0.3595253
191	0x3d9810b7	0.07425063
192	0x3e7a45b7	0.24440657
193	0x3c979ea8	0.01850827
194	0x3cec1c85	0.028822193
195	0xbd820b47	-0.06349807
196	0xbe878ad5	-0.26473108
197	0x3e8f8909	0.28034237
198	0x3da1371e	0.07871841
199	0xbd7a52f7	-0.061114278
200	0xbdbd0a57	-0.09230488
201	0xbe456358	-0.19276178
202	0xbdb17018	-0.08663958
203	0x3e00fb3e	0.12595841
204	0x3efe2f97	0.49645683
205	0xbd9ffe78	-0.07812208
206	0x3e7925f4	0.24330884
207	0xbe11387d	-0.14181705
208	0x3c880e8c	0.016608499
209	0x3d4cf845	0.050041456
210	0xbd4ffa23	-0.05077566
211	0xbcc4a616	-0.024004977
212	0x3e6131b1	0.21991612
213	0x3e89e27b	0.26930603
214	0xbd18029c	-0.037111863
215	0x3cef0126	0.029175352
216	0xbde02323	-0.10944202
217	0xbd77ec7e	-0.06052827
218	0x3c8222cd	0.015885735
219	0xbe44eda3	-0.19231276
220	0x3e14a546	0.14516172
221	0x3d7a0f3e	0.061049692
222	0xbe4962a1	-0.1966653
223	0xbe766b36	-0.24064335
224	0xbdf490f8	-0.11941713
225	0x3d56773f	0.052359816
226	0xbe8bf075	-0.27331892
227	0x3ea1a846	0.31573695
228	0xbddb71cb	-0.10715064
229	0xbd968686	-0.07349877
230	0xbe7f597c	-0.2493648
231	0xbe6b9e4a	-0.23009601
232	0xbd47a7cf	-0.04874402
233	0x3ebac8ea	0.3648141
234	0xbe180456	-0.14845404
235	0xbde371da	-0.111057
236	0xbe4aecac	-0.19816846
237	0x3d62a6ac	0.055334732
238	0x3e5b7aae	0.21433517
239	0xbeab5cd1	-0.3346925
240	0x3dcb64ac	0.09931311
241	0x3f00354c	0.50081325
242	0x3dd60abc	0.10451266
243	0x3d3e68ca	0.046486653
244	0xbbb89bb6	-0.0056337966
245	0x3e8a12d9	0.26967505
246	0xbe0aa700	-0.13540268
247	0xbe23d7c8	-0.16000283
248	0x3ee14096	0.43994588
249	0x3cd8c05b	0.02645891
250	0xbe7d95be	-0.24764153
251	0xbcf9b148	-0.030480042
252	0x3da2e117	0.07953089
253	0xbc91873e	-0.017764684
254	0xbddb3096	-0.107026264
255	0xbe46b8cb	-0.1940643

base.mlp.fc1.0.bias f4 [64]
0	0x3d354591	0.044255797
1	0x3e079b96	0.13242945
2	0x3de418be	0.11137532
3	0x3db3efd6	0.087859794
4	0x3d9ddead	0.07708488
5	0xbdb25ccc	-0.08709106
6	0xba0a9722	-0.0005286803
7	0x3d60d253	0.05488808
8	0x3bfe4e9f	0.007760837
9	0x3da777fb	0.08177181
10	0x3cdbeb17	0.026845498
11	0x384ea072	4.9263654e-05
12	0xbc924fb1	-0.017860265
13	0xbe25f3ae	-0.16206238
14	0xbdf10e63	-0.11770322
15	0xbd185194	-0.037187174
16	0xbda6d1ba	-0.08145471
17	0x3d8261df	0.06366324
18	0xbe41edd6	-0.18938383
19	0xbd457208	-0.04820445
20	0x3db425b4	0.08796254
21	0xbdd1a659	-0.102368064
22	0xbe84244a	-0.25808936
23	0xbcdb6f02	-0.026786331
24	0xbd2c8eda	-0.04212842
25	0xbd6587ae	-0.056037597
26	0x3d8a9848	0.067673266
27	0xbb6873ac	-0.0035469336
28	0x3d9b736d	0.07590375
29	0xbc5588cb	-0.013033102
30	0xbce48575	-0.027895669
31	0xbd21b3bc	-0.03947805
32	0x3c610ee5	0.013736461
33	0xbe5f0bc0	-0.21781826
34	0xbbef7b8a	-0.007308428
35	0x3d773ea9	0.06036249
36	0x3d932404	0.07184604
37	0xbd0b3914	-0.03398998
38	0x3dccf14f	0.100069635
39	0xbe05c285	-0.13062485
40	0xbdb239f0	-0.08702457
41	0xbce4a02f	-0.027908413
42	0xbc4195ad	-0.011815471
43	0xbd2ba97d	-0.041909683
44	0xbe2992d8	-0.16559923
45	0xbe2bf889	-0.16794027
46	0xbd09e3bc	-0.03366445
47	0xbda995e3	-0.08280542
48	0xbddd1c86	-0.10796456
49	0xbc95fef3	-0.018310046
50	0x3dd545e5	0.10413722
51	0x3e3b5ba4	0.18296677
52	0x3d1243cd	0.03570919
53	0xbdf6ae2b	-0.12044939
54	0x3dc8688c	0.09785566
55	0xbd1f0c1e	-0.038829915
56	0xbdf16863	-0.11787488
57	0x3be7ade8	0.007070292
58	0xbd5cb343	-0.053881895
59	0xbdfb74d9	-0.12278146
60	0x3dea5e59	0.11443777
61	0x3c8fe59b	0.01756554
62	0xbe1c79c1	-0.1528082
63	0xbd0db053	-0.034591984

base.mlp.fc1.2.weight f4 [64]
0	0x3f99d178	1.201705
1	0x3f67ddc7	0.9057278
2	0x3f7ca30e	0.986863
3	0x3f926591	1.1437246
4	0x3f8473f1	1.0347883
5	0x3f6d60d3	0.9272587
6	0x3f894ed9	1.0727187
7	0x3f770a72	0.96500313
8	0x3f82576f	1.0182933
9	0x3f87975b	1.0593065
10	0x3f6c2906	0.92250097
11	0x3f75c0d4	0.9599736
12	0x3f863b47	1.048684
13	0x3f5ab3d3	0.8543064
14	0x3f89b7b9	1.0759193
15	0x3f7a0f17	0.97679275
16	0x3f7f1be5	0.9965194
17	0x3f85ab7e	1.044296
18	0x3f8a83b1	1.0821439
19	0x3f7c84a2	0.9863988
20	0x3f910062	1.1328242
21	0x3f807a97	1.0037411
22	0x3f7355b4	0.9505265
23	0x3f84aab4	1.0364594
24	0x3f6dd2b5	0.9289964
25	0x3f831402	1.0240481
26	0x3f920bc9	1.1409847
27	0x3f6c291a	0.92250216
28	0x3f7fe1d0	0.9995394
29	0x3f859e42	1.0438921
30	0x3f72003d	0.94531614
31	0x3f80f68f	1.0075244
32	0x3f869129	1.0513049
33	0x3f77a651	0.96738154
34	0x3f47caa1	0.7804356
35	0x3f85e749	1.0461208
36	0x3f8a9457	1.082652
37	0x3f797bda	0.9745461
38	0x3f780580	0.9688339
39	0x3f83801b	1.027347
40	0x3f89a778	1.0754232
41	0x3f7adb80	0.9799118
42	0x3f61f842	0.88269436
43	0x3f5d4b49	0.86443
44	0x3f82739d	1.0191532
45	0x3f7ba599	0.98299557
46	0x3f54daba	0.8314625
47	0x3f8c3210	1.0952778
48	0x3f602901	0.87562567
49	0x3f975684	1.1823277
50	0x3f950477	1.1641988
51	0x3f8381ad	1.0273949
52	0x3f825563	1.0182308
53	0x3f789131	0.97096545
54	0x3f8c7b14	1.097506
55	0x3f6cbd97	0.9247679
56	0x3f775a54	0.96622205
57	0x3f84f2f5	1.0386645
58	0x3f6cb7fa	0.92468226
59	0x3fa20b37	1.2659672
60	0x3f8687f3	1.0510238
61	0x3f7ee043	0.99560946
62	0x3f77c05b	0.96777886
63	0x3f49a63f	0.78769296

base.mlp.fc1.2.bias f4 [64]
0	0x3c98a835	0.018634895
1	0x3e89e885	0.2693521
2	0x3cd51e60	0.02601546
3	0x3de7ddfd	0.11321638
4	0x3dbe9424	0.09305599
5	0xbe1cde0d	-0.1531908
6	0xbc2d194d	-0.010565114
7	0xbd5583fb	-0.05212782
8	0x3df749be	0.12074612
9	0xbd4ed113	-0.050492357
10	0x3e115e8c	0.14196223
11	0x3dc31b6b	0.09526714
12	0xbcefb5fb	-0.02926158
13	0x3cc47ca9	0.023985224
14	0x3ded9f47	0.11602645
15	0x3c828950	0.015934616
16	0xbc32b1c0	-0.010906637
17	0x3e2aa491	0.1666434
18	0xbe86db6b	-0.26339278
19	0x3d716c32	0.058941074
20	0xbd85aa24	-0.065265924
21	0xbd67a6db	-0.05655561
22	0xbccee186	-0.025254022
23	0xbb991a51	-0.0046723266
24	0xbdb333d7	-0.08750122
25	0xbcb74069	-0.02236958
26	0x3d42dc70	0.047573507
27	0x3c97cc57	0.018530054
28	0x3dd9f4d8	0.10642403
29	0x3d18ee8d	0.037336875
30	0x3d05a935	0.03263207
31	0x3d1768ae	0.036965065
32	0xbd09a269	-0.033602152
33	0xbe15320e	-0.14569876
34	0x3e044f2f	0.12920831
35	0xbdbb4370	-0.09143722
36	0xbc3fb9e2	-0.011702033
37	0x3e07176f	0.13192533
38	0x3e823ed8	0.2543857
39	0xbe4ca798	-0.19985807
40	0xbc2bdb88	-0.010489352
41	0xbd626025	-0.05526747
42	0x3dcb6796	0.09931867
43	0x3e3906c7	0.18068992
44	0xbe4ed799	-0.20199431
45	0xbe2bffcf	-0.16796802
46	0xbd9ae3e4	-0.07562998
47	0xbdf445b5	-0.11927358
48	0x3d95c129	0.07312233
49	0xbce58e3b	-0.028021922
50	0xbcad94a7	-0.021189047
51	0x3d24c647	0.040228155
52	0x3d884f12	0.066557065
53	0xbe761423	-0.24031119
54	0x3dddc4c7	0.10828548
55	0x3c16a575	0.0091947215
56	0x3db1480d	0.08656321
57	0x3d2215ed	0.03957169
58	0x3cc2e7a3	0.023792094
59	0xbe4c50ab	-0.19952647
60	0x3ab38fef	0.0013699512
61	0x3e13f1f1	0.14447762
62	0xbd342774	-0.043982938
63	0x3d3f3746	0.046683572

base.mlp.fc_h.0.weight f4 [64, 64]
0	0xbe39e02d	-0.18151923
1	0xbe204259	-0.1565031
2	0x3be67fb5	0.007034267
3	0x3e2d3eda	0.16918507
4	0xbe007aa2	-0.1254678
5	0xbe27dd7c	-0.16393083
6	0xbe806bd9	-0.2508228
7	0x3db68f1f	0.08914017
8	0x3e9dcc97	0.30820152
9	0xbdefd289	-0.11710078
10	0x3e89798b	0.26850542
11	0xbe24f7e0	-0.16110182
12	0x3e26d126	0.16290721
13	0xbe3ced01	-0.18449785
14	0xbe6d11eb	-0.23151366
15	0x3e03dfff	0.12878416
16	0xbcd39ef7	-0.025832636
17	0xbe2ecc79	-0.17070188
18	0x3d7dfc91	0.062008444
19	0x3dea1a4a	0.114307955
20	0x3e4ad505	0.19807823
21	0x3db70a24	0.08937481
22	0xbe3af8cf	-0.18258975
23	0xbd63bea9	-0.05560175
24	0x3d0e098c	0.034677073
25	0x3eb95dd7	0.36204407
26	0x3d87e686	0.06635766
27	0x3ab5ca5d	0.0013869513
28	0xbe5f6b37	-0.21818243
29	0x3de24663	0.110485815
30	0x3ed8ed4c	0.42368543
31	0xbde483df	-0.11157965
32	0xbe1c8868	-0.1528641
33	0x3d80d5e4	0.062907964
34	0xbe810d19	-0.25205305
35	0x3dd79e64	0.105282575
36	0x3e73370d	0.23751469
37	0xbe1c27ed	-0.15249605
38	0xbc8e9660	-0.017405689
39	0x3d0bae79	0.034101937
40	0x3d1ca9e0	0.038247943
41	0x3da88089	0.08227641
42	0xbe01b652	-0.12667206
43	0xbdd457c6	-0.10368304
44	0xbe02e8d3	-0.12784128
45	0x3c9eb839	0.019374954
46	0x3ed91335	0.42397466
47	0xbe1b271c	-0.15151638
48	0xbd108ff5	-0.035293538
49	0xbdfb0ba0	-0.12258077
50	0xbe60cc89	-0.21953024
51	0xbe512d99	-0.2042755
52	0xbe13f479	-0.14448728
53	0xbe1cb929	-0.15305008
54	0x3d3af6d8	0.045645565
55	0xbea7f5c7	-0.328047
56	0xbd0a10f3	-0.03370757
57	0xbca416b7	-0.020030363
58	0x3e2c5559	0.16829433
59	0xbe71faa1	-0.23630764
60	0xbdeb1e94	-0.11480442
61	0xbe0a4915	-0.13504441
62	0x3e834677	0.25639698
63	0xbe810298	-0.2519729
64	0xbe2e0c4a	-0.16996875
65	0xbdb9fec5	-0.090817966
66	0x3e60e6a9	0.2196299
67	0xbe152bc4	-0.14567477
68	0x3d48cc27	0.04902282
69	0xbe80be30	-0.25145102
70	0x3c3e5a84	0.01161826
71	0x3c370bdb	0.01117226
72	0x3e073555	0.13203938
73	0xbe17a6d9	-0.14809741
74	0xbdc20562	-0.09473683
75	0x3ce551ac	0.027993046
76	0x3ebf293c	0.37336147
77	0x3e3a9124	0.18219429
78	0xbdc79e1c	-0.09746954
79	0xbda4c73a	-0.08045812
80	0xbecba21c	-0.39772117
81	0x3aaf0e21	0.0013355651
82	0xbc76b3c8	-0.015057512
83	0xbe71256a	-0.23549429
84	0xbe2b83b0	-0.16749454
85	0x3d709e12	0.058744498
86	0xbe8e1fdb	-0.2775868
87	0xbd0d3542	-0.03447462
88	0x3caf76b4	0.021418907
89	0xbe37e1a1	-0.17957164
90	0xbe82347f	-0.25430676
91	0x3e4247ef	0.18972753
92	0xbe34499d	-0.17606206
93	0x3d06f86b	0.032951754
94	0x3d478803	0.048713695
95	0x3d8e2316	0.06940286
96	0xbdecc7b3	-0.11561527
97	0xbdb6b35d	-0.089209296
98	0x3e124951	0.1428578
99	0xbe47213a	-0.19446269
100	0x3d083f24	0.03326334
101	0x3ea1cc12	0.31601006
102	0x3e80827b	0.2509955
103	0xbe54d439	-0.20784082
104	0x3e4ab554	0.19795734
105	0x3e94b337	0.2904298
106	0xbe33ec76	-0.17570671
107	0xbe92c1f2	-0.28663594
108	0x3d507b2c	0.050898716
109	0xbdee1b2b	-0.11626276
110	0xbceda419	-0.029008912
111	0xbe329745	-0.17440517
112	0x3e2a1719	0.16610374
113	0x3e48a007	0.19592296
114	0x3e2fc496	0.17164835
115	0xbe345877	-0.17611872
116	0x3e87abf8	0.2649839
117	0xbde2c996	-0.11073606
118	0x3cef98f9	0.029247748
119	0x3ea99c2a	0.33126956
120	0xbe42e3b7	-0.19032179
121	0x3d08cfcb	0.03340129
122	0x3e399d22	0.18126348
123	0x3e399170	0.18121886
124	0xbe6b60b5	-0.2298611
125	0x3e045cb7	0.12925993
126	0x3e179d9d	0.14806218
127	0xbdc0ed38	-0.09420246
128	0x3e0e29be	0.13883111
129	0x3e859395	0.2608916
130	0x3da5f265	0.08102874
131	0x3e9fbf08	0.31200433
132	0xbe29b989	-0.16574682
133	0x3e6aa365	0.22913893
134	0xbe2c100d	-0.16802998
135	0xbd94d053	-0.07266297
136	0xbe91dcb4	-0.28488696
137	0xbea01274	-0.3126408
138	0xbe8dda04	-0.27705395
139	0x3d5df4ae	0.054188423
140	0xbda7d0c7	-0.08194118
141	0x3d8af44a	0.06784876
142	0xbe398ca6	-0.1812006
143	0x3e9ee110	0.31031084
144	0xbd1a839e	-0.037723176
145	0x3dfc3ebf	0.12316655
146	0x3e287970	0.16452575
147	0xbe2ab0e3	-0.1666904
148	0x3dd5d236	0.10440485
149	0xbecc70a8	-0.399297
150	0xbcb53efb	-0.022124758
151	0xbe8e35a7	-0.27775308
152	0xbe1a4381	-0.15064813
153	0xbd5ea164	-0.054353133
154	0xbc0cac16	-0.00858595
155	0xbe8813b5	-0.26577535
156	0x3bea151c	0.0071436297
157	0x3d32040d	0.043460894
158	0x3e2fd5cd	0.17171402
159	0xbe8c5915	-0.27411714
160	0xbd1ca153	-0.03823979
161	0xbd9e7334	-0.07736817
162	0x3e1541b0	0.14575839
163	0xbec76eb2	-0.3895164
164	0x3e683faa	0.22680536
165	0xbd80db2b	-0.06291803
166	0x3e9f32eb	0.31093535
167	0xbe93d2fb	-0.28871903
168	0xbdca78dd	-0.09886334
169	0x3d95c563	0.07313039
170	0x3d1b5b88	0.037929088
171	0xbcff216e	-0.03114387
172	0x3d8343c2	0.06409408
173	0xbdc9ebef	-0.09859454
174	0xbcf2524d	-0.02958026
175	0xbe18706e	-0.14886639
176	0x3e313f74	0.17309362
177	0xbe5b3e02	-0.21410373
178	0x3e331a5b	0.17490523
179	0x3e604e5b	0.2190489
180	0xbe55b2d3	-0.20868997
181	0x3d1ba93d	0.038003195
182	0xbc2750f6	-0.010212174
183	0xbdcf87db	-0.10133334
184	0xbb38bd92	-0.0028189165
185	0x3c3cc72a	0.011522094
186	0xbe3ae48d	-0.18251248
187	0xbd572dd1	-0.05253393
188	0x3d118e37	0.035536017
189	0x3cf04c31	0.029333206
190	0x3e64f525	0.2235914
191	0xbd987c8f	-0.07445633
192	0x3ded0421	0.11573053
193	0xbc7eb517	-0.015546105
194	0x3c896d80	0.016775846
195	0x3e29d01b	0.16583292
196	0xbe1da7e4	-0.15396076
197	0x3e210440	0.15724277
198	0x3e0d3bed	0.13792391
199	0x3e11243a	0.14173976
200	0x3d7cfb7d	0.061763275
201	0xbe1be935	-0.1522568
202	0x3d6218d8	0.055199474
203	0xbe1f0734	-0.15530092
204	0x3c4e4391	0.012589351
205	0x3e92c725	0.2866756
206	0xbdf1f43a	-0.11814161
207	0xbe42cbc7	-0.19023047
208	0x3e2a319e	0.1662049
209	0xbe31e244	-0.1737147
210	0xbe637207	-0.22211467
211	0xbdf617b6	-0.12016241
212	0x3e2d9ccb	0.16954343
213	0x3e038096	0.1284202
214	0x3e1a898f	0.15091537
215	0x3e476567	0.19472276
216	0xbe001998	-0.12509763
217	0xbd35efc1	-0.0444181
218	0xbd29dc1f	-0.04146969
219	0xbdc9e065	-0.09857253
220	0x3ea12cb4	0.31479418
221	0xbd9a88e4	-0.07545641
222	0x3ee8987a	0.4542883
223	0xbe14a21b	-0.14514963
224	0xbd620390	-0.05517918
225	0x3d8469d3	0.06465497
226	0x3e0a44e5	0.13502844
227	0xbd3f5fba	-0.04672215
228	0x3db4993e	0.08818291
229	0x3e29991d	0.16562314
230	0xbc4f06b1	-0.012635873
231	0x3c35a04e	0.011085583
232	0x3e820778	0.25396323
233	0x3e388d1e	0.18022582
234	0xbe3d5dbb	-0.18492787
235	0xbd2f52c5	-0.042803545
236	0x3ee21512	0.441567
237	0x3682fb01	3.9035226e-06
238	0xbe5f6b93	-0.2181838
239	0x3e8414f6	0.25797242
240	0xbea99aae	-0.33125824
241	0x3e91221e	0.28346342
242	0x3e250824	0.16116387
243	0xbbf97e15	-0.007613907
244	0xbcf4075a	-0.029788662
245	0x3e7a6a91	0.24454714
246	0xbdd79890	-0.10527146
247	0xbe2a4165	-0.16626509
248	0xbd2bc126	-0.041932248
249	0xbe9a2277	-0.3010442
250	0x3e9e253e	0.3088779
251	0xbde3e48a	-0.11127575
252	0x3e23948c	0.15974635
253	0xbd85cf8d	-0.06533728
254	0xbe08e3d0	-0.13368154
255	0xbe281dc9	-0.16417612

base.mlp.fc_h.0.bias f4 [64]
0	0x00000000	0.0
1	0x00000000	0.0
2	0x00000000	0.0
3	0x00000000	0.0
4	0x00000000	0.0
5	0x00000000	0.0
6	0x00000000	0.0
7	0x00000000	0.0
8	0x00000000	0.0
9	0x00000000	0.0
10	0x00000000	0.0
11	0x00000000	0.0
12	0x00000000	0.0
13	0x00000000	0.0
14	0x00000000	0.0
15	0x00000000	0.0
16	0x00000000	0.0
17	0x00000000	0.0
18	0x00000000	0.0
19	0x00000000	0.0
20	0x00000000	0.0
21	0x00000000	0.0
22	0x00000000	0.0
23	0x00000000	0.0
24	0x00000000	0.0
25	0x00000000	0.0
26	0x00000000	0.0
27	0x00000000	0.0
28	0x00000000	0.0
29	0x00000000	0.0
30	0x00000000	0.0
31	0x00000000	0.0
32	0x00000000	0.0
33	0x00000000	0.0
34	0x00000000	0.0
35	0x00000000	0.0
36	0x00000000	0.0
37	0x00000000	0.0
38	0x00000000	0.0
39	0x00000000	0.0
40	0x00000000	0.0
41	0x00000000	0.0
42	0x00000000	0.0
43	0x00000000	0.0
44	0x00000000	0.0
45	0x00000000	0.0
46	0x00000000	0.0
47	0x00000000	0.0
48	0x00000000	0.0
49	0x00000000	0.0
50	0x00000000	0.0
51	0x00000000	0.0
52	0x00000000	0.0
53	0x00000000	0.0
54	0x00000000	0.0
55	0x00000000	0.0
56	0x00000000	0.0
57	0x00000000	0.0
58	0x00000000	0.0
59	0x00000000	0.0
60	0x00000000	0.0
61	0x00000000	0.0
62	0x00000000	0.0
63	0x00000000	0.0

base.mlp.fc_h.2.weight f4 [64]
0	0x3f800000	1.0
1	0x3f800000	1.0
2	0x3f800000	1.0
3	0x3f800000	1.0
4	0x3f800000	1.0
5	0x3f800000	1.0
6	0x3f800000	1.0
7	0x3f800000	1.0
8	0x3f800000	1.0
9	0x3f800000	1.0
10	0x3f800000	1.0
11	0x3f800000	1.0
12	0x3f800000	1.0
13	0x3f800000	1.0
14	0x3f800000	1.0
15	0x3f800000	1.0
16	0x3f800000	1.0
17	0x3f800000	1.0
18	0x3f800000	1.0
19	0x3f800000	1.0
20	0x3f800000	1.0
21	0x3f800000	1.0
22	0x3f800000	1.0
23	0x3f800000	1.0
24	0x3f800000	1.0
25	0x3f800000	1.0
26	0x3f800000	1.0
27	0x3f800000	1.0
28	0x3f800000	1.0
29	0x3f800000	1.0
30	0x3f800000	1.0
31	0x3f800000	1.0
32	0x3f800000	1.0
33	0x3f800000	1.0
34	0x3f800000	1.0
35	0x3f800000	1.0
36	0x3f800000	1.0
37	0x3f800000	1.0
38	0x3f800000	1.0
39	0x3f800000	1.0
40	0x3f800000	1.0
41	0x3f800000	1.0
42	0x3f800000	1.0
43	0x3f800000	1.0
44	0x3f800000	1.0
45	0x3f800000	1.0
46	0x3f800000	1.0
47	0x3f800000	1.0
48	0x3f800000	1.0
49	0x3f800000	1.0
50	0x3f800000	1.0
51	0x3f800000	1.0
52	0x3f800000	1.0
53	0x3f800000	1.0
54	0x3f800000	1.0
55	0x3f800000	1.0
56	0x3f800000	1.0
57	0x3f800000	1.0
58	0x3f800000	1.0
59	0x3f800000	1.0
60	0x3f800000	1.0
61	0x3f800000	1.0
62	0x3f800000	1.0
63	0x3f800000	1.0

base.mlp.fc_h.2.bias f4 [64]
0	0x00000000	0.0
1	0x00000000	0.0
2	0x00000000	0.0
3	0x00000000	0.0
4	0x00000000	0.0
5	0x00000000	0.0
6	0x00000000	0.0
7	0x00000000	0.0
8	0x00000000	0.0
9	0x00000000	0.0
10	0x00000000	0.0
11	0x00000000	0.0
12	0x00000000	0.0
13	0x00000000	0.0
14	0x00000000	0.0
15	0x00000000	0.0
16	0x00000000	0.0
17	0x00000000	0.0
18	0x00000000	0.0
19	0x00000000	0.0
20	0x00000000	0.0
21	0x00000000	0.0
22	0x00000000	0.0
23	0x00000000	0.0
24	0x00000000	0.0
25	0x00000000	0.0
26	0x00000000	0.0
27	0x00000000	0.0
28	0x00000000	0.0
29	0x00000000	0.0
30	0x00000000	0.0
31	0x00000000	0.0
32	0x00000000	0.0
33	0x00000000	0.0
34	0x00000000	0.0
35	0x00000000	0.0
36	0x00000000	0.0
37	0x00000000	0.0
38	0x00000000	0.0
39	0x00000000	0.0
40	0x00000000	0.0
41	0x00000000	0.0
42	0x00000000	0.0
43	0x00000000	0.0
44	0x00000000	0.0
45	0x00000000	0.0
46	0x00000000	0.0
47	0x00000000	0.0
48	0x00000000	0.0
49	0x00000000	0.0
50	0x00000000	0.0
51	0x00000000	0.0
52	0x00000000	0.0
53	0x00000000	0.0
54	0x00000000	0.0
55	0x00000000	0.0
56	0x00000000	0.0
57	0x00000000	0.0
58	0x00000000	0.0
59	0x00000000	0.0
60	0x00000000	0.0
61	0x00000000	0.0
62	0x00000000	0.0
63	0x00000000	0.0

base.mlp.fc2.0.0.weight f4 [64, 64]
0	0xbe2cd2a3	-0.16877227
1	0xbcf64c17	-0.03006558
2	0xbdd46328	-0.10370475
3	0x3bdb6e17	0.0066964733
4	0xbda493d1	-0.08036006
5	0xbc90747e	-0.017633673
6	0xbe61d915	-0.22055466
7	0x3de98dc3	0.11403992
8	0x3e80047a	0.25003415
9	0xbe149ecd	-0.14513703
10	0x3e1c778c	0.15279979
11	0x3d139887	0.036034133
12	0x3e346d9e	0.1761994
13	0xbe3137bf	-0.17306422
14	0xbeaa5190	-0.33265352
15	0x3dd6d6c6	0.104901835
16	0xbd48f4e0	-0.049061656
17	0xbe4393a1	-0.19099285
18	0xbdcadf43	-0.09905865
19	0x3d093d18	0.03350553
20	0x3d906d96	0.07052152
21	0x3e5c8038	0.21533287
22	0xbe40671e	-0.18789336
23	0xbe05a9a9	-0.13053001
24	0x3da53d24	0.08068302
25	0x3e6c657a	0.23085585
26	0x3e70888e	0.23489591
27	0xbd14f591	-0.036367003
28	0xbd35e716	-0.044409834
29	0x3dbd8c2e	0.09255253
30	0x3efd3854	0.49457037
31	0xbe65fe85	-0.22460373
32	0xbd3dfd1e	-0.04638397
33	0xbcb1b1c1	-0.021691205
34	0xbed4cf6f	-0.4156451
35	0x3dd2214b	0.102602564
36	0x3e6c1d06	0.23057947
37	0xbe0114d1	-0.12605597
38	0x3da595a7	0.080851845
39	0x3e8f5447	0.27993986
40	0x3e20478c	0.15652293
41	0x3e02c886	0.12771806
42	0xbd81a5e6	-0.06330471
43	0xbc08ba76	-0.008345237
44	0xbe581d02	-0.21104816
45	0xbd3e9f0e	-0.046538405
46	0x3ece13a1	0.4024935
47	0xbcdd3cce	-0.027006533
48	0x3cb61a4c	0.022229336
49	0x3d908c0e	0.07057963
50	0xbeba8eb3	-0.36436996
51	0xbeb29eee	-0.3488688
52	0xbe54ae7e	-0.20769688
53	0xbdd8039a	-0.10547562
54	0xbc43b684	-0.011945371
55	0xbeff791a	-0.4989708
56	0x3c7c055d	0.015382138
57	0xbe343772	-0.17599276
58	0x3db60895	0.08888356
59	0xbe10baa8	-0.14133704
60	0xbd589148	-0.052872926
61	0x3e38a62c	0.1803214
62	0x3e8dbb2a	0.27681857
63	0xbea24e74	-0.3170048
64	0xbd96aeec	-0.073575824
65	0x3dc14715	0.09437386
66	0x3e8ca9f1	0.27473405
67	0xbde16058	-0.11004704
68	0x3e1c2ecf	0.15252231
69	0xbe6e2433	-0.23255996
70	0x3cb77845	0.022396216
71	0xbe0dcade	-0.13846919
72	0x3e0ddb5f	0.13853215
73	0xbea28873	-0.31744727
74	0x3dce1f11	0.10064519
75	0x3de6fa81	0.112782486
76	0x3ea383fc	0.31936634
77	0x3d99cf13	0.075101994
78	0xbdb361d6	-0.08758895
79	0xbcd75444	-0.026285298
80	0xbe851cc7	-0.25998518
81	0x3cb5f2c0	0.022210479
82	0xbc074849	-0.00825698
83	0xbe721ef6	-0.23644623
84	0xbea8af93	-0.32946452
85	0x3e54a9b1	0.20767857
86	0xbe8f27cc	-0.2796005
87	0xbd9978a9	-0.07493717
88	0xbcc31d9f	-0.023817835
89	0xbe261568	-0.16219103
90	0xbbda9dfc	-0.0066716652
91	0x3e391b5f	0.18076847
92	0xbe6739f3	-0.225807
93	0xbd97f5eb	-0.07419952
94	0xbdea38da	-0.11436625
95	0x3e031587	0.12801181
96	0xbe35ee3a	-0.17766657
97	0xbe2ba886	-0.16763505
98	0x3d3d5ea3	0.04623283
99	0xbe840acc	-0.25789487
100	0x3ccf551c	0.025309138
101	0x3e8b97b5	0.2726418
102	0x3eaec33f	0.34133336
103	0xbd4667de	-0.0484389
104	0x3ea105dc	0.31449783
105	0x3e707efd	0.23485942
106	0xbe6b6c84	-0.22990614
107	0xbe6ef1db	-0.23334448
108	0xbe0d6a78	-0.13810146
109	0xbe434063	-0.1906753
110	0xbdc8b869	-0.098007984
111	0xbe8081d4	-0.2509905
112	0x3ea99bf5	0.33126798
113	0x3e36f433	0.17866592
114	0x3eb1149c	0.34586036
115	0xbe01a865	-0.12661894
116	0x3da9b1ca	0.08285864
117	0xbe454ae8	-0.19266856
118	0x3d80dfd0	0.06292689
119	0x3e9df1ed	0.30848637
120	0xbe194816	-0.14968905
121	0xbd8e2bb7	-0.06941932
122	0x3e347b05	0.17625053
123	0x3e135a74	0.14389974
124	0xbe676ebb	-0.22600834
125	0x3da16837	0.078812055
126	0x3e04259e	0.12904975
127	0xbd0a22c5	-0.033724565
128	0x3dbe6ee2	0.09298493
129	0x3ee7b429	0.4525464
130	0x3db9e518	0.09076899
131	0x3eb469a0	0.35236835
132	0xbe1d300b	-0.15350358
133	0x3dc2ff60	0.09521365
134	0x3dc0d1f8	0.09415048
135	0xbd784062	-0.060608275
136	0xbe876fa7	-0.2645237
137	0xbea8634f	-0.32888266
138	0xbe1c8fa9	-0.15289177
139	0x3dce5ce4	0.10076311
140	0xbd3fbb19	-0.04680929
141	0x3e415523	0.18880133
142	0xbe38785e	-0.18014666
143	0x3ee3bb87	0.4447901
144	0xbe345dbf	-0.17613886
145	0x3e58c500	0.211689
146	0x3d5d3961	0.0540098
147	0xbd4b8770	-0.04968971
148	0x3ddabd51	0.106806405
149	0xbeaa5ea8	-0.33275342
150	0xbdc29853	-0.0950171
151	0xbe4d13ea	-0.20027128
152	0xbe1531d1	-0.14569785
153	0xbd218929	-0.039437447
154	0x3d0e7e52	0.034788437
155	0xbea93b82	-0.33053213
156	0x3d44fc80	0.048092365
157	0xbdcb0cc2	-0.09914543
158	0x3d1cf27f	0.0383172
159	0xbebe03d5	-0.371123
160	0xbb28f0bb	-0.0025778252
161	0xbe040685	-0.12893112
162	0x3d580809	0.052742038
163	0xbed63a15	-0.41841188
164	0x3e329047	0.1743785
165	0x3cec462d	0.028842056
166	0x3e904009	0.28173855
167	0xbe66858a	-0.22511879
168	0xbd7f2137	-0.062287536
169	0x3e69ea51	0.22843291
170	0x3df006c8	0.117200434
171	0xbcf880f3	-0.030334925
172	0x3d4c3664	0.04985656
173	0xbd1bb61d	-0.038015474
174	0x3dc835ec	0.0977591
175	0xbe8bc7a8	-0.27300763
176	0x3c42efb5	0.011897971
177	0xbee2b9dd	-0.44282427
178	0x3e6b781f	0.22995041
179	0xbc1e678f	-0.009668245
180	0xbe030054	-0.12793094
181	0x3d894fa6	0.06704645
182	0xbe448068	-0.19189608
183	0xbde9aa62	-0.11409451
184	0xbd21cde0	-0.03950298
185	0x3df334ea	0.11875327
186	0xbe362371	-0.17786957
187	0xbdc33ecf	-0.09533464
188	0x3df87eb3	0.12133541
189	0xbc93c71a	-0.018039275
190	0x3dd8230b	0.10553559
191	0xbc5cd4a8	-0.013478436
192	0x3e25f401	0.16206361
193	0xbd5a58b3	-0.053307246
194	0xbd2944ea	-0.041325487
195	0x3dd7a5ab	0.105296455
196	0xbe4ca245	-0.19983776
197	0x3e885567	0.26627657
198	0x3e26a834	0.16275102
199	0x3df88ad1	0.12135852
200	0xbd3dd6a0	-0.04634726
201	0xbe0833fe	-0.13301083
202	0x3deab0f7	0.114595346
203	0xbe4ebfcd	-0.20190354
204	0x3da5ad51	0.08089698
205	0x3e7ba912	0.24576214
206	0xbe1e2c46	-0.15446576
207	0xbe7b317a	-0.24530593
208	0x3e689d5c	0.22716278
209	0xbd977c94	-0.07396808
210	0xbe551cdd	-0.20811792
211	0xbe24a886	-0.16079912
212	0x3dbac9ac	0.09120497
213	0x3d25d44d	0.04048567
214	0x3d435199	0.04768524
215	0x3e22b9d0	0.15891194
216	0xbd676509	-0.05649284
217	0xbe0127d7	-0.12612854
218	0xbe0cd324	-0.13752419
219	0xbe3158c1	-0.17319013
220	0x3e4879af	0.19577669
221	0xbdfd4612	-0.123668805
222	0x3ea7a1c4	0.32740605
223	0xbdc67705	-0.0969067
224	0x3d5d7c3c	0.054073557
225	0x3e027ad0	0.12742162
226	0x3e038b48	0.128461
227	0xbdc6d572	-0.0970868
228	0x3e2eb972	0.1706293
229	0x3e0e09cf	0.13870929
230	0xbd88c041	-0.066772945
231	0x3e8c4593	0.2739683
232	0x3e376846	0.17910871
233	0x3e88db33	0.26729736
234	0xbcaf36f2	-0.021388505
235	0xbbbda2fd	-0.005787252
236	0x3ed3c96b	0.41364607
237	0xbe416a0a	-0.18888107
238	0xbe7c5ac5	-0.24644001
239	0x3ed14df6	0.40879792
240	0xbe8d3f96	-0.27587575
241	0x3eda3a41	0.4262257
242	0x3e174df0	0.14775825
243	0x3bac1b72	0.005252295
244	0xbd904bce	-0.070457086
245	0x3e9c4f2e	0.3052916
246	0x3d8dd0dc	0.069246024
247	0xbe88ca1f	-0.26716706
248	0x3d68d0e3	0.056839835
249	0xbe8b19b8	-0.2716806
250	0x3e2cdd0a	0.16881195
251	0xbe434bff	-0.19071959
252	0x3dcc99fd	0.099903084
253	0x3d05fb80	0.032710552
254	0xbcba9efd	-0.02278089
255	0xbd9873c1	-0.07443953

base.mlp.fc2.0.0.bias f4 [64]
0	0xbd7a1af5	-0.061060864
1	0x3d816c7f	0.06319522
2	0x3d8ce0b4	0.06878796
3	0xbe09dc3e	-0.13462922
4	0xbda2b557	-0.07944744
5	0xbdcff7ce	-0.10154687
6	0xbd9b051b	-0.07569333
7	0x3dc9cbb8	0.098533094
8	0xbe46f752	-0.19430283
9	0xbe868d06	-0.26279467
10	0xbdbb254e	-0.09137975
11	0xbcfeb007	-0.031089796
12	0xbe0c4604	-0.13698584
13	0xbd316563	-0.04330958
14	0xbd4403fd	-0.047855366
15	0xbd17747a	-0.036976315
16	0xbe2c2034	-0.1680916
17	0xbd92f46a	-0.071755245
18	0xbe0db763	-0.13839488
19	0x3d477c89	0.04870275
20	0x3dd81825	0.1055148
21	0x3c128990	0.00894393
22	0xbd6daef3	-0.058028173
23	0xbe5d5dfe	-0.21617886
24	0x3d5313fa	0.051532723
25	0xbd36d6ff	-0.04463863
26	0x3d639880	0.055565357
27	0xbd930ffe	-0.07180785
28	0x3dd332e4	0.10312441
29	0xbe18417d	-0.14868732
30	0xbd90d130	-0.07071149
31	0x3d0778d5	0.03307422
32	0xbd86ce32	-0.065822974
33	0xbde1fac6	-0.11034159
34	0xbd93fcc8	-0.072259486
35	0xbd121e54	-0.035673454
36	0x3d795233	0.060869407
37	0x3cb1737e	0.021661516
38	0xbd2d2b83	-0.042277824
39	0xbd28f6f9	-0.041251156
40	0x3d2b3e52	0.04180748
41	0xbe38c394	-0.18043357
42	0xbd6c3c55	-0.057674725
43	0xbcfa53ff	-0.03055763
44	0xbdb45a8a	-0.088063315
45	0xbe0cb1a4	-0.1373964
46	0xbe8bcae1	-0.27303222
47	0xbdf2137e	-0.11820124
48	0x3c39259d	0.011300472
49	0xbe0911f3	-0.13385753
50	0x3c5befd4	0.013423879
51	0x3dba696a	0.091021374
52	0xbe142cbe	-0.14470193
53	0xbe368e36	-0.17827687
54	0xbd171bcb	-0.03689174
55	0xbdb2776f	-0.087141864
56	0xbe17696a	-0.14786306
57	0xbcfde18b	-0.030991336
58	0xbe027877	-0.12741266
59	0x3c00c041	0.007858337
60	0xbd9df5c7	-0.07712894
61	0xbdb8d480	-0.09024906
62	0xbd867384	-0.065650016
63	0xbdbcb283	-0.09213736

base.mlp.fc2.0.2.weight f4 [64]
0	0x3f7b3ec3	0.9814264
1	0x3f7a1089	0.9768148
2	0x3f6b24c8	0.91853
3	0x3f89b22a	1.0757496
4	0x3f84a0f9	1.0361625
5	0x3f88fa21	1.0701333
6	0x3f837702	1.0270693
7	0x3f80ab2f	1.0052241
8	0x3f948fd1	1.1606389
9	0x3f823ee4	1.0175443
10	0x3f874e98	1.057086
11	0x3f8a74e3	1.0816921
12	0x3f8c3721	1.0954324
13	0x3f80797a	1.0037072
14	0x3f88bd62	1.0682795
15	0x3f85743d	1.0426098
16	0x3f834ce3	1.0257839
17	0x3f86aeb3	1.0522064
18	0x3f887650	1.0661106
19	0x3f7a7f6d	0.97850686
20	0x3f8ad75c	1.0846972
21	0x3f671743	0.9026987
22	0x3f860612	1.0470603
23	0x3f7ac767	0.97960514
24	0x3f70bc00	0.94036865
25	0x3f7c1223	0.98465174
26	0x3f80cb6f	1.0062083
27	0x3f81a01e	1.0126989
28	0x3f820e9d	1.016071
29	0x3f80f520	1.0074806
30	0x3f867dcb	1.0507139
31	0x3f885de8	1.0653658
32	0x3f8b9965	1.0906187
33	0x3f858647	1.0431603
34	0x3f7b5bf2	0.9818717
35	0x3f7deb5b	0.9918725
36	0x3f8ab8ad	1.0837609
37	0x3f8aa79c	1.08324
38	0x3f88cc4c	1.0687346
39	0x3f78fc52	0.9726001
40	0x3f7fb5cb	0.9988677
41	0x3f82bad0	1.0213261
42	0x3f8a4c98	1.0804625
43	0x3f8c04c6	1.0938957
44	0x3f86ffa2	1.0546763
45	0x3f79d106	0.9758457
46	0x3f8b788e	1.0896165
47	0x3f8c080e	1.0939958
48	0x3f84c4cb	1.0372556
49	0x3f81462a	1.0099537
50	0x3f7a2751	0.9771624
51	0x3f715e7b	0.9428479
52	0x3f82b6af	1.0212001
53	0x3f8ac1ef	1.0840434
54	0x3f81ca15	1.0139796
55	0x3f7f66ae	0.9976605
56	0x3f827dc1	1.0194627
57	0x3f8523b7	1.0401524
58	0x3f8b604c	1.0888762
59	0x3f7f1a0b	0.99649113
60	0x3f7f5ddb	0.9975259
61	0x3f822256	1.0166728
62	0x3f7dc6f8	0.9913173
63	0x3f8d71a7	1.1050309

base.mlp.fc2.0.2.bias f4 [64]
0	0xbc95fa7b	-0.018307915
1	0x3d60dba3	0.054896962
2	0x3c22c126	0.0099337455
3	0xbdfad619	-0.12247867
4	0xbcd80b26	-0.026372503
5	0xbcfd9959	-0.03095691
6	0x3cc13216	0.023583453
7	0xbce5a1da	-0.028031278
8	0x3c1a320d	0.009411347
9	0xbdfebb31	-0.12438048
10	0xbc856589	-0.016283767
11	0x3da6ff67	0.08154183
12	0x3ce28ab4	0.02765403
13	0xbd9e66a3	-0.0773442
14	0xbc7358c3	-0.014852705
15	0xbdb9cec2	-0.09072639
16	0xbcc0892e	-0.023502912
17	0x3cd3a108	0.025833622
18	0xbe1e8751	-0.15481307
19	0x3a5e2e81	0.00084755576
20	0xbda0a642	-0.07844211
21	0x3deae1e2	0.11468865
22	0x3d433264	0.047655478
23	0x3d081f4f	0.033232983
24	0xbda70e0a	-0.081569746
25	0xbd2783be	-0.040897124
26	0x3e0dfb18	0.13865316
27	0x3d2a4afc	0.041575417
28	0xbb99d866	-0.004694986
29	0xbd7d7452	-0.06187851
30	0xbc8141b1	-0.015778394
31	0x3c19f5c1	0.009396971
32	0x3d049e43	0.032377493
33	0x3d74fbf9	0.059810612
34	0x3d899258	0.06717366
35	0xbd3ad980	-0.04561758
36	0x3d8afbf4	0.067863375
37	0x3d9f1851	0.0776831
38	0x3dace07c	0.084412545
39	0x3da46368	0.08026773
40	0x3d92a251	0.07159866
41	0xbcd509da	-0.026005674
42	0x3cc1036f	0.023561208
43	0x3d9372ff	0.07199668
44	0x3dc6591b	0.09684964
45	0xbd5a54cf	-0.053303536
46	0xbdc6428d	-0.09680662
47	0x3d7c6295	0.061617453
48	0xbd965e9d	-0.07342265
49	0x3d9dc3ff	0.07703399
50	0x3d131bc6	0.03591516
51	0xbc463b1b	-0.012099053
52	0x3b79082c	0.0037999256
53	0xbd06bbde	-0.032894008
54	0x3ca72a4d	0.020405913
55	0xbdc31638	-0.09525722
56	0xbe078caa	-0.13237253
57	0xbdd7312d	-0.105074264
58	0x3d6dff31	0.058104698
59	0x3e20bcac	0.15696973
60	0xbcfe47e8	-0.031040147
61	0x3d9e5c1a	0.07732411
62	0x3d29e437	0.04147741
63	0xbd5554bf	-0.052082773

act.action_out.linear.weight f4 [5, 64]
0	0x3b844190	0.004036136
1	0x3b743f27	0.0037269087
2	0x3cca6ff1	0.024711581
3	0xbd5c4624	-0.05377783
4	0x3d380d51	0.044934575
5	0x3dad4d3c	0.08461997
6	0x3d0530da	0.03251729
7	0xbcaf77f5	-0.021419505
8	0xbd370683	-0.044683944
9	0x3cc0ae24	0.023520537
10	0xbd133b2c	-0.035945103
11	0xbd366a5e	-0.044535033
12	0xbd05f0c6	-0.032700323
13	0xbd2be886	-0.0419698
14	0xbbddae76	-0.006765182
15	0xbd96e5a6	-0.07368021
16	0xbd6cc01c	-0.057800397
17	0x3d72f6ae	0.059317283
18	0x3dc0fd6b	0.09423336
19	0xbcddaf31	-0.027061077
20	0xbdbd21cd	-0.092349626
21	0xbc6251d4	-0.013813455
22	0xbcb11cc0	-0.021620154
23	0x3d855871	0.065110095
24	0xbd61a9be	-0.05509352
25	0x3d6f5b33	0.058436584
26	0xbc1c7291	-0.009548799
27	0x3cc23ebc	0.023711555
28	0xbd449268	-0.047991186
29	0x3c90ed05	0.017691145
30	0xbd8f44f2	-0.06995572
31	0x3da200cf	0.079103105
32	0x3df8848b	0.121346556
33	0x3dad599a	0.08464356
34	0x3cb901e2	0.022583906
35	0xbd1c4076	-0.038147412
36	0xbc9e51c1	-0.019326093
37	0xbdf35233	-0.11880913
38	0x3d307fbc	0.043090567
39	0x3d380ed2	0.04493601
40	0xbd0156e2	-0.031577
41	0x3a3728c5	0.0006986971
42	0xbd9b9041	-0.075958736
43	0x3d8c8613	0.0686151
44	0x3d9c76a6	0.07639818
45	0xbbaf6084	-0.0053520817
46	0x3cc0bdee	0.023528066
47	0x3e052b44	0.13004786
48	0x3db77ac1	0.0895896
49	0xbdb31a45	-0.08745245
50	0xbcb97ee5	-0.022643516
51	0xbd52b9c0	-0.051446676
52	0x3d2e08a5	0.042488713
53	0x3da64e41	0.081203945
54	0x3c9a6d16	0.018850844
55	0xbd1663fc	-0.036716446
56	0x3d6074be	0.054798834
57	0x3d13da5f	0.036096927
58	0xbddfe88b	-0.10933026
59	0xbd6dd441	-0.05806375
60	0x3cbdcab6	0.02316795
61	0xbdc204d8	-0.0947358
62	0x3dcc8ad6	0.09987418
63	0xbd910248	-0.07080513
64	0x3d190ed6	0.037367664
65	0xbcbbb103	-0.022911554
66	0xbc581acb	-0.013189982
67	0x3d787cd3	0.060665917
68	0xbbba948f	-0.005693979
69	0x3d2ca6d3	0.042151283
70	0x3bd1b0ff	0.0063992734
71	0xbc14d657	-0.009084306
72	0x3db7e555	0.089792885
73	0x3d8c207b	0.06842133
74	0x3cba7cb9	0.02276455
75	0xbca60a75	-0.020268658
76	0xbd6687b5	-0.056281764
77	0xbd86e237	-0.06586116
78	0x3d8e6999	0.06953735
79	0x3d41ad6a	0.04728452
80	0x3c9a3a04	0.018826492
81	0x3d457715	0.04820927
82	0x3d2981bb	0.041383486
83	0xbc1637a4	-0.009168539
84	0x3d18e0ae	0.037323646
85	0x3bc0fd78	0.005889591
86	0xbd2f3aa5	-0.042780537
87	0xbc913423	-0.017725056
88	0x3c2c1ac6	0.01050443
89	0x3c02e295	0.007988592
90	0xbc52d04e	-0.0128670465
91	0xbc237f51	-0.009979085
92	0x3d1723b9	0.036899302
93	0xbc6d50dd	-0.014484611
94	0x3bd75493	0.0065713613
95	0xbc2fa4a0	-0.010720402
96	0xbcd97cd1	-0.026548775
97	0xbd6b6cf3	-0.05747695
98	0xbccb419a	-0.024811555
99	0x3b8a2da3	0.004216866
100	0xbd7fde3a	-0.06246779
101	0x3b9f4005	0.0048599266
102	0xbda0bad6	-0.07848136
103	0xbc67b812	-0.014143007
104	0x3c8fe1ff	0.017563818
105	0x3d885620	0.06657052
106	0xbac19265	-0.001476836
107	0xbe0697db	-0.13143866
108	0xbd78a385	-0.06070282
109	0xbcc8bca1	-0.024504008
110	0xbc93d99c	-0.0180481
111	0xbd45d6eb	-0.048300665
112	0xbb8c4d0b	-0.004281645
113	0xbc911d4a	-0.017714161
114	0xbd76909f	-0.060196515
115	0x3d5cbb42	0.05388952
116	0xbd6728a3	-0.05643524
117	0x3d57851b	0.052617174
118	0xbb98bd2e	-0.004661224
119	0x3d33d701	0.043906216
120	0xbd2fabca	-0.04288844
121	0x3c6fac84	0.014628533
122	0x3dbed440	0.09317827
123	0xbb620f10	-0.0034493841
124	0x3d959a62	0.07304837
125	0x3d6b501a	0.057449438
126	0xbd1ea024	-0.03872694
127	0x3d8a682c	0.067581505
128	0xbd85dcde	-0.06536268
129	0x3d401cc4	0.046902433
130	0xbc44f5c9	-0.01202149
131	0xbcad1506	-0.021128189
132	0x3d9b9315	0.07596413
133	0x3d181a8c	0.037134692
134	0xbd0e18da	-0.03469167
135	0xbcb53701	-0.022120954
136	0xbe19608d	-0.14978237
137	0xbd8edc5d	-0.06975625
138	0xbd0248cf	-0.031807717
139	0x3e225103	0.15851216
140	0xbd10456f	-0.035222467
141	0x3d22cd66	0.039746664
142	0xbde5db1d	-0.11223433
143	0x3d89f14e	0.06735478
144	0xbd4c3792	-0.049857683
145	0xbcd071a7	-0.025444819
146	0xbbb316c7	-0.0054653618
147	0xbc0d40b5	-0.008621384
148	0x3d091968	0.033471495
149	0x3cd35dbb	0.02580153
150	0x3d540337	0.05176088
151	0xbb69c035	-0.0035667543
152	0xbc8f91e8	-0.017525628
153	0xbd8b66c4	-0.0680671
154	0x3d95125a	0.07278891
155	0xbd97d4ec	-0.074136585
156	0xbcdfdfcd	-0.027328396
157	0xbc4350a6	-0.011921084
158	0xbcb7e78a	-0.022449274
159	0xbcd33f91	-0.025787147
160	0x3ce5d45b	0.02805536
161	0x399fc82a	0.00030475977
162	0xbcfca7e1	-0.03084177
163	0xbc0caa40	-0.008585513
164	0xbd833bf6	-0.06407921
165	0x3c76c8d6	0.015062531
166	0xbd453c12	-0.04815299
167	0x3d702e61	0.05863798
168	0x3ca8dbe2	0.02061266
169	0xbcf2ab6b	-0.029622754
170	0x3dd2fbc2	0.10301925
171	0x3c342165	0.01099429
172	0x3d2d72ad	0.04234569
173	0x3cb7703d	0.022392387
174	0x3db6a118	0.08917445
175	0x3c9dc3ed	0.019258464
176	0xbd0ad915	-0.03389843
177	0x3d79f45e	0.061024062
178	0xbc5c121c	-0.013432052
179	0x3c8a4894	0.016880311
180	0xbd18f89a	-0.03734646
181	0xbdfbd126	-0.12295751
182	0x3d8c8ebb	0.06863161
183	0x3d1d8785	0.03845932
184	0x3d463797	0.04839286
185	0x3d01cdd1	0.031690422
186	0x3d6e95bf	0.058248278
187	0x3d820291	0.06348146
188	0xbd8f96e9	-0.07011206
189	0x3a96a8dc	0.0011494416
190	0x3d44c774	0.048041776
191	0x3df0c609	0.11756522
192	0xb9d10a79	-0.0003987139
193	0xbce79bc3	-0.028272515
194	0xbc46c91b	-0.012132908
195	0x3db7a097	0.08966177
196	0xbd3a036c	-0.04541342
197	0xbd439ea1	-0.047758702
198	0x3d16f490	0.036854327
199	0xbd36e847	-0.04465511
200	0x3c3f74a0	0.01168552
201	0xbd10e580	-0.03537512
202	0xbd31ec91	-0.043438498
203	0xbd44993a	-0.04799769
204	0x3d81e40e	0.06342326
205	0x3d622379	0.05520961
206	0x3d2b9415	0.04188927
207	0xbbdb3bb4	-0.006690467
208	0x3cb8183f	0.022472499
209	0xbd59f52b	-0.053212326
210	0xbdc998cb	-0.09843596
211	0x3d18cf81	0.037307266
212	0x3de7f933	0.11326828
213	0xbca2d6aa	-0.01987775
214	0x3d8ff715	0.07029549
215	0xbd2ab5d8	-0.041677326
216	0x3d4742c1	0.048647646
217	0xbc5a83df	-0.013337105
218	0xbbab044f	-0.0052190195
219	0xbc3a72ea	-0.011379937
220	0xbbf816c0	-0.0075710714
221	0x3d2a157e	0.041524403
222	0x3cbfcaf1	0.0234122
223	0xbdfaeb14	-0.12251869
224	0xbdc23ca9	-0.09484226
225	0xbd90ff8d	-0.070799924
226	0x3d80a2bc	0.06281039
227	0x3d5a261c	0.053259
228	0x3dc4ea41	0.09614993
229	0xbce20617	-0.027590794
230	0xbcd7be28	-0.02633579
231	0xbc9e80c4	-0.01934851
232	0xbd5c3c16	-0.05376824
233	0xbcc02bfb	-0.023458472
234	0x3c4d0462	0.012513252
235	0x3cf69646	0.030100953
236	0xbdafd97a	-0.08586402
237	0x3d02d137	0.031937804
238	0x3d9c56ac	0.07633719
239	0xbd272202	-0.040803917
240	0x3d31178c	0.043235347
241	0x3c574429	0.013138809
242	0x3daebcec	0.08532128
243	0x3c0ab62a	0.008466283
244	0xbcb8d6fd	-0.022563452
245	0xbd54e9de	-0.051980846
246	0xbd80812b	-0.06274637
247	0x3b82a867	0.0039873603
248	0x3c8ed886	0.01743723
249	0x3d30419c	0.04303132
250	0x3c9af73f	0.018916724
251	0xbd46ed67	-0.04856625
252	0xbd4d560a	-0.05013088
253	0x3d877e93	0.06615939
254	0xbcc10db7	-0.02356611
255	0xbc79cbc8	-0.015246339

act.action_out.linear.bias f4 [5]
0	0xbca0628d	-0.019578243
1	0xbd8cf887	-0.0688334
2	0x3d086ad2	0.033304997
3	0xbd05f754	-0.032706574
4	0x3dd5e206	0.10443501
