light_mappo-main/results/MyEnv/MyEnv/mappo/check/run15/models/critic.pt (torch, 47669 bytes, 15 tensors)

base.feature_norm.weight f4 [28]
0	0x3f8c0e16	1.0941799
1	0x3f7ee320	0.99565315
2	0x3f7af221	0.9802571
3	0x3f832f26	1.0248764
4	0x3f7ee275	0.99564296
5	0x3f8315f6	1.0241077
6	0x3f741e0e	0.9535836
7	0x3f703024	0.93823457
8	0x3f86a766	1.0519836
9	0x3f825683	1.0182651
10	0x3f845391	1.0338002
11	0x3f6f2e44	0.9342997
12	0x3f6e83cf	0.93169874
13	0x3f6b40f7	0.91896003
14	0x3f870d77	1.0550984
15	0x3f741708	0.9534764
16	0x3f702ad8	0.93815374
17	0x3f74dc76	0.95648897
18	0x3f856507	1.0421456
19	0x3f884fe9	1.0649387
20	0x3f779054	0.967046
21	0x3f85587e	1.0417631
22	0x3f709d62	0.9399015
23	0x3f77e1cf	0.9682893
24	0x3f71b043	0.9440958
25	0x3f889829	1.0671436
26	0x3f787785	0.9705737
27	0x3f78d1b5	0.9719499

base.feature_norm.bias f4 [28]
0	0xbb9878ef	-0.0046530883
1	0xbb9f9e98	-0.004871201
2	0x3bf6e2f3	0.0075343787
3	0x3bffee0a	0.007810359
4	0x3b8ddcdb	0.0043293065
5	0xbac49497	-0.0014997897
6	0xba9a57ef	-0.0011775474
7	0x3ba62ae9	0.0050710333
8	0x3ae4205e	0.0017404666
9	0x3910497c	0.00013760285
10	0x3a93c0a2	0.0011272619
11	0xbb230433	-0.002487433
12	0x3b85f043	0.0040874793
13	0x3b6635fe	0.0035127397
14	0x3bc807ae	0.006104431
15	0x3bc24948	0.005929146
16	0x3c1d79f3	0.0096115945
17	0xbb3acf7b	-0.0028505016
18	0xbb2e1400	-0.0026562214
19	0xbaca2987	-0.0015423753
20	0x3b8b9848	0.0042600967
21	0xbb59991c	-0.0033202833
22	0x3bf9352d	0.007605216
23	0x3b2099e2	0.0024505784
24	0xba1b2db0	-0.0005919589
25	0xbc0a1cd6	-0.008429727
26	0xbc1b343b	-0.009472902
27	0x3b5efb26	0.0034024208

base.mlp.fc1.0.weight f4 [64, 28]
0	0x3e4e42b2	0.2014263
1	0x3d5b0f12	0.05348117
2	0x3d942ba8	0.07234889
3	0xbcc10fd6	-0.023567121
4	0x3e17b955	0.14816792
5	0x3e326cbb	0.1742429
6	0xbe41e153	-0.1893361
7	0xbd926623	-0.07148387
8	0x3cf1733e	0.029473897
9	0x3c94ae7a	0.018149603
10	0xbe1b8f54	-0.15191394
11	0x3eb7feaf	0.35936496
12	0xbb716cbc	-0.0036838492
13	0xbe5c1660	-0.2149291
14	0x3e0c1824	0.13681084
15	0x3e54ddbe	0.20787713
16	0x3c2cb9c3	0.010542336
17	0x3e9fe55d	0.31229678
18	0x3d8eae8d	0.06966887
19	0xbe38bfc8	-0.18041909
20	0xbe1a5066	-0.15069732
21	0xbc9adfa5	-0.01890547
22	0xbe9ea874	-0.30987895
23	0xbd7c7890	-0.061638415
24	0x394538c4	0.00018808531
25	0x3e719b80	0.23594475
26	0xbe004546	-0.12526426
27	0x3e142055	0.14465459
28	0x3e335909	0.17514433
29	0x3ca08f66	0.019599628
30	0x3a058e30	0.0005094735
31	0xbdb72618	-0.08942813
32	0x3eebd441	0.46060374
33	0x3e89b635	0.26896825
34	0x3eccc161	0.39991286
35	0x3ebfa1bb	0.37428078
36	0xbd7cfc8f	-0.061764296
37	0xbe528660	-0.20559072
38	0xba866c99	-0.0010255753
39	0xbdc80a27	-0.097675614
40	0xbdf3ce0f	-0.11904537
41	0x3e0c597c	0.1370601
42	0x3e262883	0.16226391
43	0xbdcb1218	-0.099155605
44	0xbe4ef0d7	-0.2020906
45	0xbe410b0e	-0.18851873
46	0xbef4ba81	-0.4779854
47	0xbda175eb	-0.07883819
48	0xbea27be9	-0.3173516
49	0xbe9b3332	-0.30312496
50	0xbe02a534	-0.12758332
51	0x3e9a198d	0.3009762
52	0x3e2622ef	0.16224264
53	0xbe02a547	-0.12758361
54	0xbe6f17ba	-0.23348895
55	0xbeb00d9d	-0.34385386
56	0x3d9b43c0	0.07581282
57	0x3e275eb6	0.16344723
58	0x3ccb05fe	0.02478313
59	0xbbf1888f	-0.0073710154
60	0xbcca4e67	-0.024695588
61	0xbcaed1d3	-0.021340286
62	0x3b1ca361	0.0023901092
63	0x3d843866	0.0645607
64	0x3e20914f	0.15680431
65	0x3dec3c11	0.11534894
66	0xbe0d5525	-0.13802011
67	0x3d8d581e	0.06901573
68	0x3ea8e294	0.32985365
69	0x3e906dd9	0.28208807
70	0xbdb8af29	-0.09017784
71	0x3e37695d	0.17911287
72	0x3dd17042	0.102264896
73	0xbce8e609	-0.028430002
74	0x3e372bb5	0.17887767
75	0xbe6e29c3	-0.23258118
76	0xbcdb2fff	-0.026756285
77	0xbdf1b333	-0.11801758
78	0xbe0b5d74	-0.13609868
79	0x3e0af6f9	0.13570775
80	0xbbd6bcfe	-0.0065532913
81	0x3c80a869	0.015705304
82	0x3cdbd8c1	0.026836755
83	0xbcae079d	-0.021243865
84	0x3eae7573	0.34073982
85	0xbcbe14b6	-0.023203235
86	0xbdab95b8	-0.08378166
87	0xbef66766	-0.48125762
88	0xbe4afed1	-0.19823767
89	0xbd78ea27	-0.06077018
90	0xbe0a5d2f	-0.13512109
91	0x3dcd4adb	0.10024043
92	0xbe59b2c7	-0.21259604
93	0xbe739804	-0.23788458
94	0x3d70b373	0.058764886
95	0x3d4502c3	0.048098337
96	0xbe5646c8	-0.20925438
97	0x3e4f509c	0.20245594
98	0xbe151b4a	-0.14561191
99	0x3ddcea9a	0.10786934
100	0x3d4d691a	0.05014906
101	0xbd95c4a6	-0.07312898
102	0x3e827c82	0.25485617
103	0x3e8bbd37	0.27292797
104	0x3e1f3b40	0.15549946
105	0xbe071fc4	-0.13195711
106	0x3c8689fe	0.016423222
107	0xbbb1f4f3	-0.0054308116
108	0x3e8b0c71	0.2715793
109	0xbba01c25	-0.0048861676
110	0x3cc48100	0.023987293
111	0x3ecb10a2	0.39661127
112	0xbdd7f812	-0.105453625
113	0xbc034700	-0.008012533
114	0xbe4e95c3	-0.20174317
115	0xbdab40cb	-0.08361968
116	0xbdbe78f9	-0.093004175
117	0xbe0df089	-0.13861288
118	0x3e28fd6a	0.1650292
119	0xbee8a293	-0.45436534
120	0xbdb149be	-0.08656643
121	0x3de5144e	0.111855134
122	0x3d9818c0	0.07426596
123	0xbe1caed7	-0.15301071
124	0xbea01677	-0.3126714
125	0xbcc97de5	-0.024596164
126	0x3d0efb24	0.034907475
127	0x3e8f41b3	0.27979812
128	0x3b22dd4c	0.0024851141
129	0xbdc56e2f	-0.096401565
130	0x3c4adbc9	0.012381502
131	0xbd4aef63	-0.049544703
132	0xbe57ef81	-0.21087457
133	0x3ba94c11	0.0051665385
134	0xbd7af3b9	-0.06126759
135	0xbe3855f0	-0.18001533
136	0x3e112d80	0.14177513
137	0xbdbac03a	-0.091186956
138	0xbdd0206f	-0.10162436
139	0x3b745f75	0.0037288342
140	0x3e02d642	0.12777045
141	0xbdcaa38f	-0.098944776
142	0xbd8e14b2	-0.06937541
143	0xbcd6dc67	-0.026228143
144	0x3d9ab239	0.075535245
145	0xbd47ce63	-0.04878081
146	0x3dca6db7	0.09884208
147	0xbdd9f4a5	-0.10642365
148	0x3e3762cc	0.17908782
149	0xbe95556c	-0.29166734
150	0x3e37041f	0.17872666
151	0x3db0f3a5	0.086402215
152	0x39dac9a0	0.00041730423
153	0xbe6cde4f	-0.23131679
154	0xbda10f18	-0.07864207
155	0x3dd85a36	0.10564081
156	0xbd165827	-0.036705162
157	0xbe9c97ae	-0.30584472
158	0x3da8ac20	0.08235955
159	0xbeade686	-0.33964938
160	0x3eb4f4d4	0.3534304
161	0xbd904907	-0.07045179
162	0x3dd40294	0.10352054
163	0x3e2f5ecd	0.17126007
164	0xbd5421b7	-0.051789965
165	0xbe7321cd	-0.23743363
166	0x3c34ed5c	0.011042919
167	0xbd46db6e	-0.04854911
168	0xbe280b4c	-0.1641056
169	0x3e2ab885	0.16671951
170	0xbd8bea5c	-0.0683181
171	0x3e188ba4	0.14897019
172	0x3c9e7c52	0.01934639
173	0xbca92647	-0.020648135
174	0x3ce77562	0.028254215
175	0xbcc3fca3	-0.023924178
176	0x3dc365b9	0.095408864
177	0x3d99d4a5	0.07511262
178	0xbdd3dc73	-0.10344782
179	0xbe277071	-0.16351487
180	0x3da730d5	0.08163611
181	0xbd9edcae	-0.07756935
182	0x3d99f9da	0.075183585
183	0xbea47dbd	-0.3212718
184	0x3e02a579	0.12758435
185	0xbd336cc7	-0.04380491
186	0x3a9c5ded	0.0011929848
187	0x3dc2c2d0	0.09509814
188	0xbe90abbe	-0.2825603
189	0xbd516ef9	-0.051131222
190	0xbdaf9dad	-0.08574996
191	0xbe747029	-0.2387091
192	0x3e3e4a33	0.18582992
193	0x3dd20bb5	0.10256139
194	0xbe9af916	-0.30268162
195	0x3d873dc6	0.06603579
196	0x3ea873fb	0.32900986
197	0xbde8ffc5	-0.11376909
198	0xbdb374e8	-0.087625325
199	0x3ec9fd9d	0.39451304
200	0xbdfe68f1	-0.1242236
201	0xbe240d2c	-0.1602065
202	0xbdaddc52	-0.084892884
203	0xbc0428a6	-0.008066332
204	0x3db1272f	0.08650052
205	0xbea548d7	-0.32282135
206	0xbe619302	-0.22028735
207	0xbc8ad434	-0.01694689
208	0x3e89a267	0.26881716
209	0xbdbbf486	-0.091774985
210	0xbddce2a9	-0.107854195
211	0x3d493321	0.049121026
212	0xbe082ef8	-0.13299167
213	0xbe5ffc49	-0.21873583
214	0xbe9cdf6c	-0.30639207
215	0x3e35ca2d	0.17752905
216	0x3b499561	0.0030759203
217	0x3db4087b	0.0879068
218	0x3dadbc42	0.08483173
219	0xbe7813be	-0.24226281
220	0x3e0c6315	0.13709672
221	0x3f0ca290	0.5493555
222	0x3d1aba5b	0.03777538
223	0xbce18d5f	-0.027533231
224	0xbe2d716e	-0.16937801
225	0x3ec194d0	0.37808847
226	0xbe0b555e	-0.13606784
227	0x3e38da17	0.18051945
228	0x3d96f14a	0.07370241
229	0x3e05bc7d	0.13060184
230	0xbe0d75cc	-0.13814467
231	0x3daf6907	0.08564954
232	0xbed0df96	-0.40795583
233	0xbe1255c7	-0.14290534
234	0x3da2757f	0.07932567
235	0x3ea8d7a5	0.32977024
236	0x3e5270a9	0.20550789
237	0xbd1581e2	-0.03650082
238	0x3d32b7fe	0.0436325
239	0xbe201d54	-0.15636188
240	0xbd7108a2	-0.058846124
241	0x3d8c0d86	0.06838517
242	0xbe8df118	-0.27723002
243	0x3e8134d3	0.25235614
244	0x3d9d6066	0.07684402
245	0xbe89ae88	-0.2689097
246	0xbed7489c	-0.42047584
247	0x3df17030	0.11788976
248	0xbeb11054	-0.3458277
249	0x3e2ae198	0.1668762
250	0x3d0697e6	0.032859705
251	0x3c2ec4c8	0.0106670335
252	0xbec4f854	-0.3847071
253	0x3ea3ae12	0.31968743
254	0x3e105512	0.14094952
255	0x3e00e1c7	0.12586127

base.mlp.fc1.0.bias f4 [64]
0	0xbb92aaa9	-0.0044759107
1	0x3c8c4ca7	0.017126394
2	0x3b242fac	0.0025052829
3	0x39fc01a5	0.0004806641
4	0xbd03c0ac	-0.032166168
5	0xbb6748c1	-0.0035291167
6	0xbd0d1d85	-0.03445198
7	0x3c5d4109	0.013504275
8	0xbb68efbc	-0.0035543283
9	0x3a599257	0.00082996994
10	0xbbba2289	-0.0056803864
11	0xbd2c4335	-0.04205628
12	0xbd678cc6	-0.056530736
13	0xbd72ae41	-0.059248213
14	0xbd22ebd9	-0.039775703
15	0xbbc15630	-0.005900167
16	0xbd042634	-0.032262996
17	0x3d49fcd7	0.049313392
18	0xb8a28db9	-7.75116e-05
19	0x3d029381	0.031878952
20	0x3d4d8519	0.05017576
21	0xbb8c5ff5	-0.0042839
22	0x3b07a72c	0.0020699007
23	0xbb2bb343	-0.0026199378
24	0xbd16f570	-0.03685516
25	0xbb2e5df2	-0.0026606289
26	0xbaeccf9a	-0.0018067241
27	0xbd97eb81	-0.07417966
28	0x3e1b7a7a	0.1518344
29	0xbcd6d67a	-0.026225317
30	0xbd847387	-0.064673476
31	0xbd960687	-0.07325464
32	0xbd376372	-0.044772573
33	0x3adfe638	0.001708216
34	0xbd8e3ac0	-0.069447994
35	0xbbf65832	-0.007517838
36	0xbaadd964	-0.001326364
37	0xbd197c68	-0.03747216
38	0x3af8b9f0	0.0018976312
39	0xba809def	-0.0009812693
40	0xbae5ba14	-0.0017526769
41	0x3ba1b3d7	0.0049347687
42	0xbb848c77	-0.004045065
43	0x3c0b69f5	0.008509149
44	0x3e1e3133	0.15448456
45	0x3a878412	0.0010339043
46	0x3dc56709	0.09638793
47	0xba979a54	-0.0011566379
48	0xbd31f659	-0.043447826
49	0x39ca5b54	0.00038596487
50	0x3b27e9b0	0.0025621466
51	0x3c37f9f8	0.011229031
52	0x3b14a31c	0.0022680229
53	0x3d105d0d	0.03524499
54	0xbd4ad929	-0.049523506
55	0x3c44edcf	0.012019589
56	0x3c1903a3	0.009339246
57	0xbd42687a	-0.047462918
58	0x395aa431	0.00020851266
59	0xbc4104f2	-0.011780964
60	0xbd49a81d	-0.04923259
61	0x3a4ba2a7	0.00077680725
62	0x3b0e13d3	0.0021679297
63	0x3b5eaef2	0.0033978787

base.mlp.fc1.2.weight f4 [64]
0	0x3f87af6f	1.0600413
1	0x3f7e91ec	0.9944141
2	0x3f8c7dc8	1.0975885
3	0x3f859322	1.0435526
4	0x3f6df78c	0.9295585
5	0x3f84ab7a	1.036483
6	0x3f851d36	1.039954
7	0x3f845fd6	1.0341747
8	0x3f7b7b52	0.98235047
9	0x3f8c9a16	1.0984523
10	0x3f6f930b	0.93583745
11	0x3f81a7c7	1.0129327
12	0x3f864dd7	1.0492505
13	0x3f788edf	0.97093004
14	0x3f7e3357	0.9929709
15	0x3f87e546	1.0616844
16	0x3f7c798a	0.98622954
17	0x3f826c64	1.0189328
18	0x3f84fefc	1.0390315
19	0x3f835583	1.0260471
20	0x3f80fff9	1.0078117
21	0x3f77f17e	0.9685286
22	0x3f871740	1.055397
23	0x3f7825cc	0.96932673
24	0x3f7e8cd2	0.99433625
25	0x3f6b8ae3	0.920088
26	0x3f74fc1c	0.9569719
27	0x3f88ea90	1.0696583
28	0x3f885e03	1.065369
29	0x3f84a1f9	1.036193
30	0x3f86ae9f	1.052204
31	0x3f81bc42	1.0135577
32	0x3f752f69	0.9577547
33	0x3f768efa	0.96311915
34	0x3f8b2f08	1.0873728
35	0x3f899ce2	1.0751002
36	0x3f7bc028	0.9834008
37	0x3f7bb861	0.98328215
38	0x3f791c40	0.9730873
39	0x3f7c4c26	0.98553693
40	0x3f7439af	0.9540052
41	0x3f837796	1.027087
42	0x3f6e7d69	0.9316011
43	0x3f86a65c	1.0519519
44	0x3f7aec70	0.98017025
45	0x3f80e5f2	1.0070174
46	0x3f8070e2	1.0034449
47	0x3f7e1692	0.9925319
48	0x3f77b25e	0.9675654
49	0x3f82311e	1.0171239
50	0x3f80ebe3	1.0071987
51	0x3f6d9d77	0.928184
52	0x3f76bd3c	0.963825
53	0x3f87e1df	1.0615805
54	0x3f81afa8	1.0131731
55	0x3f75dbb5	0.9603837
56	0x3f81b128	1.0132189
57	0x3f718629	0.9434534
58	0x3f72d3c3	0.9485437
59	0x3f7b4439	0.98150975
60	0x3f7813d5	0.9690526
61	0x3f7c9846	0.9866985
62	0x3f837d95	1.02727
63	0x3f794eea	0.9738604

base.mlp.fc1.2.bias f4 [64]
0	0xbda67535	-0.08127824
1	0x3ccdcc6f	0.025121896
2	0xbdca7744	-0.09886029
3	0x3d249690	0.04018265
4	0xbcdd277c	-0.026996367
5	0xbc027bc2	-0.0079640765
6	0xbd28c92c	-0.041207477
7	0x3d85000b	0.06494149
8	0x3d18f3b4	0.03734179
9	0x3d9cb320	0.07651353
10	0xbca49afc	-0.020093434
11	0xbd261630	-0.040548503
12	0xbd635742	-0.055503137
13	0xbd8ff16b	-0.07028469
14	0xbd35b730	-0.044364154
15	0xbd88ed96	-0.06685941
16	0xbbd9081c	-0.006623281
17	0x3d8200a3	0.06347778
18	0x3d801777	0.062544756
19	0xba9a5170	-0.0011773538
20	0x3d42127b	0.047380906
21	0xbce23d30	-0.027617067
22	0x3d6efc8e	0.058346324
23	0x3c880303	0.016602999
24	0xbd97b058	-0.07406682
25	0x3d2cc37a	0.04217861
26	0x3d0231c9	0.03178576
27	0xbd937a4c	-0.07201061
28	0x3d9a42b5	0.075322546
29	0xbd2cfe28	-0.04223457
30	0xbd872526	-0.065988824
31	0xbdac0169	-0.083987065
32	0xbd36bf78	-0.044616193
33	0x3d0cae61	0.03434599
34	0xbdaebf42	-0.08532573
35	0x3d295e1a	0.041349508
36	0x3cdc02d9	0.026856827
37	0xbd3005be	-0.042974226
38	0xbc20b71b	-0.009809281
39	0x3d08f4e4	0.03343667
40	0x3cc87787	0.024471058
41	0x3d1d2b3b	0.038371306
42	0x3cc5a1f9	0.024125086
43	0xbc326aa4	-0.010889683
44	0x3e008d6d	0.1255395
45	0x3ce741d4	0.028229631
46	0x3d09954c	0.033589646
47	0x3cf35f2f	0.029708473
48	0xbd386eda	-0.04502759
49	0xbd566572	-0.05234284
50	0x3d0bab87	0.034099128
51	0x3cca60f1	0.024704428
52	0xbc83b261	-0.016076269
53	0xba030a2b	-0.00049987686
54	0xbd8007c6	-0.06251483
55	0x3d3ba549	0.045811925
56	0x3ced6765	0.028979966
57	0xbd6ceb0a	-0.05784134
58	0x3d55b181	0.052171234
59	0xbd230c06	-0.03980639
60	0xbd20ee00	-0.039289474
61	0x3cf62014	0.030044593
62	0x3d25fe75	0.040525872
63	0x3d2da902	0.042397507

base.mlp.fc_h.0.weight f4 [64, 64]
0	0x3d034de9	0.032056723
1	0x3c001819	0.007818245
2	0x3d8644f1	0.06556118
3	0x3ed4ed94	0.41587508
4	0x3d845a3e	0.06462525
5	0xbec30553	-0.3809
6	0x3de9a97a	0.11409278
7	0x3db33e80	0.08752155
8	0x3d54d0f5	0.05195709
9	0x3d9d4272	0.07678689
10	0x3e01d00c	0.1267702
11	0xbe5c327c	-0.21503633
12	0x3d8a5744	0.06754926
13	0x3e58e54a	0.21181217
14	0x3e90a22a	0.2824872
15	0xbea98978	-0.33112693
16	0xbe5a4d07	-0.21318446
17	0x3ca974d6	0.020685595
18	0xbd7520ee	-0.059845857
19	0x3da28b5f	0.07936739
20	0xbd52ea68	-0.05149308
21	0x3e863b55	0.26217142
22	0xbda1b35f	-0.078955404
23	0xbee3908e	-0.44446224
24	0x3e53b4e6	0.20674476
25	0xbe8e13ed	-0.27749577
26	0x3e1d51bf	0.15363215
27	0xbe68ea1e	-0.22745559
28	0x3ebcd28c	0.36879385
29	0x3ce3870f	0.027774362
30	0xbe2d9d53	-0.16954546
31	0xbd9f1c98	-0.07769126
32	0xbdcdc850	-0.10047972
33	0xbddf11b7	-0.10892051
34	0x3e8f8e8a	0.28038436
35	0xbddb567d	-0.10709856
36	0x3d83038a	0.063971594
37	0x3cfa931d	0.030587727
38	0x3dd1a0d6	0.10235755
39	0x3b887773	0.00416463
40	0xbd948c39	-0.07253308
41	0xbd932ac1	-0.07185889
42	0x3d835fac	0.06414732
43	0xbcbaab3f	-0.022786735
44	0xbde8cbff	-0.11367034
45	0x3e449764	0.19198376
46	0x3d0703a1	0.032962445
47	0x3d8d4f79	0.06899924
48	0xbe2ddd74	-0.16979009
49	0xbddb5071	-0.10708702
50	0x3cd321f6	0.02577303
51	0x3b7096c4	0.0036710957
52	0x3e1629a9	0.1466433
53	0x3e918d89	0.28428295
54	0x3e7a7ac4	0.24460894
55	0xbe332c7f	-0.17497443
56	0xbd98ec7f	-0.07466983
57	0x3aceadf9	0.0015768401
58	0xbd2d4984	-0.042306438
59	0xbdc0f801	-0.09422303
60	0x3bf80bb8	0.0075697564
61	0xbdc2143e	-0.09476517
62	0x3edc8bd6	0.43075436
63	0xbd20e7c4	-0.03928353
64	0xbe465eb1	-0.1937206
65	0x3d97d4e4	0.074136525
66	0x3e8b73d4	0.27236807
67	0xbe7c3e89	-0.2463323
68	0xbc9a4e89	-0.018836277
69	0xbe9dbd89	-0.30808666
70	0xbe86a2ff	-0.2629623
71	0xbe7bde90	-0.2459662
72	0x3cabb2ff	0.020959375
73	0x3db2f3e6	0.08737926
74	0x3e976448	0.29568696
75	0xbde66d13	-0.11251273
76	0xbd99388f	-0.07481491
77	0xbea1d54a	-0.3160804
78	0x3dc7735a	0.097387984
79	0x3df5702c	0.11984286
80	0x3df13656	0.11777942
81	0x3e937d1b	0.28806385
82	0x3e441fd8	0.19152772
83	0xbb99ba9e	-0.004691436
84	0x3ea980ae	0.33105987
85	0xbbd43a2c	-0.006476661
86	0xbce7db78	-0.028302893
87	0xbddaf986	-0.10692124
88	0xbe9dd41a	-0.30825883
89	0xbdf40104	-0.11914256
90	0x3cab36fe	0.020900246
91	0x3cd75553	0.026285803
92	0x3d8206b6	0.06348936
93	0xbc0574da	-0.008145535
94	0xbe1afd8b	-0.15135781
95	0xbea085b7	-0.31352016
96	0x3da4216f	0.080141895
97	0x3e28d214	0.16486388
98	0x3dba2c91	0.090905316
99	0x3e72ee2c	0.23723668
100	0xbe4c5a9f	-0.19956444
101	0xbcf5d0eb	-0.030006846
102	0xbdd0e8cb	-0.10200652
103	0x3e68fb15	0.2275203
104	0xbd729a25	-0.059229035
105	0xbe8a8f70	-0.2706256
106	0xbc782df7	-0.015147678
107	0xbcd854ec	-0.026407681
108	0xbe8e7e4a	-0.27830726
109	0x3d45fc4f	0.048336323
110	0x3da40ff6	0.08010857
111	0x3ea6a329	0.32546356
112	0x3e1f67b6	0.15566906
113	0xbe27adc9	-0.16374888
114	0x3d09e3a4	0.03366436
115	0xbd511838	-0.051048487
116	0xbaa73ada	-0.0012758628
117	0xbe003753	-0.12521105
118	0x3ea1efee	0.31628364
119	0x3df743de	0.120734915
120	0xbe25120c	-0.16120166
121	0x3d00bcc9	0.03143004
122	0x3c7a9f74	0.015296806
123	0xbe542077	-0.2071551
124	0xbea519f1	-0.32246354
125	0x3dd2782c	0.10276827
126	0xbe2a2152	-0.16614273
127	0xbca30302	-0.019898895
128	0xbd0dc36a	-0.03461019
129	0xbbbd998e	-0.0057861274
130	0xbd1ea6b7	-0.03873321
131	0x3df42a35	0.11922113
132	0x3ddbd87a	0.10734649
133	0xbd5357b6	-0.05159732
134	0xbea95c88	-0.33078408
135	0xbe611559	-0.219808
136	0x3d85e0e5	0.06537036
137	0x3f019ee6	0.50633085
138	0xbc8b18c1	-0.016979577
139	0x3d007919	0.031365488
140	0xbe3c5a8a	-0.18393913
141	0xbe55887b	-0.20852844
142	0xbdc03209	-0.093845434
143	0x3e5fb5a3	0.21846633
144	0xbd817dd2	-0.063228264
145	0x3e32cbf1	0.1746061
146	0xbdc7bb70	-0.09752548
147	0xbe92bd99	-0.28660277
148	0x3d86510b	0.065584265
149	0x3e14e72a	0.14541307
150	0xbe0f15ac	-0.13973111
151	0x3e494df1	0.19658639
152	0x3e3ece03	0.18633275
153	0xbd05973d	-0.032614935
154	0x3e0b36b0	0.1359508
155	0xbe703980	-0.23459435
156	0x3e23eef8	0.16009128
157	0x3e5b2625	0.2140127
158	0x3df1cb53	0.11806359
159	0xbe1dccae	-0.1541011
160	0xbe3b1a2b	-0.18271701
161	0xbe884492	-0.26614815
162	0xbcbc5f84	-0.022994764
163	0xbe90eb72	-0.2830463
164	0x3e34f36c	0.17670983
165	0x3e1c7497	0.1527885
166	0xbce33b64	-0.02773828
167	0xbd854ffc	-0.065093964
168	0xbe613dd5	-0.21996243
169	0x3e33c6f1	0.17556359
170	0x3dfd9a49	0.12382943
171	0x3e3ad9bb	0.1824712
172	0x3e29ffc9	0.1660148
173	0xbe47b9fb	-0.1950454
174	0x3bc0c153	0.005882421
175	0x3c874b03	0.01651526
176	0xbe82e65a	-0.2556637
177	0x3d9eeb27	0.077596955
178	0xbe9a6673	-0.30156288
179	0xbe58921d	-0.21149488
180	0xbe4a49f3	-0.19754772
181	0xbe872645	-0.26396385
182	0xbdfdfcf1	-0.1240176
183	0xbe91abbe	-0.2845134
184	0x3d2c1d04	0.04201986
185	0x3e5d81a9	0.21631493
186	0x3d8837c5	0.06651262
187	0xbc83f1ee	-0.016106572
188	0xbe927c29	-0.28610352
189	0xbd02733a	-0.03184817
190	0xbc7e5325	-0.015522753
191	0xbcc35e63	-0.023848718
192	0x3d4e227a	0.05032585
193	0x3ebf2686	0.3733408
194	0x3cfe1be8	0.031019166
195	0x3e8d8925	0.27643695
196	0xbc476993	-0.012171167
197	0x3e79832d	0.24366446
198	0xbeb4fcdd	-0.3534917
199	0xbde05c6d	-0.10955129
200	0x3d190bef	0.037364896
201	0xbe28372a	-0.16427293
202	0x3d1d5f1b	0.038420778
203	0xbe9cbe83	-0.306141
204	0x3d07a260	0.033113837
205	0x3e8daf01	0.2767258
206	0xbd9788e6	-0.07399158
207	0x3e65ba0f	0.22434257
208	0x3e8295e4	0.25504982
209	0x3e338092	0.17529514
210	0x3dfe129d	0.12405894
211	0x3e892e70	0.26793242
212	0x3e141dab	0.14464442
213	0xbec370df	-0.3817205
214	0xbc306832	-0.01076703
215	0xbe2afeb8	-0.1669873
216	0xbd86b34a	-0.065771654
217	0xbe60cb17	-0.21952473
218	0x3d74c5c8	0.05975893
219	0x3b4a07de	0.0030827443
220	0xbda2cb2f	-0.079489104
221	0x3c68aa63	0.01420078
222	0x3e09f4cb	0.13472287
223	0x3d9ab0e7	0.07553273
224	0xbd8bbd60	-0.0682323
225	0xbe11614c	-0.14197272
226	0xbd00ad24	-0.03141512
227	0xbec550e8	-0.3853829
228	0xbddfca1b	-0.109272204
229	0xbc8f297d	-0.017475838
230	0xbdb52c77	-0.088463716
231	0xbe07955b	-0.13240568
232	0x3ca4edd8	0.020132944
233	0x3e3f89cd	0.1870491
234	0x3e0d4764	0.13796765
235	0x3ed42549	0.41434696
236	0x3dfe8533	0.124277495
237	0x3ddd6a2e	0.10811268
238	0xbded90bd	-0.11599872
239	0xbe2cffdb	-0.16894476
240	0xbd8953d6	-0.067054436
241	0xbea4c549	-0.32181767
242	0x3d9b485e	0.07582162
243	0x3d8bbfb9	0.068236776
244	0xbe12926d	-0.1431367
245	0x3e6ada1d	0.22934766
246	0x3de59be7	0.11211377
247	0x3dff836b	0.12476238
248	0xbe0a4b29	-0.13505234
249	0xbe2de7f6	-0.16983017
250	0x3db0fc1c	0.08641836
251	0xbe66db25	-0.22544535
252	0x3cde690d	0.027149701
253	0x3c955482	0.018228773
254	0xbe1e270d	-0.15444584
255	0x3d9df910	0.077135205

base.mlp.fc_h.0.bias f4 [64]
0	0x00000000	0.0
1	0x00000000	0.0
2	0x00000000	0.0
3	0x00000000	0.0
4	0x00000000	0.0
5	0x00000000	0.0
6	0x00000000	0.0
7	0x00000000	0.0
8	0x00000000	0.0
9	0x00000000	0.0
10	0x00000000	0.0
11	0x00000000	0.0
12	0x00000000	0.0
13	0x00000000	0.0
14	0x00000000	0.0
15	0x00000000	0.0
16	0x00000000	0.0
17	0x00000000	0.0
18	0x00000000	0.0
19	0x00000000	0.0
20	0x00000000	0.0
21	0x00000000	0.0
22	0x00000000	0.0
23	0x00000000	0.0
24	0x00000000	0.0
25	0x00000000	0.0
26	0x00000000	0.0
27	0x00000000	0.0
28	0x00000000	0.0
29	0x00000000	0.0
30	0x00000000	0.0
31	0x00000000	0.0
32	0x00000000	0.0
33	0x00000000	0.0
34	0x00000000	0.0
35	0x00000000	0.0
36	0x00000000	0.0
37	0x00000000	0.0
38	0x00000000	0.0
39	0x00000000	0.0
40	0x00000000	0.0
41	0x00000000	0.0
42	0x00000000	0.0
43	0x00000000	0.0
44	0x00000000	0.0
45	0x00000000	0.0
46	0x00000000	0.0
47	0x00000000	0.0
48	0x00000000	0.0
49	0x00000000	0.0
50	0x00000000	0.0
51	0x00000000	0.0
52	0x00000000	0.0
53	0x00000000	0.0
54	0x00000000	0.0
55	0x00000000	0.0
56	0x00000000	0.0
57	0x00000000	0.0
58	0x00000000	0.0
59	0x00000000	0.0
60	0x00000000	0.0
61	0x00000000	0.0
62	0x00000000	0.0
63	0x00000000	0.0

base.mlp.fc_h.2.weight f4 [64]
0	0x3f800000	1.0
1	0x3f800000	1.0
2	0x3f800000	1.0
3	0x3f800000	1.0
4	0x3f800000	1.0
5	0x3f800000	1.0
6	0x3f800000	1.0
7	0x3f800000	1.0
8	0x3f800000	1.0
9	0x3f800000	1.0
10	0x3f800000	1.0
11	0x3f800000	1.0
12	0x3f800000	1.0
13	0x3f800000	1.0
14	0x3f800000	1.0
15	0x3f800000	1.0
16	0x3f800000	1.0
17	0x3f800000	1.0
18	0x3f800000	1.0
19	0x3f800000	1.0
20	0x3f800000	1.0
21	0x3f800000	1.0
22	0x3f800000	1.0
23	0x3f800000	1.0
24	0x3f800000	1.0
25	0x3f800000	1.0
26	0x3f800000	1.0
27	0x3f800000	1.0
28	0x3f800000	1.0
29	0x3f800000	1.0
30	0x3f800000	1.0
31	0x3f800000	1.0
32	0x3f800000	1.0
33	0x3f800000	1.0
34	0x3f800000	1.0
35	0x3f800000	1.0
36	0x3f800000	1.0
37	0x3f800000	1.0
38	0x3f800000	1.0
39	0x3f800000	1.0
40	0x3f800000	1.0
41	0x3f800000	1.0
42	0x3f800000	1.0
43	0x3f800000	1.0
44	0x3f800000	1.0
45	0x3f800000	1.0
46	0x3f800000	1.0
47	0x3f800000	1.0
48	0x3f800000	1.0
49	0x3f800000	1.0
50	0x3f800000	1.0
51	0x3f800000	1.0
52	0x3f800000	1.0
53	0x3f800000	1.0
54	0x3f800000	1.0
55	0x3f800000	1.0
56	0x3f800000	1.0
57	0x3f800000	1.0
58	0x3f800000	1.0
59	0x3f800000	1.0
60	0x3f800000	1.0
61	0x3f800000	1.0
62	0x3f800000	1.0
63	0x3f800000	1.0

base.mlp.fc_h.2.bias f4 [64]
0	0x00000000	0.0
1	0x00000000	0.0
2	0x00000000	0.0
3	0x00000000	0.0
4	0x00000000	0.0
5	0x00000000	0.0
6	0x00000000	0.0
7	0x00000000	0.0
8	0x00000000	0.0
9	0x00000000	0.0
10	0x00000000	0.0
11	0x00000000	0.0
12	0x00000000	0.0
13	0x00000000	0.0
14	0x00000000	0.0
15	0x00000000	0.0
16	0x00000000	0.0
17	0x00000000	0.0
18	0x00000000	0.0
19	0x00000000	0.0
20	0x00000000	0.0
21	0x00000000	0.0
22	0x00000000	0.0
23	0x00000000	0.0
24	0x00000000	0.0
25	0x00000000	0.0
26	0x00000000	0.0
27	0x00000000	0.0
28	0x00000000	0.0
29	0x00000000	0.0
30	0x00000000	0.0
31	0x00000000	0.0
32	0x00000000	0.0
33	0x00000000	0.0
34	0x00000000	0.0
35	0x00000000	0.0
36	0x00000000	0.0
37	0x00000000	0.0
38	0x00000000	0.0
39	0x00000000	0.0
40	0x00000000	0.0
41	0x00000000	0.0
42	0x00000000	0.0
43	0x00000000	0.0
44	0x00000000	0.0
45	0x00000000	0.0
46	0x00000000	0.0
47	0x00000000	0.0
48	0x00000000	0.0
49	0x00000000	0.0
50	0x00000000	0.0
51	0x00000000	0.0
52	0x00000000	0.0
53	0x00000000	0.0
54	0x00000000	0.0
55	0x00000000	0.0
56	0x00000000	0.0
57	0x00000000	0.0
58	0x00000000	0.0
59	0x00000000	0.0
60	0x00000000	0.0
61	0x00000000	0.0
62	0x00000000	0.0
63	0x00000000	0.0

base.mlp.fc2.0.0.weight f4 [64, 64]
0	0x3d47f113	0.04881389
1	0x3b40a03b	0.002939238
2	0x3d390380	0.045169353
3	0x3ef13cab	0.47116598
4	0x3e1eafc8	0.15496743
5	0xbedff46a	-0.4374116
6	0x3d9d7730	0.07688749
7	0x3d08325f	0.033251163
8	0x3d37fdfd	0.044919956
9	0x3d800322	0.062505975
10	0x3dfe7f38	0.12426609
11	0xbe1f6317	-0.15565144
12	0x3e1da609	0.15395369
13	0x3e6ec59e	0.23317572
14	0x3e992b57	0.29915878
15	0xbea04e78	-0.31309867
16	0xbe83bc56	-0.25729626
17	0xbc59bb1b	-0.013289238
18	0xbdd5aed4	-0.104337364
19	0x3c4b0c90	0.012393132
20	0xbd9b6bca	-0.075889185
21	0x3e5de0be	0.21667764
22	0xbe10aac5	-0.14127643
23	0xbef83dfe	-0.48484796
24	0x3e8c81a2	0.27442652
25	0xbe91d522	-0.2848292
26	0x3e450614	0.192406
27	0xbe82f98f	-0.25581023
28	0x3ee93264	0.45546257
29	0xbd6481cf	-0.055787858
30	0xbe3f8e43	-0.18706612
31	0xbd9c47fd	-0.07630918
32	0xbd98fb04	-0.074697524
33	0xbd8c4ad0	-0.06850207
34	0x3e5b0589	0.2138883
35	0xbda9c5d3	-0.08289685
36	0xbb831c24	-0.0040011574
37	0x3ccbf870	0.024898738
38	0x3db7b397	0.08969801
39	0x3caac394	0.020845212
40	0xbdca0195	-0.09863583
41	0xbdbdde53	-0.092709206
42	0x3b4f47ca	0.0031628483
43	0xbd4e7fde	-0.050414912
44	0xbe13d958	-0.14438379
45	0x3e376020	0.17907763
46	0x3c3e950f	0.011632218
47	0x3dffeee2	0.12496735
48	0xbe67adb1	-0.22624852
49	0xbdca3aab	-0.09874471
50	0x3ca5d10d	0.020241285
51	0x3d51bf9d	0.051208127
52	0x3e48959d	0.19588323
53	0x3eb618cf	0.35565802
54	0x3ea65948	0.3248999
55	0xbe3d3d94	-0.18480521
56	0xbdc37aae	-0.09544884
57	0x3d9042dd	0.07044003
58	0xbdf345d9	-0.11878557
59	0xbe0dd4fa	-0.13850775
60	0xbd721628	-0.05910316
61	0xbe35ef32	-0.17767027
62	0x3ef907c3	0.48638734
63	0xbe0480d6	-0.12939772
64	0xbe69ea5c	-0.22843307
65	0x3d95320c	0.07284936
66	0x3e8f697b	0.28010163
67	0xbe43548e	-0.19075224
68	0xbdf9c0ac	-0.12194952
69	0xbe87f5ca	-0.2655471
70	0xbe86ea9e	-0.26350874
71	0xbe64358d	-0.22286053
72	0x3d973bd3	0.073844574
73	0x3d7ae284	0.06125118
74	0x3e983bd5	0.29733148
75	0xbe232b03	-0.15934376
76	0xbdca65de	-0.09882711
77	0xbea29c53	-0.3175989
78	0x3d80db50	0.062918305
79	0x3db72c14	0.08943954
80	0x3df68c61	0.12038494
81	0x3e91c3ec	0.2846979
82	0x3e5a6638	0.21328056
83	0xbd27383c	-0.040825114
84	0x3ea76610	0.32695055
85	0x3c809848	0.015697613
86	0xbc3f764a	-0.011685917
87	0xbcffe161	-0.031235399
88	0xbea55ea2	-0.32298762
89	0xbd96da75	-0.07365886
90	0x3d3c362a	0.045950092
91	0x3c90d200	0.01767826
92	0x3b78394e	0.0037875953
93	0xbcce3585	-0.025172004
94	0xbe2e99bc	-0.17050833
95	0xbeb69865	-0.35663143
96	0x3c08a633	0.008340406
97	0x3de9d9c1	0.114184864
98	0x3dcd48ad	0.100236274
99	0x3e5bc3f2	0.21461466
100	0xbe20d5d2	-0.15706566
101	0xbda4719a	-0.0802948
102	0xbe0465f5	-0.12929519
103	0x3e894774	0.26812327
104	0xbc7ae7ab	-0.015314023
105	0xbe5900f2	-0.21191767
106	0x3d1ced97	0.03831252
107	0xbd202c68	-0.03910485
108	0xbe9738c9	-0.2953551
109	0x3ddd7bed	0.108146526
110	0x3e0d22a0	0.1378274
111	0x3eb05018	0.34436107
112	0x3dc49342	0.095984
113	0xbe4bf378	-0.19917095
114	0x3dd3d1e3	0.10342767
115	0x3c74f960	0.014952034
116	0xbd74f87b	-0.059807282
117	0xbd538777	-0.05164286
118	0x3e7bd7dc	0.24594063
119	0x3debe3f7	0.1151809
120	0xbe0a9372	-0.13532808
121	0x3d215912	0.039391585
122	0x3d3b994c	0.045800492
123	0xbe2fcbd4	-0.17167598
124	0xbecbc11f	-0.39795777
125	0x3dfaf416	0.12253587
126	0xbe2656f0	-0.16244102
127	0xbba778c0	-0.00511083
128	0xbd7d660c	-0.061864898
129	0x3c321479	0.010869139
130	0xbd4b62c6	-0.049654745
131	0x3e0aa413	0.13539152
132	0x3e232a78	0.1593417
133	0xbd405707	-0.046957996
134	0xbebd2861	-0.3694487
135	0xbe8268cc	-0.2547058
136	0x3c73e4c3	0.014886084
137	0x3f0d44fc	0.55183387
138	0xbc9075b4	-0.01763425
139	0x3d0818c7	0.033226755
140	0xbe860a7d	-0.26179877
141	0xbe555588	-0.20833409
142	0xbddc444a	-0.107552126
143	0x3e8968df	0.26837823
144	0xbcc106c6	-0.0235628
145	0x3e6229da	0.22086278
146	0xbe15f1b0	-0.14642978
147	0xbe934bd6	-0.28768796
148	0x3cbbaee5	0.022910545
149	0x3dbc65f3	0.09199133
150	0xbe16fbeb	-0.14744537
151	0x3e61daf4	0.2205618
152	0x3e6b4458	0.2297529
153	0xbd273e9a	-0.040831186
154	0x3d899488	0.06717783
155	0xbe920606	-0.2852022
156	0x3e44f1f8	0.19232929
157	0x3e9f351a	0.310952
158	0x3dc3d20b	0.09561547
159	0xbe371444	-0.17878824
160	0xbe2ddf41	-0.16979696
161	0xbe92ad1d	-0.286477
162	0xbd495722	-0.049155362
163	0xbe9d0889	-0.30670574
164	0x3e4f19da	0.20224705
165	0x3e6cf14a	0.2313892
166	0xbda5e2e4	-0.080999166
167	0xbdbd8fab	-0.09255918
168	0xbe8853be	-0.2662639
169	0x3e4ac059	0.19799937
170	0x3d768d27	0.060193207
171	0x3e869da1	0.26292136
172	0x3e75b513	0.23994856
173	0xbe71c686	-0.23610887
174	0x3c89950c	0.016794704
175	0x3bb5e170	0.005550556
176	0xbe84b526	-0.25919455
177	0x3e044974	0.12918645
178	0xbebda09f	-0.37036607
179	0xbe2ae03e	-0.16687104
180	0xbe784571	-0.2424524
181	0xbe726abb	-0.23673527
182	0xbd9599cd	-0.07304726
183	0xbe94a276	-0.29030198
184	0x3d3034e5	0.043019194
185	0x3e82ba92	0.25532967
186	0x3de718f1	0.11284054
187	0xbd49e282	-0.04928828
188	0xbe9b1d03	-0.30295572
189	0xbd6cd97a	-0.05782459
190	0x3aaccdf6	0.001318394
191	0xbcb62122	-0.022232596
192	0x3d66cf1d	0.056349862
193	0x3ed9a9a5	0.4251224
194	0xbbb2383c	-0.0054388326
195	0x3e968e91	0.29405645
196	0x3c3a961d	0.011388329
197	0x3e95b8a6	0.29242438
198	0xbec978ba	-0.3934992
199	0xbe14f89f	-0.14547966
200	0x3b2d1325	0.0026409116
201	0xbe08b840	-0.13351536
202	0x3d69a3d8	0.05704102
203	0xbea10223	-0.31446943
204	0x3c48ca4b	0.012255262
205	0x3e9bd597	0.30436394
206	0xbd310424	-0.04321684
207	0x3e8bdb4e	0.27315754
208	0x3e947506	0.28995532
209	0x3e641da3	0.2227693
210	0x3df47a15	0.11937348
211	0x3e9c1e66	0.30491942
212	0x3e2c3df1	0.16820504
213	0xbedb29c7	-0.4280531
214	0xbcbf2afe	-0.02333593
215	0xbe3dfcfc	-0.18553537
216	0xbd8a0994	-0.06740108
217	0xbe8087c7	-0.2510359
218	0x3c88ab0a	0.01668312
219	0xbb7ede98	-0.003889
220	0xbdd9141b	-0.10599538
221	0x3d1c5d20	0.03817475
222	0x3e0118e6	0.12607154
223	0x3e023a8f	0.12717651
224	0xbd78993e	-0.06069302
225	0xbdff8b0d	-0.12477694
226	0xbd82d1d8	-0.06387681
227	0xbee1e875	-0.44122663
228	0xbe08f835	-0.13375933
229	0x3d20624d	0.039156247
230	0xbd3a5311	-0.045489375
231	0xbe4fe1f8	-0.20301044
232	0xbc2189d9	-0.009859526
233	0x3e481739	0.19540109
234	0x3daf45cb	0.08558234
235	0x3ed701da	0.419936
236	0x3e336f19	0.17522849
237	0x3ddcedb4	0.10787526
238	0xbe059804	-0.1304627
239	0xbe17f068	-0.14837801
240	0xbd31da34	-0.043420985
241	0xbea4a268	-0.32155156
242	0x3d777b53	0.060420346
243	0x3dce83cd	0.10083733
244	0xbe10d255	-0.14142735
245	0x3e95019c	0.2910279
246	0x3e29f4e4	0.16597325
247	0x3decda40	0.115650654
248	0xbe1a13ca	-0.15046611
249	0xbe44fd91	-0.19237353
250	0x3d9251b2	0.071444884
251	0xbe843dea	-0.25828487
252	0x3bd9ca5b	0.006646437
253	0x3bdfa1d2	0.0068247104
254	0xbe3a32ef	-0.18183492
255	0x3e00f40f	0.12593101

base.mlp.fc2.0.0.bias f4 [64]
0	0x3d1c6f71	0.038192216
1	0xbc5c5528	-0.013448037
2	0x3d382d3f	0.044965025
3	0x3d1e5bd1	0.03866178
4	0x3dabd17c	0.08389565
5	0xbcb430dc	-0.021995954
6	0xbd0633a5	-0.032764096
7	0x3d0f5359	0.034991596
8	0xbcd83a90	-0.026395112
9	0xbcb8a453	-0.022539293
10	0xbd786c34	-0.060650066
11	0xbb1fc03b	-0.0024376053
12	0xbd2e5fed	-0.04257195
13	0x3e2ebca3	0.17064147
14	0x3d294a6d	0.041330744
15	0xbd0d4f9d	-0.034499753
16	0x3d22ffa0	0.039794564
17	0xbcd5dc72	-0.026106093
18	0xbca97ad5	-0.020688454
19	0x3d236fd5	0.039901573
20	0x3d1aad6a	0.037763037
21	0xbca4db43	-0.020124083
22	0xbbc21eef	-0.0059240977
23	0x3d0c5573	0.03426118
24	0xbcce30a8	-0.025169685
25	0x3d2852c0	0.04109454
26	0x3d69ad3d	0.05704998
27	0x3b0344ea	0.002003009
28	0x3e488e51	0.1958554
29	0x3c2d72ab	0.010586421
30	0x3ce34b3d	0.027745837
31	0xbcdb0737	-0.026736839
32	0x3d1f6dd0	0.038923085
33	0x3d00903c	0.031387553
34	0x3de578c3	0.11204674
35	0xbcf1f05b	-0.029533556
36	0x3d21505b	0.039383274
37	0x3e1c4c38	0.1526345
38	0x3d8b4a4d	0.06801281
39	0xbce8c75a	-0.02841537
40	0xbd8c9db3	-0.06866016
41	0x3ce44c30	0.02786836
42	0xbca5febb	-0.020263067
43	0x3cf8e83f	0.030384181
44	0x3cd10be5	0.025518367
45	0xbcc55b46	-0.024091374
46	0x3c83c502	0.016085152
47	0x3d3138a8	0.043266922
48	0x3df168b5	0.117875494
49	0x3d146a8f	0.036234435
50	0xba38feb1	-0.0007056995
51	0x3da0b016	0.07846086
52	0xbd03dacd	-0.032191087
53	0x3d1eac73	0.03873868
54	0xbbd97fed	-0.0066375644
55	0xbceb0822	-0.028690401
56	0xbce15831	-0.027507873
57	0x3d1e7408	0.038684875
58	0x3dd2a9a4	0.10286263
59	0x3e017cb6	0.1264523
60	0x3c9eafb9	0.0193709
61	0x3d1dc358	0.038516372
62	0x3d505cdd	0.05086981
63	0x3d1f8ea3	0.03895439

base.mlp.fc2.0.2.weight f4 [64]
0	0x3f7a6717	0.9781355
1	0x3f787b9d	0.9706362
2	0x3f6ecf1d	0.9328478
3	0x3f736971	0.95082766
4	0x3f81bec3	1.0136341
5	0x3f5ada68	0.8548951
6	0x3f637ba0	0.8886051
7	0x3f6ac005	0.9169925
8	0x3f68e140	0.90968704
9	0x3f65ff27	0.89842457
10	0x3f624718	0.8838973
11	0x3f7f3458	0.99689245
12	0x3f58d8ea	0.84705985
13	0x3f805b98	1.0027952
14	0x3f66519e	0.8996829
15	0x3f76792b	0.9627864
16	0x3f75a686	0.9595722
17	0x3f5df825	0.86706764
18	0x3f7414f5	0.9534448
19	0x3f783100	0.9694977
20	0x3f74f354	0.9568379
21	0x3f76b809	0.96374565
22	0x3f78761a	0.9705521
23	0x3f64ddff	0.8940124
24	0x3f70338f	0.9382867
25	0x3f71d778	0.94469404
26	0x3f790656	0.9727529
27	0x3f7bb26d	0.9831913
28	0x3f7d3767	0.9891266
29	0x3f673fc4	0.90331674
30	0x3f643995	0.89150363
31	0x3f5cb8ec	0.8621967
32	0x3f76caed	0.9640339
33	0x3f6cd617	0.92514175
34	0x3f7dfc86	0.99213445
35	0x3f74d579	0.95638233
36	0x3f65d689	0.8978048
37	0x3f7ffe36	0.9999727
38	0x3f7b21bd	0.98098356
39	0x3f70d8b6	0.94080675
40	0x3f5c082e	0.8594998
41	0x3f65229d	0.8950594
42	0x3f723481	0.94611365
43	0x3f7170f8	0.94313
44	0x3f6d45b6	0.92684495
45	0x3f6f5e24	0.9350302
46	0x3f7e0a05	0.9923404
47	0x3f76fb86	0.96477544
48	0x3f80010e	1.0000322
49	0x3f73919b	0.9514405
50	0x3f764107	0.96192974
51	0x3f820fb3	1.0161041
52	0x3f70b42a	0.9402491
53	0x3f7575fa	0.9588314
54	0x3f783330	0.96953106
55	0x3f6b7006	0.9196781
56	0x3f734a80	0.9503555
57	0x3f6dfe52	0.92966187
58	0x3f810c0f	1.0081805
59	0x3f7f8079	0.9980541
60	0x3f53fd20	0.82808113
61	0x3f6bcef5	0.92112666
62	0x3f791a5f	0.97305864
63	0x3f7207c4	0.945431

base.mlp.fc2.0.2.bias f4 [64]
0	0x3c8bd6a7	0.017070128
1	0xbcc6a373	-0.02424786
2	0x3cb3940a	0.021921176
3	0x3ccff6ae	0.02538618
4	0x3cb4f4b2	0.022089336
5	0xbc8ea12f	-0.017410843
6	0xbcb58b5c	-0.022161178
7	0x3ca09d3c	0.019606225
8	0xbca17be2	-0.019712392
9	0xbc9c4df5	-0.019080142
10	0xbc275917	-0.010214112
11	0xbcade15f	-0.02122563
12	0xbc93f363	-0.018060392
13	0xbbb5f649	-0.005553041
14	0x3cb7c028	0.022430494
15	0xbce9f18e	-0.028557565
16	0x3c554ea7	0.01301924
17	0xbc8c3185	-0.017113457
18	0xbca99d3d	-0.02070486
19	0x3ca0da07	0.019635214
20	0x3ca19617	0.019724889
21	0xbd03f86c	-0.032219335
22	0xbcbf4725	-0.023349354
23	0x3ca6c20b	0.020356199
24	0xbcc7bf7d	-0.0243833
25	0x3cbb45ff	0.022860525
26	0x3c9cb2a7	0.019128157
27	0xbc806d30	-0.015677065
28	0x3c3f864d	0.011689735
29	0x3c58d1d4	0.013233621
30	0x3c9e91ee	0.019356694
31	0xbc7f227f	-0.015572189
32	0x3c9d4fd3	0.019203102
33	0x3cafa7d7	0.021442337
34	0x3c7410fd	0.014896628
35	0xbcbf65de	-0.023364004
36	0x3ca7b475	0.02047179
37	0x3c603974	0.013685573
38	0x3c94dd1e	0.018171843
39	0xbcb3a5e4	-0.021929689
40	0xbc3c8766	-0.011506891
41	0x3cb218a0	0.021740258
42	0xbcd7f6af	-0.026362745
43	0x3c8747bb	0.016513696
44	0x3c9276ee	0.017878976
45	0xbcb0f769	-0.02160235
46	0xbd0f8aa7	-0.03504434
47	0x3c924d42	0.017859105
48	0x3d0d0fe3	0.03443898
49	0x3cb68951	0.022282274
50	0xbc772213	-0.0150838075
51	0x3ccbb418	0.024866149
52	0xbcb08499	-0.021547602
53	0x3c99d066	0.01877613
54	0xbcacf35f	-0.021112142
55	0xbcc60726	-0.02417333
56	0xbcbf4a9a	-0.023351002
57	0x3cc16a35	0.023610214
58	0x3ce346fd	0.02774381
59	0x3c7c2ec5	0.01539201
60	0x3c7d6149	0.015465089
61	0x3ca8aa99	0.02058916
62	0x3cbb4934	0.022862054
63	0x3cc22d39	0.023703204

v_out.weight f4 [1, 64]
0	0x3a71f5eb	0.0009230065
1	0xbbeaa34e	-0.0071605807
2	0x3ae3ae08	0.0017370591
3	0xba79081b	-0.0009499804
4	0x3b31bbeb	0.0027120064
5	0xbc5d5a12	-0.013510244
6	0xb698614a	-4.541279e-06
7	0x3b464f2b	0.003025959
8	0xbc2445fb	-0.01002645
9	0xbc0141d1	-0.007889227
10	0xbdc40f7f	-0.09573268
11	0x3a8cc3fe	0.0010739563
12	0xbc4597af	-0.01206009
13	0xbb162360	-0.0022909269
14	0x3b51fb4a	0.003204065
15	0xbacf9b4f	-0.0015839132
16	0xbabec8d1	-0.0014555698
17	0xbc7fb1da	-0.015606368
18	0xbb48ba68	-0.0030628685
19	0x3a83e624	0.0010063094
20	0x3b2e1c1d	0.002656705
21	0xb9adb66e	-0.00033133052
22	0xbbaa5ef5	-0.005199308
23	0x3b5162e0	0.0031949803
24	0xbab5770f	-0.0013844686
25	0x3b15004f	0.002273578
26	0xba0780f0	-0.00051690545
27	0xbbb9d8ae	-0.005671582
28	0xba6d9bc3	-0.0009064043
29	0x3ce2cecd	0.0276865
30	0x3bab940a	0.0052361535
31	0xbca9b53f	-0.020716308
32	0x3b35285f	0.0027642471
33	0x3b2d4b35	0.0026442532
34	0x3a3d4a38	0.0007220837
35	0xbbe51c31	-0.006991886
36	0x3b688edd	0.0035485544
37	0x38fc2598	0.00012023299
38	0x3b79ca20	0.003811486
39	0xbb92247e	-0.0044599166
40	0xbdb869e4	-0.09004572
41	0x3b9e0e16	0.0048234565
42	0xb8bda1d6	-9.0423666e-05
43	0x3b0bab30	0.0021311752
44	0x3c0ed99a	0.008718872
45	0xbb653b5c	-0.0034978008
46	0x3a8dfdd8	0.0010833098
47	0x3b159ae7	0.0022827925
48	0xbaf0ba3c	-0.0018366049
49	0x3b1d02de	0.0023958008
50	0xbc0b5d57	-0.008506141
51	0x39b3b002	0.00034272677
52	0xbb0af8d5	-0.0021205444
53	0xbae4bb5b	-0.0017450856
54	0xbb16162b	-0.0022901397
55	0xbb53b0e2	-0.0032301475
56	0xbb6561a4	-0.0035000825
57	0x3a522800	0.0008016825
58	0xba869b43	-0.001026966
59	0xb9999f18	-0.00029300968
60	0x3cd387aa	0.025821526
61	0x3bea6e32	0.0071542496
62	0xba25936c	-0.0006316218
63	0xba1ec5fb	-0.0006056723
