light_mappo-main/results/MyEnv/MyEnv/mappo/check/run18/models/actor.pt (torch, 45045 bytes, 16 tensors)

base.feature_norm.weight f4 [14]
000000 65 98 90 3f 1e ed 4c 3f 83 5c 76 3f 15 03 5d 3f
       1.1296507 0.8004931 0.9623491 0.8633283
000010 2e 61 63 3f 0f 86 58 3f e8 44 8d 3f 7d e1 5d 3f
       0.8882016 0.8457956 1.1036654 0.8667219
000020 ec bb 84 3f c9 e1 82 3f 43 5b 84 3f cc 03 80 3f
       1.0369849 1.0225154 1.0340351 1.0001159
000030 99 87 6e 3f 2d 5d 86 3f
       0.93175656 1.0497185

base.feature_norm.bias f4 [14]
000000 ea b1 24 3a f1 35 e2 3c 56 6f b8 3e 98 f8 74 3e
       0.0006282615 0.027613612 0.36022443 0.23922956
000010 f2 9c 06 be e1 e3 94 3e b3 ad 69 bd 73 09 4c 3e
       -0.13145807 0.29080108 -0.057050418 0.1992548
000020 f6 6a 92 3d 71 d2 7c be 56 56 d1 bd 63 64 01 3e
       0.071493074 -0.24689652 -0.102215454 0.1263595
000030 0b 81 11 3f 23 86 b9 3d
       0.5683753 0.09058788

base.mlp.fc1.0.weight f4 [64, 14]
000000 a5 12 76 3e 6a 82 3a be f1 bb 1d 3e 3f 5e 38 be
       0.2403055 -0.18213812 0.15403725 -0.18004702
000010 ea 00 e1 bd bb 44 09 3d 0f f1 eb be e6 b8 5b 3d
       -0.109865025 0.033512812 -0.4608235 0.05364313
000020 92 92 c3 bd 95 2b 41 3e c8 f6 51 be ed 2d 3b 3d
       -0.095494404 0.18864281 -0.20504296 0.045698095
000030 dd 8f 62 3f d5 70 a2 3e d8 c9 30 3f 26 90 ab 3d
       0.8850077 0.3172671 0.6905799 0.083771035
000040 ff f9 ac 3e 08 8f 4c be 6a cc 2b bf 80 d0 9d 3e
       0.33784482 -0.19976437 -0.67108786 0.30823135
000050 e9 b5 30 3e c2 d3 57 3e 67 1a 49 bd f6 71 23 be
       0.17256893 0.21076873 -0.049097445 -0.15961441
000060 69 f0 a3 bc fc 57 7e 3d c4 d7 ed 3e cf 4d 1c bd
       -0.020012097 0.062095627 0.4645368 -0.03816014
000070 44 8c 23 3d d2 3e 41 3e da 82 31 bc e7 c4 14 be
       0.03992869 0.1887162 -0.01083442 -0.14528237
000080 c8 87 4d bd 0b 76 87 be da e1 8d 3d 37 b8 0f 3e
       -0.05017832 -0.26457247 0.069278434 0.14035116
000090 4e 6d ba be e0 52 17 be 93 55 4d be 37 88 68 3d
       -0.36411518 -0.14777708 -0.20052175 0.05677053
0000a0 32 01 8f 3c 4d 33 89 bd 4e a1 5a 3e 12 4b 8d 3e
       0.017456625 -0.06699238 0.21350595 0.27596337
0000b0 71 e0 27 be d5 f5 99 be 94 c0 64 3e 07 f3 9b 3d
       -0.16394211 -0.30070367 0.22339088 0.07614713
0000c0 31 9a 16 3e 29 c9 b6 3e 21 79 5f be 47 b0 cd 3d
       0.14707257 0.35700348 -0.21823551 0.10043388
0000d0 cc 3d b9 3d c0 9e 03 be 58 db 89 be 75 31 b3 3c
       0.0904499 -0.12853527 -0.26925159 0.021874169
0000e0 8f e5 be be c7 be dd 3e 9d 6e 99 be ec e5 47 3e
       -0.37284514 0.43309614 -0.29967204 0.19521302
0000f0 d9 70 93 3e 9f d5 a5 be 5c 9a 64 3e 38 9a dd 3e
       0.28797033 -0.32389542 0.22324508 0.43281722
000100 26 5e b1 bc 8a e6 c3 be fd 6e a7 3e 95 33 c8 be
       -0.021651339 -0.38261825 0.32701865 -0.39101854
000110 cb 83 fb 3d 2f 7b 53 3e a0 3c 9a 3e 29 f7 f6 3a
       0.12280997 0.2065246 0.30124378 0.001884197
000120 c4 27 30 be 88 73 32 3c 25 fb 5b be 34 2b db 3e
       -0.1720267 0.010891803 -0.21482523 0.428064
000130 62 cc dc be d8 29 c1 bd cd 0c cb 3e e2 83 07 be
       -0.43124682 -0.09431809 0.39658204 -0.13233903
000140 f9 98 8d be e4 f6 2c bf f1 21 7f 3d 74 eb 81 3e
       -0.2765577 -0.67564225 0.06228823 0.2537495
000150 f3 c1 08 3e dd e4 b5 be 42 91 16 be bb 3e 8b be
       0.13355236 -0.3552617 -0.14703849 -0.27196297
000160 5a 89 c8 bc 99 bc 1e bd 1c c5 3c bd 6e a4 16 3e
       -0.024479557 -0.03875408 -0.046086416 0.14711162
000170 db 96 0f be de 69 d5 3d 17 f3 cc be b5 4f 41 3e
       -0.1402239 0.10420583 -0.40029213 0.18878062
000180 59 f6 90 3e f5 bc 9e bd b9 27 55 be 64 2e 73 be
       0.28312948 -0.077508844 -0.20815934 -0.23748165
000190 a4 94 c7 3e 71 c9 7d 3e 1c 93 15 3e 2b b1 95 3e
       0.3898059 0.24783875 0.14606899 0.2923673
0001a0 77 f9 63 be 85 2b 81 bd 37 36 39 3e 60 3f 33 3f
       -0.22263132 -0.06307129 0.18087088 0.7001858
0001b0 be 29 42 be 68 e3 50 3d 9f 1e 44 3e a4 c2 d5 be
       -0.18961236 0.05099812 0.19152306 -0.41750062
0001c0 49 d2 b8 3d 06 d3 24 be 46 fd 82 bd 16 00 14 3d
       0.09024484 -0.16096124 -0.06395964 0.036132894
0001d0 82 3f 47 3e 19 01 2f bf 40 e7 6d 3e 5d ac 37 3e
       0.1945782 -0.6836105 0.23232746 0.17936845
0001e0 c2 a2 4e be 04 62 06 bd 0d 9f 05 3e 78 86 44 be
       -0.20179275 -0.03280832 0.13048954 -0.19191921
0001f0 f8 63 f6 bd 2e 4a 8f bd 66 ae b6 3b 34 0c 18 bd
       -0.12030786 -0.069965705 0.005574989 -0.037121013
000200 9a 4e 63 3d 02 c9 3a be 3d 8f 1e be 0e 69 5d be
       0.055494882 -0.18240741 -0.15484329 -0.21622106
000210 d1 fe 8e be a5 79 c2 bc 5d c2 b2 3e 59 cd 29 be
       -0.27928784 -0.023739645 0.34913912 -0.1658224
000220 ad 4c 81 3e 4a 78 da 3c 9d 9d 40 3d 5e 81 04 3e
       0.2525381 0.026668686 0.04702531 0.12939975
000230 c2 8f 46 3d cb 1d 4e 3e 1e 11 04 3e 5f 8c f5 bd
       0.048476942 0.20128553 0.12897155 -0.11989664
000240 5b 75 bc bd e5 3e 3b bf 7b 30 68 bd 82 d7 ee 3d
       -0.09202071 -0.73142844 -0.05668686 0.116621986
000250 52 8d 3b 3e 06 e8 8e 3e 10 71 b2 3e 12 c5 da bb
       0.18315628 0.27911395 0.34851885 -0.0066763246
000260 09 b9 d2 3e b7 f3 f6 be 11 8f 84 be 36 bd a6 be
       0.41156796 -0.48232815 -0.258904 -0.3256623
000270 b2 5a be 3e cf d4 f5 bd 52 7c 3f 3d d7 18 e4 bd
       0.3717857 -0.12003481 0.04674942 -0.1113755
000280 3e 7b 12 3e f9 ee 97 3e 40 99 eb bc 71 31 a2 3d
       0.14304826 0.2967451 -0.028759599 0.079195864
000290 f5 ac 51 3e 2b e8 0b bd 9e 30 8f 3d 63 ec d1 3d
       0.20476134 -0.03415696 0.06991695 0.10250165
0002a0 e5 ed ce bb b7 87 b0 be 81 5f af be 0c 13 da be
       -0.0063149803 -0.34478542 -0.3425255 -0.42592657
0002b0 3c 09 41 3d 25 13 99 be 53 59 14 3e 76 7f e0 bc
       0.047127947 -0.2989742 0.144872 -0.027404528
0002c0 eb b8 a4 bd 6f cd 1d 3d d3 c0 74 3d 51 93 7b bd
       -0.08043083 0.038525995 0.059754204 -0.06141979
0002d0 2c af 83 3d 5c 65 40 3e 9c 6e 01 3f 1c bd fb 3c
       0.06429896 0.18788666 0.505594 0.030729823
0002e0 75 c1 0b bf 00 36 59 3c 07 9c d0 bc e6 a0 a1 3e
       -0.54592067 0.0132575035 -0.025465025 0.31568068
0002f0 b6 26 e7 3d 74 25 51 3e 7f a6 d2 3e 23 65 83 bd
       0.112866804 0.20424443 0.4114265 -0.06415775
000300 f2 14 59 3f a8 24 5c be 58 63 a9 3e 5f fb 36 be
       0.84797585 -0.21498358 0.33083606 -0.17869328
000310 90 f5 ab be 4d ca 22 3e 2d b0 1e bd f7 3f 5e 3e
       -0.33585787 0.15897484 -0.038742233 0.21704088
000320 10 95 0f 3e 67 d6 a1 3d 57 11 e3 bd af 1d 2b 3e
       0.14021707 0.07902222 -0.11087292 0.16710542
000330 47 38 1e 3f f1 00 4f 3e 9a 55 84 be 62 d0 75 be
       0.6180462 0.20215203 -0.2584656 -0.24005273
000340 0f ab 71 be d3 1f f3 ba 85 95 66 bb 34 c8 1e 3e
       -0.2360041 -0.0018548913 -0.0035184335 0.15506059
000350 16 8c 6a 3e 44 0e 06 be 3b 7c 12 be ac dc 34 be
       0.22905001 -0.1309138 -0.14305203 -0.17662305
000360 44 eb 7d 3d 85 e7 77 3e f0 a0 a7 3d b6 dd ae bd
       0.061991945 0.24209411 0.08184993 -0.08538382
000370 e5 75 fc be 6c ab 27 be c9 b3 5c bd f2 84 49 3e
       -0.49308696 -0.16373986 -0.053882394 0.19679621
000380 59 a9 be be f3 45 b7 be f6 3a 12 bf 00 e3 46 3e
       -0.37238577 -0.35795555 -0.5712122 0.19422531
000390 63 cb 3e be d2 2a 0a be 3c 15 60 3e 8f e3 60 3e
       -0.18632273 -0.13492897 0.218831 0.21961807
0003a0 1a 1f 89 bd b9 bf ee 3e 27 49 91 be 7d b3 23 3e
       -0.06695385 0.46630648 -0.28376123 0.15986438
0003b0 57 c7 89 3e 0d 64 7b be 01 a2 48 3e 71 20 56 be
       0.26909897 -0.24549885 0.1959305 -0.20910813
0003c0 bd de 95 3e e2 8e 42 3f 39 40 e3 3d 95 5a dc be
       0.29271498 0.7599927 0.11096234 -0.4303786
0003d0 5c 15 ef bc 8f 1b 92 3e 1e 36 e4 3d 9f d1 88 be
       -0.02918499 0.2853665 0.111431345 -0.26722428
0003e0 23 a7 9d 3e 08 2f 96 be 32 92 2c be c0 18 a9 3d
       0.30791578 -0.29332757 -0.16852644 0.08256674
0003f0 4b 22 8c 3e a4 f7 51 be ff d8 47 be aa c0 35 be
       0.27369913 -0.20504624 -0.19516371 -0.17749277

base.mlp.fc1.0.bias f4 [64]
000000 d0 63 b5 3e d2 90 c4 3e 41 dc e5 be ec 9f d5 be
       0.35427713 0.3839174 -0.44894603 -0.41723573
000010 b3 19 61 3e 4b b7 13 3e 98 71 36 be 7f 67 02 3e
       0.2198246 0.1442539 -0.1781677 0.12734793
000020 21 63 55 be 73 e0 88 be 74 b3 63 3e 73 cc d1 be
       -0.20838596 -0.2673374 0.22236425 -0.40976295
000030 cd 28 de be c6 99 b7 3e 13 94 71 3d e3 36 b2 be
       -0.43390504 0.35859507 0.058979105 -0.348075
000040 8c de 26 be f1 ab 32 3e ac 65 1b be 16 2f 8b 3e
       -0.16295832 0.17448403 -0.15175503 0.2718436
000050 9b 01 cf be 7d db 9c bd 83 7f ff 3d 41 63 29 be
       -0.40430912 -0.076590516 0.12475493 -0.16541769
000060 6b 07 c9 3c 00 66 f1 3e 5f d6 15 3d 4d d0 f7 be
       0.02453967 0.47148132 0.036581393 -0.48401108
000070 ad 45 6e bc fe cd b5 3d 94 90 4d be a8 4d 06 be
       -0.014542979 0.088771805 -0.20074683 -0.13115561
000080 fb c2 34 3e f3 5b 55 be ed 83 7c be a4 fe 08 3c
       0.17652504 -0.20835857 -0.246597 0.008361492
000090 68 ce dd be 24 39 c6 be 45 54 50 be 73 fe a9 3e
       -0.43321538 -0.3871547 -0.20344646 0.33201942
0000a0 41 90 d8 be fe 66 b9 3e 38 1e cf bc 51 0c bd 3b
       -0.42297557 0.3621139 -0.025282964 0.0057692905
0000b0 72 bd 93 be 3f 01 d9 be 06 66 9b 3e 38 6c 07 bf
       -0.28855473 -0.42383763 0.30351275 -0.52899504
0000c0 e9 54 70 be 85 11 a4 be a8 aa c9 be ac fa 39 be
       -0.2346989 -0.32044616 -0.39388013 -0.1816203
0000d0 f3 47 10 be 7a b4 54 3e 9b 1b d2 be a7 61 87 be
       -0.14089946 0.20771971 -0.41036686 -0.2644169
0000e0 7a c5 fe 3e 8d 5a 32 bd c5 b1 8b 3e 46 e1 db be
       0.49760038 -0.043543387 0.27284065 -0.42945307
0000f0 8f f9 2e bb af 4f e7 3e ad 14 aa be f1 29 e2 bd
       -0.0026699041 0.4517798 -0.332189 -0.11043156

base.mlp.fc1.2.weight f4 [64]
000000 08 e4 45 3f 2e 1c 4b 3f 58 19 83 3f b5 57 43 3f
       0.77301073 0.79339874 1.0242109 0.76305705
000010 a2 eb 85 3f 3d a1 43 3f ed 6b 1a 3f 74 b2 43 3f
       1.0462534 0.76417905 0.6032093 0.7644417
000020 b4 9e 33 3f c5 ce 3c 3f e0 a7 45 3f 88 4e a3 3f
       0.70164037 0.73753005 0.7720928 1.2758341
000030 f3 72 73 3f a6 f8 4b 3f 6b fe 49 3f 50 da cb 3f
       0.95097274 0.7967628 0.78903836 1.5925999
000040 bb 36 a3 3f d3 39 57 3f f1 c0 b4 3f cc 2c 5b 3f
       1.2751077 0.8407261 1.4121381 0.8561523
000050 4c 85 89 3f a7 4f 41 3f b6 78 7e 3f 3c 38 87 3f
       1.0743804 0.75512165 0.9940294 1.0564036
000060 2c 82 70 3f ab 81 4d 3f 95 2e 1c 3f 84 1e 9c 3f
       0.93948627 0.8027598 0.6100858 1.2196813
000070 a3 de 7c 3f 83 81 42 3f a6 e9 70 3f d3 9b 68 3f
       0.98777217 0.7597887 0.9410652 0.9086277
000080 69 3c 7a 3f 4b 09 c0 3f e9 be 23 3f 1e 98 82 3f
       0.9774843 1.5002836 0.6396318 1.0202672
000090 e8 43 c9 3f 43 79 af 3f af db 0c 3f 11 c7 3b 3f
       1.5723848 1.3708881 0.5502271 0.73350626
0000a0 b7 de d8 3f 9d 1c 3e 3f a7 5c 83 3f d0 c0 1b 3f
       1.6942967 0.7426241 1.026265 0.60841084
0000b0 c9 c2 b7 3f 68 63 56 3f 4b 55 5b 3f 9a ff be 3f
       1.4356319 0.8374543 0.8567702 1.4921753
0000c0 2d b8 61 3f 81 99 45 3f 54 c2 b4 3f 89 6b 11 3f
       0.88171655 0.77187353 1.4121804 0.5680471
0000d0 15 43 34 3f 6a d1 66 3f 0a 64 3b 3f 27 c7 3a 3f
       0.7041486 0.9016329 0.7319952 0.7296013
0000e0 d3 c3 5d 3f 53 ef 28 3f 2c b3 86 3f 20 7e a9 3f
       0.8662693 0.6599018 1.0523429 1.3241615
0000f0 8a 3b 6a 3f 98 bd 88 3f 61 08 28 3f 0a 12 38 3f
       0.914971 1.068286 0.65637785 0.71902525

base.mlp.fc1.2.bias f4 [64]
000000 68 19 f9 3e 03 8a 13 3f 3b 5e fc be 6e 11 02 bf
       0.48652196 0.57632464 -0.49290642 -0.50807846
000010 8e 3e 89 3e 53 62 99 3e ec 8b 06 bd f9 cb a2 3e
       0.26805538 0.29957828 -0.032848284 0.31796244
000020 6b de 44 3e 62 5d 81 be 85 83 a8 3e c9 06 08 bf
       0.1922547 -0.25266558 0.3291284 -0.53135353
000030 bd ff eb be ef 8a 2b 3f dd 91 4b 3e 29 31 65 bf
       -0.4609355 0.6700887 0.19879861 -0.8952814
000040 99 6e 04 bf f6 5b a1 3e bc 95 5c bf be 15 1c 3f
       -0.5173126 0.31515473 -0.86165977 0.60970676
000050 0e 55 6d be d4 16 46 3e b2 f5 ca 3e 31 c9 aa be
       -0.23176977 0.19344646 0.39640576 -0.33356622
000060 de 1e 85 be 3a a1 46 3f 84 01 b3 3e 88 00 0a bf
       -0.26000112 0.7758976 0.34962094 -0.5390706
000070 8a 18 71 bd f2 1f 0b 3f 93 52 2f be d6 2f 8c bc
       -0.058861293 0.5434562 -0.17121343 -0.017112654
000080 ff a3 e8 3e c8 28 6e bf d6 fa 2d 3e fc 03 05 bd
       0.4543762 -0.9303098 0.16990218 -0.032474503
000090 00 cb 6c bf c4 91 62 bf 06 82 04 3e cc 6a 4f 3e
       -0.92497253 -0.8850367 0.12940225 0.20255584
0000a0 b8 5f 84 bf f6 7f 3b 3f 74 d1 4d bb 1d 82 c7 3d
       -1.0341711 0.7324213 -0.0031405361 0.09741614
0000b0 a4 7d 6c bf e2 05 66 3d 0f 7b 08 3f a7 03 5b bf
       -0.9237921 0.056157954 0.5331277 -0.8555245
0000c0 42 5e d0 bd 8e f6 a7 be c0 cf 42 bf bb 9c 6b 3b
       -0.10174228 -0.32805294 -0.7609825 0.0035951573
0000d0 7c e2 c5 bd cf 47 37 3e 87 99 51 be 92 5d e4 3d
       -0.09662339 0.17898487 -0.20468722 0.111506596
0000e0 ec 98 31 3f 06 4e f6 3e 79 e0 48 3e 84 62 70 bf
       0.69373965 0.48106402 0.1961688 -0.9390032
0000f0 59 eb 0c 3e a4 02 06 3f 1f 75 f2 bd d7 cf ba 3e
       0.13761653 0.5234778 -0.11838745 0.36486694

base.mlp.fc_h.0.weight f4 [64, 64]
000000 2d e0 39 be 59 42 20 be b5 7f e6 3b da 3e 2d 3e
       -0.18151923 -0.1565031 0.007034267 0.16918507
000010 a2 7a 00 be 7c dd 27 be d9 6b 80 be 1f 8f b6 3d
       -0.1254678 -0.16393083 -0.2508228 0.08914017
000020 97 cc 9d 3e 89 d2 ef bd 8b 79 89 3e e0 f7 24 be
       0.30820152 -0.11710078 0.26850542 -0.16110182
000030 26 d1 26 3e 01 ed 3c be eb 11 6d be ff df 03 3e
       0.16290721 -0.18449785 -0.23151366 0.12878416
000040 f7 9e d3 bc 79 cc 2e be 91 fc 7d 3d 4a 1a ea 3d
       -0.025832636 -0.17070188 0.062008444 0.114307955
000050 05 d5 4a 3e 24 0a b7 3d cf f8 3a be a9 be 63 bd
       0.19807823 0.08937481 -0.18258975 -0.05560175
000060 8c 09 0e 3d d7 5d b9 3e 86 e6 87 3d 5d ca b5 3a
       0.034677073 0.36204407 0.06635766 0.0013869513
000070 37 6b 5f be 63 46 e2 3d 4c ed d8 3e df 83 e4 bd
       -0.21818243 0.110485815 0.42368543 -0.11157965
000080 68 88 1c be e4 d5 80 3d 19 0d 81 be 64 9e d7 3d
       -0.1528641 0.062907964 -0.25205305 0.105282575
000090 0d 37 73 3e ed 27 1c be 60 96 8e bc 79 ae 0b 3d
       0.23751469 -0.15249605 -0.017405689 0.034101937
0000a0 e0 a9 1c 3d 89 80 a8 3d 52 b6 01 be c6 57 d4 bd
       0.038247943 0.08227641 -0.12667206 -0.10368304
0000b0 d3 e8 02 be 39 b8 9e 3c 35 13 d9 3e 1c 27 1b be
       -0.12784128 0.019374954 0.42397466 -0.15151638
0000c0 f5 8f 10 bd a0 0b fb bd 89 cc 60 be 99 2d 51 be
       -0.035293538 -0.12258077 -0.21953024 -0.2042755
0000d0 79 f4 13 be 29 b9 1c be d8 f6 3a 3d c7 f5 a7 be
       -0.14448728 -0.15305008 0.045645565 -0.328047
0000e0 f3 10 0a bd b7 16 a4 bc 59 55 2c 3e a1 fa 71 be
       -0.03370757 -0.020030363 0.16829433 -0.23630764
0000f0 94 1e eb bd 15 49 0a be 77 46 83 3e 98 02 81 be
       -0.11480442 -0.13504441 0.25639698 -0.2519729
000100 4a 0c 2e be c5 fe b9 bd a9 e6 60 3e c4 2b 15 be
       -0.16996875 -0.090817966 0.2196299 -0.14567477
000110 27 cc 48 3d 30 be 80 be 84 5a 3e 3c db 0b 37 3c
       0.04902282 -0.25145102 0.01161826 0.01117226
000120 55 35 07 3e d9 a6 17 be 62 05 c2 bd ac 51 e5 3c
       0.13203938 -0.14809741 -0.09473683 0.027993046
000130 3c 29 bf 3e 24 91 3a 3e 1c 9e c7 bd 3a c7 a4 bd
       0.37336147 0.18219429 -0.09746954 -0.08045812
000140 1c a2 cb be 21 0e af 3a c8 b3 76 bc 6a 25 71 be
       -0.39772117 0.0013355651 -0.015057512 -0.23549429
000150 b0 83 2b be 12 9e 70 3d db 1f 8e be 42 35 0d bd
       -0.16749454 0.058744498 -0.2775868 -0.03447462
000160 b4 76 af 3c a1 e1 37 be 7f 34 82 be ef 47 42 3e
       0.021418907 -0.17957164 -0.25430676 0.18972753
000170 9d 49 34 be 6b f8 06 3d 03 88 47 3d 16 23 8e 3d
       -0.17606206 0.032951754 0.048713695 0.06940286
000180 b3 c7 ec bd 5d b3 b6 bd 51 49 12 3e 3a 21 47 be
       -0.11561527 -0.089209296 0.1428578 -0.19446269
000190 24 3f 08 3d 12 cc a1 3e 7b 82 80 3e 39 d4 54 be
       0.03326334 0.31601006 0.2509955 -0.20784082
0001a0 54 b5 4a 3e 37 b3 94 3e 76 ec 33 be f2 c1 92 be
       0.19795734 0.2904298 -0.17570671 -0.28663594
0001b0 2c 7b 50 3d 2b 1b ee bd 19 a4 ed bc 45 97 32 be
       0.050898716 -0.11626276 -0.029008912 -0.17440517
0001c0 19 17 2a 3e 07 a0 48 3e 96 c4 2f 3e 77 58 34 be
       0.16610374 0.19592296 0.17164835 -0.17611872
0001d0 f8 ab 87 3e 96 c9 e2 bd f9 98 ef 3c 2a 9c a9 3e
       0.2649839 -0.11073606 0.029247748 0.33126956
0001e0 b7 e3 42 be cb cf 08 3d 22 9d 39 3e 70 91 39 3e
       -0.19032179 0.03340129 0.18126348 0.18121886
0001f0 b5 60 6b be b7 5c 04 3e 9d 9d 17 3e 38 ed c0 bd
       -0.2298611 0.12925993 0.14806218 -0.09420246
000200 be 29 0e 3e 95 93 85 3e 65 f2 a5 3d 08 bf 9f 3e
       0.13883111 0.2608916 0.08102874 0.31200433
000210 89 b9 29 be 65 a3 6a 3e 0d 10 2c be 53 d0 94 bd
       -0.16574682 0.22913893 -0.16802998 -0.07266297
000220 b4 dc 91 be 74 12 a0 be 04 da 8d be ae f4 5d 3d
       -0.28488696 -0.3126408 -0.27705395 0.054188423
000230 c7 d0 a7 bd 4a f4 8a 3d a6 8c 39 be 10 e1 9e 3e
       -0.08194118 0.06784876 -0.1812006 0.31031084
000240 9e 83 1a bd bf 3e fc 3d 70 79 28 3e e3 b0 2a be
       -0.037723176 0.12316655 0.16452575 -0.1666904
000250 36 d2 d5 3d a8 70 cc be fb 3e b5 bc a7 35 8e be
       0.10440485 -0.399297 -0.022124758 -0.27775308
000260 81 43 1a be 64 a1 5e bd 16 ac 0c bc b5 13 88 be
       -0.15064813 -0.054353133 -0.00858595 -0.26577535
000270 1c 15 ea 3b 0d 04 32 3d cd d5 2f 3e 15 59 8c be
       0.0071436297 0.043460894 0.17171402 -0.27411714
000280 53 a1 1c bd 34 73 9e bd b0 41 15 3e b2 6e c7 be
       -0.03823979 -0.07736817 0.14575839 -0.3895164
000290 aa 3f 68 3e 2b db 80 bd eb 32 9f 3e fb d2 93 be
       0.22680536 -0.06291803 0.31093535 -0.28871903
0002a0 dd 78 ca bd 63 c5 95 3d 88 5b 1b 3d 6e 21 ff bc
       -0.09886334 0.07313039 0.037929088 -0.03114387
0002b0 c2 43 83 3d ef eb c9 bd 4d 52 f2 bc 6e 70 18 be
       0.06409408 -0.09859454 -0.02958026 -0.14886639
0002c0 74 3f 31 3e 02 3e 5b be 5b 1a 33 3e 5b 4e 60 3e
       0.17309362 -0.21410373 0.17490523 0.2190489
0002d0 d3 b2 55 be 3d a9 1b 3d f6 50 27 bc db 87 cf bd
       -0.20868997 0.038003195 -0.010212174 -0.10133334
0002e0 92 bd 38 bb 2a c7 3c 3c 8d e4 3a be d1 2d 57 bd
       -0.0028189165 0.011522094 -0.18251248 -0.05253393
0002f0 37 8e 11 3d 31 4c f0 3c 25 f5 64 3e 8f 7c 98 bd
       0.035536017 0.029333206 0.2235914 -0.07445633
000300 21 04 ed 3d 17 b5 7e bc 80 6d 89 3c 1b d0 29 3e
       0.11573053 -0.015546105 0.016775846 0.16583292
000310 e4 a7 1d be 40 04 21 3e ed 3b 0d 3e 3a 24 11 3e
       -0.15396076 0.15724277 0.13792391 0.14173976
000320 7d fb 7c 3d 35 e9 1b be d8 18 62 3d 34 07 1f be
       0.061763275 -0.1522568 0.055199474 -0.15530092
000330 91 43 4e 3c 25 c7 92 3e 3a f4 f1 bd c7 cb 42 be
       0.012589351 0.2866756 -0.11814161 -0.19023047
000340 9e 31 2a 3e 44 e2 31 be 07 72 63 be b6 17 f6 bd
       0.1662049 -0.1737147 -0.22211467 -0.12016241
000350 cb 9c 2d 3e 96 80 03 3e 8f 89 1a 3e 67 65 47 3e
       0.16954343 0.1284202 0.15091537 0.19472276
000360 98 19 00 be c1 ef 35 bd 1f dc 29 bd 65 e0 c9 bd
       -0.12509763 -0.0444181 -0.04146969 -0.09857253
000370 b4 2c a1 3e e4 88 9a bd 7a 98 e8 3e 1b a2 14 be
       0.31479418 -0.07545641 0.4542883 -0.14514963
000380 90 03 62 bd d3 69 84 3d e5 44 0a 3e ba 5f 3f bd
       -0.05517918 0.06465497 0.13502844 -0.04672215
000390 3e 99 b4 3d 1d 99 29 3e b1 06 4f bc 4e a0 35 3c
       0.08818291 0.16562314 -0.012635873 0.011085583
0003a0 78 07 82 3e 1e 8d 38 3e bb 5d 3d be c5 52 2f bd
       0.25396323 0.18022582 -0.18492787 -0.042803545
0003b0 12 15 e2 3e 01 fb 82 36 93 6b 5f be f6 14 84 3e
       0.441567 3.9035226e-06 -0.2181838 0.25797242
0003c0 ae 9a a9 be 1e 22 91 3e 24 08 25 3e 15 7e f9 bb
       -0.33125824 0.28346342 0.16116387 -0.007613907
0003d0 5a 07 f4 bc 91 6a 7a 3e 90 98 d7 bd 65 41 2a be
       -0.029788662 0.24454714 -0.10527146 -0.16626509
0003e0 26 c1 2b bd 77 22 9a be 3e 25 9e 3e 8a e4 e3 bd
       -0.041932248 -0.3010442 0.3088779 -0.11127575
0003f0 8c 94 23 3e 8d cf 85 bd d0 e3 08 be c9 1d 28 be
       0.15974635 -0.06533728 -0.13368154 -0.16417612

base.mlp.fc_h.0.bias f4 [64]
000000 00 00 00 00 00 00 00 00 00 00 00 00 00 00 00 00
       0.0 0.0 0.0 0.0
000010 00 00 00 00 00 00 00 00 00 00 00 00 00 00 00 00
       0.0 0.0 0.0 0.0
000020 00 00 00 00 00 00 00 00 00 00 00 00 00 00 00 00
       0.0 0.0 0.0 0.0
000030 00 00 00 00 00 00 00 00 00 00 00 00 00 00 00 00
       0.0 0.0 0.0 0.0
000040 00 00 00 00 00 00 00 00 00 00 00 00 00 00 00 00
       0.0 0.0 0.0 0.0
000050 00 00 00 00 00 00 00 00 00 00 00 00 00 00 00 00
       0.0 0.0 0.0 0.0
000060 00 00 00 00 00 00 00 00 00 00 00 00 00 00 00 00
       0.0 0.0 0.0 0.0
000070 00 00 00 00 00 00 00 00 00 00 00 00 00 00 00 00
       0.0 0.0 0.0 0.0
000080 00 00 00 00 00 00 00 00 00 00 00 00 00 00 00 00
       0.0 0.0 0.0 0.0
000090 00 00 00 00 00 00 00 00 00 00 00 00 00 00 00 00
       0.0 0.0 0.0 0.0
0000a0 00 00 00 00 00 00 00 00 00 00 00 00 00 00 00 00
       0.0 0.0 0.0 0.0
0000b0 00 00 00 00 00 00 00 00 00 00 00 00 00 00 00 00
       0.0 0.0 0.0 0.0
0000c0 00 00 00 00 00 00 00 00 00 00 00 00 00 00 00 00
       0.0 0.0 0.0 0.0
0000d0 00 00 00 00 00 00 00 00 00 00 00 00 00 00 00 00
       0.0 0.0 0.0 0.0
0000e0 00 00 00 00 00 00 00 00 00 00 00 00 00 00 00 00
       0.0 0.0 0.0 0.0
0000f0 00 00 00 00 00 00 00 00 00 00 00 00 00 00 00 00
       0.0 0.0 0.0 0.0

base.mlp.fc_h.2.weight f4 [64]
000000 00 00 80 3f 00 00 80 3f 00 00 80 3f 00 00 80 3f
       1.0 1.0 1.0 1.0
000010 00 00 80 3f 00 00 80 3f 00 00 80 3f 00 00 80 3f
       1.0 1.0 1.0 1.0
000020 00 00 80 3f 00 00 80 3f 00 00 80 3f 00 00 80 3f
       1.0 1.0 1.0 1.0
000030 00 00 80 3f 00 00 80 3f 00 00 80 3f 00 00 80 3f
       1.0 1.0 1.0 1.0
000040 00 00 80 3f 00 00 80 3f 00 00 80 3f 00 00 80 3f
       1.0 1.0 1.0 1.0
000050 00 00 80 3f 00 00 80 3f 00 00 80 3f 00 00 80 3f
       1.0 1.0 1.0 1.0
000060 00 00 80 3f 00 00 80 3f 00 00 80 3f 00 00 80 3f
       1.0 1.0 1.0 1.0
000070 00 00 80 3f 00 00 80 3f 00 00 80 3f 00 00 80 3f
       1.0 1.0 1.0 1.0
000080 00 00 80 3f 00 00 80 3f 00 00 80 3f 00 00 80 3f
       1.0 1.0 1.0 1.0
000090 00 00 80 3f 00 00 80 3f 00 00 80 3f 00 00 80 3f
       1.0 1.0 1.0 1.0
0000a0 00 00 80 3f 00 00 80 3f 00 00 80 3f 00 00 80 3f
       1.0 1.0 1.0 1.0
0000b0 00 00 80 3f 00 00 80 3f 00 00 80 3f 00 00 80 3f
       1.0 1.0 1.0 1.0
0000c0 00 00 80 3f 00 00 80 3f 00 00 80 3f 00 00 80 3f
       1.0 1.0 1.0 1.0
0000d0 00 00 80 3f 00 00 80 3f 00 00 80 3f 00 00 80 3f
       1.0 1.0 1.0 1.0
0000e0 00 00 80 3f 00 00 80 3f 00 00 80 3f 00 00 80 3f
       1.0 1.0 1.0 1.0
0000f0 00 00 80 3f 00 00 80 3f 00 00 80 3f 00 00 80 3f
       1.0 1.0 1.0 1.0

base.mlp.fc_h.2.bias f4 [64]
000000 00 00 00 00 00 00 00 00 00 00 00 00 00 00 00 00
       0.0 0.0 0.0 0.0
000010 00 00 00 00 00 00 00 00 00 00 00 00 00 00 00 00
       0.0 0.0 0.0 0.0
000020 00 00 00 00 00 00 00 00 00 00 00 00 00 00 00 00
       0.0 0.0 0.0 0.0
000030 00 00 00 00 00 00 00 00 00 00 00 00 00 00 00 00
       0.0 0.0 0.0 0.0
000040 00 00 00 00 00 00 00 00 00 00 00 00 00 00 00 00
       0.0 0.0 0.0 0.0
000050 00 00 00 00 00 00 00 00 00 00 00 00 00 00 00 00
       0.0 0.0 0.0 0.0
000060 00 00 00 00 00 00 00 00 00 00 00 00 00 00 00 00
       0.0 0.0 0.0 0.0
000070 00 00 00 00 00 00 00 00 00 00 00 00 00 00 00 00
       0.0 0.0 0.0 0.0
000080 00 00 00 00 00 00 00 00 00 00 00 00 00 00 00 00
       0.0 0.0 0.0 0.0
000090 00 00 00 00 00 00 00 00 00 00 00 00 00 00 00 00
       0.0 0.0 0.0 0.0
0000a0 00 00 00 00 00 00 00 00 00 00 00 00 00 00 00 00
       0.0 0.0 0.0 0.0
0000b0 00 00 00 00 00 00 00 00 00 00 00 00 00 00 00 00
       0.0 0.0 0.0 0.0
0000c0 00 00 00 00 00 00 00 00 00 00 00 00 00 00 00 00
       0.0 0.0 0.0 0.0
0000d0 00 00 00 00 00 00 00 00 00 00 00 00 00 00 00 00
       0.0 0.0 0.0 0.0
0000e0 00 00 00 00 00 00 00 00 00 00 00 00 00 00 00 00
       0.0 0.0 0.0 0.0
0000f0 00 00 00 00 00 00 00 00 00 00 00 00 00 00 00 00
       0.0 0.0 0.0 0.0

base.mlp.fc2.0.0.weight f4 [64, 64]
000000 6f 93 62 be 2b 1a 53 bd 85 c3 54 3e bb a2 8c 3e
       -0.22126554 -0.051538628 0.2077771 0.27467903
000010 5d 65 5b be 4f 8d cb be 34 1f 91 bd d2 16 09 be
       -0.21425386 -0.39756247 -0.0708603 -0.13387612
000020 47 ed fe 3e 4f ee 51 3c 79 25 e9 3e a1 1a 6e be
       0.49790403 0.012813165 0.45536402 -0.23252346
000030 57 3a 25 3e 13 36 95 be ae be 78 be f5 5a 3f 3e
       0.16135536 -0.29142818 -0.24291489 0.18687041
000040 72 17 8e 3e ef 20 90 3b e3 1c 43 3e d5 0b de 3d
       0.27752262 0.0043984572 0.19053988 0.108421005
000050 f2 d5 2a 3d bc ce 7c 3e 64 7e 99 3e 83 ea 1d bd
       0.04170794 0.24688238 0.2997924 -0.038553726
000060 69 18 35 3e 82 d7 07 3f 9c 31 89 3e ba 2c 7d bd
       0.17685093 0.53063214 0.2679566 -0.061810233
000070 cc dd fd be ff be 28 3e 6f 82 d8 3e e9 40 26 3e
       -0.4958328 0.16479109 0.42287013 0.16235699
000080 9f 50 4a be d7 41 d9 3d 88 eb 4c be 14 11 71 3e
       -0.19757317 0.10608261 -0.20011723 0.23541671
000090 7e 7b 54 3e 01 1c 6e be c2 eb 84 bc 0e 71 ff bc
       0.20750234 -0.2325287 -0.0162257 -0.031181838
0000a0 eb 63 a3 bd a1 50 95 be 65 b6 cf be a1 5f c1 be
       -0.07978042 -0.29163077 -0.40568843 -0.37768272
0000b0 f9 6c ae be a7 53 f5 bd 5c af c7 3e fc 95 dc 3d
       -0.34067515 -0.11978846 0.39000976 0.10770795
0000c0 82 49 b1 3d fc 9a 4d be 6b 69 31 be a4 e8 81 be
       0.08656599 -0.20078653 -0.1732537 -0.25372803
0000d0 bf 54 62 be 38 b4 bd be 34 9d 92 bd 6e 2a 19 bf
       -0.2210264 -0.37051558 -0.0715889 -0.5983037
0000e0 4c 87 8e bd ee c5 8b bc 50 a1 1f 3e ea 70 84 be
       -0.069593996 -0.017062154 0.1558888 -0.25867397
0000f0 da 1b c1 be e5 b1 15 be 2f 24 81 3e 0c dd a3 bd
       -0.37716562 -0.14618643 0.25222918 -0.08001146
000100 46 75 94 be d1 d2 6e be c1 be 1e 3e 9f df da bd
       -0.28995723 -0.23322608 0.15502454 -0.106871836
000110 dc 15 fb 3c e0 68 8b be 9e 91 0c 3e 1f f1 30 3e
       0.030650072 -0.2722845 0.13727424 0.1727948
000120 cf 8b 36 3e 01 19 5d be c3 ea e4 bd f7 05 79 3d
       0.1782677 -0.2159157 -0.1117759 0.060796704
000130 dc 54 b2 3e 7f e7 2b bc 3d dd a3 bd 5c 2e eb bc
       0.34830368 -0.010492205 -0.08001182 -0.02870863
000140 fa 3c a0 be 46 c1 b3 bd 64 47 e7 3c ac a4 a4 be
       -0.3129652 -0.08777098 0.028232284 -0.32156885
000150 22 da 15 be b1 d0 79 3e 43 cc 8d be f8 91 84 3d
       -0.14633992 0.24396016 -0.27694902 0.06473154
000160 1a 4d b9 3c ab e9 6c be 92 10 5b be c2 8c 92 3e
       0.022619773 -0.23136012 -0.2139304 0.28623015
000170 63 2c e4 bd 26 5a 52 bd 1a e6 4e bc 89 58 80 3e
       -0.111412786 -0.051355503 -0.012628103 0.25067547
000180 ea 29 b9 be 7c 7e fe 3d 58 fe 15 3d 3c 1c 34 be
       -0.3616479 0.12426469 0.036619514 -0.17588896
000190 ab a7 eb 3d 38 e7 a6 3e a1 06 8c 3e 73 6f 9b be
       0.115065895 0.3259828 0.27348807 -0.30358467
0001a0 dc e6 67 3e 2d 2c 8b 3e 3a b3 0c be ae c0 67 be
       0.2264666 0.2718214 -0.13740245 -0.22632095
0001b0 f0 88 94 3e 46 96 f7 3c 08 c3 08 3e 2e 85 38 bd
       0.29010725 0.030223023 0.13355649 -0.045048885
0001c0 fd 00 2b 3d a3 31 64 3d 1c e1 dd 3e 8b f0 0e be
       0.04174899 0.0557114 0.43335807 -0.13958947
0001d0 1f 81 9f 3e 0f 8c 02 be ef 7a 26 3e d9 5e eb 3e
       0.311532 -0.1274874 0.16257833 0.459708
0001e0 0a 58 a6 be c1 2f 89 3d 1d e2 55 3e 82 51 bf 3e
       -0.32489043 0.066985615 0.20887037 0.37366873
0001f0 a2 2a cf be 64 b6 96 3b 2e 7a 02 3e 83 92 f8 3c
       -0.40462214 0.0045993794 0.1274192 0.0303433
000200 2c 6f cd bc d3 54 df bd f4 93 87 3e e8 12 b0 3e
       -0.025077425 -0.10904851 0.26480067 0.34389424
000210 a3 4d 2e be 28 09 6e 3e 2c 61 db bd 97 ec 19 be
       -0.17021804 0.2324568 -0.107118934 -0.15031658
000220 1c aa 99 be 13 96 76 be 13 29 59 be b5 1b ff bc
       -0.30012596 -0.24080686 -0.21207075 -0.031141141
000230 17 13 cb bd 3c 53 7d 3d 02 90 e9 bd 79 f3 14 3f
       -0.099157505 0.061846957 -0.114044204 0.5818401
000240 e1 d7 33 3b 5a 47 b0 3e 72 4f 66 3e b3 f4 ba be
       0.0027441906 0.34429437 0.22491243 -0.36514816
000250 e1 e3 ba 3e 69 8f 02 bf 38 1e 74 be 6b 4e ab be
       0.36501983 -0.51000077 -0.23839653 -0.33458266
000260 6f fc 0f be 2f 45 8f bd 4b dc 00 3e 3c bd 39 be
       -0.1406114 -0.069956176 0.12584035 -0.18138593
000270 50 f9 61 3e 17 86 0a 3e 6e 4a 30 3d 8b c0 cd be
       0.22067761 0.13527714 0.04303973 -0.4018596
000280 3c 37 1e be 16 1d ab 3d 8e 36 37 3e 43 d6 06 bf
       -0.15450758 0.08355157 0.17891905 -0.5267069
000290 df 5d e3 3e 60 cb a3 bc b5 ab cd 3d e3 3e 82 be
       0.44407555 -0.019994438 0.10042516 -0.25438604
0002a0 6f f1 cb bd 11 b4 27 3e 63 56 37 be 49 de 4c 3e
       -0.09958159 0.16377284 -0.17904048 0.2000667
0002b0 62 0a 93 3e 47 70 4d 3d 6c ec 3e bc 43 f3 fe 3c
       0.2871886 0.050155904 -0.011653047 0.031121856
0002c0 d7 77 65 3e 6a 2f fe bd 0a 61 a3 3e 84 eb 1d 3e
       0.22408997 -0.12411387 0.31909972 0.15421873
0002d0 6d 0f 2a 3e 16 cc 88 bd e7 c0 87 be 11 a7 4f bd
       0.16607447 -0.06679551 -0.2651436 -0.050696436
0002e0 90 17 99 be cb b9 21 be 2a a6 79 be c4 5b f8 3d
       -0.2990079 -0.1579353 -0.24379793 0.12126878
0002f0 1e c6 ba 3d 4d bc 5c 3c c4 a4 33 3e 47 c3 5d 3e
       0.09119819 0.013472629 0.17543322 0.21656524
000300 d9 41 ae 3e 2f 4d 2c be d9 73 20 bd a3 fd 30 3e
       0.34034613 -0.16826318 -0.03917298 0.17284255
000310 d4 11 18 bf 21 5b 79 3e 4c 8f a6 3c 12 84 5c 3e
       -0.59402204 0.24351169 0.020332001 0.21534756
000320 09 fe ce 3d 26 89 20 bd d0 44 a0 3b c8 e9 21 be
       0.10107047 -0.039193295 0.0048910156 -0.15811837
000330 54 24 19 3e eb 52 79 3e 0d 3d 3c bd de 34 34 be
       0.14955264 0.24348037 -0.04595666 -0.17598292
000340 c1 65 be 3e c9 b8 04 bf 53 2d 5b be 63 43 0f bd
       0.37187007 -0.5184446 -0.21404009 -0.034976374
000350 88 5f 02 3e 2f 46 65 3e ed 31 65 bc bf ce 2d be
       0.12731755 0.22390054 -0.013988954 -0.16973399
000360 62 b3 8b be 02 a7 61 3e 42 ad 15 be 4c 06 ab bc
       -0.27285296 0.22036365 -0.14616874 -0.020877026
000370 31 b4 96 3e 83 d0 87 3d 16 54 af 3e dd 39 cb 3e
       0.2943435 0.06631567 0.3424384 0.39692584
000380 6c 4d c4 be ff 08 a3 3e 51 84 b7 3e 7b 04 86 be
       -0.38340318 0.318428 0.35843137 -0.26175293
000390 c0 67 07 3e 44 08 9b 3e 75 67 88 3d 2a e1 07 3e
       0.13223171 0.30279744 0.06660358 0.13269487
0003a0 11 aa 94 3e 14 1c 2f bd 80 63 80 be ae 4e 0a 3e
       0.29036 -0.042751387 -0.25075912 0.13506576
0003b0 9b d9 d7 3e 7e d3 29 3e 53 48 f3 be 2d 8a 74 3e
       0.42158207 0.16584584 -0.47516116 0.23880835
0003c0 08 a2 be be 38 8a ed 3e 12 a5 80 3e 81 59 f9 3d
       -0.37232995 0.46394515 0.2512594 0.12175275
0003d0 1f 93 e2 bd ba eb d1 3d 39 54 28 3e d6 a9 46 be
       -0.11063217 0.102500394 0.16438378 -0.19400725
0003e0 34 61 fd 3d 69 61 b1 be e6 5d 9d 3e 43 1d ef bd
       0.12372056 -0.3464463 0.307357 -0.11675503
0003f0 b1 f1 23 be 0d 69 f1 bd 2d 67 1f be b0 eb 7c 3c
       -0.16010167 -0.11787615 -0.15566702 0.015437052

base.mlp.fc2.0.0.bias f4 [64]
000000 48 fe 8a 3d b0 40 5b be 74 d7 13 be 88 ed 38 be
       0.067867815 -0.21411395 -0.14437658 -0.18059361
000010 c0 a7 15 be 1c bc 16 be f3 e2 ea bd 5b 32 3a be
       -0.14614773 -0.14720196 -0.114690684 -0.18183272
000020 aa 36 38 be 03 02 46 be 1b 1a 87 be fa 19 b1 bd
       -0.17989603 -0.19336705 -0.26387104 -0.08647533
000030 49 57 75 be 2e 20 ca 3f 63 dd 82 bd f5 c8 2a be
       -0.23959078 1.579107 -0.063898824 -0.16678222
000040 d8 2d f7 bd ac 00 22 be 35 60 82 bd ac e4 b2 bd
       -0.12069291 -0.15820569 -0.06366006 -0.08735022
000050 18 a9 6b be 27 27 f7 bd 3d f4 8a bd c5 c9 45 bd
       -0.23013723 -0.120680146 -0.06784866 -0.048288126
000060 71 fb 25 be 81 1f 8b 3d 34 43 56 bd 64 50 7f be
       -0.16209199 0.06793118 -0.052310184 -0.2493301
000070 a4 c5 3e be 93 bc 4d be a1 19 1e be 0d aa 32 be
       -0.18630081 -0.20091467 -0.15439464 -0.17447682
000080 8c f6 8b bd 8a 14 21 3d 63 6c 07 be 63 89 3c 3d
       -0.068341345 0.03932623 -0.1322494 0.04602946
000090 26 f9 1f be c2 4a 4b 3c c6 5e 79 bd e3 56 48 be
       -0.15622386 0.01240796 -0.0608814 -0.19564395
0000a0 a9 a7 1f be c8 9c 18 3e 11 5a 54 be 1b d9 ef bd
       -0.15591301 0.14903557 -0.20737483 -0.117113315
0000b0 9e b1 6e be 79 6c d4 3d 59 d8 8f be 56 80 44 be
       -0.23309943 0.10372252 -0.28094748 -0.19189581
0000c0 2e 3a 5e bd ce 53 f9 bd be 0e 1c be 99 64 8e 3e
       -0.054254703 -0.121741876 -0.15239999 0.27811125
0000d0 bc 47 67 be f4 46 2a be 9c d1 e3 bd 95 ed a6 bd
       -0.22585958 -0.16628629 -0.11123964 -0.08150784
0000e0 e2 41 2f be 78 51 38 be c5 b0 2f be cd 40 3a be
       -0.17114976 -0.17999828 -0.17157276 -0.18188782
0000f0 8c d5 3e be 3f b0 ae bd be d0 0b be 9a d0 13 be
       -0.18636149 -0.0852971 -0.13653848 -0.14435044

base.mlp.fc2.0.2.weight f4 [64]
000000 67 0c 1c 3f ad d7 3d 3f ce ef 11 3f 9e 0c 4b 3f
       0.60956424 0.7415722 0.5700654 0.7931613
000010 a5 36 3b 3f c4 4c f5 3e ed a2 10 3f e7 7a 51 3f
       0.73130256 0.4791013 0.56498605 0.8182816
000020 2f 49 3e 3f 6e b5 38 3f b7 ee 2b 3f 63 2d 57 3e
       0.7433042 0.7215184 0.67161125 0.21013407
000030 58 51 33 3f c3 d5 b9 3d 40 b5 46 3e 37 20 3a 3f
       0.70045996 0.09073975 0.19405079 0.72705406
000040 b9 20 23 3f 42 a8 33 3f fe 6f 4b 3f 78 f1 3b 3f
       0.63721806 0.70178616 0.7946776 0.7341533
000050 96 b7 52 3f 6b 7d fe 3e 2b d9 2d 3f 90 dd f3 3e
       0.8231138 0.4970506 0.679095 0.47629976
000060 69 90 35 3f 30 db 09 3f 35 98 e3 3e ef 49 0e 3f
       0.7092348 0.5385008 0.44452062 0.55581564
000070 ee 0b 1b 3f ed fc 3b 3f 0f aa 2f 3f 6f bd 33 3f
       0.6056508 0.7343281 0.68618864 0.7021093
000080 00 14 2a 3f 24 b0 fa 3e 8a df db 3e 84 5c 08 3f
       0.6643677 0.4896251 0.42943984 0.5326617
000090 a7 04 22 3f 40 81 91 3e 3b 42 9c 3e 7c f2 20 3f
       0.6328835 0.28418922 0.3051928 0.6287
0000a0 78 81 1d 3f c0 c7 80 3e 91 53 21 3f 04 d4 3a 3f
       0.6152568 0.25152397 0.6301814 0.7297976
0000b0 c6 96 3a 3f 57 7d 00 3e 35 12 2d 3f 4a 98 31 3f
       0.7288631 0.12547813 0.67605907 0.69373
0000c0 ff dd dc 3e 34 77 3b 3f d7 63 87 3e a2 23 0e be
       0.4313812 0.73228765 0.2644336 -0.1388078
0000d0 dd 85 0a 3f 0b 9e 15 3f 0b 5d d8 3e 4d 92 0f 3f
       0.5411051 0.5844428 0.42258486 0.5608261
0000e0 5e 23 27 3f 3d a2 1d 3f ee 67 2f 3f 3b ea 55 3f
       0.6528834 0.6157568 0.6851796 0.8356053
0000f0 94 55 fa 3e fa f5 c6 3e 32 24 0f 3f ee c5 a8 3e
       0.48893416 0.3885954 0.55914605 0.32963508

base.mlp.fc2.0.2.bias f4 [64]
000000 c0 30 3d 3d 5d 27 41 3e 83 3e 5c 3d c7 41 f1 3d
       0.04618907 0.18862672 0.053770553 0.11780124
000010 43 95 23 3d ce c5 24 3e 22 74 31 3d 47 5f bc 3d
       0.03993727 0.16091082 0.043323644 0.0919786
000020 0b ac df 3d dc f2 f8 3d 7d b1 6e 3e 15 c3 38 3d
       0.109214865 0.12155697 0.23309894 0.04510792
000030 f1 07 2b 3e de a5 ea be 11 c1 ba 3d f1 fd 4e 3e
       0.16702248 -0.45829672 0.09118856 0.20214058
000040 24 24 0b 3e e4 40 2a 3e 1f 45 db 3d 3f e1 7d bc
       0.13588005 0.16626316 0.10706543 -0.015495597
000050 6f 5d bf 3d 0a 3e 29 3e b1 e1 67 3d b0 a3 f6 3d
       0.09343993 0.16527572 0.05661172 0.1204294
000060 09 02 97 3d b8 93 97 bd 58 a2 44 be 55 e0 7f 3e
       0.07373435 -0.07401222 -0.19202554 0.2498792
000070 a4 2e dc 3c e9 92 d6 3d 0a 5a 46 bc 1c ec e2 3d
       0.026877709 0.1047724 -0.012106428 0.110801905
000080 83 9a e2 3d b8 c3 16 3e 52 76 6b 3d 19 b4 99 3c
       0.11064627 0.14723098 0.057485886 0.018762635
000090 87 6a 8a 3d 2e 05 9d 3d a8 17 12 3d e5 73 52 3e
       0.067586 0.076670036 0.03566709 0.20552023
0000a0 6d 71 80 3c a4 be 44 bc cf 01 e5 3d 02 30 0c 3e
       0.015679086 -0.012008343 0.111819856 0.13690189
0000b0 de de de 3d 13 0e 2d be 52 1d 84 3d 22 bb 5b 3e
       0.10882352 -0.168999 0.06450905 0.21458104
0000c0 89 09 4f 3d 7d 34 1e 3e 7e e4 1f 3d a7 55 d6 bd
       0.050546203 0.1544971 0.039036267 -0.10465556
0000d0 a1 ef 02 3e c2 9b ba 3d 84 63 a6 3d 30 7e 98 3d
       0.12786724 0.0911174 0.0812445 0.07445943
0000e0 1a e6 a4 3d 23 ef e7 3d 09 b2 11 3e 9f 9e 87 3d
       0.08051701 0.113249086 0.14228071 0.066220514
0000f0 3d 2c e8 3d ea 48 b5 3d 93 6d db 3d e1 2a 01 3e
       0.11336563 0.08851798 0.10714259 0.12614013

act.action_out.linear.weight f4 [5, 64]
000000 e1 65 66 3d 58 41 42 3e fa 6a 87 3d 0c cb f6 3d
       0.056249503 0.18970239 0.06612201 0.12050447
000010 b6 4c 83 3d be b0 34 3d 0b 54 ed 3b 6e 35 54 3d
       0.06411116 0.044113867 0.0072426847 0.051808767
000020 d1 a1 1e 3e 9d 16 1a 3e 8d 4e ac bd 22 31 0f 3d
       0.15491416 0.15047689 -0.0841342 0.034958966
000030 2f 0e 0a be 04 ac 98 bb de 4a b8 bc 53 96 75 3e
       -0.13481973 -0.0046591777 -0.022496637 0.23983125
000040 9d d4 0f be b0 2d ed bd 69 f2 57 3e ae ab ea bc
       -0.1404595 -0.1158098 0.21088566 -0.028646316
000050 12 21 69 3d 40 3b be bd ef f6 e7 bc e0 be 3d 3e
       0.056916304 -0.09288645 -0.02831599 0.18529844
000060 f7 db 58 3d c9 da 16 3e b5 0b 7f be 02 17 a6 bd
       0.05294415 0.14731897 -0.2490681 -0.08109857
000070 0b ba 9e 3d 77 47 ce 3d 1e 39 1f be 65 a8 7a be
       0.07750329 0.100722246 -0.15549132 -0.244783
000080 60 b3 03 3e b9 0e ca bd 94 5e ad bd d6 35 23 be
       0.12861395 -0.098660894 -0.08465305 -0.15938506
000090 2f 6c df 3d ee 2d 6e bd 0e 05 2c 3e 12 ba 90 bd
       0.10909306 -0.05814927 0.16798803 -0.0706674
0000a0 5c 77 86 3d fa ac 8f 3c fe 5b 22 3d 3f a0 bb 3d
       0.06565735 0.017538536 0.03963851 0.09161424
0000b0 d2 35 0e 3e 66 a5 60 bd ac 93 d9 3d 88 3e 82 bd
       0.13887718 -0.054845236 0.10623869 -0.06359583
0000c0 f0 4b ba 3b f0 b0 16 bd 2d 95 e4 3d 13 a9 80 bd
       0.005685322 -0.036789834 0.111612655 -0.06282248
0000d0 25 30 a2 3c a1 78 8d 3d 65 f9 f5 3d 3d 13 2d be
       0.019798348 0.06907774 0.12010459 -0.1690187
0000e0 94 bf c4 3d b0 2e 34 be 52 ee 47 be 0e 58 47 3e
       0.09606853 -0.17595935 -0.19524506 0.19467184
0000f0 e0 ef 30 be 27 56 11 be 1b 02 04 3e 9f b0 5c bd
       -0.17279005 -0.14193021 0.12891428 -0.053879377
000100 6e 18 e6 3c f9 1b 96 bd 0a f9 d1 bd 5c a0 c3 bc
       0.02808782 -0.07329554 -0.102525786 -0.023880176
000110 3b 0f ec bd 2c 6b a0 3d 5c ac 72 bd 98 ef 29 bd
       -0.115263425 0.078329414 -0.059246406 -0.04148826
000120 b5 53 9b bd 75 9e 07 be cb 15 4d 3e 53 03 64 bc
       -0.07584325 -0.1324404 0.20027845 -0.013916808
000130 67 8e 16 3e cd 2b cf 3d 1e 86 5a 3d 19 ec c2 bd
       0.1470276 0.10115776 0.05335056 -0.09517688
000140 c5 03 d1 3d 75 82 0a 3e 7e 92 cc bd 9b ff 3f be
       0.10205797 0.13526328 -0.09988879 -0.1874985
000150 2c 23 5f bd 40 cf 3b 3e 8e 34 28 be c1 00 0b be
       -0.054476902 0.18340778 -0.16426298 -0.13574506
000160 43 6d b5 bd a4 92 5c 3c 7c ca 8c 3d 8c 9d 66 3e
       -0.08858731 0.013462696 0.06874558 0.22521037
000170 49 84 d8 bd 68 df ea bd b1 fc f0 bc 68 ac 9f 3d
       -0.105721064 -0.114683926 -0.029417368 0.07796556
000180 d3 eb db bd 79 c3 22 3e 93 13 c6 3d f6 67 8d 3d
       -0.10738339 0.1589488 0.09671702 0.069045946
000190 dd b5 a7 bc b1 ef b6 3c f6 14 df bd f8 58 92 3d
       -0.020472461 0.02233109 -0.1089267 0.07145876
0001a0 91 04 3c be 6d 42 e7 3d 00 03 c3 bd 5a 88 02 be
       -0.18361117 0.112919666 -0.095220566 -0.12747326
0001b0 0c 0f d0 bd 86 ed f2 bd 64 ac ed bd e0 58 81 3d
       -0.1015912 -0.1186171 -0.116051465 0.0631578
0001c0 7c 9c 8b 3d e9 94 72 3d 0a a8 c6 bd 84 44 2f 3d
       0.068169564 0.059224043 -0.0970002 0.04278995
0001d0 46 65 bb 3d ee f2 ed bd b2 b4 b5 3b 9a 4f 6a 3d
       0.09150176 -0.11618601 0.005545222 0.05720482
0001e0 11 3a 87 bd 73 58 f8 3d 79 59 ec 3d 22 26 8f bd
       -0.06602872 0.12126245 0.11540503 -0.06989695
0001f0 53 ea fa 3d 1b a0 c5 3d c9 84 55 bb bc b6 11 3d
       0.12251725 0.09649678 -0.0032580367 0.03557466
000200 c0 8d 8c be 01 5d b5 bd ff 35 a1 bc 6e 1f 67 be
       -0.27451897 -0.0885563 -0.019679068 -0.22570583
000210 67 d0 99 bd 19 38 49 bc 7c 21 b7 bd 26 bd b4 3d
       -0.07510453 -0.012281441 -0.089419335 0.0882514
000220 96 71 16 bd 47 f0 5a bd 4e 84 a4 3d a3 89 2c 3d
       -0.036729418 -0.053451803 0.080330476 0.042123448
000230 a1 54 3c 3d ef f0 34 3c 5d be 25 3d 64 6c d4 bd
       0.045979146 0.011043771 0.040464748 -0.10372236
000240 18 97 c8 3b eb 47 3f 3d 34 a7 1b 3e 2c 60 20 3d
       0.0061215274 0.046699446 0.15200502 0.039154217
000250 a5 06 09 be 59 bb ef 3c cd 81 2a 3e 05 48 89 bd
       -0.13381441 0.029264139 0.16651078 -0.0670319
000260 36 54 fa bc a8 8f aa bd b6 26 8a 3d d2 cc a4 3d
       -0.030557733 -0.083281815 0.06745665 0.08046879
000270 3a f3 d0 bc 65 55 2c bc 20 22 b6 bd f6 41 b2 3d
       -0.025506604 -0.0105184065 -0.088932276 0.08703987
000280 9a d4 4b 3d 25 5b 02 3e 69 76 97 bc 48 60 0c bc
       0.0497633 0.12730081 -0.01848908 -0.008567877
000290 1c 37 f6 3d ab a3 75 3d 3b f4 cd bd c7 15 b5 3d
       0.1202223 0.05997054 -0.10056349 0.08842044
0002a0 68 d5 84 3c 5b f2 8b 3c aa 2f 57 3d 3b a8 30 3d
       0.016215041 0.017083338 0.05253569 0.043129187
0002b0 18 bb a1 3d 0f 35 e9 3c 34 97 01 bd c4 d7 db 3d
       0.078970134 0.028467683 -0.03163834 0.107345134
0002c0 84 50 01 3d 6e 61 57 3c 37 4d 12 bd ab 65 db 3d
       0.031570926 0.013145788 -0.03571817 0.10712751
0002d0 c2 73 12 3d 93 81 e5 3b c6 4f 96 bd 78 9f 5f bd
       0.035754927 0.007003972 -0.07339434 -0.05459544
0002e0 f2 a0 33 3c 67 f1 cd 3c 13 01 ae 3d bd 18 07 be
       0.010963665 0.025139524 0.08496299 -0.1319303
0002f0 f9 0d 69 3d bc 10 e0 3d 77 32 0e 3c e2 54 a7 3d
       0.05689809 0.10940692 0.008679024 0.08170487
000300 f4 3e 02 3e bf 39 a7 bb 89 e6 f3 3c be 7e f6 3d
       0.12719327 -0.0051033194 0.029773014 0.12035893
000310 90 7b f7 3d 5d 22 20 be 5c fa a5 3c aa de 3b be
       0.120841146 -0.15638109 0.020260982 -0.18346658
000320 fb f1 2e bd 09 e4 b9 3c eb a1 df bd b4 5a 89 bd
       -0.04271124 0.022691743 -0.10919555 -0.067067534
000330 84 5e e7 bc 47 d8 07 3d af 2e cb bd 23 77 27 3d
       -0.02824331 0.033165243 -0.099210136 0.040885102
000340 37 4d 0f be ff ab c1 ba 93 75 95 3d 94 68 55 3e
       -0.13994299 -0.001477599 0.07297816 0.20840675
000350 c9 80 85 3d 83 ef 65 bd 62 c5 30 3d b9 c7 dc 3d
       0.065187044 -0.05613662 0.04315699 0.107802816
000360 0f 3a 90 3d 9c d5 e5 3d 00 5f ee bc 1c 8b 22 be
       0.07042324 0.112223834 -0.029098034 -0.15873379
000370 91 1d fe 3d cd 98 de bc 45 fe 64 3e d3 5d 2e bc
       0.12407983 -0.02717247 0.22362621 -0.010642487
000380 6b 91 a0 bd 99 bd f1 bd fb 1e 77 3d 12 cd 5c bd
       -0.07840236 -0.11803741 0.06033228 -0.053906508
000390 4e 8a 08 3c 63 47 b2 bd 32 cd 0f 3e 6c 6b 1a be
       0.008333756 -0.08705022 0.1404312 -0.1508004
0003a0 8f dc ae 3d a4 c3 72 bc fe ac 94 bd 77 6b 81 bd
       0.08538162 -0.014817152 -0.07259558 -0.063193254
0003b0 d9 71 16 3d 96 07 2b 3c f8 71 4e 3d 3b 89 15 be
       0.036729667 0.01043882 0.050401658 -0.1460313
0003c0 01 ce 75 3c 0f b5 e5 bc 14 8a 83 bc 98 a1 e8 3b
       0.015002728 -0.028040437 -0.016057052 0.0070993416
0003d0 21 8c e2 bc 3f 36 19 bd 3a 4b 73 bc 5d 67 13 bd
       -0.02765471 -0.03740525 -0.014849478 -0.035987247
0003e0 7b 9a db 3d 73 1f b5 3c d1 8b 9e bc 35 f6 8d 3d
       0.10722824 0.022109723 -0.019353779 0.06931726
0003f0 9d 56 91 bd 50 ac a0 bd 8d 13 ba 3d a5 46 e8 bd
       -0.07096598 -0.07845366 0.0908576 -0.113415994

act.action_out.linear.bias f4 [5]
000000 aa b5 d4 bd 51 69 05 ba c8 81 1d 3e e5 9e 94 bb
       -0.10386212 -0.0005089241 0.15381539 -0.0045355433
000010 bb b2 eb 3d
       0.115086995
