light_mappo-main/results/MyEnv/MyEnv/mappo/check/run18/models/critic.pt (torch, 47669 bytes, 15 tensors)

base.feature_norm.weight f4 [28]
1.8087282 1.0645647 0.7501597 0.89233625 0.8221972 0.86612135 0.69514775 0.8099859
0.932063 1.1065408 1.1291789 0.86404145 0.8793646 0.91217095 0.9537261 1.0235956
0.70194715 0.82111573 0.99814343 0.9260142 0.9255794 0.9381982 0.9057041 0.91972935
0.9564556 1.0435354 0.9605828 1.0705447
00000000: 6884 e73f a843 883f 770a 403f 2670 643f
00000010: 847b 523f 21ba 5d3f 34f5 313f 3c5b 4f3f
00000020: ae9b 6e3f 21a3 8d3f ef88 903f d231 5d3f
00000030: 0a1e 613f 0984 693f 6527 743f 2e05 833f
00000040: cfb2 333f a434 523f 5486 7f3f 440f 6d3f
00000050: c6f2 6c3f c22d 703f 39dc 673f 6273 6b3f
00000060: 46da 743f 9192 853f c1e8 753f 9c07 893f

base.feature_norm.bias f4 [28]
-0.25326174 0.039296508 -0.045158647 0.16486171 -0.005378661 -0.055332404 -0.069837645 -0.012016587
0.031372532 -0.18381625 0.10578654 0.017985787 0.028489422 0.16568567 0.07507396 0.0880346
0.021379426 0.033758324 -0.017851688 -0.1506596 -0.074572325 -0.02401317 -0.12916796 -0.029726382
-0.04358952 -0.05413973 -0.057389274 -0.06870515
00000000: 86ab 81be 60f5 203d 46f8 38bd 82d1 283e
00000010: 7b3f b0bb 3ba4 62bd 0a07 8fbd 38e1 44bc
00000020: 7c80 003d 543a 3cbe 9da6 d83d ee56 933c
00000030: a662 e93c 81a9 293e 60c0 993d 7c4b b43d
00000040: e823 af3c 2b46 0a3d b43d 92bc 8346 1abe
00000050: 60b9 98bd 44b7 c4bc 9b44 04be be84 f3bc
00000060: ed8a 32bd 9fc1 5dbd 0411 6bbd 49b5 8cbd

base.mlp.fc1.0.weight f4 [64, 28]
0.043467015 0.07060009 0.02361318 0.03813905 0.11804095 0.12059535 -0.100915715 -0.016629767
0.02082739 0.187409 0.06798452 0.020363472 -0.0015732709 -0.22456054 0.19243366 -0.029974258
-0.1573809 0.13100518 0.0009873178 -0.011577295 -0.016272997 -0.023778323 -0.028041039 0.07542088
-0.044012263 0.16720594 0.051213004 0.09521254 0.31095368 -0.03452762 -0.18036595 -0.043355156
0.2944657 0.40386412 0.24172884 0.28247383 -0.07023326 -0.08990764 -0.13265404 -0.12619501
0.044915695 0.12134066 0.18390533 0.023225578 -0.11896246 0.04332506 -0.15483248 0.015020251
-0.4139257 -0.33086535 -0.15764736 0.19171344 -0.060767718 -0.25573462 -0.16723002 -0.52921516
0.010652393 -0.008481663 0.17540196 0.0749181 -0.080735125 -0.0046298043 0.06912044 0.040877536
0.09535119 0.019348692 0.0589457 0.08598191 0.2257494 0.23523016 -0.044538222 0.14724179
0.018929597 -0.061114926 0.03583222 -0.12146063 -0.035426635 0.0024858722 -0.024929043 0.035183657
0.10314789 0.06417518 0.098737456 -0.08460313 0.31203067 -0.13348505 -0.058920834 -0.55318886
-0.059992146 -0.02664735 -0.20132765 0.07693471 0.03484606 -0.041049745 0.13750193 0.0030576526
-0.060624573 -0.08051583 0.059527762 0.26588094 0.04922044 -0.0098821465 0.06888005 0.07438982
0.113820344 0.07628018 0.08874599 0.12705989 0.2794373 -0.11780364 0.055925574 0.026102327
-0.034256816 0.10054051 -0.23357381 -0.001758369 -0.062289905 -0.16069435 0.22014315 -0.38453114
-0.0065207863 0.043611698 0.03286112 -0.059156 -0.47933343 -0.07698472 -0.045969952 0.2730929
-0.18175802 -0.038393173 -0.023605777 -0.055483717 -0.15219732 -0.149092 -0.19585569 -0.091192044
0.17363603 -0.015686525 -0.005418179 0.051043253 -0.009289077 -0.041380584 0.05664248 -0.15224487
0.16897383 -0.14766693 0.14172828 -0.038163975 0.40459907 -0.3093269 0.19297537 -0.010084333
0.22184339 -0.31933662 -0.24772853 0.16960107 -0.13171326 -0.33484438 0.19618239 -0.1429133
0.33522683 0.1221827 0.051100537 0.11156709 -0.28570178 -0.24832909 0.09365171 -0.116583
0.24578893 0.2526575 0.025400404 0.035517536 0.16683538 0.08820638 -0.024298454 -0.15659717
0.091645345 -0.018705038 -0.24988821 -0.18802625 0.26960966 -0.24045941 0.0403497 -0.3169782
-0.007825057 0.010510252 -0.10067492 0.032415822 -0.34676453 -0.045824528 -0.13263255 -0.042656
0.19191368 0.12409274 -0.34991613 0.055118248 0.31132203 -0.11045543 -0.06325782 0.39657736
-0.11407044 -0.15328091 0.014171825 -0.19839115 0.19104616 -0.31910568 -0.16210152 0.13843898
0.3332139 -0.20659146 -0.108661205 -0.0058777365 -0.1340568 -0.30629867 -0.27493396 0.19808955
-0.0754864 0.08198476 0.049585193 -0.28675237 0.2560791 0.51942766 0.07802696 -0.08748833
-0.1638918 0.626485 -0.35002905 0.3128601 0.052180182 0.20506516 -0.03116554 0.11641961
-0.44310924 -0.2994078 0.057043444 0.40339965 0.33927512 0.12538536 0.029752526 -0.32213935
-0.08496861 0.07258804 -0.4321121 -0.050322223 0.100491896 -0.3735274 -0.4121664 -0.04658709
-0.37656206 0.19883387 0.24178468 0.12987909 -0.61598927 0.42325556 0.23280708 0.24004604
00000000: 780a 323d c896 903d 6d70 c13c b137 1c3d
00000010: 74bf f13d b2fa f63d e6ac cebd 263b 88bc
00000020: 349e aa3c 25e8 3f3e 783b 8b3d 4cd1 a63c
00000030: 3636 ceba 33f3 65be 540d 453e 938c f5bc
00000040: 7528 21be 3926 063e e368 813a b2ae 3dbc
00000050: f34e 85bc c2ca c2bc 52b6 e5bc 4376 9a3d
00000060: 3446 34bd 0938 2b3e bac4 513d cbfe c23d
00000070: 5235 9f3e d56c 0dbd dab1 38be 2d95 31bd
00000080: 35c4 963e 47c7 ce3e c487 773e 69a0 903e
00000090: 75d6 8fbd 7f21 b8bd 76d6 07be 4439 01be
000000a0: 85f9 373d 7481 f83d ae51 3c3e 9143 be3c
000000b0: 97a2 f3bd 9e75 313d 688c 1ebe 8017 763c
000000c0: 12ee d3be 2f67 a9be 4f6e 21be 8750 443e
000000d0: 92e7 78bd a6ef 82be 593e 2bbe a57a 07bf
000000e0: 6087 2e3c acf6 0abc 929c 333e a96e 993d
000000f0: 7558 a5bd 9db5 97bb 048f 8d3d 346f 273d
00000100: 7c47 c33d 2681 9e3c 0c71 713d 4917 b03d
00000110: da2a 673e 2de0 703e b66d 36bd 8dc6 163e
00000120: 3e12 9b3c a553 7abd cec4 123d 5ac0 f8bd
00000130: 851b 11bd 04ea 223b fe37 ccbc bd1c 103d
00000140: 333f d33d 476e 833d dd36 ca3d 6844 adbd
00000150: 7cc2 9f3e 4eb0 08be f956 71bd c99d 0dbf
00000160: 53ba 75bd 8b4b dabc d628 4ebe f28f 9d3d
00000170: beba 0e3d c723 28bd 4ecd 0c3e e662 483b
00000180: 7951 78bd 7ce5 a4bd 62d3 733d 8c21 883e
00000190: 5f9b 493d bae8 21bc fc10 8d3d b159 983d
000001a0: a41a e93d c838 9c3d 75c0 b53d fd1b 023e
000001b0: 6812 8f3e 0943 f1bd 3712 653d 8cd4 d53c
000001c0: e050 0cbd 2fe8 cd3d f92d 6fbe 1379 e6ba
000001d0: b323 7fbd 0f8d 24be 356d 613e 44e1 c4be
000001e0: 52ac d5bb 2ea2 323d 6299 063d 904d 72bd
000001f0: 316b f5be 2aaa 9dbd fd4a 3cbd d5d2 8b3e
00000200: c61e 3abe 2942 1dbd e760 c1bc e542 63bd
00000210: 9dd9 1bbe 93ab 18be 658e 48be e5c2 babd
00000220: a5cd 313e 0781 80bc fb8a b1bb bb12 513d
00000230: 3631 18bc b07e 29bd f201 683d 14e6 1bbe
00000240: 7a07 2d3e 0036 17be 3821 113e d451 1cbd
00000250: 9c27 cf3e 1860 9ebe 569b 453e c238 25bc
00000260: ea2a 633e 1780 a3be 8cac 7dbe e7ab 2d3e
00000270: d7df 06be b970 abbe 09e4 483e dd57 12be
00000280: daa2 ab3e ec3a fa3d cc4e 513d 497d e43d
00000290: 8147 92be fb49 7ebe 78cc bf3d 11c3 eebd
000002a0: 18b0 7b3e 535c 813e 8214 d03c d67a 113d
000002b0: e5d6 2a3e 8ca5 b43d 8d0d c7bc 025b 20be
000002c0: 8eb0 bb3d 4f3b 99bc b2e2 7fbe f489 40be
000002d0: 470a 8a3e fe3a 76be ba45 253d f74a a2be
000002e0: ab34 00bc 3133 2c3c a72e cebd 74c6 043d
000002f0: 1f8b b1be 80b2 3bbd d4d0 07be 0fb8 2ebd
00000300: 0585 443e 5624 fe3d 3528 b3be acc3 613d
00000310: 9a65 9f3e 7536 e2bd 518d 81bd 300c cb3e
00000320: c39d e9bd acf5 1cbe f130 683c 0d27 4bbe
00000330: 9ba1 433e d261 a3be f1fd 25be f3c2 0d3e
00000340: 039b aa3e b68c 53be c489 debd 079a c0bb
00000350: 3046 09be 2ed3 9cbe 25c4 8cbe fdd7 4a3e
00000360: 9d98 9abd a0e7 a73d d819 4b3d 35d1 92be
00000370: cd1c 833e 36f9 043f 99cc 9f3d 152d b3bd
00000380: 41d3 27be 5261 203f 0237 b3be 332f a03e
00000390: e3ba 553d 9afc 513e e04e ffbc 686d ee3d
000003a0: 37df e2be fb4b 99be 63a6 693d 668a ce3e
000003b0: 78b5 ad3e 0565 003e 92bb f33c 73ef a4be
000003c0: 0604 aebd 0aa9 943d cc3d ddbe ad1e 4ebd
000003d0: b2ce cd3d fc3e bfbe 7907 d3be 1bd2 3ebd
000003e0: becc c0be 1b9b 4b3e 6796 773e 06ff 043e
000003f0: 79b1 1dbf f4b4 d83e fb64 6e3e a1ce 753e

base.mlp.fc1.0.bias f4 [64]
-0.16112882 -0.124289006 -0.2841759 -0.102743484 -0.064633004 0.0067775287 0.012376267 0.012187826
0.080443166 0.09533763 -0.20736526 -0.14460772 -0.039059307 -0.20186123 0.052014735 0.2797214
-0.107515745 0.0028584967 -0.13487488 0.2130896 -0.0021080035 -0.04641515 0.11109067 0.05153493
-0.23028979 0.0012896672 0.07533577 -0.18642402 -0.022509843 -0.21124469 -0.27752274 -0.35308543
-0.0701916 0.06146676 -0.24890275 0.11920992 -0.000988006 -0.13643612 0.09603213 0.101164974
-0.041289598 0.16410586 -0.07786474 -0.0035565326 0.4845412 0.13236998 0.062030364 -0.07028202
-0.047323715 0.0078730965 0.014193468 -0.06361498 -0.11834924 0.024726301 0.107932694 0.08498764
0.029512487 -0.2679985 -0.0050550713 -0.20434695 0.019679911 -0.06688281 0.15850005 0.07582554
00000000: f4fe 24be 3c8b febd 817f 91be 2d6b d2bd
00000010: 4f5e 84bd 0816 de3b d4c5 4a3c 73af 473c
00000020: 63bf a43d 6040 c33d 8f57 54be 0c14 14be
00000030: a7fc 1fbd b6b4 4ebe 670d 553d a537 8f3e
00000040: 3731 dcbd 9e55 3b3b a41c 0abe 2934 5a3e
00000050: 6e26 0abb d01d 3ebd 8183 e33d 4a16 533d
00000060: 16d1 6bbe 0d0a a93a a449 9a3d f0e5 3ebe
00000070: 9066 b8bc 8750 58be 7617 8ebe 9dc7 b4be
00000080: 9dc0 8fbd 92c4 7b3d 5de0 7ebe 5524 f43d
00000090: fb7f 81ba e9b5 0bbe 7eac c43d 952f cf3d
000000a0: 481f 29bd 5e0b 283e 8c77 9fbd b714 69bb
000000b0: c915 f83e ff8b 073e 8d13 7e3d 05f0 8fbd
000000c0: 83d6 41bd 29fe 003c b88b 683c 9248 82bd
000000d0: 1661 f2bd d08e ca3c d10b dd3d 000e ae3d
000000e0: 2cc4 f13c 1937 89be 03a5 a5bb 5440 51be
000000f0: c437 a13c dbf9 88bd d64d 223e 6c4a 9b3d

base.mlp.fc1.2.weight f4 [64]
0.9986272 0.86940473 1.2853688 1.0096269 0.8572625 1.0625789 0.8514826 0.79947054
1.0305786 1.1107482 1.0104644 0.9941213 1.1093309 1.0632144 0.9006705 1.096918
0.8883576 0.795545 0.9094293 0.889024 0.99587244 1.0347441 1.3207269 0.94434935
1.1548307 0.97685146 0.8888191 1.2275382 1.0794679 1.0313897 1.1019334 1.1621329
0.99429476 0.8056037 1.1946979 1.0185704 0.7546184 0.9610628 1.0560462 1.0176566
0.8553678 0.94509035 0.9175885 1.0026152 0.814058 1.0005978 0.8897779 0.9925556
0.92541575 0.9337289 0.87617064 0.799993 0.79513204 0.9400856 0.96417767 1.0533764
0.9736813 1.0853627 0.99595714 0.885156 0.9358595 0.914661 1.1011888 0.88090646
00000000: 08a6 7f3f 4f91 5e3f f786 a43f 743b 813f
00000010: 8e75 5b3f 9602 883f c4fa 593f 1aaa 4c3f
00000020: 00ea 833f ff2c 8e3f e656 813f bc7e 7e3f
00000030: 8efe 8d3f 6917 883f 5892 663f cf67 8c3f
00000040: 676b 633f d6a8 4b3f 5cd0 683f 1497 633f
00000050: 7ff1 7e3f 7f72 843f 940d a93f e1c0 713f
00000060: 7ed1 933f f012 7a3f a689 633f f91f 9d3f
00000070: 012c 8a3f 9404 843f 270c 8d3f c5c0 943f
00000080: 1a8a 7e3f 0b3c 4e3f dceb 983f 8460 823f
00000090: ac2e 413f 3608 763f 862c 873f 9242 823f
000000a0: 62f9 5a3f 71f1 713f 14e7 6a3f b255 803f
000000b0: 1b66 503f 9713 803f 7cc8 633f 2018 7e3f
000000c0: 0ce8 6c3f db08 6f3f b84c 603f 57cc 4c3f
000000d0: c68d 4b3f 73a9 703f 59d4 763f 0ad5 863f
000000e0: 2d43 793f 2aed 8a3f 0cf7 7e3f 9599 623f
000000f0: 7d94 6f3f 3927 6a3f c1f3 8c3f 1683 613f

base.mlp.fc1.2.bias f4 [64]
-0.42477405 -0.0953129 -0.44607157 -0.18184431 -0.116353095 -0.00054444734 0.076031834 0.18315352
0.13910666 0.27912474 -0.21152753 -0.13694681 -0.20943546 -0.22675395 0.092598006 0.26059154
-0.19094147 0.14953291 -0.15049726 0.2737609 -0.10954842 -0.091569625 0.19920264 0.120513655
-0.37834814 0.085535154 0.1669221 -0.26842472 -0.06084239 -0.10860223 -0.21022174 -0.4339277
-0.072810434 0.17549546 -0.21316215 0.34116894 0.10314757 -0.14219724 0.21919169 0.28181744
0.057756174 0.25350815 -0.073825136 0.007930898 0.40756276 0.21281655 0.19539137 -0.14976883
-0.028256105 -0.036314327 0.032979205 -0.0100515 -0.09194746 0.006792757 0.061577443 0.12251457
0.16212505 -0.34084103 -0.015723314 -0.18891981 0.039471027 -0.14412154 0.15222207 0.18739992
00000000: fc7b d9be 6933 c3bd 7e63 e4be 6535 3abe
00000010: 884a eebd 3eb9 0eba 94b6 9b3d 998c 3b3e
00000020: fa71 0e3e 70e9 8e3e ac9a 58be c93b 0cbe
00000030: 4076 56be 3032 68be 06a4 bd3d 416c 853e
00000040: 2986 43be 281f 193e f41b 1abe 642a 8c3e
00000050: ec5a e0bd db88 bbbd c7fb 4b3e ddcf f63d
00000060: d9b6 c1be 0e2d af3d a1ed 2a3e f76e 89be
00000070: df35 79bd d96a debd 5e44 57be c62b debe
00000080: a31d 95bd 15b5 333e 2e47 5abe b2ad ae3e
00000090: 083f d33d 279c 11be c973 603e 604a 903e
000000a0: bd91 6c3d d2cb 813e a231 97bd 99f0 013c
000000b0: 11ac d03e 95ec 593e ad14 483e 005d 19be
000000c0: 5979 e7bc 55be 14bd 3415 073d 0caf 24bc
000000d0: f34e bcbd c795 de3b a138 7c3d ebe8 fa3d
000000e0: 1c04 263e b782 aebe 2ece 80bc 3274 41be
000000f0: 5fac 213d 9994 13be 1ae0 1b3e c4e5 3f3e

base.mlp.fc_h.0.weight f4 [64, 64]
0.032056723 0.007818245 0.06556118 0.41587508 0.06462525 -0.3809 0.11409278 0.08752155
0.05195709 0.07678689 0.1267702 -0.21503633 0.06754926 0.21181217 0.2824872 -0.33112693
-0.21318446 0.020685595 -0.059845857 0.07936739 -0.05149308 0.26217142 -0.078955404 -0.44446224
0.20674476 -0.27749577 0.15363215 -0.22745559 0.36879385 0.027774362 -0.16954546 -0.07769126
-0.10047972 -0.10892051 0.28038436 -0.10709856 0.063971594 0.030587727 0.10235755 0.00416463
-0.07253308 -0.07185889 0.06414732 -0.022786735 -0.11367034 0.19198376 0.032962445 0.06899924
-0.16979009 -0.10708702 0.02577303 0.0036710957 0.1466433 0.28428295 0.24460894 -0.17497443
-0.07466983 0.0015768401 -0.042306438 -0.09422303 0.0075697564 -0.09476517 0.43075436 -0.03928353
-0.1937206 0.074136525 0.27236807 -0.2463323 -0.018836277 -0.30808666 -0.2629623 -0.2459662
0.020959375 0.08737926 0.29568696 -0.11251273 -0.07481491 -0.3160804 0.097387984 0.11984286
0.11777942 0.28806385 0.19152772 -0.004691436 0.33105987 -0.006476661 -0.028302893 -0.10692124
-0.30825883 -0.11914256 0.020900246 0.026285803 0.06348936 -0.008145535 -0.15135781 -0.31352016
0.080141895 0.16486388 0.090905316 0.23723668 -0.19956444 -0.030006846 -0.10200652 0.2275203
-0.059229035 -0.2706256 -0.015147678 -0.026407681 -0.27830726 0.048336323 0.08010857 0.32546356
0.15566906 -0.16374888 0.03366436 -0.051048487 -0.0012758628 -0.12521105 0.31628364 0.120734915
-0.16120166 0.03143004 0.015296806 -0.2071551 -0.32246354 0.10276827 -0.16614273 -0.019898895
-0.03461019 -0.0057861274 -0.03873321 0.11922113 0.10734649 -0.05159732 -0.33078408 -0.219808
0.06537036 0.50633085 -0.016979577 0.031365488 -0.18393913 -0.20852844 -0.093845434 0.21846633
-0.063228264 0.1746061 -0.09752548 -0.28660277 0.065584265 0.14541307 -0.13973111 0.19658639
0.18633275 -0.032614935 0.1359508 -0.23459435 0.16009128 0.2140127 0.11806359 -0.1541011
-0.18271701 -0.26614815 -0.022994764 -0.2830463 0.17670983 0.1527885 -0.02773828 -0.065093964
-0.21996243 0.17556359 0.12382943 0.1824712 0.1660148 -0.1950454 0.005882421 0.01651526
-0.2556637 0.077596955 -0.30156288 -0.21149488 -0.19754772 -0.26396385 -0.1240176 -0.2845134
0.04201986 0.21631493 0.06651262 -0.016106572 -0.28610352 -0.03184817 -0.015522753 -0.023848718
0.05032585 0.3733408 0.031019166 0.27643695 -0.012171167 0.24366446 -0.3534917 -0.10955129
0.037364896 -0.16427293 0.038420778 -0.306141 0.033113837 0.2767258 -0.07399158 0.22434257
0.25504982 0.17529514 0.12405894 0.26793242 0.14464442 -0.3817205 -0.01076703 -0.1669873
-0.065771654 -0.21952473 0.05975893 0.0030827443 -0.079489104 0.01420078 0.13472287 0.07553273
-0.0682323 -0.14197272 -0.03141512 -0.3853829 -0.109272204 -0.017475838 -0.088463716 -0.13240568
0.020132944 0.1870491 0.13796765 0.41434696 0.124277495 0.10811268 -0.11599872 -0.16894476
-0.067054436 -0.32181767 0.07582162 0.068236776 -0.1431367 0.22934766 0.11211377 0.12476238
-0.13505234 -0.16983017 0.08641836 -0.22544535 0.027149701 0.018228773 -0.15444584 0.077135205
00000000: e94d 033d 1918 003c f144 863d 94ed d43e
00000010: 3e5a 843d 5305 c3be 7aa9 e93d 803e b33d
00000020: f5d0 543d 7242 9d3d 0cd0 013e 7c32 5cbe
00000030: 4457 8a3d 4ae5 583e 2aa2 903e 7889 a9be
00000040: 074d 5abe d674 a93c ee20 75bd 5f8b a23d
00000050: 68ea 52bd 553b 863e 5fb3 a1bd 8e90 e3be
00000060: e6b4 533e ed13 8ebe bf51 1d3e 1eea 68be
00000070: 8cd2 bc3e 0f87 e33c 539d 2dbe 981c 9fbd
00000080: 50c8 cdbd b711 dfbd 8a8e 8f3e 7d56 dbbd
00000090: 8a03 833d 1d93 fa3c d6a0 d13d 7377 883b
000000a0: 398c 94bd c12a 93bd ac5f 833d 3fab babc
000000b0: ffcb e8bd 6497 443e a103 073d 794f 8d3d
000000c0: 74dd 2dbe 7150 dbbd f621 d33c c496 703b
000000d0: a929 163e 898d 913e c47a 7a3e 7f2c 33be
000000e0: 7fec 98bd f9ad ce3a 8449 2dbd 01f8 c0bd
000000f0: b80b f83b 3e14 c2bd d68b dc3e c4e7 20bd
00000100: b15e 46be e4d4 973d d473 8b3e 893e 7cbe
00000110: 894e 9abc 89bd 9dbe ffa2 86be 90de 7bbe
00000120: ffb2 ab3c e6f3 b23d 4864 973e 136d e6bd
00000130: 8f38 99bd 4ad5 a1be 5a73 c73d 2c70 f53d
00000140: 5636 f13d 1b7d 933e d81f 443e 9eba 99bb
00000150: ae80 a93e 2c3a d4bb 78db e7bc 86f9 dabd
00000160: 1ad4 9dbe 0401 f4bd fe36 ab3c 5355 d73c
00000170: b606 823d da74 05bc 8bfd 1abe b785 a0be
00000180: 6f21 a43d 14d2 283e 912c ba3d 2cee 723e
00000190: 9f5a 4cbe ebd0 f5bc cbe8 d0bd 15fb 683e
000001a0: 259a 72bd 708f 8abe f72d 78bc ec54 d8bc
000001b0: 4a7e 8ebe 4ffc 453d f60f a43d 29a3 a63e
000001c0: b667 1f3e c9ad 27be a4e3 093d 3818 51bd
000001d0: da3a a7ba 5337 00be eeef a13e de43 f73d
000001e0: 0c12 25be c9bc 003d 749f 7a3c 7720 54be
000001f0: f119 a5be 2c78 d23d 5221 2abe 0203 a3bc
00000200: 6ac3 0dbd 8e99 bdbb b7a6 1ebd 352a f43d
00000210: 7ad8 db3d b657 53bd 885c a9be 5915 61be
00000220: e5e0 853d e69e 013f c118 8bbc 1979 003d
00000230: 8a5a 3cbe 7b88 55be 0932 c0bd a3b5 5f3e
00000240: d27d 81bd f1cb 323e 70bb c7bd 99bd 92be
00000250: 0b51 863d 2ae7 143e ac15 0fbe f14d 493e
00000260: 03ce 3e3e 3d97 05bd b036 0b3e 8039 70be
00000270: f8ee 233e 2526 5b3e 53cb f13d aecc 1dbe
00000280: 2b1a 3bbe 9244 88be 845f bcbc 72eb 90be
00000290: 6cf3 343e 9774 1c3e 643b e3bc fc4f 85bd
000002a0: d53d 61be f1c6 333e 499a fd3d bbd9 3a3e
000002b0: c9ff 293e fbb9 47be 53c1 c03b 034b 873c
000002c0: 5ae6 82be 27eb 9e3d 7366 9abe 1d92 58be
000002d0: f349 4abe 4526 87be f1fc fdbd beab 91be
000002e0: 041d 2c3d a981 5d3e c537 883d eef1 83bc
000002f0: 297c 92be 3a73 02bd 2553 7ebc 635e c3bc
00000300: 7a22 4e3d 8626 bf3e e81b fe3c 2589 8d3e
00000310: 9369 47bc 2d83 793e ddfc b4be 6d5c e0bd
00000320: ef0b 193d 2a37 28be 1b5f 1d3d 83be 9cbe
00000330: 60a2 073d 01af 8d3e e688 97bd 0fba 653e
00000340: e495 823e 9280 333e 9d12 fe3d 702e 893e
00000350: ab1d 143e df70 c3be 3268 30bc b8fe 2abe
00000360: 4ab3 86bd 17cb 60be c8c5 743d de07 4a3b
00000370: 2fcb a2bd 63aa 683c cbf4 093e e7b0 9a3d
00000380: 60bd 8bbd 4c61 11be 24ad 00bd e850 c5be
00000390: 1bca dfbd 7d29 8fbc 772c b5bd 5b95 07be
000003a0: d8ed a43c cd89 3f3e 6447 0d3e 4925 d43e
000003b0: 3385 fe3d 2e6a dd3d bd90 edbd dbff 2cbe
000003c0: d653 89bd 49c5 a4be 5e48 9b3d b9bf 8b3d
000003d0: 6d92 12be 1dda 6a3e e79b e53d 6b83 ff3d
000003e0: 294b 0abe f6e7 2dbe 1cfc b03d 25db 66be
000003f0: 0d69 de3c 8254 953c 0d27 1ebe 10f9 9d3d

base.mlp.fc_h.0.bias f4 [64]
0.0 0.0 0.0 0.0 0.0 0.0 0.0 0.0
0.0 0.0 0.0 0.0 0.0 0.0 0.0 0.0
0.0 0.0 0.0 0.0 0.0 0.0 0.0 0.0
0.0 0.0 0.0 0.0 0.0 0.0 0.0 0.0
0.0 0.0 0.0 0.0 0.0 0.0 0.0 0.0
0.0 0.0 0.0 0.0 0.0 0.0 0.0 0.0
0.0 0.0 0.0 0.0 0.0 0.0 0.0 0.0
0.0 0.0 0.0 0.0 0.0 0.0 0.0 0.0
00000000: 0000 0000 0000 0000 0000 0000 0000 0000
00000010: 0000 0000 0000 0000 0000 0000 0000 0000
00000020: 0000 0000 0000 0000 0000 0000 0000 0000
00000030: 0000 0000 0000 0000 0000 0000 0000 0000
00000040: 0000 0000 0000 0000 0000 0000 0000 0000
00000050: 0000 0000 0000 0000 0000 0000 0000 0000
00000060: 0000 0000 0000 0000 0000 0000 0000 0000
00000070: 0000 0000 0000 0000 0000 0000 0000 0000
00000080: 0000 0000 0000 0000 0000 0000 0000 0000
00000090: 0000 0000 0000 0000 0000 0000 0000 0000
000000a0: 0000 0000 0000 0000 0000 0000 0000 0000
000000b0: 0000 0000 0000 0000 0000 0000 0000 0000
000000c0: 0000 0000 0000 0000 0000 0000 0000 0000
000000d0: 0000 0000 0000 0000 0000 0000 0000 0000
000000e0: 0000 0000 0000 0000 0000 0000 0000 0000
000000f0: 0000 0000 0000 0000 0000 0000 0000 0000

base.mlp.fc_h.2.weight f4 [64]
1.0 1.0 1.0 1.0 1.0 1.0 1.0 1.0
1.0 1.0 1.0 1.0 1.0 1.0 1.0 1.0
1.0 1.0 1.0 1.0 1.0 1.0 1.0 1.0
1.0 1.0 1.0 1.0 1.0 1.0 1.0 1.0
1.0 1.0 1.0 1.0 1.0 1.0 1.0 1.0
1.0 1.0 1.0 1.0 1.0 1.0 1.0 1.0
1.0 1.0 1.0 1.0 1.0 1.0 1.0 1.0
1.0 1.0 1.0 1.0 1.0 1.0 1.0 1.0
00000000: 0000 803f 0000 803f 0000 803f 0000 803f
00000010: 0000 803f 0000 803f 0000 803f 0000 803f
00000020: 0000 803f 0000 803f 0000 803f 0000 803f
00000030: 0000 803f 0000 803f 0000 803f 0000 803f
00000040: 0000 803f 0000 803f 0000 803f 0000 803f
00000050: 0000 803f 0000 803f 0000 803f 0000 803f
00000060: 0000 803f 0000 803f 0000 803f 0000 803f
00000070: 0000 803f 0000 803f 0000 803f 0000 803f
00000080: 0000 803f 0000 803f 0000 803f 0000 803f
00000090: 0000 803f 0000 803f 0000 803f 0000 803f
000000a0: 0000 803f 0000 803f 0000 803f 0000 803f
000000b0: 0000 803f 0000 803f 0000 803f 0000 803f
000000c0: 0000 803f 0000 803f 0000 803f 0000 803f
000000d0: 0000 803f 0000 803f 0000 803f 0000 803f
000000e0: 0000 803f 0000 803f 0000 803f 0000 803f
000000f0: 0000 803f 0000 803f 0000 803f 0000 803f

base.mlp.fc_h.2.bias f4 [64]
0.0 0.0 0.0 0.0 0.0 0.0 0.0 0.0
0.0 0.0 0.0 0.0 0.0 0.0 0.0 0.0
0.0 0.0 0.0 0.0 0.0 0.0 0.0 0.0
0.0 0.0 0.0 0.0 0.0 0.0 0.0 0.0
0.0 0.0 0.0 0.0 0.0 0.0 0.0 0.0
0.0 0.0 0.0 0.0 0.0 0.0 0.0 0.0
0.0 0.0 0.0 0.0 0.0 0.0 0.0 0.0
0.0 0.0 0.0 0.0 0.0 0.0 0.0 0.0
00000000: 0000 0000 0000 0000 0000 0000 0000 0000
00000010: 0000 0000 0000 0000 0000 0000 0000 0000
00000020: 0000 0000 0000 0000 0000 0000 0000 0000
00000030: 0000 0000 0000 0000 0000 0000 0000 0000
00000040: 0000 0000 0000 0000 0000 0000 0000 0000
00000050: 0000 0000 0000 0000 0000 0000 0000 0000
00000060: 0000 0000 0000 0000 0000 0000 0000 0000
00000070: 0000 0000 0000 0000 0000 0000 0000 0000
00000080: 0000 0000 0000 0000 0000 0000 0000 0000
00000090: 0000 0000 0000 0000 0000 0000 0000 0000
000000a0: 0000 0000 0000 0000 0000 0000 0000 0000
000000b0: 0000 0000 0000 0000 0000 0000 0000 0000
000000c0: 0000 0000 0000 0000 0000 0000 0000 0000
000000d0: 0000 0000 0000 0000 0000 0000 0000 0000
000000e0: 0000 0000 0000 0000 0000 0000 0000 0000
000000f0: 0000 0000 0000 0000 0000 0000 0000 0000

base.mlp.fc2.0.0.weight f4 [64, 64]
0.17836393 0.0024385578 0.032433204 0.4668223 0.057378445 -0.51167417 -0.022113645 -0.10503756
0.057258606 -0.057937365 0.19399944 -0.11314868 0.081374444 0.37165985 0.13590822 -0.46209872
-0.18977669 0.08637649 -0.030141937 0.037321486 -0.23873506 0.26711026 -0.21003607 -0.54675806
0.4634012 -0.4197727 0.20557171 -0.032591205 0.47219935 0.06545608 -0.21450311 0.056156382
-0.04737564 -0.046721365 0.2719049 -0.108147986 0.08309198 0.046367377 0.1180554 -0.09739573
-0.17882837 -0.08232214 0.045489192 0.024192464 -0.38763133 -0.025828216 -0.008465514 0.202149
-0.16094527 0.046557587 -0.063610055 -0.020424794 0.1443221 0.4185048 0.34404865 -0.17086157
-0.11145529 0.071447626 -0.096946456 0.033100564 -0.058771715 -0.0781743 0.3552603 -0.008444655
-0.16905989 0.06761731 0.5543307 -0.17452182 -0.16473414 -0.18791874 -0.21583134 -0.21413521
0.05000204 0.053558376 0.3405129 -0.08473998 -0.058244623 -0.25398874 -0.06474836 0.14050859
0.21051048 0.2285915 0.13030149 -0.10142261 0.33315307 0.07567297 -0.045930892 -0.056641027
-0.26513547 -0.10790795 -0.08741044 0.18519633 -0.10118325 0.050590746 -0.12004818 -0.34296486
0.076916456 -0.0257401 0.11693259 0.12281913 -0.09431455 -0.069597445 -0.07557781 0.2138442
0.0011231542 -0.24577565 0.07535702 0.07628361 -0.32775304 0.03480913 -0.0070419493 0.38618192
0.13438632 -0.086004 0.09959455 -0.07655082 -0.08710449 -0.08671228 0.2816369 0.08553118
-0.24675386 0.0671464 0.10941745 -0.06204929 -0.33484787 0.10546774 -0.2442003 -0.24125859
0.041666128 -0.045253325 0.073899366 0.24855311 0.14315364 -0.015991144 -0.2793349 -0.22414413
0.12954207 0.4510546 0.018796392 0.08946552 -0.18540251 -0.19216299 -0.06064054 0.1021215
-0.09593786 0.07800589 -0.05878525 -0.33389592 -0.05331765 0.08806618 -0.20681527 0.20742233
0.2441372 0.051072646 0.014693546 -0.122985944 0.09334293 0.41313925 0.3374544 0.016015777
-0.026716806 -0.26880443 0.05495929 -0.38413328 0.12140081 0.19137396 -0.18644264 -0.21831381
-0.303023 0.06341406 0.17592132 0.1337344 0.058311507 -0.24421501 -0.16221316 0.12225727
-0.06484807 0.18010947 -0.43395564 -0.12860799 -0.09387366 -0.3276398 -0.13797337 -0.2628735
-0.11411479 0.33699867 -0.08217816 0.090861425 -0.40878853 -0.1275803 0.080294065 -0.029374741
0.13938518 0.32867238 0.13110942 0.21266532 -0.060140297 0.21764784 -0.37629387 -0.151684
-0.016741676 -0.26451355 0.13476458 -0.3059091 -0.07522736 0.41662708 -0.08590724 0.18429329
0.36073965 0.20327947 0.07743353 0.23064323 0.014462666 -0.35586995 -0.065084435 -0.12299236
0.12854324 -0.231473 -0.029404962 0.10370896 -0.10423417 0.16204189 0.15393436 0.17304642
-0.033596355 -0.24534605 -0.042004284 -0.36630303 -0.061886046 0.12567168 -0.19043988 -0.057220344
0.017353037 0.15738341 0.05159519 0.44959778 0.030751226 -0.1272959 -0.15467338 0.024417585
0.03991789 -0.20242967 0.04274326 -0.050789405 -0.008614859 0.21509188 0.12173697 0.14219326
-0.1322714 -0.11505189 0.11091465 -0.14226075 0.020202862 -0.0017653726 -0.326658 0.1960718
00000000: 09a5 363e 36d0 1f3b aed8 043d 5503 ef3e
00000010: a905 6b3d 14fd 02bf ad27 b5bc ef1d d7bd
00000020: 0088 6a3d bb4f 6dbd caa7 463e 7fba e7bd
00000030: a5a7 a63d 334a be3e 862b 0b3e 3498 ecbe
00000040: d254 42be 28e6 b03d 39ec f6bc 6ade 183d
00000050: f776 74be adc2 883e b213 57be 56f8 0bbf
00000060: ec42 ed3e 73ec d6be 6481 523e 5b7e 05bd
00000070: 1dc4 f13e d60d 863d b4a6 5bbe 3c04 663d
00000080: f60c 42bd e75e 3fbd 1e37 8b3e b17c ddbd
00000090: 212c aa3d b8eb 3d3d 08c7 f13d 6a77 c7bd
000000a0: c91e 37be 8398 a8bd e052 3a3d 462f c63c
000000b0: 9d77 c6be b295 d3bc f0b2 0abc 2600 4f3e
000000c0: d6ce 24be 2bb3 3e3d fd45 82bd e651 a7bc
000000d0: 2cc9 133e 4346 d63e 2527 b03e 56f6 2ebe
000000e0: ac42 e4bd 2253 923d dd8b c6bd 7594 073d
000000f0: 9cba 70bd d919 a0bd aee4 b53e 735b 0abc
00000100: 091e 2dbe f27a 8a3d 9ee8 0d3f d9b5 32be
00000110: 11b0 28be c56d 40be e402 5dbe 4346 5bbe
00000120: f0ce 4c3d 0760 5b3d b557 ae3e 288c adbd
00000130: ea91 6ebd d00a 82be ca9a 84bd 7ce1 0f3e
00000140: 0f90 573e e413 6a3e c16d 053e a8b6 cfbd
00000150: 0a93 aa3e 6efa 9a3d 0822 3cbd 6c00 68bd
00000160: d6bf 87be d8fe dcbd 3f04 b3bd 1ba4 3d3e
00000170: 2a39 cfbd 3e38 4f3d d2db f5bd 1799 afbe
00000180: 6086 9d3d e7dc d2bc 5b7a ef3d 9988 fb3d
00000190: fd27 c1bd 1b89 8ebd 8ac8 9abd f9f9 5a3e
000001a0: cd36 933a 9dac 7bbe c854 9a3d 953a 9c3d
000001b0: 3fcf a7be 0594 0e3d 27c0 e6bb a3b9 c53e
000001c0: 919c 093e dd22 b0bd 3af8 cb3d adc6 9cbd
000001d0: d763 b2bd 3596 b1bd b632 903e f92a af3d
000001e0: 0bad 7cbe 0d84 893d 4216 e03d 6527 7ebd
000001f0: 2e71 abbe 78ff d73d a50f 7abe 7e0c 77be
00000200: 1aaa 2a3d 8d5b 39bd 8d58 973d b584 7e3e
00000210: de96 123e dcff 82bc fc04 8fbe 0a86 65be
00000220: ada6 043e a1f0 e63e e4fa 993c b339 b73d
00000230: 28da 3dbe 60c6 44be 3762 78bd 1425 d13d
00000240: 127b c4bd 8dc1 9f3d cdc8 70bd 68f4 aabe
00000250: 9c63 5abd 0b5c b43d 62c7 53be 8566 543e
00000260: 1aff 793e 8d31 513d 33bd 703c 0ee0 fbbd
00000270: 942a bf3d fd86 d33e d3c6 ac3e 8533 833c
00000280: 34dd dabc bca0 89be fe1c 613d 1ead c4be
00000290: fda0 f83d 89f7 433e d2ea 3ebe a88d 5fbe
000002a0: d525 9bbe 3bdf 813d b824 343e acf1 083e
000002b0: 0cd8 6e3d 8013 7abe 351b 26be 0562 fa3d
000002c0: 11cf 84bd 9e6e 383e 6f2f debe d0b1 03be
000002d0: d540 c0bd 67c0 a7be e448 0dbe 5b97 86be
000002e0: 04b5 e9bd 178b ac3e 064d a8bd 8e15 ba3d
000002f0: bb4c d1be 69a4 02be 3771 a43d 4ca3 f0bc
00000300: fdba 0e3e bf47 a83e 8c41 063e f0c4 593e
00000310: ac55 76bd 13df 5e3e 97a9 c0be 0d53 1bbe
00000320: d725 89bc 526e 87be baff 093e 1ea0 9cbe
00000330: cd10 9abd 2550 d53e 23f0 afbd 61b7 3c3e
00000340: deb2 b83e 7e28 503e 7895 9e3d bd2d 6c3e
00000350: d1f4 6c3c 9634 b6be fd4a 85bd 6be3 fbbd
00000360: d7a0 033e 4207 6dbe ade2 f0bc 5d65 d43d
00000370: b978 d5bd 4fee 253e f8a0 1d3e 1533 313e
00000380: 559c 09bd ff3b 7bbe af0c 2cbd 128c bbbe
00000390: 397c 7dbd 14b0 003e ac02 43be e15f 6abd
000003a0: f527 8e3c 1e29 213e 7a55 533d ae31 e63e
000003b0: ffe9 fb3c db59 02be b362 1ebe 6307 c83c
000003c0: f180 233d b949 4fbe 8e13 2f3d 8d08 50bd
000003d0: 5625 0dbc 0c41 5c3e 3c51 f93d 1c9b 113e
000003e0: 2772 07be 53a0 ebbd 3827 e33d cdac 11be
000003f0: 7980 a53c 1364 e7ba b83f a7be 0cc7 483e

base.mlp.fc2.0.0.bias f4 [64]
-0.052500684 -0.084868096 -0.06726408 -0.035740603 0.0628519 -0.067040265 -0.09768846 -0.07318716
-0.09950863 -0.10318462 -0.056357957 -0.020210363 -0.04504949 0.21902044 -0.0258029 -0.10675406
-0.04710194 -0.102010794 -0.09542846 -0.079739 -0.07985941 -0.11871321 -0.1403855 -0.051511604
-0.14036827 -0.05462849 -0.10740477 -0.12270317 0.46707654 -0.06907504 -0.06775278 -0.092598885
-0.0787091 -0.03709371 0.07028298 -0.11424512 -0.027386338 0.96093875 -0.0055681244 -0.06402198
-0.041475106 -0.0776198 -0.1277735 -0.070057705 -0.08795307 -0.09010851 0.17127998 -0.083526045
0.39942074 0.0044564474 -0.12177165 -0.036045678 -0.11326584 -0.08931828 -0.06891858 -0.0608673
-0.11230529 -0.084262036 0.360015 0.059699845 -0.06576702 -0.06155392 -0.056687098 -0.090725385
00000000: f50a 57bd 53cf adbd c0c1 89bd bd64 12bd
00000010: 7fb8 803d 684c 89bd e310 c8bd 26e3 95bd
00000020: 2ecb cbbd 7552 d3bd 9ad7 66bd 3490 a5bc
00000030: d085 38bd e546 603e 9a60 d3bc dfa1 dabd
00000040: f7ed 40bd 09eb d0bd ff6f c3bd 334e a3bd
00000050: 558d a3bd e91f f3bd 37c1 0fbe d5fd 52bd
00000060: b3bc 0fbe 20c2 5fbd 08f7 dbbd cd4b fbbd
00000070: a824 ef3e 3777 8dbd f8c1 8abd 7ca4 bdbd
00000080: 3d32 a1bd 93ef 17bd 86f0 8f3d 58f9 e9bd
00000090: 5059 e0bc 1500 763f d074 b6bb f51d 83bd
000000a0: cde1 29bd 21f7 9ebd 0ed7 02be 6a7a 8fbd
000000b0: bd20 b4bd cf8a b8bd 0564 2f3e b40f abbd
000000c0: e080 cc3e 6407 923b 6a63 f9bd a2a4 13bd
000000d0: ecf7 e7bd 81ec b6bd 2f25 8dbd fd4f 79bd
000000e0: 5100 e6bd 9391 acbd e353 b83e d387 743d
000000f0: dcb0 86bd f71f 7cbd bb30 68bd 3bce b9bd

base.mlp.fc2.0.2.weight f4 [64]
0.17615522 0.22485408 0.3370266 0.32330552 0.067754336 0.40874553 0.5749888 0.56364876
0.44836697 0.38425034 0.631511 0.22068751 0.6147809 0.075436406 0.4425218 0.5887552
0.3682092 0.41868186 0.39796296 0.3594609 0.21086788 0.24803737 0.36113063 0.31896347
0.4277581 0.18546155 0.18208008 0.2635143 0.0061723115 0.6006602 0.54209954 0.47735313
0.37762475 0.48939282 0.100662984 0.43955734 0.4566799 0.087711476 0.0018168091 0.3830022
0.56157446 0.5042648 0.5189743 0.42393577 0.4748026 0.33063853 0.105623454 0.29701483
0.056910098 0.121762894 0.36919722 0.3401363 0.53535897 0.4191609 0.32978916 0.45149064
0.42640573 0.33507252 0.08618575 0.07020623 0.5425711 0.3831244 0.28097633 0.18664895
00000000: 0962 343e 2640 663e c08e ac3e 4d88 a53e
00000010: c9c2 8a3d 1847 d13e 7732 133f 494b 103f
00000020: 5b90 e53e 76bc c43e b4aa 213f e8fb 613e
00000030: 4862 1d3f 677e 9a3d 3892 e23e a9b8 163f
00000040: eb85 bc3e 785d d63e cdc1 cb3e 420b b83e
00000050: c0ed 573e 82fd 7d3e 1de6 b83e 2e4f a33e
00000060: 1c03 db3e a2e9 3d3e 3373 3a3e 59eb 863e
00000070: 1a41 ca3b dec4 193f 09c7 0a3f a167 f43e
00000080: 0858 c13e b291 fa3e 6528 ce3d a90d e13e
00000090: f3d1 e93e 13a2 b33d ff21 ee3a dd18 c43e
000000a0: 58c3 0f3f 7f17 013f 80db 043f 1c0e d93e
000000b0: 5419 f33e 7449 a93e 1c51 d83d 5412 983e
000000c0: 901a 693d d35e f93d 6b07 bd3e 5826 ae3e
000000d0: 490d 093f 429c d63e 20da a83e c829 e73e
000000e0: da51 da3e a08e ab3e 2882 b03d 49c8 8f3d
000000f0: f1e5 0a3f e228 c43e 21dc 8f3e e720 3f3e

base.mlp.fc2.0.2.bias f4 [64]
0.025588047 0.0640542 0.06574121 0.15640877 0.010068178 0.109816276 0.09587443 0.12553822
0.13044518 0.1483972 0.13209829 0.04491743 0.12826748 -0.05686608 0.2018998 0.0840975
0.08536714 0.11810447 0.065718465 0.09244798 0.028953353 0.05946925 0.062319085 0.10500815
0.056302182 0.08067359 0.08219883 0.11915505 -0.1281429 0.19009715 0.15233128 0.18238397
0.13157794 0.064488694 0.0017199536 0.12037145 0.061937887 -0.31937826 0.07485588 0.18140621
0.09286421 0.11727578 0.056354538 0.11520216 0.10144537 0.1516366 -0.1956634 0.07040982
-0.19751494 -0.0042235996 0.081895 0.08001506 0.10107102 0.14462769 0.070704766 0.16539253
0.08620468 0.12930667 -0.11986509 -0.09286251 0.12944028 0.12250231 0.044017114 0.05668579
00000000: 069e d13c d92e 833d 54a3 863d 9f29 203e
00000010: 00f5 243c 5be7 e03d d059 c43d 178d 003e
00000020: 6c93 053e 70f5 173e c644 073e 57fb 373d
00000030: 8d58 033e 68ec 68bd d2be 4e3e 4f3b ac3d
00000040: f8d4 ae3d c2e0 f13d 6797 863d 5e55 bd3d
00000050: 952f ed3c 0796 733d 4c42 7f3d 830e d73d
00000060: 1e9d 663d 3238 a53d dc57 a83d 9007 f43d
00000070: e437 03be d4a8 423e bbfc 1b3e ddc2 3a3e
00000080: 5ebc 063e a612 843d 1170 e13a 4f85 f63d
00000090: 95b2 7d3d 8c85 a3be 0a4e 993d 8dc2 393e
000000a0: 972f be3d 492e f03d 04d4 663d 1cef eb3d
000000b0: 97c2 cf3d a046 1b3e fd5b 48be 0633 903d
000000c0: 5b41 4abe 1f66 8abb 91b8 a73d f0de a33d
000000d0: 53fe ce3d 4819 143e a9cd 903d a95c 293e
000000e0: 148c b03d f868 043e d47b f5bd b32e bebd
000000f0: fe8b 043e 7ee2 fa3d 4a4b 343d 5c2f 683d

v_out.weight f4 [1, 64]
0.0029455428 -0.01803937 0.014515207 -0.03984467 -0.011839817 -0.04120151 0.036691546 0.014228248
-0.009903105 -0.030207174 0.0068762563 -0.006234605 0.0015219711 0.016033895 -0.06121013 0.046697836
0.0015456787 0.002803011 -0.0063791606 0.007435566 0.0139036 0.00016731073 0.019806366 -0.011282681
0.015791994 -0.01670396 -0.022232462 -0.03645101 0.021359194 -0.014998263 0.0027687221 -0.033368405
-0.030327404 0.033324037 -0.014081331 -0.0073727416 -0.0080544455 -0.012718484 -0.046465926 -0.06637662
0.014955973 0.0035546375 0.053759463 -0.011478429 0.014596853 -0.038767323 0.006763205 0.013942705
0.012401042 -0.00334845 0.01565825 0.010802235 0.018390473 -0.016998444 -0.024109913 -0.026986292
0.015684217 -0.01763316 0.010852281 0.028352069 0.005792308 -0.009118711 0.0074909567 -0.01231444
00000000: 020a 413b 4dc7 93bc 31d1 6d3c 2a34 23bd
00000010: cbfb 41bc eac2 28bd e049 163d 991d 693c
00000020: a240 22bc 0975 f7bc 3852 e13b a84b ccbb
00000030: e07c c73a 8459 833c 79b7 7abd 3b46 3f3d
00000040: 5f98 ca3a b9b2 373b 4708 d1bb 0ca6 f33b
00000050: edcb 633c 2270 2f39 f640 a23c feda 38bc
00000060: 365e 813c bed6 88bc da20 b6bc a74d 15bd
00000070: 7af9 ae3c 46bb 75bc 7373 353b 4fad 08bd
00000080: 2d71 f8bc c97e 083d 62b5 66bc 0a97 f1bb
00000090: cbf6 03bc 3061 50bc 0e53 3ebd 77f0 87bd
000000a0: e609 753c ecf4 683b e232 5c3d 0510 3cbc
000000b0: a427 6f3c 7cca 1ebd e09d dd3b f16f 643c
000000c0: bd2d 4b3c ab71 5bbb bb45 803c dcfb 303c
000000d0: 9ea7 963c 5240 8bbc 2782 c5bc 5b12 ddbc
000000e0: 307c 803c 6b73 90bc c4cd 313c 9942 e83c
000000f0: 67cd bd3b a566 15bc b376 f53b 81c2 49bc
