light_mappo-main/results/MyEnv/MyEnv/mappo/check/run14/models/actor.pt (torch, 45045 bytes, 16 tensors)

base.feature_norm.weight f4 [14]
1.1642684 1.1036996 0.65873057 1.1212515 1.0530174 1.2468684 1.1639001 1.1337003
1.253703 1.0573289 0.75707227 0.9934139 0.72865254 0.9139146
00000000: bf06 953f 0746 8d3f 91a2 283f 2b85 8f3f
00000010: 46c9 863f 6299 9f3f aefa 943f 171d 913f
00000020: 5779 a03f 8e56 873f 7dcf 413f 6050 7e3f
00000030: f988 3a3f 4ff6 693f

base.feature_norm.bias f4 [14]
-0.29811147 0.13786536 -0.03662324 -0.043225363 -0.08690745 -0.15967779 0.006603679 -0.038946822
0.12930806 -0.27541083 -0.1756794 -0.13953803 0.11740406 -0.24223916
00000000: 11a2 98be 942c 0d3e 4002 16bd 140d 31bd
00000010: 88fc b1bd 9382 23be ad63 d83b b486 1fbd
00000020: 5569 043e a602 8dbe 4de5 33be 0fe3 0ebe
00000030: 8a71 f03d 8b0d 78be

base.mlp.fc1.0.weight f4 [64, 14]
0.0024616616 0.079237886 -0.07067831 0.04184081 -0.2917713 -0.003624761 -0.18785855 0.35953236
-0.25896412 -0.05614591 0.58900744 -0.095303155 0.28208163 0.3328387 -0.15840462 0.43929905
0.2888916 -0.4052238 0.33581588 0.09783508 0.33811122 -0.17166817 -0.40762725 0.36066607
-0.11224026 -0.16277061 0.5509738 -0.057087082 -0.044480704 0.3236093 0.23280445 -0.2041547
0.20703748 -0.5648456 -0.033792857 0.42063862 -0.29094827 -0.11020265 0.06797268 -0.17617938
-0.12686467 0.29839674 -0.1916025 0.15565822 -0.09778154 -0.109565735 -0.29189765 -0.030891119
-0.039380267 -0.058079734 0.20655708 1.1230421 0.3764905 -0.3119786 -0.1585205 0.28301618
-0.2874946 0.12350563 0.072064646 0.20461108 -0.16346289 0.1814538 0.18251611 0.6926744
0.47645974 -0.71181643 -0.018456921 -0.1351445 -0.15373698 -1.0094181e-05 -0.1523066 0.08282982
-0.41862336 -0.17390406 -0.46244848 0.7872175 -0.10487135 -0.08013971 0.35114893 0.017462505
-0.485632 -0.15210135 0.12432386 -0.012701547 0.63740265 -0.57662046 -0.024643455 -0.19849263
0.08568958 -0.4298641 -0.12707172 0.3968186 -0.43356955 0.19457789 -0.10929586 0.023880057
0.26700503 -0.23766358 -0.3537097 0.3042548 0.45829883 0.13607742 0.24398403 0.18362662
-0.04860307 0.12329673 0.020765487 -0.02997964 -0.4284396 0.16966604 -0.13244373 0.23217298
-0.22599186 -0.15860665 0.5815987 0.16350839 0.010179113 -0.32412168 -0.55500513 0.13068536
-0.070536114 0.07448172 0.16706331 -0.24906431 -0.36804777 0.5079777 -0.21384427 0.27796456
0.14568487 -0.36614284 -0.33706462 -0.11624778 0.040906005 -0.1444335 0.34855047 -0.03552359
0.37270257 -0.2568395 -0.1271578 0.37766987 -0.38673806 -0.57738334 0.271171 0.11333965
0.118956424 -0.07294391 -0.45780376 0.41365215 0.38715318 -0.21551228 -0.23655993 0.32208595
0.26062715 0.021663588 -0.21639477 0.30508402 0.39865914 0.29856068 0.078145586 -0.23321551
0.102951236 -0.3739142 0.009278274 0.188678 0.061190438 0.5302764 0.00943614 -0.0757984
0.20446697 -0.6098754 -0.5632183 0.107291244 -0.32942668 -0.12263095 -0.09749717 0.77196485
-0.103786394 0.10469751 -0.017562982 0.16860564 -0.07296227 -0.158582 0.4424687 -0.24763815
-0.037229802 -0.12726423 -0.29816175 0.11881341 -0.09301221 0.47048286 0.30181488 -0.32231122
0.39252695 0.3559166 0.59835064 -0.05379316 0.30676776 0.4277924 -0.16411166 -0.4740211
0.13565333 -0.43154806 -0.14731619 0.26527563 0.41337603 0.49247742 -0.18537654 -0.014539905
-0.19265917 0.05443507 -0.08021267 0.06214901 0.2275621 0.09162921 -0.046886273 0.32492325
-0.317799 0.29860446 -0.27951458 0.09452591 -0.09834713 0.51463115 -0.31865165 -0.4225092
-0.17373604 -0.25434202 -0.2766196 0.5864631 0.012135602 -0.30705976 -0.29862934 0.43508065
-0.041216943 0.036326885 -0.119113065 -0.057152104 -0.08878116 -0.041687794 0.70265126 -0.5290252
0.06958419 0.13946806 0.036191262 -0.33294526 -0.32264036 -0.024302803 0.016689453 0.068187095
0.543939 0.30655086 0.0047983597 0.073652916 0.19945006 0.09988527 -0.4047958 -0.25602254
00000000: d453 213b 7947 a23d cabf 90bd 4561 2b3d
00000010: 0c63 95be 668d 6dbb fe5d 40be a014 b83e
00000020: f296 84be 41f9 65bd 31c9 163f 4d2e c3bd
00000030: 016d 903e d669 aa3e d234 22be ceeb e03e
00000040: 9ae9 933e 7e79 cfbe 0ff0 ab3e c25d c83d
00000050: ea1c ad3e c8c9 2fbe 85b4 d0be 39a9 b83e
00000060: 39de e5bd 57ad 26be 9e0c 0d3f 25d4 69bd
00000070: 6631 36bd 1eb0 a53e 4a64 6e3e ee0d 51be
00000080: a201 543e b999 10bf 616a 0abd f25d d73e
00000090: 2cf7 94be edb1 e1bd 4335 8b3d 5e68 34be
000000a0: d0e8 01be 75c7 983e 7233 44be de64 1f3e
000000b0: b041 c8bd 0064 e0bd 9c73 95be 5f0f fdbc
000000c0: 344d 21bd 04e5 6dbd b383 533e d8bf 8f3f
000000d0: 5dc3 c03e a9bb 9fbe 3353 22be 7fe7 903e
000000e0: 7e32 93be 85f0 fc3d a196 933d 9185 513e
000000f0: d162 27be 06cf 393e 81e5 3a3e 1c53 313f
00000100: 88f2 f33e 9a39 36bf f832 97bc 5263 0abe
00000110: 3a6d 1dbe 2d5a 29b7 43f6 1bbe aea2 a93d
00000120: cd55 d6be e813 32be 0cc6 ecbe 1687 493f
00000130: cac6 d6bd 4a20 a4bd cbc9 b33e 870d 8f3c
00000140: c2a4 f8be 75c0 1bbe 829d fe3d 261a 50bc
00000150: d22c 233f 669d 13bf 12e1 c9bc a741 4bbe
00000160: 057e af3d 2617 dcbe 171f 02be cf2b cb3e
00000170: d4fc ddbe 6d3f 473e 82d6 dfbd 1ca0 c33c
00000180: e2b4 883e 155e 73be 7019 b5be 49c7 9b3e
00000190: 25a6 ea3e e157 0b3e f3d6 793e 9e08 3c3e
000001a0: 0314 47bd ff82 fc3d 621c aa3c dd97 f5bc
000001b0: 6f5c dbbe efbc 2d3e 549f 07be c1be 6d3e
000001c0: 696a 67be c869 22be a7e3 143f be6e 273e
000001d0: 4bc6 263c 47f3 a5be d114 0ebf 62d2 053e
000001e0: 3d75 90bd df89 983d a512 2b3e b70a 7fbe
000001f0: c270 bcbe d40a 023f fef9 5abe 5f51 8e3e
00000200: 6a2e 153e 1377 bbbe bc93 acbe 5113 eebd
00000210: 0e8d 273d 60e6 13be 3575 b23e 2f81 11bd
00000220: dfd2 be3e 7880 83be a835 02be f25d c13e
00000230: 8802 c6be 65cf 13bf edd6 8a3e 9e1e e83d
00000240: 6d9f f33d 9e63 95bd 4165 eabe 37ca d33e
00000250: f138 c63e 40af 5cbe c43c 72be 73e8 a43e
00000260: ec70 853e d677 b13c 9796 5dbe f933 9c3e
00000270: 0d1d cc3e f2dc 983e cb0a a03d 0cd0 6ebe
00000280: 19d8 d23d af71 bfbe e703 183c ce34 413e
00000290: d3a2 7a3d 32c0 073f 0a9a 1a3c 313c 9bbd
000002a0: ca5f 513e cb20 1cbf 132f 10bf 83bb db3d
000002b0: 9daa a8be ef25 fbbd 99ac c7bd 7d9f 453f
000002c0: f68d d4bd a66b d63d 3ee0 8fbc f5a6 2c3e
000002d0: 3e6d 95bd 5263 22be 428b e23e db94 7dbe
000002e0: 477e 18bd 8e51 02be a8a8 98be 7254 f33d
000002f0: 307d bebd 21e3 f03e 7b87 9a3e fa05 a5be
00000300: 4bf9 c83e b33a b63e 822d 193f 3756 5cbd
00000310: aa10 9d3e 9b07 db3e e30c 28be e5b2 f2be
00000320: b5e8 0a3e def3 dcbe 0eda 16be 35d2 873e
00000330: 06a6 d33e 0026 fc3e 59d3 3dbe c838 6ebc
00000340: 7248 45be 4ff7 5e3d 8a46 a4bd f68f 7e3d
00000350: 0a06 693e 18a8 bb3d d20b 40bd 575c a63e
00000360: 8db6 a2be afe2 983e 891c 8fbe cd96 c13d
00000370: 386a c9bd debe 033f 4f26 a3be 2053 d8be
00000380: dce7 31be 1e39 82be 16a1 8dbe 7222 163f
00000390: 67d4 463c f036 9dbe f2e5 98be e4c2 de3e
000003a0: 19d3 28bd 80cb 143d 8df1 f3bd 5318 6abd
000003b0: e6d2 b5bd d2c0 2abd f4e0 333f 326e 07bf
000003c0: 2882 8e3d b7d0 0e3e 4a3d 143d cd77 aabe
000003d0: 1e31 a5be ac16 c7bc 52b8 883c ada5 8b3d
000003e0: 963f 0b3f 3cf4 9c3e 8f3b 9d3b 57d7 963d
000003f0: a33c 4c3e a690 cc3d 6541 cfbe 6315 83be

base.mlp.fc1.0.bias f4 [64]
-0.243387 -0.072863415 -0.15652642 -0.10191988 -0.03937694 -0.019344795 -0.0065782317 -0.20691594
-0.11088797 0.023700994 0.13128315 -0.25913122 0.032773558 -0.15165454 -0.07425079 -0.023021596
-0.31756824 -0.2186384 -0.03498467 -0.15278241 -0.2554516 -0.42945513 -0.10764901 -0.09338752
-0.11576225 -0.09910762 -0.08877606 -0.24512313 0.16298757 -0.36279005 -0.077355616 0.031372294
0.018310947 -0.12736683 -0.34852397 0.18569864 -0.03352649 -0.3612355 -0.31001964 -0.3256518
-0.01629269 -0.26501057 0.005261216 -0.21734805 -0.015840715 -0.23119722 -0.32374167 0.008052293
0.13649926 -0.29134756 -0.2418704 0.26379418 -0.208042 -0.22640324 -0.1501993 -0.17134508
0.05706113 0.13901255 -0.16314167 -0.28234458 0.08740016 0.23586306 -0.13538231 0.015352798
00000000: 713a 79be 6a39 95bd 7648 20be 5fbb d0bd
00000010: b749 21bd fa78 9ebc 358e d7bb c6e1 53be
00000020: 3b19 e3bd 9628 c23c 176f 063e d9ac 84be
00000030: 913d 063d 544b 1bbe cc10 98bd c997 bcbc
00000040: 4e98 a2be bfe2 5fbe 164c 0fbd fe72 1cbe
00000050: 8dca 82be 8be1 dbbe 1677 dcbd f541 bfbd
00000060: c214 edbd f0f8 cabd 39d0 b5bd 8f01 7bbe
00000070: 37e6 263e 9ebf b9be 9f6c 9ebd 3c80 003d
00000080: d700 963c 736c 02be bc71 b2be c927 3e3e
00000090: 1353 09bd dcf3 b8be e5ba 9ebe d5bb a6be
000000a0: 3f78 85bc 77af 87be 4766 ac3b 7d90 5ebe
000000b0: 63c4 81bc f7be 6cbe 78c1 a5be c4ed 033c
000000c0: 76c6 0b3e 822b 95be e0ac 77be 0810 873e
000000d0: f608 55be 40d6 67be d8cd 19be 1675 2fbe
000000e0: eeb8 693d 4e59 0e3e 9c0e 27be 788f 90be
000000f0: dbfe b23d 1686 713e a9a1 0abe 4d8a 7b3c

base.mlp.fc1.2.weight f4 [64]
0.8616525 1.0181386 1.0957353 1.1576709 1.2355024 1.1561602 1.1920965 0.9864687
1.0886763 0.9517127 1.0864308 0.92934513 1.1094702 1.0990467 1.1645409 1.1480033
0.9343448 0.9929867 1.2327011 1.038198 0.75963026 0.9710484 1.1817435 0.93728
0.9347309 1.1410198 0.8069448 0.91152865 1.2201377 0.9561382 1.3329356 1.3145304
0.89382875 1.1557662 1.1596116 1.055243 1.3095224 0.8118915 0.98863256 0.7106362
0.822734 1.0649344 0.79239535 0.8657052 0.94675815 1.2347215 0.6223015 0.8012046
1.2977496 1.2683291 0.87758714 1.1194665 1.0108521 1.0721323 0.8730673 1.1150048
1.0591242 1.2499208 0.9513878 1.3743497 1.220495 1.1327492 1.0968138 1.115106
00000000: 4295 5c3f 5e52 823f 0e41 8c3f 8f2e 943f
00000010: f124 9e3f 0ffd 933f 9e96 983f 3689 7c3f
00000020: bf59 8b3f 72a3 733f 2a10 8b3f 90e9 6d3f
00000030: 1f03 8e3f 90ad 8c3f ad0f 953f c6f1 923f
00000040: 3931 6f3f 6034 7e3f 26c9 9d3f ace3 843f
00000050: 2177 423f a196 783f 5f43 973f 95f1 6f3f
00000060: 864a 6f3f f00c 923f ef93 4e3f f159 693f
00000070: 792d 9c3f 79c5 743f a29d aa3f 8842 a83f
00000080: f6d1 643f 26f0 933f 276e 943f 3412 873f
00000090: 6e9e a73f 1fd8 4f3f 0617 7d3f 41ec 353f
000000a0: b29e 523f c54f 883f 6cda 4a3f db9e 5d3f
000000b0: be5e 723f 5b0b 9e3f 274f 1f3f bf1b 4d3f
000000c0: a91c a63f 9c58 a23f 8da9 603f ae4a 8f3f
000000d0: 9a63 813f a23b 893f 5781 5f3f 7ab8 8e3f
000000e0: 6291 873f 68fd 9f3f 278e 733f b1ea af3f
000000f0: 2e39 9c3f edfd 903f 6564 8c3f cbbb 8e3f

base.mlp.fc1.2.bias f4 [64]
-0.062068276 0.23333792 -0.04530612 0.017676229 0.06034614 -0.027506273 0.11611584 -0.10330676
0.12871549 0.05135947 0.16398625 0.16243258 0.023979018 -0.058665574 0.12839906 -0.030154243
-0.04117008 0.22779995 -0.18773101 -0.2061309 -0.09357337 -0.027972983 0.017273985 -0.0077489614
-0.12179364 0.16762854 0.14583549 0.014408894 0.119424924 0.015297536 -0.11568609 0.114065625
-0.050444264 -0.3098267 -0.047338415 -0.02685157 -0.06698734 -0.10638011 -0.033348694 0.13705923
0.011245894 -0.15549874 0.20275088 -0.20900325 -0.06424728 0.057571504 -0.011263332 0.1354568
0.23691106 0.13177462 0.045872986 0.2031023 0.026903793 -0.033845056 -0.04631068 -0.04665842
0.09213448 0.14380296 -0.01312854 -0.27470642 0.10984162 0.0004870188 0.038201097 0.36533883
00000000: 4e3b 7ebd 23f0 6e3e e992 39bd bdcd 903c
00000010: 842d 773d d654 e1bc 24ce ed3d 7f92 d3bd
00000020: fecd 033e 4f5e 523d 03ec 273e ba54 263e
00000030: a56f c43c 504b 70bd 0b7b 033e 0806 f7bc
00000040: f5a1 28bd 6444 693e 8f3c 40be fb13 53be
00000050: 65a3 bfbd 9927 e5bc 2c82 8d3c 00eb fdbb
00000060: f26e f9bd d1a6 2b3e e655 153e 4813 6c3c
00000070: 0e95 f43d 84a2 7a3c d4ec ecbd 3d9b e93d
00000080: a59e 4ebd 9ba1 9ebe ede5 41bd d3f7 dbbc
00000090: a930 89bd d1dd d9bd a498 08bd 4159 0c3e
000000a0: b340 383c 103b 1fbe ed9d 4f3e f304 56be
000000b0: 1494 83bd 19d0 6b3d d789 38bc 30b5 0a3e
000000c0: d098 723e edef 063e 50e5 3b3d 0dfa 4f3e
000000d0: 5865 dc3c 1da1 0abd 45b0 3dbd e61c 3fbd
000000e0: 01b1 bc3d 1541 133e 1619 57bc 52a6 8cbe
000000f0: a5f4 e03d 8f56 ff39 c178 1c3d b10d bb3e

base.mlp.fc_h.0.weight f4 [64, 64]
-0.18151923 -0.1565031 0.007034267 0.16918507 -0.1254678 -0.16393083 -0.2508228 0.08914017
0.30820152 -0.11710078 0.26850542 -0.16110182 0.16290721 -0.18449785 -0.23151366 0.12878416
-0.025832636 -0.17070188 0.062008444 0.114307955 0.19807823 0.08937481 -0.18258975 -0.05560175
0.034677073 0.36204407 0.06635766 0.0013869513 -0.21818243 0.110485815 0.42368543 -0.11157965
-0.1528641 0.062907964 -0.25205305 0.105282575 0.23751469 -0.15249605 -0.017405689 0.034101937
0.038247943 0.08227641 -0.12667206 -0.10368304 -0.12784128 0.019374954 0.42397466 -0.15151638
-0.035293538 -0.12258077 -0.21953024 -0.2042755 -0.14448728 -0.15305008 0.045645565 -0.328047
-0.03370757 -0.020030363 0.16829433 -0.23630764 -0.11480442 -0.13504441 0.25639698 -0.2519729
-0.16996875 -0.090817966 0.2196299 -0.14567477 0.04902282 -0.25145102 0.01161826 0.01117226
0.13203938 -0.14809741 -0.09473683 0.027993046 0.37336147 0.18219429 -0.09746954 -0.08045812
-0.39772117 0.0013355651 -0.015057512 -0.23549429 -0.16749454 0.058744498 -0.2775868 -0.03447462
0.021418907 -0.17957164 -0.25430676 0.18972753 -0.17606206 0.032951754 0.048713695 0.06940286
-0.11561527 -0.089209296 0.1428578 -0.19446269 0.03326334 0.31601006 0.2509955 -0.20784082
0.19795734 0.2904298 -0.17570671 -0.28663594 0.050898716 -0.11626276 -0.029008912 -0.17440517
0.16610374 0.19592296 0.17164835 -0.17611872 0.2649839 -0.11073606 0.029247748 0.33126956
-0.19032179 0.03340129 0.18126348 0.18121886 -0.2298611 0.12925993 0.14806218 -0.09420246
0.13883111 0.2608916 0.08102874 0.31200433 -0.16574682 0.22913893 -0.16802998 -0.07266297
-0.28488696 -0.3126408 -0.27705395 0.054188423 -0.08194118 0.06784876 -0.1812006 0.31031084
-0.037723176 0.12316655 0.16452575 -0.1666904 0.10440485 -0.399297 -0.022124758 -0.27775308
-0.15064813 -0.054353133 -0.00858595 -0.26577535 0.0071436297 0.043460894 0.17171402 -0.27411714
-0.03823979 -0.07736817 0.14575839 -0.3895164 0.22680536 -0.06291803 0.31093535 -0.28871903
-0.09886334 0.07313039 0.037929088 -0.03114387 0.06409408 -0.09859454 -0.02958026 -0.14886639
0.17309362 -0.21410373 0.17490523 0.2190489 -0.20868997 0.038003195 -0.010212174 -0.10133334
-0.0028189165 0.011522094 -0.18251248 -0.05253393 0.035536017 0.029333206 0.2235914 -0.07445633
0.11573053 -0.015546105 0.016775846 0.16583292 -0.15396076 0.15724277 0.13792391 0.14173976
0.061763275 -0.1522568 0.055199474 -0.15530092 0.012589351 0.2866756 -0.11814161 -0.19023047
0.1662049 -0.1737147 -0.22211467 -0.12016241 0.16954343 0.1284202 0.15091537 0.19472276
-0.12509763 -0.0444181 -0.04146969 -0.09857253 0.31479418 -0.07545641 0.4542883 -0.14514963
-0.05517918 0.06465497 0.13502844 -0.04672215 0.08818291 0.16562314 -0.012635873 0.011085583
0.25396323 0.18022582 -0.18492787 -0.042803545 0.441567 3.9035226e-06 -0.2181838 0.25797242
-0.33125824 0.28346342 0.16116387 -0.007613907 -0.029788662 0.24454714 -0.10527146 -0.16626509
-0.041932248 -0.3010442 0.3088779 -0.11127575 0.15974635 -0.06533728 -0.13368154 -0.16417612
00000000: 2de0 39be 5942 20be b57f e63b da3e 2d3e
00000010: a27a 00be 7cdd 27be d96b 80be 1f8f b63d
00000020: 97cc 9d3e 89d2 efbd 8b79 893e e0f7 24be
00000030: 26d1 263e 01ed 3cbe eb11 6dbe ffdf 033e
00000040: f79e d3bc 79cc 2ebe 91fc 7d3d 4a1a ea3d
00000050: 05d5 4a3e 240a b73d cff8 3abe a9be 63bd
00000060: 8c09 0e3d d75d b93e 86e6 873d 5dca b53a
00000070: 376b 5fbe 6346 e23d 4ced d83e df83 e4bd
00000080: 6888 1cbe e4d5 803d 190d 81be 649e d73d
00000090: 0d37 733e ed27 1cbe 6096 8ebc 79ae 0b3d
000000a0: e0a9 1c3d 8980 a83d 52b6 01be c657 d4bd
000000b0: d3e8 02be 39b8 9e3c 3513 d93e 1c27 1bbe
000000c0: f58f 10bd a00b fbbd 89cc 60be 992d 51be
000000d0: 79f4 13be 29b9 1cbe d8f6 3a3d c7f5 a7be
000000e0: f310 0abd b716 a4bc 5955 2c3e a1fa 71be
000000f0: 941e ebbd 1549 0abe 7746 833e 9802 81be
00000100: 4a0c 2ebe c5fe b9bd a9e6 603e c42b 15be
00000110: 27cc 483d 30be 80be 845a 3e3c db0b 373c
00000120: 5535 073e d9a6 17be 6205 c2bd ac51 e53c
00000130: 3c29 bf3e 2491 3a3e 1c9e c7bd 3ac7 a4bd
00000140: 1ca2 cbbe 210e af3a c8b3 76bc 6a25 71be
00000150: b083 2bbe 129e 703d db1f 8ebe 4235 0dbd
00000160: b476 af3c a1e1 37be 7f34 82be ef47 423e
00000170: 9d49 34be 6bf8 063d 0388 473d 1623 8e3d
00000180: b3c7 ecbd 5db3 b6bd 5149 123e 3a21 47be
00000190: 243f 083d 12cc a13e 7b82 803e 39d4 54be
000001a0: 54b5 4a3e 37b3 943e 76ec 33be f2c1 92be
000001b0: 2c7b 503d 2b1b eebd 19a4 edbc 4597 32be
000001c0: 1917 2a3e 07a0 483e 96c4 2f3e 7758 34be
000001d0: f8ab 873e 96c9 e2bd f998 ef3c 2a9c a93e
000001e0: b7e3 42be cbcf 083d 229d 393e 7091 393e
000001f0: b560 6bbe b75c 043e 9d9d 173e 38ed c0bd
00000200: be29 0e3e 9593 853e 65f2 a53d 08bf 9f3e
00000210: 89b9 29be 65a3 6a3e 0d10 2cbe 53d0 94bd
00000220: b4dc 91be 7412 a0be 04da 8dbe aef4 5d3d
00000230: c7d0 a7bd 4af4 8a3d a68c 39be 10e1 9e3e
00000240: 9e83 1abd bf3e fc3d 7079 283e e3b0 2abe
00000250: 36d2 d53d a870 ccbe fb3e b5bc a735 8ebe
00000260: 8143 1abe 64a1 5ebd 16ac 0cbc b513 88be
00000270: 1c15 ea3b 0d04 323d cdd5 2f3e 1559 8cbe
00000280: 53a1 1cbd 3473 9ebd b041 153e b26e c7be
00000290: aa3f 683e 2bdb 80bd eb32 9f3e fbd2 93be
000002a0: dd78 cabd 63c5 953d 885b 1b3d 6e21 ffbc
000002b0: c243 833d efeb c9bd 4d52 f2bc 6e70 18be
000002c0: 743f 313e 023e 5bbe 5b1a 333e 5b4e 603e
000002d0: d3b2 55be 3da9 1b3d f650 27bc db87 cfbd
000002e0: 92bd 38bb 2ac7 3c3c 8de4 3abe d12d 57bd
000002f0: 378e 113d 314c f03c 25f5 643e 8f7c 98bd
00000300: 2104 ed3d 17b5 7ebc 806d 893c 1bd0 293e
00000310: e4a7 1dbe 4004 213e ed3b 0d3e 3a24 113e
00000320: 7dfb 7c3d 35e9 1bbe d818 623d 3407 1fbe
00000330: 9143 4e3c 25c7 923e 3af4 f1bd c7cb 42be
00000340: 9e31 2a3e 44e2 31be 0772 63be b617 f6bd
00000350: cb9c 2d3e 9680 033e 8f89 1a3e 6765 473e
00000360: 9819 00be c1ef 35bd 1fdc 29bd 65e0 c9bd
00000370: b42c a13e e488 9abd 7a98 e83e 1ba2 14be
00000380: 9003 62bd d369 843d e544 0a3e ba5f 3fbd
00000390: 3e99 b43d 1d99 293e b106 4fbc 4ea0 353c
000003a0: 7807 823e 1e8d 383e bb5d 3dbe c552 2fbd
000003b0: 1215 e23e 01fb 8236 936b 5fbe f614 843e
000003c0: ae9a a9be 1e22 913e 2408 253e 157e f9bb
000003d0: 5a07 f4bc 916a 7a3e 9098 d7bd 6541 2abe
000003e0: 26c1 2bbd 7722 9abe 3e25 9e3e 8ae4 e3bd
000003f0: 8c94 233e 8dcf 85bd d0e3 08be c91d 28be

base.mlp.fc_h.0.bias f4 [64]
0.0 0.0 0.0 0.0 0.0 0.0 0.0 0.0
0.0 0.0 0.0 0.0 0.0 0.0 0.0 0.0
0.0 0.0 0.0 0.0 0.0 0.0 0.0 0.0
0.0 0.0 0.0 0.0 0.0 0.0 0.0 0.0
0.0 0.0 0.0 0.0 0.0 0.0 0.0 0.0
0.0 0.0 0.0 0.0 0.0 0.0 0.0 0.0
0.0 0.0 0.0 0.0 0.0 0.0 0.0 0.0
0.0 0.0 0.0 0.0 0.0 0.0 0.0 0.0
00000000: 0000 0000 0000 0000 0000 0000 0000 0000
00000010: 0000 0000 0000 0000 0000 0000 0000 0000
00000020: 0000 0000 0000 0000 0000 0000 0000 0000
00000030: 0000 0000 0000 0000 0000 0000 0000 0000
00000040: 0000 0000 0000 0000 0000 0000 0000 0000
00000050: 0000 0000 0000 0000 0000 0000 0000 0000
00000060: 0000 0000 0000 0000 0000 0000 0000 0000
00000070: 0000 0000 0000 0000 0000 0000 0000 0000
00000080: 0000 0000 0000 0000 0000 0000 0000 0000
00000090: 0000 0000 0000 0000 0000 0000 0000 0000
000000a0: 0000 0000 0000 0000 0000 0000 0000 0000
000000b0: 0000 0000 0000 0000 0000 0000 0000 0000
000000c0: 0000 0000 0000 0000 0000 0000 0000 0000
000000d0: 0000 0000 0000 0000 0000 0000 0000 0000
000000e0: 0000 0000 0000 0000 0000 0000 0000 0000
000000f0: 0000 0000 0000 0000 0000 0000 0000 0000

base.mlp.fc_h.2.weight f4 [64]
1.0 1.0 1.0 1.0 1.0 1.0 1.0 1.0
1.0 1.0 1.0 1.0 1.0 1.0 1.0 1.0
1.0 1.0 1.0 1.0 1.0 1.0 1.0 1.0
1.0 1.0 1.0 1.0 1.0 1.0 1.0 1.0
1.0 1.0 1.0 1.0 1.0 1.0 1.0 1.0
1.0 1.0 1.0 1.0 1.0 1.0 1.0 1.0
1.0 1.0 1.0 1.0 1.0 1.0 1.0 1.0
1.0 1.0 1.0 1.0 1.0 1.0 1.0 1.0
00000000: 0000 803f 0000 803f 0000 803f 0000 803f
00000010: 0000 803f 0000 803f 0000 803f 0000 803f
00000020: 0000 803f 0000 803f 0000 803f 0000 803f
00000030: 0000 803f 0000 803f 0000 803f 0000 803f
00000040: 0000 803f 0000 803f 0000 803f 0000 803f
00000050: 0000 803f 0000 803f 0000 803f 0000 803f
00000060: 0000 803f 0000 803f 0000 803f 0000 803f
00000070: 0000 803f 0000 803f 0000 803f 0000 803f
00000080: 0000 803f 0000 803f 0000 803f 0000 803f
00000090: 0000 803f 0000 803f 0000 803f 0000 803f
000000a0: 0000 803f 0000 803f 0000 803f 0000 803f
000000b0: 0000 803f 0000 803f 0000 803f 0000 803f
000000c0: 0000 803f 0000 803f 0000 803f 0000 803f
000000d0: 0000 803f 0000 803f 0000 803f 0000 803f
000000e0: 0000 803f 0000 803f 0000 803f 0000 803f
000000f0: 0000 803f 0000 803f 0000 803f 0000 803f

base.mlp.fc_h.2.bias f4 [64]
0.0 0.0 0.0 0.0 0.0 0.0 0.0 0.0
0.0 0.0 0.0 0.0 0.0 0.0 0.0 0.0
0.0 0.0 0.0 0.0 0.0 0.0 0.0 0.0
0.0 0.0 0.0 0.0 0.0 0.0 0.0 0.0
0.0 0.0 0.0 0.0 0.0 0.0 0.0 0.0
0.0 0.0 0.0 0.0 0.0 0.0 0.0 0.0
0.0 0.0 0.0 0.0 0.0 0.0 0.0 0.0
0.0 0.0 0.0 0.0 0.0 0.0 0.0 0.0
00000000: 0000 0000 0000 0000 0000 0000 0000 0000
00000010: 0000 0000 0000 0000 0000 0000 0000 0000
00000020: 0000 0000 0000 0000 0000 0000 0000 0000
00000030: 0000 0000 0000 0000 0000 0000 0000 0000
00000040: 0000 0000 0000 0000 0000 0000 0000 0000
00000050: 0000 0000 0000 0000 0000 0000 0000 0000
00000060: 0000 0000 0000 0000 0000 0000 0000 0000
00000070: 0000 0000 0000 0000 0000 0000 0000 0000
00000080: 0000 0000 0000 0000 0000 0000 0000 0000
00000090: 0000 0000 0000 0000 0000 0000 0000 0000
000000a0: 0000 0000 0000 0000 0000 0000 0000 0000
000000b0: 0000 0000 0000 0000 0000 0000 0000 0000
000000c0: 0000 0000 0000 0000 0000 0000 0000 0000
000000d0: 0000 0000 0000 0000 0000 0000 0000 0000
000000e0: 0000 0000 0000 0000 0000 0000 0000 0000
000000f0: 0000 0000 0000 0000 0000 0000 0000 0000

base.mlp.fc2.0.0.weight f4 [64, 64]
-0.5669653 -0.44205144 -0.032190282 0.22944549 0.16242541 -0.08947556 -0.19067152 -0.0296485
0.08479427 -0.15602554 0.46514323 -0.39006868 0.36713868 0.31429526 -0.24514617 0.03551759
0.0074803852 -0.40173748 -0.22582431 -0.12759301 -0.13507488 0.283116 -0.23714256 -0.19412449
0.24258888 0.8779244 0.15567207 0.56375897 -0.53960556 0.29530576 0.30879757 -0.5418218
-0.17068428 -0.17718977 -0.32639104 -0.045196507 0.43464813 0.029682344 0.25914225 0.13765952
0.3274876 0.6340758 -0.026869332 0.03346805 -0.0659144 -0.30157068 0.38443497 0.19245715
-0.05633332 -0.17946321 -0.4698134 0.036229603 -0.44520885 -0.14764084 -0.102381006 -0.5882999
-0.16236919 0.11722223 -0.14714117 -0.0043183924 -0.12984453 -0.27456278 0.12167822 -0.49550736
-0.22882403 0.24459939 0.2329149 -0.16724476 0.15658627 -0.09321806 0.029547738 0.4571553
-0.15384692 -0.16431683 0.05520352 0.29154843 0.12325609 0.44111165 0.032520644 -0.14580993
-0.6805602 -0.07845341 -0.256385 -0.24502379 -0.41520804 0.21347836 0.06351589 0.338425
-0.15534481 -0.19645953 -0.33633342 0.039630007 -0.4258697 -0.18647572 -0.22670554 0.108372934
-0.21726456 0.059005655 -0.08731262 0.15511893 0.069561675 0.35458887 0.5003053 -0.52043164
0.3192973 0.06713277 -0.18393071 -0.30266237 0.23805293 -0.19548215 0.22846693 -0.084915884
0.2805038 0.38792747 0.05178846 -0.030778425 0.16386761 -0.080574304 0.13674422 0.11922992
-0.84719586 0.24545337 -0.07089 0.33766872 -0.4391936 0.36799067 -0.40797216 -0.47351298
0.5125335 -0.10995796 0.40627337 0.6977981 -0.48383498 0.057052013 -0.22321405 -0.4041907
-0.01136471 -0.2031655 -0.6743208 0.23480651 -0.031040564 -0.44737107 -0.10753194 -0.20437293
-0.20055847 0.1373229 0.42714635 0.09024778 0.45174676 -0.52731436 -0.023633393 -0.0027564294
-0.23575483 -0.24953328 -0.36353406 -0.4131835 0.23906597 0.07574756 -0.058660794 -0.38090664
0.094635434 0.20555334 0.4694891 -0.43786576 0.44171426 0.37385786 0.24775258 -0.2701396
-0.20407695 0.087369576 -0.0008249346 0.16157208 0.0392652 -0.19291289 -0.26523867 -0.10218554
0.10533592 -0.2891713 0.19735427 0.45846817 -0.5311145 0.07888194 0.18151289 0.2653579
0.06857695 -0.36093 0.39190316 0.023043593 -0.18477523 -0.16618153 0.5549339 -0.022697113
0.09978387 -0.18009956 0.028323071 -0.13457635 -0.12771106 -0.14861618 -0.14883102 0.38093352
0.2354736 0.041425485 0.584504 0.28489038 0.0051787137 0.3050559 0.00565803 0.24358909
0.18019797 -0.12975287 -0.18127166 -0.026651686 0.30124882 0.3246361 0.2173226 0.22670636
0.14169812 0.23237236 -0.15552583 0.07318775 0.40765044 -0.036570165 0.47014904 -0.30810577
0.17835417 -0.30435702 0.32684642 -0.04773049 0.06549656 0.18819931 -0.27122805 0.0058299904
0.1080973 0.36120173 -0.28320485 0.061041545 0.36114484 -0.3218773 -0.48274636 0.18472025
-0.5414552 -0.14506274 0.30020836 0.016462076 -0.30073333 0.044955675 0.03650264 -0.23301366
0.32466072 -0.31890634 0.31908092 -0.21112022 0.01982104 -0.06918488 0.07785376 -0.33945584
00000000: a324 11bf 9154 e2be f5d9 03bd c2f3 6a3e
00000010: d952 263e f63e b7bd 653f 43be 69e1 f2bc
00000020: 9ea8 ad3d 29c5 1fbe 4127 ee3e 15b7 c7be
00000030: 9af9 bb3e 4feb a03e 9907 7bbe e47a 113d
00000040: 051e f53b 89b0 cdbe 7d3e 67be bea7 02be
00000050: 1251 0abe 95f4 903e 80d5 72be 92c8 46be
00000060: 3869 783e a7bf 603f 8068 1f3e 8252 103f
00000070: 9723 0abf 5132 973e b71a 9e3e d5b4 0abf
00000080: dcc7 2ebe 3c71 35be ba1c a7be f91f 39bd
00000090: 338a de3e 6328 f33c 4bae 843e 9ef6 0c3e
000000a0: 74ac a73e cb52 223f 131d dcbc cb15 093d
000000b0: 21fe 86bd 7967 9abe a9d4 c43e 7d13 453e
000000c0: c4bd 66bd 34c5 37be 628b f0be 7e65 143d
000000d0: 6af2 e3be 292f 17be 22ad d1bd d29a 16bf
000000e0: 1c44 26be 3512 f03d 2dac 16be 4d81 8dbb
000000f0: f7f5 04be 7e93 8cbe 6e32 f93d 24b3 fdbe
00000100: d950 6abe 4378 7a3e 3e81 6e3e 3642 2bbe
00000110: 2758 203e 1ce9 bebd 190e f23c 4210 ea3e
00000120: 0c8a 1dbe ac42 28be 161d 623d d645 953e
00000130: b06d fc3d 63d9 e13e 5e34 053d 334f 15be
00000140: 3139 2ebf 2eac a0bd e544 83be 84e7 7abe
00000150: 2696 d4be 129a 5a3e 9e14 823d 0b46 ad3e
00000160: b612 1fbe b02c 49be e533 acbe 1353 223d
00000170: 980b dabe 7ef3 3ebe 7f25 68be a1f2 dd3d
00000180: 9a7a 5ebe eaaf 713d f5d0 b2bd 7fd7 1e3e
00000190: 5a76 8e3d ac8c b53e 0214 003f 023b 05bf
000001a0: f07a a33e e87c 893d 5558 3cbe 90f6 9abe
000001b0: 26c4 733e 792c 48be 3cf3 693e 61e8 adbd
000001c0: 329e 8f3e 6e9e c63e 2320 543d 0923 fcbc
000001d0: e9cc 273e 2404 a5bd ad06 0c3e d12e f43d
000001e0: d4e1 58bf 2158 7b3e c72e 91bd eae2 ac3e
000001f0: fcdd e0be 4669 bc3e bae1 d0be 4b70 f2be
00000200: 6535 033f a431 e1bd 1003 d03e e5a2 323f
00000210: 38b9 f7be 5faf 693d 3992 64be 15f2 cebe
00000220: 0c33 3abc 9e0a 50be 4aa0 2cbf 1e71 703e
00000230: c848 febc d20d e5be b539 dcbd 2347 51be
00000240: 335f 4dbe 609e 0c3e edb2 da3e d4d3 b83d
00000250: 5a4b e73e 13fe 06bf d19a c1bc 36a5 34bb
00000260: b769 71be a785 7fbe 2321 babe ca8c d3be
00000270: b6cd 743e 8921 9b3d 4d46 70bd 3206 c3be
00000280: 39d0 c13d 937c 523e e060 f03e f12f e0be
00000290: 5f28 e23e 4c6a bf3e dab2 7d3e bd4f 8abe
000002a0: 8cf9 50be d2ee b23d 6d40 58ba 2773 253e
000002b0: 8cd4 203d f58a 45be 5dcd 87be a746 d1bd
000002c0: 5cba d73d 430e 94be 3d17 4a3e 57bc ea3e
000002d0: 1ff7 07bf db8c a13d 84de 393e fedc 873e
000002e0: 1272 8c3d d1cb b8be 88a7 c83e ebc5 bc3c
000002f0: b835 3dbe 7e2b 2abe 2610 0e3f 4cef b9bc
00000300: 7c5b cc3d 056c 38be c905 e83c 62ce 09be
00000310: b0c6 02be d72e 18be 2967 18be b809 c33e
00000320: fe1f 713e c5ad 293d 0ea2 153f 27dd 913e
00000330: 33b2 a93b 4930 9c3e ff66 b93b 6b6f 793e
00000340: d185 383e f0dd 04be 479f 39be a354 dabc
00000350: 493d 9a3e b436 a63e d189 5e3e b625 683e
00000360: 5019 113e 05f3 6d3e 2a42 1fbe 76e3 953d
00000370: 8fb7 d03e 99ca 15bd 60b7 f03e 0ac0 9dbe
00000380: 7aa2 363e afd4 9bbe 6a58 a73e 0c81 43bd
00000390: 0f23 863d 52b7 403e 67de 8abe 8109 bf3b
000003a0: 1e62 dd3d 6fef b83e 3a00 91be b306 7a3d
000003b0: fae7 b83e 1acd a4be 882a f7be 4e27 3d3e
000003c0: cf9c 0abf 548b 14be e9b4 993e 7adb 863c
000003d0: b8f9 99be 7123 383d cb83 153d 229b 6ebe
000003e0: ee39 a63e b147 a3be 935e a33e e62f 58be
000003f0: bc5f a23c cdb0 8dbd cb71 9f3d 28cd adbe

base.mlp.fc2.0.0.bias f4 [64]
-0.1110903 -0.16918255 -0.3000497 -0.24386801 -0.0038330585 -0.17763641 -0.28974044 -0.2721409
-0.21080388 -0.2871156 0.016885571 0.04673005 -0.25182012 -0.19274168 -0.10477778 -0.13222367
-0.067909405 -0.26065516 -0.0096649965 -0.2790397 0.006781627 -0.30194652 -0.08455989 -0.23366609
-0.14580806 -0.3307451 0.026730787 -0.029788947 -0.0949153 0.04342267 -0.13747767 -0.10640753
-0.24895184 -0.09547145 -0.240097 -0.28690773 -0.20960698 0.20221338 -0.34654266 -0.12680952
-0.13872819 -0.20092906 -0.14660922 -0.1610631 -0.03264804 -0.3546018 -0.035227157 -0.14983296
-0.1356242 -0.09015013 -0.013241153 -0.0037352834 -0.04292195 -0.2777621 -0.19029674 -0.2819235
-0.11590821 -0.061282143 -0.15530156 -0.16688097 0.032446872 -0.21061754 -0.16484512 -0.15813509
00000000: 5083 e3bd 313e 2dbe 1da0 99be 89b8 79be
00000010: 0d34 7bbb 52e6 35be dc58 94be 0d56 8bbe
00000020: f9dc 57be d100 93be 9c53 8a3c 0268 3f3d
00000030: 91ee 80be 135e 45be bc95 d6bd a465 07be
00000040: 1614 8bbd 9874 85be ef59 1ebc 4bde 8ebe
00000050: 6938 de3b bc98 9abe bc2d adbd 2a46 6fbe
00000060: b54e 15be 6c57 a9be 86fa da3c f307 f4bc
00000070: f462 c2bd f8db 313d f2c6 0cbe 31ec d9bd
00000080: 3bed 7ebe 8986 c3bd fddb 75be 92e5 92be
00000090: 36a3 56be 0611 4f3e 0a6e b1be 5bda 01be
000000a0: c30e 0ebe 59c0 4dbe ba20 16be baed 24be
000000b0: f4b9 05bd 5e8e b5be 5a4a 10bd d06d 19be
000000c0: 12e1 0abe a2a0 b8bd 6cf1 58bc a8cb 74bb
000000d0: edce 2fbd d536 8ebe 26dd 42be 4758 90be
000000e0: 4961 edbd fc02 7bbd 5f07 1fbe d8e2 2abe
000000f0: 03e7 043d 20ac 57be 29cd 28be 2aee 21be

base.mlp.fc2.0.2.weight f4 [64]
1.4103963 1.2500118 1.4809285 1.1268486 1.280084 1.055967 1.1611166 1.0371376
1.1926738 1.202282 1.2192686 1.3926206 1.7325599 0.9987355 1.4527287 0.9715158
1.0267799 1.1340467 1.3032309 1.1211221 1.3612611 0.9979348 1.2560718 1.1858487
1.5391273 1.316253 1.5607394 1.118377 1.2462826 1.3045726 1.249751 1.6779292
1.4873792 1.1392953 1.013933 0.96859384 1.2807086 1.2783159 0.9696058 1.0984937
1.2736845 1.4478661 1.24258 1.2159375 1.2999824 1.3754419 1.6252568 1.7115781
1.2534853 1.4386584 1.1845838 1.1534933 1.1037962 1.1357248 1.5243766 1.0406485
1.3004218 0.9924796 0.8782481 1.100845 1.2778019 1.1484925 1.2005873 1.3257872
00000000: de87 b43f 6300 a03f 118f bd3f 933c 903f
00000010: cbd9 a33f ed29 873f 789f 943f edc0 843f
00000020: 89a9 983f 60e4 993f fe10 9c3f 6441 b23f
00000030: 86c4 dd3f 21ad 7f3f 04f3 b93f 42b5 783f
00000040: 866d 833f 7128 913f 45d0 a63f ee80 8f3f
00000050: ce3d ae3f a878 7f3f f6c6 a03f e4c9 973f
00000060: 2002 c53f fa7a a83f 4fc6 c73f fa26 8f3f
00000070: 3086 9f3f 3cfc a63f d7f7 9f3f 62c6 d63f
00000080: 7162 be3f 6ed4 913f 8ec8 813f c4f5 773f
00000090: 42ee a33f db9f a33f 1638 783f 719b 8c3f
000000a0: 1808 a33f ad53 b93f dd0c 9f3f d7a3 9b3f
000000b0: d365 a63f 7b0e b03f 6a08 d03f fe14 db3f
000000c0: 3572 a03f f525 b83f 71a0 973f aba5 933f
000000d0: 3249 8d3f 6e5f 913f c61e c33f f833 853f
000000e0: 3974 a63f 2513 7e3f ded4 603f 7de8 8c3f
000000f0: 038f a33f cd01 933f d8ac 993f 65b3 a93f

base.mlp.fc2.0.2.bias f4 [64]
0.13979535 0.027239712 -0.013382481 0.010918878 -0.041800927 -0.08574833 0.04643402 0.072093226
0.022490306 -0.076751135 0.019311666 -0.11945024 0.06680094 0.038642094 -0.0651154 -0.05507696
-0.01725263 0.004090542 0.02007355 0.16015525 -0.0067366473 0.01633462 0.08125529 0.15976289
-0.07499277 -0.049351282 0.07212496 0.056195877 -0.113416076 -0.11400775 0.076790676 0.12643126
0.071839355 -0.07400028 0.11447846 -0.009885631 0.12589945 0.04219412 -0.03922827 -0.021926673
-0.034452572 0.02285935 -0.008408978 -0.02126506 -0.14280784 0.02451657 0.058852386 0.09676559
0.13844088 0.030672748 -0.0012325334 -0.044468824 -0.06451444 -0.003166737 -0.026175102 0.062204957
-0.04817841 0.041033 -0.07515881 -0.047872145 0.011664269 0.022953993 0.05157963 0.13021551
00000000: 8326 0f3e d125 df3c 3242 5bbc 18e5 323c
00000010: 7337 2bbd d29c afbd 9931 3e3d 9da5 933d
00000020: 973d b83c b32f 9dbd 8033 9e3c 54a2 f4bd
00000030: eece 883d 2c47 1e3d 395b 85bd 6198 61bd
00000040: 6355 8dbc f409 863b 4971 a43c bdff 233e
00000050: 18bf dcbb 2ed0 853c 2c69 a63d e298 233e
00000060: cf95 99bd 9224 4abd 40b6 933d a62d 663d
00000070: b046 e8bd e57c e9bd 6e44 9d3d 3277 013e
00000080: 8320 933d 758d 97bd af73 ea3d 57f7 21bc
00000090: c9eb 003e bed3 2c3d d3ad 20bd 919f b3bc
000000a0: 241e 0dbd 8843 bb3c cfc5 09bc 1034 aebc
000000b0: 383c 12be f9d6 c83c 330f 713d 0a2d c63d
000000c0: 72c3 0d3e 6a45 fb3c f58c a1ba f124 36bd
000000d0: 2620 84bd 0889 4fbb 2b6d d6bc a0ca 7e3d
000000e0: b956 45bd 3812 283d ddec 99bd 9515 44bd
000000f0: 7d1b 3f3c 030a bc3c 2945 533d 3757 053e

act.action_out.linear.weight f4 [5, 64]
-0.27838218 -0.42752862 -0.54047275 -0.005478096 -0.13265115 0.17852424 -0.25670287 0.19268958
0.118708506 0.073624045 0.33254647 0.0063905627 -0.3658087 0.09440455 0.45342508 0.18876287
-0.071067005 -0.28736302 0.18670261 -0.022927893 0.09777841 0.064533256 -0.18171526 0.047520246
-0.021337733 0.11271875 -0.013755837 -0.2833706 -0.019652478 0.44375208 0.39807326 -0.66379666
0.39944097 0.02129363 0.28281468 -0.19575012 -0.36925265 -0.086589105 0.027173134 0.08747799
-0.29458505 0.09234297 0.27591455 0.4043283 0.20660096 0.3746792 -0.24282277 -0.26430908
-0.043864436 -0.024565391 -0.12429848 -0.40754876 -0.006872383 0.27714083 0.21485285 -0.25401622
-0.4120088 -0.097457334 -0.08185725 0.11701831 0.29522628 -0.059899244 0.09491829 0.20030381
0.10933646 0.113648675 -0.27312222 0.021254543 -0.4653686 -0.17090462 -0.05520355 0.025241757
0.24286759 0.10902474 0.034057148 -0.26920763 0.59867984 -0.16025059 0.104491465 -0.2628884
0.11490675 0.077264644 0.29264975 0.13416107 0.084170364 -0.15639769 -0.40881622 0.10326998
0.5416961 0.30411357 -0.77857584 -0.14941493 -0.29886264 0.014505223 -0.09817257 0.15023048
-0.41585043 -0.102336384 -0.31417385 -0.120061874 0.48297074 0.18969138 0.0881196 -0.27567706
0.36189714 -0.49090728 -0.016369617 -0.3221227 0.20920391 -0.45362097 -0.24696636 0.1520135
0.153284 0.16729403 0.2905024 0.15313208 -0.20591415 0.18347567 -0.0825725 0.10832595
-0.089438945 0.14727725 -0.004702796 0.15023215 0.105043285 -0.19557916 0.105740726 0.19385521
-0.17147435 0.25710052 0.1970101 0.064642206 0.13750187 0.23402041 0.35818353 0.10606626
0.12218119 0.037501942 -0.42492384 0.13357408 -0.5668369 -0.25774878 -0.5594261 -0.034376405
0.23497777 -0.16128421 -0.45839384 0.13212 -0.5347216 0.028410388 -0.08054092 -0.23028044
-0.29304537 -0.36942485 0.2745927 0.30348292 0.42699328 -0.18572992 -0.18389781 0.085563146
-0.36468104 -0.3523146 0.08133414 0.15810819 -0.020989174 0.055810884 -0.09946276 -0.09112688
0.11311103 -0.12896244 -0.2161986 -0.2109179 -0.43476808 -0.08044291 0.6273588 0.6205248
0.24854699 0.18723798 0.16706483 0.13740866 0.27115977 -0.1300726 0.3693489 0.13914661
-0.13631664 -0.07048504 -0.13319997 -0.36349672 -0.40951863 -0.017465893 0.20846461 0.2460778
-0.154588 -0.17270678 0.45721483 -0.27487582 0.2960804 -0.16630282 -0.07608318 -0.304119
-0.11925893 -0.35020974 0.038386077 -0.38231614 0.04497751 0.2183787 -0.06366643 -0.031123647
0.0081603 0.29321727 0.12225695 0.14370398 0.11407113 0.26600516 0.26938495 -0.29757813
-0.37361336 -0.033852268 0.20621598 0.12808444 -0.057829205 0.023964431 -0.16791229 0.49240023
0.19727476 0.23889372 0.17967041 0.2575402 0.15402672 0.2641852 0.164154 0.15131287
-0.21539147 0.03543589 0.07905514 0.06817909 -0.058397036 0.15118627 0.08192826 -0.5005416
-0.06509528 -0.6448519 -0.12229571 -0.01396743 0.16728887 -0.30229947 -0.15595514 0.16654935
0.30583328 -0.08552978 0.10664443 -0.088802055 0.12632522 0.38226894 -0.13661836 -0.5368986
00000000: 1c88 8ebe 08e5 dabe 6c5c 0abf 9a81 b3bb
00000010: b4d5 07be 0fcf 363e 8f6e 83be 6b50 453e
00000020: 721d f33d 34c8 963d 8843 aa3e ed67 d13b
00000030: 474b bbbe 2c57 c13d 5527 e83e 0e4b 413e
00000040: 948b 91bd 3f21 93be f82e 3f3e 47d3 bbbc
00000050: 0c40 c83d 032a 843d 9113 3abe 97a4 423d
00000060: 78cc aebc 17d9 e63d 2a60 61bc f415 91be
00000070: 3cfe a0bc 7933 e33e 42d0 cb3e 94ee 29bf
00000080: 8783 cc3e fb6f ae3c 16cd 903e b872 48be
00000090: af0e bdbe a155 b1bd 319a de3c a927 b33d
000000a0: dad3 96be 501e bd3d ac44 8d3e 1e04 cf3e
000000b0: 348f 533e f4d5 bf3e 88a6 78be 8553 87be
000000c0: 32ab 33bd 5c3d c9bc 3490 febd 3baa d0be
000000d0: ba31 e1bb 67e5 8d3e 6302 5c3e 6a0e 82be
000000e0: d1f2 d2be b697 c7bd c6a4 a7bd 4ca7 ef3d
000000f0: e627 973e e958 75bd 8564 c23d 711c 4d3e
00000100: cbeb df3d a3c0 e83d add6 8bbe 021e ae3c
00000110: cb44 eebe 9f01 2fbe 1e1d 62bd cdc7 ce3c
00000120: 48b2 783e 5d48 df3d 827f 0b3d 95d5 89be
00000130: 1543 193f bb18 24be 9fff d53d 4f99 86be
00000140: 3b54 eb3d ed3c 9e3d 30d6 953e 8561 093e
00000150: 8361 ac3d b726 20be 5c50 d1be 367f d33d
00000160: 98ac 0a3f c6b4 9b3e bf50 47bf 3a00 19be
00000170: 8604 99be 51a7 6d3c b30e c9bd 05d6 193e
00000180: 59ea d4be bd95 d1bd 65db a0be 00e3 f5bd
00000190: f147 f73e 753e 423e 0d78 b43d 8b25 8dbe
000001a0: 954a b93e 3358 fbbe 9319 86bc 44ed a4be
000001b0: 8d39 563e 0241 e8be c0e4 7cbe 6da9 1b3e
000001c0: 7bf6 1c3e 204f 2b3e bbbc 943e a8ce 1c3e
000001d0: 29db 52be 0ce1 3b3e c51b a9bd ffd9 dd3d
000001e0: c42b b7bd d9cf 163e ea19 9abb 75d6 193e
000001f0: ef20 d73d e745 48be 988e d83d fb81 463e
00000200: f996 2fbe aea2 833e 04bd 493e 2263 843d
00000210: 4acd 0c3e 0ca3 6f3e d563 b73e 4439 d93d
00000220: 223a fa3d a39b 193d 9e8f d9be a5c7 083e
00000230: 391c 11bf a6f7 83be 8d36 0fbf 46ce 0cbd
00000240: 039e 703e b027 25be 99b2 eabe 774a 073e
00000250: 84e3 08bf e7bc e83c a3f2 a4bd a3ce 6bbe
00000260: 0b0a 96be 4125 bdbe 6a97 8c3e 1d62 9b3e
00000270: dd9e da3e fc2f 3ebe b54f 3cbe bb3b af3d
00000280: 79b7 babe 9462 b4be 8392 a63d 1de7 213e
00000290: 7df1 abbc f499 643d 22b3 cbbd bba0 babd
000002a0: c1a6 e73d bb0e 04be 2a63 5dbe ddfa 57be
000002b0: ec99 debe 41bf a4bd 969a 203f b7da 1e3f
000002c0: 1a83 7e3e 50bb 3f3e 0b13 2b3e dbb4 0c3e
000002d0: 74d5 8a3e c031 05be 4d1b bd3e 737c 0e3e
000002e0: 9796 0bbe 765a 90bd 9365 08be 3e1c babe
000002f0: 6dac d1be a214 8fbc bf77 553e d2fb 7b3e
00000300: 514c 1ebe 0cda 30be 1018 ea3e 86bc 8cbe
00000310: da97 973e 494b 2abe 80d1 9bbd 7cb5 9bbe
00000320: 073e f4bd b14e b3be b83a 1d3d f1be c3be
00000330: 563a 383d aa9e 5f3e 8c63 82bd 05f7 febc
00000340: c7b2 053c 9320 963e da61 fa3d 2327 133e
00000350: 209e e93d d431 883e d3ec 893e 295c 98be
00000360: 404a bfbe ada8 0abd 482a 533e 9128 033e
00000370: 51de 6cbd 0e51 c43c 33f1 2bbe e21b fc3e
00000380: 6502 4a3e 8ea0 743e 85fb 373e 4fdc 833e
00000390: 2eb9 1d3e 4843 873e fc17 283e c3f1 1a3e
000003a0: 958f 5cbe 3925 113d a9e7 a13d 7ba1 8b3d
000003b0: bb31 6fbd 93d0 1a3e 01ca a73d 7f23 00bf
000003c0: ad50 85bd 0415 25bf 2c76 fabd a6d7 64bc
000003d0: c64d 2b3e ffc6 9abe b4b2 1fbe ea8b 2a3e
000003e0: 2e96 9c3e 3d2a afbd 6568 da3d dadd b5bd
000003f0: 665b 013e c1b8 c33e afe5 0bbe 3072 09bf

act.action_out.linear.bias f4 [5]
-0.080014065 0.010250878 0.059656784 0.09876529 -0.044579647
00000000: 6ade a3bd 4cf3 273c ac5a 743d 7545 ca3d
00000010: 2699 36bd
