light_mappo-main/results/MyEnv/MyEnv/mappo/check/run14/models/critic.pt (torch, 47669 bytes, 15 tensors)

base.feature_norm.weight f4 [28]
00000000: 3ba1 613f 2388 4f3f 64b0 023f e526 623f
00000010: fc10 693f 9cf5 5f3f 0a12 4a3f 200a 4c3f
00000020: bd01 6d3f 238f 613f 8cf4 5d3f d9ec 6a3f
00000030: 675a 2b3f d04a 523f aed1 5b3f 22e7 783f
00000040: f84f 6c3f bafc 5e3f 0ca0 7e3f d934 803f
00000050: 07be 713f 929c 833f 6c7f 623f 42fd 503f
00000060: 3814 293f 6a5c 6d3f db10 5b3f da4c 913f
0.88136643 0.81067103 0.510504 0.883406 0.9104154 0.87484145 0.78933775 0.7970295
0.9258078 0.88109034 0.86701274 0.9176765 0.6693482 0.82145405 0.8586682 0.9722768
0.9230952 0.8710438 0.9946296 1.0016128 0.94430584 1.0282156 0.8847568 0.8163644
0.66046476 0.9271914 0.85572594 1.1351578

base.feature_norm.bias f4 [28]
00000000: c3e7 98bf 6a99 5bbd b596 87be d0c2 7e3e
00000010: 4b89 61be 5a8e 43be c84e 5abe 7fd8 49be
00000020: e1b6 49be ae0b c3be 052e 90be 2b00 5d3e
00000030: e8af f7be 0d2c f7bd e664 3b3e cd69 9b3d
00000040: ee8f d53c 8189 e83d fe35 88be a10b 99be
00000050: d354 523d 29e7 a1bc f6ad 61be 2626 213d
00000060: 3563 8a3e 20ff 57be c401 72bb 945c 95be
-1.1945728 -0.053613104 -0.26482168 0.24879003 -0.2202503 -0.19097272 -0.21319115 -0.19711493
-0.19698669 -0.38094848 -0.2816011 0.21582095 -0.48376393 -0.12068949 0.18300208 0.07588539
0.026069608 0.11354352 -0.26603693 -0.29891685 0.051350426 -0.019763546 -0.22039017 0.03934302
0.27028814 -0.21093416 -0.0036927322 -0.29172194

base.mlp.fc1.0.weight f4 [64, 28]
00000000: 8161 d13d b30f c23c b2a5 ee3d b26d 4f3c
00000010: 60f9 fb3c 912c 98bc 4825 65bd e720 dd3c
00000020: b8c7 c63c 3426 993d cc01 92bc 1305 663e
00000030: 8ed3 b23d 4fa1 bf3c 4d71 293e ce1c 3b3e
00000040: 124c 7abd d1aa d33b 8cb2 223e 995c 9dbd
00000050: 7854 e5bc a81b 003e 7849 78be 736a c73d
00000060: 0f3f c23c 71d2 dd3d b792 23bc 8c95 223d
00000070: 7fa4 a43e 9b9d 0a3e 54c3 b63d 5383 73be
00000080: 6a71 d73e 8899 113e 1ec6 d73e b542 803e
00000090: 19cc e53c ad3d 2abe 4bbf e6bd 3b16 13be
000000a0: 8bba 0a3c 3f98 7a3d 7894 4a3d 3dcc 19be
000000b0: 1bf2 38be 3968 8ebd cc22 cdbe be55 943c
000000c0: ec7b a6be 61d9 c7bd a527 4abe a4d8 b33e
000000d0: ae9f ac3c 2788 1d3d 5ded 5bbe 1954 6ebe
000000e0: 73e8 0f3e 964b 693d 3f54 703d 94fa 003d
000000f0: 7ad0 98bc e096 153d f3f0 ab3d bcee 09bd
00000100: fae5 d63c 959b 1f3d 8501 a53b 2f2f 65bc
00000110: 7bef 3b3e fbc1 1d3e ad1a 483c e836 0a3e
00000120: 407f 653d 6c31 d83d 41b7 c93d 7efa 783c
00000130: 9c1c 7a3d 8e63 093d 6be5 ccbd b729 3d3d
00000140: eea9 a13d 5e79 dd3d 422b 903d 8b14 92bc
00000150: 24a9 b63e ee2d 2e3c e693 323c 3365 b6be
00000160: 6826 34bd 2058 d03d 4771 93bd e462 b23d
00000170: 3193 45be 521f 27be de5a c13d 21f0 efba
00000180: af0e ccbd e905 3f3e 4338 9cbd 9158 4b3d
00000190: d0c6 f43d 0251 c03c 7d88 8a3e f893 0a3e
000001a0: bead adbc f50a 8bbc ee5f 853d c4fc 25bd
000001b0: e64c ce3d 11d3 a03c 0455 213d a257 973e
000001c0: d621 83be 3f5a ad3d d42d 3cbe 7e7f c7bd
000001d0: 9b09 a23c 7e38 ecbd 57e7 8f3e 788d cdbe
000001e0: 33f0 1dbc 41e4 7d3e ef51 fa3d 1b0e 12be
000001f0: e178 ccbe 47a1 1a3c e498 0dbd 2a40 7a3e
00000200: 2961 44be 9219 83bd 4ada 8cbd 902c 2d3c
00000210: 8f97 41be 4b99 8fbc 68cd f4bd 1dc6 62be
00000220: 124c 863e abf0 38be 5bac a1be 77ab 4a3c
00000230: aab9 23bd 36bb 05be 4615 b7bd dc9e 283e
00000240: b296 533d 0110 48be 25b4 073e 1bbe 8cbd
00000250: 38cd 023f a9e2 80be f772 d13d 311c 66bc
00000260: da26 a83a 99a7 37be e75a 28be 2197 083e
00000270: a627 82be a9d2 b9be c557 07be ec71 5fbe
00000280: 5225 f83e 7784 f6bc 692a a23d fdb3 4d3e
00000290: 6791 f2bd 11c9 90be 7080 f4bc cee0 353c
000002a0: 32ac 3fbe 75a7 6c3e c1bd 10be 2137 053e
000002b0: 6414 463d b7f3 23be 44be f6bc f3a1 19be
000002c0: a60f 623e e6e6 b53d cd9e e3bd cea0 13be
000002d0: e8c5 cab6 9063 f5bd 5ae9 393e a612 f8be
000002e0: 8a63 183d 47a8 61bb d558 903c 3d27 a13d
000002f0: 7ee7 08be 1682 e0bd 99f7 9cbd c648 a7be
00000300: ef8b 6a3e 7014 bd3d e031 6ebe e66d 1ebe
00000310: d6c1 ee3e 3f34 c1bd 2edf e1bd 025b 593e
00000320: df0f 52be 0b6a 37bd a80b b9bd 63e3 09be
00000330: d4e4 023d a23d 81bd 52d4 22bd c8fd 06bd
00000340: d8ba e13e cd01 943c 703c 12be e09d c93d
00000350: 4998 57be 3eab 1cbe 41d8 73be 5169 3b3e
00000360: 8294 29be 9ca2 1b3e 400f da3d 1115 02be
00000370: 4218 e43d 30f7 e43e 5a6d 89bc dafe 2e3d
00000380: f519 bfbe 7a27 ca3e 6d93 03be 0052 633e
00000390: 2489 87bd 3677 5d3e 2357 41be dbe4 d2bc
000003a0: 1743 0dbf 45ea 7abe 7397 8a3d b74b ae3e
000003b0: 9f44 7c3d f0e0 41bc be98 ce3d 3f4a 33be
000003c0: 28a3 44be 554c 283d 1996 99be 3705 9a3e
000003d0: 7578 46bd 3e36 83be 785c fdbe 541e 7d3e
000003e0: 0db6 d8be abed 093e 10ed a9bc 8e03 203e
000003f0: 7a48 f4be e0a3 f13e 8adb 2f3e f5a0 943e
0.102236755 0.023689127 0.116526976 0.012660431 0.03075856 -0.018575938 -0.055943757 0.026993228
0.024265155 0.0747799 -0.017823122 0.22462873 0.08731757 0.023392348 0.16547127 0.18272707
-0.061107703 0.006459572 0.15888423 -0.07683677 -0.02799438 0.1251055 -0.24246776 0.097371005
0.02371171 0.10831154 -0.00998371 0.0396934 0.3215675 0.13536684 0.08923975 -0.23780565
0.42078716 0.14218724 0.4214334 0.25050893 0.028051423 -0.1662509 -0.11266955 -0.14363949
0.008467327 0.06118035 0.049457997 -0.15019317 -0.18061106 -0.06953473 -0.4006561 0.018107291
-0.3251642 -0.097582586 -0.19741686 0.3512622 0.021072235 0.038459923 -0.21477266 -0.23274268
0.14053516 0.05695685 0.058674093 0.03148897 -0.018654097 0.03652084 0.08395567 -0.03367494
0.026232708 0.038966734 0.0050355815 -0.0139883 0.18353073 0.15406029 0.012213391 0.13497508
0.05602956 0.105563015 0.09849406 0.015196441 0.06106244 0.03354221 -0.100046955 0.04618236
0.0789374 0.108141646 0.07039501 -0.017832061 0.3567592 0.010631068 0.01089952 -0.35624084
-0.04398194 0.101730585 -0.0719934 0.08710268 -0.1929443 -0.16320542 0.0944116 -0.0018305817
-0.09963738 0.18654598 -0.076279186 0.04964501 0.11951983 0.023476128 0.27057257 0.13533008
-0.02120101 -0.016972998 0.06512438 -0.04052426 0.10073261 0.019631894 0.039387718 0.29559046
-0.25611752 0.08464479 -0.18376857 -0.09741114 0.01977997 -0.115342125 0.28106186 -0.40146995
-0.0096397875 0.24794103 0.12222659 -0.14263193 -0.39935973 0.009437866 -0.034569636 0.24438539
-0.19177689 -0.064013615 -0.06877573 0.010569707 -0.18905471 -0.01752915 -0.11953241 -0.22145887
0.26229912 -0.18060558 -0.3157681 0.012369982 -0.039971985 -0.13059697 -0.089396045 0.1646685
0.051657386 -0.19537355 0.13252313 -0.06872197 0.5109439 -0.25172928 0.10227006 -0.014044807
0.0012828961 -0.17935027 -0.16440926 0.13338901 -0.25420874 -0.36293533 -0.13217075 -0.21820801
0.48465973 -0.030092461 0.07918245 0.20088191 -0.118441395 -0.28278401 -0.0298464 0.011100961
-0.18718031 0.23110755 -0.14134885 0.13009311 0.04835929 -0.16010939 -0.030120023 -0.15003185
0.22076282 0.08881931 -0.11114273 -0.14416811 -6.0431084e-06 -0.11981881 0.18155423 -0.48451728
0.037204303 -0.0034432577 0.017620483 0.07868812 -0.13369557 -0.10962312 -0.07664413 -0.3267271
0.22904943 0.09232414 -0.23261213 -0.1547161 0.4663226 -0.09433793 -0.11028896 0.21226123
-0.20513867 -0.044778865 -0.090354264 -0.13465647 0.03195651 -0.06310584 -0.039753266 -0.03295687
0.44087863 0.018067265 -0.14280868 0.098445654 -0.21054186 -0.15299699 -0.23812963 0.18301894
-0.16560557 0.1519875 0.1064744 -0.12703349 0.11137439 0.4471984 -0.016775776 0.042723514
-0.3732449 0.39483243 -0.12849207 0.2219925 -0.066179544 0.21627507 -0.18880896 -0.025743892
-0.55180496 -0.24503429 0.06767168 0.3404214 0.06158888 -0.011833414 0.10087727 -0.17508791
-0.19202864 0.04108842 -0.29997328 0.30082104 -0.04845472 -0.2562732 -0.4948461 0.247186
-0.42326394 0.1346957 -0.020742923 0.15626356 -0.47711545 0.4719534 0.17173591 0.2902905

base.mlp.fc1.0.bias f4 [64]
00000000: c5b0 9abe e066 b1bd ff75 86be 5768 0cbe
00000010: 8c4d a1bc e407 e23d 21c1 a83d e3c7 3abd
00000020: d68a 543e 6a71 9e3e 16cb a1be 6d9c 40be
00000030: 6b96 47be 52c6 8cbc 5e5f 54be 17f6 edbd
00000040: 8d82 703d 7088 803e d278 0b3e 5843 55be
00000050: e26d 513e 975f 10be 1bd1 133f d0a3 1e3d
00000060: 622b d7be 61f8 11bd a74a 8bbd 1a06 9cbe
00000070: 6312 c53e d8f2 d4bd 43fa 6bbd ffb7 48bc
00000080: 18a3 18be aaa2 f03d 04fc 3cbe bb7e 163f
00000090: 4f8b 303e 846c 64bd 8761 e1bc e8f0 833e
000000a0: c58f bdbd 7fff c23e 637d 66bd e3d0 c03d
000000b0: 7944 90bd 95e6 533d f224 f93d 56bc c53e
000000c0: f388 0cbe eb80 23be 3ce0 ddbc 43bc 2ebe
000000d0: f2b9 99be fb9a f83e 14e1 383e a795 133e
000000e0: bc7a 563e 8b40 36be 22a6 4d3d 62c2 f5bd
000000f0: 2a68 40bd f5e5 6cb9 b866 db3e ef73 c03d
-0.3021299 -0.086622 -0.262619 -0.13711677 -0.019690298 0.11036661 0.082399614 -0.045600783
0.20756087 0.30945903 -0.31600255 -0.18809672 -0.19490974 -0.01718441 -0.20739505 -0.116192035
0.058718253 0.25104094 0.13620308 -0.20826471 0.20452073 -0.14098965 0.57740945 0.038730443
-0.42025286 -0.035637263 -0.06801348 -0.30473405 0.3849059 -0.10397881 -0.057611715 -0.012250899
-0.14905965 0.11749776 -0.18455511 0.58787125 0.17240642 -0.05576755 -0.027512325 0.25769734
-0.092559375 0.38085553 -0.05627192 0.09414842 -0.0704431 0.051733572 0.1216525 0.3862025
-0.13724117 -0.15967147 -0.027084462 -0.17064004 -0.30024678 0.4855574 0.1805461 0.14412557
0.20945257 -0.17798059 0.050207265 -0.11999966 -0.04697434 -0.0002259238 0.42851806 0.093971126

base.mlp.fc1.2.weight f4 [64]
00000000: 4776 913f e00b 483f 3722 ca3f 0475 823f
00000010: 3c8c 623f d773 583f 25a1 583f a484 7e3f
00000020: fcd4 663f dd19 643f 45b1 913f 199f 7f3f
00000030: 4f43 ad3f b5e5 533f 2d7f 893f d420 573f
00000040: 4381 5c3f 0ad0 523f 906c 4d3f b782 8b3f
00000050: 44c9 4c3f 8ff1 873f 0fe9 953f b7d6 3c3f
00000060: 2614 b23f 24c1 513f 47d3 7a3f ddfa a73f
00000070: d9d8 523f d158 643f 27c7 8b3f a43e 5d3f
00000080: 99c4 733f ec1a 363f 6f57 9c3f 0cad 7e3f
00000090: 40f8 513f 95d2 613f acb3 3d3f 2b25 5a3f
000000a0: 765b 533f cf5e 903f ad11 883f 5809 593f
000000b0: 0018 6d3f 85ae 553f 7e86 473f a0f4 5d3f
000000c0: 7ff6 723f 9fd7 863f f3a6 643f 746c 833f
000000d0: dbec a53f 3b32 633f 8edc 743f d9ee 4f3f
000000e0: 00dc 4f3f 61a5 8b3f db53 573f f3de 643f
000000f0: c6c8 493f fb93 5b3f 2b05 6f3f 8c4b 423f
1.136422 0.7814312 1.5791692 1.019196 0.8849523 0.8455176 0.8462089 0.99421144
0.9016874 0.89101964 1.1382223 0.9985214 1.3536166 0.8277238 1.0741936 0.84034467
0.8613474 0.8234869 0.8024378 1.0899266 0.79994607 1.0620593 1.1711749 0.7376513
1.3912399 0.81935334 0.97978634 1.3123432 0.82362133 0.89198023 1.0920151 0.86423707
0.9522186 0.7113483 1.2214183 0.994828 0.82019424 0.8821195 0.7410228 0.85212964
0.82561433 1.1278933 1.0630394 0.8477988 0.92614746 0.8346942 0.77939594 0.86701393
0.94907373 1.0534552 0.89317244 1.0267472 1.2962908 0.8874852 0.9564904 0.8122383
0.8119507 1.0909845 0.8411233 0.89402694 0.7882198 0.85772675 0.9336726 0.75896525

base.mlp.fc1.2.bias f4 [64]
00000000: 7b28 cbbe c0b5 bebc 053d 33bf a299 2cbe
00000010: 871a cd3b efca ed3d 55c4 c13d be6a a5bd
00000020: 9d96 0b3e 6fb2 a53e 48d6 f8be ce16 0abe
00000030: b7b5 fbbe 282d 44bc 3396 6cbe b0f8 adbd
00000040: 810e e23d 51d6 883e 5ac1 653e 1d50 72be
00000050: e896 1a3e 4468 15be 6056 da3e 8224 733d
00000060: 3ede 5ebf 1afd cbbc a870 c1bd 8c78 f0be
00000070: 1b0e cf3e 516c 3fbc a43d c2bd 26b0 afbd
00000080: fa01 07be 5132 463e 343d 4fbe a439 253f
00000090: c118 293e b9cf 8abd 1872 513d 8586 6d3e
000000a0: ce8b f6bd ad3f a73e 58c4 20be 7ede a13d
000000b0: 498d b5bb 7d74 493d d53e 7f3e 800f 963e
000000c0: 78ce 1fbe e8f7 23be f60e efbc 69c8 13be
000000d0: bc88 f3be f4e8 d03e f01e 203e c21a 3d3e
000000e0: f35a 733e b2d5 99be 0d86 7e3d 3fe2 05be
000000f0: b9ef e3bc 09e4 d73c da83 da3e 12c3 813d
-0.39679322 -0.023280025 -0.70014983 -0.16855481 0.006259266 0.11610972 0.094612755 -0.08077
0.13631673 0.32362697 -0.48600984 -0.13485262 -0.49162075 -0.011973657 -0.23104171 -0.08494699
0.11037923 0.2672601 0.22437039 -0.23663373 0.15096629 -0.14590555 0.42644024 0.05936099
-0.87057865 -0.024900962 -0.094453156 -0.4696697 0.4044045 -0.0116835395 -0.09484413 -0.085785195
-0.13184348 0.19355132 -0.20238191 0.6454108 0.16513349 -0.06777901 0.0511342 0.23195846
-0.120383844 0.32665768 -0.15699899 0.07903765 -0.005540524 0.049183358 0.24926312 0.293087
-0.15606105 -0.16012537 -0.029181939 -0.14431919 -0.47565258 0.4080273 0.15636802 0.18467239
0.23765163 -0.3004585 0.06213956 -0.13074587 -0.02782427 0.026353853 0.4267872 0.06336035

base.mlp.fc_h.0.weight f4 [64, 64]
00000000: e94d 033d 1918 003c f144 863d 94ed d43e
00000010: 3e5a 843d 5305 c3be 7aa9 e93d 803e b33d
00000020: f5d0 543d 7242 9d3d 0cd0 013e 7c32 5cbe
00000030: 4457 8a3d 4ae5 583e 2aa2 903e 7889 a9be
00000040: 074d 5abe d674 a93c ee20 75bd 5f8b a23d
00000050: 68ea 52bd 553b 863e 5fb3 a1bd 8e90 e3be
00000060: e6b4 533e ed13 8ebe bf51 1d3e 1eea 68be
00000070: 8cd2 bc3e 0f87 e33c 539d 2dbe 981c 9fbd
00000080: 50c8 cdbd b711 dfbd 8a8e 8f3e 7d56 dbbd
00000090: 8a03 833d 1d93 fa3c d6a0 d13d 7377 883b
000000a0: 398c 94bd c12a 93bd ac5f 833d 3fab babc
000000b0: ffcb e8bd 6497 443e a103 073d 794f 8d3d
000000c0: 74dd 2dbe 7150 dbbd f621 d33c c496 703b
000000d0: a929 163e 898d 913e c47a 7a3e 7f2c 33be
000000e0: 7fec 98bd f9ad ce3a 8449 2dbd 01f8 c0bd
000000f0: b80b f83b 3e14 c2bd d68b dc3e c4e7 20bd
00000100: b15e 46be e4d4 973d d473 8b3e 893e 7cbe
00000110: 894e 9abc 89bd 9dbe ffa2 86be 90de 7bbe
00000120: ffb2 ab3c e6f3 b23d 4864 973e 136d e6bd
00000130: 8f38 99bd 4ad5 a1be 5a73 c73d 2c70 f53d
00000140: 5636 f13d 1b7d 933e d81f 443e 9eba 99bb
00000150: ae80 a93e 2c3a d4bb 78db e7bc 86f9 dabd
00000160: 1ad4 9dbe 0401 f4bd fe36 ab3c 5355 d73c
00000170: b606 823d da74 05bc 8bfd 1abe b785 a0be
00000180: 6f21 a43d 14d2 283e 912c ba3d 2cee 723e
00000190: 9f5a 4cbe ebd0 f5bc cbe8 d0bd 15fb 683e
000001a0: 259a 72bd 708f 8abe f72d 78bc ec54 d8bc
000001b0: 4a7e 8ebe 4ffc 453d f60f a43d 29a3 a63e
000001c0: b667 1f3e c9ad 27be a4e3 093d 3818 51bd
000001d0: da3a a7ba 5337 00be eeef a13e de43 f73d
000001e0: 0c12 25be c9bc 003d 749f 7a3c 7720 54be
000001f0: f119 a5be 2c78 d23d 5221 2abe 0203 a3bc
00000200: 6ac3 0dbd 8e99 bdbb b7a6 1ebd 352a f43d
00000210: 7ad8 db3d b657 53bd 885c a9be 5915 61be
00000220: e5e0 853d e69e 013f c118 8bbc 1979 003d
00000230: 8a5a 3cbe 7b88 55be 0932 c0bd a3b5 5f3e
00000240: d27d 81bd f1cb 323e 70bb c7bd 99bd 92be
00000250: 0b51 863d 2ae7 143e ac15 0fbe f14d 493e
00000260: 03ce 3e3e 3d97 05bd b036 0b3e 8039 70be
00000270: f8ee 233e 2526 5b3e 53cb f13d aecc 1dbe
00000280: 2b1a 3bbe 9244 88be 845f bcbc 72eb 90be
00000290: 6cf3 343e 9774 1c3e 643b e3bc fc4f 85bd
000002a0: d53d 61be f1c6 333e 499a fd3d bbd9 3a3e
000002b0: c9ff 293e fbb9 47be 53c1 c03b 034b 873c
000002c0: 5ae6 82be 27eb 9e3d 7366 9abe 1d92 58be
000002d0: f349 4abe 4526 87be f1fc fdbd beab 91be
000002e0: 041d 2c3d a981 5d3e c537 883d eef1 83bc
000002f0: 297c 92be 3a73 02bd 2553 7ebc 635e c3bc
00000300: 7a22 4e3d 8626 bf3e e81b fe3c 2589 8d3e
00000310: 9369 47bc 2d83 793e ddfc b4be 6d5c e0bd
00000320: ef0b 193d 2a37 28be 1b5f 1d3d 83be 9cbe
00000330: 60a2 073d 01af 8d3e e688 97bd 0fba 653e
00000340: e495 823e 9280 333e 9d12 fe3d 702e 893e
00000350: ab1d 143e df70 c3be 3268 30bc b8fe 2abe
00000360: 4ab3 86bd 17cb 60be c8c5 743d de07 4a3b
00000370: 2fcb a2bd 63aa 683c cbf4 093e e7b0 9a3d
00000380: 60bd 8bbd 4c61 11be 24ad 00bd e850 c5be
00000390: 1bca dfbd 7d29 8fbc 772c b5bd 5b95 07be
000003a0: d8ed a43c cd89 3f3e 6447 0d3e 4925 d43e
000003b0: 3385 fe3d 2e6a dd3d bd90 edbd dbff 2cbe
000003c0: d653 89bd 49c5 a4be 5e48 9b3d b9bf 8b3d
000003d0: 6d92 12be 1dda 6a3e e79b e53d 6b83 ff3d
000003e0: 294b 0abe f6e7 2dbe 1cfc b03d 25db 66be
000003f0: 0d69 de3c 8254 953c 0d27 1ebe 10f9 9d3d
0.032056723 0.007818245 0.06556118 0.41587508 0.06462525 -0.3809 0.11409278 0.08752155
0.05195709 0.07678689 0.1267702 -0.21503633 0.06754926 0.21181217 0.2824872 -0.33112693
-0.21318446 0.020685595 -0.059845857 0.07936739 -0.05149308 0.26217142 -0.078955404 -0.44446224
0.20674476 -0.27749577 0.15363215 -0.22745559 0.36879385 0.027774362 -0.16954546 -0.07769126
-0.10047972 -0.10892051 0.28038436 -0.10709856 0.063971594 0.030587727 0.10235755 0.00416463
-0.07253308 -0.07185889 0.06414732 -0.022786735 -0.11367034 0.19198376 0.032962445 0.06899924
-0.16979009 -0.10708702 0.02577303 0.0036710957 0.1466433 0.28428295 0.24460894 -0.17497443
-0.07466983 0.0015768401 -0.042306438 -0.09422303 0.0075697564 -0.09476517 0.43075436 -0.03928353
-0.1937206 0.074136525 0.27236807 -0.2463323 -0.018836277 -0.30808666 -0.2629623 -0.2459662
0.020959375 0.08737926 0.29568696 -0.11251273 -0.07481491 -0.3160804 0.097387984 0.11984286
0.11777942 0.28806385 0.19152772 -0.004691436 0.33105987 -0.006476661 -0.028302893 -0.10692124
-0.30825883 -0.11914256 0.020900246 0.026285803 0.06348936 -0.008145535 -0.15135781 -0.31352016
0.080141895 0.16486388 0.090905316 0.23723668 -0.19956444 -0.030006846 -0.10200652 0.2275203
-0.059229035 -0.2706256 -0.015147678 -0.026407681 -0.27830726 0.048336323 0.08010857 0.32546356
0.15566906 -0.16374888 0.03366436 -0.051048487 -0.0012758628 -0.12521105 0.31628364 0.120734915
-0.16120166 0.03143004 0.015296806 -0.2071551 -0.32246354 0.10276827 -0.16614273 -0.019898895
-0.03461019 -0.0057861274 -0.03873321 0.11922113 0.10734649 -0.05159732 -0.33078408 -0.219808
0.06537036 0.50633085 -0.016979577 0.031365488 -0.18393913 -0.20852844 -0.093845434 0.21846633
-0.063228264 0.1746061 -0.09752548 -0.28660277 0.065584265 0.14541307 -0.13973111 0.19658639
0.18633275 -0.032614935 0.1359508 -0.23459435 0.16009128 0.2140127 0.11806359 -0.1541011
-0.18271701 -0.26614815 -0.022994764 -0.2830463 0.17670983 0.1527885 -0.02773828 -0.065093964
-0.21996243 0.17556359 0.12382943 0.1824712 0.1660148 -0.1950454 0.005882421 0.01651526
-0.2556637 0.077596955 -0.30156288 -0.21149488 -0.19754772 -0.26396385 -0.1240176 -0.2845134
0.04201986 0.21631493 0.06651262 -0.016106572 -0.28610352 -0.03184817 -0.015522753 -0.023848718
0.05032585 0.3733408 0.031019166 0.27643695 -0.012171167 0.24366446 -0.3534917 -0.10955129
0.037364896 -0.16427293 0.038420778 -0.306141 0.033113837 0.2767258 -0.07399158 0.22434257
0.25504982 0.17529514 0.12405894 0.26793242 0.14464442 -0.3817205 -0.01076703 -0.1669873
-0.065771654 -0.21952473 0.05975893 0.0030827443 -0.079489104 0.01420078 0.13472287 0.07553273
-0.0682323 -0.14197272 -0.03141512 -0.3853829 -0.109272204 -0.017475838 -0.088463716 -0.13240568
0.020132944 0.1870491 0.13796765 0.41434696 0.124277495 0.10811268 -0.11599872 -0.16894476
-0.067054436 -0.32181767 0.07582162 0.068236776 -0.1431367 0.22934766 0.11211377 0.12476238
-0.13505234 -0.16983017 0.08641836 -0.22544535 0.027149701 0.018228773 -0.15444584 0.077135205

base.mlp.fc_h.0.bias f4 [64]
00000000: 0000 0000 0000 0000 0000 0000 0000 0000
00000010: 0000 0000 0000 0000 0000 0000 0000 0000
00000020: 0000 0000 0000 0000 0000 0000 0000 0000
00000030: 0000 0000 0000 0000 0000 0000 0000 0000
00000040: 0000 0000 0000 0000 0000 0000 0000 0000
00000050: 0000 0000 0000 0000 0000 0000 0000 0000
00000060: 0000 0000 0000 0000 0000 0000 0000 0000
00000070: 0000 0000 0000 0000 0000 0000 0000 0000
00000080: 0000 0000 0000 0000 0000 0000 0000 0000
00000090: 0000 0000 0000 0000 0000 0000 0000 0000
000000a0: 0000 0000 0000 0000 0000 0000 0000 0000
000000b0: 0000 0000 0000 0000 0000 0000 0000 0000
000000c0: 0000 0000 0000 0000 0000 0000 0000 0000
000000d0: 0000 0000 0000 0000 0000 0000 0000 0000
000000e0: 0000 0000 0000 0000 0000 0000 0000 0000
000000f0: 0000 0000 0000 0000 0000 0000 0000 0000
0.0 0.0 0.0 0.0 0.0 0.0 0.0 0.0
0.0 0.0 0.0 0.0 0.0 0.0 0.0 0.0
0.0 0.0 0.0 0.0 0.0 0.0 0.0 0.0
0.0 0.0 0.0 0.0 0.0 0.0 0.0 0.0
0.0 0.0 0.0 0.0 0.0 0.0 0.0 0.0
0.0 0.0 0.0 0.0 0.0 0.0 0.0 0.0
0.0 0.0 0.0 0.0 0.0 0.0 0.0 0.0
0.0 0.0 0.0 0.0 0.0 0.0 0.0 0.0

base.mlp.fc_h.2.weight f4 [64]
00000000: 0000 803f 0000 803f 0000 803f 0000 803f
00000010: 0000 803f 0000 803f 0000 803f 0000 803f
00000020: 0000 803f 0000 803f 0000 803f 0000 803f
00000030: 0000 803f 0000 803f 0000 803f 0000 803f
00000040: 0000 803f 0000 803f 0000 803f 0000 803f
00000050: 0000 803f 0000 803f 0000 803f 0000 803f
00000060: 0000 803f 0000 803f 0000 803f 0000 803f
00000070: 0000 803f 0000 803f 0000 803f 0000 803f
00000080: 0000 803f 0000 803f 0000 803f 0000 803f
00000090: 0000 803f 0000 803f 0000 803f 0000 803f
000000a0: 0000 803f 0000 803f 0000 803f 0000 803f
000000b0: 0000 803f 0000 803f 0000 803f 0000 803f
000000c0: 0000 803f 0000 803f 0000 803f 0000 803f
000000d0: 0000 803f 0000 803f 0000 803f 0000 803f
000000e0: 0000 803f 0000 803f 0000 803f 0000 803f
000000f0: 0000 803f 0000 803f 0000 803f 0000 803f
1.0 1.0 1.0 1.0 1.0 1.0 1.0 1.0
1.0 1.0 1.0 1.0 1.0 1.0 1.0 1.0
1.0 1.0 1.0 1.0 1.0 1.0 1.0 1.0
1.0 1.0 1.0 1.0 1.0 1.0 1.0 1.0
1.0 1.0 1.0 1.0 1.0 1.0 1.0 1.0
1.0 1.0 1.0 1.0 1.0 1.0 1.0 1.0
1.0 1.0 1.0 1.0 1.0 1.0 1.0 1.0
1.0 1.0 1.0 1.0 1.0 1.0 1.0 1.0

base.mlp.fc_h.2.bias f4 [64]
00000000: 0000 0000 0000 0000 0000 0000 0000 0000
00000010: 0000 0000 0000 0000 0000 0000 0000 0000
00000020: 0000 0000 0000 0000 0000 0000 0000 0000
00000030: 0000 0000 0000 0000 0000 0000 0000 0000
00000040: 0000 0000 0000 0000 0000 0000 0000 0000
00000050: 0000 0000 0000 0000 0000 0000 0000 0000
00000060: 0000 0000 0000 0000 0000 0000 0000 0000
00000070: 0000 0000 0000 0000 0000 0000 0000 0000
00000080: 0000 0000 0000 0000 0000 0000 0000 0000
00000090: 0000 0000 0000 0000 0000 0000 0000 0000
000000a0: 0000 0000 0000 0000 0000 0000 0000 0000
000000b0: 0000 0000 0000 0000 0000 0000 0000 0000
000000c0: 0000 0000 0000 0000 0000 0000 0000 0000
000000d0: 0000 0000 0000 0000 0000 0000 0000 0000
000000e0: 0000 0000 0000 0000 0000 0000 0000 0000
000000f0: 0000 0000 0000 0000 0000 0000 0000 0000
0.0 0.0 0.0 0.0 0.0 0.0 0.0 0.0
0.0 0.0 0.0 0.0 0.0 0.0 0.0 0.0
0.0 0.0 0.0 0.0 0.0 0.0 0.0 0.0
0.0 0.0 0.0 0.0 0.0 0.0 0.0 0.0
0.0 0.0 0.0 0.0 0.0 0.0 0.0 0.0
0.0 0.0 0.0 0.0 0.0 0.0 0.0 0.0
0.0 0.0 0.0 0.0 0.0 0.0 0.0 0.0
0.0 0.0 0.0 0.0 0.0 0.0 0.0 0.0

base.mlp.fc2.0.0.weight f4 [64, 64]
00000000: 167d c13d 9edb 6ebd ed80 c03d 13cc 0c3f
00000010: 6693 153d 5863 dbbe ff18 9b3c bf47 2e3d
00000020: e13b 4abd 927b 0d3c dc0e 0b3e e073 2abe
00000030: 652b 493e 9bbb 8c3e 0740 803e 3a24 9fbe
00000040: e4a8 95be 0d18 93bc 5c72 75bd 99eb 553e
00000050: 7478 d0bd 99c3 883e d504 2bbe e73a c4be
00000060: 1b17 bd3e 8810 58be 33f2 093e 169c 0dbe
00000070: 2776 bf3e 8860 f0bc fbf3 55bd a743 e63c
00000080: d02a 52bc 848f 4abd f580 953e e674 8cbe
00000090: 4668 86bd 9169 563d 74a5 933e f82b fcbd
000000a0: d62b 67bd 1ac9 293d e2e5 8f3c af9d 39bc
000000b0: 24d2 d0bd 31fa 383e 4f35 4dbd 95f2 193e
000000c0: e530 06be fe32 24be 3351 aa3b d97e 89bc
000000d0: 175f 713e 42de 0c3e 1ed4 9a3e 5701 9bbe
000000e0: 2030 5bbe 1c93 c53d 5b69 9bbd d3bb ecbd
000000f0: bf03 41bd 0a1c 7dbd 4c1e e33e 56f7 e33c
00000100: 2e4f 83bd 8d1d c6bb a149 013f afd4 9fbd
00000110: 97b7 44be 2653 dcbe 8d4b 85be b7e2 5bbe
00000120: bb8e 3abd ec47 c2bd 3ab6 c93e 1c57 87bc
00000130: d0f1 67bc 6b95 8abe d477 ac3d e7b8 8f3d
00000140: 987a 5f3d 3c6a ae3d fd98 293e bdad 793d
00000150: 80db 1c3e 0ed2 ba3d 35cd 4cbe b86b 8b3d
00000160: 45f4 4cbe 8b53 8abc fd19 dc3d d1ac 423e
00000170: 8169 f4bc 0d83 6d3d f83d 6dbd 2f34 93be
00000180: 85c5 093e 310a 3939 a71e 453e ba74 ca3d
00000190: d885 06be f056 933c 0c8f a7bd 667c c73d
000001a0: 6769 193e c662 8dbe ed2f c33d ada1 41bd
000001b0: fc9c 36be 37b7 aa3d 5da5 96bc 44cd 903e
000001c0: e848 783e c3c9 b3bd 2685 9e3d 7acd d23c
000001d0: f15e fe3c 0954 4fbe a560 873e e9df f33d
000001e0: b421 86be f054 113e d534 fd3d 6a40 bcbd
000001f0: a058 9abe a144 953e 66a8 64be d103 b8bd
00000200: a20c 853d 8e05 c03b 558a d43d a6f5 5d3e
00000210: 37a9 c43d 39a8 b9bd 2bd0 b5be e1ec 20be
00000220: eda9 063c 81cc a13e e6b0 563d ebc8 de3d
00000230: 29e6 cfbd 0002 36be af2a 23bd d10e 6b3e
00000240: d30f 45bd 6cfb e13d 8c9d 55be fdf5 2bbe
00000250: f709 0fbd 77f7 1d3e 86d3 8cbe 9398 793e
00000260: fc59 b33e 4745 50bd 64f2 a23d ace0 12be
00000270: 1194 b73c 615e 743e 1ecd 873e fe2e 8fbd
00000280: d221 a0bd a24e 41be 0130 8e3d da39 00bf
00000290: 4132 143d f802 8a3e 30f6 7fbd c06f 3cbe
000002a0: 3e7f 22be 8a33 ad3d 3625 e43d 3850 2a3e
000002b0: 0d6d 233e 3bfb 0abe 0667 79bd f5e1 12bd
000002c0: 3f67 12be 2d29 153e 7a43 a0be 2527 2dbe
000002d0: ad1f 98bd 550b e5be 55d0 f1bd 3fca 99be
000002e0: 66ec 463c e935 c43e da45 94bd 1b0c 833d
000002f0: 7526 99be df73 8abd c9f9 53bd 3070 59bd
00000300: 8327 153e 4c38 cb3e e845 213e 83f5 a43e
00000310: 8116 503c 0b48 4a3e 71aa b8be 3037 e5bd
00000320: c2c2 f8bc 1989 4fbe a844 0b3e 90ee 87be
00000330: 7c0f df3d 1ede aa3e d64c d8bc f227 933e
00000340: 6192 ad3e e96e 0f3e 848b 593e 5fc8 9d3e
00000350: ccb1 4b3b dd7b b5be 8dbb 24bd d131 64be
00000360: 58be 2d3e d443 68be d26a 6d3c 2046 dc3d
00000370: 0cd4 38be b451 24bb c5d6 153e 74e4 2b3e
00000380: 61b0 9ebb b461 26be 2f63 833c db61 edbe
00000390: 2d08 5cbe 2735 ff3d 1139 5ebd 7953 69be
000003a0: 3a10 e63c de95 0d3d 3075 f63d dc41 b43e
000003b0: 4497 fb3d fea5 b53d fa55 dfbd 05bd 3ebe
000003c0: 6f06 233d 4bc1 74be b26b f83c a192 dc3d
000003d0: 397e 80bd 65c6 ae3d d37c 813d 0ba7 3c3d
000003e0: 924a 57be c673 10be bf43 0c3d e406 4abe
000003f0: d734 51bc e38c a63c a99a 68be 7128 883d
0.094476864 -0.058314912 0.09399591 0.5499889 0.036517523 -0.4284923 0.018932818 0.04254889
-0.04937351 0.0086354185 0.13579887 -0.16645765 0.1964546 0.27486882 0.2504885 -0.31082326
-0.29230416 -0.017955804 -0.059923515 0.20890655 -0.101792246 0.2671173 -0.16701062 -0.3832619
0.3693169 -0.21100056 0.13471298 -0.13829073 0.3739483 -0.029342905 -0.05223463 0.028108431
-0.01282759 -0.049453273 0.2919995 -0.27432936 -0.06562857 0.05234677 0.28837168 -0.12313074
-0.05643829 0.04145155 0.017565671 -0.011329099 -0.10196331 0.1806419 -0.050099667 0.15033944
-0.1310459 -0.16035077 0.005197668 -0.016784118 0.2357143 0.1375666 0.30239958 -0.3027446
-0.21405077 0.096471995 -0.07588454 -0.11559262 -0.047122713 -0.06179432 0.44359052 0.0278279
-0.06411587 -0.006046003 0.50502974 -0.07804238 -0.19210659 -0.43032187 -0.26034203 -0.21473204
-0.045546275 -0.09486374 0.3939684 -0.01652103 -0.014156774 -0.27067122 0.08421293 0.07017689
0.054560274 0.08516356 0.16562267 0.060956705 0.15318108 0.09122096 -0.20000155 0.06807655
-0.20015056 -0.01688554 0.10747144 0.19011237 -0.029835464 0.057986308 -0.057920426 -0.2875075
0.13454254 0.00017646771 0.19249974 0.09885545 -0.13136995 0.017985791 -0.08181581 0.09740524
0.14981614 -0.2761442 0.095306255 -0.047273327 -0.17833322 0.08335727 -0.018389398 0.28281605
0.24246562 -0.08778717 0.0774024 0.025732744 0.031051131 -0.202469 0.2644092 0.11907942
-0.26197588 0.14192557 0.123635925 -0.091919735 -0.3014574 0.29153922 -0.22329864 -0.08985103
0.0649655 0.005860037 0.10377947 0.21675739 0.09602588 -0.09065289 -0.35510382 -0.15715362
0.008219224 0.31601337 0.052414797 0.10878166 -0.101513214 -0.177742 -0.039835628 0.22954871
-0.048110794 0.11034283 -0.2086088 -0.16793056 -0.034921613 0.15426432 -0.2750513 0.24374609
0.3502959 -0.050847318 0.079563886 -0.14343518 0.02240947 0.23864128 0.2652368 -0.06991385
-0.07818951 -0.18877652 0.0694275 -0.50088274 0.03618074 0.2695539 -0.062490642 -0.18402004
-0.15868852 0.08457096 0.1113991 0.16632164 0.15959568 -0.135724 -0.060889266 -0.03586002
-0.14297198 0.14566489 -0.3130148 -0.16909464 -0.07427917 -0.44735208 -0.11807314 -0.30037114
0.012141323 0.3832238 -0.07239886 0.06398793 -0.29912153 -0.06760382 -0.051751886 -0.053085506
0.14565854 0.3969139 0.15749323 0.3221856 0.012700678 0.19754045 -0.36067536 -0.11192167
-0.030366305 -0.20267142 0.13600409 -0.26549196 0.10891625 0.33372587 -0.026403826 0.28741413
0.3390074 0.14007153 0.21244627 0.30816934 0.0031081317 -0.35446063 -0.040217925 -0.22284628
0.16967142 -0.22682124 0.0144908 0.10755563 -0.1804964 -0.0025073113 0.1463271 0.16786367
-0.0048428033 -0.16248208 0.016038505 -0.4636372 -0.21487494 0.1246131 -0.05425364 -0.22785749
0.02808391 0.034566753 0.120340705 0.35206497 0.12284711 0.08869551 -0.109050706 -0.18626793
0.039801057 -0.2390186 0.03032479 0.10770155 -0.06274075 0.085339345 0.063226365 0.046057742
-0.2102454 -0.14106664 0.034244295 -0.19729191 -0.012768946 0.020330852 -0.22715248 0.066483386

base.mlp.fc2.0.0.bias f4 [64]
00000000: dfd1 11bd ef56 ebbd 1eba 80bd ddf3 cbbc
00000010: d90b 11bd b240 92bd 6d05 153d ec75 1fbc
00000020: 93c9 3bbd e46d a0bd 40c8 6ebd 3c51 a7bd
00000030: d18c 2abd be78 623d cdb5 bdba ff8b 8ebd
00000040: efb0 f8bc a552 c7bd f1df 95bd c31e 35bd
00000050: 5d76 05bd 964d 73bd 216f c2bd 9f48 2fbd
00000060: b5b0 73bd 98f2 aebc b280 ffbb 1784 afbd
00000070: c6cf 213d cb9e bebc 7412 e6bb 29ac a1bd
00000080: 0b63 26ba e055 34bd 5ab5 65bd 807d 70bd
00000090: 1861 12bd 681f 423e 1cb1 af3c 1709 7bbd
000000a0: 1255 44bd b11c 2f3d 6158 73bd a36a a6bc
000000b0: 9e40 4fbd f1d4 38bd da86 a83f cf51 44bd
000000c0: 1cf0 403d 4a94 f8bc 647f 72bd a7d2 edbc
000000d0: 01c9 a1bd f750 4dbd 687d b4bd 395c a4bd
000000e0: 63e1 04bd f721 e93c b394 a93c f4fc 043d
000000f0: 6b81 33bd aa8f 01bd e73e 2dbd 6da6 37bd
-0.03560054 -0.11491191 -0.06285499 -0.024896557 -0.03541169 -0.07141246 0.036382128 -0.009732705
-0.045846533 -0.0783346 -0.058296442 -0.08169791 -0.0416382 0.05529093 -0.0014473737 -0.06960296
-0.030357806 -0.0973256 -0.07318104 -0.04421879 -0.032583583 -0.059400164 -0.094938524 -0.042793866
-0.059494693 -0.021355912 -0.007797324 -0.08570116 0.03950479 -0.023269078 -0.0070212428 -0.07894165
-0.0006347156 -0.04402721 -0.056081153 -0.058713436 -0.035737127 0.18957293 0.021446757 -0.061287966
-0.047932692 0.04275197 -0.059410457 -0.02031452 -0.050598733 -0.04512495 1.3166153 -0.04792958
0.047103986 -0.030344147 -0.05920352 -0.02903111 -0.078996666 -0.050126042 -0.08812982 -0.080254026
-0.032441508 0.028458579 0.020700788 0.032467797 -0.043824594 -0.03163115 -0.042296316 -0.04483645

base.mlp.fc2.0.2.weight f4 [64]
00000000: aab7 b73e ac35 bc3e 6d2f 033f 7bd2 0f3f
00000010: 51b1 933e 9e34 163f 8d92 1d3f a541 2d3f
00000020: e5a7 1a3f 225b fd3e 0ae4 313f 1bdf 153f
00000030: 3c17 253f 1187 b33e 652a 1c3f da8c 303f
00000040: a568 1f3f c772 153f 3cd8 023f bc45 193f
00000050: 941e 103f 57b5 f33e a825 d23e ea89 0a3f
00000060: 45d7 143f 23a4 113f 2ddc f03e aed6 f93e
00000070: 5809 9a3e 5bfe 523f ef13 063f 4262 153f
00000080: 35a7 0e3f 48c4 203f 36c8 b63e 8bea 103f
00000090: ebb7 203f a439 713e 13c2 063f e09f 1e3f
000000a0: e4a4 283f f8a7 043f 3636 203f d363 003f
000000b0: 8ede 223f 9491 0b3f cedb 953d 6760 013f
000000c0: 91be 5c3d dbb7 0c3f c424 f53e 66e1 e83e
000000d0: 5769 2b3f d653 203f b499 003f ef86 173f
000000e0: 36ea fd3e df89 f83e e851 b33e 5cb8 863d
000000f0: 1b17 203f 8dbd 143f 6258 163f c1ee e43e
0.35882312 0.36759698 0.5124424 0.5618054 0.2884622 0.5867404 0.61551744 0.6767829
0.60412437 0.4948359 0.69488585 0.58543557 0.6448858 0.35063985 0.6100219 0.6896492
0.6226905 0.5837826 0.511112 0.5987203 0.5629666 0.4759929 0.41044354 0.5411669
0.58140975 0.5689108 0.4704298 0.487966 0.30085254 0.82419366 0.52374166 0.58353055
0.5572389 0.627995 0.35699624 0.56607884 0.62780637 0.23557144 0.52639884 0.619627
0.65876603 0.518188 0.6258272 0.5015232 0.6362084 0.5451901 0.07317315 0.50537723
0.053892676 0.5496804 0.47879612 0.45484465 0.6695761 0.62627923 0.5023453 0.5919027
0.4959275 0.48542687 0.35023427 0.065781325 0.62535256 0.5810173 0.5872861 0.44713405

base.mlp.fc2.0.2.bias f4 [64]
00000000: 943c 433d 0036 133d 648e 9d3d 506f a93d
00000010: e006 243d a45d ba3d f027 723c 2572 d13d
00000020: f070 af3d 2724 903d ab2f d03d 8930 b23d
00000030: 8d59 c13d 77b8 e83c c040 b23d 4e45 d83d
00000040: 9a5c b83d 8260 ac3d 55f5 983d 8d7c b23d
00000050: fe29 aa3d ab3b 833d 2cff 783d e78e 9a3d
00000060: e7f9 b33d 641b ad3d 7d38 993d 6334 933d
00000070: ca90 263d 1ac4 fc3d 1f8f 9d3d 1f5c b53d
00000080: cdca ab3d c2f4 c03d f60d 553d b26f b33d
00000090: 558b bf3d 5d31 32be 2ed3 a33d a099 bb3d
000000a0: 98fd c73d 841c d03c 6b00 b93d 4c7a 913d
000000b0: 401e bf3d bc35 a23d 9946 11bf 7a12 963d
000000c0: 923d 043c 291b a23d c0e1 753d 92fc 883d
000000d0: 00f9 c23d aa73 bd3d a757 983d 43da b13d
000000e0: af2b 863d a17a 753d 753d 5e3d a63a 203d
000000f0: 60ea bf3d bf98 a83d 4cd5 af3d 7835 853d
0.047665194 0.03594017 0.076931745 0.08273184 0.04004562 0.09099892 0.01478003 0.102268495
0.08566463 0.070381455 0.10165342 0.087006636 0.094409086 0.028408272 0.08703756 0.10560094
0.09002037 0.08416845 0.07468668 0.087151624 0.083087906 0.06407865 0.060790226 0.07546788
0.087878995 0.0845249 0.074814774 0.07187726 0.040665425 0.12342091 0.07693314 0.08855461
0.083882906 0.09421684 0.052015267 0.087615386 0.09352747 -0.17401643 0.07999264 0.09160161
0.09765166 0.025404222 0.09033283 0.071034044 0.093319416 0.07920405 -0.5674835 0.07327743
0.00807132 0.07915337 0.060029745 0.06688799 0.09520149 0.09250577 0.07438593 0.08684208
0.06551301 0.0599314 0.05425783 0.03911843 0.09370875 0.08232259 0.08585605 0.06504339

v_out.weight f4 [1, 64]
00000000: b34e f9bb 2f0c 75bc 9038 e239 c2bf cab8
00000010: 9c2a 25bb f131 8d3b 194c 7cbc e799 e13b
00000020: 3d31 cb3a 56be 22b9 0dac f4ba 27bb 80ba
00000030: 4ef1 ebba 7ff5 efbb c498 3abb 7d95 883a
00000040: 09ee 5dba b390 72bb d3ca ecba 8daa 37bb
00000050: 2b3d 41ba 2f89 833a 13d2 1dba 9135 91bb
00000060: 541c 463b 9c26 41ba 6994 bb3b afac 77ba
00000070: 0ac5 abba c911 feb9 c758 d1ba c0f1 d43b
00000080: 05c3 863b 586c 90b9 5ee9 9cba d9ac 243b
00000090: 9c8f 5d38 69c1 9fbb 441c cf3a 4b39 a8ba
000000a0: 5d46 9fba 2759 00bc b7c3 d63a 5f7a 0fbb
000000b0: 3c7c efba d01c 16bb d4a1 5e3a 07d2 11bb
000000c0: 6a39 403a 98aa 39bb 84d7 2bbc 87ed c8ba
000000d0: 0f81 c8bb dfe2 bcba 4fb8 a2ba 8d9d f3ba
000000e0: b1c9 d23a 47a9 a83a f4ad a83b 025f ae3c
000000f0: f80e e2ba 8e86 6bbb 61cc 44bb 3b03 8fba
-0.0076082586 -0.014956518 0.0004314822 -9.667828e-05 -0.00252024 0.004308932 -0.0153990025 0.0068848017
0.0015502345 -0.0001552043 -0.0018666998 -0.0009821401 -0.0018000992 -0.0073229666 -0.0028472403 0.0010420528
-0.0008465951 -0.0037012517 -0.0018065817 -0.002802524 -0.00073714805 0.0010035391 -0.0006020378 -0.0044314344
0.0030229287 -0.0007368119 0.005724479 -0.0009448034 -0.0013104987 -0.00048459906 -0.0015971892 0.0064985454
0.0041126036 -0.00027546543 -0.0011971404 0.002512744 5.2824253e-05 -0.004875351 0.001580127 -0.0012834457
-0.0012151707 -0.007833756 0.0016385232 -0.0021893007 -0.0018271278 -0.0022905357 0.0008492742 -0.002225043
0.0007332774 -0.0028330442 -0.010488395 -0.0015329578 -0.0061189006 -0.0014410875 -0.0012414547 -0.0018586383
0.0016081837 0.0012867831 0.00514769 0.021285538 -0.0017246893 -0.0035938355 -0.0030029046 -0.0010910997
