light_mappo-main/results/MyEnv/MyEnv/mappo/check/run32/models/actor.pt (torch, 46581 bytes, 16 tensors)

base.feature_norm.weight f4 [15]
00000000: 999e 8c3f 9cb7 783f b48f 903f 99a0 833f
00000010: 4403 6e3f 2f03 8c3f 4bb8 2d3f 493e 8b3f
00000020: 965a 8f3f 957d 833f f16a 5a3f e333 993f
00000030: a4a7 763f 7f67 723f 1a87 8c3f
1.09859 0.97155166 1.1293855 1.0283386 0.9297373 1.0938472 0.67859334 1.0878383
1.119952 1.02727 0.8531943 1.196896 0.9634955 0.9468917 1.097873

base.feature_norm.bias f4 [15]
00000000: 4063 84bc ee09 80bd 905e dfbd feeb 283d
00000010: 4696 6a3d aed0 82bd 977f ce3d a085 6abd
00000020: a21e 923c a277 6e3c 36d4 eebd 286a 73bd
00000030: 423e d53c bcbe e13c 8f30 783a
-0.016160607 -0.06251894 -0.10906708 0.041240685 0.05727222 -0.06387459 0.100829296 -0.05725634
0.017836872 0.01455489 -0.1166157 -0.05942741 0.026030663 0.02755677 0.0009467685

base.mlp.fc1.0.weight f4 [64, 15]
00000000: 1e19 7dbb 9c30 9dbb eb33 aebd 0f24 333e
00000010: bbcf 0fbe e65f 95be 0275 1f3e fc59 cc3d
00000020: a3bc acbd b9bc 75be 04ab 06bf 4da7 053e
00000030: f277 66be aa39 a8bd fe50 c43e c160 7bbe
00000040: d6aa 33be 5cdd 3dbf 0705 423e dcdd ad3e
00000050: c009 5f3e b770 8ebe 63f5 223e 8a53 6bbe
00000060: f824 bdbc 4bc8 903c 095b 0a3e 65c9 5ebe
00000070: 2a40 263d 6290 0a3e 7852 debe 90e0 6abd
00000080: c002 a93e 37e9 25be 8299 b43d 1b97 b13e
00000090: c531 6e3e 26de 64be 95ba c6bd cc74 85bd
000000a0: e31c f83c b4a3 c7bd 9b79 13be e71a ed3e
000000b0: e242 fdbd 367b c93c f62d c73c e3b7 53be
000000c0: fdfa 023e 6a2e 6abe c681 a23d a2fd dcbd
000000d0: dce8 843e bf48 b0be 232a a53e c049 613e
000000e0: cf2b 91be 2629 34be 74bb 8c3e 01cc 8d3b
000000f0: 021d 853d 79f1 543c 5def 8a3d e9f5 c03e
00000100: 8a79 383e 2bf1 b2be 3be9 a3bd a138 eabe
00000110: 23f4 f5bc 5a60 13bf 52d0 783e afe8 debd
00000120: 07f6 12be b4ff 153e 878e 193e c93a fabd
00000130: 2f99 74be 831d 213e c8e4 8a3e a2e5 0abc
00000140: 169f 893e 8ab2 90be fb8d 8abe 92f6 ed3e
00000150: 6fae 9239 79b9 843e cc6d 9b3d b7c7 72be
00000160: 0825 073e 9cf2 60bd a4b6 963d 406b 4fbe
00000170: de01 e73e 3d8a 953e 715a 133e ca80 663d
00000180: c08f 563e b196 a1be 23bb b53d 525f 7a3e
00000190: 84d8 88bd 0204 653e 3ab7 8ebe e7e9 96bd
000001a0: 3c47 b33d 4ed5 2ebe 5155 99be 8611 a6bd
000001b0: 85d9 2bbe 98c7 9dbe 1bb4 50bc 5c6d 743d
000001c0: ecfe dabe a7d2 05bf 99e1 013d 2a23 bbbd
000001d0: 03dd b13e c3fc aa3e 8326 da3d c3ec 9a3d
000001e0: 41bd d5bd 74e9 203d 7965 313e ebc3 8c3e
000001f0: 6818 813d dc3a be3d 06df d93d c0ae 31be
00000200: a690 023e 1cff a1be f803 493e 0a10 913e
00000210: 9147 7b3d 12dc bcbd 8300 9a3e df74 a4be
00000220: bcfb b03d be4f 83be 97af 76bd 5676 8d3d
00000230: 4a1c d33e 80f7 173d bb1e ca3e 080f 1abe
00000240: 42b0 74bd ea7c 793e 5d50 bdbe 9138 ff3d
00000250: 3db3 0d3e ea3e 5a3e 5504 12be a22a 10be
00000260: 7747 dbbc 356c 4fbd 809e a53e a613 c1bd
00000270: 157b 243e 23be 17be 94df 2bbe b693 86bc
00000280: ce3c 04bf c6f1 0cbe 38a6 0abe 3c17 6f3d
00000290: ce38 023f 0f6c f5bc 7129 ffbe b0e2 03be
000002a0: 2b90 453e 36c3 843e 117f ddbc 3db0 9fbd
000002b0: 8418 59be 53ae d53d 17cf d8bd d0eb 01bf
000002c0: 88f3 943e bf8d 983e 4f99 723e f551 fd3d
000002d0: 3a97 623e 2be8 313e 5ec7 c93c 3137 8d3d
000002e0: 09ce 133e b98d d53e 5983 2bbe 2192 12be
000002f0: 0cd3 dbbd adba bbbd 77c0 82be 46a0 97be
00000300: abde 933d e93b d53c 3b7e 9fbe 5391 37be
00000310: c6fe 0cbe 9151 013e dd88 db3e 524e fa3d
00000320: f9ce 01bf 2dbc 9e3e df21 dfbd ae0f b93d
00000330: 7aea 103e decc d23d 4b9e 2ebe 8255 38be
00000340: 30a3 53be ea0f 8d3d 106f 14be 4d84 713e
00000350: e37e 1cbe 6167 913e 75b3 8abd 005e b1bd
00000360: c752 82be cdd5 f4bc 8953 07be 0cd3 e13d
00000370: 516f 8b3d e32c 903e 481d f8b8 33e9 a6be
00000380: 612b 37bc b0b6 a6be 4667 8f3e 0bff 88be
00000390: 962b b0be 2082 babd 39cc 923d 2447 b3bc
000003a0: fa3e 883e 5fd1 c43e 0da1 22be 2563 42bb
000003b0: 1cd5 efbe a826 b93c db43 38bd 8799 433e
000003c0: 20e6 933e b327 673e f8ac 2b3e a339 323d
000003d0: cbd3 e5bc eed2 ae3b 9934 79bd d66f a13e
000003e0: c35f 26bf ad88 8e3c 472c 533e d3c9 d53e
000003f0: 5773 94bd 7de9 4c3e e2b4 55bd 46a9 073e
-0.0038619707 -0.0047970545 -0.08505996 0.17494224 -0.14044087 -0.29174727 0.15571979 0.09978101
-0.08434417 -0.23997773 -0.526047 0.13052101 -0.22506693 -0.082141235 0.38343042 -0.24548627
-0.17545637 -0.7416589 0.1894723 0.33958328 0.21781063 -0.2782037 0.1591392 -0.22981086
-0.023088917 0.017673632 0.1351129 -0.21756513 0.040588535 0.1353164 -0.43422294 -0.057343066
0.3300991 -0.16202246 0.08818342 0.34685597 0.23261173 -0.22350368 -0.097035564 -0.06516418
0.030287212 -0.09748021 -0.14401858 0.46309587 -0.123662725 0.024594884 0.024313908 -0.20675616
0.12791057 -0.22869268 0.079349086 -0.10790564 0.25958908 -0.344305 0.3225871 0.2200079
-0.28353736 -0.17593822 0.27486765 0.0043272977 0.064996734 0.012997025 0.06783936 0.37687615
0.18015113 -0.34949622 -0.080034696 -0.4574633 -0.03002364 -0.57568896 0.24298218 -0.108842246
-0.14351664 0.14648324 0.14995776 -0.12218244 -0.2388656 0.15733914 0.2712767 -0.0084776
0.26879185 -0.28261214 -0.27061448 0.4647718 0.00027977253 0.25922754 0.075893015 -0.23708998
0.1319772 -0.05491887 0.07359055 -0.20255756 0.45118612 0.2920703 0.1438997 0.056275167
0.20953274 -0.3156028 0.08873584 0.24450424 -0.06681922 0.2236481 -0.27874166 -0.07368832
0.08753821 -0.17073557 -0.29947904 -0.08108811 -0.16782196 -0.3081634 -0.012738253 0.059674606
-0.42772615 -0.52274555 0.031709287 -0.091375664 0.3473893 0.33395967 0.10651877 0.0756469
-0.10436488 0.03928514 0.17323865 0.27493224 0.06303483 0.0928857 0.106382415 -0.17351818
0.12750491 -0.31639946 0.1963042 0.2833255 0.061347548 -0.092216626 0.30078515 -0.32120416
0.086417645 -0.25646776 -0.06022605 0.069073364 0.4123252 0.03710127 0.3947657 -0.15044796
-0.059738405 0.24364057 -0.36975375 0.12461961 0.13837905 0.21313062 -0.14259465 -0.14078763
-0.026767476 -0.050640304 0.32347488 -0.09427576 0.16062577 -0.14818625 -0.16784507 -0.016427856
-0.5165528 -0.13764104 -0.1353997 0.058371767 0.5086793 -0.029958753 -0.49836305 -0.12879443
0.19293277 0.25930184 -0.027038129 -0.07797287 -0.21200758 0.1043364 -0.10586374 -0.50750446
0.2909205 0.29795644 0.23691295 0.12369148 0.22128001 0.17373721 0.024631198 0.068952926
0.14434065 0.41709688 -0.16749324 -0.14313556 -0.10733613 -0.09166465 -0.25537464 -0.29614466
0.07220205 0.026029544 -0.31150994 -0.1792653 -0.13769063 0.12628771 0.42877856 0.1222197
-0.5070644 0.31002942 -0.10895132 0.09036194 0.14151946 0.102929816 -0.17052571 -0.18001369
-0.2066772 0.06887801 -0.14495492 0.23585625 -0.15282778 0.28399184 -0.0677251 -0.08660507
-0.2545378 -0.029887104 -0.1321546 0.11026582 0.06808341 0.28159246 -0.000118310156 -0.32599792
-0.011179776 -0.32561255 0.2800848 -0.26757082 -0.34408253 -0.091068506 0.07167859 -0.021884508
0.26610547 0.38440987 -0.15881748 -0.0029661146 -0.46842277 0.02260144 -0.044986587 0.19101535
0.2888651 0.22573738 0.16765201 0.043511998 -0.028055092 0.0053352034 -0.060841177 0.31530637
-0.6498987 0.017399156 0.20622359 0.41755542 -0.07248562 0.20010944 -0.052174456 0.13248166

base.mlp.fc1.0.bias f4 [64]
00000000: 64d6 573c 66ff b83d c153 94bc 4af8 133e
00000010: 3a1b 26ba a308 bcbd d5db 05bd da6a 3ebc
00000020: c938 4cbd 4d30 323b 5f45 f13d f0d2 463e
00000030: 9852 80bd 664f aa3d 5678 403d f728 5a3e
00000040: 3bd2 9fbd 2d09 4d3b 551a 91bd 438a 08bc
00000050: 18e6 0fbc 8918 833d 2f56 16bd 5701 c6bd
00000060: 4f09 abbd 9f9e 613d 5cb2 47be cf5d ddbd
00000070: 8acb 28be c3a4 36be 7f23 9f3d 492d f6bb
00000080: fbfc a7bd 8158 06be 5644 be3c df28 b6bd
00000090: 6ca7 5bbd 9f33 04be a886 6a3d 5c36 1bbe
000000a0: 92b4 f4bd 2502 b1bd ec3b 81bd 96bd 06be
000000b0: b41f 20bd fb34 0fbd 14c5 adbd 226a 6dbc
000000c0: ef85 d83b 2948 88bd 4f8a 8fbc 2630 313c
000000d0: a55d 8c3d 8526 863b 2a69 9b3d 898d bf3d
000000e0: 6a6c 64be 61f0 a6bc 166f 043d d64d b7bd
000000f0: b6c8 b1bd f79f b0bd 1f3a d83d 2d91 563e
0.013173673 0.090330884 -0.018106343 0.14450184 -0.00063364545 -0.09181335 -0.03268035 -0.011622155
-0.049858842 0.0027189434 0.117808096 0.19416404 -0.062657535 0.08315925 0.04698976 0.2130469
-0.0780377 0.0031285987 -0.070851006 -0.008333745 -0.008782886 0.06401164 -0.036703285 -0.09668224
-0.08351385 0.055082913 -0.19501632 -0.10808908 -0.16483894 -0.17836289 0.07770442 -0.0075127226
-0.08202549 -0.13119699 0.023225944 -0.08894514 -0.053626463 -0.12910317 0.057257324 -0.15157455
-0.119485036 -0.08642987 -0.06310257 -0.13158259 -0.039092734 -0.034962635 -0.08484855 -0.014490636
0.006607763 -0.066543885 -0.017522005 0.010814702 0.06853799 0.0040939474 0.07588418 0.093531676
-0.22306982 -0.020378293 0.032332502 -0.08950393 -0.08680861 -0.08624261 0.10557961 0.20953818

base.mlp.fc1.2.weight f4 [64]
00000000: a74e 953f c17d 9d3f 0bda 8f3f 32bb 8e3f
00000010: 8fa9 8c3f c663 7e3f c567 943f 6b4e 763f
00000020: afd5 673f aedf 943f 7c65 723f ea7c 843f
00000030: 79e7 7b3f 1f24 823f f1d0 7c3f e5e2 8f3f
00000040: 9ad0 7b3f 559a 843f 9c55 813f 84a1 5a3f
00000050: 9e34 7b3f 1d2e 663f d8e6 803f de88 723f
00000060: 2b0c 863f 45f8 973f b49a 773f 4213 8d3f
00000070: 1aae 6f3f 8bf7 7c3f df6e 8b3f af22 893f
00000080: ea51 843f 40ea 7d3f 0169 7d3f 6f34 543f
00000090: 221a 5c3f 4a18 893f c65c 9d3f e3df 813f
000000a0: 4bc7 8c3f cd58 7c3f a25e 4d3f 41b5 803f
000000b0: 01ba 853f d747 6e3f a80e 693f 3cff 7b3f
000000c0: 4c8c 8b3f 5a9f 7a3f 1728 763f 76ca 813f
000000d0: 4ce0 743f 6996 6c3f 9ec5 853f c2cd 823f
000000e0: 4664 623f 6bd1 793f 9ba5 623f d9d0 9c3f
000000f0: 2d00 553f 9354 743f fa85 a73f 8296 843f
1.1664628 1.2304002 1.1238416 1.1150877 1.0989245 0.9937099 1.1594168 0.96213406
0.9056043 1.1630762 0.946861 1.0350621 0.98400074 1.0167273 0.9875632 1.1241118
0.98365176 1.0359598 1.0104251 0.85402703 0.9812716 0.89914113 1.0070448 0.9474009
1.0472463 1.1872641 0.96720433 1.1021502 0.9362503 0.9881522 1.089321 1.071371
1.0337498 0.9918556 0.9898835 0.8289251 0.85977376 1.0710537 1.2293937 1.014645
1.0998319 0.98573 0.80222523 1.0055314 1.0447389 0.9307837 0.9103799 0.9843633
1.090219 0.978994 0.9615492 1.0139911 0.9565475 0.9241701 1.0450933 1.0219042
0.88434255 0.9758517 0.88533944 1.2251235 0.83203393 0.9544155 1.3087761 1.0358431

base.mlp.fc1.2.bias f4 [64]
00000000: 1e98 4dbd 0800 253e 1a23 103d 7148 473d
00000010: 50a9 3a3d b264 d5bd cfaf 8dbd c90f ef3d
00000020: 79f4 343c abda 763d faf4 5e3e 9b22 453e
00000030: 0bad aabd 2219 c43d 88f2 4abd a80d 1e3d
00000040: 2374 b0bd a6cc 593d 7e24 5cbe 26d7 dc3d
00000050: e9b0 db3c 56be 333e 7607 1abb 3388 183c
00000060: 5952 e73c 2f95 143e a5bc ab3c 3c7f 7e3b
00000070: ee6f bd3b 02f0 4ebd 9c55 41bd 2bcd 033e
00000080: e862 28bd 8b2a 6dbe c965 e93c ea96 833e
00000090: 52bc bd3d 0217 36be b890 80bd 1da1 38be
000000a0: 7876 37bd cf39 75bc 0a28 113e b899 babd
000000b0: 6e72 0ebe 2610 d03d 31a5 96bd 3636 a1bd
000000c0: f591 59bd 1e62 eb3d f2b2 893d 4bb6 2bbc
000000d0: c634 083e 7b9b 2b3d 75d1 203d 80e1 fa3d
000000e0: fd54 5b3d ba9e 0cbd 6960 a13d e323 50bd
000000f0: d10b db3c 31ba 79bc 1183 81bd ec92 7b3e
-0.0501939 0.16113293 0.035189725 0.04865307 0.045571625 -0.10419597 -0.069182985 0.11672933
0.011044615 0.06026713 0.21773139 0.19251482 -0.083337866 0.09575106 -0.049547702 0.038587242
-0.08615901 0.053173684 -0.21498296 0.10783224 0.026817756 0.17553076 -0.0023502982 0.009309816
0.028237509 0.14510034 0.020963976 0.0038833162 0.0057811653 -0.050521858 -0.047200784 0.12871234
-0.04110995 -0.2316076 0.028490918 0.25701076 0.09264435 -0.17782214 -0.06277603 -0.1803021
-0.044790715 -0.014967396 0.1417543 -0.09111351 -0.13910839 0.1015933 -0.073557265 -0.07871668
-0.05311771 0.11493324 0.06723584 -0.010480474 0.13301381 0.041896325 0.039262254 0.12250042
0.053547848 -0.03433106 0.07879717 -0.050815474 0.026739033 -0.015242145 -0.06323827 0.24567765

base.mlp.fc_h.0.weight f4 [64, 64]
00000000: 5d0a 0f3e e4f8 813e 8cfb a53d 6672 8f3e
00000010: 9921 24be 86af 823e 696e 14be 0377 efbd
00000020: cd16 97be b492 95be 1376 85be 33a5 823d
00000030: 5115 04be d9e2 713d 8197 22be ba38 9f3e
00000040: f0c9 0c3a c1a5 df3d 02b3 3b3e ef1e 48be
00000050: 18b2 e53d 796a d1be 93c3 c73c 55f3 87be
00000060: 5a59 ccbd 1403 8cbd 4b97 b6bb a5fe 82be
00000070: 12d2 943d a0b9 adbb e317 ed3d bc5e 9ebe
00000080: 9c0b 7dbd b51b 97bd 85e0 f63c fad1 d6be
00000090: 4951 203e acfd d1bd 14bd 8e3e a784 a0be
000000a0: 62db 89bd 1a28 a63d 6bc9 dc3d cf62 2abd
000000b0: 9fef 0b3c fcb6 dcbd 35e3 78bd 7b28 05be
000000c0: 38ee 693e dced 2bbe 87d5 303e 7e29 853e
000000d0: 8536 60be e247 a23d ce68 88bd a69d 053c
000000e0: 90db 23bc 2ce5 efbc 6a6f 71be f3c4 d33d
000000f0: 7b17 413d 8e85 073e 7a7f 693d 6c16 c23d
00000100: ad7a ee3d 7fa3 85bc 3561 843c 8490 1d3e
00000110: f0c1 1fbe b9e4 2c3e 63ca 0f3e 7a0f 043e
00000120: 13bd 763d cc59 13be e142 933d 67e2 24be
00000130: 293e a03b 5e10 8d3e 208e ffbd e68c 3ebe
00000140: 07e1 303e e87e 3cbe 244a 5abe f34e 05be
00000150: fd3f 363e 374e 033e cd10 223e a112 4c3e
00000160: bb24 e4bd 7a77 05bd b6d1 efbc 2c9e cebd
00000170: ccb6 b13e 1f58 c6bd 7e3e e43e 05e5 34be
00000180: 8cb5 8cbd d2b9 a53d bce0 813d 5d27 e8bc
00000190: 70d0 bc3d f308 d93d 8887 01bd 4949 093d
000001a0: ac1a 853e cd60 4d3e bb31 32be 44fa cfbd
000001b0: 4ad1 a53e 29d3 13bc f813 5cbe 9d6d 763e
000001c0: 4743 aabe 1e9b 843e 562e 143e 6c41 ac3d
000001d0: c813 19be 10fc ce3e ff36 17be 28aa 69bd
000001e0: 9fd3 94bd 7d70 96be 42a3 923e c573 bfbd
000001f0: 9d1f f23d eb8d 113b d908 58be eadf fdbd
00000200: ef6e 94be 3440 71be fa00 093e 1a32 443e
00000210: 1de7 92be bfe0 52be 3cce 3bbe 8d4f debd
00000220: 2937 3a3e d6a1 93bd f548 84be aa4c a1bc
00000230: 550f c43d 0629 49be d971 45bd 236f 83be
00000240: c934 cfbd df80 a73e c207 033e d18e aabc
00000250: 20df 0abd 31e5 a13e 239b 1bbe ff9a b83b
00000260: bbe0 16be 4883 843d d88b 77be 06df 133e
00000270: a8f9 8a3d 98c0 50bd 73a5 99bd 4952 4b3d
00000280: bfbc f13c 19d1 12be 54f3 c73c 2a0d debc
00000290: 2658 27be 8d2c 403e 48f7 8a3e a3cd 203b
000002a0: 5ddd e43e a3a3 4f3e c4aa f83d ca6b a0be
000002b0: 1d8c 403e 5eca 7fbe 87c9 06be 6537 b33d
000002c0: 3f40 9a3d 86f3 febd 70d0 983c 66b1 78be
000002d0: 9be2 5cbe 90ae 37bd cea2 8fbe 0181 7e3e
000002e0: 3cf3 523d d7fb 123e 30a0 79bd e71d 853e
000002f0: 75c8 253d de23 dabc 9ea1 f43c 72a7 3a3e
00000300: 5a0d ce3d e434 53bd 2872 583e d912 8e3d
00000310: 97a9 64be c09b 4a3d 296b 2bbd 6309 093d
00000320: 210f 413e 1437 7e3e 3561 23be 6a16 fa3d
00000330: d46f 253e 69af 80bd 0807 23be d6a4 d4be
00000340: 608e 223e e3d8 5c3e 3878 a53e 8243 83bd
00000350: 44cf 47be 7cdb 9abd 2b8c 71be 7476 8b3d
00000360: b48e a23e bc59 4abd 01c0 273e 0188 88be
00000370: 53b5 ccbd 452b 48be a7c3 ae3d 8895 5b3e
00000380: 100b 813d c87b 0d3e 74b3 22be 2d47 40be
00000390: 5abd e53d 47cb f1bd 8a2e eb3d 4e07 afbd
000003a0: db43 93be 989f 513c 8e8b 3ebe 626e 63bd
000003b0: 5b3b abbd 10d7 92be 6a60 853e 661b 013e
000003c0: 7c13 a4bd 8e76 0f3c d98b bfbd f146 c13d
000003d0: 51de 7d3e 39e8 613e c8d0 bfbc a283 65bd
000003e0: a5f3 a2bd c533 afbe 7022 853e 5628 dd3d
000003f0: 3e76 afbe 85ab ad3c b8ce 5e3e 6ca7 af3b
0.13968797 0.253852 0.081046194 0.28016967 -0.16028441 0.2552454 -0.14495243 -0.116926216
-0.29509583 -0.29213488 -0.26066646 0.063791655 -0.12898757 0.05905423 -0.15878107 0.31097966
0.0005370667 0.10920287 0.18330005 -0.1954305 0.11215609 -0.40901545 0.02438525 -0.26552835
-0.0997798 -0.068365246 -0.0055722347 -0.25584903 0.0726663 -0.0053016692 0.11576822 -0.30931652
-0.06177865 -0.073783316 0.030136356 -0.41957074 0.15656008 -0.10253462 0.2787863 -0.31351206
-0.06731297 0.081131175 0.10780605 -0.041598137 0.008541017 -0.10777089 -0.060763557 -0.13003723
0.2284478 -0.16789955 0.17268954 0.2600822 -0.21895798 0.07923867 -0.06660615 0.008155262
-0.010001078 -0.029284082 -0.23577657 0.103402995 0.047141533 0.13234541 0.057006337 0.09476933
0.11644492 -0.016313313 0.016159633 0.1538716 -0.15601325 0.16884126 0.14042048 0.12896529
0.06023891 -0.14389724 0.071904905 -0.1610199 0.0048902226 0.2755155 -0.1247828 -0.18608436
0.17273341 -0.18407786 -0.21317345 -0.13018398 0.17797847 0.12822805 0.15826721 0.19928981
-0.11139818 -0.032584645 -0.029274803 -0.10088763 0.34709775 -0.096847765 0.44578928 -0.17665489
-0.06870565 0.08092083 0.06341693 -0.028339082 0.09219444 0.1059741 -0.031623393 0.033517156
0.25996912 0.20056458 -0.17401783 -0.10155156 0.32386237 -0.0090225125 -0.21491992 0.24065252
-0.33254454 0.25899595 0.14470801 0.08410916 -0.14948952 0.40426683 -0.14767073 -0.05704704
-0.07266926 -0.29382697 0.2864018 -0.09348253 0.11822436 0.0022209834 -0.21097125 -0.12396224
-0.28990886 -0.23559648 0.13379279 0.19159737 -0.2869195 -0.20593546 -0.18340391 -0.10855017
0.18185104 -0.07208602 -0.25836912 -0.019689877 0.09573237 -0.19644555 -0.048204277 -0.25670728
-0.1011749 0.32715508 0.12795928 -0.020820053 -0.033904195 0.31620172 -0.15195899 0.0056337113
-0.14734165 0.064703524 -0.2417444 0.14440545 0.067858994 -0.05096492 -0.0750226 0.04963902
0.029508946 -0.14337577 0.02440802 -0.027105886 -0.1634222 0.18766995 0.27141786 0.0024536632
0.44700137 0.20277266 0.12141946 -0.31332237 0.18803449 -0.2497954 -0.13162814 0.087508
0.07531785 -0.12448792 0.018654078 -0.24286422 -0.21570818 -0.04484421 -0.28053898 0.24853899
0.051501498 0.14353882 -0.060943782 0.25999376 0.040474374 -0.026628431 0.029862221 0.18227938
0.1006114 -0.051564112 0.21137297 0.06937189 -0.22330318 0.04946494 -0.041850243 0.033456217
0.18853427 0.24825698 -0.1595505 0.122113064 0.1615594 -0.06283457 -0.15920651 -0.4153201
0.15874624 0.2156711 0.32318282 -0.064093605 -0.1951266 -0.075613946 -0.23588626 0.068097025
0.317495 -0.049401984 0.16381837 -0.26666263 -0.09995522 -0.19547756 0.085334115 0.2144376
0.06300938 0.1381675 -0.15888768 -0.18777151 0.112177566 -0.1180635 0.11483486 -0.08546315
-0.28762707 0.012794398 -0.18607923 -0.05552519 -0.083609305 -0.28679705 0.2605012 0.12608108
-0.08011529 0.008756293 -0.09352846 0.09437359 0.24791838 0.22061242 -0.023414984 -0.056033738
-0.07956628 -0.34219185 0.26002836 0.10798709 -0.342699 0.021199951 0.21758544 0.0053605344

base.mlp.fc_h.0.bias f4 [64]
00000000: 0000 0000 0000 0000 0000 0000 0000 0000
00000010: 0000 0000 0000 0000 0000 0000 0000 0000
00000020: 0000 0000 0000 0000 0000 0000 0000 0000
00000030: 0000 0000 0000 0000 0000 0000 0000 0000
00000040: 0000 0000 0000 0000 0000 0000 0000 0000
00000050: 0000 0000 0000 0000 0000 0000 0000 0000
00000060: 0000 0000 0000 0000 0000 0000 0000 0000
00000070: 0000 0000 0000 0000 0000 0000 0000 0000
00000080: 0000 0000 0000 0000 0000 0000 0000 0000
00000090: 0000 0000 0000 0000 0000 0000 0000 0000
000000a0: 0000 0000 0000 0000 0000 0000 0000 0000
000000b0: 0000 0000 0000 0000 0000 0000 0000 0000
000000c0: 0000 0000 0000 0000 0000 0000 0000 0000
000000d0: 0000 0000 0000 0000 0000 0000 0000 0000
000000e0: 0000 0000 0000 0000 0000 0000 0000 0000
000000f0: 0000 0000 0000 0000 0000 0000 0000 0000
0.0 0.0 0.0 0.0 0.0 0.0 0.0 0.0
0.0 0.0 0.0 0.0 0.0 0.0 0.0 0.0
0.0 0.0 0.0 0.0 0.0 0.0 0.0 0.0
0.0 0.0 0.0 0.0 0.0 0.0 0.0 0.0
0.0 0.0 0.0 0.0 0.0 0.0 0.0 0.0
0.0 0.0 0.0 0.0 0.0 0.0 0.0 0.0
0.0 0.0 0.0 0.0 0.0 0.0 0.0 0.0
0.0 0.0 0.0 0.0 0.0 0.0 0.0 0.0

base.mlp.fc_h.2.weight f4 [64]
00000000: 0000 803f 0000 803f 0000 803f 0000 803f
00000010: 0000 803f 0000 803f 0000 803f 0000 803f
00000020: 0000 803f 0000 803f 0000 803f 0000 803f
00000030: 0000 803f 0000 803f 0000 803f 0000 803f
00000040: 0000 803f 0000 803f 0000 803f 0000 803f
00000050: 0000 803f 0000 803f 0000 803f 0000 803f
00000060: 0000 803f 0000 803f 0000 803f 0000 803f
00000070: 0000 803f 0000 803f 0000 803f 0000 803f
00000080: 0000 803f 0000 803f 0000 803f 0000 803f
00000090: 0000 803f 0000 803f 0000 803f 0000 803f
000000a0: 0000 803f 0000 803f 0000 803f 0000 803f
000000b0: 0000 803f 0000 803f 0000 803f 0000 803f
000000c0: 0000 803f 0000 803f 0000 803f 0000 803f
000000d0: 0000 803f 0000 803f 0000 803f 0000 803f
000000e0: 0000 803f 0000 803f 0000 803f 0000 803f
000000f0: 0000 803f 0000 803f 0000 803f 0000 803f
1.0 1.0 1.0 1.0 1.0 1.0 1.0 1.0
1.0 1.0 1.0 1.0 1.0 1.0 1.0 1.0
1.0 1.0 1.0 1.0 1.0 1.0 1.0 1.0
1.0 1.0 1.0 1.0 1.0 1.0 1.0 1.0
1.0 1.0 1.0 1.0 1.0 1.0 1.0 1.0
1.0 1.0 1.0 1.0 1.0 1.0 1.0 1.0
1.0 1.0 1.0 1.0 1.0 1.0 1.0 1.0
1.0 1.0 1.0 1.0 1.0 1.0 1.0 1.0

base.mlp.fc_h.2.bias f4 [64]
00000000: 0000 0000 0000 0000 0000 0000 0000 0000
00000010: 0000 0000 0000 0000 0000 0000 0000 0000
00000020: 0000 0000 0000 0000 0000 0000 0000 0000
00000030: 0000 0000 0000 0000 0000 0000 0000 0000
00000040: 0000 0000 0000 0000 0000 0000 0000 0000
00000050: 0000 0000 0000 0000 0000 0000 0000 0000
00000060: 0000 0000 0000 0000 0000 0000 0000 0000
00000070: 0000 0000 0000 0000 0000 0000 0000 0000
00000080: 0000 0000 0000 0000 0000 0000 0000 0000
00000090: 0000 0000 0000 0000 0000 0000 0000 0000
000000a0: 0000 0000 0000 0000 0000 0000 0000 0000
000000b0: 0000 0000 0000 0000 0000 0000 0000 0000
000000c0: 0000 0000 0000 0000 0000 0000 0000 0000
000000d0: 0000 0000 0000 0000 0000 0000 0000 0000
000000e0: 0000 0000 0000 0000 0000 0000 0000 0000
000000f0: 0000 0000 0000 0000 0000 0000 0000 0000
0.0 0.0 0.0 0.0 0.0 0.0 0.0 0.0
0.0 0.0 0.0 0.0 0.0 0.0 0.0 0.0
0.0 0.0 0.0 0.0 0.0 0.0 0.0 0.0
0.0 0.0 0.0 0.0 0.0 0.0 0.0 0.0
0.0 0.0 0.0 0.0 0.0 0.0 0.0 0.0
0.0 0.0 0.0 0.0 0.0 0.0 0.0 0.0
0.0 0.0 0.0 0.0 0.0 0.0 0.0 0.0
0.0 0.0 0.0 0.0 0.0 0.0 0.0 0.0

base.mlp.fc2.0.0.weight f4 [64, 64]
00000000: cfd5 0d3d c217 083e de6f 3f3e ab74 813e
00000010: b17e 7ebd fa77 b13e 4d84 fa3c 0a37 bbbd
00000020: 9903 52be c0d9 83be ae01 9dbe 56f6 abb9
00000030: 0d4d 38be 1c93 153e 7669 8e3c 518b 993e
00000040: de01 8e3d 5e50 39be eb62 9a3e 989e 38bd
00000050: b96e 693e b7fa 5bbe bc9a 483e 697c 98be
00000060: 2a99 c4bd 72e2 c3be 4129 8a3c 7286 abbe
00000070: 45cc 233c c836 923e 7350 2c3e 8af0 74be
00000080: 0d1a ed3a a885 2d3d bfe3 6bbe c429 25bf
00000090: e0ca 0f3e 977d b4bc fcc5 933d 0718 87be
000000a0: 6279 eabc 6d40 dd3d 5108 3c3e 2934 9c3d
000000b0: 6416 b2bd 1a75 efbd 3a65 a43d 6b68 163d
000000c0: 7891 063e 9286 53be 7b96 f73c 96bb 9a3e
000000d0: ba20 81be 7d18 a5bd a137 d4bd 0c70 713e
000000e0: 0f39 6dbe c0dd 59be e0b3 80be 29eb 593e
000000f0: 1464 ac3d ca0d c13d 5a27 903d cfd3 31be
00000100: d982 1e3d 6bf3 ab3e 8c72 66be c38f d03e
00000110: da7a bcbe 9caf bfba bac4 4a3e c847 d9bc
00000120: 6d18 50be 9a87 f03d 7e21 423e 3f81 5fbe
00000130: fc05 513d 8600 673e a90c 54be b448 2cbd
00000140: 7adb c53e 2526 94be a078 f4bd ee71 88be
00000150: 5aef a83e 8644 ab3e 3993 c53d 691b e23b
00000160: c340 df3d a8f4 58be 52ba 1f3d ec2c a2be
00000170: 0919 d43e 164d 55be 7e72 103f 3e2f 7abe
00000180: 7885 b23d 9329 d7bc d7d6 ee3c 433a 063e
00000190: 8821 683d aaaa 043e c541 073d 5093 04bc
000001a0: 6266 a03e 403c 753d a4f0 f2bd 8d9d 6abd
000001b0: 4a93 c43e 4cf6 b43d af05 21be 6d86 2f3e
000001c0: a84a febe dfa9 823e f6d6 8f3c 356f 88bd
000001d0: db69 92be f79c 9c3e def2 1c3d b79c 6cbe
000001e0: f09d 103e 9ef2 f53c dd8a 5b3e be7d 213d
000001f0: 169e 03be 403b 033e 21cf 5cbe ee18 2fbe
00000200: 7ed1 96be 902b 5dbe 0ed6 7b3e 2f62 c93d
00000210: 1f7f 8dbe 8348 a8bd a5de 9abe a949 8cbd
00000220: dc40 dd3d d996 e13c 575b 98be 81a0 cebd
00000230: 5b5f 453e d48a 99be cc8b 26bb 0b00 eebe
00000240: a18d 4cbd 4c46 a43e ad15 1c3e 8f10 2fbc
00000250: ea8d b73d 89ec a63e a98b 6abe f25e e1bc
00000260: 1c25 fbbd e578 b4bd ee10 5abe 191e 733e
00000270: dcb0 8c3e a5de 563e 061a c1bd 1335 b13e
00000280: 5ec9 bbbd b305 35be b0a9 be3e c643 27be
00000290: 8464 e7b8 5359 293e 4b4d debc eba7 963c
000002a0: 5129 313e 176e 323e 9b3c f43d 5539 89be
000002b0: 9eb7 1fba 4dc6 4cbe aab6 94bd d56e 003f
000002c0: 7adf 73bd 24c6 0ebe 728d 36bd a41d 3bbc
000002d0: 35ad f4bd f241 1cbe c76e 07bf 9f6c 9e3e
000002e0: 705e b0bd ebc6 813d 23ba acbe df7d d43e
000002f0: 7c26 363e ce81 b0bc 43b5 7f3b c742 89ba
00000300: 670e 7c3e 88df 63be 58c6 7a3e dc82 fa3c
00000310: 1bd7 a1bd 3a5c 3a3c 5faa 79bd 8375 e1bd
00000320: 21cf 103e b229 723e 27c3 b83c fce0 23bd
00000330: d2f4 283e 3402 4fbe 9b2b dfbd c605 0abf
00000340: 69c7 883d 7fc6 fb3d 0f75 f53e 94b6 b5bd
00000350: 6e1b 53bc 6b4e 5dbe 6fc0 46be c01f ec3d
00000360: 5a08 bc3e 42cb bdbe dd34 7d3e 81db 2dbd
00000370: 74c6 bcbd 92fb 2bbe c176 a53c 31db b13e
00000380: 1f8f 5d3e 5276 4a3e e1d5 90bd 434f 4cbe
00000390: d51d b93d 10df eabd fc9c 9db9 1791 23bd
000003a0: a2da b2be fe12 b6bd eedc 62be bc31 b93c
000003b0: cda1 89be 186d 91be 7a8b a43e 4aff 6b3e
000003c0: 34b0 07be a5fc 563e 2d2d e9bd b60e 1e3e
000003d0: 587a b53e dadd 6d3e 93ee 05be 2bf8 0b3e
000003e0: 3ed6 52bd 61da 25bf 57bf 8e3e f0c7 153e
000003f0: b04c 3cbe 4d71 93bd 1183 903e 32e1 c73d
0.034627732 0.13290313 0.18695018 0.25284323 -0.06213254 0.34661847 0.030580664 -0.09141357
-0.20509185 -0.25752068 -0.30665344 -0.00032799196 -0.17998143 0.14606899 0.017384272 0.29989102
0.0693395 -0.18097064 0.30153593 -0.04507312 0.22796144 -0.21482359 0.19590276 -0.29782417
-0.09599526 -0.38258702 0.016865375 -0.3350101 0.009997432 0.2855742 0.16827564 -0.23919883
0.0018089429 0.042363793 -0.23036097 -0.64516854 0.14042234 -0.022032542 0.07215497 -0.2638552
-0.028622333 0.10803304 0.18362547 0.07627136 -0.08695677 -0.11692257 0.0802712 0.036720674
0.1314143 -0.20656803 0.030223122 0.30221242 -0.2522028 -0.080613114 -0.10362173 0.23577899
-0.23166297 -0.21275997 -0.25137234 0.21281113 0.08417526 0.09426458 0.07038756 -0.17365955
0.038699005 0.3358415 -0.22504634 0.4073468 -0.36812478 -0.0014624479 0.19801608 -0.026523486
-0.20321818 0.11744614 0.18958089 -0.21826647 0.051031098 0.22558793 -0.20707954 -0.042061523
0.3864401 -0.28935352 -0.1193707 -0.2664942 0.3299511 0.33450717 0.09647221 0.00690024
0.10901024 -0.21187079 0.03899605 -0.31674898 0.4142535 -0.20830187 0.564247 -0.24432084
0.087168634 -0.026264941 0.029155178 0.13108163 0.056672603 0.12955728 0.033021707 -0.008091763
0.31328112 0.059871912 -0.11862305 -0.05727916 0.38393623 0.0883604 -0.15724824 0.17141123
-0.49666333 0.25520226 0.017558556 -0.06661836 -0.28596386 0.30588505 0.038317554 -0.23106657
0.14122748 0.030022915 0.21439691 0.039426558 -0.12853274 0.12815571 -0.21563388 -0.17099354
-0.29456705 -0.21598649 0.24593374 0.0983318 -0.27636048 -0.082169555 -0.3024799 -0.06849987
0.108033866 0.02753775 -0.29757187 -0.100892074 0.19274656 -0.2998873 -0.0025412915 -0.46484408
-0.049939755 0.32084882 0.15242644 -0.0106851 0.08962615 0.32602337 -0.22904839 -0.027511094
-0.122629374 -0.08812121 -0.2129552 0.2374195 0.27478683 0.2098337 -0.09428792 0.34610805
-0.09169267 -0.17677955 0.37238836 -0.16334447 -0.00011033661 0.1653798 -0.027136466 0.018390616
0.17300917 0.17424808 0.11925622 -0.26801553 -0.000609273 -0.1999752 -0.07261403 0.50169116
-0.059539296 -0.13942772 -0.044568487 -0.011420641 -0.11947099 -0.15259531 -0.5290341 0.30942246
-0.086117625 0.06336769 -0.3373576 0.41502282 0.17788118 -0.02154627 0.0039017953 -0.0010472172
0.24614869 -0.22253239 0.24489725 0.030579977 -0.07902356 0.011374528 -0.060953494 -0.11008742
0.14141513 0.23648718 0.022553993 -0.040009484 0.16499642 -0.20215684 -0.10896989 -0.5391506
0.066786595 0.122937195 0.4794087 -0.08872715 -0.012884958 -0.21611945 -0.19409345 0.11529493
0.36725122 -0.37069136 0.24727197 -0.042445663 -0.092175394 -0.16795185 0.020198228 0.34737542
0.21636628 0.19771698 -0.07072044 -0.19952111 0.09038893 -0.11468327 -0.00030062336 -0.03993329
-0.3493243 -0.08890341 -0.2215459 0.022606723 -0.26881257 -0.28403544 0.32137662 0.23046604
-0.1325081 0.20994814 -0.1138557 0.154353 0.35444903 0.23229161 -0.1307929 0.13668887
-0.05147385 -0.64786345 0.27880356 0.14627051 -0.18388629 -0.07199345 0.28224996 0.097597495

base.mlp.fc2.0.0.bias f4 [64]
00000000: ec84 1ebe 2e12 acbd a002 06be a199 833c
00000010: 3acd 0a3c ffcc 1dbe 4d55 9dbd 03e2 e2bd
00000020: c560 4c3d 51a9 80bc 9803 60bc 72dd 87bd
00000030: 5ecb 56bd b00e 273c c82a f2bd 5532 31be
00000040: 5653 42bd 54bb 97bd cf8b c8bd b082 9cbd
00000050: ac28 09bd b202 41be cf6c 33be a705 50be
00000060: 9695 01be eee1 7dbe ab72 e6bd 9a8c 3c3d
00000070: d8c2 c2bd 01a0 5a3d 17c9 4a3d 87dd a0bd
00000080: 05a4 1abe d5de 16be b392 90bd a96d 933d
00000090: 2a4c 673c 87d8 c7bb 2f2d 25be 65c4 6bbe
000000a0: f56c ccbd 4c30 19be c859 59bc 0aac 0bbe
000000b0: e1ee bbbd 50df b1bd 3761 d4bc 37aa 703d
000000c0: db83 14be 2474 40be b4e0 f1bc 8158 68bd
000000d0: 76ef 5bbd de4c 60bd d84d 9a3c 27e4 6ebd
000000e0: 0c20 a13d 18e3 963c 35da eebb 45bb 8d3d
000000f0: 2fd8 05bd 1b8c a1bd bf9c 8cbe 9b09 bf3b
-0.15480393 -0.08401905 -0.13086939 0.016064467 0.008471781 -0.15410231 -0.076822855 -0.110782646
0.049896974 -0.015705736 -0.013672732 -0.06634034 -0.05244004 0.010196373 -0.11824566 -0.17304356
-0.047442757 -0.07408777 -0.097922914 -0.07642114 -0.033486053 -0.18848684 -0.17521976 -0.20314656
-0.12654719 -0.24793217 -0.1125234 0.046032526 -0.0950982 0.053375248 0.04950818 -0.07854753
-0.15101631 -0.14733441 -0.07059231 0.071986504 0.01411728 -0.00609881 -0.16130517 -0.23024137
-0.099817194 -0.1495983 -0.013266034 -0.13639846 -0.09176422 -0.086851716 -0.025925262 0.05875608
-0.14503424 -0.18794304 -0.029526092 -0.05672503 -0.053695165 -0.054760806 0.018835947 -0.05832305
0.078674406 0.018418834 -0.007289196 0.069204845 -0.032676872 -0.07888051 -0.27463338 0.0058300025

base.mlp.fc2.0.2.weight f4 [64]
00000000: caaf 753f b1f7 913f 3505 943f d70c 893f
00000010: ac85 b23f ae32 953f 8741 943f 4912 833f
00000020: 1f08 893f 6818 9f3f 2a68 863f 95be 9c3f
00000030: 0ee7 983f 2620 983f f0ed 813f cdc8 8d3f
00000040: 0b8c 963f 1c61 863f d017 813f 972f 973f
00000050: 2fe5 943f dce5 713f 5148 8a3f 66fc 913f
00000060: 0f4d 9d3f f0a1 7b3f a248 8d3f 79d6 a33f
00000070: 9a69 8e3f c253 a03f 2f12 903f 1de1 7d3f
00000080: 12b1 6c3f 9df1 763f 3f5c 6a3f 94f3 893f
00000090: 11fa ad3f 22fb 8b3f 8cca 893f 6fce 6f3f
000000a0: b680 a43f 51dd 563f 3093 7a3f c267 8a3f
000000b0: d713 b53f 2e54 943f 88c3 9b3f 3f7c 8f3f
000000c0: 52b3 843f 9308 843f 360a 823f 33bf 763f
000000d0: ff49 8b3f 1333 6d3f 7f56 923f cce5 923f
000000e0: 0f17 843f 1fd6 953f a9e0 733f 4356 953f
000000f0: 0ff1 893f b65e 993f ab88 973f acbf 953f
0.9597136 1.1403714 1.1564089 1.0707043 1.3947043 1.1656091 1.1582497 1.0239955
1.0705603 1.2429323 1.0500538 1.2245661 1.1945512 1.1884811 1.0150738 1.1076905
1.1761488 1.0498385 1.0085392 1.1811398 1.1632441 0.9449136 1.0803319 1.1405151
1.2289141 0.9829397 1.1037791 1.2799827 1.1125977 1.2525561 1.1255549 0.9917162
0.9245769 0.9646242 0.91547006 1.0777459 1.3591939 1.0936015 1.0764937 0.9367437
1.285178 0.8393145 0.9788084 1.0812914 1.414668 1.158819 1.2169046 1.1209792
1.0367224 1.0315117 1.0159366 0.96385497 1.0881957 0.9265606 1.1432647 1.1476378
1.0319537 1.170597 0.9526468 1.166695 1.077669 1.1982028 1.1838583 1.1699119

base.mlp.fc2.0.2.bias f4 [64]
00000000: 8f56 e13d eb0a 90bd 2ea5 443c 6d98 b33c
00000010: 41c0 cdbc c5f8 e33d 0fb5 f1bd fb4a a83d
00000020: 55d2 3cbe 31fe 8fbd 5372 68bd 9bde 51bd
00000030: 9300 cf3c eb16 523d 91e1 8bbc 58e6 bfbc
00000040: 4600 9fbc e34f 043d 7016 f7bc 642d 103d
00000050: 44c0 2ebd be61 b23c 4d83 c33d 57c1 323d
00000060: 87b0 ae3d 9a93 93bc 08e8 9ebb 9487 bb3b
00000070: 1513 843c aaeb 833d 86c1 003d a8bc a3bd
00000080: 1ba4 733d bc99 993c c663 6c3d 56bf 783d
00000090: 63af 8fbd bc79 8f3d de78 823d da69 6abd
000000a0: b75a 4f3d 2aa9 143d 62e2 30bb 08b4 303d
000000b0: 7b6a dbbc 5092 2a3c 6e7a ed3c 4b2e 633c
000000c0: a4b9 edbc 4454 b63b f1de 64bd 01ae b2bc
000000d0: 95b0 533d ad57 343c f5db 29bd 6ea7 333d
000000e0: 4bdc 7a3c 9440 c5bc cfcb 9ebd 52fb 3cbd
000000f0: 352c 85b9 4430 8e3d 1368 42bd 2343 213d
0.11002838 -0.070333324 0.0120022725 0.021923268 -0.025116088 0.111314334 -0.11802112 0.082174264
-0.1843961 -0.07030905 -0.056749653 -0.051237684 0.025268828 0.051291388 -0.017075332 -0.023425266
-0.01940931 0.03230275 -0.030162066 0.035199538 -0.042663828 0.021775123 0.09546528 0.043641414
0.08529764 -0.018014718 -0.0048494376 0.0057229493 0.01612238 0.06441434 0.03143456 -0.07994968
0.059482675 0.018750064 0.05771234 0.060729347 -0.07015874 0.07005641 0.0637071 -0.057229854
0.05062362 0.03629414 -0.0026990403 0.04314044 -0.026784172 0.01041086 0.028989043 0.013866018
-0.029019184 0.0055642445 -0.055876676 -0.021811487 0.051682074 0.011007232 -0.041469533 0.043860845
0.015311311 -0.024078645 -0.07753717 -0.046138115 -0.00025400674 0.069428 -0.047462534 0.039370667

act.action_out.linear.weight f4 [10, 64]
00000000: d652 e0bc c922 05bd 0e4b 42be d342 6f3d
00000010: 5724 f7bd 5b27 06bd af69 18bc 69e6 543d
00000020: 236e efb9 9cd1 7b3e 8b3b 2abe 41b8 49bc
00000030: 13c2 223e f7fd 823d 4d5d c8bc 3c8d 9a3d
00000040: 728f b6be 56b7 87bc 16c0 1c3e c6dd 07bc
00000050: 988d e13d 475c 15be 0c6f 00bd 9564 4c3e
00000060: cf75 64be 5fd3 f1bc 5d06 f2bc 7bbd f2bd
00000070: b535 28be 2dc8 1cbe 8eae 61bd e5d2 c83d
00000080: b1f7 18bd 4a59 bfba 953e fd3d 42f8 9ebd
00000090: 51c3 943e ea99 41bd 9162 db3d 78d0 73bd
000000a0: 5368 babc d4ea a9bc 3549 d53d e474 a93c
000000b0: 0c5e 89bd b10c 4b3e 0215 5cba 521e dfbc
000000c0: 13da 8dbd 9366 923d 15e5 363e 0177 12bd
000000d0: 88c7 8dbd da17 873d 247f 5c3e 6c84 283e
000000e0: c9cc 3c3d 3556 86bd 357b a73d 4d63 163e
000000f0: ce67 4d3e bb8c 77be c47b 023e 212c 753c
00000100: 746d f4bd 36f2 a4bd 1910 393e 0129 303e
00000110: 0343 503d 46cc 5b3d c8fe 883d 3eac 36bd
00000120: 7a22 f73d 5b6c 1b3d f1a5 a53d 0d1a 873c
00000130: 26bf 0f3c 1f5c 43be 9e04 ff3d bc17 203d
00000140: ca4a e83d 9cc6 92bb cdd8 ecbd bb91 383d
00000150: 5751 6abe f349 b23d 151a 30be 679b 5fbc
00000160: b718 583e c5c4 8f3c 3ea6 1e3c 84b0 2e3e
00000170: e015 ed3d 3518 afbd e60c acbd 8a22 2f3d
00000180: c932 5a3d 38d7 84bd db16 93bd c868 113b
00000190: 42a7 9fba d806 c0bd d38e 2ab9 39b5 de3c
000001a0: edae 00be dc69 793d 7da0 ba3a d494 dc3d
000001b0: 5b88 c33d d71c 0ebd 93cd 8bbe 5b9f 1f3d
000001c0: f0f9 eebc 22e1 203d a93f 01bc 63f1 63bd
000001d0: ceac 03be 0fb7 0f3e dd81 ffbc a79f 593e
000001e0: d84e 9cbd fe27 6a3d 37ad 8f3d 1555 053d
000001f0: 078b afbd 058b 103e 9444 5b3e 5465 05be
00000200: 2a86 d13c 3336 8c3d 19cd 6c3d 9a51 5abd
00000210: 1f26 0b3d 10a0 35be 3ea3 823e 6828 f7bd
00000220: 53f5 7f3d 616e a0be 71d2 bf3d 4b0d 3f3e
00000230: 5309 47be e54a 763e fed1 983d adc1 01be
00000240: 183e 833d efd7 8c3d 8537 08be a74e 483e
00000250: afb5 bb3d 40eb 42bc 422a c83d f25f 873d
00000260: 85e9 1d3d 2996 c6bd 770d 233d fb00 dd3d
00000270: b8f1 923d 17be 08be 24f7 a7bd 030e 57bd
00000280: e3b2 b0bc 14aa 393d a865 773d 50f9 653e
00000290: 4139 58bd 7efa c2bd 7784 2fbe 7418 bb3d
000002a0: 33dd e23d 3447 553d 106e 033c 22b3 373e
000002b0: 31f4 66be 4311 26be e897 8c3e b8ba 54be
000002c0: fb6c 4a3e 86e8 34be f9b1 dd3c dd47 6a3c
000002d0: 323f f33d dd20 72bd 71f3 12be c7a5 85be
000002e0: 809d b83c bb06 df3d 0295 c1bd 1e0f 7bbe
000002f0: f608 a2bb 0942 0dbe 4a03 503d f668 ff3d
00000300: 6e84 65bd a692 373e 15d0 f03d 8808 18be
00000310: ce4b 47be 9094 2d3e 79ff 923d 05e1 a53d
00000320: 883a 143e 2b0a 363e 6a42 123d beb5 69bd
00000330: ad66 053e f541 c8bd 679a 933d 4fc1 2cbe
00000340: 1404 d83d 0fd8 7bbd cdd4 0b3e 179c 34bc
00000350: a115 373e 0b34 31bb 6004 ecbc d932 34be
00000360: d075 2b3e 8265 403d 1b76 843d 0f01 79be
00000370: 5265 713d 8831 213c 6f82 58be 2075 0ebd
00000380: 0cfc 9b3d 0381 30be 1f0e c6bd eea5 253e
00000390: 8096 d9bd 5e46 32bc b051 1bbe b27d 833b
000003a0: 243c 393e a149 ba3d e5d6 29be 8085 07be
000003b0: 4863 0cbe 2aa0 083e 1e01 913c 3fb7 a5bd
000003c0: 4c15 8abd f59e 1e3d 6b58 abbd b5a5 0e3e
000003d0: 32d8 75bd 1502 713c e156 303d 940b febc
000003e0: 1e76 80bc 0fae ec3d c93e 15bd c1cb 37bd
000003f0: 44c5 8a3d 2182 01be 8e9c cb3c 062a e23d
-0.02738325 -0.032503877 -0.18973944 0.058413338 -0.12067478 -0.032752376 -0.009302541 0.05197755
-0.0004566769 0.24591678 -0.16624276 -0.012311996 0.15894346 0.06396096 -0.024458552 0.075464696
-0.35656315 -0.016566914 0.1530765 -0.008292621 0.11013335 -0.14585982 -0.031355903 0.19960244
-0.22310565 -0.029519735 -0.02954405 -0.11852547 -0.16426738 -0.15310736 -0.05509811 0.0980585
-0.037345592 -0.0014598754 0.12365452 -0.07762195 0.29055265 -0.047265925 0.107121594 -0.059524983
-0.022754824 -0.020741858 0.10414354 0.02068562 -0.06707391 0.1982906 -0.00083954644 -0.027236138
-0.0692636 0.07148471 0.17860825 -0.035758022 -0.06922823 0.06596346 0.21532875 0.16456765
0.046093736 -0.065594114 0.08177797 0.14686318 0.2005913 -0.24174778 0.12742525 0.014964134
-0.11934939 -0.080540106 0.18072547 0.17203142 0.050845157 0.053661607 0.06689221 -0.044597857
0.12067123 0.037945133 0.080882914 0.016491914 0.008773601 -0.1907811 0.124520525 0.039085135
0.1134239 -0.0044792425 -0.11564789 0.045060854 -0.22882591 0.08705511 -0.1719745 -0.013647891
0.21103178 0.017549882 0.00968319 0.17059523 0.11576438 -0.08549539 -0.08400898 0.04275755
0.05327109 -0.06486362 -0.07182094 0.0022187699 -0.0012180584 -0.09376305 -0.0001626567 0.027186023
-0.12566729 0.06089197 0.0014238503 0.10770574 0.09547492 -0.034695473 -0.27305278 0.038970333
-0.029171914 0.039277203 -0.007888713 -0.055650126 -0.12858889 0.14034675 -0.031189853 0.21252309
-0.07632226 0.057167046 0.0701546 0.032551844 -0.08571439 0.14115532 0.21412879 -0.13026935
0.02557667 0.06846275 0.057812784 -0.053300478 0.033971902 -0.1773684 0.2551517 -0.12068254
0.06248982 -0.31334212 0.093663104 0.18657415 -0.1943715 0.24052007 0.07461928 -0.12671538
0.06408328 0.068771236 -0.13302429 0.19561253 0.09165513 -0.011896908 0.09773685 0.06610097
0.03855278 -0.096966095 0.039807763 0.10791203 0.071750104 -0.13353764 -0.08201435 -0.052503597
-0.021569675 0.045328215 0.06039968 0.22458386 -0.052788977 -0.09520434 -0.17140375 0.091355234
0.11077347 0.052069858 0.008021846 0.17939427 -0.22554089 -0.16217522 0.27459645 -0.20774353
0.19768135 -0.17666826 0.027062403 0.01429936 0.11877288 -0.059113372 -0.14350678 -0.2610304
0.02253604 0.108899556 -0.09452249 -0.24517485 -0.004944916 -0.13794722 0.050784387 0.124711916
-0.056034498 0.17927036 0.117584385 -0.14847004 -0.19462511 0.16951203 0.07177634 0.0809956
0.14475453 0.17777316 0.03570787 -0.05705809 0.13027449 -0.09778205 0.07207184 -0.16870616
0.10547653 -0.061485346 0.13655396 -0.011023543 0.17879345 -0.0027039077 -0.02881068 -0.17597522
0.1674416 0.046971805 0.06467839 -0.2431681 0.058934517 0.009838469 -0.21143506 -0.034779668
0.076164335 -0.17236714 -0.09670662 0.16176578 -0.10624409 -0.010881035 -0.1516788 0.004012787
0.18089348 0.09096075 -0.16585882 -0.1323452 -0.13709748 0.13342348 0.017700728 -0.08091592
-0.06742343 0.038725812 -0.08366474 0.139304 -0.060020633 0.014709969 0.043051604 -0.03101138
-0.015681323 0.115566365 -0.03643683 -0.04487205 0.06775907 -0.12647296 0.024854925 0.110431716

act.action_out.linear.bias f4 [10]
00000000: 2a3b 45bd 7dba 0cbe 5beb a53c a047 a13b
00000010: 21f4 0d3d 628c 163d c8a0 023d 94b5 b0bc
00000020: d51d 1cbc 53a2 dd3d
-0.048152126 -0.13743015 0.020253828 0.0049218684 0.034656648 0.036754973 0.031891614 -0.021570958
-0.009528597 0.108219765
