light_mappo-main/results/MyEnv/MyEnv/mappo/check/run32/models/critic.pt (torch, 52149 bytes, 15 tensors)

base.feature_norm.weight f4 [45]
0.9943137 1.1271672 1.050257 0.9802996 0.99855274 0.94207644 0.989448 0.95072824
1.0049103 0.98259896 1.0118245 1.1181493 1.0449029 0.9087596 1.0401078 0.98003286
0.9639393 1.0548877 0.9889943 0.89127886 1.0126069 1.0309478 0.964333 1.0573771
0.9472118 0.9540787 1.0455558 0.93512994 0.9849666 0.89110434 0.94837976 1.0750295
0.9324041 1.0225348 0.9480443 1.0694419 0.9733067 1.0258877 1.0697885 0.983047
0.9971492 0.9567541 0.9806838 0.98313075 0.9809877
00000000: 588b 7e3f 0447 903f d26e 863f eaf4 7a3f
00000010: 27a1 7f3f ec2b 713f 774c 7d3f ed62 733f
00000020: e7a0 803f 9b8b 7b3f 7783 813f 841f 8f3f
00000030: 61bf 853f 78a4 683f 4122 853f 6fe3 7a3f
00000040: bac4 763f 8f06 873f bb2e 7d3f da2a 643f
00000050: 1a9d 813f 19f6 833f 87de 763f 2258 873f
00000060: 797c 723f 803e 743f c6d4 853f ad64 6f3f
00000070: c526 7c3f 6a1f 643f 04c9 723f 919a 893f
00000080: 09b2 6e3f 6ce2 823f 08b3 723f 79e3 883f
00000090: a12a 793f 4a50 833f d4ee 883f f8a8 7b3f
000000a0: 2c45 7f3f d6ed 743f 180e 7b3f 75ae 7b3f
000000b0: 0322 7b3f

base.feature_norm.bias f4 [45]
-0.033871762 -0.015540539 -0.058332775 -0.044617355 -0.016960068 0.02196997 0.0040974063 0.02496126
-0.039093927 -0.10896399 0.011659451 -0.062118825 -6.158974e-05 -0.059422735 -0.101073995 -0.03593241
-0.03771386 -0.07323454 0.021163419 -0.024373332 -0.03939769 -0.043400172 0.03441862 -0.023940729
0.008380345 -0.024494534 -0.06301727 0.07657491 -0.013696817 -0.0044970047 0.022134127 -0.106340975
-0.07547006 -0.021471193 -0.030905131 -0.053995706 0.050383776 -0.02937984 -0.1445632 0.03549751
-0.077336706 -0.12924123 -0.00097163295 -0.047589514 -0.038962957
00000000: 1ebd 0abd bf9d 7ebc 59ee 6ebd b0c0 36bd
00000010: d7ef 8abc 5efa b33c 8943 863b 8e7b cc3c
00000020: f420 20bd 8328 dfbd 4807 3f3c 4f70 7ebd
00000030: bd29 81b8 4165 73bd e2ff cebd dd2d 13bd
00000040: d979 1abd fefb 95bd e85e ad3c 95aa c7bc
00000050: 795f 21bd 61c4 31bd 8afa 0c3d 591f c4bc
00000060: b74d 093c c3a8 c8bc 330f 81bd 4ed3 9c3d
00000070: 9d68 60bc 9c5b 93bb a152 b53c 4cc9 d9bd
00000080: 0c90 9abd 5be4 afbc c22c fdbc 9a2a 5dbd
00000090: 385f 4e3d fdad f0bc 6008 14be d665 113d
000000a0: b562 9ebd d057 04be 2fb5 7eba 39ed 42bd
000000b0: 9f97 1fbd

base.mlp.fc1.0.weight f4 [64, 45]
-0.30285326 0.020105485 -0.16587387 -0.059755053 0.22848065 -0.20305571 -0.040924046 -0.21567236
0.04091799 -0.011870437 -0.042015124 -0.12940836 -0.14423351 -0.19743967 -0.028539099 -0.017039096
0.30917308 0.09689735 -0.22205094 0.2899542 0.0138809215 0.110255055 -0.15331376 0.21531837
-0.14056309 -0.002775246 -0.24763949 -0.15951648 -0.037965767 -0.11805898 0.14649296 -0.0439598
-0.115283325 -0.029194554 -0.022732709 -0.07230121 0.03609597 0.014744053 0.041198444 0.15412088
-0.20333597 -0.13595492 0.09547761 0.19682157 0.18390529 0.07243008 0.030728163 -0.20933509
0.08243556 0.040976375 -0.013675969 0.07850254 -0.059749022 -0.062221926 -0.06532964 0.06992199
0.17380105 0.0327077 -0.09615637 -0.14898014 0.27698836 -0.0805746 -0.15505986 -0.47863016
0.2622666 0.014436346 -0.46706077 0.04225827 -0.03641811 -0.12334616 0.042078126 0.11162273
-0.017750327 -0.23582484 0.05941529 -0.027224474 0.14560443 0.07905987 0.2695328 -0.14526653
0.37021092 0.15163024 0.12629187 0.10198385 -0.032431703 -0.024322964 -0.36822605 0.2252173
-0.017838959 0.11731314 -0.099695235 0.120550595 0.27434522 0.07457257 -0.143721 -0.33312005
-0.25448275 0.37451246 0.09975772 -0.029627386 -0.5039073 -0.29711968 0.11001788 -0.26457894
0.26235276 -0.07955026 0.06485494 0.20735088 -0.15000091 -0.3266312 0.20970488 -0.021872196
0.40213358 -0.24574341 0.051940575 0.027219916 -0.18575515 0.13521054 0.16414773 -0.01776803
-0.0820432 -0.39926252 -0.00458414 -0.078761324 -0.27849647 -0.21441072 0.25752488 -0.115914
0.08348986 0.27653435 0.0744642 -0.16883323 0.036834702 0.017448522 -0.14769836 0.046800412
-0.048986983 0.09351193 -0.027888926 -0.09227444 0.0072561447 0.103164494 -0.002364833 0.1271473
-0.034013104 -0.023591124 -0.3297784 -0.0038534582 0.032365024 -0.16661158 0.22640313 -0.33840236
0.0119134085 0.05353628 -0.061393157 0.33081305 0.42863417 -0.15890439 0.22283578 0.15239908
-0.07903865 0.06363472 -0.0017619554 -0.10326957 -0.22575411 0.045487728 0.18698177 -0.28644598
0.28468558 -0.12957937 0.031383507 -0.07939884 0.34902498 -0.28046477 0.06668091 -0.06590412
0.047215745 -0.26219195 0.17311224 0.40265378 0.10463594 0.13077633 -0.31522092 0.12149372
-0.0374168 -0.16699691 0.21858 -0.035729364 -0.26319915 0.062163524 0.029846279 -0.11204241
-0.04698022 -0.1214195 0.42764753 0.19844711 -0.025288142 -0.40683484 0.43408066 0.1829799
-0.041243184 -0.1833696 -0.15393154 -0.17348133 0.12513776 -0.29209012 -0.3255594 -0.19614115
-0.24903181 -0.008943117 0.007839014 0.17167479 0.0819844 0.10724427 0.07866555 -0.021737156
-0.004618511 0.011348171 0.035469625 -0.16243385 -0.13201372 0.03069101 0.33744416 -0.26851493
0.075550094 -0.17569095 0.11191639 -0.19415021 0.029973883 -0.12965639 0.017767582 -0.0013634174
0.14802942 0.1313862 -0.30937496 0.009362649 -0.20411126 -0.23565231 0.07658266 -0.21987253
-0.004299611 -0.22222695 0.11289814 -0.17139684 -0.16708398 0.39543802 -0.033089273 0.08874839
0.004570279 -0.0790897 -0.15369725 0.076978296 0.06876907 -0.0016929642 0.21361738 0.12922391
00000000: 950f 9bbe 42b4 a43c d7da 29be b7c1 74bd
00000010: d5f6 693e d6ed 4fbe f99f 27bd 37d9 5cbe
00000020: 9f99 273d 397c 42bc 0d18 2cbd a083 04be
00000030: f3b1 13be a02d 4abe d4ca e9bc 9395 8bbc
00000040: ef4b 9e3e 1e72 c63d 5261 63be e074 943e
00000050: ce6c 633c 67cd e13d 48fe 1cbe 6b7c 5c3e
00000060: c5ef 0fbe e7e0 35bb 3595 7dbe 4a58 23be
00000070: fe81 1bbd e8c8 f1bd 4002 163e 310f 34bd
00000080: aa19 ecbd 6b29 efbc f239 babc a812 94bd
00000090: 5ed9 133d 0a91 713c b3bf 283d ddd1 1d3e
000000a0: 4e37 50be c437 0bbe c489 c33d 988b 493e
000000b0: ab51 3c3e 3956 943d a1b9 fb3c f05b 56be
000000c0: fad3 a83d d8d6 273d 2c11 60bc f1c5 a03d
000000d0: 64bb 74bd 6bdc 7ebd 8ccb 85bd 4333 8f3d
000000e0: e7f8 313e 82f8 053d a2ed c4bd 408e 18be
000000f0: 6bd1 8d3e 4c04 a5bd 03c8 1ebe 030f f5be
00000100: cf47 863e 6c86 6c3c 9722 efbe 0217 2d3d
00000110: 282b 15bd e99c fcbd 1d5a 2c3d 759a e43d
00000120: 2269 91bc 117c 71be 725d 733d dc05 dfbc
00000130: 5419 153e 24ea a13d 3400 8a3e c0c0 14be
00000140: 498c bd3e f544 1b3e a852 013e e9dc d03d
00000150: 1bd7 04bd f440 c7bc 2088 bcbe 5d9f 663e
00000160: 0223 92bc df41 f03d 042d ccbd 3be3 f63d
00000170: fa76 8c3e 81b9 983d 992b 13be b68e aabe
00000180: 904b 82be 19c0 bf3e c74d cc3d 22b5 f2bc
00000190: 1200 01bf 1220 98be 0e51 e13d e476 87be
000001a0: 1a53 863e 3feb a2bd abd2 843d ca53 543e
000001b0: d799 19be 343c a7be e0bc 563e 522d b3bc
000001c0: 74e4 cd3e 29a4 7bbe a4bf 543d 4dfc de3c
000001d0: 9936 3ebe a274 0a3e 5816 283e 428e 91bc
000001e0: 4406 a8bd 236c ccbe 8e36 96bb 9e4d a1bd
000001f0: 1797 8ebe 7c8e 5bbe 4dda 833e 5264 edbd
00000200: bbfc aa3d e995 8d3e b080 983d 9ee2 2cbe
00000210: fcdf 163d 34f0 8e3c 3d3e 17be cab1 3f3d
00000220: 93a6 48bd 2f83 bf3d 5177 e4bc 62fa bcbd
00000230: f4c4 ed3b e847 d33d 50fb 1abb e732 023e
00000240: 5351 0bbd 2c42 c1bc b7d8 a8be 4d8a 7cbb
00000250: 3091 043d 3a9c 2abe 39d6 673e 1343 adbe
00000260: 7530 433c dc48 5b3d 6477 7bbd 5460 a93e
00000270: f075 db3e d5b7 22be 102f 643e 810e 1c3e
00000280: 04df a1bd ec52 823d 6af1 e6ba ff7e d3bd
00000290: 162c 67be 5751 3a3d 2678 3f3e 0ca9 92be
000002a0: 4fc2 913e 74b0 04be fe8b 003d dc9b a2bd
000002b0: 67b3 b23e 1499 8fbe 0090 883d bdf8 86bd
000002c0: 4c65 413d 063e 86be 5644 313e a328 ce3e
000002d0: 5e4b d63d 3bea 053e a364 a1be b3d1 f83d
000002e0: 5c42 19bd 3d01 2bbe 6fd3 5f3e f458 12bd
000002f0: 0ac2 86be 2e9f 7e3d 2f80 f43c 7e76 e5bd
00000300: 556e 40bd c9aa f8bd 9ef4 da3e b835 4b3e
00000310: 1429 cfbc a84c d0be d23f de3e 155f 3b3e
00000320: 9dee 28bd 3ec5 3bbe 3ba0 1dbe 17a5 31be
00000330: 1d24 003e d68c 95be b9af a6be 3ad9 48be
00000340: 3202 7fbe 2786 12bc 356f 003c 84cb 2f3e
00000350: 70e7 a73d e2a2 db3d 671b a13d 1f12 b2bc
00000360: e156 97bb aeed 393c 9948 113d 0f55 26be
00000370: 9b2e 07be b76b fb3c 7bc5 ac3e ca7a 89be
00000380: 02ba 9a3d 54e8 33be 6c34 e53d 50cf 46be
00000390: ca8b f53c a5c4 04be 528d 913c b2b4 b2ba
000003a0: 0695 173e 1b8a 063e 6566 9ebe cc65 193c
000003b0: 8b02 51be d74e 71be 5fd7 9c3d 4426 61be
000003c0: c0e3 8cbb 768f 63be 2437 e73d a782 2fbe
000003d0: 1018 2bbe da76 ca3e 9e88 07bd b7c1 b53d
000003e0: 47c2 953b c8f9 a1bd d062 1dbe cca6 9d3d
000003f0: ccd6 8c3d 74e6 ddba 84be 5a3e 4653 043e

base.mlp.fc1.0.bias f4 [64]
-0.04046107 -0.013868633 0.06670683 0.009377428 0.041531254 0.006872808 -0.037430212 -0.043473836
-0.0880418 0.033905298 0.055755552 0.015845938 0.0631427 -0.06595059 -0.051209148 -0.01829087
-0.04087471 0.02660582 0.07371124 -0.017985921 -0.007415043 -0.039619777 -0.0017946925 -0.025087358
-0.065559216 0.028211478 0.021711137 0.060593754 -0.07369902 -0.07526174 0.13409433 0.08112269
-0.08444105 -0.03482705 -0.06230365 0.04408171 0.017948352 -0.032424506 0.06464776 0.034485757
0.05188461 0.19794318 0.08120062 0.06379075 -0.11029761 0.11768891 0.08325925 0.14278689
0.03374372 -0.069970146 0.13485362 0.005520947 -0.045854747 0.038979635 0.008936318 -0.036738534
-0.040342405 -0.018128684 -0.0016980916 0.0666569 0.01349845 -0.11345878 0.026952215 0.05093155
00000000: 82ba 25bd 4339 63bc 979d 883d c9a3 193c
00000010: ad1c 2a3d 4b35 e13b 6c50 19bd 9f11 32bd
00000020: 424f b4bd 48e0 0a3d ef5f 643d 57cf 813c
00000030: f650 813d 1a11 87bd afc0 51bd bcd6 95bc
00000040: 3d6c 27bd 73f4 d93c ebf5 963d 3657 93bc
00000050: e4f9 f2bb 5948 22bd e33b ebba 0184 cdbc
00000060: e943 86bd c21b e73c 8edb b13c 2831 783d
00000070: 83ef 96bd d422 9abd 0650 093e a723 a63d
00000080: 6eef acbd cfa6 0ebd 1d32 7fbd 068f 343d
00000090: 6c08 933c 8fcf 04bd 0b66 843d f040 0d3d
000000a0: f584 543d 9eb1 4a3e 834c a63d baa4 823d
000000b0: b7e3 e1bd e206 f13d d383 aa3d ba36 123e
000000c0: db36 0a3d 824c 8fbd 1117 0a3e 0fe9 b43b
000000d0: 30d2 3bbd 1ca9 1f3d a269 123c 257b 16bd
000000e0: 143e 25bd 9b82 94bc 8092 deba 6a83 883d
000000f0: 9a28 5d3c 145d e8bd e4ca dc3c 9a9d 503d

base.mlp.fc1.2.weight f4 [64]
0.9535182 1.0119778 1.0306021 1.0181277 1.0300306 0.95115566 0.9456057 1.0262587
1.0638995 0.93543935 1.0500553 0.94282854 0.96602976 1.0575904 1.0273689 1.0333449
1.0526325 1.0037067 1.0826164 1.0533003 0.9474431 0.95180875 0.9824705 0.9494895
1.0681037 0.97135496 1.0274131 1.0497996 0.83103687 0.9952866 1.0203438 0.95471174
1.0660951 0.9277312 0.958547 0.92644393 1.0446198 1.0261174 0.9674795 0.9517296
0.96558255 1.0519208 0.97246194 0.9718368 0.97790706 0.9734995 1.0074902 1.0057486
0.9792871 1.0388193 1.038273 0.9241765 0.9914316 1.0614312 0.8489968 0.97383237
0.9118984 1.01309 1.051897 0.9883427 0.9491503 1.0339378 0.98569727 0.9335882
00000000: c519 743f 7d88 813f c5ea 833f 0252 823f
00000010: 0bd8 833f f07e 733f 3713 723f 725c 833f
00000020: dc2d 883f f478 6f3f 3668 863f 365d 713f
00000030: ba4d 773f 1f5f 873f d380 833f a544 843f
00000040: a9bc 863f 7679 803f 2d93 8a3f 8bd2 863f
00000050: a28b 723f bda9 733f 3083 7b3f be11 733f
00000060: 9fb7 883f b8aa 783f 4682 833f d55f 863f
00000070: d5be 543f 1acb 7e3f a09a 823f fd67 743f
00000080: ce75 883f cb7f 6d3f 5663 753f 6e2b 6d3f
00000090: 1ab6 853f d157 833f bdac 773f 8da4 733f
000000a0: 6b30 773f 57a5 863f 44f3 783f 4cca 783f
000000b0: 1e58 7a3f 4337 793f 70f5 803f 5fbc 803f
000000c0: 8fb2 7a3f 08f8 843f 21e6 843f d596 6c3f
000000d0: 76ce 7d3f fadc 873f db57 593f 144d 793f
000000e0: 2c72 693f efac 813f 90a4 863f 0704 7d3f
000000f0: 84fb 723f 1358 843f a856 7c3f a3ff 6e3f

base.mlp.fc1.2.bias f4 [64]
-0.045534868 -0.012068953 0.060224645 0.026766889 0.03095274 0.010988485 -0.025395444 -0.04476503
-0.10141701 0.036311813 0.04910019 0.021628099 0.05649188 -0.091817506 -0.06325427 -0.01638938
-0.04910038 0.013841938 0.060732033 -0.025584454 -8.058941e-05 -0.051687233 -0.0027431638 -0.025866074
-0.08271929 0.017841283 0.017392106 0.102114454 -0.080944374 -0.18045238 0.08141939 0.06776363
-0.118555784 -0.039294396 -0.07182771 0.038896818 0.004637242 -0.032144725 0.054221816 0.036152523
0.04424166 0.19279833 0.099938855 0.047381483 -0.12119777 0.09798286 0.06145681 0.074255124
0.027109437 -0.108924754 0.11630089 0.104325294 -0.04534232 0.030279009 0.015042707 -0.03658392
-0.03711198 -0.010220024 -0.011305271 0.072210655 0.01677012 -0.079024315 0.031241637 0.04983124
00000000: c582 3abd dcbc 45bc 1eae 763d 3c46 db3c
00000010: 9a90 fd3c 0c09 343c 1b0a d0bc 895b 37bd
00000020: b9b3 cfbd b2bb 143d 481d 493d 692d b13c
00000030: 0864 673d d10a bcbd 748b 81bd 0543 86bc
00000040: 7b1d 49bd 4cc9 623c 27c2 783d 7d96 d1bc
00000050: 1c02 a9b8 feb5 53bd a7c6 33bb 17e5 d3bc
00000060: bb68 a9bd e227 923c e479 8e3c 6221 d13d
00000070: 2ac6 a5bd 82c8 38be 36bf a63d a8c7 8a3d
00000080: 60cd f2bd 29f3 20bd 681a 93bd 4552 1f3d
00000090: 01f4 973b 30aa 03bd b217 5e3d ab14 143d
000000a0: be36 353d ed6c 453e beac cc3d 1613 423d
000000b0: 8936 f8bd 3dab c83d 23ba 7b3d 1213 983d
000000c0: 9c14 de3c f113 dfbd 292f ee3d 80a8 d53d
000000d0: deb8 39bd af0b f83c b075 763c 05d9 15bd
000000e0: bb02 18bd e371 27bc be39 39bc 2ee3 933d
000000f0: 7e61 893c 80d7 a1bd 76ee ff3c d81b 4c3d

base.mlp.fc_h.0.weight f4 [64, 64]
0.42538577 0.3086296 -0.25652775 0.03974705 -0.085802115 0.015946357 0.12247197 0.1946923
0.1765795 -0.07476678 -0.085895136 -0.27277675 0.024185063 0.20575556 -0.08630947 -0.09623087
-0.0211829 0.20095167 0.06289768 0.09206161 0.074707635 0.36704418 -0.03453405 0.0002484438
0.14454329 0.20762013 -0.05580721 -0.050803136 -0.21326265 0.21280369 -0.08811527 -0.25656185
0.13580205 -0.44725055 -0.03541627 -0.109559424 -0.07727189 -0.028772514 -0.32050458 0.10950067
-0.078257926 0.027948054 0.33347702 -0.17535278 0.23740561 0.04223242 -0.049017653 -0.28419706
-0.13328415 0.17914622 -0.017886195 -0.1028542 -0.013841357 0.17080863 -0.2139731 -0.0009511911
0.19711515 -0.07409102 0.22475763 0.24390996 0.105829135 0.16191012 0.09160627 -0.09698617
-0.1630542 0.095469415 0.12000969 0.06652483 0.15888007 -0.10124829 0.21412683 0.294364
0.24401194 0.12615521 -0.1637375 0.14434233 0.09752349 -0.14468347 0.05930077 0.065639794
0.10182848 -0.22389139 -0.19345345 0.2932042 -0.28204232 0.34446964 0.4716522 0.069444396
0.13175617 0.10900513 -0.026061775 0.101697564 0.13740663 -0.104175955 -0.11508438 0.021689381
0.0754051 0.17808679 0.19073628 -0.038943168 -0.080206156 0.043669727 -0.21450818 -0.11359591
-0.06689253 -0.07030113 0.1154085 0.31671908 -0.016724372 0.20446049 0.15338717 -0.1690415
-0.2208067 0.34569138 0.2480873 0.039677534 0.27123117 -0.13447988 0.07484013 0.08530447
-0.120976016 -0.010264064 -0.00031877638 -0.3074117 0.29166642 0.025638478 -0.17945081 -0.01224661
-0.11387385 0.036724888 -0.09624743 0.14795694 0.019175133 -0.11244128 -0.47462553 -0.1103557
-0.06029614 0.052258223 0.33242282 -0.19781585 -0.14875913 -0.31131512 0.14947507 -0.0059966343
0.17771007 0.20043692 0.34343556 0.2134628 -0.07777943 0.09965147 0.07729725 0.23864129
0.09712763 -0.087239176 -0.28487223 -0.169198 0.29264677 0.13777103 0.1523799 -0.27279583
0.07895135 -0.2476679 0.11483051 -0.08721668 -0.3288567 -0.16478743 -0.08100949 -0.303551
-0.17564228 0.101255074 0.024664761 0.094315074 0.06021009 -0.045591827 0.3986161 0.1724687
-0.037514083 -0.012193698 0.014174048 -0.10671172 -0.23121955 0.015991243 0.033105288 0.206076
-0.13971168 0.16723722 -0.14343667 -0.054715276 -0.07851222 -0.046201777 0.0333247 0.07190173
0.008739387 0.060696293 0.22040473 0.010117613 0.17309476 -0.15965411 0.18184024 0.11945629
-0.14360188 0.365719 0.1342956 -0.12071012 0.06904956 0.008655882 -0.09351401 -0.2748873
-0.034062434 -0.00024008335 0.32102463 0.25136957 -0.108137846 -0.115820795 -0.10116052 -0.23072584
-0.06328458 0.21967094 0.21344295 0.06152903 0.21749854 -0.04515215 0.41638368 -0.08849264
-0.1522001 0.08897724 0.21565422 0.1531735 -0.0913061 0.34477225 -0.20137654 0.06833088
0.017760236 0.055697586 0.077730015 -0.106934845 0.051337857 0.099695615 0.1651198 0.14057833
0.25597256 0.120770656 -0.052533764 0.14957845 0.09001487 0.08745569 0.01922326 -0.23669364
0.24224274 0.14357713 0.38563004 0.07196623 -0.1287497 -0.42840332 -0.0033816898 -0.12588494
00000000: 2acc d93e b304 9e3e 9b57 83be cdcd 223d
00000010: 05b9 afbd efa1 823c 96d2 fa3d 6b5d 473e
00000020: 42d1 343e 531f 99bd cae9 afbd 65a9 8bbe
00000030: c11f c63c 96b1 523e 05c3 b0bd b114 c5bd
00000040: c387 adbc 46c6 4d3e 80d0 803d cc8a bc3d
00000050: 5100 993d 37ed bb3e 9373 0dbd 9041 8239
00000060: 2803 143e 5f9a 543e 1a96 64bd f316 50bd
00000070: 8661 5abe 36e9 593e c775 b4bd 135c 83be
00000080: b10f 0b3e 06fe e4be a710 11bd b160 e0bd
00000090: ba40 9ebd 56b4 ebbc 2d19 a4be e341 e03d
000000a0: b145 a0bd 51f3 e43c 80bd aa3e ae8f 33be
000000b0: 751a 733e e7fb 2c3d bcc6 48bd 4782 91be
000000c0: a47b 08be 1b72 373e 1286 92bc 39a5 d2bd
000000d0: dcc6 62bc 75e8 2e3e c41b 5bbe 5b59 79ba
000000e0: 8ed8 493e 08bd 97bd dd26 663e 88c3 793e
000000f0: f2bc d83d c4cb 253e 119c bb3d afa0 c6bd
00000100: aef7 26be 7885 c33d a4c7 f53d 2c3e 883d
00000110: 75b1 223e 435b cfbd 1044 5b3e e1b6 963e
00000120: 44de 793e d52e 013e ceaa 27be 7ace 133e
00000130: 65ba c73d e727 14be 5de5 723d 286e 863d
00000140: 738b d03d c943 65be a918 46be dc1e 963e
00000150: da67 90be 535e b03e 667c f13e dd38 8e3d
00000160: 17eb 063e 153e df3d 817f d5bc d046 d03d
00000170: 53b4 0c3e 345a d5bd 5cb1 ebbd eead b13c
00000180: fd6d 9a3d 625c 363e 5f50 433e df82 1fbd
00000190: 2043 a4bd 07df 323d 08a8 5bbe f9a4 e8bd
000001a0: f3fe 88bd 0afa 8fbd 4b5b ec3d 0129 a23e
000001b0: 8d01 89bc 175e 513e 8711 1d3e 3719 2dbe
000001c0: 271b 62be 76fe b03e 990a 7e3e e984 223d
000001d0: d0de 8a3e 18b5 09be c845 993d 1cb4 ae3d
000001e0: 46c2 f7bd 9b2a 28bc 7121 a7b9 1165 9dbe
000001f0: 4d55 953e c907 d23c f4c1 37be 01a6 48bc
00000200: b136 e9bd d66c 163d 5f1d c5bd 0682 173e
00000210: 2b15 9d3c 9d47 e6bd 1e02 f3be 2b02 e2bd
00000220: 16f9 76bd b80c 563d 5333 aa3e 3d90 4abe
00000230: 5054 18be b264 9fbe fe0f 193e 6a7f c4bb
00000240: a1f9 353e 563f 4d3e c9d6 af3e fe95 5a3e
00000250: d24a 9fbd 1216 cc3d 054e 9e3d 625e 743e
00000260: daea c63d 74aa b2bd c6da 91be 3e42 2dbe
00000270: ccd5 953e d913 0d3e 7a09 1c3e e5ab 8bbe
00000280: 3fb1 a13d a79c 7dbe 422c eb3d a99e b2bd
00000290: e85f a8be 09be 28be 4ee8 a5bd 096b 9bbe
000002a0: 92db 33be d25e cf3d c10d ca3c 4328 c13d
000002b0: db9e 763d 7fbe 3abd 6917 cc3e a39b 303e
000002c0: 5ea8 19bd 14c8 47bc 443a 683c ad8b dabd
000002d0: d1c4 6cbe 1100 833c 6999 073d 9605 533e
000002e0: 9410 0fbe 3c40 2b3e 10e1 12be 201d 60bd
000002f0: 04cb a0bd 133e 3dbd 7b7f 083d 3741 933d
00000300: a52f 0f3c ad9c 783d c7b1 613e 58c4 253c
00000310: c13f 313e 5e7c 23be 5434 3a3e 80a5 f43d
00000320: 5f0c 13be 853f bb3e c984 093e de36 f7bd
00000330: db69 8d3d 67d1 0d3c 4684 bfbd 07be 8cbe
00000340: 0d85 0bbd e2be 7bb9 575d a43e 83b3 803e
00000350: 6077 ddbd 7433 edbd 3f2d cfbd 6543 6cbe
00000360: 599b 81bd 6bf1 603e ca90 5a3e dd05 7c3d
00000370: f0b7 5e3e 76f1 38bd 3e30 d53e a13b b5bd
00000380: 58da 1bbe b339 b63d 76d4 5c3e 84d9 1c3e
00000390: b1fe babd fd85 b03e a735 4ebe 0ff1 8b3d
000003a0: ea7d 913c 2723 643d ea30 9f3d a800 dbbd
000003b0: a547 523d 372d cc3d 2a15 293e c4f3 0f3e
000003c0: d60e 833e 9b56 f73d a52d 57bd 182b 193e
000003d0: b759 b83d f81b b33d 197a 9d3c d15f 72be
000003e0: 7b0e 783e e205 133e 4d71 c53e 0863 933d
000003f0: f6d6 03be ae57 dbbe 579f 5dbb fbe7 00be

base.mlp.fc_h.0.bias f4 [64]
0.0 0.0 0.0 0.0 0.0 0.0 0.0 0.0
0.0 0.0 0.0 0.0 0.0 0.0 0.0 0.0
0.0 0.0 0.0 0.0 0.0 0.0 0.0 0.0
0.0 0.0 0.0 0.0 0.0 0.0 0.0 0.0
0.0 0.0 0.0 0.0 0.0 0.0 0.0 0.0
0.0 0.0 0.0 0.0 0.0 0.0 0.0 0.0
0.0 0.0 0.0 0.0 0.0 0.0 0.0 0.0
0.0 0.0 0.0 0.0 0.0 0.0 0.0 0.0
00000000: 0000 0000 0000 0000 0000 0000 0000 0000
00000010: 0000 0000 0000 0000 0000 0000 0000 0000
00000020: 0000 0000 0000 0000 0000 0000 0000 0000
00000030: 0000 0000 0000 0000 0000 0000 0000 0000
00000040: 0000 0000 0000 0000 0000 0000 0000 0000
00000050: 0000 0000 0000 0000 0000 0000 0000 0000
00000060: 0000 0000 0000 0000 0000 0000 0000 0000
00000070: 0000 0000 0000 0000 0000 0000 0000 0000
00000080: 0000 0000 0000 0000 0000 0000 0000 0000
00000090: 0000 0000 0000 0000 0000 0000 0000 0000
000000a0: 0000 0000 0000 0000 0000 0000 0000 0000
000000b0: 0000 0000 0000 0000 0000 0000 0000 0000
000000c0: 0000 0000 0000 0000 0000 0000 0000 0000
000000d0: 0000 0000 0000 0000 0000 0000 0000 0000
000000e0: 0000 0000 0000 0000 0000 0000 0000 0000
000000f0: 0000 0000 0000 0000 0000 0000 0000 0000

base.mlp.fc_h.2.weight f4 [64]
1.0 1.0 1.0 1.0 1.0 1.0 1.0 1.0
1.0 1.0 1.0 1.0 1.0 1.0 1.0 1.0
1.0 1.0 1.0 1.0 1.0 1.0 1.0 1.0
1.0 1.0 1.0 1.0 1.0 1.0 1.0 1.0
1.0 1.0 1.0 1.0 1.0 1.0 1.0 1.0
1.0 1.0 1.0 1.0 1.0 1.0 1.0 1.0
1.0 1.0 1.0 1.0 1.0 1.0 1.0 1.0
1.0 1.0 1.0 1.0 1.0 1.0 1.0 1.0
00000000: 0000 803f 0000 803f 0000 803f 0000 803f
00000010: 0000 803f 0000 803f 0000 803f 0000 803f
00000020: 0000 803f 0000 803f 0000 803f 0000 803f
00000030: 0000 803f 0000 803f 0000 803f 0000 803f
00000040: 0000 803f 0000 803f 0000 803f 0000 803f
00000050: 0000 803f 0000 803f 0000 803f 0000 803f
00000060: 0000 803f 0000 803f 0000 803f 0000 803f
00000070: 0000 803f 0000 803f 0000 803f 0000 803f
00000080: 0000 803f 0000 803f 0000 803f 0000 803f
00000090: 0000 803f 0000 803f 0000 803f 0000 803f
000000a0: 0000 803f 0000 803f 0000 803f 0000 803f
000000b0: 0000 803f 0000 803f 0000 803f 0000 803f
000000c0: 0000 803f 0000 803f 0000 803f 0000 803f
000000d0: 0000 803f 0000 803f 0000 803f 0000 803f
000000e0: 0000 803f 0000 803f 0000 803f 0000 803f
000000f0: 0000 803f 0000 803f 0000 803f 0000 803f

base.mlp.fc_h.2.bias f4 [64]
0.0 0.0 0.0 0.0 0.0 0.0 0.0 0.0
0.0 0.0 0.0 0.0 0.0 0.0 0.0 0.0
0.0 0.0 0.0 0.0 0.0 0.0 0.0 0.0
0.0 0.0 0.0 0.0 0.0 0.0 0.0 0.0
0.0 0.0 0.0 0.0 0.0 0.0 0.0 0.0
0.0 0.0 0.0 0.0 0.0 0.0 0.0 0.0
0.0 0.0 0.0 0.0 0.0 0.0 0.0 0.0
0.0 0.0 0.0 0.0 0.0 0.0 0.0 0.0
00000000: 0000 0000 0000 0000 0000 0000 0000 0000
00000010: 0000 0000 0000 0000 0000 0000 0000 0000
00000020: 0000 0000 0000 0000 0000 0000 0000 0000
00000030: 0000 0000 0000 0000 0000 0000 0000 0000
00000040: 0000 0000 0000 0000 0000 0000 0000 0000
00000050: 0000 0000 0000 0000 0000 0000 0000 0000
00000060: 0000 0000 0000 0000 0000 0000 0000 0000
00000070: 0000 0000 0000 0000 0000 0000 0000 0000
00000080: 0000 0000 0000 0000 0000 0000 0000 0000
00000090: 0000 0000 0000 0000 0000 0000 0000 0000
000000a0: 0000 0000 0000 0000 0000 0000 0000 0000
000000b0: 0000 0000 0000 0000 0000 0000 0000 0000
000000c0: 0000 0000 0000 0000 0000 0000 0000 0000
000000d0: 0000 0000 0000 0000 0000 0000 0000 0000
000000e0: 0000 0000 0000 0000 0000 0000 0000 0000
000000f0: 0000 0000 0000 0000 0000 0000 0000 0000

base.mlp.fc2.0.0.weight f4 [64, 64]
0.36543217 0.23203757 -0.18088856 0.04823103 -0.08672156 0.004555905 0.07899377 0.14584132
0.124131866 -0.041152027 -0.064370506 -0.20319518 -0.036839224 0.1283335 -0.05051516 -0.041029375
0.012179906 0.16125765 -0.0090671135 0.07363481 0.0360903 0.32031432 0.03431829 0.014097682
0.19204433 0.11341121 -0.03291914 -0.0019234307 -0.16007182 0.17988326 -0.047432855 -0.20258452
0.15976067 -0.38209385 0.016765952 -0.09238728 -0.06389086 -0.018420178 -0.25038025 0.07930195
-0.064844035 -0.042892106 0.24780227 -0.11842425 0.21183099 -0.009795602 -0.006292536 -0.21678683
-0.0700573 0.12643059 0.01364895 -0.09559884 0.018258763 0.106856704 -0.13762332 0.028942717
0.142253 -0.027843572 0.14925198 0.18260461 0.15681727 0.12925889 0.0928424 -0.059150487
-0.1068302 0.04522011 0.06962293 0.11023027 0.09489025 -0.06539333 0.15792811 0.2656712
0.2257112 0.10090637 -0.11987014 0.16909498 0.08706313 -0.092647366 0.046861395 0.10891109
0.08054341 -0.15355442 -0.11303131 0.25816914 -0.24018832 0.28890425 0.3946917 0.02400221
0.10075537 0.012525272 0.0037369642 0.025642207 0.117195785 -0.044874266 -0.0871253 -0.0379629
0.14983007 0.12496286 0.21124047 -0.05523441 -0.018609084 0.008702233 -0.170347 -0.043516263
-0.0051176534 -0.09830035 0.12257744 0.27720785 0.05130013 0.14723204 0.09469549 -0.1326854
-0.15934892 0.28575054 0.18746114 0.019039031 0.22781627 -0.07766264 0.060432255 0.12010838
-0.069069535 -0.04403338 0.0050301766 -0.23846804 0.22322838 0.05407174 -0.090790406 -0.028129509
-0.10829771 0.013423687 -0.072167836 0.13247612 0.04204565 -0.07828247 -0.4493494 -0.10242007
-0.034888152 0.09750848 0.32956725 -0.147202 -0.120532885 -0.29318237 0.080038495 0.019775342
0.11937251 0.14061557 0.3326785 0.16407907 -0.13509564 0.058976777 0.12682886 0.15510009
0.07896142 -0.018478401 -0.22798516 -0.1536826 0.22125365 0.13065949 0.12247683 -0.27826586
0.024678621 -0.22163084 0.09578019 -0.07211963 -0.28613696 -0.2086186 -0.017063005 -0.2656976
-0.16341005 0.056780774 0.03132782 0.08781653 0.078839645 0.010017922 0.36668903 0.15174952
-0.005956526 0.004888986 0.03571711 -0.13691871 -0.24731246 0.11236942 0.05336596 0.12888373
-0.120941326 0.12699433 -0.14994147 -0.04527335 -0.047453176 -0.014520833 0.08855568 0.059542295
-0.03593863 0.09010523 0.28085223 -0.08413498 0.21650882 -0.22836453 0.2440058 0.04869361
-0.20114361 0.41821998 0.16384795 -0.18940873 0.07922386 -0.052191015 -0.1601912 -0.3503125
-0.017195752 -0.018240372 0.4122392 0.3215416 -0.1592804 -0.14172797 -0.17220712 -0.29191533
-0.037740108 0.27020866 0.22972451 0.029808832 0.2901456 -0.056513716 0.51029146 -0.13909884
-0.22100025 0.07192023 0.23590603 0.13040672 -0.19044112 0.40722042 -0.29439273 0.038296353
-0.06676535 0.092952706 0.016145555 -0.1704077 0.0057260795 0.124579474 0.12517643 0.20101699
0.33196166 0.067701705 -0.004207071 0.20110822 0.14746274 0.1693448 -0.033344597 -0.29015025
0.3272236 0.19574808 0.4603242 0.13378237 -0.18965593 -0.48380136 -0.061073933 -0.15432484
00000000: ed19 bb3e 429b 6d3e da3a 39be e78d 453d
00000010: 139b b1bd b349 953b 7cc7 a13d 6d57 153e
00000020: d938 fe3d 078f 28bd afd4 83bd 6612 50be
00000030: bae4 16bd db69 033e fce8 4ebd 6b0e 28bd
00000040: 3a8e 473c ba20 253e 3b8e 14bc d9cd 963d
00000050: 6cd3 133d 3d00 a43e 5691 0c3d f7f9 663c
00000060: 45a7 443e 2344 e83d 38d6 06bd a01b fcba
00000070: dee9 23be 5133 383e f448 42bd 5172 4fbe
00000080: 4d98 233e cea1 c3be c058 893c 8b35 bdbd
00000090: 36d9 82bd eae5 96bc d731 80be 1069 a23d
000000a0: f3cc 84bd a2af 2fbd e1bf 7d3e 6a88 f2bd
000000b0: 39ea 583e bc7d 20bc 9e31 cebb 5efd 5dbe
000000c0: 347a 8fbd 0577 013e d89f 5f3c 53c9 c3bd
000000d0: 6793 953c b0d7 da3d 21ed 0cbe 4719 ed3c
000000e0: c5aa 113e 3418 e4bc 83d5 183e b4fc 3a3e
000000f0: b594 203e 715c 043e 2824 be3d c847 72bd
00000100: cbc9 dabd b938 393d 7796 8e3d 68c0 e13d
00000110: d255 c23d f0ec 85bd e8b7 213e 0e06 883e
00000120: d620 673e 00a8 ce3d 7a7e f5bd 3c27 2d3e
00000130: 284e b23d e7bd bdbd bcf1 3f3d c70c df3d
00000140: f1f3 a43d 5f3d 1dbe f67c e7bd bf2e 843e
00000150: edf3 75be 42eb 933e 0815 ca3e 48a0 c43c
00000160: d558 ce3d cc36 4d3c dbe7 743b 9b0f d23c
00000170: 5804 f03d 14ce 37bd c06e b2bd fc7e 1bbd
00000180: 0e6d 193e 87ec ff3d 6c4f 583e 7a3d 62bd
00000190: 1472 98bc d093 0e3c 726f 2ebe 1c3e 32bd
000001a0: fdb1 a7bb b251 c9bd e209 fb3d 30ee 8d3e
000001b0: 1620 523d ffc3 163e b6ef c13d aede 07be
000001c0: 5d2c 23be e54d 923e d0f5 3f3e bef7 9b3c
000001d0: ab48 693e 970d 9fbd d087 773d 62fb f53d
000001e0: 5474 8dbd 585c 34bd 2ed4 a43b f730 74be
000001f0: fb95 643e 547a 5d3d 52f0 b9bd db6f e6bc
00000200: 31cb ddbd 06ef 5b3c bbcc 93bd d2a7 073e
00000210: 0f38 2c3d 8f52 a0bd 2011 e6be 9dc1 d1bd
00000220: e1e6 0ebd 87b2 c73d 0abd a83e 1fbc 16be
00000230: f2d9 f6bd 001c 96be 39eb a33d e6ff a13c
00000240: 9379 f43d 87fd 0f3e d654 aa3e 5804 283e
00000250: 8356 0abe a291 713d 6ddf 013e 8fd2 1e3e
00000260: 86b6 a13d 0460 97bc f174 69be f95e 1dbe
00000270: 5190 623e 9acb 053e 22d5 fa3d dd78 8ebe
00000280: d22a ca3c 32f3 62be 6728 c43d 75b3 93bd
00000290: 8b80 92be 1da0 55be b7c7 8bbc 8409 88be
000002a0: f754 27be f592 683d 9a51 003d 27d9 b33d
000002b0: ae76 a13d 3622 243c aabe bb3e 3a64 1b3e
000002c0: f62e c3bb c933 a03b 1b4c 123d 6b34 0cbe
000002d0: 7a3f 7dbe f021 e63d 4496 5a3d 19fa 033e
000002e0: 16b0 f7bd cd0a 023e 428a 19be 8c70 39bd
000002f0: 435e 42bd cae8 6dbc ae5c b53d 9fe2 733d
00000300: 6334 13bd 1789 b83d ddcb 8f3e f64e acbd
00000310: 7db4 5d3e 64d8 69be a8dc 793e f372 473d
00000320: 97f8 4dbe ee20 d63e c2c7 273e 5df4 41be
00000330: 1e40 a23d 3fc6 55bd 2909 24be 295c b3be
00000340: 1bde 8cbc d56c 95bc 0411 d33e 1aa1 a43e
00000350: 671a 23be 2321 11be 1057 30be ed75 95be
00000360: 5f95 1abd ca58 8a3e e73c 6b3e a731 f43c
00000370: f78d 943e ed7a 67bd 76a2 023f ed6f 0ebe
00000380: e44d 62be ea4a 933d 5a91 713e 5789 053e
00000390: ff02 43be 327f d03e a5ba 96be a3dc 1c3d
000003a0: 46bc 88bd fd5d be3d af43 843c 5b7f 2ebe
000003b0: d6a1 bb3b 8623 ff3d 402e 003e 66d7 4d3e
000003c0: e1f6 a93e 31a7 8a3d 78db 89bb 50ef 4d3e
000003d0: 7900 173e b968 2d3e 5894 08bd 938e 94be
000003e0: da89 a73e 2f72 483e 9daf eb3e 3ffe 083e
000003f0: 2a35 42be d0b4 f7be a928 7abd 5507 1ebe

base.mlp.fc2.0.0.bias f4 [64]
-0.05608943 -0.05273901 -0.024301542 0.06844416 0.24486572 0.043874446 0.04512635 0.04742543
0.06346046 0.052982166 -0.04227959 0.030490909 0.07567789 -0.009409953 -0.028031103 0.1612201
-0.016296059 0.03184519 -0.06120161 0.05136509 0.042671207 0.054944277 -0.027920248 0.028985966
0.04187525 0.027271906 0.22614993 0.042972848 -0.038737714 0.047449116 -0.03204775 0.016649067
-0.023463862 0.18061034 -0.03379537 -0.033217322 0.04893132 -0.038688436 -0.041647788 0.05756447
0.033539224 0.042895835 -0.018844003 -0.018054713 0.029874086 -0.032905646 0.13676381 -0.029587261
-0.016997518 -0.085892655 -0.023690255 0.04685542 0.055580273 0.04040949 0.08072834 -0.049175523
0.030119615 -0.045871325 -0.037958723 0.054412104 -0.009292157 -0.03728843 0.078942195 0.039886028
00000000: 08be 65bd dc04 58bd 0714 c7bc 742c 8c3d
00000010: 14be 7a3e b1b5 333d 68d6 383d 2b41 423d
00000020: 8ff7 813d d403 593d 5d2d 2dbd 12c8 f93c
00000030: 02fd 9a3d 342c 1abc 7ca1 e5bc e216 253e
00000040: 507f 85bc 1a70 023d 8aae 7abd 3364 523d
00000050: 01c8 2e3d 400d 613d 01b9 e4bc fa73 ed3c
00000060: 6285 2b3d 5569 df3c d993 673e 4c04 303d
00000070: 70ab 1ebd 015a 423d 8044 03bd a063 883c
00000080: 4937 c0bc ebf1 383e 046d 0abd e30e 08bd
00000090: 356c 483d c477 1ebd df96 2abd b9c8 6b3d
000000a0: 6d60 093d 8bb3 2f3d bd5e 9abc 7ae7 93bc
000000b0: 80ba f43c 12c8 06bd d00b 0c3e fc60 f2bc
000000c0: 613e 8bbc 7de8 afbd 1112 c2bc 78eb 3f3d
000000d0: 24a8 633d 6c84 253d e654 a53d 466c 49bd
000000e0: 69bd f63c 92e3 3bbd 9b7a 1bbd 3adf 5e3d
000000f0: 223e 18bc c1bb 18bd 72ac a13d 885f 233d

base.mlp.fc2.0.2.weight f4 [64]
0.8528577 0.8736867 0.87096065 0.9084912 0.8244698 0.8621507 0.8522774 0.8739617
0.84152293 0.8479873 0.88975555 0.835138 0.8275075 0.8128954 0.8809034 0.8731194
0.8675973 0.867663 0.9325183 0.8894791 0.87072766 0.85701734 0.902094 0.8619426
0.8493283 0.83877015 0.82185376 0.83771425 0.86960626 0.8956676 0.8774305 0.8064851
0.8903453 0.83944356 0.8728817 0.88610065 0.8347218 0.894824 0.8825427 0.88709587
0.8596251 0.8704466 0.9101687 0.89463556 0.86935526 0.90907866 0.8174649 0.89129925
0.865391 0.86255836 0.8708529 0.8760121 0.8542831 0.877795 0.8263708 0.85341066
0.84985507 0.90549797 0.86469173 0.8662536 0.88786584 0.9374018 0.838588 0.88686246
00000000: e254 5a3f eea9 5f3f 47f7 5e3f e192 683f
00000010: 7410 533f e9b5 5c3f da2e 5a3f f4bb 5f3f
00000020: 0c6e 573f b215 593f 05c7 633f 9bcb 553f
00000030: 88d7 533f ea19 503f e382 613f c184 5f3f
00000040: db1a 5e3f 2a1f 5e3f 85b9 6e3f e7b4 633f
00000050: 02e8 5e3f 7d65 5b3f a2ef 663f 45a8 5c3f
00000060: 946d 593f a4b9 563f 0265 523f 7174 563f
00000070: 849e 5e3f 794a 653f 499f 603f cf75 4e3f
00000080: abed 633f c6e5 563f 2d75 5f3f 7ed7 623f
00000090: 54b0 553f 3013 653f 52ee 613f b718 633f
000000a0: 6410 5c3f 97d5 5e3f d100 693f d606 653f
000000b0: 118e 5e3f 61b9 683f 6145 513f 302c 643f
000000c0: 448a 5d3f a0d0 5c3f 37f0 5e3f 5442 603f
000000d0: 4cb2 5a3f 2cb7 603f 098d 533f 1f79 5a3f
000000e0: 1a90 593f b7ce 673f 705c 5d3f ccc2 5d3f
000000f0: 2d4b 633f 90f9 6f3f b4ad 563f 6b09 633f

base.mlp.fc2.0.2.bias f4 [64]
-0.03687412 -0.03230654 -0.022454012 0.05451077 0.1604082 0.039649073 0.043940093 0.040249012
0.05237705 0.04900136 -0.030418186 0.035507333 0.060158167 0.0057491143 -0.024020351 0.12719372
-0.025821667 0.037704106 -0.032295365 0.046338163 0.040146604 0.049236648 -0.023528982 0.039302416
0.041265342 0.04057711 0.15534046 0.04554631 -0.03151383 0.041354496 -0.022089863 -0.00055664446
-0.017641565 0.12133482 -0.0297251 -0.025288597 0.041672654 -0.02380676 -0.03076272 0.04564991
0.038411155 0.0401346 -0.020753827 -0.02563339 0.037955314 -0.024778029 0.07608658 -0.022610039
-0.013668021 -0.0598811 -0.021564286 0.041999787 0.051139567 0.038066186 0.08450662 -0.031013796
0.037019912 -0.028146978 -0.031257167 0.050261788 -0.015436513 -0.017742937 0.08793793 0.040421598
00000000: 5109 17bd dd53 04bd 7af1 b7bc af46 5f3d
00000010: 0c42 243e 1167 223d 87fa 333d 26dc 243d
00000020: 5189 563d a6b5 483d 8f2f f9bc 2370 113d
00000030: 6968 763d 1163 bc3b 54c6 c4bc 123f 023e
00000040: f687 d3bc 9f6f 1a3d 2548 04bd 16cd 3d3d
00000050: c470 243d 5eac 493d dabf c0bc 92fb 203d
00000060: d905 293d 2f34 263d 9211 1f3e c48e 3a3d
00000070: a514 01bd 5563 293d cdf5 b4bc c7eb 11ba
00000080: 0b85 90bc 647e f83d 0e82 f3bc 082a cfbc
00000090: f2b0 2a3d 6506 c3bc 1a02 fcbc 66fb 3a3d
000000a0: 0455 1d3d 2e64 243d ee03 aabc 1dfd d1bc
000000b0: 0877 1b3d 4bfb cabc 48d3 9b3d b038 b9bc
000000c0: d6ef 5fbc e245 75bd 96a7 b0bc f807 2c3d
000000d0: b977 513d 4aeb 1b3d cf11 ad3d a510 febc
000000e0: 31a2 173d 7e94 e6bc 8407 00bd 4edf 4d3d
000000f0: 6ee9 7cbc a359 91bc cd18 b43d 1e91 253d

v_out.weight f4 [1, 64]
0.022723397 0.017836897 0.00799441 0.011863698 0.014794526 0.0129569005 0.019515876 0.012557073
0.00907192 0.010274733 0.013933209 0.015840383 0.011669863 0.0027847828 0.012019837 0.010944251
0.008128502 0.0068191374 0.021795066 0.012050907 0.01807661 0.016768541 0.007743473 0.008454639
0.016754549 0.01535922 0.014729765 0.014084344 0.0052011963 0.013346067 0.0130834505 0.012044477
0.008979181 0.010679432 0.01372624 0.012194057 0.0116680525 0.013615899 0.017121155 0.016557924
0.009958299 0.017011506 0.016944135 0.01051697 0.016198156 0.015137571 0.012574154 0.005722531
0.017099448 -0.0677872 0.020095155 0.014033656 0.011530789 0.01584269 0.014583379 0.00931209
0.00838588 0.013931332 0.0182977 0.01253374 0.01478013 0.01301222 0.010715271 0.017354365
00000000: 6b26 ba3c af1e 923c fcfa 023c f55f 423c
00000010: bd64 723c 2e49 543c c2df 9f3c 2ebc 4d3c
00000020: 64a2 143c 5b57 283c 1d48 643c b1c3 813c
00000030: f432 3f3c e780 363b daee 443c 844f 333c
00000040: 692d 053c 1273 df3b 918b b23c 2b71 453c
00000050: 6615 943c 2e5e 893c f6bc fd3b 5485 0a3c
00000060: d640 893c 3da5 7b3c 1d55 713c 05c2 663c
00000070: cc6e aa3b 76a9 5a3c f85b 563c 3356 453c
00000080: 6a1d 133c c9f8 2e3c 06e4 603c 95c9 473c
00000090: 5c2b 3f3c 3815 5f3c aa41 8c3c 7ca4 873c
000000a0: 2228 233c b75b 8b3c 6dce 8a3c 5f4f 2c3c
000000b0: ffb1 843c 9303 783c d303 4e3c 1284 bb3b
000000c0: 2414 8c3c 04d4 8abd 989e a43c 6bed 653c
000000d0: a2eb 3c3c 87c8 813c 20ef 6e3c bd91 183c
000000e0: ee64 093c 3e40 643c 0fe5 953c 515a 4d3c
000000f0: 5c28 723c 3531 553c 1b8f 2f3c be2a 8e3c
