light_mappo-main/results/MyEnv/MyEnv/mappo/check/run1/models/actor.pt (torch, 45045 bytes, 16 tensors)

base.feature_norm.weight f4 [14]
1.3267045 1.1509384 0.7934983 1.1106699 0.7639071 1.2968833 1.1309528 1.1422725
1.0795566 1.0498917 0.6550678 1.0343505 0.8415834 1.1154485
00000000: 74d1 a93f f351 933f b422 4b3f 6e2a 8e3f
00000010: 6a8f 433f 4600 a63f 10c3 903f fc35 923f
00000020: e92e 8a3f da62 863f 86b2 273f 9965 843f
00000030: 0272 573f 04c7 8e3f

base.feature_norm.bias f4 [14]
-0.35518205 0.24938384 -0.03622082 -0.06915545 -0.18137419 -0.03498022 0.04565193 0.015436078
0.09073108 -0.30526555 -0.073524885 -0.282639 0.1517693 -0.33042508
00000000: 6cda b5be 7a5e 7f3e 485c 14bd 5fa1 8dbd
00000010: 28ba 39be 6b47 0fbd 85fd 3a3d 9be7 7c3c
00000020: 37d1 b93d c44b 9cbe 3794 96bd 0fb6 90be
00000030: 6969 1b3e 7a2d a9be

base.mlp.fc1.0.weight f4 [64, 14]
0.06521581 0.27741826 -0.1706027 0.13209285 -0.3401433 -0.35218117 -0.40285474 0.56593305
-0.1269611 -0.25418425 0.69324946 -0.20875904 0.39163268 0.23938555 -0.050672054 0.44639066
0.04407294 -0.43120793 0.43464428 -0.30061275 0.3540113 -0.04603021 -0.37372282 0.2608046
0.092195995 -0.065503515 0.5692221 -0.044548023 -0.2334877 0.38915035 0.09328045 -0.18405178
0.25387895 -0.54610115 -0.27622557 0.33059672 -0.15074323 -0.122650094 0.014813884 -0.28195542
-0.015751358 0.5814969 -0.40433115 0.12527484 -0.17222248 0.230747 -0.014839389 0.09696374
0.011556559 -0.4273968 0.06486946 1.1507382 0.23081341 -0.056722585 -0.17574401 0.19311397
-0.18877228 0.06887598 0.23522337 0.07348936 -0.23842642 0.4286302 0.2541646 0.7279302
0.6257973 -0.84136254 -0.11009525 -0.21586308 -0.2465956 -0.013778051 -0.022056205 0.17224626
-0.57666016 -0.26689908 -0.48796386 0.8631926 0.0541476 0.14552811 0.2252134 0.23072979
-0.5063457 -0.27271912 0.027181508 -0.18263875 0.6549738 -0.7776999 0.20856863 -0.35535705
0.15850222 -0.66741073 -0.12258267 0.3525545 -0.061256465 -0.023842542 -0.30213574 0.16202994
0.258497 -0.012737059 -0.15236002 0.20246209 0.41892776 0.05265746 0.06681913 0.24374235
0.029567067 0.08840895 -0.2217586 -0.008977525 -0.2165088 0.3047245 -0.0032028728 0.28695926
-0.17959471 -0.17080216 0.4476511 0.3969046 -0.22052164 -0.18209828 -0.73323977 -0.18072762
-0.02488594 0.3867435 0.26891065 -0.3310876 -0.276098 0.47349742 -0.32518026 0.2103251
0.23576821 -0.47622174 -0.1440202 -0.13019979 0.30670854 -0.09882348 0.43428203 -0.12038391
0.31270257 -0.13754523 -0.47094554 0.40989763 -0.381835 -0.61607456 0.42444545 -0.010624971
0.13648331 -0.281189 -0.26500952 0.43170756 0.43319198 -0.26076153 -0.14291519 0.3645029
0.16542467 0.10742548 -0.1170204 0.344672 0.2950564 0.4600876 0.12191759 -0.16950084
-0.08696853 -0.8535088 0.16942152 0.30470723 0.04687447 0.42766 0.08776995 -0.08195104
0.2582533 -0.22567773 -0.6214203 -0.19604787 -0.12757748 -0.20927379 -0.32409558 0.69450486
0.17130472 0.023262417 -0.2055819 0.22219735 -0.1670933 0.15869705 0.8212094 -0.005827272
-0.19814786 -0.30890054 -0.28851038 -0.19670905 -0.12783091 0.5235358 0.334735 -0.20774598
-0.01706199 0.47049862 0.747843 -0.109664984 0.42800054 0.43441498 0.03044267 -0.30208474
0.051710688 -0.37091646 -0.1627129 0.17838392 0.3396378 0.59624845 -0.06961272 -0.25031036
-0.2729879 0.062382028 0.11712152 0.0022147305 -0.07195741 0.19179836 -0.002979015 0.55457264
-0.50928944 0.14347139 -0.26853526 0.17523739 -0.10757163 0.4866904 -0.42377982 -0.40746573
-0.11578797 -0.09375284 -0.26856953 0.6807996 0.23784113 0.014388799 -0.29441136 0.184207
0.00559803 0.09146971 -0.31037012 -0.21873383 0.00076307874 -0.31040534 0.7171525 -0.3352874
0.12425058 -0.14737348 0.02522697 -0.43941984 -0.13506211 0.11257098 0.07013206 -0.052199423
0.63333255 0.06226753 0.035354678 0.25690705 0.11654227 0.0057804845 -0.36536986 -0.025498124
00000000: de8f 853d c409 8e3e 79b2 2ebe 5943 073e
00000010: 4327 aebe 1751 b4be fa42 cebe fde0 103f
00000020: 1702 02be 7024 82be cc78 313f eec4 55be
00000030: 1484 c83e 7c21 753e 808d 4fbd 518d e43e
00000040: d485 343d 49c7 dcbe b289 de3e eae9 99be
00000050: f840 b53e 2c8a 3cbd 9958 bfbe 2e88 853e
00000060: 41d1 bc3d b526 86bd 8ab8 113f fd77 36bd
00000070: 6617 6fbe b73e c73e d209 bf3d 1278 3cbe
00000080: 6cfc 813e 49cd 0bbf 706d 8dbe f943 a93e
00000090: 6f5c 1abe f92f fbbd efb5 723c 765c 90be
000000a0: fe08 81bc fbdc 143f 7e04 cfbe 0c48 003e
000000b0: 175b 30be f148 6c3e e920 73bc ed94 c63d
000000c0: b957 3d3c c1d3 dabe 48da 843d 644b 933f
000000d0: 5a5a 6c3e f155 68bd 3df6 33be abbf 453e
000000e0: 854d 41be da0e 8d3d 65de 703e 9781 963d
000000f0: 0e26 74be 6b75 db3e dd21 823e a259 3a3f
00000100: 4034 203f 8963 57bf 9e79 e1bd 360b 5dbe
00000110: 8f83 7cbe 56bd 61bc 37af b4bc 5361 303e
00000120: 00a0 13bf ffa6 88be 66d6 f9be 31fa 5c3f
00000130: e0c9 5d3d 5205 153e 579e 663e 6e44 6c3e
00000140: df9f 01bf d7a1 8bbe c1ab de3c a705 3bbe
00000150: 5dac 273f 5717 47bf 0493 553e 5cf1 b5be
00000160: 684e 223e 6edb 2abf 9f0c fbbd 0682 b43e
00000170: 0fe8 7abd 6f51 c3bc 89b1 9abe 2deb 253e
00000180: b859 843e 19af 50bc 4404 1cbe 3952 4f3e
00000190: b37d d63e 59af 573d 78d8 883d 9897 793e
000001a0: a236 f23c c00f b53d b014 63be 7816 13bc
000001b0: 7cb4 5dbe da04 9c3e 4ae7 51bb 53ec 923e
000001c0: ade7 37be c3e6 2ebe 8632 e53e 1437 cb3e
000001d0: 6dd0 61be f977 3abe 9ab5 3bbf a910 39be
000001e0: 99dd cbbc 3e03 c63e a8ae 893e 5084 a9be
000001f0: b85c 8dbe 416e f23e 077e a6be 775f 573e
00000200: 396d 713e 56d3 f3be 087a 13be 1853 05be
00000210: e708 9d3e f763 cabd 375a de3e d78b f6bd
00000220: 8d1a a03e a8d8 0cbe c61f f1be 1ade d13e
00000230: e17f c3be 10b7 1dbf ea50 d93e 5c14 2ebc
00000240: 48c2 0b3e 01f8 8fbe 54af 87be c608 dd3e
00000250: 57cb dd3e 8982 85be 5c58 12be 20a0 ba3e
00000260: 1665 293e e401 dc3d 64a8 efbd d978 b03e
00000270: a211 973e 9a90 eb3e eeaf f93d a191 2dbe
00000280: 8f1c b2bd 8d7f 5abf d67c 2d3e 9602 9c3e
00000290: 72ff 3f3d 40f6 da3e bbc0 b33d f2d5 a7bd
000002a0: c739 843e 1018 67be 6715 1fbf c6c0 48be
000002b0: aca3 02be de4b 56be dbef a5be 12cb 313f
000002c0: 816a 2f3e d390 be3c 1084 52be b487 633e
000002d0: 821a 2bbe 7b81 223e c73a 523f b3f2 bebb
000002e0: 46e7 4abe 3628 9ebe a2b7 93be 196e 49be
000002f0: 1be6 02be 7106 063f 6362 ab3e 5dbb 54be
00000300: 96c5 8bbc 32e5 f03e a472 3f3f 0998 e0bd
00000310: e322 db3e a46b de3e e862 f93c daaa 9abe
00000320: 96ce 533d c3e8 bdbe 369e 26be 46aa 363e
00000330: 01e5 ad3e bda3 183f 1d91 8ebd ae28 80be
00000340: 12c5 8bbe 4c84 7f3d 68dd ef3d 0325 113b
00000350: 685e 93bd ca66 443e 943b 43bb 79f8 0d3f
00000360: cb60 02bf 2aea 123e 747d 89be 6e71 333e
00000370: 844e dcbd 7c2f f93e abf9 d8be 599f d0be
00000380: 3e22 edbd 7d01 c0bd f281 89be e248 2e3f
00000390: a08c 733e ffbe 6b3c 16bd 96be c3a0 3c3e
000003a0: ae6f b73b 7954 bb3d d5e8 9ebe c3fb 5fbe
000003b0: 5909 483a 73ed 9ebe 4e97 373f caaa abbe
000003c0: 1777 fe3d 13e9 16be caa8 ce3c a3fb e0be
000003d0: b94d 0abe 9d8b e63d 66a1 8f3d 10cf 55bd
000003e0: 1522 223f 3d0c 7f3d 11d0 103d 5289 833e
000003f0: b7ad ee3d 386a bd3b c211 bbbe 71e1 d0bc

base.mlp.fc1.0.bias f4 [64]
-0.06942855 -0.09439108 -0.0615772 -0.1485534 -0.03747448 0.01498022 -0.093891345 -0.48456416
-0.124275334 0.011385559 -0.026300378 -0.18757947 -0.17363714 -0.09575381 -0.27916273 0.18138637
-0.43909436 -0.37795627 -0.33510116 -0.2972149 -0.44258028 -0.40238434 -0.009166956 -0.061777107
-0.14605504 -0.24628036 -0.09945416 -0.08955081 0.16225694 -0.08650564 -0.16657111 0.042601787
0.033122662 -0.14435837 -0.20654775 0.015852198 -0.1188852 -0.47080365 -0.36718446 -0.22773479
-0.23129053 -0.28884712 0.0026660713 -0.27255547 -0.07171444 -0.15797532 -0.2263731 -0.06616274
0.13523237 -0.47664404 -0.35019708 0.114179134 -0.25245422 -0.18238209 -0.2327972 -0.21267617
0.046539776 0.2508092 -0.2750318 -0.3411751 0.1283386 0.19617543 -0.21913616 -0.29344442
00000000: 8e30 8ebd 1c50 c1bd 6038 7cbd 621e 18be
00000010: d77e 19bd 996f 753c 1b4a c0bd cb18 f8be
00000020: 1184 febd 7f8a 3a3c e473 d7bc d514 40be
00000030: efcd 31be 931a c4bd 6bee 8ebe 59bd 393e
00000040: fad0 e0be 7c83 c1be 6192 abbe 8d2c 98be
00000050: e299 e2be 5205 cebe 0031 16bc fe09 7dbd
00000060: 748f 15be eb30 7cbe 9fae cbbd 6a66 b7bd
00000070: af26 263e de29 b1bd 9e91 2abe 367f 2e3d
00000080: a1ab 073d aed2 13be 4181 53be 78dc 813c
00000090: 157a f3bd 2d0d f1be 9aff bbbe 4f33 69be
000000a0: 6dd7 6cbe c5e3 93be 41b9 2e3b 648c 8bbe
000000b0: 05df 92bd 48c4 21be 5ace 67be 5580 87bd
000000c0: 5b7a 0a3e b00a f4be 084d b3be c0d6 e93d
000000d0: ae41 81be 5fc2 3abe 6462 6ebe c8c7 59be
000000e0: 7ea0 3e3d 106a 803e f8d0 8cbe 81ae aebe
000000f0: 326b 033e 36e2 483e 3b65 60be 593e 96be

base.mlp.fc1.2.weight f4 [64]
1.1617672 0.8338302 1.074837 1.0649296 1.4253966 1.1636143 1.3335224 0.7654534
1.1847361 0.9736473 1.0475091 1.0525486 0.9848282 1.3629701 1.1124971 1.1775374
0.80511254 0.89460045 1.0907317 0.9620113 0.6957074 0.6609157 1.3525375 0.71275175
0.8848261 1.0621576 1.0338907 0.8935115 1.3660691 0.96036553 1.4255153 1.4676942
0.94336104 1.3048745 1.4861587 0.9200813 1.1773186 0.91424924 1.0218387 0.7667798
0.93423504 1.0812277 0.97318345 0.7644219 0.790547 1.3345267 0.7252843 0.6534279
1.3231924 1.1509537 0.9542374 0.8619211 0.8567825 1.1972291 0.77062637 1.1304976
1.0740281 1.2345791 0.94509995 1.2774634 1.2010884 1.1581231 1.1193647 0.96894616
00000000: cab4 943f e575 553f 4294 893f 9d4f 883f
00000010: 6573 b63f 50f1 943f ddb0 aa3f c1f4 433f
00000020: 6fa5 973f f340 793f c714 863f eab9 863f
00000030: b31d 7c3f ce75 ae3f 4e66 8e3f 8cb9 963f
00000040: db1b 4e3f 8904 653f 199d 8b3f 5f46 763f
00000050: e119 323f c531 293f f31f ad3f e676 363f
00000060: f783 623f c8f4 873f 8856 843f 2bbd 643f
00000070: 5adb ae3f 84da 753f 4977 b63f 67dd bb3f
00000080: 1c80 713f 2106 a73f 733a be3f 738a 6b3f
00000090: 60b2 963f 3d0c 6a3f 9ccb 823f ae4b 443f
000000a0: 072a 6f3f ab65 8a3f 8d22 793f 27b1 433f
000000b0: 4a61 4a3f c5d1 aa3f 3bac 393f 0d47 273f
000000c0: 5e5e a93f 7352 933f e748 743f dca6 5c3f
000000d0: 1956 5b3f ce3e 993f c547 453f 25b4 903f
000000e0: c179 893f b006 9e3f 12f2 713f ec83 a33f
000000f0: 44bd 993f 613d 943f 5847 8f3f db0c 783f

base.mlp.fc1.2.bias f4 [64]
-0.03369654 0.31510833 -0.042893343 0.037519034 0.058902994 0.06742723 0.09450352 -0.13651288
0.05232951 0.07346237 0.09203884 0.24347514 -0.10564348 -0.12135287 0.02968286 0.058154278
-0.05987158 0.2417946 -0.2281665 -0.1791734 -0.11985154 0.078607686 0.06346472 0.086579025
-0.0899931 0.04691613 0.15596896 0.06264898 0.19878119 0.087455645 -0.053374156 0.14157112
0.021394944 -0.34799352 -0.057055872 -0.024989007 -0.014469572 -0.11123097 -0.018494906 0.17152977
-0.07858971 -0.17776148 0.24698235 -0.18935125 -0.05161038 0.1468254 0.05432906 0.09138945
0.23400854 0.13640714 0.049433857 0.026304971 0.10310133 0.016037894 -0.10367997 -0.03479976
0.13923351 0.1790152 -0.039805744 -0.29249692 0.17542204 0.035419434 -0.07214844 0.3229141
00000000: 6205 0abd e155 a13e eeb0 2fbd 8fad 193d
00000010: 4444 713d 4a17 8a3d 108b c13d 08ca 0bbe
00000020: 7857 563d 7073 963d dc7e bc3d 8c51 793e
00000030: 9c5b d8bd da87 f8bd 7829 f33c 2e33 6e3d
00000040: e73b 75bd 0199 773e 7ba4 69be 3b79 37be
00000050: b974 f5bd 11fd a03d cbf9 813d 5850 b13d
00000060: 4d4e b8bd 212b 403d 54b6 1f3e 1c4e 803d
00000070: 4c8d 4b3e f21b b33d dc9e 5abd 05f8 103e
00000080: 7344 af3c 352c b2be 6bb3 69bd bfb5 ccbc
00000090: c911 6dbc 10cd e3bd a182 97bc 80a5 2f3e
000000a0: a4f3 a0bd 1b07 36be f1e8 7c3e 4be5 41be
000000b0: 6865 53bd 6659 163e 2688 5e3d 642a bb3d
000000c0: ef9f 6f3e 50ae 0b3e 287b 4a3d 867d d73c
000000d0: ca26 d33d e761 833c 2a56 d4bd 318a 0ebd
000000e0: 3b93 0e3e c34f 373e 590b 23bd 28c2 95be
000000f0: d6a1 333e f813 113d 90c2 93bd ff54 a53e

base.mlp.fc_h.0.weight f4 [64, 64]
-0.18151923 -0.1565031 0.007034267 0.16918507 -0.1254678 -0.16393083 -0.2508228 0.08914017
0.30820152 -0.11710078 0.26850542 -0.16110182 0.16290721 -0.18449785 -0.23151366 0.12878416
-0.025832636 -0.17070188 0.062008444 0.114307955 0.19807823 0.08937481 -0.18258975 -0.05560175
0.034677073 0.36204407 0.06635766 0.0013869513 -0.21818243 0.110485815 0.42368543 -0.11157965
-0.1528641 0.062907964 -0.25205305 0.105282575 0.23751469 -0.15249605 -0.017405689 0.034101937
0.038247943 0.08227641 -0.12667206 -0.10368304 -0.12784128 0.019374954 0.42397466 -0.15151638
-0.035293538 -0.12258077 -0.21953024 -0.2042755 -0.14448728 -0.15305008 0.045645565 -0.328047
-0.03370757 -0.020030363 0.16829433 -0.23630764 -0.11480442 -0.13504441 0.25639698 -0.2519729
-0.16996875 -0.090817966 0.2196299 -0.14567477 0.04902282 -0.25145102 0.01161826 0.01117226
0.13203938 -0.14809741 -0.09473683 0.027993046 0.37336147 0.18219429 -0.09746954 -0.08045812
-0.39772117 0.0013355651 -0.015057512 -0.23549429 -0.16749454 0.058744498 -0.2775868 -0.03447462
0.021418907 -0.17957164 -0.25430676 0.18972753 -0.17606206 0.032951754 0.048713695 0.06940286
-0.11561527 -0.089209296 0.1428578 -0.19446269 0.03326334 0.31601006 0.2509955 -0.20784082
0.19795734 0.2904298 -0.17570671 -0.28663594 0.050898716 -0.11626276 -0.029008912 -0.17440517
0.16610374 0.19592296 0.17164835 -0.17611872 0.2649839 -0.11073606 0.029247748 0.33126956
-0.19032179 0.03340129 0.18126348 0.18121886 -0.2298611 0.12925993 0.14806218 -0.09420246
0.13883111 0.2608916 0.08102874 0.31200433 -0.16574682 0.22913893 -0.16802998 -0.07266297
-0.28488696 -0.3126408 -0.27705395 0.054188423 -0.08194118 0.06784876 -0.1812006 0.31031084
-0.037723176 0.12316655 0.16452575 -0.1666904 0.10440485 -0.399297 -0.022124758 -0.27775308
-0.15064813 -0.054353133 -0.00858595 -0.26577535 0.0071436297 0.043460894 0.17171402 -0.27411714
-0.03823979 -0.07736817 0.14575839 -0.3895164 0.22680536 -0.06291803 0.31093535 -0.28871903
-0.09886334 0.07313039 0.037929088 -0.03114387 0.06409408 -0.09859454 -0.02958026 -0.14886639
0.17309362 -0.21410373 0.17490523 0.2190489 -0.20868997 0.038003195 -0.010212174 -0.10133334
-0.0028189165 0.011522094 -0.18251248 -0.05253393 0.035536017 0.029333206 0.2235914 -0.07445633
0.11573053 -0.015546105 0.016775846 0.16583292 -0.15396076 0.15724277 0.13792391 0.14173976
0.061763275 -0.1522568 0.055199474 -0.15530092 0.012589351 0.2866756 -0.11814161 -0.19023047
0.1662049 -0.1737147 -0.22211467 -0.12016241 0.16954343 0.1284202 0.15091537 0.19472276
-0.12509763 -0.0444181 -0.04146969 -0.09857253 0.31479418 -0.07545641 0.4542883 -0.14514963
-0.05517918 0.06465497 0.13502844 -0.04672215 0.08818291 0.16562314 -0.012635873 0.011085583
0.25396323 0.18022582 -0.18492787 -0.042803545 0.441567 3.9035226e-06 -0.2181838 0.25797242
-0.33125824 0.28346342 0.16116387 -0.007613907 -0.029788662 0.24454714 -0.10527146 -0.16626509
-0.041932248 -0.3010442 0.3088779 -0.11127575 0.15974635 -0.06533728 -0.13368154 -0.16417612
00000000: 2de0 39be 5942 20be b57f e63b da3e 2d3e
00000010: a27a 00be 7cdd 27be d96b 80be 1f8f b63d
00000020: 97cc 9d3e 89d2 efbd 8b79 893e e0f7 24be
00000030: 26d1 263e 01ed 3cbe eb11 6dbe ffdf 033e
00000040: f79e d3bc 79cc 2ebe 91fc 7d3d 4a1a ea3d
00000050: 05d5 4a3e 240a b73d cff8 3abe a9be 63bd
00000060: 8c09 0e3d d75d b93e 86e6 873d 5dca b53a
00000070: 376b 5fbe 6346 e23d 4ced d83e df83 e4bd
00000080: 6888 1cbe e4d5 803d 190d 81be 649e d73d
00000090: 0d37 733e ed27 1cbe 6096 8ebc 79ae 0b3d
000000a0: e0a9 1c3d 8980 a83d 52b6 01be c657 d4bd
000000b0: d3e8 02be 39b8 9e3c 3513 d93e 1c27 1bbe
000000c0: f58f 10bd a00b fbbd 89cc 60be 992d 51be
000000d0: 79f4 13be 29b9 1cbe d8f6 3a3d c7f5 a7be
000000e0: f310 0abd b716 a4bc 5955 2c3e a1fa 71be
000000f0: 941e ebbd 1549 0abe 7746 833e 9802 81be
00000100: 4a0c 2ebe c5fe b9bd a9e6 603e c42b 15be
00000110: 27cc 483d 30be 80be 845a 3e3c db0b 373c
00000120: 5535 073e d9a6 17be 6205 c2bd ac51 e53c
00000130: 3c29 bf3e 2491 3a3e 1c9e c7bd 3ac7 a4bd
00000140: 1ca2 cbbe 210e af3a c8b3 76bc 6a25 71be
00000150: b083 2bbe 129e 703d db1f 8ebe 4235 0dbd
00000160: b476 af3c a1e1 37be 7f34 82be ef47 423e
00000170: 9d49 34be 6bf8 063d 0388 473d 1623 8e3d
00000180: b3c7 ecbd 5db3 b6bd 5149 123e 3a21 47be
00000190: 243f 083d 12cc a13e 7b82 803e 39d4 54be
000001a0: 54b5 4a3e 37b3 943e 76ec 33be f2c1 92be
000001b0: 2c7b 503d 2b1b eebd 19a4 edbc 4597 32be
000001c0: 1917 2a3e 07a0 483e 96c4 2f3e 7758 34be
000001d0: f8ab 873e 96c9 e2bd f998 ef3c 2a9c a93e
000001e0: b7e3 42be cbcf 083d 229d 393e 7091 393e
000001f0: b560 6bbe b75c 043e 9d9d 173e 38ed c0bd
00000200: be29 0e3e 9593 853e 65f2 a53d 08bf 9f3e
00000210: 89b9 29be 65a3 6a3e 0d10 2cbe 53d0 94bd
00000220: b4dc 91be 7412 a0be 04da 8dbe aef4 5d3d
00000230: c7d0 a7bd 4af4 8a3d a68c 39be 10e1 9e3e
00000240: 9e83 1abd bf3e fc3d 7079 283e e3b0 2abe
00000250: 36d2 d53d a870 ccbe fb3e b5bc a735 8ebe
00000260: 8143 1abe 64a1 5ebd 16ac 0cbc b513 88be
00000270: 1c15 ea3b 0d04 323d cdd5 2f3e 1559 8cbe
00000280: 53a1 1cbd 3473 9ebd b041 153e b26e c7be
00000290: aa3f 683e 2bdb 80bd eb32 9f3e fbd2 93be
000002a0: dd78 cabd 63c5 953d 885b 1b3d 6e21 ffbc
000002b0: c243 833d efeb c9bd 4d52 f2bc 6e70 18be
000002c0: 743f 313e 023e 5bbe 5b1a 333e 5b4e 603e
000002d0: d3b2 55be 3da9 1b3d f650 27bc db87 cfbd
000002e0: 92bd 38bb 2ac7 3c3c 8de4 3abe d12d 57bd
000002f0: 378e 113d 314c f03c 25f5 643e 8f7c 98bd
00000300: 2104 ed3d 17b5 7ebc 806d 893c 1bd0 293e
00000310: e4a7 1dbe 4004 213e ed3b 0d3e 3a24 113e
00000320: 7dfb 7c3d 35e9 1bbe d818 623d 3407 1fbe
00000330: 9143 4e3c 25c7 923e 3af4 f1bd c7cb 42be
00000340: 9e31 2a3e 44e2 31be 0772 63be b617 f6bd
00000350: cb9c 2d3e 9680 033e 8f89 1a3e 6765 473e
00000360: 9819 00be c1ef 35bd 1fdc 29bd 65e0 c9bd
00000370: b42c a13e e488 9abd 7a98 e83e 1ba2 14be
00000380: 9003 62bd d369 843d e544 0a3e ba5f 3fbd
00000390: 3e99 b43d 1d99 293e b106 4fbc 4ea0 353c
000003a0: 7807 823e 1e8d 383e bb5d 3dbe c552 2fbd
000003b0: 1215 e23e 01fb 8236 936b 5fbe f614 843e
000003c0: ae9a a9be 1e22 913e 2408 253e 157e f9bb
000003d0: 5a07 f4bc 916a 7a3e 9098 d7bd 6541 2abe
000003e0: 26c1 2bbd 7722 9abe 3e25 9e3e 8ae4 e3bd
000003f0: 8c94 233e 8dcf 85bd d0e3 08be c91d 28be

base.mlp.fc_h.0.bias f4 [64]
0.0 0.0 0.0 0.0 0.0 0.0 0.0 0.0
0.0 0.0 0.0 0.0 0.0 0.0 0.0 0.0
0.0 0.0 0.0 0.0 0.0 0.0 0.0 0.0
0.0 0.0 0.0 0.0 0.0 0.0 0.0 0.0
0.0 0.0 0.0 0.0 0.0 0.0 0.0 0.0
0.0 0.0 0.0 0.0 0.0 0.0 0.0 0.0
0.0 0.0 0.0 0.0 0.0 0.0 0.0 0.0
0.0 0.0 0.0 0.0 0.0 0.0 0.0 0.0
00000000: 0000 0000 0000 0000 0000 0000 0000 0000
00000010: 0000 0000 0000 0000 0000 0000 0000 0000
00000020: 0000 0000 0000 0000 0000 0000 0000 0000
00000030: 0000 0000 0000 0000 0000 0000 0000 0000
00000040: 0000 0000 0000 0000 0000 0000 0000 0000
00000050: 0000 0000 0000 0000 0000 0000 0000 0000
00000060: 0000 0000 0000 0000 0000 0000 0000 0000
00000070: 0000 0000 0000 0000 0000 0000 0000 0000
00000080: 0000 0000 0000 0000 0000 0000 0000 0000
00000090: 0000 0000 0000 0000 0000 0000 0000 0000
000000a0: 0000 0000 0000 0000 0000 0000 0000 0000
000000b0: 0000 0000 0000 0000 0000 0000 0000 0000
000000c0: 0000 0000 0000 0000 0000 0000 0000 0000
000000d0: 0000 0000 0000 0000 0000 0000 0000 0000
000000e0: 0000 0000 0000 0000 0000 0000 0000 0000
000000f0: 0000 0000 0000 0000 0000 0000 0000 0000

base.mlp.fc_h.2.weight f4 [64]
1.0 1.0 1.0 1.0 1.0 1.0 1.0 1.0
1.0 1.0 1.0 1.0 1.0 1.0 1.0 1.0
1.0 1.0 1.0 1.0 1.0 1.0 1.0 1.0
1.0 1.0 1.0 1.0 1.0 1.0 1.0 1.0
1.0 1.0 1.0 1.0 1.0 1.0 1.0 1.0
1.0 1.0 1.0 1.0 1.0 1.0 1.0 1.0
1.0 1.0 1.0 1.0 1.0 1.0 1.0 1.0
1.0 1.0 1.0 1.0 1.0 1.0 1.0 1.0
00000000: 0000 803f 0000 803f 0000 803f 0000 803f
00000010: 0000 803f 0000 803f 0000 803f 0000 803f
00000020: 0000 803f 0000 803f 0000 803f 0000 803f
00000030: 0000 803f 0000 803f 0000 803f 0000 803f
00000040: 0000 803f 0000 803f 0000 803f 0000 803f
00000050: 0000 803f 0000 803f 0000 803f 0000 803f
00000060: 0000 803f 0000 803f 0000 803f 0000 803f
00000070: 0000 803f 0000 803f 0000 803f 0000 803f
00000080: 0000 803f 0000 803f 0000 803f 0000 803f
00000090: 0000 803f 0000 803f 0000 803f 0000 803f
000000a0: 0000 803f 0000 803f 0000 803f 0000 803f
000000b0: 0000 803f 0000 803f 0000 803f 0000 803f
000000c0: 0000 803f 0000 803f 0000 803f 0000 803f
000000d0: 0000 803f 0000 803f 0000 803f 0000 803f
000000e0: 0000 803f 0000 803f 0000 803f 0000 803f
000000f0: 0000 803f 0000 803f 0000 803f 0000 803f

base.mlp.fc_h.2.bias f4 [64]
0.0 0.0 0.0 0.0 0.0 0.0 0.0 0.0
0.0 0.0 0.0 0.0 0.0 0.0 0.0 0.0
0.0 0.0 0.0 0.0 0.0 0.0 0.0 0.0
0.0 0.0 0.0 0.0 0.0 0.0 0.0 0.0
0.0 0.0 0.0 0.0 0.0 0.0 0.0 0.0
0.0 0.0 0.0 0.0 0.0 0.0 0.0 0.0
0.0 0.0 0.0 0.0 0.0 0.0 0.0 0.0
0.0 0.0 0.0 0.0 0.0 0.0 0.0 0.0
00000000: 0000 0000 0000 0000 0000 0000 0000 0000
00000010: 0000 0000 0000 0000 0000 0000 0000 0000
00000020: 0000 0000 0000 0000 0000 0000 0000 0000
00000030: 0000 0000 0000 0000 0000 0000 0000 0000
00000040: 0000 0000 0000 0000 0000 0000 0000 0000
00000050: 0000 0000 0000 0000 0000 0000 0000 0000
00000060: 0000 0000 0000 0000 0000 0000 0000 0000
00000070: 0000 0000 0000 0000 0000 0000 0000 0000
00000080: 0000 0000 0000 0000 0000 0000 0000 0000
00000090: 0000 0000 0000 0000 0000 0000 0000 0000
000000a0: 0000 0000 0000 0000 0000 0000 0000 0000
000000b0: 0000 0000 0000 0000 0000 0000 0000 0000
000000c0: 0000 0000 0000 0000 0000 0000 0000 0000
000000d0: 0000 0000 0000 0000 0000 0000 0000 0000
000000e0: 0000 0000 0000 0000 0000 0000 0000 0000
000000f0: 0000 0000 0000 0000 0000 0000 0000 0000

base.mlp.fc2.0.0.weight f4 [64, 64]
-0.8885747 -0.2417529 -0.06979508 0.43975714 0.07101871 -0.21941943 -0.35656336 -0.10941623
0.14099331 0.16582601 0.44590726 -0.29672107 0.2782968 0.18449847 -0.29695567 -0.06802763
-0.0750487 -0.516104 -0.12003289 -0.3108695 0.07705726 0.3635996 -0.3656267 0.11114719
0.47852132 0.8254454 0.010172888 0.7809864 -0.7275836 0.3068159 0.17668104 -0.63492876
-0.44511327 -0.11760509 -0.50819737 0.112027965 0.32693684 0.09400628 0.47272435 0.23646088
0.66654867 0.66718036 -0.09234873 0.16730268 -0.081325516 -0.43618277 0.2053565 0.3330389
0.1244209 0.052971553 -0.69930154 0.13104317 -0.4749671 -0.11762293 0.01745929 -0.65200645
-0.2749793 0.15868512 -0.26357624 0.17043908 -0.51719105 -0.035440966 0.16267219 -0.5655103
-0.07174955 0.21287724 0.11475511 -0.08140143 0.10193756 -0.32128447 0.18751346 0.22800623
-0.0032932756 0.001478869 0.13462296 0.22317576 0.23556738 0.6878988 0.16324343 -0.2726966
-0.742534 0.11278453 -0.21790795 -0.11644012 -0.25225815 0.14544037 -0.1621158 0.1968714
-0.184581 -0.29562873 -0.13298477 -0.07954649 -0.42709467 -0.29609394 -0.27537706 0.3790963
-0.39568004 0.017808959 -0.0012601727 0.05885868 0.10432216 0.31309694 0.31882268 -0.4658625
0.39920548 -0.04409023 -0.35085592 -0.29768687 0.24623963 -0.20245834 -0.058215085 0.16226433
0.27032688 0.49095002 -0.103628755 0.1290051 0.05795926 -0.23385103 0.19575861 0.007846672
-0.8320125 0.20192558 -0.098214194 0.26462337 -0.41063014 0.5892894 -0.26875433 -0.11376293
0.810861 -0.1345134 0.403812 0.57576424 -0.20548382 0.16525461 -0.33112162 -0.19482711
-0.10570545 -0.060128406 -0.7496036 0.23270014 0.07597894 -0.44648662 -0.14006165 -0.106126666
-0.16181281 0.15234248 0.451916 0.17292152 0.64069444 -0.48726627 0.16116273 -0.010805049
-0.23196325 -0.20770516 -0.81207466 -0.40277553 0.18271607 -0.20350057 -0.23475102 -0.7934388
0.20655504 0.10557507 0.6963613 -0.406017 0.31706327 0.34841964 0.45878538 -0.40555558
-0.14675371 0.14094205 -0.029116293 0.2829554 0.057962526 -0.34767056 -0.022488626 0.072847225
-0.12338349 -0.36753497 0.23445794 0.41097367 -0.5215296 0.2522969 0.42798215 0.4346951
0.118791245 -0.27164978 0.1994798 -0.13307962 -0.25323075 -0.01355899 0.55605364 -0.21269767
-0.12109279 -0.15632302 -0.1729483 -0.32927552 -0.04719871 0.18039939 -0.1197261 0.121808566
0.05351585 0.090756066 0.14528969 0.16266212 -0.027171375 0.33611232 -0.026700517 0.47199643
0.10245761 -0.3841186 -0.05605837 0.31931138 0.21147406 0.15279038 0.31043544 -0.03807
-0.023626214 0.21384317 -0.19245613 0.103366725 0.3597874 0.31753087 0.5257356 -0.6079927
0.37856996 -0.42420867 0.29899198 0.003533175 0.08397441 0.1279406 -0.2977721 -0.026827749
0.19329831 0.33016634 -0.336119 0.05645301 0.3193892 0.03559968 -0.38517076 -0.03453402
-0.8584785 -0.13545594 0.529575 -0.008534153 0.013308154 -0.18805154 0.001630547 -0.073387265
0.34102327 -0.3460946 0.40277603 0.015485732 0.36109734 -0.24929994 0.18176393 -0.34727442
00000000: a279 63bf 128e 77be b9f0 8ebd d927 e13e
00000010: 4272 913d 7daf 60be 798f b6be 9e15 e0bd
00000020: 8d60 103e 4bce 293e f54d e43e d3eb 97be
00000030: eb7c 8e3e 2bed 3c3e 930a 98be 1252 8bbd
00000040: 22b3 99bd 641f 04bf ced3 f5bd 492a 9fbe
00000050: 32d0 9d3d ba29 ba3e 6c33 bbbe 23a1 e33d
00000060: bf00 f53e 6450 533f 2fac 263c baee 473f
00000070: eb42 3abf f916 9d3e e0eb 343e b18a 22bf
00000080: e3e5 e3be f0da f0bd 3919 02bf eb6e e53d
00000090: 4464 a73e 5d86 c03d ed08 f23e cd22 723e
000000a0: efa2 2a3f 55cc 2a3f 5521 bdbd 6551 2b3e
000000b0: fe8d a6bd 5953 dfbe f948 523e 1384 aa3e
000000c0: 63d0 fe3d b3f8 583d 6d05 33bf 2e30 063e
000000d0: e32e f3be 4ae4 f0bd c906 8f3c e5e9 26bf
000000e0: 16ca 8cbe 5a7e 223e 77f3 86be 9587 2e3e
000000f0: a266 04bf 8c2a 11bd 8a93 263e 48c5 10bf
00000100: 6ef1 92bd 7efc 593e ba04 eb3d cbb5 a6bd
00000110: a4c4 d03d 667f a4be 8703 403e 777a 693e
00000120: ffd3 57bb 9cd6 c13a 9ada 093e 3088 643e
00000130: 9338 713e 231a 303f 4929 273e e49e 8bbe
00000140: b516 3ebf 93fb e63d 4323 5fbe 2878 eebd
00000150: fb27 81be 52ee 143e af01 26be a898 493e
00000160: cd02 3dbe a65c 97be 292d 08be 45e9 a2bd
00000170: 27ac dabe a099 97be 39fe 8cbe e918 c23e
00000180: 9396 cabe 18e4 913c 612c a5ba cd15 713d
00000190: dba6 d53d 3e4e a03e ba3c a33e 8885 eebe
000001a0: a964 cc3e f597 34bd 63a3 b3be 6a6a 98be
000001b0: 3e26 7c3e 3d51 4fbe f172 6ebd 9f28 263e
000001c0: 4968 8a3e cd5d fb3e 503b d4bd ea19 043e
000001d0: b066 6d3d a576 6fbe f274 483e 548f 003c
000001e0: c5fe 54bf 94c5 4e3e 8624 c9bd b77c 873e
000001f0: 1d3e d2be acdb 163f 2b9a 89be 8afc e8bd
00000200: 9694 4f3f e1bd 09be 72c0 ce3e 4965 133f
00000210: 5a6a 52be 8138 293e c688 a9be c280 47be
00000220: 197c d8bd 3449 76bd 06e6 3fbf f248 6e3e
00000230: d99a 9b3d e599 e4be 526c 0fbe f058 d9bd
00000240: 42b2 25be abff 1b3e 8961 e73e 5712 313e
00000250: 8d04 243f f77a f9be d807 253e a907 31bc
00000260: c687 6dbe a9b0 54be 20e4 4fbf 9838 cebe
00000270: ec19 3b3e 7462 50be 9262 70be ce1e 4bbf
00000280: 2a83 533e be37 d83d bc44 323f 76e1 cfbe
00000290: 1e56 a23e 0f64 b23e ebe5 ea3e fba4 cfbe
000002a0: 9b46 16be 1d53 103e 4b85 eebc 88df 903e
000002b0: 1d6a 6d3d e001 b2be 113a b8bc ed30 953d
000002c0: 7cb0 fcbd 8b2d bcbe be15 703e 246b d23e
000002d0: f782 05bf 0f2d 813e 7a20 db3e 5b90 de3e
000002e0: d348 f33d ae15 8bbe 6f44 4c3e 0646 08be
000002f0: 76a7 81be 8726 5ebc 8859 0e3f 6bcd 59be
00000300: 7fff f7bd 2413 20be 5c19 31be cd96 a8be
00000310: 6f53 41bd 9eba 383e f532 f5bd c576 f93d
00000320: 7033 5b3d 51de b93d d2c6 143e e690 263e
00000330: 8196 debc ea16 ac3e 0bbb dabc 84a9 f13e
00000340: 4cd5 d13d 31ab c4be 769d 65bd c87c a33e
00000350: a88c 583e 1575 1c3e 65f1 9e3e 4aef 1bbd
00000360: c38b c1bc b4f9 5a3e 3813 45be efb1 d33d
00000370: 0e36 b83e 6893 a23e 9c96 063f 69a5 1bbf
00000380: ecd3 c13e e131 d9be 7a15 993e d78c 673b
00000390: c7fa ab3d dc02 033e 9675 98be dec5 dbbc
000003a0: feef 453e 900b a93e ca17 acbe 453b 673d
000003b0: fb86 a33e f8d0 113d 1a35 c5be 8b73 0dbd
000003c0: 3fc5 5bbf f6b4 0abe 3a92 073f d5d2 0bbc
000003d0: 720a 5a3c 9590 40be 14b8 d53a 104c 96bd
000003e0: 9a9a ae3e 5033 b1be a938 ce3e deb7 7d3c
000003f0: c0e1 b83e 7c48 7fbe 5320 3a3e f4cd b1be

base.mlp.fc2.0.0.bias f4 [64]
-0.1862021 -0.17954966 -0.28755808 -0.28172746 0.04067273 -0.091886856 -0.17885509 -0.219993
-0.14462472 -0.2995584 -0.0027171862 -0.07566383 -0.2858983 -0.14248139 -0.06999918 -0.2843606
-0.123557284 -0.34257618 -0.1323567 -0.43768755 0.070331715 -0.24480337 -0.100719236 -0.34051493
-0.12056013 -0.26618764 0.0044701737 -0.09241906 -0.18462953 -0.0016035703 -0.18178572 -0.062084
-0.4053749 0.12305122 -0.21845983 -0.25228423 -0.22361207 0.018147558 -0.35171658 -0.3188826
-0.13325408 -0.2798372 -0.05956508 -0.11215521 0.123429075 -0.5059792 -0.07800082 -0.20432615
-0.12083741 -0.16577853 -0.10495914 0.02684827 -0.031534877 -0.14824733 -0.09689459 -0.35743973
-0.20127515 -0.12559393 -0.23039453 -0.18129708 0.092740044 -0.27328005 -0.29094794 -0.20029567
00000000: c3ab 3ebe dedb 37be d03a 93be 953e 90be
00000010: 7398 263d 2d2f bcbd ca25 37be d845 61be
00000020: 8118 14be b85f 99be d212 32bb a3f5 9abd
00000030: 4361 92be a4e6 11be bb5b 8fbd b697 91be
00000040: 9a0b fdbd 2566 afbe 8488 07be 9518 e0be
00000050: 130a 903d bcad 7abe e345 cebd f957 aebe
00000060: 3be8 f6bd bf49 88be 897a 923b 3446 bdbd
00000070: 860f 3dbe e42e d2ba 0926 3abe cb4b 7ebd
00000080: 4d8d cfbe 4702 fc3d efb3 5fbe 662b 81be
00000090: 90fa 64be 30aa 943c 3214 b4be 9544 a3be
000000a0: c273 08be d246 8fbe 83fa 73bd a1b1 e5bd
000000b0: 62c8 fc3d da87 01bf e5be 9fbd e03a 51be
000000c0: 9b79 f7bd d9c1 29be d1f4 d6bd e7f0 db3c
000000d0: b72a 01bd 26ce 17be ac70 c6bd 5702 b7be
000000e0: 131b 4ebe b29b 00be 8bec 6bbe f1a5 39be
000000f0: 7eee bd3d 5deb 8bbe 21f7 94be 4f1a 4dbe

base.mlp.fc2.0.2.weight f4 [64]
1.7405725 1.4055272 1.667562 1.1656601 1.571754 0.95898765 1.3970172 1.016202
1.3770443 1.410043 1.3823885 1.3088306 1.8299352 1.0597243 1.5306989 0.97555256
1.0333195 1.2304676 1.1775727 1.2128513 1.1784791 0.9001048 1.3249888 1.0243514
1.6223772 1.4392748 1.5980846 1.2813777 1.2738159 1.1912417 1.1014208 1.7285353
1.4779602 1.1487333 1.1142218 1.0551587 1.2531474 1.0762318 0.8498639 0.9657232
1.134442 1.628863 1.3167613 1.2049317 1.4981714 1.2485743 1.6165917 1.6830829
1.171845 1.5104713 1.0527352 1.3714249 1.0520461 1.0792899 1.6033514 1.1291373
1.2140616 0.9591761 0.9829332 1.1664428 1.494822 1.2733765 1.2392509 1.3499666
00000000: 14cb de3f 51e8 b33f ac72 d53f 5a34 953f
00000010: 3c2f c93f 3780 753f 76d1 b23f e812 823f
00000020: fd42 b03f 4a7c b43f 1bf2 b03f c387 a73f
00000030: 513b ea3f 0ca5 873f f1ed c33f d0bd 793f
00000040: d043 843f f67f 9d3f b4ba 963f b63e 9b3f
00000050: 67d8 963f 456d 663f 3c99 a93f f21d 833f
00000060: 0eaa cf3f 283a b83f 098e cc3f 2f04 a43f
00000070: 660c a33f 9c7a 983f 5bfb 8c3f a540 dd3f
00000080: cd2d bd3f b109 933f d29e 8e3f 710f 873f
00000090: 2267 a03f f7c1 893f ae90 593f a339 773f
000000a0: 6535 913f 957e d03f a28b a83f 343b 9a3f
000000b0: 15c4 bf3f 48d1 9f3f 7aec ce3f 436f d73f
000000c0: 04ff 953f 2057 c13f 07c0 863f da8a af3f
000000d0: 72a9 863f 2c26 8a3f 9e3a cd3f 9287 903f
000000e0: 5f66 9b3f 918c 753f 83a1 7b3f ff4d 953f
000000f0: 5456 bf3f 00fe a23f c69f 9e3f b5cb ac3f

base.mlp.fc2.0.2.bias f4 [64]
0.03077245 -0.14102374 -0.14279684 -0.06040596 -0.08551256 0.039952505 -0.005875177 0.15878528
0.10698355 -0.029589925 0.12788163 -0.16283965 0.034463614 0.13361594 0.07213701 -0.03093073
0.020327374 -0.06648207 0.087857716 0.13811202 0.022790784 0.09008608 -0.005876943 0.16815563
-0.031778574 0.0066321623 0.0338116 -0.07820065 -0.089721024 0.019734621 0.18702112 0.017334158
0.17466241 -0.023551453 0.18444106 -0.1538349 0.0803231 0.13089228 -0.041220717 0.0049220817
-0.06603006 -0.006719015 0.14364757 0.10993026 -0.06160577 0.1150959 0.026637444 0.053360946
0.10077799 -0.023583287 -0.07569626 -0.21959156 -0.03422546 0.10899093 0.050032206 -0.04621771
-0.18412839 -0.05969252 -0.07773423 -0.07209638 0.16421324 -0.012052792 0.055862598 0.20840825
00000000: 8116 fc3c 8768 10be 5639 12be 3d6c 77bd
00000010: 3621 afbd 3da5 233d 8f84 c0bb 9c98 223e
00000020: 311a db3d 9266 f2bc 67f3 023e 70bf 26be
00000030: b829 0d3d 9ed2 083e 92bc 933d 7162 fdbc
00000040: 9885 a63c c027 88bd bfee b33d 3d6d 0d3e
00000050: bdb3 ba3c 0d7f b83d 5f93 c0bb fd30 2c3e
00000060: 402a 02bd 9c52 d93b 087e 0a3d aa27 a0bd
00000070: a8bf b7bd 80aa a13c 7782 3f3e 5d00 8e3c
00000080: b4da 323e faee c0bc 1ede 3c3e e586 1dbe
00000090: 7080 a43d a008 063e 0ed7 28bd 6a49 a13b
000000a0: c53a 87bd 2f2b dcbb 5918 133e 1e23 e13d
000000b0: 5556 7cbd 66b7 eb3d c536 da3c 0291 5a3d
000000c0: b164 ce3d bd31 c1bc a406 9bbd 9cdc 60be
000000d0: ff2f 0cbd a336 df3d 92ee 4c3d c84e 3dbd
000000e0: 278c 3cbe 2580 74bd 2033 9fbd 44a7 93bd
000000f0: 8427 283e 1379 45bc 2ed0 643d f968 553e

act.action_out.linear.weight f4 [5, 64]
-0.4188781 -0.62386405 -0.63781947 -0.15443195 0.21112956 0.26917958 -0.074681535 0.23360252
0.20103283 0.20765756 0.33897722 0.061896473 -0.49097824 0.23294722 0.49966592 0.06088354
0.05742636 -0.28788018 0.049074043 -0.33222634 0.24411495 0.06153014 -0.13085662 0.18683879
-0.07684392 -0.037742123 0.12200748 -0.34964618 0.21205324 0.19206 0.32718426 -0.65977615
0.48249704 0.32923305 0.1510558 -0.3196611 -0.4384625 0.13970478 -0.020676255 0.1300901
-0.13688938 0.07302546 0.331101 0.4312246 0.30411252 0.31044576 -0.16895446 -0.36681268
-0.29296538 -0.15447591 -0.21164325 -0.69486886 0.16825983 0.16563386 0.25644344 -0.43557683
-0.42011842 -0.14945997 -0.03428755 -0.23209496 0.40578508 0.03968945 -0.08522091 0.053271126
-0.069181494 0.07269034 -0.29573452 0.227748 -0.79227376 0.06066128 -0.0717651 -0.08602752
0.28528225 0.33867174 0.17361242 -0.33161092 0.7062612 0.026759932 0.20415106 -0.31881195
0.27328867 -0.03830548 0.3566412 0.08791873 0.022837957 0.02287138 -0.46537963 0.025228
0.58331263 0.46095622 -0.792051 -0.35880727 -0.34607443 0.12882203 -0.15329036 0.089411475
-0.3907366 -0.060718674 -0.37940592 -0.15888917 0.42395204 0.16249096 -0.032532763 -0.20099628
0.3438494 -0.56942886 0.07610998 -0.28050593 0.2836066 -0.43375322 -0.29962683 0.16163304
0.10994907 0.13105793 0.14150135 0.07430294 -0.19300179 0.24821132 -0.19959971 0.22549732
0.03658586 0.12518401 0.15273511 0.21900713 0.16433337 -0.47069862 -0.10824542 0.42941752
-0.4243456 0.3028894 0.047817457 0.035627093 0.27699995 0.056337073 0.59676015 0.123219185
0.28144747 -0.2228483 -0.67622393 -0.013340062 -0.53024685 -0.27461624 -0.63374585 -0.1021992
0.15846105 -0.25867864 -0.21620385 0.08887793 -0.36896896 0.07633396 -0.13099141 -0.15479696
-0.3640307 -0.49452993 0.37898085 0.33799112 0.42166066 -0.22350283 0.029380264 0.14430666
-0.28881738 -0.42596605 0.031669036 0.3390115 -0.008896338 0.10994467 0.17697084 -0.09192426
-0.01851431 -0.30583635 -0.34690714 -0.19310026 -0.6244246 0.040369105 0.6650417 0.62021047
0.21370682 0.2368153 0.22007799 0.19045827 0.27025956 -0.29450336 0.47936723 0.054860193
-0.13439277 0.035971783 -0.29830256 -0.37592566 -0.59118694 0.22214574 0.42516038 0.28710836
0.07470436 -0.16060379 0.7272282 -0.2752835 0.35215852 -0.09605725 -0.4807238 -0.335965
-0.37380114 -0.47788996 0.089907035 -0.13950348 0.04968634 0.2618362 -0.14743574 0.119362555
-0.104733914 0.4169599 0.14126498 0.4189231 -0.04194989 0.14161223 0.20586464 -0.2792551
-0.47157183 0.08271286 0.13241987 0.100214355 -0.17191444 0.28521284 -0.08219697 0.5834203
0.19690506 0.113802426 0.4795458 0.25735208 0.28664622 0.0294243 0.08443855 0.17556272
-0.20104001 0.077606894 0.1149984 0.15751132 -0.17155232 0.00040894977 0.025923148 -0.43729293
0.14871918 -0.6640006 -0.055481393 0.1352935 0.06800403 -0.2289254 -0.111896046 0.17482476
0.16743734 -0.20198569 -0.059588 0.22424655 0.20892662 0.37173697 -0.09249289 -0.47050864
00000000: 3177 d6be 8eb5 1fbf 2348 23bf 6923 1ebe
00000010: 5932 583e e8d1 893e a2f2 98bd 8035 6f3e
00000020: 8ddb 4d3e 2fa4 543e 6c8e ad3e 2887 7d3d
00000030: 8061 fbbe b789 6e3e 36d4 ff3e 0561 793d
00000040: e737 6b3d 0865 93be dd01 493d 9219 aabe
00000050: 45f9 793e 0707 7c3d 47ff 05be ab52 3f3e
00000060: 5860 9dbd 7c97 1abd 0fdf f93d d304 b3be
00000070: 7c24 593e 60ab 443e b284 a73e 17e7 28bf
00000080: da09 f73e 3c91 a83e 5fae 1a3e 9faa a3be
00000090: 287e e0be c50e 0f3e 4061 a9bc 5736 053e
000000a0: bb2c 0cbe 5f8e 953d 1286 a93e 79c9 dc3e
000000b0: a3b4 9b3e bff2 9e3e 6602 2dbe dfce bbbe
000000c0: 8fff 95be ef2e 1ebe 02b9 58be ede2 31bf
000000d0: 4e4c 2c3e ec9b 293e 8e4c 833e ed03 dfbe
000000e0: c319 d7be 090c 19be 1a71 0cbd 4daa 6dbe
000000f0: 10c3 cf3e 6891 223d 4d88 aebd d332 5a3d
00000100: 07af 8dbd acde 943d 846a 97be c636 693e
00000110: 74d2 4abf f677 783d 95f9 92bd 322f b0bd
00000120: 8410 923e 6266 ad3e 74c7 313e e8c8 a9be
00000130: 89cd 343f a537 db3c fa0c 513e 523b a3be
00000140: 7eec 8b3e 35e6 1cbd ad99 b63e bc0e b43d
00000150: ab16 bb3c c35c bb3c 3d46 eebe f3aa ce3c
00000160: fa53 153f 7402 ec3e dbc3 4abf 96b5 b7be
00000170: ab30 b1be ece9 033e 26f8 1cbe 5d1d b73d
00000180: a10e c8be 25b4 78bd 7e41 c2be d8b3 22be
00000190: 3e10 d93e 0864 263e 1341 05bd f8d1 4dbe
000001a0: 070d b03e 17c6 11bf 8ddf 9b3d 799e 8fbe
000001b0: e234 913e e714 debe b068 99be 2283 253e
000001c0: fa2c e13d 0d34 063e bbe5 103e 242c 983d
000001d0: 43a2 45be 1c2b 7e3e de63 4cbe c5e8 663e
000001e0: 0edb 153d 3d30 003e 9866 1c3e 6843 603e
000001f0: 0247 283e 69ff f0be c6af ddbd 9ddc db3e
00000200: d443 d9be 5214 9b3e 3ddc 433d b7ed 113d
00000210: f0d2 8d3e b4c1 663d 46c5 183f 575a fc3d
00000220: e219 903e 5832 64be 031d 2dbf 4790 5abc
00000230: 42be 07bf 809a 8cbe 2b3d 22bf d04d d1bd
00000240: 9d43 223e 8771 84be 8b64 5dbe a205 b63d
00000250: 80e9 bcbe fb54 9c3d 9d22 06be 1883 1ebe
00000260: 3b62 babe 0733 fdbe c709 c23e 2c0d ad3e
00000270: e8e3 d73e eddd 64be e1ae f03c 20c5 133e
00000280: dfdf 93be 3918 dabe 64b7 013d ea92 ad3e
00000290: f2c1 11bc ac2a e13d d837 353e c942 bcbd
000002a0: 52ab 97bc 9596 9cbe d09d b1be 13bc 45be
000002b0: 4ada 1fbf 135a 253d 2c40 2a3f 1dc6 1e3f
000002c0: f6d5 5a3e b67f 723e 205c 613e 7e07 433e
000002d0: 765f 8a3e 25c9 96be 9f6f f53e 15b5 603d
000002e0: 429e 09be 2657 133d 1dbb 98be 5479 c0be
000002f0: 0758 17bf 2c7a 633e 9fae d93e deff 923e
00000300: 99fe 983d 5275 24be a12b 3a3f f5f1 8cbe
00000310: 1f4e b43e aab9 c4bd 6e21 f6be 9b03 acbe
00000320: dd62 bfbe fead f4be 2e21 b83d 00da 0ebe
00000330: e783 4b3d 650f 863e 65f9 16be 5b74 f43d
00000340: bc7e d6bd c57b d53e c4a7 103e 177d d63e
00000350: a6d3 2bbd cc02 113e 2ece 523e 86fa 8ebe
00000360: dd71 f1be 5c65 a93d 1399 073e 2f3d cd3d
00000370: 570a 30be 6b07 923e e356 a8bd 085b 153f
00000380: 7ba1 493e 3f11 e93d 0787 f53e a7c3 833e
00000390: 4bc3 923e 3b0b f13c 1eee ac3d b7c6 333e
000003a0: 6fdd 4dbe 5df0 9e3d 4884 eb3d a64a 213e
000003b0: 69ab 2fbe 4f68 d639 c85c d43c dce4 dfbe
000003c0: d749 183e f1fb 29bf 7540 63bd 618a 0a3e
000003d0: b245 8b3d 6c6b 6abe c129 e5bd 4305 333e
000003e0: b274 2b3e 56d5 4ebe 8c12 74bd e3a0 653e
000003f0: dcf0 553e 4f54 be3e ea6c bdbd 82e6 f0be

act.action_out.linear.bias f4 [5]
0.080588005 0.030698683 0.013447879 0.060081273 -0.13139874
00000000: 530b a53d ce7b fb3c 7e54 5c3c c817 763d
00000010: 648d 06be
