light_mappo-main/results/MyEnv/MyEnv/mappo/check/run1/models/critic.pt (torch, 47669 bytes, 15 tensors)

base.feature_norm.weight f4 [28]
00000000: 0deb 463f d929 403f f0da 0e3f 012c 583f
00000010: e9d4 4b3f 2fb8 523f 8e16 303f 58c1 303f
00000020: 25b0 4d3f 548e 473f 7277 4e3f 61f1 743f
00000030: 1cf3 113f 0244 593f 78e2 603f 92a6 753f
00000040: ad55 693f 6ff2 643f a7c5 5b3f f234 6d3f
00000050: feb5 743f 98e0 863f 7b3e 513f ce88 593f
00000060: d2c4 003f fb66 7d3f a322 613f 99ed 883f
0.7770241 0.75063854 0.5580282 0.84442145 0.7962175 0.8231229 0.68784416 0.6904502
0.803469 0.7795155 0.8065101 0.95680815 0.5701158 0.84869397 0.87845564 0.9595729
0.91146356 0.89432424 0.8584847 0.92658913 0.955902 1.053729 0.8173596 0.8497437
0.50300324 0.9898526 0.87943476 1.0697509

base.feature_norm.bias f4 [28]
00000000: 6890 b3bf a4e6 b4bd 15c8 81be 5714 653e
00000010: 6ee0 97be 02fa a2bd 5642 afbe 13f4 69be
00000020: 064f 82be ab54 c4be 58f7 a2be fed3 723e
00000030: a831 1abf 0132 a2bd 8d00 a63d 4ca5 c03d
00000040: 3837 3c3e 3428 51bc f925 a6be cd82 adbe
00000050: 8694 3c3e 765c 923c 7f89 9dbe 42e4 c83d
00000060: 0fa2 a13e 64a5 7cbe b803 5fbd a0bf e2be
-1.4028444 -0.08833054 -0.25347963 0.2237104 -0.29663414 -0.079578415 -0.34230298 -0.22847013
-0.25450915 -0.38345847 -0.31829333 0.23713681 -0.6023202 -0.07919694 0.08105574 0.09406528
0.1838044 -0.012765933 -0.32450846 -0.33888856 0.18416032 0.017866354 -0.30768964 0.09809162
0.31568953 -0.24672467 -0.054446906 -0.44286823

base.mlp.fc1.0.weight f4 [64, 28]
00000000: 599d 003e 0926 f33c c995 063e f830 003d
00000010: e330 003d 4f17 09bb 470d 28bd 3f4a 2b3d
00000020: cc10 783d 94cc d53d 3259 8c3a a834 573e
00000030: 5654 b03d d330 383d 3d12 023e cabf 3c3e
00000040: 4ea5 e7bc 6c16 d13b 5500 d03d 0317 d7bc
00000050: 22d6 b9bc a68f f93d 26b0 5cbe 4471 b93d
00000060: 87c8 aabb c8c1 ec3d c931 19bb a8ae f63c
00000070: 6128 b93e c1f3 d03d 0fb7 843d 9284 36be
00000080: b956 cf3e 6eb6 123d c901 ce3e 47aa a93e
00000090: 376d f83d b765 3ebe 0423 23be 9311 6ebe
000000a0: 0824 8b3b 8e1b 83bb be74 2f3d b260 3dbe
000000b0: f6a3 4dbe 961e 0cbd 24c7 babe ac36 7b3d
000000c0: 380b c3be 5714 d4bd 0af5 30be 242e a13e
000000d0: a46f 16bc 3f43 de3c 8fe3 d6bd bb2e 92be
000000e0: b6ba 113e 6526 713d f690 863d 34ea 3b3c
000000f0: 1994 8fbc 02ef 1f3d 15b7 ba3d a62e 03bd
00000100: 9333 ef3c d55a 4e3d fb8a 6c3c 003a 06bd
00000110: 4a4e 393e a72b 173e b9ea 123c 8739 0f3e
00000120: c9de 773d d4f0 e63d d50f d73d 9b9f 913c
00000130: 7ef7 103d f31b 083d bfc6 a6bd aac8 3a3d
00000140: 68b9 ad3d 24d7 b03d 8632 b83d d91e a23a
00000150: fe38 8a3e 371f 063e 740d 32bd ba64 c6be
00000160: 69c6 6dbd 54cf 663e ef6e 33be 449d 853c
00000170: f7d4 3bbe 6bf5 51be 3a71 283d 809e 2dbd
00000180: 84b5 6bbe f2a0 0d3e d916 49bc e710 853d
00000190: 2fa1 ba3d 1271 a93b eb3a 6a3e f5aa 3b3e
000001a0: 0a56 d0b9 dae7 3fbd d8e3 0f3e 61a5 2cb9
000001b0: 7ab5 2a3e bb79 2a3d 3da6 513d e321 973e
000001c0: e742 a7be 2d7e 143d 3754 31be ad5f 00bb
000001d0: 7300 ec3d 8e89 a7be 4b7d 853e 47d5 e8be
000001e0: b09f cb3d d13b 463e 2797 4e3e 0a48 a0bd
000001f0: ff7b b6be 73a7 01bd ba8e bf3b c0b8 923e
00000200: 516b 8bbe 0bdb b33d 505d 03bd 9b9c b4bd
00000210: 9db3 6bbe e83a 62be aac7 ffbd 50bd c1be
00000220: 7384 7a3e ff07 0cbe 4d30 98be 9e9a ba3d
00000230: c310 ebbc fde5 c8bd 16df abbd 471a 1d3e
00000240: 540b 7a3d 52b5 b5bd 5908 173e a3cb 8fbd
00000250: d850 eb3e 607b 60be 63b6 853d c591 19bc
00000260: 8e67 0d3d 70b3 67be 2ce5 5fbe 87d5 bf3d
00000270: 072a 80be 5124 b6be 4623 47be aa04 05be
00000280: 340d 093f 9d99 29bd 3be5 763d 0836 2f3e
00000290: 9ecd dfbd f013 a9be f4d4 c9bc 78f5 233c
000002a0: 9db5 5dbe b178 8e3e 1167 2bbe 393d 1f3e
000002b0: fb6f 18bd 2005 0abc 7dc4 2abd 807e 59be
000002c0: 2201 3a3e 15f9 993d 8654 bfbd 225b aabd
000002d0: 6f08 24bd 1d65 9fbd 70b6 123e 8e5f e1be
000002e0: 13aa a53d 8e13 aebd eb22 70bb 5891 033e
000002f0: 49b3 66be cfc7 0abe fc7b fdbd 1f4c c0be
00000300: f01f 703e 1f79 043e 8166 51be ef2b 3abe
00000310: dac3 033f 8d38 efbd c01f 73bd cdd8 393e
00000320: eefc 46be 7ad4 d03b 0ac9 7abd 286c efbd
00000330: 6030 c83d 2cf3 78bd 477c 9e3b 5e8e 37bd
00000340: b5df e33e 6123 003e d11f 04be 6a06 c03d
00000350: 6c43 01be 1c06 35be ff74 f7bd 23c8 1c3e
00000360: 0f5a d9bd c37b 8c3d d6b3 e53d 7250 11bd
00000370: 7102 873d 601f d13e 308e 023c 3233 9f3d
00000380: 8cca cbbe f4b6 e23e fbd5 b4bd e51e 9d3e
00000390: 3e37 ac3d 0edf acbd 932f 07be 0deb b03a
000003a0: bf2f 03bf 1248 57be d098 dfba a7d6 9a3e
000003b0: 32a6 263e 5a42 72bd 36a3 053d 17f4 0cbe
000003c0: f614 bdbe c27d 2f3e c9eb 57be d107 5c3e
000003d0: da26 95be b953 3dbe f351 e8be 0fee 153e
000003e0: 8806 d2be 194f cb3d f2d9 213d 324f 8e3e
000003f0: 22e7 15bf 582f e33e 5bd2 a63d 3572 9c3e
0.12560023 0.029681223 0.13143076 0.0312967 0.031296622 -0.0020918434 -0.041028287 0.041818853
0.060562894 0.10439411 0.0010707735 0.2101618 0.08609836 0.044968437 0.1270227 0.18432537
-0.028277066 0.0063808467 0.10156313 -0.02625609 -0.022685114 0.12185602 -0.2155157 0.09054807
-0.005211893 0.11560398 -0.0023375622 0.03011258 0.3616362 0.10202742 0.06480228 -0.17824009
0.40495852 0.03581851 0.40235737 0.33137724 0.12130206 -0.18593489 -0.15931326 -0.23248892
0.0042462386 -0.0040010875 0.042835943 -0.18493918 -0.20082077 -0.034208857 -0.36480057 0.061331436
-0.38094497 -0.10355442 -0.17280975 0.31480515 -0.009181891 0.027131675 -0.10492622 -0.28551278
0.14231381 0.058874507 0.06570618 0.011469413 -0.017526673 0.039046295 0.091169514 -0.03202691
0.029199397 0.050379593 0.014437432 -0.032770157 0.18096271 0.14762746 0.008967095 0.13986789
0.0605152 0.11276403 0.105010666 0.017776301 0.035392277 0.03322978 -0.081433766 0.045601524
0.08482629 0.08634785 0.089940116 0.0012368812 0.26996607 0.13097845 -0.04346986 -0.38748723
-0.058050547 0.22540027 -0.17522787 0.016310342 -0.18342958 -0.20503776 0.041123606 -0.042387486
-0.23018461 0.13830927 -0.012273514 0.064973645 0.091127746 0.0051709497 0.22874038 0.18326934
-0.00039736956 -0.04685197 0.14051759 -0.00016464807 0.1667079 0.041619997 0.051183928 0.2951804
-0.3266823 0.036253143 -0.17317282 -0.0019588277 0.11523523 -0.32722133 0.26072153 -0.45475218
0.09942567 0.19358756 0.20174848 -0.0782624 -0.35641477 -0.031653833 0.0058458718 0.28656578
-0.27230313 0.087820135 -0.03207141 -0.088189326 -0.23017736 -0.22092783 -0.12489255 -0.37839746
0.24464588 -0.13674925 -0.2972435 0.09111522 -0.028694516 -0.09809492 -0.0839216 0.15342055
0.06104596 -0.08872475 0.14749278 -0.070212625 0.45960116 -0.21922064 0.06528928 -0.009373133
0.034522586 -0.22627044 -0.21864766 0.09366899 -0.25032064 -0.35574582 -0.1944705 -0.1299006
0.5353577 -0.041406263 0.060277205 0.17110455 -0.1092789 -0.33023024 -0.024637677 0.010007255
-0.21651311 0.27826455 -0.16738535 0.15550698 -0.037216168 -0.008424073 -0.041691292 -0.21239662
0.18164495 0.07518212 -0.093422934 -0.083181635 -0.040047105 -0.07782958 0.14327407 -0.44018215
0.0808908 -0.084998235 -0.0036641906 0.12848413 -0.2252933 -0.13552783 -0.12377164 -0.37558076
0.23449683 0.12936829 -0.20449258 -0.18180822 0.5147072 -0.11680708 -0.05935645 0.18149109
-0.19432423 0.0063729854 -0.061226882 -0.11690551 0.09774852 -0.06077878 0.0048365924 -0.044813506
0.44506612 0.12513496 -0.12902762 0.093762234 -0.12623376 -0.17678112 -0.12082862 0.15310721
-0.106128804 0.06859543 0.112159416 -0.03547711 0.065922625 0.4084425 0.00796847 0.077734366
-0.39802969 0.44280207 -0.08829876 0.30687633 0.08408974 -0.08440982 -0.13201742 0.0013497785
-0.5124473 -0.21023586 -0.0017059091 0.30241892 0.16274336 -0.05914531 0.032626353 -0.13764988
-0.36930054 0.17137817 -0.21086039 0.21487357 -0.29131204 -0.18488969 -0.45375022 0.14641593
-0.41020608 0.09927196 0.03951449 0.27794796 -0.58555806 0.44372058 0.08145591 0.30555883

base.mlp.fc1.0.bias f4 [64]
00000000: 00e9 b0be a768 8fbd aa97 8abe 5399 a4bd
00000010: 5586 523b c776 eb3d 789a ff3d fc6c 16be
00000020: 3a95 4e3e 1085 e33e 88c6 a5be 604e 66be
00000030: 5de4 7cbe a72e 7ebc 8252 a1be 680f b6bd
00000040: 6a11 923d ecda 843e 4b9e 173e bef3 69be
00000050: e264 723e f875 73be da08 2d3f b79a e0bc
00000060: 0319 d8be cca6 77bd f350 09be fb2e aabe
00000070: 95bd 073f 2082 19be c52b 72bd a3c6 38bd
00000080: 5d99 44be ce28 1a3e 03f0 45be 5c68 383f
00000090: 7715 423e fcd4 bebd 882e 26bd 6b52 d43e
000000a0: f301 97bd 2806 c53e e4a0 e7bd ffea 9f3d
000000b0: e8f3 84bd 59ee ed3c 35e0 3f3e f368 ec3e
000000c0: 4222 35be f653 28be 97be 4cbd 472f 6fbe
000000d0: 4636 a6be 7216 253f 5b44 813e 4857 0d3e
000000e0: 451d 893e 98e6 55be 9614 773d 0384 39be
000000f0: a541 3ebd 802e 983d c73f fd3e 38ba 553d
-0.34552765 -0.07002383 -0.27068835 -0.08037057 0.0032123525 0.11497264 0.124806345 -0.14690012
0.20174113 0.44437456 -0.3237803 -0.22490835 -0.24696489 -0.0155140525 -0.3150826 -0.08889657
0.07132228 0.25948274 0.14806478 -0.22846887 0.23671296 -0.2377547 0.6759163 -0.027417524
-0.42206582 -0.060461804 -0.13409786 -0.33238968 0.53023654 -0.14991045 -0.059123773 -0.04511131
-0.19199128 0.15054628 -0.19329838 0.7203424 0.189535 -0.09317967 -0.04057172 0.4146913
-0.07373419 0.3848126 -0.11309984 0.07808494 -0.06491834 0.029044317 0.18737872 0.4617382
-0.1768885 -0.16438279 -0.04998645 -0.23357879 -0.32463282 0.64487374 0.25247464 0.13802826
0.26780143 -0.20888746 0.060322367 -0.18116765 -0.046449322 0.07430744 0.4946272 0.052179545

base.mlp.fc1.2.weight f4 [64]
00000000: e3c6 903f f69e 4e3f 931f e03f d836 823f
00000010: ac5e 593f ffe8 423f b55f 413f 6950 7d3f
00000020: 0654 513f f5cc 723f e516 9e3f 4ab2 833f
00000030: 373d b73f 7fc7 433f 1336 933f 0cac 4e3f
00000040: 9850 3e3f 9cba 2d3f 3ebd 3d3f fc22 963f
00000050: 5912 453f 9a4e 863f 73f5 943f cb6b 103f
00000060: a9c7 bd3f 8c99 3f3f 9ff6 833f c26b ab3f
00000070: b3d5 603f 1d22 633f 1a07 873f 7d3e 4e3f
00000080: 4730 833f ce14 2c3f 40a8 9e3f 4aa1 8d3f
00000090: 0ff4 443f a3cd 763f 02c6 283f 2cec 7d3f
000000a0: 09e1 4c3f b050 843f 38b5 823f 5a42 493f
000000b0: 84fa 713f 0b3b 4e3f 72ef 303f e686 4c3f
000000c0: 272b 7c3f a359 8c3f 5804 573f ba40 853f
000000d0: 06fe b33f 54ff 783f fe7c 703f de87 403f
000000e0: d4ae 403f 7dd1 913f 56b3 3b3f 362d 743f
000000f0: a1e4 2c3f 49c8 533f 4f5e 623f f663 3a3f
1.1310695 0.80711305 1.7509636 1.0172987 0.8491008 0.76136774 0.7553666 0.9895082
0.81768835 0.9484399 1.2350737 1.0288785 1.4315556 0.7647628 1.1500877 0.8073127
0.74341726 0.6786287 0.74116886 1.1729426 0.7698112 1.0492737 1.1637405 0.5641448
1.4826556 0.7484367 1.0309638 1.339226 0.8782608 0.8872393 1.0549042 0.805641
1.0249108 0.67219245 1.2395096 1.1064847 0.76934904 0.96407527 0.65927136 0.99188495
0.80030876 1.0337124 1.0211554 0.7861687 0.9452288 0.8055884 0.69115365 0.7989334
0.98503345 1.0964855 0.83991003 1.0410378 1.4061897 0.972646 0.9394072 0.75207317
0.75266767 1.1392056 0.7332052 0.95381486 0.6753636 0.82727486 0.88425153 0.7280878

base.mlp.fc1.2.bias f4 [64]
00000000: de65 cabe c684 41bd ecc7 6abf 32b0 36be
00000010: bfa7 2e3d 2667 fd3d 6c8a c33d 35ca 0fbe
00000020: c659 2e3e ca8c df3e 1c01 16bf 6044 3ebe
00000030: 751b 12bf 8e2c e33b 79ab b2be 9a9f 7bbd
00000040: a1f6 133e 8e78 9b3e 3a93 8c3e 4735 b0be
00000050: 79cb 2d3e e875 18be 446c fd3e c2ae 703d
00000060: 2372 7dbf 3018 b43c 87c5 21be 8e39 f9be
00000070: e49f 0a3f b742 623b d3b5 f8bd beaf b8bd
00000080: 5b0a 5fbe 2f6c 4f3e 05b7 74be 7e8d 423f
00000090: 357e 253e 4ab5 25be 3af7 693d 7e19 b63e
000000a0: e298 f5bd a367 a93e eec1 28be 555a ab3d
000000b0: 47e0 0cbd 4779 1a3d e93c a53e 63f9 b83e
000000c0: f35a 60be c5c1 53be 7fc9 78bc 1f96 3fbe
000000d0: 02d5 1cbf 9d5f 103f 60b2 693e 2b25 213e
000000e0: ee6f 8b3e 3292 b5be 5a35 d43d 8ca2 4ebe
000000f0: cdeb cfbc 38f5 993d 96b4 033f 8642 a13c
-0.39530843 -0.047245763 -0.91711307 -0.1784065 0.042640444 0.1237319 0.09547886 -0.1404198
0.17026433 0.436621 -0.5859544 -0.1858077 -0.57073146 0.0069328016 -0.34896448 -0.061431505
0.1444955 0.30365413 0.27456075 -0.34415647 0.1697215 -0.14888728 0.49496663 0.058760412
-0.99002284 0.02198419 -0.15798007 -0.48676723 0.54150224 0.0034524628 -0.12144055 -0.09017895
-0.21781294 0.20256113 -0.23897941 0.7599715 0.16161425 -0.16182438 0.05712054 0.35566324
-0.11992051 0.3308688 -0.16480228 0.08366839 -0.034393575 0.037713315 0.32273033 0.36127767
-0.21909694 -0.20679386 -0.015184759 -0.1870961 -0.61262524 0.56395894 0.22821951 0.15736835
0.27233833 -0.354631 0.103617385 -0.20179194 -0.025380993 0.07517475 0.5144743 0.019685041

base.mlp.fc_h.0.weight f4 [64, 64]
00000000: e94d 033d 1918 003c f144 863d 94ed d43e
00000010: 3e5a 843d 5305 c3be 7aa9 e93d 803e b33d
00000020: f5d0 543d 7242 9d3d 0cd0 013e 7c32 5cbe
00000030: 4457 8a3d 4ae5 583e 2aa2 903e 7889 a9be
00000040: 074d 5abe d674 a93c ee20 75bd 5f8b a23d
00000050: 68ea 52bd 553b 863e 5fb3 a1bd 8e90 e3be
00000060: e6b4 533e ed13 8ebe bf51 1d3e 1eea 68be
00000070: 8cd2 bc3e 0f87 e33c 539d 2dbe 981c 9fbd
00000080: 50c8 cdbd b711 dfbd 8a8e 8f3e 7d56 dbbd
00000090: 8a03 833d 1d93 fa3c d6a0 d13d 7377 883b
000000a0: 398c 94bd c12a 93bd ac5f 833d 3fab babc
000000b0: ffcb e8bd 6497 443e a103 073d 794f 8d3d
000000c0: 74dd 2dbe 7150 dbbd f621 d33c c496 703b
000000d0: a929 163e 898d 913e c47a 7a3e 7f2c 33be
000000e0: 7fec 98bd f9ad ce3a 8449 2dbd 01f8 c0bd
000000f0: b80b f83b 3e14 c2bd d68b dc3e c4e7 20bd
00000100: b15e 46be e4d4 973d d473 8b3e 893e 7cbe
00000110: 894e 9abc 89bd 9dbe ffa2 86be 90de 7bbe
00000120: ffb2 ab3c e6f3 b23d 4864 973e 136d e6bd
00000130: 8f38 99bd 4ad5 a1be 5a73 c73d 2c70 f53d
00000140: 5636 f13d 1b7d 933e d81f 443e 9eba 99bb
00000150: ae80 a93e 2c3a d4bb 78db e7bc 86f9 dabd
00000160: 1ad4 9dbe 0401 f4bd fe36 ab3c 5355 d73c
00000170: b606 823d da74 05bc 8bfd 1abe b785 a0be
00000180: 6f21 a43d 14d2 283e 912c ba3d 2cee 723e
00000190: 9f5a 4cbe ebd0 f5bc cbe8 d0bd 15fb 683e
000001a0: 259a 72bd 708f 8abe f72d 78bc ec54 d8bc
000001b0: 4a7e 8ebe 4ffc 453d f60f a43d 29a3 a63e
000001c0: b667 1f3e c9ad 27be a4e3 093d 3818 51bd
000001d0: da3a a7ba 5337 00be eeef a13e de43 f73d
000001e0: 0c12 25be c9bc 003d 749f 7a3c 7720 54be
000001f0: f119 a5be 2c78 d23d 5221 2abe 0203 a3bc
00000200: 6ac3 0dbd 8e99 bdbb b7a6 1ebd 352a f43d
00000210: 7ad8 db3d b657 53bd 885c a9be 5915 61be
00000220: e5e0 853d e69e 013f c118 8bbc 1979 003d
00000230: 8a5a 3cbe 7b88 55be 0932 c0bd a3b5 5f3e
00000240: d27d 81bd f1cb 323e 70bb c7bd 99bd 92be
00000250: 0b51 863d 2ae7 143e ac15 0fbe f14d 493e
00000260: 03ce 3e3e 3d97 05bd b036 0b3e 8039 70be
00000270: f8ee 233e 2526 5b3e 53cb f13d aecc 1dbe
00000280: 2b1a 3bbe 9244 88be 845f bcbc 72eb 90be
00000290: 6cf3 343e 9774 1c3e 643b e3bc fc4f 85bd
000002a0: d53d 61be f1c6 333e 499a fd3d bbd9 3a3e
000002b0: c9ff 293e fbb9 47be 53c1 c03b 034b 873c
000002c0: 5ae6 82be 27eb 9e3d 7366 9abe 1d92 58be
000002d0: f349 4abe 4526 87be f1fc fdbd beab 91be
000002e0: 041d 2c3d a981 5d3e c537 883d eef1 83bc
000002f0: 297c 92be 3a73 02bd 2553 7ebc 635e c3bc
00000300: 7a22 4e3d 8626 bf3e e81b fe3c 2589 8d3e
00000310: 9369 47bc 2d83 793e ddfc b4be 6d5c e0bd
00000320: ef0b 193d 2a37 28be 1b5f 1d3d 83be 9cbe
00000330: 60a2 073d 01af 8d3e e688 97bd 0fba 653e
00000340: e495 823e 9280 333e 9d12 fe3d 702e 893e
00000350: ab1d 143e df70 c3be 3268 30bc b8fe 2abe
00000360: 4ab3 86bd 17cb 60be c8c5 743d de07 4a3b
00000370: 2fcb a2bd 63aa 683c cbf4 093e e7b0 9a3d
00000380: 60bd 8bbd 4c61 11be 24ad 00bd e850 c5be
00000390: 1bca dfbd 7d29 8fbc 772c b5bd 5b95 07be
000003a0: d8ed a43c cd89 3f3e 6447 0d3e 4925 d43e
000003b0: 3385 fe3d 2e6a dd3d bd90 edbd dbff 2cbe
000003c0: d653 89bd 49c5 a4be 5e48 9b3d b9bf 8b3d
000003d0: 6d92 12be 1dda 6a3e e79b e53d 6b83 ff3d
000003e0: 294b 0abe f6e7 2dbe 1cfc b03d 25db 66be
000003f0: 0d69 de3c 8254 953c 0d27 1ebe 10f9 9d3d
0.032056723 0.007818245 0.06556118 0.41587508 0.06462525 -0.3809 0.11409278 0.08752155
0.05195709 0.07678689 0.1267702 -0.21503633 0.06754926 0.21181217 0.2824872 -0.33112693
-0.21318446 0.020685595 -0.059845857 0.07936739 -0.05149308 0.26217142 -0.078955404 -0.44446224
0.20674476 -0.27749577 0.15363215 -0.22745559 0.36879385 0.027774362 -0.16954546 -0.07769126
-0.10047972 -0.10892051 0.28038436 -0.10709856 0.063971594 0.030587727 0.10235755 0.00416463
-0.07253308 -0.07185889 0.06414732 -0.022786735 -0.11367034 0.19198376 0.032962445 0.06899924
-0.16979009 -0.10708702 0.02577303 0.0036710957 0.1466433 0.28428295 0.24460894 -0.17497443
-0.07466983 0.0015768401 -0.042306438 -0.09422303 0.0075697564 -0.09476517 0.43075436 -0.03928353
-0.1937206 0.074136525 0.27236807 -0.2463323 -0.018836277 -0.30808666 -0.2629623 -0.2459662
0.020959375 0.08737926 0.29568696 -0.11251273 -0.07481491 -0.3160804 0.097387984 0.11984286
0.11777942 0.28806385 0.19152772 -0.004691436 0.33105987 -0.006476661 -0.028302893 -0.10692124
-0.30825883 -0.11914256 0.020900246 0.026285803 0.06348936 -0.008145535 -0.15135781 -0.31352016
0.080141895 0.16486388 0.090905316 0.23723668 -0.19956444 -0.030006846 -0.10200652 0.2275203
-0.059229035 -0.2706256 -0.015147678 -0.026407681 -0.27830726 0.048336323 0.08010857 0.32546356
0.15566906 -0.16374888 0.03366436 -0.051048487 -0.0012758628 -0.12521105 0.31628364 0.120734915
-0.16120166 0.03143004 0.015296806 -0.2071551 -0.32246354 0.10276827 -0.16614273 -0.019898895
-0.03461019 -0.0057861274 -0.03873321 0.11922113 0.10734649 -0.05159732 -0.33078408 -0.219808
0.06537036 0.50633085 -0.016979577 0.031365488 -0.18393913 -0.20852844 -0.093845434 0.21846633
-0.063228264 0.1746061 -0.09752548 -0.28660277 0.065584265 0.14541307 -0.13973111 0.19658639
0.18633275 -0.032614935 0.1359508 -0.23459435 0.16009128 0.2140127 0.11806359 -0.1541011
-0.18271701 -0.26614815 -0.022994764 -0.2830463 0.17670983 0.1527885 -0.02773828 -0.065093964
-0.21996243 0.17556359 0.12382943 0.1824712 0.1660148 -0.1950454 0.005882421 0.01651526
-0.2556637 0.077596955 -0.30156288 -0.21149488 -0.19754772 -0.26396385 -0.1240176 -0.2845134
0.04201986 0.21631493 0.06651262 -0.016106572 -0.28610352 -0.03184817 -0.015522753 -0.023848718
0.05032585 0.3733408 0.031019166 0.27643695 -0.012171167 0.24366446 -0.3534917 -0.10955129
0.037364896 -0.16427293 0.038420778 -0.306141 0.033113837 0.2767258 -0.07399158 0.22434257
0.25504982 0.17529514 0.12405894 0.26793242 0.14464442 -0.3817205 -0.01076703 -0.1669873
-0.065771654 -0.21952473 0.05975893 0.0030827443 -0.079489104 0.01420078 0.13472287 0.07553273
-0.0682323 -0.14197272 -0.03141512 -0.3853829 -0.109272204 -0.017475838 -0.088463716 -0.13240568
0.020132944 0.1870491 0.13796765 0.41434696 0.124277495 0.10811268 -0.11599872 -0.16894476
-0.067054436 -0.32181767 0.07582162 0.068236776 -0.1431367 0.22934766 0.11211377 0.12476238
-0.13505234 -0.16983017 0.08641836 -0.22544535 0.027149701 0.018228773 -0.15444584 0.077135205

base.mlp.fc_h.0.bias f4 [64]
00000000: 0000 0000 0000 0000 0000 0000 0000 0000
00000010: 0000 0000 0000 0000 0000 0000 0000 0000
00000020: 0000 0000 0000 0000 0000 0000 0000 0000
00000030: 0000 0000 0000 0000 0000 0000 0000 0000
00000040: 0000 0000 0000 0000 0000 0000 0000 0000
00000050: 0000 0000 0000 0000 0000 0000 0000 0000
00000060: 0000 0000 0000 0000 0000 0000 0000 0000
00000070: 0000 0000 0000 0000 0000 0000 0000 0000
00000080: 0000 0000 0000 0000 0000 0000 0000 0000
00000090: 0000 0000 0000 0000 0000 0000 0000 0000
000000a0: 0000 0000 0000 0000 0000 0000 0000 0000
000000b0: 0000 0000 0000 0000 0000 0000 0000 0000
000000c0: 0000 0000 0000 0000 0000 0000 0000 0000
000000d0: 0000 0000 0000 0000 0000 0000 0000 0000
000000e0: 0000 0000 0000 0000 0000 0000 0000 0000
000000f0: 0000 0000 0000 0000 0000 0000 0000 0000
0.0 0.0 0.0 0.0 0.0 0.0 0.0 0.0
0.0 0.0 0.0 0.0 0.0 0.0 0.0 0.0
0.0 0.0 0.0 0.0 0.0 0.0 0.0 0.0
0.0 0.0 0.0 0.0 0.0 0.0 0.0 0.0
0.0 0.0 0.0 0.0 0.0 0.0 0.0 0.0
0.0 0.0 0.0 0.0 0.0 0.0 0.0 0.0
0.0 0.0 0.0 0.0 0.0 0.0 0.0 0.0
0.0 0.0 0.0 0.0 0.0 0.0 0.0 0.0

base.mlp.fc_h.2.weight f4 [64]
00000000: 0000 803f 0000 803f 0000 803f 0000 803f
00000010: 0000 803f 0000 803f 0000 803f 0000 803f
00000020: 0000 803f 0000 803f 0000 803f 0000 803f
00000030: 0000 803f 0000 803f 0000 803f 0000 803f
00000040: 0000 803f 0000 803f 0000 803f 0000 803f
00000050: 0000 803f 0000 803f 0000 803f 0000 803f
00000060: 0000 803f 0000 803f 0000 803f 0000 803f
00000070: 0000 803f 0000 803f 0000 803f 0000 803f
00000080: 0000 803f 0000 803f 0000 803f 0000 803f
00000090: 0000 803f 0000 803f 0000 803f 0000 803f
000000a0: 0000 803f 0000 803f 0000 803f 0000 803f
000000b0: 0000 803f 0000 803f 0000 803f 0000 803f
000000c0: 0000 803f 0000 803f 0000 803f 0000 803f
000000d0: 0000 803f 0000 803f 0000 803f 0000 803f
000000e0: 0000 803f 0000 803f 0000 803f 0000 803f
000000f0: 0000 803f 0000 803f 0000 803f 0000 803f
1.0 1.0 1.0 1.0 1.0 1.0 1.0 1.0
1.0 1.0 1.0 1.0 1.0 1.0 1.0 1.0
1.0 1.0 1.0 1.0 1.0 1.0 1.0 1.0
1.0 1.0 1.0 1.0 1.0 1.0 1.0 1.0
1.0 1.0 1.0 1.0 1.0 1.0 1.0 1.0
1.0 1.0 1.0 1.0 1.0 1.0 1.0 1.0
1.0 1.0 1.0 1.0 1.0 1.0 1.0 1.0
1.0 1.0 1.0 1.0 1.0 1.0 1.0 1.0

base.mlp.fc_h.2.bias f4 [64]
00000000: 0000 0000 0000 0000 0000 0000 0000 0000
00000010: 0000 0000 0000 0000 0000 0000 0000 0000
00000020: 0000 0000 0000 0000 0000 0000 0000 0000
00000030: 0000 0000 0000 0000 0000 0000 0000 0000
00000040: 0000 0000 0000 0000 0000 0000 0000 0000
00000050: 0000 0000 0000 0000 0000 0000 0000 0000
00000060: 0000 0000 0000 0000 0000 0000 0000 0000
00000070: 0000 0000 0000 0000 0000 0000 0000 0000
00000080: 0000 0000 0000 0000 0000 0000 0000 0000
00000090: 0000 0000 0000 0000 0000 0000 0000 0000
000000a0: 0000 0000 0000 0000 0000 0000 0000 0000
000000b0: 0000 0000 0000 0000 0000 0000 0000 0000
000000c0: 0000 0000 0000 0000 0000 0000 0000 0000
000000d0: 0000 0000 0000 0000 0000 0000 0000 0000
000000e0: 0000 0000 0000 0000 0000 0000 0000 0000
000000f0: 0000 0000 0000 0000 0000 0000 0000 0000
0.0 0.0 0.0 0.0 0.0 0.0 0.0 0.0
0.0 0.0 0.0 0.0 0.0 0.0 0.0 0.0
0.0 0.0 0.0 0.0 0.0 0.0 0.0 0.0
0.0 0.0 0.0 0.0 0.0 0.0 0.0 0.0
0.0 0.0 0.0 0.0 0.0 0.0 0.0 0.0
0.0 0.0 0.0 0.0 0.0 0.0 0.0 0.0
0.0 0.0 0.0 0.0 0.0 0.0 0.0 0.0
0.0 0.0 0.0 0.0 0.0 0.0 0.0 0.0

base.mlp.fc2.0.0.weight f4 [64, 64]
00000000: 7362 dd3d 1333 72bd c86f df3d 29cf 0b3f
00000010: da6b ee3c 5203 dabe f698 093d da15 573d
00000020: 0472 90bd d360 0b3d b9c9 173e bef4 2bbe
00000030: f24b 4d3e 6736 993e 71ee 803e ae18 a3be
00000040: 0ecf 98be 50bd 07bb 8a8d 34bd 7582 603e
00000050: 1960 eabd 775f 913e 5953 34be ff77 c9be
00000060: 9c44 c43e 21d2 5cbe 8950 133e 82f5 04be
00000070: b057 b43e 77c6 a9bc 52a7 57bd ff64 9b3c
00000080: 25a7 a5bb 81c9 92bd 5e09 9c3e 5f54 98be
00000090: a024 90bd 6f09 923d 84e8 983e 8f0f febd
000000a0: 304c 60bd 7568 283d 340b 5d3c f90f 90bc
000000b0: 2dce c9bd 7e94 313e dc05 48bd 6878 103e
000000c0: f569 fbbd c356 19be 6fc6 463c 6685 893a
000000d0: 51ea 803e 5e36 0a3e a809 923e ec85 98be
000000e0: 2883 6bbe 9de0 d23d 6ea0 77bd 73d1 e7bd
000000f0: 9a49 23bd 4bdd 5ebd c24b ce3e c580 a13c
00000100: 4026 87bd af7b e7bb f8a8 003f 914e a1bd
00000110: 8a42 45be 1baf dcbe 4385 85be e839 5ebe
00000120: 9efe 2ebd 74ec b9bd 1e40 c83e 45e8 92bc
00000130: dc9f 8ebc 62ec 89be 8e6c a83d 21e5 893d
00000140: 98ef 713d c5a8 b13d e181 363e f494 6f3d
00000150: 6a9a 283e 0489 b73d 7fb3 4cbe dd53 7f3d
00000160: c113 51be a198 7ebc bd92 da3d 88ec 3f3e
00000170: e2fa fdbc 79a2 663d 1f4e 57bd 5fb3 91be
00000180: cc38 0a3e 1419 d03a 1e8b 433e 8872 d93d
00000190: 3a40 03be c9e2 823c 6174 9ebd b4ea df3d
000001a0: 0c21 103e 2e5e 8dbe 6c6a bb3d 62c9 48bd
000001b0: 1a70 3abe 8793 a83d 51e5 b5bc 8126 903e
000001c0: c633 7a3e b4fb b7bd 9b01 9e3d 95a6 be3c
000001d0: 2235 ec3c 9d20 4ebe b2d7 863e 69fc f33d
000001e0: 5b6c 86be cba0 073e e304 013e 8b7b bfbd
000001f0: 6653 9bbe 83ab 933e 5cdb 6bbe f08b b0bd
00000200: 1ea5 8f3d eee5 293c 14f5 e33d bb92 593e
00000210: bb8d b33d 38e4 babd 9f5b b5be 7083 21be
00000220: 0fec 8b3c ef78 a13e 7d7f 643d 6d77 df3d
00000230: 6eb6 c0bd 9eb0 33be 7dc2 0abd edef 683e
00000240: a48a 3cbd 45b9 d33d 7b3e 54be eb53 26be
00000250: a673 17bd 66b8 213e ef76 93be 1b8f 713e
00000260: c722 b73e ec72 4bbd e427 a03d b96d 0dbe
00000270: bb7d a43c 746e 773e f984 893e 3997 89bd
00000280: 7938 9abd 54cd 3dbe 7e6e 973d 4a79 00bf
00000290: 7c50 093d 1851 8a3e 0332 75bd abcd 3cbe
000002a0: c69b 29be 1efe 963d eca1 e53d 86ca 223e
000002b0: b22c 1c3e 849b 0dbe a181 84bd d785 27bd
000002c0: 12e0 11be 6bae 183e 37e1 9ebe e4d2 29be
000002d0: cb6f 8bbd 7f47 e4be c2c2 f2bd ce37 98be
000002e0: 460b 4e3c 32ab c63e 22ce 9ebd fb09 8a3d
000002f0: 3de1 96be 1294 8dbd 4c78 75bd 5a12 5ebd
00000300: 6cd4 133e 9f8f ce3e 49dd 1f3e bbf4 9f3e
00000310: 61b8 503c 9496 4e3e 34c3 b7be 35df e1bd
00000320: 6465 c1bc c67d 5ebe 04ea 083e f990 87be
00000330: fbc3 e43d 150a aa3e 9a8a c5bc 1a38 943e
00000340: c014 ac3e 36e7 293e bfd8 583e d612 9e3e
00000350: 3aba 15bc fcac b9be a370 a4bd 31fb 65be
00000360: 13c3 2b3e be8b 6bbe e6ff 823c 6c8e e23d
00000370: fae3 37be a811 5bbb 414f 1c3e b020 1c3e
00000380: c825 2cbb 3d07 25be 1f91 773c c6d8 e7be
00000390: dd6d 4abe f643 fd3d dc74 55bd 1415 75be
000003a0: 7cdd 333d 43f7 0a3d 7d31 f73d fac6 b63e
000003b0: affa 0c3e 4a74 ae3d 58b7 fcbd 47d1 31be
000003c0: af64 2a3d 2a2c 72be f926 d43c 3a41 d73d
000003d0: 26cb 88bd 8694 9c3d 5f5d 633d 53d7 613d
000003e0: ebb6 54be d5ba 13be d9d6 023d a67c 4cbe
000003f0: 02b7 55bc e27c c53c 9d83 6bbe 5804 a13d
0.10809793 -0.05913074 0.109099925 0.54612976 0.029104162 -0.42580658 0.03359314 0.052511074
-0.07052997 0.034027886 0.14823045 -0.1679258 0.20048502 0.29924318 0.25181916 -0.31854767
-0.2984547 -0.0020712204 -0.044080295 0.21924765 -0.114441104 0.28393146 -0.1760992 -0.39349362
0.38333595 -0.21564533 0.1438619 -0.12984279 0.3522315 -0.020724518 -0.052649803 0.018969057
-0.0050553256 -0.0716734 0.30475897 -0.2975187 -0.07038236 0.071307056 0.29864895 -0.12405311
-0.054760158 0.041115243 0.013491441 -0.017585741 -0.09853778 0.17341802 -0.048833713 0.14108431
-0.12276069 -0.14974503 0.012132271 0.0010492026 0.2517877 0.13497302 0.28522992 -0.29789674
-0.22999251 0.10296748 -0.060455732 -0.11319246 -0.039865114 -0.05441026 0.40292174 0.019714722
-0.065990925 -0.007064305 0.50257826 -0.078763135 -0.19263664 -0.43102345 -0.26078233 -0.21701777
-0.04272329 -0.09078303 0.39111418 -0.01793302 -0.017410211 -0.26938158 0.0822383 0.06733156
0.059066385 0.08674768 0.17822982 0.058491662 0.16465154 0.089616805 -0.19990347 0.062335838
-0.20417692 -0.015539319 0.10672519 0.18742573 -0.03100342 0.05630729 -0.052564736 -0.28457162
0.13498229 0.0015876614 0.19096038 0.10617548 -0.12817469 0.01597728 -0.07737041 0.10933438
0.14075106 -0.27610916 0.09151158 -0.04902018 -0.18206826 0.082312636 -0.022204073 0.28154376
0.24433812 -0.089835554 0.0771515 0.023272792 0.02883393 -0.20129628 0.26336437 0.11913378
-0.26254544 0.13244931 0.1259952 -0.09349736 -0.30337065 0.2884179 -0.23032898 -0.08620441
0.070139155 0.010369761 0.11130729 0.2124738 0.08767267 -0.091255605 -0.35421464 -0.15772796
0.017080335 0.31537578 0.055785645 0.109114505 -0.09409796 -0.17547843 -0.033876885 0.22747774
-0.046030656 0.10338072 -0.2072696 -0.1624295 -0.036975525 0.15792999 -0.28801677 0.23589747
0.3576872 -0.049670145 0.078201085 -0.13811387 0.020079484 0.24163228 0.26859263 -0.067182966
-0.075303026 -0.18535358 0.073941216 -0.5018507 0.03352402 0.27014995 -0.059862148 -0.18437831
-0.16563329 0.07372688 0.11212525 0.15897569 0.15251425 -0.13828856 -0.06470037 -0.040899124
-0.14245632 0.14910285 -0.310312 -0.16584355 -0.06808432 -0.44585797 -0.11853553 -0.29730076
0.01257593 0.38802487 -0.077541605 0.06740185 -0.29468718 -0.06913008 -0.059929177 -0.05421672
0.14436501 0.4034395 0.15611757 0.31241402 0.012739272 0.20174628 -0.35891116 -0.110289015
-0.023607917 -0.21727666 0.1337052 -0.26477793 0.11170193 0.33210817 -0.024113942 0.28949052
0.3360958 0.16592106 0.21176432 0.30873746 -0.009138638 -0.3626479 -0.08029296 -0.22459103
0.16773634 -0.23002526 0.015991163 0.11062321 -0.1795806 -0.0033427272 0.15264608 0.15246844
-0.0026267637 -0.16116042 0.015110283 -0.45282573 -0.19768472 0.12366478 -0.0521134 -0.23933822
0.043912396 0.033927213 0.12069986 0.35698682 0.13767503 0.08518274 -0.123396575 -0.17364989
0.041599926 -0.2364966 0.02589749 0.10510488 -0.066793725 0.07645516 0.055508967 0.05513699
-0.20772903 -0.1442674 0.031943176 -0.19969425 -0.013044121 0.0241074 -0.22999425 0.07862157

base.mlp.fc2.0.0.bias f4 [64]
00000000: b4b6 44bd 823f e7bd 186e 89bd 4654 c1bc
00000010: d17c 1dbd be01 9dbd 712b 873d b14e 93bc
00000020: f55c 8dbd 9902 cdbd 40c8 6ebd 910b 9bbd
00000030: d18c 2abd e469 293c 652b b6bc fab3 86bd
00000040: b985 24bd f4ba d1bd 2f6a a3bd 7462 2ebd
00000050: ae6f 24bd 37cb 9bbd a31b cfbd 5554 9bbd
00000060: c9e6 9ebd e19f e2bc ae6b d9bc e502 94bd
00000070: f3c3 723b cb9e bebc 1bec b9bc b142 c9bd
00000080: 9229 96bc d4ed 34bd 1e29 85bd 07a0 86bd
00000090: b313 0ebd a5d1 223e 8f79 af3c a4af 98bd
000000a0: 1255 44bd 9999 9cbb 27fd 8cbd e3db a83a
000000b0: 47b8 67bd 9afb 25bd 33ce bc3f 73e7 68bd
000000c0: ea68 febb d7d9 0ebd 41b0 babd f053 f1bc
000000d0: 18b9 b8bd f4b1 73bd 0e05 adbd 1b84 a8bd
000000e0: 65fd 84bd c9e2 b6bc 1600 633c 1b30 b03c
000000f0: 8981 2ebd 8036 0cbd 6da7 1cbd 30e3 27bd
-0.0480258 -0.1129141 -0.06710452 -0.023599755 -0.038449112 -0.07666348 0.06600083 -0.017981859
-0.06902496 -0.10010261 -0.058296442 -0.075705655 -0.0416382 0.010340188 -0.022237489 -0.065772966
-0.04016659 -0.102407366 -0.07979237 -0.04257436 -0.04014557 -0.076071195 -0.10112693 -0.075844444
-0.077588625 -0.027664127 -0.026540603 -0.072271146 0.0037043064 -0.023269078 -0.022695592 -0.098271735
-0.01833037 -0.044172123 -0.06501983 -0.065734915 -0.034686755 0.15900286 0.021420268 -0.07455376
-0.047932692 -0.0047790525 -0.068842225 0.0012882914 -0.056572225 -0.04052315 1.4750427 -0.056861352
-0.0077639716 -0.034875717 -0.09115649 -0.02945897 -0.09019679 -0.05949588 -0.0844823 -0.08228322
-0.06493644 -0.022324936 0.013855001 0.021507313 -0.042604003 -0.034231663 -0.038245607 -0.040988147

base.mlp.fc2.0.2.weight f4 [64]
00000000: 9159 b63e 2957 b63e fba4 063f 6d57 103f
00000010: 6dd1 973e 13a7 1e3f 505a d23e eb21 2f3f
00000020: 5f80 193f 15d6 fe3e 638d 323f 6914 173f
00000030: 05ce 253f eb5f 9e3e cf0d 1b3f aef3 303f
00000040: 1591 203f 74be 133f 4ccb 013f ffa3 193f
00000050: e506 123f c29e f03e 7c76 d43e 7094 093f
00000060: 6b54 163f 46ea 133f f4fa f63e dd65 013f
00000070: d1bf 9a3e 6415 503f b1db 053f 1027 163f
00000080: 3774 0f3f f383 213f 16ea b93e 5a02 123f
00000090: 04f8 213f da94 563e 1b21 043f c209 203f
000000a0: 2c13 2a3f e0cb fa3e 7db3 203f 0f32 d23e
000000b0: 4f84 233f c443 0b3f 97df 893d ea68 fc3e
000000c0: 3ddf 473d 28e5 0c3f b504 ed3e f038 ea3e
000000d0: 2322 2b3f 3320 203f ddd8 ff3e ad8b 173f
000000e0: 72d6 fd3e 1811 f03e 2cc2 b83e a26b 9d3d
000000f0: 9f00 233f 5169 123f b4f0 173f 5f8a e83e
0.3561521 0.35613373 0.5259549 0.563834 0.29651967 0.61973685 0.41084528 0.6841113
0.59961504 0.49772707 0.6974699 0.5901552 0.64767486 0.30932555 0.60567945 0.69121826
0.6272138 0.57712483 0.5070083 0.60015863 0.5704177 0.46996123 0.41496646 0.5374212
0.5872256 0.5777935 0.48238337 0.50546056 0.3022447 0.8128264 0.5228835 0.58653355
0.56036705 0.63091964 0.36311406 0.5703484 0.63269067 0.2095522 0.51613015 0.6251489
0.66435504 0.4898367 0.6277388 0.41053817 0.6387376 0.5440028 0.067320995 0.49298793
0.04879688 0.55037165 0.46292654 0.45746565 0.66848963 0.6254913 0.4997014 0.59197503
0.4957767 0.46888041 0.3608564 0.07686545 0.6367282 0.5719195 0.5935166 0.4541807

base.mlp.fc2.0.2.bias f4 [64]
00000000: 86d0 473d 6235 443d d5d2 933d acb9 9b3d
00000010: fb11 123d 0b2f ac3d 9ac7 c13d dc1f c33d
00000020: 84f8 a83d 833c 8c3d 394e c43d 207b a53d
00000030: 5410 b63d 2ff3 8b3d 092f aa3d d453 c13d
00000040: fa21 ae3d 81e3 a13d 045f 8b3d 5a76 a73d
00000050: 1854 9f3d 3ed4 863d 383a 623d 823d 8f3d
00000060: 3890 a43d 727d a13d 11d8 863d 79af 8d3d
00000070: e6be 293d 0c9e e43d 429f 923d e5ce a23d
00000080: 79f7 973d 5af1 b03d acea 483d 073c a33d
00000090: 968b b13d 6a24 91bd 321f 913d a413 963d
000000a0: 186d ba3d 17a5 a53d 9c90 af3d db6a bf3d
000000b0: 937a b33d e3fe 983d a0b7 12bf 8046 8a3d
000000c0: 6a98 de3b 7f6d 9a3d 2d8b 803d 32f6 7b3d
000000d0: ae22 bc3d 6678 af3d 074d 8c3d 2182 b53d
000000e0: e539 8b3d 4aeb 843d 2a6c 433d 51f5 0d3c
000000f0: 8703 b33d bb6c a03d 8e3c a73d d9b4 843d
0.048782848 0.047902472 0.072179474 0.076037735 0.03566168 0.0840741 0.09461899 0.09527561
0.082505256 0.06847479 0.09585232 0.08080125 0.08889833 0.06833493 0.083097525 0.09439817
0.08502574 0.07904721 0.06805232 0.08176871 0.077797115 0.06583451 0.055231303 0.069941536
0.0803532 0.07885255 0.0658418 0.069182344 0.04144182 0.111629575 0.07159282 0.07949618
0.074202485 0.08639784 0.049051926 0.07970434 0.08669202 -0.070870236 0.07086028 0.07327965
0.09102839 0.08088129 0.08572504 0.09346553 0.087636136 0.07470491 -0.5731144 0.06751728
0.0067930715 0.07540416 0.06276546 0.061514087 0.09186302 0.08567886 0.06850629 0.08862711
0.06798152 0.0649019 0.047710575 0.008664445 0.08740907 0.07833239 0.08165847 0.064798065

v_out.weight f4 [1, 64]
00000000: ce6b dd39 c11d 7e3a af18 273a 6817 a03a
00000010: 1969 c53b c98d 66ba 40d8 053d d8c2 f63b
00000020: 0250 d139 3cdf 593a 0557 6c3a 62fc 093a
00000030: 197b 423a b8ed bebc 7c02 283a 9fb8 ef3a
00000040: 2aeb 573a 61a1 093a fa15 b43a 2949 093a
00000050: 1728 f739 3cba ea3a 87ee d03a d4fe 833b
00000060: 7954 f839 ffb4 e039 7eb2 b939 49f8 e439
00000070: bc79 a839 4776 8b3a dc49 e739 6a73 793a
00000080: 6726 203b d4c4 103a 8866 273a 3153 313b
00000090: a6cd 473a 0a15 13bb 34fc db36 453c 473c
000000a0: a4a8 233a 43e6 2d3c dc75 3c3a 49d4 d9bc
000000b0: 8664 383a b6e2 2d3a 2364 9a3b 6367 ea39
000000c0: 006c 1f3a 6586 083a 0577 3a3a 8313 a13a
000000d0: d2ce 3f3a 6235 183a 84fe 073a da85 b5bb
000000e0: d618 73ba bb76 a53a 42eb ae3a 88a1 ef3a
000000f0: 3595 3d3a ca35 133a 2171 113a 81bb 1a3b
0.00042232726 0.0009693765 0.00063742226 0.0012214007 0.0060244915 -0.00087949313 0.032676935 0.0075305514
0.00039923197 0.00083111576 0.00090156525 0.0005263743 0.00074188557 -0.023306713 0.00064090616 0.0018289274
0.00082366413 0.00052501826 0.001373946 0.0005237037 0.0004714138 0.0017908285 0.0015940227 0.0040281806
0.00047365183 0.00042859462 0.00035418937 0.00043672536 0.00032134156 0.0010640108 0.00044114783 0.0009515794
0.0024436952 0.0005522494 0.0006385823 0.0027057643 0.00076218916 -0.002244296 6.556069e-06 0.0121603655
0.0006243086 0.010613981 0.0007189193 -0.026590483 0.0007034022 0.0006633209 0.0047116443 0.00044708987
0.0006081462 0.00052080146 0.0007113072 0.001228914 0.00073168904 0.00058062945 0.0005187767 -0.005539638
-0.0009273415 0.0012623885 0.0013345259 0.0018282393 0.00072320114 0.000561562 0.00055481686 0.0023610296
