light_mappo-main/results/MyEnv/MyEnv/mappo/check/run66/models/actor.pt (torch, 41717 bytes, 16 tensors)

base.feature_norm.weight f4 [4]
000000 47 d7 81 3f 3a c3 82 3f 28 fa 79 3f f0 5f 7d 3f
       1.0143822 1.0215828 0.97647333 0.98974514

base.feature_norm.bias f4 [4]
000000 74 ba cd 3c de 25 00 3d 51 81 3d 3c 6e b1 d4 bb
       0.025113322 0.031286113 0.011566476 -0.006490878

base.mlp.fc1.0.weight f4 [64, 4]
000000 86 a1 00 3e 1b 91 33 be 13 84 b7 3c dd 41 c8 bd
       0.12561616 -0.17535822 0.022401845 -0.097781874
000010 c2 d3 87 3e e7 09 ce 3d b3 e1 12 be 66 06 39 be
       0.26528746 0.100604825 -0.1434391 -0.18068847
000020 31 9b 27 3e bc 89 06 3e a1 81 6a be 83 dd 15 be
       0.16367795 0.13138479 -0.22901012 -0.14635281
000030 09 10 10 be a0 1e 26 3e a4 cd 47 bc f3 73 58 3e
       -0.14068617 0.1622262 -0.012195025 0.21137981
000040 b3 db d0 bd 3f de 11 be e0 45 97 bd 5c d8 23 bd
       -0.10198154 -0.14244936 -0.073863745 -0.04000126
000050 01 d4 f8 3d 70 bb 06 3c 9b 17 01 3d 7a fa ca be
       0.121498115 0.0082233995 0.031516653 -0.39644223
000060 c3 f2 e0 3c 14 e7 c4 3d 9f 03 80 3e 19 97 87 3e
       0.027459508 0.09614387 0.25002763 0.26482466
000070 1e 22 8d 3d b0 64 e7 3d 73 67 ef bd 20 c5 a4 be
       0.06891273 0.112985015 -0.11689653 -0.32181644
000080 95 ca 40 3d 3e 40 33 3e 5f 9a e2 3d 38 26 96 be
       0.047068197 0.17504975 0.110646 -0.29326034
000090 65 52 a1 bd aa 07 b4 be 31 65 99 3e 6b 25 51 bd
       -0.07877044 -0.35162097 0.29960015 -0.051061075
0000a0 6b 6a e4 3d 57 22 09 3b 44 5c a8 be 35 43 10 3e
       0.1115311 0.002092501 -0.32882893 0.14088137
0000b0 18 dc f3 be 94 6d 03 bd 73 a0 ab 3d 7e 05 55 3e
       -0.47628856 -0.032086924 0.08380213 0.20802876
0000c0 87 41 e7 bd 20 6d 40 3e 84 dd 04 3d 32 98 63 be
       -0.11291795 0.18791628 0.032437816 -0.22226027
0000d0 44 c5 61 be 68 40 3e 3e 45 61 55 3e b2 0c a4 bd
       -0.22047907 0.18579257 0.20837887 -0.08010234
0000e0 76 d0 76 3e fe 24 c2 bd 6d 76 b0 bc 6c 93 fb bd
       0.24102959 -0.09479712 -0.021540845 -0.12283978
0000f0 f0 6e 07 3e b7 98 82 3d 72 38 57 be 40 7b 21 3e
       0.13225913 0.06376784 -0.21017626 0.15769672
000100 08 17 9a bd 63 1e 37 bd cc a4 8e 3e e2 70 64 be
       -0.07523924 -0.044706713 0.27860105 -0.22308686
000110 82 04 0e 3e e8 9a 10 be 66 da 8b 3e f1 08 af 3d
       0.13868907 -0.14121592 0.27315062 0.08546627
000120 b7 05 c2 bd 28 a0 c4 3e 46 03 eb bc 5f 05 25 3d
       -0.09473746 0.3840344 -0.028688084 0.040288325
000130 9d 3c 03 be c9 e2 ec bd bc 6d 86 bd 2b 2e b2 be
       -0.12816091 -0.11566693 -0.06563899 -0.34800848
000140 5c eb 48 3d a0 37 9b be ee 07 28 be 13 60 56 bd
       0.04905258 -0.30315876 -0.16409275 -0.052337717
000150 7c 25 94 bd b0 a4 2b 3d a0 d1 ae bd bc 4e af 3b
       -0.07233712 0.041905105 -0.085360765 0.005349962
000160 c9 69 df bd 48 93 66 3e a7 39 d4 3d be f2 36 bd
       -0.10908849 0.22517121 0.10362559 -0.04466509
000170 f3 fc 57 be d6 60 c0 3d 8a d8 24 be 69 1d 65 bd
       -0.21092586 0.0939347 -0.16098228 -0.05593625
000180 ed 25 f7 bd 97 05 47 3d 53 ca 4a bd aa a5 19 3e
       -0.12067781 0.048589315 -0.049509358 0.15004602
000190 81 d8 9e bd 60 83 ec be dc 12 5e be 3e 44 94 bd
       -0.077561386 -0.4619398 -0.21686882 -0.07239579
0001a0 41 47 aa bb b2 fb ed be 3f 6d 07 3e d7 eb 37 3d
       -0.0051964824 -0.4648109 0.13225268 0.04490265
0001b0 6e 80 31 bd 72 b2 0b 3e d3 e9 bc 3d 33 28 cc 3e
       -0.04333537 0.1364229 0.09224286 0.3987442
0001c0 2d 3f 3a 3e fc 5f 76 3e b3 11 87 3e 42 82 24 3d
       0.18188162 0.24060053 0.2638069 0.040163286
0001d0 0d cf 9a be 81 91 73 bb 6c 37 4a 3d 77 34 17 3e
       -0.30236092 -0.0037165585 0.04936926 0.14766107
0001e0 39 14 08 3e 28 1f 18 bd 9f 19 b3 3c 49 25 bd bd
       0.13288964 -0.037139088 0.021862803 -0.09235627
0001f0 cd 52 a1 bd 46 0e 81 be 59 f6 c7 3e 48 03 95 be
       -0.07877121 -0.25206202 0.39055136 -0.29104066
000200 50 ab 15 bd 0b c3 8f 3d 92 c5 25 3d 02 ce b8 3d
       -0.03654033 0.07019623 0.04047162 0.09023668
000210 60 86 d9 bd fc de 62 3e 67 8c bd 3e 97 8d ea bd
       -0.10621333 0.22155374 0.3702118 -0.11452787
000220 c4 1c 02 3e b9 e4 1a 3d a7 44 92 be 4d cb 7b 3e
       0.12706286 0.037815783 -0.28568003 0.24589272
000230 0d a8 24 bf a3 bd 02 3e 46 df de be 1d fe 3f be
       -0.64318925 0.12767653 -0.4352972 -0.1874928
000240 96 6c 46 3e 6d 53 88 3e 24 2a 9f 3d 65 fb 1e 3e
       0.1937736 0.2662615 0.077717096 0.15525587
000250 c4 50 75 3e fd c2 9b bd 22 dd 9a bd b1 e8 13 3d
       0.23956591 -0.076055504 -0.07561709 0.036110584
000260 80 dd f9 bc d4 5b 08 be da 4e 42 bd 36 2b d7 bd
       -0.030501127 -0.1331628 -0.04743848 -0.10506289
000270 17 ad e2 3c 30 ef e3 bd d9 75 2c be 1c 07 90 3d
       0.027670426 -0.11129606 -0.1684183 0.07032606
000280 2f c7 54 bd 4e a7 a1 bb 4f f9 f9 bd 9b a1 f8 bd
       -0.05194777 -0.0049332744 -0.12205755 -0.12140199
000290 f3 ca 11 3e 51 35 02 3e 86 87 da bd 45 c7 93 bd
       0.14237575 0.12715651 -0.1067038 -0.07215742
0002a0 50 45 a5 be b2 08 14 be bc 56 4e be 68 a0 6a 3e
       -0.32279444 -0.14456442 -0.20150274 0.22912753
0002b0 52 a5 c3 be 71 4f 69 3d 53 43 c8 bc ae 3d cf be
       -0.38212067 0.056960527 -0.024446165 -0.40476745
0002c0 00 3e 91 be 2f 70 87 3c 8b be 23 bc 63 34 7d 3e
       -0.28367615 0.016532985 -0.009994159 0.24727015
0002d0 2f 30 02 3d d1 e5 7f bd 2f 11 10 3d 6e 65 d0 bd
       0.031784233 -0.06247503 0.035172638 -0.10175596
0002e0 92 c4 5c 3e 5f 1b 07 3e 10 23 cc 3d 96 44 ba 3d
       0.2155936 0.13194035 0.09967625 0.09095113
0002f0 3a d0 b2 bd c4 d7 ae 3d 26 3b a1 3d bc 44 84 bd
       -0.08731122 0.08537248 0.0787261 -0.064584225
000300 88 b3 0a 3e aa 4c 77 3e f5 a1 8d bd b0 e3 f6 bc
       0.13545048 0.24150339 -0.069156565 -0.030137867
000310 50 86 43 bc 28 51 e1 3d 26 e2 86 bd a7 9f 4e be
       -0.011933878 0.110018075 -0.06586103 -0.2017809
000320 30 b2 ad 3c 18 ef 85 3e c2 52 ba be 36 50 08 bc
       0.02120313 0.26158977 -0.36391264 -0.008319905
000330 df 8a bd 3d 58 f7 92 3d e2 68 14 be 74 51 5a bd
       0.09255003 0.07176083 -0.14493135 -0.053300336
000340 fe c5 85 3d fe d5 0f be a2 c8 16 3e 69 3c 51 3e
       0.06531905 -0.14046475 0.14724973 0.20433201
000350 bb 50 79 3d 37 ac 75 3e 12 75 ec bc 32 53 14 bd
       0.060868006 0.23991476 -0.028864417 -0.036212154
000360 bd c3 de bd c9 b6 a1 bc 7c a3 69 3e 68 95 c7 bd
       -0.10877178 -0.019740479 0.2281627 -0.09745294
000370 51 c7 a3 be 92 3d 5a 3e 5e 7a 3a 3e 44 b6 20 3e
       -0.31988004 0.2131255 0.18210742 0.15694529
000380 4a 28 8c 3d 1b 3f 85 3e 62 2a 72 bc fc 56 c8 be
       0.06843622 0.26024708 -0.014780613 -0.39128864
000390 ca bc 05 3e 10 ea c1 bd 7e c5 a3 3d 1c 06 64 3d
       0.13060299 -0.09468472 0.07996653 0.05566989
0003a0 fa 14 02 be 6b 7d 6c 3e 63 f3 8e 3d bb 25 e5 bd
       -0.12703314 0.23094718 0.06980016 -0.11188837
0003b0 16 4d c7 bd f6 68 ac 3e 60 a2 48 3e 86 dd 35 3e
       -0.097315 0.3367383 0.19593191 0.17760286
0003c0 0c 48 2c be fb fc 10 be ac 30 18 3e 9a 47 5a bd
       -0.16824359 -0.14159004 0.14862317 -0.05329094
0003d0 5b e4 6b 3e fd 00 1e 3e 97 86 ba bd 31 28 d6 bd
       0.2303633 0.15430064 -0.09107702 -0.10456885
0003e0 85 7a 10 be 3c 79 05 3d 29 19 18 be fd 49 88 3d
       -0.14109237 0.03258632 -0.14853348 0.06654737
0003f0 e7 03 2b 3e 5b 37 23 3e 52 66 9c 3d 3d 0a a5 3d
       0.16700707 0.15939085 0.076367036 0.080585934

base.mlp.fc1.0.bias f4 [64]
000000 d4 98 11 3c 91 83 a6 ba 08 d7 07 3c 60 d7 d2 bc
       0.008886535 -0.0012704005 0.008291014 -0.025737464
000010 61 84 0f bd b7 c9 82 bc cb 54 06 3d fc c9 ec 3c
       -0.035038356 -0.015965326 0.03279571 0.028904907
000020 85 60 db 3b 90 b9 64 bd 18 29 af bb a3 1e 28 bd
       0.0066948556 -0.05584103 -0.005345475 -0.041044842
000030 45 e8 1d 3a 01 f4 7a 3c 15 cc 5f bc 73 5c aa 3b
       0.00060236856 0.015316964 -0.013659497 0.005199009
000040 7a ad b9 bc 8f 3a 26 bc 85 42 96 3c c5 56 3e bc
       -0.022665728 -0.010145797 0.018342266 -0.011617367
000050 1c ca 90 bc b8 31 d9 3b 1f c4 97 bc 2c b4 e3 3c
       -0.017674498 0.0066282414 -0.018526135 0.027795874
000060 ed 3a 2d bc a7 a1 15 bc b3 5d 4c 3c cd 7a 0d 3b
       -0.010573131 -0.009132779 0.0124735115 0.0021588088
000070 20 6d 06 bd f1 ed 61 3c 90 1d d2 39 07 c3 3c bc
       -0.032818913 0.01378964 0.00040076347 -0.0115211075
000080 0a d2 1f 3d 48 25 01 3d 4a c4 8d ba 81 86 ea bb
       0.03901867 0.031529695 -0.0010815945 -0.0071571474
000090 9d 44 e3 3b 96 48 fa bb 7f 89 30 bc 1a 96 8c bc
       0.0069356696 -0.0076380474 -0.010774969 -0.017161418
0000a0 98 c0 17 3c e5 a9 c5 3b 83 6a d4 3a 54 88 72 bc
       0.0092622265 0.006032216 0.0016206059 -0.014803011
0000b0 02 ae fc bc 4e 11 08 3c 1f 51 f2 3b 26 2d e3 3c
       -0.030844692 0.008304907 0.0073949243 0.02773149
0000c0 9a 2c ba 3b 0f 8a 2a 3c a2 23 0f bb 08 6e 95 3c
       0.0056815865 0.010408892 -0.0021841307 0.018240944
0000d0 bc 8c f7 bb 9a bd df 3c c0 5a f8 bc f7 f5 c4 3c
       -0.0075546186 0.027312089 -0.03031671 0.024043066
0000e0 4f 7e 08 3c a1 f5 1e 3c b9 c8 1a 3c 6a 5b 57 bc
       0.008330896 0.009702117 0.00944727 -0.013144353
0000f0 e6 74 15 3d ca 07 02 bb ae bb 80 bb a6 b8 28 3c
       0.036488436 -0.0019841068 -0.003928623 0.01029793

base.mlp.fc1.2.weight f4 [64]
000000 ea a2 81 3f fb db 80 3f 3a ec 7e 3f 8d ee 81 3f
       1.0127842 1.0067133 0.99579203 1.0150925
000010 13 79 83 3f 53 5a 81 3f c3 cc 83 3f 46 db 83 3f
       1.0271324 1.010569 1.0296863 1.0301292
000020 57 b1 85 3f f9 2f 84 3f 09 0f 79 3f 97 35 75 3f
       1.0444745 1.032714 0.97288567 0.95784897
000030 7a 13 84 3f 12 60 7e 3f b1 5f 7b 3f 09 94 7e 3f
       1.0318444 0.9936534 0.9819289 0.99444634
000040 4e 00 7f 3f 71 db 80 3f 12 70 81 3f 84 e9 82 3f
       0.9960984 1.0066968 1.0112326 1.0227513
000050 40 1f 77 3f c7 21 82 3f 50 d3 7c 3f f4 6f 82 3f
       0.9653206 1.0166558 0.9875994 1.0190415
000060 9f a3 81 3f aa d9 79 3f e8 c3 82 3f ac e1 7c 3f
       1.0128058 0.97597754 1.0216036 0.9878185
000070 ec de 7e 3f 79 28 80 3f 79 9f 7e 3f 1e 60 7d 3f
       0.995589 1.0012351 0.99462086 0.9897479
000080 56 e1 7e 3f 73 a4 80 3f 29 c7 7c 3f 81 25 83 3f
       0.99562585 1.0050186 0.98741394 1.024582
000090 05 d1 75 3f 29 27 85 3f 9f d0 83 3f 4e b4 77 3f
       0.96022063 1.0402576 1.0298041 0.967595
0000a0 e4 71 84 3f f9 66 82 3f 15 ca 80 3f bc e1 7f 3f
       1.0347257 1.0187675 1.006167 0.9995382
0000b0 a5 3c 77 3f d1 60 77 3f 60 d0 80 3f c8 bc 7e 3f
       0.9657691 0.96632105 1.0063591 0.9950681
0000c0 98 d3 7f 3f 0f 1e 7f 3f 32 68 7b 3f 56 63 7f 3f
       0.9993224 0.9965524 0.98205864 0.9976095
0000d0 86 04 82 3f be d1 80 3f a6 98 76 3f 48 b7 81 3f
       1.015763 1.0064008 0.96326673 1.0134058
0000e0 5c 0e 86 3f 11 54 86 3f 90 75 80 3f 97 04 7f 3f
       1.0473132 1.0494405 1.0035877 0.9961638
0000f0 6d 76 7d 3f 5b 54 7e 3f 91 14 82 3f c0 29 7b 3f
       0.9900883 0.99347466 1.0162526 0.9811058

base.mlp.fc1.2.bias f4 [64]
000000 45 7b e3 bb fd 44 bc 3b b0 f8 78 3c db 3d 99 bc
       -0.006942185 0.0057455287 0.0151960105 -0.018706253
000010 90 8c ff bc 9f 4d 04 bd 43 7c 1c 3c e4 bd 00 bb
       -0.031194955 -0.032300588 0.009551111 -0.0019644434
000020 ff ae 00 bd 11 bf ce bc 54 95 77 3b 55 38 c7 bc
       -0.03141689 -0.025237592 0.0037778215 -0.024318853
000030 1b 2f 98 bc e0 f3 b7 3c b7 ae 5b 3b 2b aa f7 bb
       -0.01857715 0.022455156 0.0033520886 -0.0075581274
000040 b0 ad bb ba ad 73 00 bc fa 89 bf 3c b6 d1 cd bc
       -0.0014318731 -0.007840079 0.023381222 -0.025124412
000050 40 cc 67 3b 38 2b 46 bb f6 5e 84 bc e7 c7 d0 3c
       0.0035369545 -0.0030238163 -0.016158562 0.025485946
000060 a6 93 96 3a 8c 9e 1d 3c 67 cc cd bc c4 1e ed 3b
       0.0011488094 0.00962032 -0.02512188 0.0072363336
000070 c4 cc e4 bb 8b 75 44 bc 08 60 52 bb 7f 35 bc bb
       -0.006982418 -0.011990915 -0.0032100696 -0.005743682
000080 35 67 a8 3c 31 fa e6 3c c5 b6 96 bc 1f 9a 67 bc
       0.020557025 0.028195472 -0.018397698 -0.014135866
000090 7e 3c 6e 3c 65 dd ca bc 6b 6d 00 bd 44 fe 8b 3a
       0.01454079 -0.024763772 -0.03135435 0.0010680635
0000a0 c4 82 eb bc dd 12 b8 bc 5a c8 f9 3a 5b 43 4a bb
       -0.028748877 -0.022469932 0.0019056902 -0.00308629
0000b0 1f e4 a5 bc 19 d6 14 3d e1 31 e3 bb b9 e5 84 3c
       -0.020250378 0.036336992 -0.0069334363 0.016222822
0000c0 c6 c7 81 3b 37 0d 3e 3c ce 70 aa 3b f7 91 45 3c
       0.0039605824 0.01159983 0.0052014356 0.0120587265
0000d0 b0 a8 72 bc 20 ff a2 3b f7 f5 1e 3b 8d a6 a2 3c
       -0.014810726 0.004974261 0.0024255493 0.019854808
0000e0 84 6f 27 bd 3b dc 22 bd 7a a0 38 bc 47 c4 d7 bb
       -0.040877834 -0.03976081 -0.011268729 -0.0065846774
0000f0 e8 ca 02 3d af 32 82 3c aa 82 41 ba e7 12 8c 3c
       0.031931788 0.015893308 -0.0007381836 0.017098857

base.mlp.fc_h.0.weight f4 [64, 64]
000000 5b 15 5d 3d d7 1f c8 3d 0f 0a 55 3d cd eb 51 bc
       0.053975444 0.09771698 0.052011546 -0.012812567
000010 3f ff 8f bd 44 87 5d 3d c8 a7 2c 3d 04 7e af 3e
       -0.07031106 0.054084077 0.042152196 0.3427583
000020 0c 94 cf 3e 48 00 f3 bd f8 68 1b 3e 79 fb d2 bd
       0.40542638 -0.11865288 0.15176761 -0.10301871
000030 9b 54 fa 3d 4c 9f 42 bd 25 63 f1 bc 35 c5 c1 bd
       0.122231685 -0.0475152 -0.029466221 -0.094614424
000040 16 55 e5 bb 0e cc ea bc 81 06 6c 3d 6b 09 12 bd
       -0.0069986684 -0.028661754 0.05762339 -0.035653513
000050 b9 df a7 be 2c 0f 58 3c 38 d2 83 3d 39 71 53 3e
       -0.32787874 0.013187211 0.064365804 0.2064866
000060 43 df 5c 3c c2 0d 84 bd 0c 62 2a 3e de a7 20 be
       0.013480964 -0.064479366 0.16638964 -0.15689036
000070 0f 5b 7d bc cf 52 34 be 42 b3 f0 bd 6c c1 47 be
       -0.015463605 -0.17609714 -0.11752941 -0.19507378
000080 b5 3b f4 3a 8b 2a 0e bd d1 21 26 be 9f e1 c7 3e
       0.0018633517 -0.03470854 -0.16223837 0.39039323
000090 cc 7e 6f be 08 c8 b1 3e 36 f6 a3 be 26 ed e8 3d
       -0.23388213 0.34722924 -0.32023782 0.113733575
0000a0 1d 16 db 3d d1 b9 3f be b0 11 5c 3e 68 96 3e 3e
       0.10697577 -0.18723227 0.21491122 0.18612063
0000b0 f1 8c dc 3d c8 1b 8a 3d c8 c9 eb bc 0b c0 f7 be
       0.1076907 0.0674358 -0.02878274 -0.48388705
0000c0 8c 2c 42 bb 23 76 74 3e d1 d5 90 3d 8d 0b 8b be
       -0.0029628603 0.2387319 0.07072032 -0.2715725
0000d0 f2 5d a7 3d b3 94 66 3c ba f7 05 bd 4a f3 94 3d
       0.081722155 0.014073539 -0.032706954 0.07272966
0000e0 19 ad 63 3d f2 6d 82 3e 94 ba a6 3d 7d 08 16 be
       0.055585 0.25474507 0.08141056 -0.14651676
0000f0 73 f4 00 3e 48 35 cd 3d 5c de e0 3e 77 44 9b 3d
       0.1259325 0.10019928 0.43919647 0.07581418
000100 db 6d df 3e 90 04 13 3e 90 99 55 be 7d 84 c3 bb
       0.436385 0.14357209 -0.2085936 -0.0059667216
000110 86 f1 05 be 38 f2 a2 be 24 50 94 bd 8f e5 29 be
       -0.13080415 -0.31825423 -0.07241848 -0.16591476
000120 89 54 10 be 99 27 1e be 4d 46 c1 be ae d3 62 bc
       -0.14094748 -0.15444793 -0.37748948 -0.013844414
000130 19 32 c9 bd 7e a9 51 be 32 79 96 3d 02 05 19 3e
       -0.098240085 -0.20474812 0.07347335 0.14943317
000140 e9 72 07 3e a1 57 ea bc 05 f8 f5 3d 83 95 6e 3e
       0.13227428 -0.028606238 0.120101966 0.23299222
000150 e7 f0 96 be 29 7d 6c bd 21 81 1c 3e c7 50 d2 3d
       -0.2948067 -0.05773655 0.15283634 0.10269313
000160 18 c3 86 3d 21 8f 17 3e 27 fc 08 3e 24 6a 1d bd
       0.0658018 0.14800693 0.13377438 -0.0384313
000170 01 83 10 be 95 63 9d bd 26 5c 8b be ad 22 e4 3d
       -0.14112474 -0.076850094 -0.2721874 0.111394264
000180 7b 54 9f 3e fb 31 3b be d9 dc fd 3d 98 c4 a5 3d
       0.3111914 -0.18280785 0.12395639 0.08094138
000190 fe fb 62 bd fe 61 83 3e bf d0 32 3e b4 77 05 3e
       -0.0554161 0.256607 0.17462443 0.13033944
0001a0 ec bd d0 bc e1 a0 10 be 8c 9a 08 be 33 dc 91 be
       -0.025481187 -0.1412387 -0.13340205 -0.2848831
0001b0 78 0b a4 bb ef 87 9f 3e 8c 93 05 3c d3 83 4d 3e
       -0.00500625 0.31158397 0.008152854 0.20069818
0001c0 ee 5a d0 bc c1 db d7 3d 32 a6 81 bd 36 52 5e 3d
       -0.025433984 0.105399616 -0.06330527 0.05427762
0001d0 82 d5 60 bd 8a 60 e2 3d ec 5a 5e 3e 67 84 44 bd
       -0.054891117 0.110535696 0.21714371 -0.04797783
0001e0 9e 74 89 3e bb d0 80 3e e5 97 46 3b 89 c4 49 3d
       0.26846784 0.2515925 0.0030302939 0.049259696
0001f0 ce d5 ca 3e d7 e6 3f be 60 8b ea bd 51 e7 b0 bd
       0.39616245 -0.18740402 -0.11452365 -0.0863787
000200 3c e6 4b 3e 96 67 53 bd 81 5f 92 3d 40 65 86 3e
       0.19912046 -0.05161246 0.07147122 0.26249123
000210 44 e0 61 3d d2 15 31 be 43 85 aa 3d 53 04 d8 bd
       0.055145517 -0.1729348 0.08326199 -0.105477
000220 08 33 c4 3d 85 56 72 3d 1b 48 0f 3e 59 1f cf bd
       0.09580046 0.059164543 0.1399235 -0.10113401
000230 7a c4 bb 3e e9 82 b0 bc 3a 01 75 bd 26 2e 59 3e
       0.36673337 -0.021546798 -0.059815623 0.2120901
000240 ae 11 2b be b3 bc 55 bd e3 7d 43 3d 40 4c 69 bc
       -0.16705963 -0.05218191 0.047727477 -0.014239371
000250 79 9e 32 3c 2b ab de 3d db a0 78 bd bd 8c 04 be
       0.010902041 0.108724914 -0.06070028 -0.12944312
000260 c5 2f 36 be 1f 5d 53 3d 60 74 66 3e cd 23 82 be
       -0.1779166 0.05160248 0.22505331 -0.2541794
000270 8c 3f e1 bd 95 e5 83 3d e1 8e 58 be 47 a3 1b 3d
       -0.10998449 0.06440274 -0.21148254 0.03799751
000280 16 45 c6 bd 43 7f 87 be a8 fa 1a 3e 75 54 fc 3b
       -0.09681146 -0.2646428 0.1513468 0.0077004978
000290 63 bd 7e bd 12 ef 67 bc c9 f3 2b be 75 2b 99 3e
       -0.062192332 -0.01415612 -0.16792215 0.29915968
0002a0 6a 7b 44 be 0d d3 7a 3e 82 46 4d be 27 b6 35 3e
       -0.19187704 0.24494572 -0.20046428 0.17745267
0002b0 13 aa 17 3e 70 76 d8 bd 72 3d 6e be 5e c4 a6 3b
       0.14810972 -0.10569465 -0.23265627 0.0050893268
0002c0 8c 49 80 bd 0c cb 51 3e cd 73 7c 3e ff 0b 51 3c
       -0.06264028 0.20487612 0.2465355 0.012759208
0002d0 55 64 29 3d f1 d8 b2 be ba 48 e1 be a9 16 cf be
       0.04135545 -0.34931138 -0.44000798 -0.40446976
0002e0 41 5f 39 3e cd e0 0a bd e4 31 4b 3d e1 9c 53 3d
       0.18102743 -0.033905793 0.049608126 0.051663283
0002f0 8c 14 0f be 3b a8 5d be 08 b6 aa be c1 0d 59 3e
       -0.13972682 -0.21646206 -0.33342004 0.21196653
000300 e1 dc d4 3e b0 50 11 3e 39 c6 e2 bd 04 e4 94 bb
       0.41574767 0.14190936 -0.11072964 -0.004543783
000310 05 79 70 be 64 e9 84 bc 29 da 18 3e 05 59 18 be
       -0.23483665 -0.01622457 0.14926971 -0.14877708
000320 32 4c f5 3d 8f 14 03 3e c5 3a cd bc b7 d1 41 3c
       0.11977424 0.12800811 -0.025052438 0.011829785
000330 90 2e ee bc 06 82 6a be 6c d5 01 be 97 72 3a ba
       -0.029074937 -0.22901163 -0.1267907 -0.0007112412
000340 c6 72 99 bc d1 a1 88 3e 05 19 09 3e c2 49 16 be
       -0.018731486 0.26685956 0.1338845 -0.14676574
000350 a7 8b ae 3d 14 d6 e2 3d 81 29 ae 3e c8 0f cb 3d
       0.0852273 0.110759884 0.3401604 0.099151194
000360 bf fb 08 3e 80 b9 ad be 9c 88 ef bc 1e 51 80 3d
       0.13377284 -0.33930588 -0.029239945 0.06265472
000370 3c 3d 65 3d 67 ae 99 bc 12 bf 64 3e e5 d8 9c 3e
       0.0559666 -0.01875992 0.22338513 0.30634227
000380 c9 e7 b3 be 54 04 2c be 11 e0 26 bd 97 f0 27 bd
       -0.35137776 -0.16798526 -0.04074103 -0.04100093
000390 cc cb 39 3e 2c 0f 84 be 11 21 2b 3e 2f 5e aa bd
       0.18144149 -0.25792825 0.16711833 -0.08318745
0003a0 4d fc ea 3d 64 16 b3 bd 47 85 c4 3e 14 cf 61 be
       0.11473904 -0.08744505 0.38382933 -0.2205165
0003b0 36 c1 6d 3e cf 26 8d bc 6f 78 94 bd 39 2c 14 be
       0.23218235 -0.01723042 -0.072495334 -0.14469995
0003c0 4d c8 41 3e d4 cb b8 bd df 38 17 3e 90 12 3f be
       0.18924065 -0.09023252 0.14767788 -0.18659425
0003d0 0e 98 18 3e b9 5f c5 bd 04 23 50 ba 8d 82 09 be
       0.14901754 -0.09637398 -0.0007939788 -0.13428707
0003e0 22 f0 87 3d 20 af 30 3e a1 76 d4 3e 13 c6 df 3d
       0.066375986 0.17254305 0.41496757 0.109264515
0003f0 2f 94 65 be 28 77 dc 3c 27 f9 2b bd c3 ce 59 be
       -0.22419809 0.026912287 -0.041985657 -0.2127028

base.mlp.fc_h.0.bias f4 [64]
000000 00 00 00 00 00 00 00 00 00 00 00 00 00 00 00 00
       0.0 0.0 0.0 0.0
000010 00 00 00 00 00 00 00 00 00 00 00 00 00 00 00 00
       0.0 0.0 0.0 0.0
000020 00 00 00 00 00 00 00 00 00 00 00 00 00 00 00 00
       0.0 0.0 0.0 0.0
000030 00 00 00 00 00 00 00 00 00 00 00 00 00 00 00 00
       0.0 0.0 0.0 0.0
000040 00 00 00 00 00 00 00 00 00 00 00 00 00 00 00 00
       0.0 0.0 0.0 0.0
000050 00 00 00 00 00 00 00 00 00 00 00 00 00 00 00 00
       0.0 0.0 0.0 0.0
000060 00 00 00 00 00 00 00 00 00 00 00 00 00 00 00 00
       0.0 0.0 0.0 0.0
000070 00 00 00 00 00 00 00 00 00 00 00 00 00 00 00 00
       0.0 0.0 0.0 0.0
000080 00 00 00 00 00 00 00 00 00 00 00 00 00 00 00 00
       0.0 0.0 0.0 0.0
000090 00 00 00 00 00 00 00 00 00 00 00 00 00 00 00 00
       0.0 0.0 0.0 0.0
0000a0 00 00 00 00 00 00 00 00 00 00 00 00 00 00 00 00
       0.0 0.0 0.0 0.0
0000b0 00 00 00 00 00 00 00 00 00 00 00 00 00 00 00 00
       0.0 0.0 0.0 0.0
0000c0 00 00 00 00 00 00 00 00 00 00 00 00 00 00 00 00
       0.0 0.0 0.0 0.0
0000d0 00 00 00 00 00 00 00 00 00 00 00 00 00 00 00 00
       0.0 0.0 0.0 0.0
0000e0 00 00 00 00 00 00 00 00 00 00 00 00 00 00 00 00
       0.0 0.0 0.0 0.0
0000f0 00 00 00 00 00 00 00 00 00 00 00 00 00 00 00 00
       0.0 0.0 0.0 0.0

base.mlp.fc_h.2.weight f4 [64]
000000 00 00 80 3f 00 00 80 3f 00 00 80 3f 00 00 80 3f
       1.0 1.0 1.0 1.0
000010 00 00 80 3f 00 00 80 3f 00 00 80 3f 00 00 80 3f
       1.0 1.0 1.0 1.0
000020 00 00 80 3f 00 00 80 3f 00 00 80 3f 00 00 80 3f
       1.0 1.0 1.0 1.0
000030 00 00 80 3f 00 00 80 3f 00 00 80 3f 00 00 80 3f
       1.0 1.0 1.0 1.0
000040 00 00 80 3f 00 00 80 3f 00 00 80 3f 00 00 80 3f
       1.0 1.0 1.0 1.0
000050 00 00 80 3f 00 00 80 3f 00 00 80 3f 00 00 80 3f
       1.0 1.0 1.0 1.0
000060 00 00 80 3f 00 00 80 3f 00 00 80 3f 00 00 80 3f
       1.0 1.0 1.0 1.0
000070 00 00 80 3f 00 00 80 3f 00 00 80 3f 00 00 80 3f
       1.0 1.0 1.0 1.0
000080 00 00 80 3f 00 00 80 3f 00 00 80 3f 00 00 80 3f
       1.0 1.0 1.0 1.0
000090 00 00 80 3f 00 00 80 3f 00 00 80 3f 00 00 80 3f
       1.0 1.0 1.0 1.0
0000a0 00 00 80 3f 00 00 80 3f 00 00 80 3f 00 00 80 3f
       1.0 1.0 1.0 1.0
0000b0 00 00 80 3f 00 00 80 3f 00 00 80 3f 00 00 80 3f
       1.0 1.0 1.0 1.0
0000c0 00 00 80 3f 00 00 80 3f 00 00 80 3f 00 00 80 3f
       1.0 1.0 1.0 1.0
0000d0 00 00 80 3f 00 00 80 3f 00 00 80 3f 00 00 80 3f
       1.0 1.0 1.0 1.0
0000e0 00 00 80 3f 00 00 80 3f 00 00 80 3f 00 00 80 3f
       1.0 1.0 1.0 1.0
0000f0 00 00 80 3f 00 00 80 3f 00 00 80 3f 00 00 80 3f
       1.0 1.0 1.0 1.0

base.mlp.fc_h.2.bias f4 [64]
000000 00 00 00 00 00 00 00 00 00 00 00 00 00 00 00 00
       0.0 0.0 0.0 0.0
000010 00 00 00 00 00 00 00 00 00 00 00 00 00 00 00 00
       0.0 0.0 0.0 0.0
000020 00 00 00 00 00 00 00 00 00 00 00 00 00 00 00 00
       0.0 0.0 0.0 0.0
000030 00 00 00 00 00 00 00 00 00 00 00 00 00 00 00 00
       0.0 0.0 0.0 0.0
000040 00 00 00 00 00 00 00 00 00 00 00 00 00 00 00 00
       0.0 0.0 0.0 0.0
000050 00 00 00 00 00 00 00 00 00 00 00 00 00 00 00 00
       0.0 0.0 0.0 0.0
000060 00 00 00 00 00 00 00 00 00 00 00 00 00 00 00 00
       0.0 0.0 0.0 0.0
000070 00 00 00 00 00 00 00 00 00 00 00 00 00 00 00 00
       0.0 0.0 0.0 0.0
000080 00 00 00 00 00 00 00 00 00 00 00 00 00 00 00 00
       0.0 0.0 0.0 0.0
000090 00 00 00 00 00 00 00 00 00 00 00 00 00 00 00 00
       0.0 0.0 0.0 0.0
0000a0 00 00 00 00 00 00 00 00 00 00 00 00 00 00 00 00
       0.0 0.0 0.0 0.0
0000b0 00 00 00 00 00 00 00 00 00 00 00 00 00 00 00 00
       0.0 0.0 0.0 0.0
0000c0 00 00 00 00 00 00 00 00 00 00 00 00 00 00 00 00
       0.0 0.0 0.0 0.0
0000d0 00 00 00 00 00 00 00 00 00 00 00 00 00 00 00 00
       0.0 0.0 0.0 0.0
0000e0 00 00 00 00 00 00 00 00 00 00 00 00 00 00 00 00
       0.0 0.0 0.0 0.0
0000f0 00 00 00 00 00 00 00 00 00 00 00 00 00 00 00 00
       0.0 0.0 0.0 0.0

base.mlp.fc2.0.0.weight f4 [64, 64]
000000 52 5d 8e 3d 72 86 e1 3d 0c e8 2e 3d 9e f3 fe bc
       0.06951393 0.110119715 0.042701766 -0.031122025
000010 3f 45 83 bd b1 06 83 3d c9 96 59 3d 9d e2 b6 3e
       -0.06409692 0.06397761 0.053122316 0.35719767
000020 eb eb d3 3e 0c 3d d7 bd 62 e9 0a 3e eb 87 b0 bd
       0.4139093 -0.10509691 0.13565591 -0.08619674
000030 79 ca 07 3e c7 5e ce bc 51 2a 10 bc c8 f6 e2 bd
       0.13260831 -0.025191678 -0.0087991515 -0.11082226
000040 dd 61 08 3c e4 5d 59 bc 1d 73 1c 3d d2 5e bb bc
       0.008324114 -0.013267014 0.038195718 -0.022872362
000050 d1 36 9f be 36 01 9c 3c df 3a a5 3d b7 0b 44 3e
       -0.3109651 0.019043546 0.080678694 0.19145094
000060 93 e2 9b 3a 69 90 53 bd 91 bd 37 3e 5d 69 2f be
       0.0011893086 -0.051651392 0.17943408 -0.17130037
000070 bd 2f 08 bb 68 60 23 be 1a 6e ca bd 2b 65 39 be
       -0.0020780407 -0.15954745 -0.098842815 -0.18104999
000080 d2 90 94 3c f3 c9 f1 bc 27 9a 34 be 51 4b be 3e
       0.018135462 -0.029515242 -0.1763693 0.37166837
000090 ad 3c 82 be ea c3 b8 3e cc 73 9c be ab e3 c5 3d
       -0.25436917 0.3608697 -0.30557096 0.09662565
0000a0 0a 63 e8 3d 1b 08 40 be a1 e5 47 3e cb ba 4b 3e
       0.11347015 -0.18753092 0.1952119 0.19895475
0000b0 a1 cb cb 3d 7b c5 ac 3d 1c 34 38 bc 11 ad ec be
       0.099509485 0.08436104 -0.011242893 -0.4622579
0000c0 3b 66 c0 bc a0 3d 81 3e 8d 95 78 3d 6c ff 8d be
       -0.023486247 0.2524233 0.060689498 -0.27733934
0000d0 2f 29 c2 3d aa 80 25 39 41 68 17 bd 17 57 b9 3d
       0.094805114 0.00015783557 -0.03696466 0.09049814
0000e0 16 f3 88 3d 44 93 89 3e 0b ce c4 3d ce c3 10 be
       0.0668699 0.26870167 0.09609612 -0.14137194
0000f0 b4 9e 08 3e e0 b8 df 3d 35 f5 d6 3e 94 47 b8 3d
       0.1334179 0.10923934 0.41983953 0.089980274
000100 d1 5e df 3e d8 4d 13 3e 37 50 55 be f6 2b c0 bb
       0.43627027 0.14385164 -0.20831381 -0.0058646156
000110 92 05 06 be 7e cd a2 be 0a e8 94 bd e2 9b 29 be
       -0.13088062 -0.31797403 -0.072708204 -0.16563371
000120 04 0b 10 be c6 d4 1e be 96 58 c1 be c4 09 6c bc
       -0.14066702 -0.15510854 -0.37762898 -0.014406625
000130 5e 9f c8 bd f3 5f 51 be ad 0c 97 3d 0c fe 18 3e
       -0.09796022 -0.20446758 0.073754646 0.14940661
000140 5e bc 07 3e 03 5b ee bc 35 8a f6 3d 07 df 6e 3e
       0.1325545 -0.029096132 0.1203808 0.23327266
000150 ac 3f 97 be 2e 56 6b bd 9b ca 1c 3e 17 e3 d2 3d
       -0.29540765 -0.057455234 0.15311663 0.1029722
000160 3d da 86 3d d5 9e 16 3e d9 e3 07 3e 2e d6 1f bd
       0.065845944 0.14709027 0.1327051 -0.039022617
000170 8d 39 10 be b4 d8 9d bd 85 37 8b be ac b5 e4 3d
       -0.14084454 -0.077073485 -0.27190796 0.11167464
000180 bb 77 9f 3e 80 e8 3a be 9c d5 fc 3d b0 57 a6 3d
       0.31146035 -0.18252754 0.1234543 0.08122194
000190 f3 d4 61 bd 85 42 83 3e e2 f8 32 3e ca 09 05 3e
       -0.055134725 0.25636688 0.17477754 0.12992015
0001a0 d1 72 ce bc 2e 57 10 be 65 6f 09 be 62 b7 91 be
       -0.025201233 -0.14095756 -0.134214 -0.28460222
0001b0 26 23 b4 bb c9 ac 9f 3e d3 25 0a 3c 04 cd 4d 3e
       -0.005497354 0.31186512 0.00843187 0.20097739
0001c0 89 10 ce bc e3 6e d8 3d c6 13 81 bd 88 76 5f 3d
       -0.025154369 0.10568025 -0.063025996 0.0545564
0001d0 01 1b 64 bd fa f3 e2 3d fe a3 5e 3e 0b 60 43 bd
       -0.055689815 0.11081691 0.21742246 -0.047699016
0001e0 6b 99 89 3e 54 b2 80 3e d4 f9 58 3b 2e eb 4a 3d
       0.2687486 0.25136054 0.0033107894 0.04954069
0001f0 7e d5 ca 3e 56 9d 3f be f9 36 ea bd b6 54 b0 bd
       0.39616007 -0.18712363 -0.114362665 -0.08609907
000200 a6 49 60 3e 1a f8 52 bd 6a 37 82 3d 3e 00 84 3e
       0.21903095 -0.05150614 0.06358226 0.25781435
000210 59 8b 8b 3d 5a dd 24 be bf f6 b3 3d ad 16 d1 bd
       0.06813688 -0.16100064 0.087872975 -0.10209403
000220 02 9c dc 3d 53 01 79 3d 3c da fe 3d d6 f3 e8 bd
       0.10771944 0.06079228 0.12443969 -0.11374633
000230 ea d0 c2 3e 17 3e 27 bb 56 95 3a bd d9 0b 49 3e
       0.38050014 -0.0025519186 -0.045552574 0.19633426
000240 09 9a 17 be 4d 71 3e bd 1c 27 1b 3d 1c 62 34 3b
       -0.14804853 -0.04649477 0.037879094 0.0027524298
000250 b7 23 83 3c 09 d4 e7 3d 2c c1 38 bd 1d c0 04 be
       0.016008241 0.11319739 -0.045106098 -0.1296391
000260 6b 73 3b be ec 5b 60 3d d7 54 66 3e 77 01 88 be
       -0.18305747 0.054775164 0.22493301 -0.26563618
000270 9a 37 bb bd ce e2 66 3d 2b c8 40 be e7 7d 7d 3d
       -0.091414645 0.05636864 -0.18826358 0.061887648
000280 a8 95 aa bd 53 df 7f be 60 c7 07 3e d7 93 1c 3c
       -0.08329326 -0.24987535 0.1325965 0.009556732
000290 4b 8c 91 bd cb 76 88 bc 3e 8f 19 be 64 c3 92 3e
       -0.07106837 -0.016658207 -0.14996049 0.28664696
0002a0 fb 2a 34 be dc 79 77 3e fb a2 5c be 70 f1 42 3e
       -0.17594521 0.2416758 -0.21546547 0.19037414
0002b0 7b 78 0c 3e ca 4a a7 bd 3d 23 60 be 4f 8e fd 3c
       0.13717835 -0.08168562 -0.21888442 0.030951647
0002c0 90 64 99 bd 94 c3 5c 3e 98 41 6f 3e 59 a1 d6 3b
       -0.07489884 0.21558982 0.23364866 0.006549996
0002d0 e8 ca 2e 3d c9 18 b6 be 32 0b d5 be 4a 19 cc be
       0.042673975 -0.35565785 -0.41610104 -0.39863044
0002e0 77 05 41 3e 52 ac a2 bc a3 45 80 3d fd 70 80 3d
       0.18849741 -0.01985756 0.06263282 0.06271551
0002f0 ad 8d 02 be c6 aa 5d be 0e e1 af be 27 96 6a 3e
       -0.12749358 -0.21647176 -0.3435139 0.22908841
000300 2c 6c e2 3e 29 28 16 3e ab 97 f5 bd 6a 02 10 bd
       0.44223154 0.14663757 -0.11991819 -0.035158552
000310 95 f3 5e be 69 3f 85 3c d1 4e 1e 3e 19 27 f0 bd
       -0.21772607 0.016265588 0.15459754 -0.11726207
000320 95 c9 1b 3e 50 19 25 3e ea f7 33 bd 56 99 aa 3c
       0.15213616 0.16122937 -0.0439376 0.02082507
000330 00 bc 4e bc e1 b0 6b be 68 46 c8 bd 18 b3 a6 bc
       -0.012618065 -0.23016693 -0.09779054 -0.02034907
000340 7b 32 0f 3c 5d de 99 3e fd f1 cf 3d 78 3a ed bd
       0.008740063 0.30052462 0.101535775 -0.11583418
000350 2a 45 e1 3d 6c a6 ec 3d 8e 3b aa 3e 1a 27 8a 3d
       0.1099952 0.1155518 0.33248562 0.06745739
000360 fc 14 d8 3d f9 5b 9c be 8e b9 ad 3b f9 aa 4a 3d
       0.105508775 -0.3053892 0.005301661 0.04947946
000370 02 61 aa 3d fa 98 62 bc e9 e2 7b 3e 30 3f ad 3e
       0.08319284 -0.013830418 0.24598278 0.3383727
000380 3f 87 b0 be 17 7d 1d be b1 ea 5e bd 6e cc 99 bd
       -0.34478185 -0.15379749 -0.054423038 -0.07509695
000390 a8 18 31 3e 7e c6 7b be c9 86 3a 3e 27 ab b2 bd
       0.17294562 -0.24587438 0.18215479 -0.08724051
0003a0 c7 ec 01 3e 4e de c3 bd de cb bd 3e de f5 5e be
       0.1268798 -0.09563886 0.370696 -0.21773478
0003b0 c3 b5 5e 3e b6 02 c9 ba 56 6a 6d bd b3 28 0e be
       0.21749024 -0.0015335891 -0.057962738 -0.13882713
0003c0 67 00 32 3e cb 11 86 bd d1 0b 02 3e b4 7a 47 be
       0.17382966 -0.065463625 0.1269982 -0.19480401
0003d0 ff a5 3b 3e ca f2 d3 bd 7c b0 50 ba af fb 15 be
       0.18325041 -0.10349043 -0.00079608685 -0.14646791
0003e0 f5 bb ca 3d 91 fa 44 3e df b5 d1 3e 34 2a c9 3d
       0.09899131 0.19236208 0.4095907 0.09822503
0003f0 a9 4c 54 be 21 35 c7 3c 80 99 8c bd 6c 3d 4a be
       -0.20732369 0.024317326 -0.06865215 -0.19749993

base.mlp.fc2.0.0.bias f4 [64]
000000 58 42 64 bc 43 98 de b9 b8 53 a2 bc 08 a5 5f bc
       -0.013931833 -0.00042456583 -0.01981531 -0.013650186
000010 c2 ac 41 bb c3 a1 26 bb 88 27 7e bc bb 54 26 bc
       -0.0029552435 -0.0025426007 -0.015512355 -0.010152037
000020 1d af 33 3b c0 45 5b 3d cb 81 22 3b 21 e9 69 3c
       0.0027417608 0.053533316 0.00247966 0.014276774
000030 60 06 0b 3d d0 e8 73 bc 5a 8f 9e bc 10 70 9b bb
       0.033941627 -0.01488705 -0.019355465 -0.0047435835
000040 20 4b ce 3c ed 5f f2 3c 5e c4 9e bb fa 0c 2a bc
       0.025182307 0.029586757 -0.004845186 -0.01037907
000050 06 65 42 bc 0c 2f 4f 3c 51 07 e1 bb 5a 6a 32 3c
       -0.011864906 0.012645494 -0.0068673273 0.010889614
000060 23 6e a1 bc 6d 5a bf b9 40 2b 3a 3c 6b 52 95 3c
       -0.019705838 -0.0003649773 0.011362851 0.018227777
000070 c3 e7 06 3c 2b 16 09 bc 7a 92 8d 3b f2 61 90 3b
       0.008233967 -0.008367102 0.00432044 0.0044062072
000080 c8 b1 31 bc a6 5c 42 bc ec 16 b0 3a bb 34 8f 3c
       -0.010845609 -0.011862909 0.0013434566 0.017481199
000090 96 95 73 3a a1 e4 48 3a 21 05 9a 3c 92 28 92 bc
       0.00092920044 0.0007663463 0.018801274 -0.017841611
0000a0 7c d5 29 bc ab 7d 04 3b b9 e6 2e 3c 91 85 92 3b
       -0.01036584 0.0020216506 0.010675126 0.0044714888
0000b0 e4 22 67 bc 10 bc 95 bb 33 ae b2 bb 68 bc 68 bc
       -0.01410744 -0.004569538 -0.005452895 -0.014205076
0000c0 3b 5d 03 3b 46 c2 29 bc d6 12 76 3b 71 9c 01 bb
       0.0020044583 -0.01036126 0.0037547848 -0.0019777084
0000d0 7a b7 69 bb 29 9f 41 bc 64 44 f3 ba ef a0 da bb
       -0.003566234 -0.011817732 -0.0018559811 -0.006672017
0000e0 13 51 75 bc 15 dd e6 bb 77 94 16 bc 54 67 e1 bc
       -0.014972943 -0.007045398 -0.00919067 -0.027515091
0000f0 ac 4c 9d b9 75 fb be 3a ad 99 e4 bb 4f 02 bf 3a
       -0.00030002499 0.001457079 -0.0069763274 0.0014572832

base.mlp.fc2.0.2.weight f4 [64]
000000 4c 6a 80 3f 0b ea 7b 3f c4 44 7d 3f a5 bb 7f 3f
       1.0032439 0.98403996 0.98933053 0.998957
000010 a4 2a 82 3f 95 76 7f 3f e2 e2 7d 3f 05 ba 80 3f
       1.0169263 0.99790317 0.9917432 1.0056769
000020 7e b1 82 3f 65 9c 76 3f 06 6b 82 3f f0 d1 82 3f
       1.0210416 0.9633239 1.0188911 1.0220318
000030 a5 8f 81 3f 16 84 7f 3f 79 21 80 3f 62 e7 7c 3f
       1.0121962 0.9981092 1.0010215 0.9879056
000040 94 f2 82 3f 8d b1 82 3f ee 5c 81 3f c1 42 7c 3f
       1.0230279 1.0210434 1.0106485 0.9853936
000050 96 7a 80 3f f2 c4 82 3f 82 58 7f 3f 8f 68 7c 3f
       1.003741 1.0216353 0.9974443 0.98597044
000060 b8 55 7f 3f bd b1 81 3f 36 01 82 3f 70 01 7e 3f
       0.9974017 1.0132366 1.015662 0.99220943
000070 94 d9 83 3f 46 64 7e 3f 3a be 81 3f 3d cd 7b 3f
       1.0300775 0.99371755 1.0136178 0.98360044
000080 98 38 7c 3f 5f 36 81 3f 74 1c 80 3f f6 e2 7a 3f
       0.98523855 1.0094718 1.0008683 0.98002565
000090 60 3c 81 3f 09 d2 81 3f cf bb 82 3f 42 60 81 3f
       1.009655 1.0142223 1.0213565 1.01075
0000a0 fe 3a 80 3f bc 94 7a 3f f5 2e 84 3f 9a 25 83 3f
       1.0018003 0.978832 1.032683 1.024585
0000b0 8b 63 7e 3f 95 cf 7c 3f bb 1e 7e 3f a5 d8 7c 3f
       0.9937064 0.98754245 0.9926564 0.98768073
0000c0 1c 7e 82 3f 34 55 7d 3f 1e 51 81 3f e4 ab 84 3f
       1.0194736 0.98958135 1.010288 1.0364957
0000d0 ed d6 80 3f 1b 05 80 3f 61 96 7d 3f bb 51 83 3f
       1.006559 1.0001558 0.99057585 1.0259317
0000e0 0a 21 82 3f bc 13 7d 3f 8e d7 7f 3f 0b 2c 7e 3f
       1.0166333 0.9885824 0.99938285 0.99285954
0000f0 51 84 7c 3f 72 d6 80 3f f0 c4 7c 3f 3f 80 84 3f
       0.986394 1.0065444 0.98738 1.0351638

base.mlp.fc2.0.2.bias f4 [64]
000000 42 22 10 3c b2 54 80 3c 3b c1 30 ba 25 f4 16 3c
       0.00879723 0.015665386 -0.0006742661 0.009213482
000010 29 26 3a bb 76 06 4b 3c c5 a0 4b 3a a4 0d 49 bb
       -0.0028404093 0.012391677 0.0007767792 -0.0030678296
000020 85 20 55 bb 68 28 93 3c 5a 0c 7e bb 1b 37 df bb
       -0.0032520604 0.017963603 -0.0038764686 -0.006811989
000030 e0 97 91 3c 29 3b 38 3b 3b 6b 3c 3c ac d0 3a bb
       0.017772615 0.0028111434 0.011500175 -0.0028505726
000040 97 e0 f4 bb f2 9a 91 3b 0f aa 47 bc 5c 2a 58 3c
       -0.0074730623 0.0044435197 -0.012186541 0.013193693
000050 fd 1e 77 bc 5f ef d3 bb d0 51 77 bc e2 33 85 3c
       -0.015083072 -0.0064677442 -0.015095189 0.016260091
000060 6c e7 9d bc b6 ce 79 bb c7 ec f6 39 12 1d d5 3c
       -0.01927539 -0.0038117594 0.0004709719 0.026014838
000070 a6 22 e3 3b 22 6d 5e bb e5 a0 c7 bb 2d 22 8f 3c
       0.0069316206 -0.003393956 -0.006092178 0.017472351
000080 c8 ab 86 bc ab 10 ad bb 3a ad 98 bc 44 5f 03 3c
       -0.016439334 -0.005281528 -0.018637288 0.008018319
000090 80 0e 74 bb ea a1 8b bc 92 f0 82 3b 90 ae 9c bb
       -0.0037240088 -0.01704498 0.0039959634 -0.0047815517
0000a0 e9 c7 80 bc f1 d2 b5 3c 1e 25 da bb 6d d8 d0 bb
       -0.015720325 0.022195311 -0.0066572567 -0.006373456
0000b0 79 34 85 bb d7 9a 2f 3c 2e de 64 bc f5 5c 9a 3c
       -0.004065093 0.010718069 -0.013968987 0.018843153
0000c0 e7 8d 46 bb 49 3a 04 3c 0a 50 c6 bb b3 20 bc 3b
       -0.0030296983 0.008070537 -0.006052022 0.0057412027
0000d0 3e 64 22 3b f7 b4 4f 3c 86 bd 59 bb a3 a9 3f 3c
       0.0024778987 0.012677423 -0.0033224537 0.011698159
0000e0 41 28 dd ba cd 29 84 3c bb 59 62 bc be 0b a4 bb
       -0.0016872959 0.016133213 -0.013815339 -0.0050062826
0000f0 b6 70 51 3c ad 21 78 bb c6 cc 32 3c 40 d0 d6 3b
       0.01278322 -0.003786187 0.01091308 0.006555587

act.action_out.linear.weight f4 [2, 64]
000000 f5 a0 95 bc 09 fa 09 3c d0 38 89 3b 48 2b 4f bc
       -0.018265227 0.008421429 0.004187681 -0.012644596
000010 d8 24 ac 3c ce 75 32 bc 8a 11 20 3c f9 39 6c 3c
       0.021013662 -0.010892345 0.009769807 0.014418119
000020 d7 16 d7 3c 3d 24 24 3c ce 0e bf 3c 20 c2 de 3c
       0.026256008 0.0100184055 0.02332249 0.027192175
000030 a5 da d8 bc f5 bc 67 bc c5 36 23 bc 47 64 8f 3b
       -0.026471445 -0.014144172 -0.009961789 0.0043759677
000040 be ea b1 3c cd 5f c4 bc c0 e8 a3 3c 44 07 98 3b
       0.02171838 -0.023971463 0.020008445 0.004639538
000050 83 6a 55 3c de a6 f3 3c b5 31 27 3c d7 87 68 3b
       0.013025883 0.029742654 0.010204722 0.0035481357
000060 3b d9 59 3c 3d ad 88 3c 34 a7 8e bc 2e e0 20 bc
       0.013296421 0.016684169 -0.017413713 -0.009819074
000070 d8 fc 0e bd 0b 83 02 bc a2 2b af 3c 99 14 b4 3b
       -0.0349091 -0.007965813 0.02138311 0.0054956195
000080 dd 1c 4c ba 1a c5 73 3c 77 91 6c 3c d8 a4 90 3a
       -0.00077862834 0.014878536 0.014438978 0.0011035455
000090 5d e3 53 3c e6 47 c1 3c e7 b7 9c bc 0b 91 96 3c
       0.012932626 0.023593854 -0.01913066 0.018379709
0000a0 6f 94 94 bc 8c df be 3b 72 55 03 3d dc 24 dd 3c
       -0.018137185 0.0058249887 0.03206391 0.026995115
0000b0 de 57 9d bb e5 20 be 3b ef 3e 24 3c 79 46 d5 ba
       -0.0048017344 0.005802261 0.01002477 -0.0016271613
0000c0 86 46 c9 3c 10 5b 10 3c 8d 3b 9c 3c be 45 25 bd
       0.024569761 0.0088107735 0.019071365 -0.040349714
0000d0 b2 b2 89 3c 7a 50 cd bb 05 e8 16 3c 84 3b 02 bd
       0.016808841 -0.006265697 0.009210591 -0.03179504
0000e0 2d af 9d bc 79 bd 92 ba d5 87 8a 3c 57 8e ea bb
       -0.01924857 -0.0011195383 0.016910473 -0.0071580815
0000f0 2d f4 e1 3b 38 12 5e 3c 63 c9 b8 3b a3 10 1a bd
       0.006895563 0.013554148 0.0056392415 -0.037613522
000100 e3 58 98 3c c8 4b d4 bb ba c8 e4 bb 58 08 5d 3c
       0.018597072 -0.0064787604 -0.0069819363 0.013490759
000110 c3 d2 bd bc 81 39 51 3c c6 db 18 bc 15 2b 3e bc
       -0.023171788 0.012770058 -0.009329742 -0.011606951
000120 c5 a5 c1 bc 63 64 1f bc 40 fb c6 bc 78 4c d5 bc
       -0.023638615 -0.009728524 -0.024289727 -0.02603744
000130 f4 a7 cb 3c ec c2 8a 3c 27 3e eb 3b 98 2f 0a bb
       0.02486036 0.01693865 0.00717904 -0.0021085497
000140 e7 ff a8 bc 4a dc c7 3c ce 65 93 bc 5e f7 96 bb
       -0.020629836 0.024397034 -0.01799288 -0.004607125
000150 54 a7 64 bc 89 7d e8 bc bf cf 16 bc 95 15 a1 ba
       -0.01395591 -0.028380172 -0.009204804 -0.0012289757
000160 ac c2 71 bc 25 c1 8d bc 06 3f 6a 3c 8c 3d 27 3c
       -0.014755886 -0.017304013 0.0142972525 0.010207545
000170 7c eb 06 3d 96 1a 8e 3b 52 a7 ad bc 71 2a 54 bb
       0.03293942 0.0043366654 -0.021197949 -0.003237393
000180 4b f4 08 3b 80 14 74 bc 90 55 84 bc 2b 87 04 3b
       0.0020897563 -0.014897466 -0.01615408 0.0020222168
000190 6a fc 7d bc 35 8b cc bc 24 ba b4 3c 25 79 92 bc
       -0.015502075 -0.024968723 0.022061415 -0.017880032
0001a0 20 e5 95 3c b1 f4 dc bb 28 74 0e bd 5c 0e db bc
       0.018297732 -0.0067430367 -0.034778744 -0.026740246
0001b0 e3 32 b1 3b 35 f9 c6 bb 3a 77 0f bc 33 d6 38 3a
       0.0054076775 -0.0060721883 -0.008756453 0.0007050961
0001c0 04 d4 d0 bc da a3 f1 bb 72 ee 95 bc c3 6a 1f 3d
       -0.025491722 -0.007374269 -0.018302176 0.038920175
0001d0 0f b2 7c bc 5c 4b 02 3c 3c 82 21 bc 1c 02 f6 3c
       -0.015423312 0.007952537 -0.00985771 0.030030303
0001e0 64 38 b6 3c a8 68 c8 3a ac db 64 bc 00 12 ae 3b
       0.022243686 0.0015289979 -0.0139683895 0.0053122044
0001f0 b4 bb 96 bb 98 6c 6b bc 3e 46 e6 bb f4 1a 22 3d
       -0.0046000127 -0.0143691525 -0.0070274165 0.039576486

act.action_out.linear.bias f4 [2]
000000 a1 3c 9d bb a8 3c 9d 3b
       -0.0047984873 0.0047984906
