light_mappo-main/results/MyEnv/MyEnv/mappo/check/run66/models/critic.pt (torch, 41397 bytes, 15 tensors)

base.feature_norm.weight f4 [4]
000000 83 ee 7e 3f 3d c3 7e 3f 96 7d 80 3f 49 54 81 3f
       0.9958269 0.9951666 1.0038326 1.0103847

base.feature_norm.bias f4 [4]
000000 a0 96 09 3b a2 71 52 bb ef e2 fc 39 6a a4 c6 3a
       0.002099432 -0.0032111187 0.00048234264 0.00151552

base.mlp.fc1.0.weight f4 [64, 4]
000000 c9 92 fe 3d 40 61 64 bd 66 88 22 bc dc c3 a4 bc
       0.12430341 -0.055756807 -0.009920215 -0.020112924
000010 b0 2b 91 3e a4 6e 65 bd be 4b 31 bd b7 85 ad bc
       0.28353643 -0.05601372 -0.043285124 -0.021181924
000020 08 c1 7a bc 25 e4 66 3e 26 b2 86 bc 16 66 d6 3d
       -0.015304811 0.22547968 -0.01644237 0.1046869
000030 1d 72 09 3e 7c 4b 50 3e 4f d1 7c bd 46 f8 df 3d
       0.13422437 0.20341295 -0.06172305 0.10936026
000040 c4 e7 13 3e 54 ed db 3d 1c 07 a3 bb 40 4a 75 3e
       0.1444388 0.10738626 -0.0049752127 0.23954105
000050 40 bd 91 bd a4 fc 8d 3d 9f c9 6d 3d 8b 90 11 3c
       -0.07116175 0.06932953 0.05805361 0.008884559
000060 70 9f 82 be d4 2b 5b be ce b1 a2 be 01 f2 6c be
       -0.25512266 -0.21403438 -0.3177628 -0.23139192
000070 bd 91 4c 3e dc c9 58 be 59 04 a4 3d 7d 42 13 be
       0.1997747 -0.21170753 0.08008642 -0.14380832
000080 78 bd 06 bd 39 80 49 bd 17 24 67 3e 79 d2 4c be
       -0.032895535 -0.04919455 0.22572361 -0.20002164
000090 e0 af a9 be 27 69 f1 3d 42 d2 72 3e 00 37 f6 bd
       -0.33141994 0.11787634 0.2371302 -0.12022209
0000a0 8f ad 85 3e bf ec 8b bd 0d 84 a2 3d 64 2e 54 bd
       0.26108977 -0.06832265 0.07935343 -0.051802054
0000b0 c2 7f 9d bc de 38 92 be ce ca dd 3d 66 77 3b 3f
       -0.019225959 -0.2855901 0.108296975 0.7322906
0000c0 7d 9a 2d bd 38 9e ac bd 08 e5 88 be a7 4e 32 be
       -0.04238366 -0.08428615 -0.26737237 -0.17412816
0000d0 37 dc e8 bc dc bc 3d 3e 75 fd 91 be eb e6 3b bd
       -0.02842532 0.18529075 -0.28513685 -0.045874517
0000e0 36 56 88 3d e5 d5 dd bd 83 86 0d be 87 45 c1 3d
       0.066570684 -0.10831813 -0.13820843 0.094370894
0000f0 8f 5d 48 bd d9 d1 be be 24 43 f0 be 50 c6 c9 3d
       -0.04891735 -0.37269476 -0.46926224 0.09852278
000100 2b 67 ce be 13 4c 92 3e bc 25 c9 3d d0 7b 81 bd
       -0.40313086 0.28573665 0.098216504 -0.063224435
000110 6c 44 64 be e6 f1 fe bd ab d3 18 3e e3 3f bb bd
       -0.22291726 -0.12448482 0.14924495 -0.09143045
000120 41 80 da bb 55 8a 03 3e 12 8a d0 3d 0a 3d 92 3d
       -0.006668121 0.12845738 0.10182585 0.071405485
000130 eb ac 92 be 69 89 0b be 84 47 a2 3e 5c 2c e9 bd
       -0.2864755 -0.13626637 0.31695187 -0.11385414
000140 c7 8d b8 bd 3f f0 9a 3d 4c b0 c5 bb 0d 74 9d bc
       -0.09011417 0.075653546 -0.006032979 -0.019220376
000150 b8 a1 87 3e 57 6f 4a 3e 7c ca 8f be 14 d3 6e 3e
       0.2649057 0.19769035 -0.2808417 0.23322707
000160 c6 05 58 be 08 47 58 3e 59 f9 24 be f5 ca 85 3d
       -0.21095952 0.21120846 -0.16110744 0.065328516
000170 bd 7f d1 3d 17 3b 34 be 0a d1 87 3d a1 34 ab bc
       0.10229442 -0.17600666 0.06631668 -0.020899119
000180 1f 69 01 3e 39 c6 0f be 32 7d 82 be 51 4f 7f 3d
       0.12637757 -0.1404046 -0.2548614 0.0623315
000190 a4 40 01 bd c3 83 7c be 9b 1a 84 3e 93 e2 67 bd
       -0.031555787 -0.24659638 0.25801548 -0.056612562
0001a0 2b 84 41 be a0 df 0b 3e 89 5e 10 be 47 dd 63 3c
       -0.18898074 0.13659525 -0.14098562 0.013907737
0001b0 84 e2 bc bc 31 ec 98 be 25 48 41 3e cd 28 46 bd
       -0.02305723 -0.298677 0.18875177 -0.048378754
0001c0 a2 c0 ae 3c b3 71 43 3e ef 17 8d 3d 70 72 c7 3c
       0.021332089 0.19086342 0.068893306 0.02434656
0001d0 ec 3d 2f be 73 3f 75 3e 54 4d 32 3d d4 0d 3e be
       -0.17113465 0.23949985 0.043530777 -0.18559963
0001e0 0c e3 c4 3e 50 93 47 bd bb 97 da 3e 22 39 3f be
       0.38454473 -0.048724473 0.42693886 -0.18674138
0001f0 e2 dc 7c be 63 b3 26 be 88 3f 98 bd 6e cb d0 3d
       -0.24693635 -0.16279368 -0.074339926 0.10195051
000200 9b a9 ac 3d 92 92 85 be 86 bd d9 be 6f 08 a2 be
       0.08430787 -0.26088387 -0.42527407 -0.3164706
000210 96 34 20 3e a2 9c 44 3e 31 75 2c be cd 5f 50 3e
       0.1564506 0.19200376 -0.1684158 0.20349045
000220 51 5c d3 bd 14 25 34 bd 98 54 09 be 9b 58 cb bd
       -0.10320342 -0.043980673 -0.13411176 -0.099290095
000230 01 a9 6d be 8f 33 db bc 43 a4 45 3e a1 bc 85 be
       -0.23209001 -0.026757983 0.19300942 -0.26120475
000240 3f 6d 29 3e 69 c1 df 3c 04 5e 51 bd dd fe 89 3d
       0.1654558 0.027313905 -0.05111505 0.067380644
000250 8d c2 48 3d 10 d0 92 3d a1 a8 06 be 84 32 f7 bd
       0.049013663 0.07168591 -0.13150264 -0.12070182
000260 ec f9 c6 3e 2a 72 d4 3d c4 54 91 bd 42 8b 7f be
       0.3886255 0.103733376 -0.07096246 -0.24955466
000270 14 c6 25 be 2d 53 71 be b0 bb 3d be 57 f1 13 3e
       -0.16188842 -0.23566885 -0.18528628 0.14447533
000280 68 f7 cd 3d 09 22 b8 be 27 45 9d 3d 6c 08 b4 3d
       0.100569546 -0.35963467 0.076792054 0.08790669
000290 98 82 59 3d 50 e7 c4 3c 74 78 56 bb e5 4e 02 3e
       0.05310306 0.02403608 -0.0032725604 0.12725408
0002a0 42 d2 85 be 18 f2 7c 3d 6f c7 64 be b6 61 23 3e
       -0.26136976 0.061754316 -0.22341703 0.15955243
0002b0 f4 81 8d 3c 7a 0c 7c 3e f0 77 bb bd dd 12 c4 be
       0.01727388 0.24614134 -0.09153736 -0.38295642
0002c0 15 55 ce 3c 32 73 5c 3e d2 38 55 3e dc f7 90 bd
       0.025187055 0.21528319 0.20822456 -0.070785254
0002d0 bd 8e 3b be fe d6 cf be 96 70 6b 3d d6 20 c3 bd
       -0.18316169 -0.40593714 0.057480417 -0.09527747
0002e0 b0 cf 31 be f4 f6 5f bd 35 35 b2 bd 93 b1 0d 3e
       -0.17364383 -0.054678872 -0.08701555 0.1383727
0002f0 40 1d 2f 3e 66 c2 20 3e 97 da bb 3d 2a d6 aa 3d
       0.17101002 0.15699157 0.09172552 0.0834163
000300 fa 9f 37 3e 9e ec 45 be e6 b8 e8 bd 97 c3 48 3d
       0.1793212 -0.19328544 -0.113633916 0.049014654
000310 3f 59 fc bc b9 45 ad be 97 be 08 bb 3b 11 17 be
       -0.030804275 -0.33842257 -0.0020865554 -0.14752667
000320 92 f4 da bd 35 a2 b6 bc db 94 14 be 46 ad aa bd
       -0.10691179 -0.022294143 -0.14509909 -0.083338305
000330 60 7b 98 bd d4 4c 73 3c 4c 4b 4b be d5 2d 5a be
       -0.07445407 0.01484986 -0.19852942 -0.21306546
000340 49 ae 66 bd 35 02 02 3a d2 ee 38 3e c7 0b 18 3e
       -0.056318555 0.00049594353 0.18059853 0.14848243
000350 32 36 5d be 45 3a 3b 3e b5 c7 54 be da c7 82 3e
       -0.21602705 0.18283947 -0.20779307 0.255431
000360 d1 ff 72 3e 43 48 eb bc 97 55 2c 3e 78 8f a8 3d
       0.23730399 -0.02872098 0.16829525 0.082304895
000370 e3 e8 41 be 95 cd 98 bd 44 86 af 3d 6d 20 14 be
       -0.18936495 -0.07461087 0.08570531 -0.14465494
000380 37 28 7f 3d bd b6 90 be 36 9d 61 3c e2 06 eb 3d
       0.06229421 -0.28264418 0.013770392 0.11475922
000390 67 76 19 be 43 5d 0a 3e 75 90 a7 3d ac 55 a2 3e
       -0.14986573 0.13512139 0.0818185 0.31705987
0003a0 3c a3 05 3e 8f 60 c8 3d f8 d7 10 be 5d 6f b7 bd
       0.1305055 0.09784042 -0.14144886 -0.08956788
0003b0 76 62 a5 bc 20 30 f3 3c 85 34 a3 bd 62 c3 2f be
       -0.020188551 0.029686034 -0.07969002 -0.17164376
0003c0 35 f7 9e be ff a1 1d be ba 9e 43 3e 67 1b 9c 3e
       -0.3104798 -0.15393828 0.19103518 0.30489656
0003d0 8e e6 e3 bb 7f 9d 15 3d bc d1 2f bd e1 8a 53 3e
       -0.0069549745 0.036527153 -0.042924628 0.20658447
0003e0 74 a3 b1 bb e1 05 8a ba a6 30 96 3c e3 9e 10 b8
       -0.0054210965 -0.0010530317 0.018333744 -3.448025e-05
0003f0 d2 9d 34 3e ca 57 8c 3d eb 79 1a 3e cd 96 da 3d
       0.17638329 0.06852682 0.1508557 0.10673294

base.mlp.fc1.0.bias f4 [64]
000000 a9 1a 00 bb 99 96 fa 3b 68 a5 d8 bb 31 ba a8 3a
       -0.001954714 0.007647347 -0.006611515 0.0012872872
000010 86 d4 bc bb 29 8a 99 3b bc 63 94 3b 1b 8a 42 bb
       -0.0057626395 0.0046856594 0.004528491 -0.0029684368
000020 6a 8a 8d 3b e6 77 fd 3a 84 96 b3 3a 3c 18 2b 3c
       0.0043194788 0.0019338101 0.0013701473 0.01044279
000030 38 ec 6b 39 f8 3e 10 39 f6 6c d9 ba 75 f1 ee bb
       0.00022499345 0.00013756368 -0.0016588259 -0.0072919675
000040 4e c1 8d 3b e9 fa 84 bc 91 05 27 bc de 5f 46 3b
       0.004326022 -0.016232925 -0.010194198 0.0030269544
000050 71 6c ad bb 42 0f 94 3a 36 94 23 3b 8b 7e 29 3c
       -0.0052924682 0.0011296051 0.0024960167 0.010345112
000060 8a 37 62 3b 27 17 89 3a 23 32 70 3a a1 bc 93 3b
       0.0034517967 0.001045917 0.00091627444 0.0045085703
000070 ed 3c 97 3b b8 11 64 bb da b5 13 3b c3 15 06 3c
       0.004615417 -0.00348006 0.0022538812 0.008183899
000080 cf 49 94 bb 1b 62 13 bb 54 32 22 3b b1 70 3b bb
       -0.0045254 -0.0022488895 0.0024749236 -0.0028601105
000090 c9 92 0b ba a0 4b 1c 3b e3 6b ee 3a d2 94 c3 3a
       -0.0005324302 0.0023848787 0.0018190112 0.0014921671
0000a0 42 2a 20 bc da ed b3 ba d0 77 a9 3b 92 c1 a0 3b
       -0.0097757 -0.0013727502 0.0051717535 0.004905888
0000b0 86 1b b5 3a 23 e2 c1 bb 1e cb 3c bc 4a ae 14 3a
       0.0013817407 -0.00591685 -0.011523036 0.0005671723
0000c0 27 58 73 3b 6c ec d8 bb 65 36 1f 3a 57 75 0c ba
       0.00371314 -0.0066199806 0.0006073474 -0.0005358061
0000d0 72 72 99 3b 66 f3 95 ba c7 90 dc 3b 58 ed 1b 38
       0.0046828324 -0.0011440336 0.006731126 3.7175923e-05
0000e0 43 11 d7 b9 e3 37 39 3b 4c 4c c0 ba 2a 61 15 bc
       -0.00041020857 0.002826207 -0.0014671176 -0.009117404
0000f0 a2 bd ea bb de 4a 70 bb fe 46 71 bc 32 a0 5f bb
       -0.0071637193 -0.0036665718 -0.0147263985 -0.0034122583

base.mlp.fc1.2.weight f4 [64]
000000 46 9a 7f 3f 7d 7a 7d 3f 52 c3 7f 3f eb 6f 80 3f
       0.9984478 0.9901503 0.9990741 1.0034155
000010 a3 92 7e 3f 95 da 7e 3f 60 27 7f 3f c8 62 80 3f
       0.994425 0.9955228 0.99669456 1.0030146
000020 53 46 81 3f c7 c0 7f 3f 6e cb 80 3f 71 d8 80 3f
       1.0099586 0.9990353 1.0062082 1.0066053
000030 5c 94 7e 3f b7 95 7f 3f 24 cf 7e 3f 1c a2 7d 3f
       0.9944513 0.9983782 0.9953482 0.99075484
000040 f9 01 80 3f 42 8b 80 3f 8f 7a 7f 3f d0 24 80 3f
       1.0000602 1.0042498 0.99796385 1.0011234
000050 b3 66 80 3f e7 a5 80 3f df 11 7e 3f 21 62 80 3f
       1.0031341 1.0050629 0.9924602 1.0029947
000060 4e b7 80 3f 9a b3 7f 3f 69 88 7e 3f 0a 5e 7e 3f
       1.005594 0.99883425 0.99426895 0.9936224
000070 60 ab 7f 3f 19 90 80 3f ee 14 81 3f b8 dd 80 3f
       0.9987087 1.0043975 1.0084512 1.0067663
000080 13 2f 7f 3f 8f 4e 7f 3f be 32 7e 3f 5c 11 7f 3f
       0.99681205 0.99729246 0.99296176 0.99635863
000090 60 4e 7e 3f 83 a2 80 3f c8 85 80 3f c6 4e 80 3f
       0.9933834 1.0049595 1.0040827 1.002404
0000a0 71 7d 7e 3f 0d e5 7e 3f b8 73 7e 3f 6b 75 81 3f
       0.9941016 0.99568254 0.9939532 1.0113958
0000b0 e5 82 7e 3f 26 8b 7f 3f 3f 8a 7e 3f 69 74 7f 3f
       0.9941848 0.998217 0.99429697 0.99787
0000c0 ed 4c 7e 3f 5f 9e 7f 3f a6 1c 80 3f 60 75 7f 3f
       0.9933613 0.9985103 1.0008743 0.99788475
0000d0 d9 41 80 3f e8 c4 81 3f 05 72 80 3f a1 d2 7e 3f
       1.0020095 1.0138216 1.0034796 0.99540144
0000e0 60 4c 80 3f a5 66 81 3f 44 c3 7e 3f ec 10 80 3f
       1.0023308 1.010945 0.995167 1.0005164
0000f0 33 e0 7e 3f c8 af 7f 3f 9a 58 7f 3f eb 30 81 3f
       0.9956085 0.99877596 0.9974457 1.0093054

base.mlp.fc1.2.bias f4 [64]
000000 84 cb 0a 3a d7 b8 0c 3c c3 0c 8f bb 28 96 f3 3a
       0.00052946084 0.008588991 -0.004365535 0.0018584179
000010 0f 1e a0 bb 10 81 93 3b 20 29 86 3b 2c 8c 27 bb
       -0.0048863958 0.0045014694 0.004094258 -0.0025565727
000020 ed c4 5d 3b dc da 04 3a 6c c8 ad bb 8f c6 0d 3b
       0.00338393 0.0005068013 -0.005303433 0.0021633243
000030 e2 a0 db 3a e2 34 5e 3a c9 69 dd 3a 0d c4 2b bb
       0.0016756321 0.0008476508 0.0016892488 -0.0026209385
000040 bc 67 5b 3b d8 6b bb bb 18 bd 41 b8 70 ef db ba
       0.0033478579 -0.005719643 -4.6190893e-05 -0.0016779732
000050 03 ad 80 bb 05 ad 83 bb 81 21 39 3b b1 be 11 ba
       -0.0039268746 -0.0040184283 0.002824873 -0.0005559726
000060 a5 b9 b8 3a d4 0a 74 3a 5b 69 3e 39 65 78 d8 3b
       0.0014093412 0.0009309475 0.0001815906 0.006606149
000070 53 22 9f 3b 64 50 2b bb ad 6f b5 39 b9 18 86 ba
       0.0048563867 -0.0026140446 0.00034606215 -0.0010230757
000080 72 ca 4e bb 22 4f 88 ba 6a 86 50 3b a5 23 ad ba
       -0.0031553772 -0.001039956 0.0031818398 -0.0013209475
000090 09 19 92 3b 9c ef 0e 3b 5e c2 4c 37 0a 5c cb ba
       0.004458551 0.0021810299 1.2204602e-05 -0.0015515101
0000a0 e8 e4 a4 3b 85 1b 68 b9 80 c2 e1 3b ad 59 cc 3a
       0.0050321706 -0.00022135496 0.0068896413 0.001559069
0000b0 d5 77 31 3a 54 94 26 bb ac d2 86 39 54 08 d4 ba
       0.00067698705 -0.0025418 0.00025715434 -0.0016176798
0000c0 a2 bf 54 3a 21 32 02 3a c3 ed 5e ba ee 81 59 3b
       0.0008115714 0.0004966576 -0.0008504057 0.0033189016
0000d0 17 e8 31 bb 7c c9 f2 bb a1 b4 1b bb 4c 63 b8 ba
       -0.0027146393 -0.0074092727 -0.0023758786 -0.0014067679
0000e0 82 f9 23 3b 43 b1 9b b8 a2 b1 1c ba 5f 21 0c bc
       0.0025020544 -7.4239935e-05 -0.0005977397 -0.008552878
0000f0 79 75 89 ba fe e6 f9 3a bd 91 37 3b fd b2 27 bc
       -0.001048728 0.0019066033 0.002801045 -0.010235545

base.mlp.fc_h.0.weight f4 [64, 64]
000000 ca 57 87 be ba b2 35 be 49 b2 78 bc b1 97 04 3e
       -0.26434165 -0.1774396 -0.015179225 0.1294849
000010 c7 d0 56 3e 14 5c 47 3e 41 1f 8f 3e 96 30 b6 3b
       0.2097808 0.19468719 0.27953532 0.005559991
000020 30 ba ec bc b5 b7 c5 3d a2 56 9d 3e 5f a4 18 3d
       -0.028897375 0.0965418 0.30730158 0.03726613
000030 e0 d6 8a 3d ed 7f 33 bd 96 d5 0b be f1 9d 43 bd
       0.067792654 -0.04382317 -0.13655695 -0.047758047
000040 a8 79 7a 3d c9 70 f4 3e 2c 4f 31 bd fe 70 05 3e
       0.061151177 0.47742298 -0.043288395 0.13031384
000050 63 91 90 3d a5 92 51 be 92 89 c5 be f3 2f a1 bd
       0.0705898 -0.20466097 -0.3858152 -0.07870474
000060 d2 67 1a be 49 25 37 3e 21 53 c5 3d 16 58 e6 3d
       -0.15078667 0.17885317 0.09634996 0.1124727
000070 27 26 2f be ca ca 0b 3e 2f a4 26 be b7 3d 7d 3d
       -0.17104398 0.13651577 -0.16273569 0.061826434
000080 f2 02 f9 3d d8 0a 90 bc c8 d6 c7 bc 82 da 73 be
       0.12158765 -0.017583296 -0.024394408 -0.23813823
000090 2a 3f 14 be de 2a 83 bd 8d c8 1f 3d 91 8a 87 be
       -0.1447722 -0.06404661 0.03900962 -0.26472905
0000a0 5f 47 95 be 58 0e eb bd 9f a4 94 3d 8e 99 d4 be
       -0.29156014 -0.11477345 0.072579615 -0.41523403
0000b0 81 7c d2 be 9c 47 c0 bd c9 31 d4 3d 1c 65 60 bd
       -0.41110614 -0.093886584 0.10361058 -0.054783925
0000c0 50 6c 5e 3d c9 79 ea 3d 3c 8c 75 be 30 da fa 3d
       0.054302514 0.1144901 -0.23979276 0.12248647
0000d0 d6 fd 60 3d 45 41 16 be 40 e8 57 be 93 6f b3 3d
       0.054929577 -0.14673336 -0.2108469 0.087615155
0000e0 d4 4f 86 be 6a e9 55 be 96 02 4d 3d 87 37 98 bd
       -0.2623278 -0.20889822 0.050051294 -0.07432466
0000f0 ba 02 55 be 5f 43 ee bc 0b 89 19 3d 9b 65 ea bd
       -0.20801821 -0.02908486 0.03748421 -0.11445161
000100 e9 78 4f be 7a 33 f8 bc 8e 91 84 bb a5 10 88 bd
       -0.20260967 -0.030297983 -0.004045672 -0.066438
000110 e0 4d db bc 0e 12 a2 be f1 d3 99 3d 41 d7 50 3d
       -0.026770532 -0.316544 0.07511128 0.050986532
000120 65 10 55 be 14 e3 a1 3e 41 9e 29 3e d9 98 b9 bd
       -0.20807035 0.3161856 0.16564275 -0.090623565
000130 1c d4 c8 bd 3b 9c 8d bd f5 58 85 be 53 de f1 3c
       -0.09806082 -0.06914564 -0.2604443 0.029524958
000140 9d 13 e3 3d a9 e7 bc bd 11 88 c0 bc 31 42 1d 3e
       0.11087725 -0.09223873 -0.023502382 0.15357281
000150 e3 07 30 3d 68 e5 49 3d 48 f3 45 be 75 fa 9d bd
       0.04297627 0.049291044 -0.19331086 -0.077137865
000160 07 18 a6 bd 22 b5 78 ba 18 79 8e 3e a6 dc 19 bd
       -0.081100516 -0.000948744 0.27826762 -0.037563942
000170 8f 49 8e bc ee 63 21 bd 90 d7 80 3e d2 53 77 3e
       -0.01736906 -0.03940194 0.2516446 0.24153069
000180 08 23 af bd a4 ae 54 3e b4 00 5f be f8 37 83 3e
       -0.085516036 0.20769745 -0.21777612 0.25628638
000190 71 c0 15 3e 1e 27 63 3e 04 f2 ad bd ca 38 c5 bc
       0.14624192 0.22182891 -0.084934264 -0.02407493
0001a0 7f 5f 03 be 78 b0 67 3e 76 5f 88 3e ac 33 0b be
       -0.12829398 0.22625911 0.2663533 -0.1359393
0001b0 26 23 68 3e 05 80 dc bd 27 dd 94 3e db 60 5f be
       0.22669658 -0.10766605 0.29074976 -0.21814291
0001c0 81 eb 2a be e8 c5 f5 be 35 e9 21 3e c6 7d f9 3c
       -0.166914 -0.48002553 0.15811618 0.030455481
0001d0 bc 41 41 bd 0c 16 e4 36 f9 66 b1 bd 36 65 64 bc
       -0.04718183 6.797496e-06 -0.086622186 -0.013940146
0001e0 fc 90 ca 3d 72 b0 3b bc 74 be e7 3d d8 f2 c6 3e
       0.09890935 -0.011455642 0.11315623 0.3885715
0001f0 83 f5 51 be 29 05 20 be 1d e9 fb 3c 98 55 c7 3e
       -0.20503812 -0.15626968 0.030750806 0.3893249
000200 6f b9 ad 3c a8 f9 b2 be 80 f5 26 3e 8f 51 15 be
       0.021206586 -0.34956098 0.16304588 -0.14581893
000210 8d 58 43 be f5 52 de 3e 60 b5 24 be 05 5c 10 be
       -0.19076748 0.43422666 -0.16084814 -0.14097603
000220 28 a8 fd bd 57 23 fc 3d 79 45 59 3e 5d 50 86 bd
       -0.12385589 0.12311428 0.21217908 -0.06558297
000230 a6 e2 ac bd cf 06 23 3e fb 84 e4 bd be 76 45 3d
       -0.08441667 0.15920566 -0.111581765 0.048208944
000240 de 2f 07 be f2 e3 d5 3e c8 9b d3 bd eb 9a 50 3e
       -0.13201854 0.4177547 -0.10332447 0.20371597
000250 89 74 17 3e ce 8e ae 3e fb b3 23 be 3a 92 4e be
       0.14790548 0.34093326 -0.15986626 -0.20172969
000260 eb ee 03 bc 45 d6 1d be 2b 95 d2 bd f1 8a c7 bd
       -0.008052568 -0.15413769 -0.10282358 -0.09743298
000270 b8 4d 5a 3e b3 a9 12 bd 10 f5 80 ba 42 2b 6d bd
       0.2131871 -0.03580637 -0.0009838659 -0.057902582
000280 f9 39 21 be af 23 e3 3d 05 01 6c 3d a3 56 df bd
       -0.15744771 0.110907905 0.05761816 -0.109051965
000290 45 5c 9f 3e a0 22 cd bd 4e 8d 9f 3d 55 59 93 3d
       0.31125084 -0.1001637 0.077906236 0.07194773
0002a0 57 0d 11 3e e8 54 c3 3c 95 00 87 3d 80 7c 3b 3d
       0.14165245 0.023844197 0.06591908 0.04577303
0002b0 cd 8d 55 3e 34 59 3f 3e 6a e5 90 3e 2c d7 76 3e
       0.20854874 0.18686372 0.2830003 0.24105519
0002c0 3e de 16 be 53 a9 6d 3d 00 06 8e bb 98 eb 49 3e
       -0.14733216 0.05802281 -0.0043342113 0.19718778
0002d0 79 c7 01 3e 76 4d 4d 3e 45 c1 01 3e db fb 68 3e
       0.12673749 0.2004908 0.12671383 0.22752325
0002e0 80 78 90 3d a0 7a 45 be 26 77 d4 be b7 65 ba 3d
       0.070542336 -0.19285059 -0.41497153 0.09101432
0002f0 5e bf 7d 3e b5 68 b1 bb 21 62 60 bd 6e 46 26 bb
       0.24780032 -0.0054140934 -0.054781083 -0.002537157
000300 a2 af 5b 3e 99 95 14 bd 0b 7d b6 be bc a9 9f bd
       0.21453717 -0.03627548 -0.35642275 -0.07796046
000310 9e 3a 8e be 96 4e 13 be 94 ba 4a bc d7 64 f8 3d
       -0.27779096 -0.14385447 -0.012373585 0.12128609
000320 ef 3b 79 3d 0a 00 4a be 53 d5 c2 3d 25 43 a6 3e
       0.060848173 -0.19726577 0.095133446 0.32473102
000330 a8 86 45 bd d6 69 b0 3d 0b be 2d be 49 82 a5 3c
       -0.04822412 0.086139366 -0.16967027 0.020203726
000340 c0 bc a7 bd 06 ec 58 3e 16 73 8c 3e 05 99 84 3d
       -0.08190298 0.21183786 0.27431554 0.06474499
000350 25 1a 16 3d bb dd a9 be 29 62 49 be a0 d4 1d bd
       0.036646027 -0.3317698 -0.19666351 -0.038532853
000360 b0 dc 43 bd 18 4e a7 3d 6c 24 63 3e b0 2b 58 be
       -0.047817886 0.08169192 0.22181863 -0.21110415
000370 ad ab 9f 3c b8 08 68 3c 96 07 4b 3e d0 2a c3 bd
       0.019491041 0.014162235 0.19827113 -0.0952965
000380 63 e4 9c 3c 15 b0 61 3d 16 ea ad be 1b 57 2f be
       0.019151872 0.055099566 -0.33967656 -0.17123072
000390 e9 6d 13 be e2 ab 73 be 56 1e a8 bd 4b 42 bd bb
       -0.14397396 -0.23796037 -0.08208911 -0.005775725
0003a0 bb 2d 50 3e 7c 40 8d be b3 8a c2 3c 04 2d 33 be
       0.20329945 -0.2758826 0.023747778 -0.17497641
0003b0 fb d5 57 3e e6 cf a1 3e f1 50 11 be a6 48 1d be
       0.21077721 0.31603926 -0.14191033 -0.15359744
0003c0 b1 bf 11 3e d8 1d 60 3d f9 89 6e 3e 9a a0 df 3d
       0.1423328 0.05471596 0.2329482 0.10919304
0003d0 98 99 e2 bd e1 4e 56 be 89 e0 81 3d 0e 35 bb 3e
       -0.11064452 -0.20928527 0.06341655 0.36563915
0003e0 f1 15 b5 3e a6 80 86 3e 23 f3 88 bd 2b 51 71 3c
       0.35368302 0.26270026 -0.06687 0.014728825
0003f0 98 22 ab bd d2 15 f9 3d e7 09 66 bd b9 e4 d0 bc
       -0.083562076 0.12162365 -0.056161787 -0.025499688

base.mlp.fc_h.0.bias f4 [64]
000000 00 00 00 00 00 00 00 00 00 00 00 00 00 00 00 00
       0.0 0.0 0.0 0.0
000010 00 00 00 00 00 00 00 00 00 00 00 00 00 00 00 00
       0.0 0.0 0.0 0.0
000020 00 00 00 00 00 00 00 00 00 00 00 00 00 00 00 00
       0.0 0.0 0.0 0.0
000030 00 00 00 00 00 00 00 00 00 00 00 00 00 00 00 00
       0.0 0.0 0.0 0.0
000040 00 00 00 00 00 00 00 00 00 00 00 00 00 00 00 00
       0.0 0.0 0.0 0.0
000050 00 00 00 00 00 00 00 00 00 00 00 00 00 00 00 00
       0.0 0.0 0.0 0.0
000060 00 00 00 00 00 00 00 00 00 00 00 00 00 00 00 00
       0.0 0.0 0.0 0.0
000070 00 00 00 00 00 00 00 00 00 00 00 00 00 00 00 00
       0.0 0.0 0.0 0.0
000080 00 00 00 00 00 00 00 00 00 00 00 00 00 00 00 00
       0.0 0.0 0.0 0.0
000090 00 00 00 00 00 00 00 00 00 00 00 00 00 00 00 00
       0.0 0.0 0.0 0.0
0000a0 00 00 00 00 00 00 00 00 00 00 00 00 00 00 00 00
       0.0 0.0 0.0 0.0
0000b0 00 00 00 00 00 00 00 00 00 00 00 00 00 00 00 00
       0.0 0.0 0.0 0.0
0000c0 00 00 00 00 00 00 00 00 00 00 00 00 00 00 00 00
       0.0 0.0 0.0 0.0
0000d0 00 00 00 00 00 00 00 00 00 00 00 00 00 00 00 00
       0.0 0.0 0.0 0.0
0000e0 00 00 00 00 00 00 00 00 00 00 00 00 00 00 00 00
       0.0 0.0 0.0 0.0
0000f0 00 00 00 00 00 00 00 00 00 00 00 00 00 00 00 00
       0.0 0.0 0.0 0.0

base.mlp.fc_h.2.weight f4 [64]
000000 00 00 80 3f 00 00 80 3f 00 00 80 3f 00 00 80 3f
       1.0 1.0 1.0 1.0
000010 00 00 80 3f 00 00 80 3f 00 00 80 3f 00 00 80 3f
       1.0 1.0 1.0 1.0
000020 00 00 80 3f 00 00 80 3f 00 00 80 3f 00 00 80 3f
       1.0 1.0 1.0 1.0
000030 00 00 80 3f 00 00 80 3f 00 00 80 3f 00 00 80 3f
       1.0 1.0 1.0 1.0
000040 00 00 80 3f 00 00 80 3f 00 00 80 3f 00 00 80 3f
       1.0 1.0 1.0 1.0
000050 00 00 80 3f 00 00 80 3f 00 00 80 3f 00 00 80 3f
       1.0 1.0 1.0 1.0
000060 00 00 80 3f 00 00 80 3f 00 00 80 3f 00 00 80 3f
       1.0 1.0 1.0 1.0
000070 00 00 80 3f 00 00 80 3f 00 00 80 3f 00 00 80 3f
       1.0 1.0 1.0 1.0
000080 00 00 80 3f 00 00 80 3f 00 00 80 3f 00 00 80 3f
       1.0 1.0 1.0 1.0
000090 00 00 80 3f 00 00 80 3f 00 00 80 3f 00 00 80 3f
       1.0 1.0 1.0 1.0
0000a0 00 00 80 3f 00 00 80 3f 00 00 80 3f 00 00 80 3f
       1.0 1.0 1.0 1.0
0000b0 00 00 80 3f 00 00 80 3f 00 00 80 3f 00 00 80 3f
       1.0 1.0 1.0 1.0
0000c0 00 00 80 3f 00 00 80 3f 00 00 80 3f 00 00 80 3f
       1.0 1.0 1.0 1.0
0000d0 00 00 80 3f 00 00 80 3f 00 00 80 3f 00 00 80 3f
       1.0 1.0 1.0 1.0
0000e0 00 00 80 3f 00 00 80 3f 00 00 80 3f 00 00 80 3f
       1.0 1.0 1.0 1.0
0000f0 00 00 80 3f 00 00 80 3f 00 00 80 3f 00 00 80 3f
       1.0 1.0 1.0 1.0

base.mlp.fc_h.2.bias f4 [64]
000000 00 00 00 00 00 00 00 00 00 00 00 00 00 00 00 00
       0.0 0.0 0.0 0.0
000010 00 00 00 00 00 00 00 00 00 00 00 00 00 00 00 00
       0.0 0.0 0.0 0.0
000020 00 00 00 00 00 00 00 00 00 00 00 00 00 00 00 00
       0.0 0.0 0.0 0.0
000030 00 00 00 00 00 00 00 00 00 00 00 00 00 00 00 00
       0.0 0.0 0.0 0.0
000040 00 00 00 00 00 00 00 00 00 00 00 00 00 00 00 00
       0.0 0.0 0.0 0.0
000050 00 00 00 00 00 00 00 00 00 00 00 00 00 00 00 00
       0.0 0.0 0.0 0.0
000060 00 00 00 00 00 00 00 00 00 00 00 00 00 00 00 00
       0.0 0.0 0.0 0.0
000070 00 00 00 00 00 00 00 00 00 00 00 00 00 00 00 00
       0.0 0.0 0.0 0.0
000080 00 00 00 00 00 00 00 00 00 00 00 00 00 00 00 00
       0.0 0.0 0.0 0.0
000090 00 00 00 00 00 00 00 00 00 00 00 00 00 00 00 00
       0.0 0.0 0.0 0.0
0000a0 00 00 00 00 00 00 00 00 00 00 00 00 00 00 00 00
       0.0 0.0 0.0 0.0
0000b0 00 00 00 00 00 00 00 00 00 00 00 00 00 00 00 00
       0.0 0.0 0.0 0.0
0000c0 00 00 00 00 00 00 00 00 00 00 00 00 00 00 00 00
       0.0 0.0 0.0 0.0
0000d0 00 00 00 00 00 00 00 00 00 00 00 00 00 00 00 00
       0.0 0.0 0.0 0.0
0000e0 00 00 00 00 00 00 00 00 00 00 00 00 00 00 00 00
       0.0 0.0 0.0 0.0
0000f0 00 00 00 00 00 00 00 00 00 00 00 00 00 00 00 00
       0.0 0.0 0.0 0.0

base.mlp.fc2.0.0.weight f4 [64, 64]
000000 e1 1e 85 be c0 43 31 be 94 15 a3 bc ad fd 08 3e
       -0.2600012 -0.17311001 -0.01990775 0.1337802
000010 8f f0 5a 3e c0 c5 44 3e 1a 18 91 3e aa 47 22 3c
       0.21380828 0.1921606 0.283387 0.009904781
000020 42 ed c8 bc 80 0e bc 3d 96 90 9f 3e c6 04 05 3d
       -0.024527196 0.09182453 0.31164998 0.032475255
000030 df b8 93 3d a6 c4 4e bd 75 64 07 be a0 d8 31 bd
       0.07212996 -0.050480507 -0.13221915 -0.04341948
000040 2a e0 66 3d 5b 10 f7 3e c5 10 34 bd bd b3 00 3e
       0.056366123 0.48254666 -0.043961305 0.12568565
000050 3e 22 8a 3d a2 18 4d be a6 02 c8 be b8 4a 98 bd
       0.067448124 -0.20028928 -0.3906452 -0.074361265
000060 28 f5 15 be cf 95 3b 3e 64 97 bb 3d de 37 ef 3d
       -0.14644301 0.18318866 0.09159735 0.11680578
000070 2e b0 2d be 13 70 07 3e 1b 31 22 be 1d 78 6a 3d
       -0.16961738 0.13226347 -0.15839045 0.057243455
000080 c6 f3 00 3e a7 23 71 bc 96 95 a7 bc 52 76 6c be
       0.12592992 -0.014717973 -0.02045707 -0.2309201
000090 9a ce 0f be 4f 8c 74 bd 12 93 31 3d 49 50 8a be
       -0.14043656 -0.05970412 0.043353148 -0.27014378
0000a0 34 0f 93 be 29 ec e2 bd 6d a7 8a 3d e0 5f d2 be
       -0.28722537 -0.110802 0.06770215 -0.41088772
0000b0 ad a7 cf be 15 80 b6 bd 52 ad ca 3d 0a 9c 4e bd
       -0.40557614 -0.089111485 0.098963395 -0.05044178
0000c0 6b 30 70 3d a4 5d f3 3d c5 10 72 be 4e de 01 3e
       0.058639925 0.11883095 -0.2363921 0.12682459
0000d0 25 c9 51 3d 20 4b 1b be 43 75 53 be 38 53 c1 3d
       0.051217217 -0.15165377 -0.206502 0.09439701
0000e0 c4 16 84 be 79 cd 5a be c0 c8 5e 3d c8 4f 8f bd
       -0.2579862 -0.21367444 0.05439067 -0.06997639
0000f0 bb dd 59 be 2d 41 0d bd b8 6f 2b 3d de 7a e1 bd
       -0.2127599 -0.034485985 0.04185459 -0.11009763
000100 3c 27 43 be 62 e1 94 bc b4 c7 f4 bb ad de 82 bd
       -0.19057935 -0.018173877 -0.0074700955 -0.06390128
000110 b0 fb e4 bc cd db 9f be 3a b2 9f 3d 1c 8d 75 3d
       -0.027952045 -0.31222382 0.07797666 0.059949026
000120 cc f6 59 be 83 a5 9e 3e 33 4a 33 3e 34 42 b5 bd
       -0.21285552 0.3098565 0.17508774 -0.08850518
000130 b1 fe bf bd a8 e4 94 bd a4 16 84 be 1a 8b d9 3c
       -0.093747504 -0.07270175 -0.25798523 0.026555587
000140 1e e4 ca 3d 7a ab ae bd b3 56 a5 bc 59 8a 23 3e
       0.09906791 -0.085288 -0.020182943 0.15970744
000150 33 94 40 3d a3 9d 51 3d 1b ca 4b be d0 16 91 bd
       0.047016334 0.051175725 -0.19901316 -0.07084429
000160 02 01 a6 bd ba f5 7b 3b 27 5b 8b 3e b3 b7 02 bd
       -0.08105661 0.0038446025 0.2721798 -0.03191347
000170 ab 10 97 bc 9e a7 2f bd 21 54 7f 3e a3 1c 7c 3e
       -0.018440565 -0.04288446 0.24934436 0.24620299
000180 9a ac a9 bd c0 d6 53 3e 13 e7 54 be bf 43 7f 3e
       -0.08284874 0.2068739 -0.20791273 0.24928187
000190 41 76 1e 3e 4b 42 63 3e b4 1d b0 bd b4 cb c8 bc
       0.15474798 0.22193258 -0.085994154 -0.024511196
0001a0 0d 06 f7 bd c6 d7 6a 3e b1 a6 86 3e 94 ad 0d be
       -0.12061701 0.22933874 0.2629905 -0.13835746
0001b0 e3 9b 65 3e 95 bc cc bd 7d 55 94 3e 21 ab 56 be
       0.22422747 -0.09996907 0.28971472 -0.20963718
0001c0 fc 61 24 be 8c b7 f2 be 63 5c 24 3e 83 de ed 3c
       -0.16053003 -0.4740566 0.16050868 0.029036766
0001d0 f3 50 1f bd 0d ce 7d bb 5d e2 a4 bd fd ea 7c bc
       -0.03889556 -0.0038727552 -0.08050988 -0.015436885
0001e0 22 4b da 3d 46 9a 24 bc fa 88 e8 3d 2f 51 c7 3e
       0.10658862 -0.010046547 0.11354251 0.38929126
0001f0 3e b4 4c be 13 e2 20 be 02 f3 1c 3d 33 f1 ca 3e
       -0.19990632 -0.1571124 0.038317688 0.39637145
000200 71 5c 02 3d 45 3e ad be 44 25 1b 3e 25 a3 1e be
       0.03182644 -0.3383657 0.15150934 -0.15491922
000210 7e e2 4c be f2 c5 e2 3e 0c e4 29 be e1 7d 05 be
       -0.20008275 0.44291645 -0.16590899 -0.130363
000220 6c eb e7 bd 9f 23 08 3e 97 26 64 3e 8b c5 9e bd
       -0.113242 0.13294838 0.22280346 -0.07752522
000230 e1 af af bd fd ec 18 3e 0d 27 eb bd 21 39 21 3d
       -0.08578468 0.14934154 -0.11482058 0.039361123
000240 64 44 0a be 30 51 db 3e 9b 8b c1 bd 9b 5d 5b 3e
       -0.13502651 0.4283538 -0.09450456 0.21422426
000250 5c 5f 1f 3e 91 dc a9 3e e3 77 2f be 65 b4 43 be
       0.1556372 0.3317609 -0.17135577 -0.19111784
000260 b8 2e 66 bc cf f9 12 be 64 98 ea bd 24 d4 b1 bd
       -0.014049225 -0.14353107 -0.114548475 -0.08683041
000270 4b f9 62 3e e1 05 e4 bc 60 c7 1d 3c 0a 3c 6d bd
       0.2216541 -0.027834835 0.009630054 -0.057918586
000280 95 38 20 be 73 81 cf 3d 4c ff 8b 3d 84 e9 c9 bd
       -0.15646584 0.10132112 0.068358034 -0.09858993
000290 c0 86 a1 3e 90 c5 c5 bd d5 25 b7 3d f8 96 77 3d
       0.3154812 -0.09656823 0.08942763 0.06044671
0002a0 55 e9 1b 3e 2b a3 16 3d 2e fc 5e 3d 66 3c 6a 3d
       0.15225728 0.036776703 0.054439716 0.057186507
0002b0 86 4c 60 3e 39 34 4a 3e 2c 66 8a 3e d1 24 81 3e
       0.21904191 0.19746484 0.27031076 0.252234
0002c0 cf 9d 0a be 2a 92 8c 3d 5e b9 25 bc cd 44 4d 3e
       -0.13536762 0.06863816 -0.010114996 0.20045777
0002d0 55 43 0c 3e 10 b6 41 3e 3d a0 0c 3e c6 ad 73 3e
       0.1369756 0.18917108 0.13733001 0.23796758
0002e0 c6 38 a6 3d a7 a1 52 be dd a8 d4 be a0 3e d1 3d
       0.081162974 -0.20569478 -0.41535082 0.10217023
0002f0 38 75 81 3e cf 9d 87 bc 8b 18 35 bd 14 72 04 3c
       0.25284743 -0.016554741 -0.04421286 0.008083839
000300 62 fb 61 3e 49 cc 0d bd 9f 93 b2 be 7b 05 90 bd
       0.22068551 -0.03461865 -0.3487825 -0.07032295
000310 10 71 8e be 77 7e 0b be 7b 88 9a bb 3d ee ec 3d
       -0.27820635 -0.13622461 -0.004715977 0.11568878
000320 f0 3a 6e 3d 74 c1 44 be 69 b7 c2 3d 4c 52 a3 3e
       0.058161676 -0.19214422 0.09507639 0.31898725
000330 3f a2 28 bd cb 0e c0 3d b8 25 31 be 93 3f 72 3c
       -0.041170355 0.093778215 -0.17299545 0.014785665
000340 ed 1b 98 bd b0 81 5f 3e c2 5b 90 3e 1d 97 8e 3d
       -0.074272014 0.21826816 0.28195006 0.06962416
000350 22 6a 35 3d b5 7d a4 be a7 90 41 be de 41 3a bd
       0.04429067 -0.32127157 -0.18902837 -0.045472972
000360 14 52 54 bd 47 bc 93 3d fd f5 6a 3e dd 63 5f be
       -0.05183609 0.072136454 0.229454 -0.21815439
000370 97 2f d7 3c 1a 8f 8b 3c ed a2 3f 3e c1 da cb bd
       0.02626781 0.01703601 0.18714495 -0.09953833
000380 41 33 bb 3c 31 d2 81 3d eb 00 aa be 94 37 31 be
       0.022851588 0.06338919 -0.33203825 -0.17306358
000390 d5 d9 0a be e0 1b 6e be c9 f2 b3 bd 31 85 32 bc
       -0.13559659 -0.23252821 -0.08786542 -0.010896013
0003a0 cf bf 4a 3e 53 a8 87 be 3a 7c 10 3d 1d 76 38 be
       0.19799732 -0.2649561 0.03527472 -0.18013807
0003b0 47 3c 58 3e 9a 6d 9f 3e a5 ce 14 be b7 e8 16 be
       0.21116744 0.31138307 -0.14531954 -0.14737211
0003c0 be 46 0d 3e 7e 08 44 3d 13 5c 76 3e 83 5e ea 3d
       0.13796517 0.04785966 0.24058561 0.11443808
0003d0 55 8e cd bd bd 8c 4b be da 23 68 3d 07 96 bd 3e
       -0.10036913 -0.19877906 0.056674816 0.37028524
0003e0 83 74 b2 3e 1d 10 85 3e 37 b0 7c bd d2 e1 99 3c
       0.34854516 0.25988856 -0.06169149 0.018784437
0003f0 52 01 b6 bd 02 c4 f4 3d 18 44 46 bd 8a 91 9a bc
       -0.088869706 0.11951448 -0.048404783 -0.018868227

base.mlp.fc2.0.0.bias f4 [64]
000000 d7 43 93 bb a7 8e ed bb f2 89 2e bc dd 3b f9 bb
       -0.004494171 -0.0072496715 -0.010653006 -0.007606013
000010 ca 35 d5 39 93 af 67 3a 84 4b d8 ba a3 bf 4c 39
       0.00040666602 0.0008838113 -0.0016501998 0.00019526346
000020 b5 0e a4 39 6c 38 8f bb 4a 47 10 ba c0 20 57 3c
       0.00031291475 -0.0043707397 -0.0005503787 0.013130367
000030 d2 44 9a 3b 9e 53 f3 3a ce b0 09 3a ac 7a 00 bc
       0.004707911 0.0018564349 0.0005252481 -0.007841747
000040 23 54 68 3c 46 e9 33 bc 4d 7d eb 3a 88 09 65 bc
       0.014180216 -0.01098091 0.001796642 -0.013979323
000050 b3 71 74 3a 79 11 d8 3a 54 e4 a4 bb 32 74 32 3c
       0.0009324804 0.00164847 -0.0050321016 0.010891961
000060 46 6e 85 3a 2b af 2a 3c 00 00 00 00 2f 31 50 bc
       0.0010179959 0.01041774 0.0 -0.012707039
000070 2f 39 81 bb fe 3b 0b 3c 2a d6 24 3b 54 4d b8 3a
       -0.0039435844 0.00849819 0.0025152066 0.0014061132
000080 3d 4c c1 ba 49 f6 28 bc 37 f1 86 ba 3b 87 63 bb
       -0.0014747452 -0.010312625 -0.0010295276 -0.0034718055
000090 a1 f0 f7 bb 71 5b 3f 3b 4b 23 0c 3c 39 d3 60 b9
       -0.007566527 0.002919879 0.008553336 -0.00021440991
0000a0 ca ce c9 ba 13 4e 29 bb c9 36 1c bc 2c 4e 05 bb
       -0.0015396711 -0.002583389 -0.009534546 -0.0020340784
0000b0 65 55 8c ba 3b 22 69 3b 79 59 2a 3c 3b 42 2c ba
       -0.0010706602 0.0035573381 0.0103973085 -0.00065711484
0000c0 e4 ab b7 3a d4 1f 53 3b a1 d3 bc 3a 6f 08 6f bb
       0.0014013019 0.0032215016 0.0014406332 -0.0036473533
0000d0 d2 4f a2 3b cb 62 a9 3b 25 21 ed 3a ac c6 e9 ba
       0.004953363 0.0051692477 0.0018091543 -0.0017835698
0000e0 2e 9e 60 3b b1 9a 76 3a 18 2a 66 ba 34 01 d6 b9
       0.003427397 0.0009407206 -0.0008780076 -0.00040818157
0000f0 57 6a 45 3b f8 e7 44 38 ac a1 35 bc c9 cc f7 3b
       0.0030123198 4.694608e-05 -0.011085909 0.007562254

base.mlp.fc2.0.2.weight f4 [64]
000000 7b ac 7f 3f 0c 77 7d 3f 0e d0 7f 3f 4a 2e 7f 3f
       0.9987256 0.99009776 0.9992684 0.99680007
000010 a6 da 7f 3f 1e 15 80 3f f7 62 7e 3f 0b 7b 80 3f
       0.99943006 1.0006444 0.9936976 1.003755
000020 4b 15 7f 3f d2 c5 7e 3f 77 5a 80 3f 72 8d 7f 3f
       0.99641865 0.995206 1.0027608 0.99825203
000030 ec 5a 80 3f 00 67 80 3f fb bd 80 3f d1 22 80 3f
       1.0027747 1.0031433 1.0057977 1.0010625
000040 e9 df 80 3f 9f 6b 7e 3f 92 4a 7f 3f ac 02 7f 3f
       1.0068332 0.99382967 0.9972316 0.9961345
000050 c8 6e 80 3f 97 4a 80 3f 1d 7e 7e 3f f9 43 80 3f
       1.0033808 1.0022763 0.99411184 1.0020744
000060 c4 5c 80 3f ae 82 80 3f ac a8 7f 3f 10 ad 7e 3f
       1.002831 1.003988 0.9986675 0.9948282
000070 8f f4 7d 3f 71 ef 7f 3f 52 3b 80 3f f6 13 80 3f
       0.9920129 0.99974734 1.0018103 1.0006092
000080 45 21 80 3f 57 83 7e 3f 1c f2 7e 3f 6d 7f 7f 3f
       1.0010153 0.9941916 0.9958818 0.9980381
000090 95 11 7f 3f 09 b5 7e 3f 76 39 80 3f 99 9c 80 3f
       0.99636203 0.9949499 1.0017536 1.004779
0000a0 34 f3 7e 3f 97 3c 7e 3f e0 67 7f 3f 1a ae 7e 3f
       0.9958985 0.993112 0.99767876 0.9948441
0000b0 fb ad 7e 3f 99 38 80 3f 7b c1 7f 3f df 94 80 3f
       0.99484223 1.0017272 0.999046 1.0045432
0000c0 bc c8 80 3f 9c ae 80 3f fe 7e 80 3f 06 dd 7d 3f
       1.0061259 1.0053287 1.0038755 0.9916538
0000d0 91 1a 80 3f 99 65 80 3f 5d f3 7f 3f 29 5a 80 3f
       1.0008107 1.0031005 0.9998072 1.0027515
0000e0 ca 0f 80 3f f0 7b 80 3f 0f a6 7e 3f de 00 80 3f
       1.0004818 1.0037823 0.99472135 1.0000265
0000f0 25 1b 80 3f 79 3e 7f 3f de 36 7f 3f cf 38 7e 3f
       1.0008284 0.997047 0.99693096 0.99305433

base.mlp.fc2.0.2.bias f4 [64]
000000 b1 fb ad 3a 40 64 a0 ba df 8d 8d ba c9 87 96 ba
       0.0013273862 -0.0012236908 -0.0010799727 -0.0011484559
000010 2e a8 b5 ba 33 b1 af ba e6 64 a0 3a d8 73 ab ba
       -0.0013859326 -0.001340425 0.0012237101 -0.0013080789
000020 30 7b ed ba f9 61 78 ba 4e af ab 3a e3 5c 44 3a
       -0.0018118378 -0.0009475048 0.001309851 0.0007490648
000030 50 41 ae 3a 87 f3 9b ba 87 ef ad ba 3e 86 90 ba
       0.0013294611 -0.0011898138 -0.0013270237 -0.0011026335
000040 f8 94 9a 3a 7a 0c a5 ba d1 d6 ab ba c4 5d b5 3a
       0.0011793664 -0.0012592219 -0.0013110285 0.0013837148
000050 7f 9f b7 ba d1 1d b3 ba 17 c5 c9 ba f1 7b ac 3a
       -0.0014009326 -0.0013665502 -0.001539382 0.0013159496
000060 68 14 ac ba f5 eb c7 3a 1a 62 b5 3a 0d 5a a7 ba
       -0.001312864 0.0015252816 0.0013838441 -0.0012767926
000070 bc 1c af ba be eb b5 3a 02 81 e3 ba 15 51 8d ba
       -0.0013360004 0.0013879461 -0.0017357173 -0.0010781611
000080 74 84 b8 3a 76 71 a1 ba 09 34 9f ba c5 7e 9e ba
       0.001407756 -0.0012317139 -0.0012146245 -0.0012092224
000090 83 63 73 ba 1c 8a ab ba c3 e8 ae 3a 6f 45 ac 3a
       -0.0009284543 -0.0013087424 0.0013344515 0.0013143251
0000a0 82 c0 a4 3a 4b d5 3e ba ab df 8d ba e3 94 a0 3a
       0.0012569579 -0.0007279708 -0.0010824105 0.0012251403
0000b0 59 65 9f 3a af 71 d4 3a 8e 4e ac 3a c5 16 a4 3a
       0.0012160941 0.0016208197 0.001314597 0.0012518993
0000c0 7d 4a a2 ba 0c 14 a9 ba 24 b3 ad ba b0 62 a4 3a
       -0.0012381818 -0.0012899651 -0.0013252241 0.0012541618
0000d0 e2 e6 08 3b 52 a3 be 3a f8 57 b7 ba 35 48 b2 3a
       0.002088957 0.0014544523 -0.0013988009 0.0013601842
0000e0 e4 f7 ba 3a fd cb ab ba 97 df 99 3a 8c 41 a1 3a
       0.0014264551 -0.0013107058 0.0011739609 0.001230286
0000f0 10 c3 d7 ba 6b 46 a1 3a 62 b4 89 ba d6 ed d8 ba
       -0.0016461331 0.0012304311 -0.0010506029 -0.0016550373

v_out.weight f4 [1, 64]
000000 dc 88 2e 3e 67 a4 ac bd 20 10 57 bd c2 1a e5 bd
       0.17044395 -0.08429795 -0.052505612 -0.11186744
000010 d2 51 b1 bd ac 9b 8b bd 64 6d 79 3e c2 6b 02 be
       -0.08658184 -0.068168014 0.24358135 -0.12736419
000020 7e 6e 01 bd be 56 3e bd 0b da d0 3d bc a7 92 3c
       -0.031599514 -0.046469443 0.101978384 0.017902248
000030 c7 06 50 3d a2 85 fd bd d8 b7 df bd b5 c5 8d bd
       0.050787713 -0.12379004 -0.10923737 -0.06922475
000040 57 5b 12 3d 74 2e 46 be 11 2f 47 be 2d e6 5b bb
       0.03573164 -0.19353658 -0.19451548 -0.0033553944
000050 29 f1 b7 bc 14 4b 42 be cd 21 e0 bb f1 8f 63 3d
       -0.022453861 -0.18973953 -0.006839967 0.055557195
000060 68 48 aa bc 2f 0d e3 3c 41 f0 b6 3d 81 f6 9c bd
       -0.02078648 0.027716247 0.089325435 -0.076642044
000070 e4 09 9b bd e0 23 bd 3d 3a 51 31 bc 78 1c 66 bd
       -0.07570246 0.09235358 -0.010822589 -0.056179494
000080 89 24 c1 3d 31 be e5 bd 77 8a f0 bd a6 78 80 be
       0.09430797 -0.11217917 -0.1174516 -0.25092047
000090 ac 88 1b bd 0a ac 22 be aa 32 41 3e d6 1d 5b 3e
       -0.037972137 -0.1588594 0.18866983 0.213981
0000a0 e6 95 b2 3e 71 2d e8 bc cd 3c 93 bd 87 7a 09 3e
       0.34879988 -0.02834198 -0.07189331 0.13425647
0000b0 80 9c 8f 3e 20 9d 19 3d 34 95 a7 3d 30 6d 6d 3e
       0.28049088 0.03750336 0.08182755 0.23186183
0000c0 68 71 b2 bd d8 79 0d be 80 fd 9f bd 8b ea 34 3e
       -0.08713037 -0.13816011 -0.07812023 0.17667596
0000d0 ec fc 7d 3c c9 48 91 3d 4f 3f ff bc c7 4e 50 3e
       0.015502196 0.07093961 -0.031158118 0.20342551
0000e0 53 58 89 3d 07 f0 5b bd a6 cb 67 3d 2d b4 d1 3d
       0.067063 -0.053695705 0.0565907 0.10239444
0000f0 de 60 9e bc 94 4a 11 3e 6e 77 78 bd 0f b1 b0 3b
       -0.0193333 0.14188606 -0.060660772 0.005392201
