light_mappo-main/results/MyEnv/MyEnv/mappo/check/run63/models/actor.pt (torch, 41717 bytes, 16 tensors)

base.feature_norm.weight f4 [4]
000000 7f e3 7f 3f c8 d7 81 3f d8 5d 81 3f ee 48 80 3f
       0.99956506 1.0143976 1.0106764 1.0022256

base.feature_norm.bias f4 [4]
000000 12 1f 8d bb 90 a3 bc ba c9 56 91 3a 3d ed 24 bc
       -0.0043066824 -0.0014392007 0.0011088486 -0.010066328

base.mlp.fc1.0.weight f4 [64, 4]
000000 80 ce e1 3d c5 87 40 be d5 ef f8 3c 25 ea 96 bd
       0.11025715 -0.18801792 0.030387798 -0.07368878
000010 4c 30 88 3e ef 52 98 3d 56 95 fc bd 05 f7 46 be
       0.26599348 0.07437693 -0.12333171 -0.19430168
000020 e0 60 0d 3e 58 97 fb 3d 6a e2 4a be dc 47 29 be
       0.13806486 0.12284726 -0.19812933 -0.16531318
000030 12 a3 12 be 3f cf 3a 3e fc b8 10 bd c0 aa 75 3e
       -0.14320019 0.1824312 -0.035332665 0.23990917
000040 aa 8c e9 bd ec 99 e2 bd 42 fa c0 bd f3 3b 71 bc
       -0.11403783 -0.110645145 -0.09422733 -0.014723766
000050 bc 67 fd 3d 91 c0 d8 3c a5 a4 28 3d df 24 d3 be
       0.123733014 0.02645901 0.041172642 -0.41239068
000060 1b 1a 3a 3d 27 41 d8 3d e8 70 8c 3e e4 8f 7b 3e
       0.045435052 0.10559302 0.2742989 0.24566609
000070 a8 69 35 3d 13 07 da 3d 10 6e bc bd c3 c9 af be
       0.044290215 0.106458806 -0.0920068 -0.3433362
000080 e4 9a 80 3d ee 2c 3c 3e 58 47 bf 3d 09 a4 94 be
       0.06279543 0.18376514 0.093397796 -0.290314
000090 61 e8 33 be 79 25 7b be e2 c5 b8 3e a0 db 0b 3d
       -0.17569114 -0.24526013 0.36088473 0.034144998
0000a0 39 0b 1c 3e c8 ed c8 3c 02 39 bb be 04 a0 fe 3d
       0.15238656 0.024527445 -0.3656693 0.12432864
0000b0 79 11 f9 be 53 16 63 bc a5 85 9a 3d 41 b6 64 3e
       -0.48646143 -0.013860303 0.07545022 0.2233515
0000c0 e3 b2 94 bd f9 44 2f 3e 54 7d 2b bc 52 a5 7b be
       -0.072606824 0.17116155 -0.010466892 -0.24574783
0000d0 57 3a 43 be ba a5 2c 3e 1b bf 65 3e c8 79 d9 bd
       -0.19065224 0.16860095 0.22436182 -0.10618931
0000e0 d6 2a 64 3e 82 72 b0 bd 9d cb 81 bb d5 11 10 be
       0.22281966 -0.08615591 -0.00396104 -0.14069302
0000f0 b3 0c 21 3e f5 32 14 3d a3 25 4a be a4 50 02 3e
       0.157275 0.03618141 -0.1974092 0.12726074
000100 4d 22 f1 bd e2 5a d7 bc f6 0e a3 3e 45 23 53 be
       -0.117741205 -0.026288453 0.31847352 -0.20618923
000110 ff bd 0f 3e fe 8a 14 be d9 1c 8c 3e a3 0e a8 3d
       0.14037322 -0.14506146 0.2736576 0.08205917
000120 bb 4c 6b bd f9 e0 bc 3e d4 ff 0e bd 03 7b c5 3c
       -0.057446223 0.3689039 -0.034911945 0.024106508
000130 df 45 f1 bd 73 ef ef bd 1a 0f ad bd 3b 17 b3 be
       -0.11780905 -0.11715593 -0.08450146 -0.3497866
000140 ed 42 6a 3d 37 08 a3 be 8c 52 2c be e9 25 4c bd
       0.05719273 -0.31842205 -0.16828364 -0.04984084
000150 fe 54 90 bd d2 74 ff 3c 14 6c 8f bd 2d f4 f2 3a
       -0.07047461 0.031183634 -0.07003036 0.0018535905
000160 0b 6f f9 bd f5 66 7e 3e ae d3 fc 3d 83 f2 cb bc
       -0.12179383 0.24843962 0.12345062 -0.024895912
000170 e3 d0 3c be 45 0a bd 3d 5b e2 27 be 18 39 38 bd
       -0.18439059 0.092304744 -0.16394942 -0.044976324
000180 82 71 b8 bd 9e f3 95 3d be 0d ac bd 92 42 16 3e
       -0.09006025 0.07321857 -0.084010586 0.14673832
000190 be 08 94 bd 60 09 eb be ce 62 72 be a3 8b 41 bd
       -0.0722823 -0.4590559 -0.23670503 -0.04725231
0001a0 7f 1d f3 bc 98 1d ec be b6 a7 1f 3e 26 33 85 3d
       -0.02967715 -0.46116328 0.1559132 0.065038964
0001b0 33 fa 66 bd 6b 74 00 3e 0b 9c c4 3d ae 78 c4 3e
       -0.056390952 0.1254441 0.09600075 0.3837332
0001c0 83 28 3b 3e b9 ce 89 3e 35 f1 8d 3e db 0a 41 3d
       0.18277173 0.2691553 0.2772309 0.047129493
0001d0 3c 0d 9d be 2d 51 f0 bc b3 63 50 3d ab da 08 3e
       -0.3067416 -0.029335583 0.05087633 0.13364665
0001e0 c0 d5 f9 3d 1b 04 27 bd d2 6d 1c 3d 30 b8 c0 bd
       0.12198973 -0.0407754 0.03819067 -0.09410131
0001f0 11 7c 84 bd ae 39 71 be 3c 31 d0 3e 25 62 9f be
       -0.06468976 -0.2355716 0.40662563 -0.31129566
000200 a4 54 d0 b9 e7 18 5f 3d 9f d8 a5 3c b8 38 99 3d
       -0.00039735914 0.054467108 0.020244895 0.07481521
000210 8e 2a 10 be af 13 6e 3e 6e e5 b0 3e 4a d8 cb bd
       -0.14078733 0.23249696 0.3455004 -0.09953363
000220 08 5f 05 3e e8 37 83 3d 52 4c 95 be e7 3e 89 3e
       0.13024533 0.06407148 -0.2915979 0.26805803
000230 78 54 1f bf 55 15 06 3e 85 0d e4 be 69 8c 3a be
       -0.62238264 0.13094075 -0.44541565 -0.18217625
000240 c6 d0 5f 3e ef 27 8c 3e ed 1c 97 3d a6 5a 1f 3e
       0.21856984 0.27374217 0.07378564 0.15561923
000250 0a 27 59 3e b2 e8 bb bd f5 02 61 bd 19 e3 3f 3d
       0.21206298 -0.091752425 -0.05493446 0.046847437
000260 5d d4 be bc be ae 0d be 10 8d 3d bd 26 f5 dc bd
       -0.023294622 -0.1383619 -0.046277106 -0.10788946
000270 59 02 26 3d 05 09 de bd 6d 88 38 be dc 39 9d 3d
       0.040529583 -0.10841564 -0.18020792 0.076770514
000280 b8 2f 9b bd 5d 1c db 3c 4b 2b 0c be 4e 47 c1 bd
       -0.07577461 0.026746923 -0.1368839 -0.094374284
000290 04 63 09 3e f9 b1 f2 3d 31 15 9f bd 80 28 aa bd
       0.13416678 0.11850352 -0.07767714 -0.08308506
0002a0 68 d8 95 be 0f a8 06 be ea 09 68 be f5 ad 7c 3e
       -0.29266667 -0.13150047 -0.22660032 0.24675734
0002b0 44 e0 cd be 02 32 6e 3d a8 80 12 bd 79 b9 c5 be
       -0.40210164 0.05815316 -0.035767227 -0.38618067
0002c0 8c b3 89 be b3 a1 79 3d f3 d1 fc bc 70 2d 83 3e
       -0.26894796 0.060945224 -0.03086183 0.25620604
0002d0 82 b6 2b 3d 71 20 84 bd b7 15 aa 3c 68 e6 c3 bd
       0.0419221 -0.064515 0.020762308 -0.09565431
0002e0 fa fb 41 3e a9 99 fd 3d 83 9b f7 3d 4b 3a ad 3d
       0.18943778 0.12382824 0.120902084 0.08458384
0002f0 f2 55 d2 bd 16 78 a7 3d c0 e1 99 3c 2f d4 81 bd
       -0.10270299 0.081772014 0.018784404 -0.06339299
000300 01 7d a4 3d 0f 05 86 3e 84 6b 8d bd 7a ba 32 3b
       0.08031655 0.26175734 -0.069052726 0.0027271793
000310 d8 b5 15 bd f4 3b c1 3d e2 db 17 bd 55 79 53 be
       -0.036550373 0.09435263 -0.03707493 -0.20651753
000320 de 21 ac bc ff 5f 8d 3e 26 19 b7 be fe fa bd 3c
       -0.021012243 0.27612302 -0.35761374 0.023190971
000330 48 44 86 3d fe a1 7e 3d 5e ff 1b be 84 b0 42 bd
       0.06555992 0.062166207 -0.15234134 -0.04753162
000340 19 87 a0 3d 3a e5 0f be 2f d3 0a 3e f7 ac 4e 3e
       0.07838268 -0.14052287 0.13557123 0.20183168
000350 46 e7 39 3d 13 e0 67 3e 3d 94 68 bc e5 3f 03 bd
       0.045386575 0.22644071 -0.014195499 -0.032043356
000360 3e 80 1d be e1 a9 5c 3c 4c 52 83 3e 28 fe 83 bd
       -0.15380952 0.013468237 0.25648725 -0.06444961
000370 32 e1 9b be 1a 71 41 3e 06 62 4a 3e 73 49 07 3e
       -0.30445248 0.18890801 0.19763955 0.13211612
000380 7d 0f 8d 3d c3 6a 6b 3e 3c cd 06 bc 15 01 d2 be
       0.0688772 0.22989945 -0.008227643 -0.4101645
000390 f8 6b e6 3d 1f 2d c5 bd d5 a4 a7 3d 97 47 64 3d
       0.11251062 -0.09627747 0.08185736 0.055732336
0003a0 e8 a3 89 bd 35 76 32 3e 44 e7 03 3e 85 02 28 be
       -0.06720716 0.17427905 0.1288119 -0.16407211
0003b0 1f 45 c4 bd 7a ed be 3e ca 4e 2e 3e b2 e4 4f 3e
       -0.09583496 0.37290555 0.17022243 0.20302084
0003c0 05 91 f7 bd 78 88 3f be 49 16 1b 3e 2f a9 b0 bd
       -0.12088207 -0.18704402 0.1514522 -0.08626019
0003d0 61 75 6e 3e d5 06 07 3e 0e a1 86 bd 1d 8d 04 be
       0.23286964 0.131862 -0.065736875 -0.12944455
0003e0 95 e0 ca bd 67 6a 1c 3d ef 5d 2e be 94 b1 83 3d
       -0.09906117 0.03818741 -0.1702802 0.06430355
0003f0 30 6f 19 3e 91 56 21 3e 59 4b cf 3d ac 78 9b 3d
       0.14983821 0.15755679 0.10121793 0.07591376

base.mlp.fc1.0.bias f4 [64]
000000 0c e0 38 bb ce 42 62 bc 99 dc 0a bc fd 08 09 3d
       -0.0028209714 -0.013809873 -0.008475446 0.033455838
000010 43 a2 89 bc 0b 11 e3 38 9e 27 7d 3c 7a ce fd 3a
       -0.016801005 0.00010827378 0.01545134 0.0019363903
000020 fa 38 93 3c f4 d7 f8 3c 8c d1 23 ba a1 a8 b0 bc
       0.017971504 0.030376412 -0.00062491815 -0.021564784
000030 20 c1 bf bc c4 08 6e 3a 0d 7e 71 bc 30 95 93 bc
       -0.023407519 0.00090802857 -0.0147395255 -0.018015474
000040 33 6a a3 3b 97 71 f1 3b 2c bf 99 3b b9 25 02 3b
       0.004987025 0.0073682773 0.004691979 0.001985891
000050 42 d8 69 bc dd 01 b2 3b f7 aa c4 3b 75 39 00 3d
       -0.014272751 0.005432351 0.006001826 0.031304795
000060 7f 0a 5a 3a d8 65 45 3c da 73 2a 3c f1 10 db bc
       0.0008317604 0.012048207 0.010403598 -0.026741477
000070 3e 93 ec ba 38 bb ee bb d4 5b 15 bb 00 09 08 3c
       -0.0018049253 -0.007285502 -0.002279033 0.008302927
000080 4f 6e 8d 3c 9c bf 41 3d f8 9f a8 3b d8 c3 24 3c
       0.017264513 0.047301874 0.005146023 0.010056458
000090 6f 27 3d 3b 33 df 45 bc 7a 2d a7 bb 88 c2 0b bc
       0.0028862616 -0.012077141 -0.005101857 -0.008530267
0000a0 87 83 1b 3d 4d 90 28 bc 49 2c 81 3c 81 39 4e bc
       0.03796723 -0.01028831 0.015768187 -0.012586952
0000b0 63 15 a8 bc e7 6a fa b9 16 ed 36 bc 9d e4 d4 3c
       -0.02051801 -0.00047763364 -0.011164924 0.025987918
0000c0 84 fa a8 3b b4 fb 2e bc 1a 49 49 bb 08 57 02 3c
       0.005156817 -0.010680128 -0.0030713738 0.00795532
0000d0 e4 cc 0d bc e1 47 3f 3b 50 c4 16 3b 66 9d 89 3b
       -0.008654807 0.002918713 0.0023005195 0.0041996716
0000e0 c1 a0 a8 38 ff 16 4a 3c 5a 46 50 bd f2 e4 7d 3c
       8.040807e-05 0.012334584 -0.050848342 0.015496479
0000f0 96 07 16 3c 01 4d 8e bc 80 b2 82 3b 9c fe c6 bb
       0.009157082 -0.017370703 0.003988564 -0.0060728323

base.mlp.fc1.2.weight f4 [64]
000000 6e ae 81 3f 13 1f 82 3f 40 70 81 3f d6 14 83 3f
       1.0131357 1.0165733 1.0112381 1.0240734
000010 c1 a1 7f 3f d8 d2 7e 3f 68 8b 7f 3f 0f a0 84 3f
       0.9985619 0.9954047 0.9982209 1.0361346
000020 c0 e5 82 3f e0 84 81 3f 01 e8 7d 3f 73 ca 7b 3f
       1.0226364 1.0118675 0.99182135 0.9835579
000030 b6 49 85 3f 10 ee 7b 3f 03 83 83 3f 74 8e 84 3f
       1.041312 0.9841013 1.0274357 1.0355973
000040 27 ce 82 3f df fd 7d 3f 88 34 81 3f 71 9d 80 3f
       1.0219163 0.992155 1.0094156 1.0048047
000050 ff 60 80 3f 6b 5a 7f 3f c0 70 82 3f af 98 83 3f
       1.0029601 0.9974734 1.0190659 1.028097
000060 14 93 82 3f 19 f3 7c 3f d4 f7 7f 3f a5 d9 79 3f
       1.0201135 0.9880844 0.9998753 0.97597724
000070 eb 57 81 3f dc 37 7d 3f 84 2c 7c 3f 14 ce 74 3f
       1.0104955 0.9891336 0.98505425 0.9562695
000080 a3 35 7d 3f bb 14 81 3f 2e ba 7c 3f e5 38 81 3f
       0.9890997 1.0084451 0.9872159 1.0095488
000090 20 d6 80 3f a5 70 7f 3f 28 60 84 3f a1 0b 83 3f
       1.0065346 0.99781257 1.0341845 1.0237924
0000a0 e3 5e 79 3f 01 d7 79 3f 08 88 81 3f 4c 90 76 3f
       0.9741041 0.97593695 1.0119638 0.9631393
0000b0 8e ad 7a 3f ad b6 82 3f ae 62 80 3f 72 16 7d 3f
       0.97921073 1.0211998 1.0030115 0.98862374
0000c0 4c 9a 7d 3f c7 8f 7c 3f 48 0e 7e 3f 6e a5 80 3f
       0.99063563 0.98656887 0.9924054 1.0050485
0000d0 d1 d1 7e 3f c2 3e 80 3f 77 d1 7d 3f 40 1d 7f 3f
       0.99538904 1.0019152 0.99147743 0.99654007
0000e0 1d cd 7b 3f 0c ed 78 3f 08 8c 80 3f 31 e3 80 3f
       0.98359853 0.97236705 1.0042734 1.0069333
0000f0 04 3c 81 3f 16 62 81 3f cd 1b 83 3f 86 9d 81 3f
       1.009644 1.0108058 1.0242859 1.0126197

base.mlp.fc1.2.bias f4 [64]
000000 ca 53 50 bc 64 3d f1 bc 82 18 e8 bc 1a 38 ca 3c
       -0.012715289 -0.029448219 -0.028331999 0.024684954
000010 e3 6b 87 bb 37 cd 68 3c c6 ea ba 39 70 f8 e6 bc
       -0.004132734 0.014209083 0.00035651604 -0.028194636
000020 50 fe 33 bc 7c ae 57 bc d7 90 71 3c b1 1e f6 bc
       -0.010985926 -0.013164159 0.014744005 -0.030043932
000030 9c 64 09 bd 39 ee 96 3b da 02 17 bd 72 65 52 bd
       -0.033543214 0.004606035 -0.036867954 -0.051366277
000040 8d fd 01 bd c5 bd 0f 3c 25 e5 0f 3b 45 2c 15 bb
       -0.031735945 0.008773272 0.002195665 -0.0022761982
000050 da 1d e1 bb 3d 9b b2 3a 9a ec 9c 3c 3a 1b f8 3c
       -0.0068700137 0.0013626587 0.01915579 0.03028642
000060 e9 44 c7 3b 18 62 a9 3c 4d f7 34 39 da e3 83 bb
       0.006081213 0.020676658 0.00017258264 -0.0040249648
000070 f5 65 55 bc af 0e 89 bb 43 d9 5f 3c 76 d4 4b 3d
       -0.013024797 -0.0041826586 0.013662639 0.049763165
000080 fd 85 2b 3c 6a 28 f1 3c 7b c5 49 3c 5a 45 48 3c
       0.010468957 0.029438216 0.012315149 0.012223566
000090 5b 47 30 bb 3a 9f f0 bb a9 2c 0d bd 7d 92 42 bc
       -0.0026898 -0.0073432 -0.03446642 -0.011875746
0000a0 73 e4 1f 3d 1e c4 8b 3c ed 26 1b 3c b0 fb 63 bb
       0.039036226 0.01706129 0.00946973 -0.0034787469
0000b0 16 a1 aa bc 2d 3f b3 bc 33 0d f1 bb d7 55 d3 3c
       -0.020828765 -0.02188071 -0.00735631 0.025797768
0000c0 35 97 a5 b9 c2 0c 98 3b 1c 15 c2 3a 6d 67 5e ba
       -0.0003158391 0.0046401927 0.0014807316 -0.00084840396
0000d0 27 50 42 3b 1e af 5d bb 92 18 55 3c 25 17 a1 3a
       0.0029649825 -0.0033826302 0.013006346 0.0012290223
0000e0 be d8 ee 3c 2c 81 fc 3c b6 81 f9 bc 10 e8 84 3c
       0.029156085 0.030823313 -0.030457359 0.016223937
0000f0 6e 33 bb 3a 2c 0f 9a bc 72 aa dc 3b 44 07 88 bc
       0.0014282295 -0.018806063 0.006734186 -0.016605027

base.mlp.fc_h.0.weight f4 [64, 64]
000000 5b 15 5d 3d d7 1f c8 3d 0f 0a 55 3d cd eb 51 bc
       0.053975444 0.09771698 0.052011546 -0.012812567
000010 3f ff 8f bd 44 87 5d 3d c8 a7 2c 3d 04 7e af 3e
       -0.07031106 0.054084077 0.042152196 0.3427583
000020 0c 94 cf 3e 48 00 f3 bd f8 68 1b 3e 79 fb d2 bd
       0.40542638 -0.11865288 0.15176761 -0.10301871
000030 9b 54 fa 3d 4c 9f 42 bd 25 63 f1 bc 35 c5 c1 bd
       0.122231685 -0.0475152 -0.029466221 -0.094614424
000040 16 55 e5 bb 0e cc ea bc 81 06 6c 3d 6b 09 12 bd
       -0.0069986684 -0.028661754 0.05762339 -0.035653513
000050 b9 df a7 be 2c 0f 58 3c 38 d2 83 3d 39 71 53 3e
       -0.32787874 0.013187211 0.064365804 0.2064866
000060 43 df 5c 3c c2 0d 84 bd 0c 62 2a 3e de a7 20 be
       0.013480964 -0.064479366 0.16638964 -0.15689036
000070 0f 5b 7d bc cf 52 34 be 42 b3 f0 bd 6c c1 47 be
       -0.015463605 -0.17609714 -0.11752941 -0.19507378
000080 b5 3b f4 3a 8b 2a 0e bd d1 21 26 be 9f e1 c7 3e
       0.0018633517 -0.03470854 -0.16223837 0.39039323
000090 cc 7e 6f be 08 c8 b1 3e 36 f6 a3 be 26 ed e8 3d
       -0.23388213 0.34722924 -0.32023782 0.113733575
0000a0 1d 16 db 3d d1 b9 3f be b0 11 5c 3e 68 96 3e 3e
       0.10697577 -0.18723227 0.21491122 0.18612063
0000b0 f1 8c dc 3d c8 1b 8a 3d c8 c9 eb bc 0b c0 f7 be
       0.1076907 0.0674358 -0.02878274 -0.48388705
0000c0 8c 2c 42 bb 23 76 74 3e d1 d5 90 3d 8d 0b 8b be
       -0.0029628603 0.2387319 0.07072032 -0.2715725
0000d0 f2 5d a7 3d b3 94 66 3c ba f7 05 bd 4a f3 94 3d
       0.081722155 0.014073539 -0.032706954 0.07272966
0000e0 19 ad 63 3d f2 6d 82 3e 94 ba a6 3d 7d 08 16 be
       0.055585 0.25474507 0.08141056 -0.14651676
0000f0 73 f4 00 3e 48 35 cd 3d 5c de e0 3e 77 44 9b 3d
       0.1259325 0.10019928 0.43919647 0.07581418
000100 db 6d df 3e 90 04 13 3e 90 99 55 be 7d 84 c3 bb
       0.436385 0.14357209 -0.2085936 -0.0059667216
000110 86 f1 05 be 38 f2 a2 be 24 50 94 bd 8f e5 29 be
       -0.13080415 -0.31825423 -0.07241848 -0.16591476
000120 89 54 10 be 99 27 1e be 4d 46 c1 be ae d3 62 bc
       -0.14094748 -0.15444793 -0.37748948 -0.013844414
000130 19 32 c9 bd 7e a9 51 be 32 79 96 3d 02 05 19 3e
       -0.098240085 -0.20474812 0.07347335 0.14943317
000140 e9 72 07 3e a1 57 ea bc 05 f8 f5 3d 83 95 6e 3e
       0.13227428 -0.028606238 0.120101966 0.23299222
000150 e7 f0 96 be 29 7d 6c bd 21 81 1c 3e c7 50 d2 3d
       -0.2948067 -0.05773655 0.15283634 0.10269313
000160 18 c3 86 3d 21 8f 17 3e 27 fc 08 3e 24 6a 1d bd
       0.0658018 0.14800693 0.13377438 -0.0384313
000170 01 83 10 be 95 63 9d bd 26 5c 8b be ad 22 e4 3d
       -0.14112474 -0.076850094 -0.2721874 0.111394264
000180 7b 54 9f 3e fb 31 3b be d9 dc fd 3d 98 c4 a5 3d
       0.3111914 -0.18280785 0.12395639 0.08094138
000190 fe fb 62 bd fe 61 83 3e bf d0 32 3e b4 77 05 3e
       -0.0554161 0.256607 0.17462443 0.13033944
0001a0 ec bd d0 bc e1 a0 10 be 8c 9a 08 be 33 dc 91 be
       -0.025481187 -0.1412387 -0.13340205 -0.2848831
0001b0 78 0b a4 bb ef 87 9f 3e 8c 93 05 3c d3 83 4d 3e
       -0.00500625 0.31158397 0.008152854 0.20069818
0001c0 ee 5a d0 bc c1 db d7 3d 32 a6 81 bd 36 52 5e 3d
       -0.025433984 0.105399616 -0.06330527 0.05427762
0001d0 82 d5 60 bd 8a 60 e2 3d ec 5a 5e 3e 67 84 44 bd
       -0.054891117 0.110535696 0.21714371 -0.04797783
0001e0 9e 74 89 3e bb d0 80 3e e5 97 46 3b 89 c4 49 3d
       0.26846784 0.2515925 0.0030302939 0.049259696
0001f0 ce d5 ca 3e d7 e6 3f be 60 8b ea bd 51 e7 b0 bd
       0.39616245 -0.18740402 -0.11452365 -0.0863787
000200 3c e6 4b 3e 96 67 53 bd 81 5f 92 3d 40 65 86 3e
       0.19912046 -0.05161246 0.07147122 0.26249123
000210 44 e0 61 3d d2 15 31 be 43 85 aa 3d 53 04 d8 bd
       0.055145517 -0.1729348 0.08326199 -0.105477
000220 08 33 c4 3d 85 56 72 3d 1b 48 0f 3e 59 1f cf bd
       0.09580046 0.059164543 0.1399235 -0.10113401
000230 7a c4 bb 3e e9 82 b0 bc 3a 01 75 bd 26 2e 59 3e
       0.36673337 -0.021546798 -0.059815623 0.2120901
000240 ae 11 2b be b3 bc 55 bd e3 7d 43 3d 40 4c 69 bc
       -0.16705963 -0.05218191 0.047727477 -0.014239371
000250 79 9e 32 3c 2b ab de 3d db a0 78 bd bd 8c 04 be
       0.010902041 0.108724914 -0.06070028 -0.12944312
000260 c5 2f 36 be 1f 5d 53 3d 60 74 66 3e cd 23 82 be
       -0.1779166 0.05160248 0.22505331 -0.2541794
000270 8c 3f e1 bd 95 e5 83 3d e1 8e 58 be 47 a3 1b 3d
       -0.10998449 0.06440274 -0.21148254 0.03799751
000280 16 45 c6 bd 43 7f 87 be a8 fa 1a 3e 75 54 fc 3b
       -0.09681146 -0.2646428 0.1513468 0.0077004978
000290 63 bd 7e bd 12 ef 67 bc c9 f3 2b be 75 2b 99 3e
       -0.062192332 -0.01415612 -0.16792215 0.29915968
0002a0 6a 7b 44 be 0d d3 7a 3e 82 46 4d be 27 b6 35 3e
       -0.19187704 0.24494572 -0.20046428 0.17745267
0002b0 13 aa 17 3e 70 76 d8 bd 72 3d 6e be 5e c4 a6 3b
       0.14810972 -0.10569465 -0.23265627 0.0050893268
0002c0 8c 49 80 bd 0c cb 51 3e cd 73 7c 3e ff 0b 51 3c
       -0.06264028 0.20487612 0.2465355 0.012759208
0002d0 55 64 29 3d f1 d8 b2 be ba 48 e1 be a9 16 cf be
       0.04135545 -0.34931138 -0.44000798 -0.40446976
0002e0 41 5f 39 3e cd e0 0a bd e4 31 4b 3d e1 9c 53 3d
       0.18102743 -0.033905793 0.049608126 0.051663283
0002f0 8c 14 0f be 3b a8 5d be 08 b6 aa be c1 0d 59 3e
       -0.13972682 -0.21646206 -0.33342004 0.21196653
000300 e1 dc d4 3e b0 50 11 3e 39 c6 e2 bd 04 e4 94 bb
       0.41574767 0.14190936 -0.11072964 -0.004543783
000310 05 79 70 be 64 e9 84 bc 29 da 18 3e 05 59 18 be
       -0.23483665 -0.01622457 0.14926971 -0.14877708
000320 32 4c f5 3d 8f 14 03 3e c5 3a cd bc b7 d1 41 3c
       0.11977424 0.12800811 -0.025052438 0.011829785
000330 90 2e ee bc 06 82 6a be 6c d5 01 be 97 72 3a ba
       -0.029074937 -0.22901163 -0.1267907 -0.0007112412
000340 c6 72 99 bc d1 a1 88 3e 05 19 09 3e c2 49 16 be
       -0.018731486 0.26685956 0.1338845 -0.14676574
000350 a7 8b ae 3d 14 d6 e2 3d 81 29 ae 3e c8 0f cb 3d
       0.0852273 0.110759884 0.3401604 0.099151194
000360 bf fb 08 3e 80 b9 ad be 9c 88 ef bc 1e 51 80 3d
       0.13377284 -0.33930588 -0.029239945 0.06265472
000370 3c 3d 65 3d 67 ae 99 bc 12 bf 64 3e e5 d8 9c 3e
       0.0559666 -0.01875992 0.22338513 0.30634227
000380 c9 e7 b3 be 54 04 2c be 11 e0 26 bd 97 f0 27 bd
       -0.35137776 -0.16798526 -0.04074103 -0.04100093
000390 cc cb 39 3e 2c 0f 84 be 11 21 2b 3e 2f 5e aa bd
       0.18144149 -0.25792825 0.16711833 -0.08318745
0003a0 4d fc ea 3d 64 16 b3 bd 47 85 c4 3e 14 cf 61 be
       0.11473904 -0.08744505 0.38382933 -0.2205165
0003b0 36 c1 6d 3e cf 26 8d bc 6f 78 94 bd 39 2c 14 be
       0.23218235 -0.01723042 -0.072495334 -0.14469995
0003c0 4d c8 41 3e d4 cb b8 bd df 38 17 3e 90 12 3f be
       0.18924065 -0.09023252 0.14767788 -0.18659425
0003d0 0e 98 18 3e b9 5f c5 bd 04 23 50 ba 8d 82 09 be
       0.14901754 -0.09637398 -0.0007939788 -0.13428707
0003e0 22 f0 87 3d 20 af 30 3e a1 76 d4 3e 13 c6 df 3d
       0.066375986 0.17254305 0.41496757 0.109264515
0003f0 2f 94 65 be 28 77 dc 3c 27 f9 2b bd c3 ce 59 be
       -0.22419809 0.026912287 -0.041985657 -0.2127028

base.mlp.fc_h.0.bias f4 [64]
000000 00 00 00 00 00 00 00 00 00 00 00 00 00 00 00 00
       0.0 0.0 0.0 0.0
000010 00 00 00 00 00 00 00 00 00 00 00 00 00 00 00 00
       0.0 0.0 0.0 0.0
000020 00 00 00 00 00 00 00 00 00 00 00 00 00 00 00 00
       0.0 0.0 0.0 0.0
000030 00 00 00 00 00 00 00 00 00 00 00 00 00 00 00 00
       0.0 0.0 0.0 0.0
000040 00 00 00 00 00 00 00 00 00 00 00 00 00 00 00 00
       0.0 0.0 0.0 0.0
000050 00 00 00 00 00 00 00 00 00 00 00 00 00 00 00 00
       0.0 0.0 0.0 0.0
000060 00 00 00 00 00 00 00 00 00 00 00 00 00 00 00 00
       0.0 0.0 0.0 0.0
000070 00 00 00 00 00 00 00 00 00 00 00 00 00 00 00 00
       0.0 0.0 0.0 0.0
000080 00 00 00 00 00 00 00 00 00 00 00 00 00 00 00 00
       0.0 0.0 0.0 0.0
000090 00 00 00 00 00 00 00 00 00 00 00 00 00 00 00 00
       0.0 0.0 0.0 0.0
0000a0 00 00 00 00 00 00 00 00 00 00 00 00 00 00 00 00
       0.0 0.0 0.0 0.0
0000b0 00 00 00 00 00 00 00 00 00 00 00 00 00 00 00 00
       0.0 0.0 0.0 0.0
0000c0 00 00 00 00 00 00 00 00 00 00 00 00 00 00 00 00
       0.0 0.0 0.0 0.0
0000d0 00 00 00 00 00 00 00 00 00 00 00 00 00 00 00 00
       0.0 0.0 0.0 0.0
0000e0 00 00 00 00 00 00 00 00 00 00 00 00 00 00 00 00
       0.0 0.0 0.0 0.0
0000f0 00 00 00 00 00 00 00 00 00 00 00 00 00 00 00 00
       0.0 0.0 0.0 0.0

base.mlp.fc_h.2.weight f4 [64]
000000 00 00 80 3f 00 00 80 3f 00 00 80 3f 00 00 80 3f
       1.0 1.0 1.0 1.0
000010 00 00 80 3f 00 00 80 3f 00 00 80 3f 00 00 80 3f
       1.0 1.0 1.0 1.0
000020 00 00 80 3f 00 00 80 3f 00 00 80 3f 00 00 80 3f
       1.0 1.0 1.0 1.0
000030 00 00 80 3f 00 00 80 3f 00 00 80 3f 00 00 80 3f
       1.0 1.0 1.0 1.0
000040 00 00 80 3f 00 00 80 3f 00 00 80 3f 00 00 80 3f
       1.0 1.0 1.0 1.0
000050 00 00 80 3f 00 00 80 3f 00 00 80 3f 00 00 80 3f
       1.0 1.0 1.0 1.0
000060 00 00 80 3f 00 00 80 3f 00 00 80 3f 00 00 80 3f
       1.0 1.0 1.0 1.0
000070 00 00 80 3f 00 00 80 3f 00 00 80 3f 00 00 80 3f
       1.0 1.0 1.0 1.0
000080 00 00 80 3f 00 00 80 3f 00 00 80 3f 00 00 80 3f
       1.0 1.0 1.0 1.0
000090 00 00 80 3f 00 00 80 3f 00 00 80 3f 00 00 80 3f
       1.0 1.0 1.0 1.0
0000a0 00 00 80 3f 00 00 80 3f 00 00 80 3f 00 00 80 3f
       1.0 1.0 1.0 1.0
0000b0 00 00 80 3f 00 00 80 3f 00 00 80 3f 00 00 80 3f
       1.0 1.0 1.0 1.0
0000c0 00 00 80 3f 00 00 80 3f 00 00 80 3f 00 00 80 3f
       1.0 1.0 1.0 1.0
0000d0 00 00 80 3f 00 00 80 3f 00 00 80 3f 00 00 80 3f
       1.0 1.0 1.0 1.0
0000e0 00 00 80 3f 00 00 80 3f 00 00 80 3f 00 00 80 3f
       1.0 1.0 1.0 1.0
0000f0 00 00 80 3f 00 00 80 3f 00 00 80 3f 00 00 80 3f
       1.0 1.0 1.0 1.0

base.mlp.fc_h.2.bias f4 [64]
000000 00 00 00 00 00 00 00 00 00 00 00 00 00 00 00 00
       0.0 0.0 0.0 0.0
000010 00 00 00 00 00 00 00 00 00 00 00 00 00 00 00 00
       0.0 0.0 0.0 0.0
000020 00 00 00 00 00 00 00 00 00 00 00 00 00 00 00 00
       0.0 0.0 0.0 0.0
000030 00 00 00 00 00 00 00 00 00 00 00 00 00 00 00 00
       0.0 0.0 0.0 0.0
000040 00 00 00 00 00 00 00 00 00 00 00 00 00 00 00 00
       0.0 0.0 0.0 0.0
000050 00 00 00 00 00 00 00 00 00 00 00 00 00 00 00 00
       0.0 0.0 0.0 0.0
000060 00 00 00 00 00 00 00 00 00 00 00 00 00 00 00 00
       0.0 0.0 0.0 0.0
000070 00 00 00 00 00 00 00 00 00 00 00 00 00 00 00 00
       0.0 0.0 0.0 0.0
000080 00 00 00 00 00 00 00 00 00 00 00 00 00 00 00 00
       0.0 0.0 0.0 0.0
000090 00 00 00 00 00 00 00 00 00 00 00 00 00 00 00 00
       0.0 0.0 0.0 0.0
0000a0 00 00 00 00 00 00 00 00 00 00 00 00 00 00 00 00
       0.0 0.0 0.0 0.0
0000b0 00 00 00 00 00 00 00 00 00 00 00 00 00 00 00 00
       0.0 0.0 0.0 0.0
0000c0 00 00 00 00 00 00 00 00 00 00 00 00 00 00 00 00
       0.0 0.0 0.0 0.0
0000d0 00 00 00 00 00 00 00 00 00 00 00 00 00 00 00 00
       0.0 0.0 0.0 0.0
0000e0 00 00 00 00 00 00 00 00 00 00 00 00 00 00 00 00
       0.0 0.0 0.0 0.0
0000f0 00 00 00 00 00 00 00 00 00 00 00 00 00 00 00 00
       0.0 0.0 0.0 0.0

base.mlp.fc2.0.0.weight f4 [64, 64]
000000 30 13 02 3d 98 30 9c 3d 39 15 ef 3c 46 64 79 3c
       0.03175658 0.07626456 0.029184924 0.015221661
000010 19 a5 b3 bd a4 28 fe 3c f9 a6 37 3d ce 6d a1 3e
       -0.08771724 0.031025238 0.044836972 0.31529087
000020 cb d2 c1 3e 2c f1 ed bd 30 aa 0b 3e 8c 4e 6f bd
       0.37856135 -0.116182655 0.1363914 -0.058424518
000030 36 ed d2 3d 7f 2c b5 bc 9f c9 23 bd a4 5d e6 bd
       0.10299151 -0.022115944 -0.039987203 -0.11248329
000040 66 5e c6 bc 97 0a 50 bd e3 9f 98 3d ff 32 83 bd
       -0.024214935 -0.05079135 0.07452371 -0.06406211
000050 2b ac b6 be b6 60 56 b9 87 24 ab 3d b3 69 64 3e
       -0.3567823 -0.00020444658 0.083565764 0.22305946
000060 7c cb 20 3d 9a c3 c1 bd 09 34 18 3e 59 57 f4 bd
       0.039256558 -0.09461136 0.148636 -0.11930723
000070 99 af 38 bd 9e 8a 08 be 8f e4 05 be 11 83 5b be
       -0.045089338 -0.13334128 -0.1307547 -0.21436717
000080 cb 19 45 bb d8 48 ac bc 71 31 33 be ea 78 d1 3e
       -0.0030075188 -0.021030828 -0.17499329 0.40912563
000090 3c 2f 88 be 70 c1 a2 3e 11 74 af be 3d 5a b2 3d
       -0.26598537 0.31788206 -0.3426824 0.08708618
0000a0 b1 43 9c 3d bd d3 5e be f1 7e 73 3e dd 05 58 3e
       0.076300986 -0.21760459 0.23778893 0.21095987
0000b0 e0 eb 1c 3e bc 54 3a 3d c3 af 40 bd 0d 49 ef be
       0.15324354 0.045490965 -0.04704262 -0.4673542
0000c0 69 bf c8 bc bf d5 5b 3e 91 64 85 3d 02 74 98 be
       -0.024505334 0.21468256 0.06513322 -0.29776007
0000d0 d2 b7 82 3d de f0 9f bc dd 06 04 bd 50 3e f1 3d
       0.06382717 -0.019524034 -0.032233108 0.11779463
0000e0 04 2f 07 3d 2f 96 6e 3e 49 07 84 3d 41 b2 dc bd
       0.033003822 0.23299478 0.06446702 -0.10776187
0000f0 af 6a e5 3d 6c 54 9b 3d 65 95 e3 3e b3 08 55 3d
       0.11201989 0.075844616 0.44449916 0.05201025
000100 db 6d df 3e 90 04 13 3e 90 99 55 be 7d 84 c3 bb
       0.436385 0.14357209 -0.2085936 -0.0059667216
000110 86 f1 05 be 38 f2 a2 be 24 50 94 bd 8f e5 29 be
       -0.13080415 -0.31825423 -0.07241848 -0.16591476
000120 89 54 10 be 99 27 1e be 4d 46 c1 be ae d3 62 bc
       -0.14094748 -0.15444793 -0.37748948 -0.013844414
000130 19 32 c9 bd 7e a9 51 be 32 79 96 3d 02 05 19 3e
       -0.098240085 -0.20474812 0.07347335 0.14943317
000140 e9 72 07 3e a1 57 ea bc 05 f8 f5 3d 83 95 6e 3e
       0.13227428 -0.028606238 0.120101966 0.23299222
000150 e7 f0 96 be 29 7d 6c bd 21 81 1c 3e c7 50 d2 3d
       -0.2948067 -0.05773655 0.15283634 0.10269313
000160 18 c3 86 3d 21 8f 17 3e 27 fc 08 3e 24 6a 1d bd
       0.0658018 0.14800693 0.13377438 -0.0384313
000170 01 83 10 be 95 63 9d bd 26 5c 8b be ad 22 e4 3d
       -0.14112474 -0.076850094 -0.2721874 0.111394264
000180 7b 54 9f 3e fb 31 3b be d9 dc fd 3d 98 c4 a5 3d
       0.3111914 -0.18280785 0.12395639 0.08094138
000190 fe fb 62 bd fe 61 83 3e bf d0 32 3e b4 77 05 3e
       -0.0554161 0.256607 0.17462443 0.13033944
0001a0 ec bd d0 bc e1 a0 10 be 8c 9a 08 be 33 dc 91 be
       -0.025481187 -0.1412387 -0.13340205 -0.2848831
0001b0 78 0b a4 bb ef 87 9f 3e 8c 93 05 3c d3 83 4d 3e
       -0.00500625 0.31158397 0.008152854 0.20069818
0001c0 ee 5a d0 bc c1 db d7 3d 32 a6 81 bd 36 52 5e 3d
       -0.025433984 0.105399616 -0.06330527 0.05427762
0001d0 82 d5 60 bd 8a 60 e2 3d ec 5a 5e 3e 67 84 44 bd
       -0.054891117 0.110535696 0.21714371 -0.04797783
0001e0 9e 74 89 3e bb d0 80 3e e5 97 46 3b 89 c4 49 3d
       0.26846784 0.2515925 0.0030302939 0.049259696
0001f0 ce d5 ca 3e d7 e6 3f be 60 8b ea bd 51 e7 b0 bd
       0.39616245 -0.18740402 -0.11452365 -0.0863787
000200 b9 c0 54 3e 91 34 73 bd cd 6b 84 3d 90 45 88 3e
       0.20776643 -0.059376303 0.06465874 0.26615572
000210 52 b8 77 3d a1 2e 31 be 57 e9 b2 3d 9a 7d e0 bd
       0.060478516 -0.17302944 0.08735912 -0.109614566
000220 fc 1f c9 3d 83 30 6c 3d 72 1b 06 3e f6 13 f0 bd
       0.09820554 0.057663452 0.13096407 -0.11722557
000230 05 65 bc 3e 27 b8 6f bc 33 fe 7f bd 93 d5 51 3e
       0.36795822 -0.014631308 -0.062498283 0.20491628
000240 f1 83 1a be bb 8a 43 bd d9 25 36 3d 24 cb 96 bb
       -0.15089394 -0.047739726 0.044469688 -0.004601853
000250 00 5a 02 3c 19 73 f1 3d ff 21 62 bd ed 50 ed bd
       0.007956028 0.11789531 -0.055208202 -0.11587701
000260 f8 fd 31 be 7d 33 41 3d 2e 8a 60 3e 04 12 87 be
       -0.17382038 0.047168244 0.21927711 -0.26380932
000270 e5 85 c8 bd 06 e0 6c 3d 36 61 4e be 0a 6e 64 3d
       -0.09791163 0.057830833 -0.2015427 0.055769004
000280 94 26 b4 bd 2b 25 84 be e2 17 0e 3e 71 76 2e 3c
       -0.08796421 -0.25809607 0.13876298 0.010648356
000290 a8 5f 76 bd fc e3 8f bc e7 ba 21 be d6 dc 97 3e
       -0.06014982 -0.017564766 -0.15793954 0.29660672
0002a0 e2 65 37 be 0a e5 78 3e 4f 52 55 be ca 21 39 3e
       -0.17909959 0.24306121 -0.2083218 0.18079296
0002b0 50 1d 0d 3e 51 b7 bd bd cb c7 68 be 67 af b5 3c
       0.13780713 -0.092634805 -0.22732465 0.022178365
0002c0 1a 77 8b bd ae 45 54 3e 8f b1 6f 3e e7 ed 4a 3c
       -0.06809826 0.20729706 0.23407577 0.012385822
0002d0 fd c4 1c 3d 73 48 b2 be 22 c7 d8 be 7f 7d cf be
       0.0382738 -0.348209 -0.42339426 -0.40525433
0002e0 15 20 36 3e cb 86 de bc b5 3e 63 3d db ce 75 3d
       0.17785676 -0.027163884 0.055479724 0.060011726
0002f0 92 4b 07 be a8 c8 63 be 63 d2 a9 be 1f ad 65 3e
       -0.13212422 -0.22244513 -0.33168325 0.22429322
000300 ea 81 d0 3e d8 e2 19 3e 19 98 de bd 32 c8 a7 39
       0.40724117 0.1502794 -0.10868854 0.0003200188
000310 9c 66 82 be 5e b2 bc bc d2 fa 0d 3e f6 96 1f be
       -0.2546891 -0.02303427 0.13865212 -0.15584931
000320 46 42 e6 3d 76 03 ec 3d cd e5 a2 bc b9 6c 74 3c
       0.112431094 0.115240976 -0.019884968 0.0149185
000330 7d ef 17 bd 33 87 58 be c7 31 09 be 57 4c 1f 3b
       -0.03709363 -0.21145324 -0.13397895 0.0024306977
000340 35 2c b2 bc 6a b6 7b 3e 0c 04 1f 3e 8a a6 1d be
       -0.021749595 0.24581304 0.15528888 -0.15395561
000350 d5 93 86 3d 1f 75 d3 3d 46 a3 b7 3e 93 f1 f5 3d
       0.065711655 0.103250735 0.35866755 0.12008967
000360 aa 0a 11 3e bf 17 b9 be ba d4 52 bd 6f b2 81 3d
       0.14164224 -0.3615093 -0.051472403 0.06332862
000370 46 bf 46 3d b4 ed 7d bc 4f 94 5d 3e 59 75 99 3e
       0.048522256 -0.015498567 0.21638606 0.29972342
000380 8f e3 b3 be 61 f1 19 be 81 09 11 bd 44 f4 0b bd
       -0.3513455 -0.15033485 -0.035409454 -0.034168497
000390 49 57 35 3e d3 96 85 be 64 00 23 3e bb 67 b6 bd
       0.17709078 -0.26091632 0.15918118 -0.08906504
0003a0 3d a7 e4 3d 8b f6 b3 bd 62 2b c5 3e 48 fc 4d be
       0.11164711 -0.08787259 0.3850966 -0.20115769
0003b0 c0 55 6f 3e cc ef c6 bc 36 b4 a2 bd 85 41 06 be
       0.23372555 -0.024284266 -0.07944529 -0.13110931
0003c0 82 c2 42 3e f1 97 c6 bd 28 b9 24 3e 6f 02 40 be
       0.19019511 -0.09696949 0.16086257 -0.18750928
0003d0 af 18 01 3e 3a 90 d4 bd d1 57 cd bb 72 ef 00 be
       0.12607072 -0.103790715 -0.006266572 -0.12591341
0003e0 aa a5 75 3d 44 a6 25 3e 79 20 d1 3e be c0 e4 3d
       0.059972443 0.16176707 0.40845087 0.11169575
0003f0 e1 4b 77 be 4b d8 0c 3d a6 d5 ee bc 57 ed 61 be
       -0.2415004 0.03438596 -0.02915461 -0.22063194

base.mlp.fc2.0.0.bias f4 [64]
000000 d6 86 b5 3c 00 00 00 00 a5 3f 4e bc 2b 93 d9 3b
       0.022159021 0.0 -0.012588416 0.0066398582
000010 0a d9 16 3c dd 79 f5 bc c4 cc 44 bb 65 01 0a bc
       0.00920702 -0.029965336 -0.0030029276 -0.008423184
000020 a8 14 27 3d 28 03 40 3b 8c 32 1b 3b 88 34 13 3a
       0.040791184 0.0029298756 0.0023681251 0.0005615433
000030 62 7b df bb c4 bf 78 bc 6f c4 ea b8 21 33 85 3c
       -0.0068201283 -0.015182439 -0.00011194578 0.016259732
000040 b2 73 8b bc 30 45 c5 bc 30 e9 a7 bb b3 d4 ed 3b
       -0.017022941 -0.024080843 -0.0051242337 0.0072580217
000050 0e 2d bd 3b e9 00 3b bb 8b 41 bd bb 00 00 00 00
       0.005773193 -0.0028534478 -0.0057756356 0.0
000060 98 12 2f 3c c7 14 07 ba 7c 39 bd 3b 3a b8 83 3c
       0.010685585 -0.00051529374 0.005774675 0.016079057
000070 f4 d0 21 3d ff 7a 24 bc 9c bc cb 3a dc 1e 07 bc
       0.039505914 -0.01003909 0.0015543881 -0.008247104
000080 0f 2d 9f bc b4 cc f5 bb 5a 5a 8b bc 77 88 b4 3c
       -0.019430665 -0.007501209 -0.017010856 0.022037728
000090 28 bf 7c 3a 78 66 46 bc a8 f0 cc 3c cf 61 1c bb
       0.00096415216 -0.012109391 0.025017098 -0.002386201
0000a0 3b 09 d0 bb a9 96 bb 3b 3e de 47 bc 8d d6 a0 3b
       -0.0063487566 0.005724747 -0.012198983 0.004908389
0000b0 d8 56 1a 3c 00 00 00 00 4a d8 94 bb f3 af 9c 3b
       0.009420119 0.0 -0.004542385 0.004781717
0000c0 f6 82 6f 3b 6f bf 27 bc 71 ac f5 ba 15 34 a8 3c
       0.0036546565 -0.010238512 -0.0018743408 0.020532647
0000d0 d7 59 46 3c 78 64 aa 3b e9 d6 b9 3b f7 4d fd bb
       0.01210638 0.005199965 0.0056713712 -0.0077302414
0000e0 74 0b 80 3c 20 f1 08 bc b4 fe 01 3c b1 3a b9 bb
       0.015630461 -0.00835827 0.007934261 -0.0056527485
0000f0 7c 3a bb bb 48 5a a5 bb 62 4b 27 3b 00 d1 b7 bc
       -0.005713759 -0.0050461628 0.002552711 -0.022438526

base.mlp.fc2.0.2.weight f4 [64]
000000 c6 1a 7c 3f 53 79 7e 3f b5 38 7e 3f bb 8a 79 3f
       0.98478353 0.99403876 0.9930528 0.9747731
000010 b5 5d 80 3f f3 56 81 3f 29 58 82 3f 7e 5a 83 3f
       1.0028597 1.010466 1.0183154 1.0261991
000020 35 b0 84 3f cc 21 7e 3f cf e4 83 3f 4d d5 80 3f
       1.0366274 0.9927032 1.0304202 1.0065094
000030 f5 fd 7f 3f 48 06 80 3f 10 52 7e 3f 6d b1 83 3f
       0.9999688 1.0001917 0.9934397 1.0288521
000040 42 ea 82 3f 11 e6 7c 3f 63 ca 81 3f a5 87 7e 3f
       1.022774 0.98788553 1.0139889 0.9942573
000050 92 0a 80 3f b1 9c 83 3f b8 ed 80 3f f2 61 7f 3f
       1.0003226 1.0282193 1.0072546 0.9975883
000060 2d ef 7e 3f 3c d0 82 3f 75 85 80 3f 98 07 80 3f
       0.99583703 1.0219798 1.0040728 1.0002317
000070 2f dc 82 3f cf f5 7f 3f 13 26 83 3f 87 27 80 3f
       1.0223445 0.9998445 1.0245994 1.0012063
000080 f0 79 7e 3f 43 2a 82 3f e0 1d 7b 3f 13 cb 7d 3f
       0.9940481 1.0169147 0.9809246 0.9913799
000090 82 f6 82 3f 78 a2 7f 3f 44 b2 83 3f a6 57 82 3f
       1.0231478 0.9985728 1.0288777 1.0182998
0000a0 3f 6e 7f 3f bc 28 7e 3f 77 c5 80 3f d2 66 83 3f
       0.997776 0.99280906 1.0060261 1.0265753
0000b0 ca 23 80 3f 37 1c 7f 3f 6d 5f 7c 3f 62 18 84 3f
       1.0010922 0.9965243 0.9858311 1.0319941
0000c0 13 da 83 3f dc bc 7f 3f 21 f9 7d 3f 63 37 85 3f
       1.0300926 0.9989755 0.99208266 1.0407528
0000d0 9c 1c 81 3f 64 0a 80 3f 10 09 7f 3f 61 14 80 3f
       1.0086856 1.0003171 0.99623203 1.0006219
0000e0 5f 17 81 3f 6e 85 7f 3f 93 14 7e 3f ab 25 80 3f
       1.0085257 0.9981297 0.99250144 1.0011495
0000f0 3e 68 7f 3f 84 b9 82 3f f0 c9 83 3f 79 8e 77 3f
       0.99768436 1.0212865 1.0296001 0.9670177

base.mlp.fc2.0.2.bias f4 [64]
000000 9c 60 f4 bb c6 66 d8 3b d9 25 8d 3c df 78 cd bc
       -0.007457806 0.0066040484 0.017229961 -0.02508205
000010 bf 02 64 bc 67 37 15 bd b8 5a f4 bc 6f ee b3 bc
       -0.01391667 -0.03642979 -0.029828414 -0.02196428
000020 bf 85 ab bc 80 b3 5f 3c 18 aa a9 bc d0 c6 f7 bb
       -0.020937799 0.013653636 -0.02071099 -0.007561542
000030 1d 0e ad 3b 01 a6 4b bb 48 9b 33 3c 17 ff 97 3c
       0.0052812234 -0.0031074288 0.010962315 0.018554254
000040 13 33 a2 bc 12 6e 39 bd f7 bb c8 bc 06 97 53 3c
       -0.019799745 -0.045270987 -0.024503691 0.012914425
000050 e1 ca 16 bc a5 9a b6 bc eb d4 42 bc 70 0d 15 3b
       -0.009203644 -0.022290537 -0.011891584 0.0022743605
000060 d4 b9 13 ba c3 82 95 bc 3c 4b 36 3c 38 21 9b ba
       -0.00056352955 -0.018250829 0.011126336 -0.0011835461
000070 2c 34 7e 3c f3 d6 b8 bb 45 1d ab bc 41 c7 cd bb
       0.015515368 -0.0056408583 -0.02088798 -0.0062798564
000080 b7 16 65 3a a0 43 86 bc 11 46 e6 b9 c9 a7 ef 3c
       0.00087390415 -0.016389668 -0.00043921222 0.02925481
000090 3d 27 9d bc 2a 1f a6 bb 47 17 a2 3c fa 80 b5 bc
       -0.01918375 -0.005069633 0.01978649 -0.022156227
0000a0 cf 18 06 bd 72 a2 44 3c d6 26 e2 bc 2a b0 ac bc
       -0.032738503 0.012001621 -0.027606409 -0.021080095
0000b0 ba 95 2c 3c aa 2c 6f 3b 1c 59 2c ba 77 7b ac bc
       0.0105337445 0.0036495128 -0.00065745576 -0.021054966
0000c0 10 7c 9f bc 76 6d 88 ba b7 e7 7b 3c 08 57 aa 3c
       -0.019468337 -0.0010408598 0.015375069 0.020793453
0000d0 db 82 b3 bc 28 e3 91 3c 2c 16 83 3c a5 28 02 ba
       -0.021912983 0.017808512 0.016001783 -0.0004965163
0000e0 c6 85 31 3c 5c 0b 0a 3a a3 bb 13 3b fb 42 1d bb
       0.010835117 0.0005265975 0.002254226 -0.0023996222
0000f0 8b 11 05 3b bf 56 8e bc e4 67 b5 bc 24 ae c7 bc
       0.0020304646 -0.017375348 -0.022144265 -0.024375029

act.action_out.linear.weight f4 [2, 64]
000000 c5 fe 87 bc bd 4e 91 3c 76 73 2a 3b 75 ca c8 ba
       -0.016600976 0.01773774 0.0026008761 -0.0015319126
000010 07 f4 07 3c 3f 2d c9 3c c0 c2 f3 3c d1 89 f2 3c
       0.008297927 0.024557708 0.02975595 0.029606732
000020 62 d9 1b 3d 7d 32 3a 3c d7 8d 09 3d 23 29 b8 3c
       0.03804911 0.011364576 0.033582535 0.022480553
000030 2f 93 9d bc 3a 47 85 bc e5 d4 23 3c 52 86 f8 bc
       -0.019235222 -0.016269315 0.0099994885 -0.030337486
000040 f7 ad c6 3c 56 91 38 3c 08 2e d7 3c c2 6b 18 3c
       0.024252875 0.01126512 0.026267067 0.009303035
000050 3b c0 5b 3c ef d5 06 3d 0a 94 9d 3c d8 c0 84 3c
       0.0134125305 0.032918867 0.01923563 0.016205236
000060 58 7c 6f bc e1 46 ca 3c 17 e0 4d 3b 5f d5 87 bc
       -0.014617048 0.024692 0.0031414086 -0.016581235
000070 56 5f ec bc 35 5f 74 bc d9 c0 f1 3c 8e a4 b3 3c
       -0.028854053 -0.014915277 0.029510902 0.021929052
000080 7f 1c 5c 3c 93 41 bd 3c a2 ed 85 3c 4f 17 a4 bc
       0.013434528 0.023102557 0.016348664 -0.020030646
000090 a6 d6 c7 3c bd 66 8b 3c 5d d7 ea bc 5a 23 d2 3c
       0.024394345 0.017016763 -0.028667146 0.025651623
0000a0 14 ee 27 3c 36 4b 47 3c dc 3f b3 3c 1d 72 ee 3c
       0.010249633 0.012163928 0.021881036 0.029107148
0000b0 12 a2 b9 bc ee 87 67 3c 3a 91 87 3c 81 b1 09 3d
       -0.022660289 0.014131529 0.016548742 0.033616547
0000c0 b6 ff 0a 3d 1c 8a 90 3c d5 49 04 3c 7e 0e 21 bd
       0.03393527 0.01764398 0.008074244 -0.03932046
0000d0 79 2f ce 3c 60 c1 98 3b b5 bf 7f 3b dc a1 cf bc
       0.025169121 0.004661724 0.0039024178 -0.025345735
0000e0 48 da 92 bc be c5 88 3c 0a 1c 99 3c f6 11 77 bc
       -0.01792635 0.016695853 0.018690128 -0.015079966
0000f0 89 a3 87 3c 96 15 d0 3c 4b 41 04 3d f6 5c cc 3c
       0.016557472 0.025400918 0.03228883 0.024946671
000100 ae b6 8a 3c aa 64 81 bc c4 c9 b0 bb 71 d9 1b 3b
       0.016932812 -0.01579507 -0.005395146 0.0023780728
000110 d6 4f 2b bc 62 cb b9 bc da 27 f0 bc 69 82 db bc
       -0.010456046 -0.022679988 -0.029315878 -0.026795583
000120 db 20 11 bd a1 72 35 bc 14 84 0d bd 76 b3 ae bc
       -0.035431724 -0.011074693 -0.034549788 -0.021325808
000130 7b 60 90 3c ab 2b 9c 3c 96 6c 51 bc b2 8c 05 3d
       0.01762413 0.019063791 -0.012782237 0.03260488
000140 1f c3 bd bc 5e 98 31 bc 24 ab c6 bc c8 e3 17 bc
       -0.02316433 -0.01083955 -0.024251528 -0.009270616
000150 0b fd 6a bc 49 41 01 bd 0a 63 95 bc 74 82 63 bc
       -0.014342557 -0.0315564 -0.018235702 -0.013886083
000160 fc 92 57 3c bf 5a cf bc 07 0f cd bb 10 04 8b 3c
       0.013157602 -0.025311826 -0.006257895 0.01696971
000170 97 3c dc 3c 80 e9 38 3c 86 3c f0 bc a9 24 a1 bc
       0.02688436 0.0112861395 -0.029325735 -0.019670801
000180 43 a1 46 bc 3f 69 bd bc 73 fa 93 bc 81 b2 bd 3c
       -0.012123409 -0.023121474 -0.01806376 0.023156406
000190 21 e3 dc bc 07 aa 96 bc d4 6c 01 3d 65 0b ce bc
       -0.026963772 -0.018391622 0.031597927 -0.025151918
0001a0 af 4c 25 bc bd 55 56 bc 3d 7d c9 bc 99 5b ec bc
       -0.010089084 -0.013081965 -0.024595851 -0.02885227
0001b0 d5 98 be 3c 13 f4 6b bc bb 5a 7a bc 56 78 0d bd
       0.023266235 -0.014401454 -0.015280421 -0.03453859
0001c0 72 c6 0e bd 8e c5 84 bc 45 5f ef bb 84 33 1b 3d
       -0.03485722 -0.016207483 -0.007305058 0.037890926
0001d0 ca d5 c2 bc 32 f6 42 bb 43 14 95 bb ea 2c c1 3c
       -0.023783583 -0.0029748795 -0.0045495345 0.023580987
0001e0 7b 63 ab 3c 0c 6b 85 bc 0b 02 81 bc b8 d3 58 3c
       0.02092146 -0.016286395 -0.015748044 0.013234071
0001f0 cb aa 69 bc c1 c2 d6 bc e0 f0 09 bd 50 48 bc bc
       -0.014261912 -0.026215913 -0.033676982 -0.0229837

act.action_out.linear.bias f4 [2]
000000 6e 2d 93 bc 6d 2d 93 3c
       -0.017965999 0.017965997
