light_mappo-main/results/MyEnv/MyEnv/mappo/check/run67/models/critic.pt (torch, 41397 bytes, 15 tensors)

base.feature_norm.weight f4 [4]
0	0x3f7e5c7e	0.9935988
1	0x3f7e494f	0.9933061
2	0x3f807c15	1.0037867
3	0x3f8160b9	1.0107642

base.feature_norm.bias f4 [4]
0	0x3b63b054	0.003474255
1	0xbbc436c9	-0.005987976
2	0x3a47fdf9	0.00076290924
3	0xbadc3e3f	-0.0016803219

base.mlp.fc1.0.weight f4 [64, 4]
0	0x3dfd1cdf	0.12359022
1	0xbd639821	-0.055565003
2	0xbc2c46c0	-0.010514915
3	0xbc9cc692	-0.019137654
4	0x3e90c407	0.28274557
5	0xbd6da9ff	-0.05802345
6	0xbd276cc1	-0.0408752
7	0xbcbf3095	-0.023338595
8	0xbc45024f	-0.012024476
9	0x3e697783	0.22799496
10	0xbc91aa5c	-0.017781429
11	0x3dd166bc	0.10224673
12	0x3e093133	0.13397674
13	0x3e4e6294	0.20154792
14	0xbd78dac2	-0.0607555
15	0x3ddfb922	0.10923983
16	0x3e14f876	0.14547905
17	0x3dda913e	0.10672234
18	0xbbbde883	-0.00579554
19	0x3e75f54e	0.24019358
20	0xbd9d9332	-0.07694091
21	0x3d848fd2	0.06472744
22	0x3d66ef06	0.056380294
23	0x3c4197e7	0.0118160015
24	0xbe829245	-0.2550222
25	0xbe5ccfdb	-0.21563666
26	0xbea20e3d	-0.31651488
27	0xbe6cf601	-0.23140718
28	0x3e4a4e6b	0.19756477
29	0xbe58a6e3	-0.21157412
30	0x3da68bf8	0.08132166
31	0xbe123593	-0.1427825
32	0xbd13012c	-0.03588979
33	0xbd418edc	-0.047255382
34	0x3e658a13	0.22415952
35	0xbe4c4791	-0.19949175
36	0xbeb2f1d6	-0.3495013
37	0x3e0258fe	0.1272926
38	0x3e71fc28	0.23631346
39	0xbdfabdd7	-0.1224324
40	0x3e844a45	0.25837913
41	0xbd8eae4e	-0.0696684
42	0x3da567ae	0.08076416
43	0xbd4c7464	-0.049915686
44	0xbd0049fb	-0.031320553
45	0xbe91f932	-0.28510433
46	0x3dd9341f	0.106056444
47	0x3f3ba1ec	0.7329395
48	0xbd2bd216	-0.0419484
49	0xbdab6279	-0.083683915
50	0xbe895b98	-0.26827693
51	0xbe314527	-0.17311536
52	0xbce81132	-0.028328512
53	0x3e3de66f	0.18544935
54	0xbe917f14	-0.28417265
55	0xbd437bb9	-0.047725413
56	0x3d8ae3bc	0.06781718
57	0xbddd4c62	-0.108055845
58	0xbe0da2e6	-0.13831672
59	0x3dbc74ca	0.09201963
60	0xbd43c100	-0.04779148
61	0xbebf6000	-0.3737793
62	0xbeefab17	-0.4681022
63	0x3dcaf535	0.09910051
64	0xbed09a27	-0.4074261
65	0x3e8adad8	0.2712009
66	0x3dbd1bc9	0.09233815
67	0xbd4e4561	-0.050359134
68	0xbe5102c5	-0.20411213
69	0xbdfe59d2	-0.124194756
70	0x3e1f8422	0.15577748
71	0xbdc7decf	-0.09759294
72	0xba931690	-0.0011221934
73	0x3e013231	0.12616803
74	0x3dd5a028	0.10430938
75	0x3d96f9de	0.07371877
76	0xbe9195b3	-0.28434524
77	0xbe116676	-0.14199242
78	0x3ea053c2	0.31313902
79	0xbdebc14b	-0.11511477
80	0xbdb7d83d	-0.08976791
81	0x3d99b2f7	0.07504838
82	0xbbb245d8	-0.005440455
83	0xbcac34b0	-0.021021217
84	0x3e8988c2	0.2686215
85	0x3e4a7f91	0.19775225
86	0xbe91f524	-0.2850734
87	0x3e70a3fa	0.23500052
88	0xbe5b1ef9	-0.21398534
89	0x3e576fd0	0.21038747
90	0xbe243cac	-0.1603877
91	0x3d92d66a	0.071698025
92	0x3dd20278	0.10254377
93	0xbe3363b2	-0.175185
94	0x3dbab6b1	0.09116877
95	0xbcaa3d41	-0.020781161
96	0x3e00e900	0.12588882
97	0xbe10f34d	-0.14155312
98	0xbe821ee8	-0.25414205
99	0x3d81194e	0.063036546
100	0xbc9d955e	-0.019236263
101	0xbe7c999a	-0.2466797
102	0x3e8d3e9b	0.27586827
103	0xbd7a198b	-0.061059516
104	0xbe424dad	-0.18974943
105	0x3e0adcfc	0.13560861
106	0xbe101563	-0.14070658
107	0x3c78d3df	0.015187233
108	0xbcc0586c	-0.023479663
109	0xbe98240b	-0.29715
110	0x3e3e6ad9	0.18595447
111	0xbd413882	-0.04717303
112	0x3c83b7af	0.016078798
113	0x3e402dd2	0.18767479
114	0x3d880057	0.0664069
115	0x3cdad9a7	0.026715113
116	0xbe302b74	-0.17204076
117	0x3e7718f1	0.24130608
118	0x3d28ad56	0.04118093
119	0xbe3c471d	-0.18386503
120	0x3ec34009	0.38134792
121	0xbd3e19c1	-0.04641128
122	0x3edab715	0.42717806
123	0xbe3f7165	-0.186956
124	0xbe854fd5	-0.2603747
125	0xbe26e812	-0.16299465
126	0xbda6e505	-0.08149151
127	0x3dd084c1	0.10181571
128	0x3db0cef7	0.086332254
129	0xbe844250	-0.25831842
130	0xbed997a3	-0.42498502
131	0xbea631eb	-0.3245996
132	0x3e1febe9	0.15617336
133	0x3e463824	0.19357353
134	0xbe2d02f9	-0.16895665
135	0x3e4ffc63	0.20311122
136	0xbdd5ca15	-0.10438935
137	0xbd2f1c7d	-0.042751778
138	0xbe09cf37	-0.13457952
139	0xbdc990cd	-0.09842072
140	0xbe66dd3e	-0.22545335
141	0xbcd92ea4	-0.026511498
142	0x3e49edbb	0.19719593
143	0xbe899ab0	-0.2687583
144	0x3e28447c	0.16432375
145	0x3cd1f7fb	0.025630942
146	0xbd38bdff	-0.04510307
147	0x3d86d152	0.065828934
148	0x3d4d5274	0.05012746
149	0x3d91395a	0.07091017
150	0xbe063d2d	-0.13109274
151	0xbdf9c128	-0.12195045
152	0x3ec7c66a	0.39018565
153	0x3dda8b92	0.10671152
154	0xbd95aecf	-0.07308733
155	0xbe807458	-0.25088763
156	0xbe237db7	-0.15965925
157	0xbe6f9a7c	-0.23398775
158	0xbe3ecc27	-0.18632565
159	0x3e138946	0.14407834
160	0x3e0048c9	0.12527765
161	0xbec108ab	-0.37701926
162	0x3d9dbb31	0.077017196
163	0x3da322e7	0.079656415
164	0x3d4dab87	0.05021241
165	0x3cc9caa5	0.024632761
166	0xbb0ec797	-0.0021786445
167	0x3e042156	0.12903342
168	0xbe864b6d	-0.2622942
169	0x3d7c1915	0.061547358
170	0xbe641c36	-0.22276387
171	0x3e25001b	0.16113321
172	0x3c895af5	0.016767005
173	0x3e7dd1d0	0.24787068
174	0xbdc4ea9f	-0.09615063
175	0xbec2c1aa	-0.3803838
176	0x3cc7ee75	0.024405697
177	0x3e5d1020	0.21588182
178	0x3e55989e	0.20859
179	0xbd90f5d0	-0.07078135
180	0xbe2c0746	-0.1679965
181	0xbecfe58f	-0.40604827
182	0x3d43c39f	0.04779398
183	0xbdc358a3	-0.095383905
184	0xbe289d62	-0.16466287
185	0xbd5e0dd0	-0.05421239
186	0xbdae34c0	-0.08506155
187	0x3e0da3ec	0.13832062
188	0x3e33699f	0.1752076
189	0x3e2016d4	0.15633708
190	0x3dbe6080	0.0929575
191	0x3d9d8100	0.076906204
192	0x3e366b67	0.17814408
193	0xbe47c201	-0.195076
194	0xbde62fd7	-0.112395935
195	0x3d50a8e1	0.050942305
196	0xbcd83443	-0.026392108
197	0xbead7474	-0.3387791
198	0xbcc0653f	-0.023485778
199	0xbe13c2aa	-0.14429727
200	0xbddcd70a	-0.10783203
201	0xbcbf120b	-0.023324033
202	0xbe13c2b2	-0.14429739
203	0xbda94aa5	-0.082661904
204	0xbda2a52f	-0.079416625
205	0x3c6cce1b	0.014453436
206	0xbe44c348	-0.19215119
207	0xbe5d5e5e	-0.2161803
208	0xbd9079d5	-0.070544876
209	0x3b747568	0.0037301425
210	0x3e3ce0ff	0.18445204
211	0x3e1b319e	0.15155646
212	0xbe5ad4cf	-0.21370243
213	0x3e3b7c42	0.1830912
214	0xbe55a92b	-0.20865314
215	0x3e83a19a	0.2570923
216	0x3e695c6c	0.22789162
217	0xbcdaa2b0	-0.026688904
218	0x3e3d1cd9	0.18468036
219	0x3db2a011	0.087219365
220	0xbe426724	-0.18984658
221	0xbd95f681	-0.073224075
222	0x3db08c23	0.08620479
223	0xbe15a021	-0.14611866
224	0x3db11821	0.0864718
225	0xbe930543	-0.28714952
226	0x3bdd7432	0.0067582363
227	0x3dce7b4b	0.1008211
228	0xbe0ff997	-0.14060055
229	0x3e0cca1e	0.13748977
230	0x3da0e774	0.07856646
231	0x3ea35754	0.31902564
232	0x3e0562a2	0.13025907
233	0x3dc8c121	0.098024614
234	0xbe112c4e	-0.14177057
235	0xbdb5f946	-0.08885436
236	0xbc8bef6e	-0.017081942
237	0x3d0f1864	0.03493537
238	0xbdaae6b0	-0.083447814
239	0xbe2efaf7	-0.17087923
240	0xbe981d6a	-0.2970994
241	0xbe1d2c29	-0.15348877
242	0x3e38f465	0.18061979
243	0x3e9c78b5	0.30560842
244	0xbba27683	-0.0049579754
245	0x3d0fed6d	0.035138536
246	0xbd2e3f8c	-0.04254107
247	0x3e502638	0.2032708
248	0xbbb0e8c0	-0.0053988397
249	0xbbc9645e	-0.006145998
250	0x3c2d1857	0.010564885
251	0x3a3704de	0.0006981621
252	0x3e383425	0.17988642
253	0x3d90a89a	0.07063408
254	0x3e1ccfbe	0.15313622
255	0x3dd268f6	0.10273926

base.mlp.fc1.0.bias f4 [64]
0	0xbb1bb044	-0.0023756186
1	0x3bb9c316	0.005669008
2	0xbb5dd5b5	-0.0033849303
3	0x3a1f115b	0.0006067955
4	0xbb81a375	-0.003956253
5	0xb97ce72d	-0.00024118712
6	0x3b7b90b7	0.0038385817
7	0xbb9cbff8	-0.0047836266
8	0x3b8f736e	0.004377774
9	0x3bbf2985	0.005833807
10	0x39f7fcc8	0.00047299848
11	0x3c3e729e	0.011624007
12	0x3a595aad	0.0008291405
13	0xba7202b4	-0.000923197
14	0xbae3de90	-0.0017385054
15	0xbc15a0fa	-0.009132618
16	0xbbb55429	-0.0055337143
17	0xbc8c474e	-0.017123844
18	0xbc52b045	-0.012859409
19	0xbc15dfd9	-0.009147608
20	0xbbc618c7	-0.006045434
21	0x3bd01968	0.006350685
22	0x3acf5d00	0.0015820563
23	0x3c10f1e9	0.008846738
24	0x3b23e4e8	0.0025008265
25	0x3bd8b90b	0.0066138557
26	0x39e32221	0.00043322242
27	0x3abe2b9e	0.0014508849
28	0x3aef7101	0.0018267931
29	0xbb3f38fa	-0.0029178248
30	0x3b0a8ffb	0.0021142948
31	0x3c037856	0.008024296
32	0xbb2cd9a3	-0.0026374839
33	0xbb0b2acb	-0.0021235223
34	0x3b43526c	0.0029803766
35	0xbb85da32	-0.004084849
36	0xbb881bb2	-0.004153692
37	0x3b491065	0.0030679938
38	0x3be21b57	0.006900232
39	0x3bdbeeed	0.006711832
40	0x3c45219f	0.012031942
41	0xbb43f8b8	-0.0029902887
42	0x3b692cb9	0.0035579635
43	0x3bd10423	0.006378667
44	0x3b0678a7	0.0020518692
45	0xbbbe5a95	-0.005809138
46	0xbc44a840	-0.012003005
47	0x3b5b2027	0.0033435912
48	0x3a7edebc	0.0009722521
49	0xbbf7dc6e	-0.007564119
50	0x383bbd7f	4.4760756e-05
51	0xbb3043d5	-0.00268959
52	0x3bf63e41	0.0075147455
53	0xbab924f7	-0.0014125396
54	0xbb0268f8	-0.0019898992
55	0x3acfbf05	0.0015849775
56	0x3c2d0901	0.010561229
57	0x3bb5d014	0.0055484865
58	0xbab7fbbd	-0.0014036816
59	0xbb94e382	-0.0045437226
60	0xbbe3ef88	-0.0069560446
61	0xbb95bbe0	-0.0045695156
62	0xbc54a8a8	-0.012979664
63	0x3a7e9f1f	0.0009713042

base.mlp.fc1.2.weight f4 [64]
0	0x3f7dfdea	0.9921557
1	0x3f7d5d81	0.989708
2	0x3f7f4d68	0.9972749
3	0x3f80432d	1.00205
4	0x3f7ee526	0.995684
5	0x3f7f3444	0.99689126
6	0x3f7ea1c9	0.99465615
7	0x3f802025	1.000981
8	0x3f80d2b6	1.0064304
9	0x3f800300	1.0000916
10	0x3f804985	1.0022436
11	0x3f80ccdf	1.0062522
12	0x3f7eb9df	0.99502367
13	0x3f7f83b1	0.9981032
14	0x3f7d9e71	0.9906989
15	0x3f7d701c	0.9899919
16	0x3f7eb61e	0.9949664
17	0x3f8050ab	1.0024618
18	0x3f7f76c8	0.9979062
19	0x3f80204f	1.000986
20	0x3f806538	1.003089
21	0x3f818e2b	1.0121511
22	0x3f7fc9ca	0.9991728
23	0x3f807d22	1.0038188
24	0x3f80a996	1.0051754
25	0x3f7fe2d9	0.9995552
26	0x3f7e0a1d	0.9923418
27	0x3f7e4991	0.99331003
28	0x3f7eab9c	0.99480605
29	0x3f80a96f	1.0051707
30	0x3f80bbad	1.0057274
31	0x3f808e31	1.0043393
32	0x3f7f7c1b	0.99798745
33	0x3f7f8a22	0.9982015
34	0x3f7e3eb4	0.9931443
35	0x3f7f8fec	0.9982898
36	0x3f7eb256	0.9949087
37	0x3f809558	1.0045576
38	0x3f80c527	1.0060166
39	0x3f80170b	1.0007032
40	0x3f7f3a51	0.9969836
41	0x3f7edf4e	0.99559486
42	0x3f7f45b0	0.9971571
43	0x3f814bac	1.0101218
44	0x3f7e947d	0.99445325
45	0x3f7fa043	0.99853915
46	0x3f7ec175	0.9951394
47	0x3f7e92c1	0.9944268
48	0x3f7ea6bb	0.9947316
49	0x3f7fa960	0.9986782
50	0x3f7f7f8e	0.9980401
51	0x3f7fd020	0.9992695
52	0x3f805b20	1.0027809
53	0x3f81a30d	1.0127884
54	0x3f805b4c	1.0027862
55	0x3f7d441f	0.9893207
56	0x3f7e9f14	0.99461484
57	0x3f818e8f	1.012163
58	0x3f7ec68d	0.99521714
59	0x3f7ffc34	0.99994206
60	0x3f7f1661	0.9964352
61	0x3f7f3dad	0.99703485
62	0x3f7f5a4d	0.99747163
63	0x3f80e564	1.0070004

base.mlp.fc1.2.bias f4 [64]
0	0x3901198c	0.00012311916
1	0x3c22b790	0.00993146
2	0xbb22196d	-0.0024734393
3	0x3a522ea4	0.0008017814
4	0xbb7ae812	-0.0038285297
5	0x3b3adc91	0.0028512815
6	0x3b800b06	0.003907564
7	0xbb78fa6e	-0.0037991065
8	0x3b8b104e	0.004243887
9	0x3bebc712	0.007195362
10	0xbbeba0d9	-0.0071908054
11	0x3b6c6434	0.0036070468
12	0x3b01ab5f	0.0019785983
13	0xb919940c	-0.00014646369
14	0x3b015505	0.0019734513
15	0xbaf40ffd	-0.0018620488
16	0x3b4796f1	0.0030454958
17	0xbb8f45fb	-0.004372356
18	0xb9d3bc9d	-0.00040385584
19	0xbb114e25	-0.0022171822
20	0xbb9b578d	-0.0047406615
21	0x3ae7e475	0.0017691987
22	0x3aa8aaed	0.0012868323
23	0xbb3a3221	-0.0028411227
24	0x3a4c3cd5	0.0007791047
25	0x3b1b0e17	0.0023659521
26	0x39d240e0	0.00040102657
27	0x3bc9e494	0.006161282
28	0x3b27e297	0.0025617236
29	0xbb304f30	-0.0026902668
30	0x39befc54	0.00036427623
31	0x3a481a73	0.0007633336
32	0xbaa08829	-0.001224761
33	0xba9ad05e	-0.0011811366
34	0x3b52541d	0.0032093592
35	0xba1201c5	-0.00055697217
36	0x3ab348da	0.0013678328
37	0x3b523dea	0.003208036
38	0x3bbc48f0	0.0057459995
39	0xbac30ec5	-0.0014881721
40	0x3b8493ab	0.0040459237
41	0xba467737	-0.0007570865
42	0x3bb13323	0.0054077073
43	0x3b6cb079	0.0036115928
44	0x3adcb102	0.001683742
45	0xbb2a265c	-0.0025962805
46	0x3ac46881	0.0014984758
47	0x3b7a4a36	0.0038191206
48	0x39b8fb03	0.00035282233
49	0xba2264b2	-0.00061948143
50	0xba87cb2e	-0.0010360235
51	0x39a9ace9	0.0003236302
52	0xbb86665b	-0.004101557
53	0xbbc94a31	-0.0061428775
54	0xbb1e4863	-0.0024152033
55	0x3bcba631	0.00621488
56	0x3bd0fe66	0.006377983
57	0x3987447a	0.00025800226
58	0xba7ce468	-0.00096470723
59	0xbb9d25ee	-0.0047957813
60	0x39eb0dfa	0.00044833106
61	0x3a988472	0.0011636151
62	0x3b325ce3	0.002721601
63	0xbbffb719	-0.0078038094

base.mlp.fc_h.0.weight f4 [64, 64]
0	0xbe8757ca	-0.26434165
1	0xbe35b2ba	-0.1774396
2	0xbc78b249	-0.015179225
3	0x3e0497b1	0.1294849
4	0x3e56d0c7	0.2097808
5	0x3e475c14	0.19468719
6	0x3e8f1f41	0.27953532
7	0x3bb63096	0.005559991
8	0xbcecba30	-0.028897375
9	0x3dc5b7b5	0.0965418
10	0x3e9d56a2	0.30730158
11	0x3d18a45f	0.03726613
12	0x3d8ad6e0	0.067792654
13	0xbd337fed	-0.04382317
14	0xbe0bd596	-0.13655695
15	0xbd439df1	-0.047758047
16	0x3d7a79a8	0.061151177
17	0x3ef470c9	0.47742298
18	0xbd314f2c	-0.043288395
19	0x3e0570fe	0.13031384
20	0x3d909163	0.0705898
21	0xbe5192a5	-0.20466097
22	0xbec58992	-0.3858152
23	0xbda12ff3	-0.07870474
24	0xbe1a67d2	-0.15078667
25	0x3e372549	0.17885317
26	0x3dc55321	0.09634996
27	0x3de65816	0.1124727
28	0xbe2f2627	-0.17104398
29	0x3e0bcaca	0.13651577
30	0xbe26a42f	-0.16273569
31	0x3d7d3db7	0.061826434
32	0x3df902f2	0.12158765
33	0xbc900ad8	-0.017583296
34	0xbcc7d6c8	-0.024394408
35	0xbe73da82	-0.23813823
36	0xbe143f2a	-0.1447722
37	0xbd832ade	-0.06404661
38	0x3d1fc88d	0.03900962
39	0xbe878a91	-0.26472905
40	0xbe95475f	-0.29156014
41	0xbdeb0e58	-0.11477345
42	0x3d94a49f	0.072579615
43	0xbed4998e	-0.41523403
44	0xbed27c81	-0.41110614
45	0xbdc0479c	-0.093886584
46	0x3dd431c9	0.10361058
47	0xbd60651c	-0.054783925
48	0x3d5e6c50	0.054302514
49	0x3dea79c9	0.1144901
50	0xbe758c3c	-0.23979276
51	0x3dfada30	0.12248647
52	0x3d60fdd6	0.054929577
53	0xbe164145	-0.14673336
54	0xbe57e840	-0.2108469
55	0x3db36f93	0.087615155
56	0xbe864fd4	-0.2623278
57	0xbe55e96a	-0.20889822
58	0x3d4d0296	0.050051294
59	0xbd983787	-0.07432466
60	0xbe5502ba	-0.20801821
61	0xbcee435f	-0.02908486
62	0x3d19890b	0.03748421
63	0xbdea659b	-0.11445161
64	0xbe4f78e9	-0.20260967
65	0xbcf8337a	-0.030297983
66	0xbb84918e	-0.004045672
67	0xbd8810a5	-0.066438
68	0xbcdb4de0	-0.026770532
69	0xbea2120e	-0.316544
70	0x3d99d3f1	0.07511128
71	0x3d50d741	0.050986532
72	0xbe551065	-0.20807035
73	0x3ea1e314	0.3161856
74	0x3e299e41	0.16564275
75	0xbdb998d9	-0.090623565
76	0xbdc8d41c	-0.09806082
77	0xbd8d9c3b	-0.06914564
78	0xbe8558f5	-0.2604443
79	0x3cf1de53	0.029524958
80	0x3de3139d	0.11087725
81	0xbdbce7a9	-0.09223873
82	0xbcc08811	-0.023502382
83	0x3e1d4231	0.15357281
84	0x3d3007e3	0.04297627
85	0x3d49e568	0.049291044
86	0xbe45f348	-0.19331086
87	0xbd9dfa75	-0.077137865
88	0xbda61807	-0.081100516
89	0xba78b522	-0.000948744
90	0x3e8e7918	0.27826762
91	0xbd19dca6	-0.037563942
92	0xbc8e498f	-0.01736906
93	0xbd2163ee	-0.03940194
94	0x3e80d790	0.2516446
95	0x3e7753d2	0.24153069
96	0xbdaf2308	-0.085516036
97	0x3e54aea4	0.20769745
98	0xbe5f00b4	-0.21777612
99	0x3e8337f8	0.25628638
100	0x3e15c071	0.14624192
101	0x3e63271e	0.22182891
102	0xbdadf204	-0.084934264
103	0xbcc538ca	-0.02407493
104	0xbe035f7f	-0.12829398
105	0x3e67b078	0.22625911
106	0x3e885f76	0.2663533
107	0xbe0b33ac	-0.1359393
108	0x3e682326	0.22669658
109	0xbddc8005	-0.10766605
110	0x3e94dd27	0.29074976
111	0xbe5f60db	-0.21814291
112	0xbe2aeb81	-0.166914
113	0xbef5c5e8	-0.48002553
114	0x3e21e935	0.15811618
115	0x3cf97dc6	0.030455481
116	0xbd4141bc	-0.04718183
117	0x36e4160c	6.797496e-06
118	0xbdb166f9	-0.086622186
119	0xbc646536	-0.013940146
120	0x3dca90fc	0.09890935
121	0xbc3bb072	-0.011455642
122	0x3de7be74	0.11315623
123	0x3ec6f2d8	0.3885715
124	0xbe51f583	-0.20503812
125	0xbe200529	-0.15626968
126	0x3cfbe91d	0.030750806
127	0x3ec75598	0.3893249
128	0x3cadb96f	0.021206586
129	0xbeb2f9a8	-0.34956098
130	0x3e26f580	0.16304588
131	0xbe15518f	-0.14581893
132	0xbe43588d	-0.19076748
133	0x3ede52f5	0.43422666
134	0xbe24b560	-0.16084814
135	0xbe105c05	-0.14097603
136	0xbdfda828	-0.12385589
137	0x3dfc2357	0.12311428
138	0x3e594579	0.21217908
139	0xbd86505d	-0.06558297
140	0xbdace2a6	-0.08441667
141	0x3e2306cf	0.15920566
142	0xbde484fb	-0.111581765
143	0x3d4576be	0.048208944
144	0xbe072fde	-0.13201854
145	0x3ed5e3f2	0.4177547
146	0xbdd39bc8	-0.10332447
147	0x3e509aeb	0.20371597
148	0x3e177489	0.14790548
149	0x3eae8ece	0.34093326
150	0xbe23b3fb	-0.15986626
151	0xbe4e923a	-0.20172969
152	0xbc03eeeb	-0.008052568
153	0xbe1dd645	-0.15413769
154	0xbdd2952b	-0.10282358
155	0xbdc78af1	-0.09743298
156	0x3e5a4db8	0.2131871
157	0xbd12a9b3	-0.03580637
158	0xba80f510	-0.0009838659
159	0xbd6d2b42	-0.057902582
160	0xbe2139f9	-0.15744771
161	0x3de323af	0.110907905
162	0x3d6c0105	0.05761816
163	0xbddf56a3	-0.109051965
164	0x3e9f5c45	0.31125084
165	0xbdcd22a0	-0.1001637
166	0x3d9f8d4e	0.077906236
167	0x3d935955	0.07194773
168	0x3e110d57	0.14165245
169	0x3cc354e8	0.023844197
170	0x3d870095	0.06591908
171	0x3d3b7c80	0.04577303
172	0x3e558dcd	0.20854874
173	0x3e3f5934	0.18686372
174	0x3e90e56a	0.2830003
175	0x3e76d72c	0.24105519
176	0xbe16de3e	-0.14733216
177	0x3d6da953	0.05802281
178	0xbb8e0600	-0.0043342113
179	0x3e49eb98	0.19718778
180	0x3e01c779	0.12673749
181	0x3e4d4d76	0.2004908
182	0x3e01c145	0.12671383
183	0x3e68fbdb	0.22752325
184	0x3d907880	0.070542336
185	0xbe457aa0	-0.19285059
186	0xbed47726	-0.41497153
187	0x3dba65b7	0.09101432
188	0x3e7dbf5e	0.24780032
189	0xbbb168b5	-0.0054140934
190	0xbd606221	-0.054781083
191	0xbb26466e	-0.002537157
192	0x3e5bafa2	0.21453717
193	0xbd149599	-0.03627548
194	0xbeb67d0b	-0.35642275
195	0xbd9fa9bc	-0.07796046
196	0xbe8e3a9e	-0.27779096
197	0xbe134e96	-0.14385447
198	0xbc4aba94	-0.012373585
199	0x3df864d7	0.12128609
200	0x3d793bef	0.060848173
201	0xbe4a000a	-0.19726577
202	0x3dc2d553	0.095133446
203	0x3ea64325	0.32473102
204	0xbd4586a8	-0.04822412
205	0x3db069d6	0.086139366
206	0xbe2dbe0b	-0.16967027
207	0x3ca58249	0.020203726
208	0xbda7bcc0	-0.08190298
209	0x3e58ec06	0.21183786
210	0x3e8c7316	0.27431554
211	0x3d849905	0.06474499
212	0x3d161a25	0.036646027
213	0xbea9ddbb	-0.3317698
214	0xbe496229	-0.19666351
215	0xbd1dd4a0	-0.038532853
216	0xbd43dcb0	-0.047817886
217	0x3da74e18	0.08169192
218	0x3e63246c	0.22181863
219	0xbe582bb0	-0.21110415
220	0x3c9fabad	0.019491041
221	0x3c6808b8	0.014162235
222	0x3e4b0796	0.19827113
223	0xbdc32ad0	-0.0952965
224	0x3c9ce463	0.019151872
225	0x3d61b015	0.055099566
226	0xbeadea16	-0.33967656
227	0xbe2f571b	-0.17123072
228	0xbe136de9	-0.14397396
229	0xbe73abe2	-0.23796037
230	0xbda81e56	-0.08208911
231	0xbbbd424b	-0.005775725
232	0x3e502dbb	0.20329945
233	0xbe8d407c	-0.2758826
234	0x3cc28ab3	0.023747778
235	0xbe332d04	-0.17497641
236	0x3e57d5fb	0.21077721
237	0x3ea1cfe6	0.31603926
238	0xbe1150f1	-0.14191033
239	0xbe1d48a6	-0.15359744
240	0x3e11bfb1	0.1423328
241	0x3d601dd8	0.05471596
242	0x3e6e89f9	0.2329482
243	0x3ddfa09a	0.10919304
244	0xbde29998	-0.11064452
245	0xbe564ee1	-0.20928527
246	0x3d81e089	0.06341655
247	0x3ebb350e	0.36563915
248	0x3eb515f1	0.35368302
249	0x3e8680a6	0.26270026
250	0xbd88f323	-0.06687
251	0x3c71512b	0.014728825
252	0xbdab2298	-0.083562076
253	0x3df915d2	0.12162365
254	0xbd6609e7	-0.056161787
255	0xbcd0e4b9	-0.025499688

base.mlp.fc_h.0.bias f4 [64]
0	0x00000000	0.0
1	0x00000000	0.0
2	0x00000000	0.0
3	0x00000000	0.0
4	0x00000000	0.0
5	0x00000000	0.0
6	0x00000000	0.0
7	0x00000000	0.0
8	0x00000000	0.0
9	0x00000000	0.0
10	0x00000000	0.0
11	0x00000000	0.0
12	0x00000000	0.0
13	0x00000000	0.0
14	0x00000000	0.0
15	0x00000000	0.0
16	0x00000000	0.0
17	0x00000000	0.0
18	0x00000000	0.0
19	0x00000000	0.0
20	0x00000000	0.0
21	0x00000000	0.0
22	0x00000000	0.0
23	0x00000000	0.0
24	0x00000000	0.0
25	0x00000000	0.0
26	0x00000000	0.0
27	0x00000000	0.0
28	0x00000000	0.0
29	0x00000000	0.0
30	0x00000000	0.0
31	0x00000000	0.0
32	0x00000000	0.0
33	0x00000000	0.0
34	0x00000000	0.0
35	0x00000000	0.0
36	0x00000000	0.0
37	0x00000000	0.0
38	0x00000000	0.0
39	0x00000000	0.0
40	0x00000000	0.0
41	0x00000000	0.0
42	0x00000000	0.0
43	0x00000000	0.0
44	0x00000000	0.0
45	0x00000000	0.0
46	0x00000000	0.0
47	0x00000000	0.0
48	0x00000000	0.0
49	0x00000000	0.0
50	0x00000000	0.0
51	0x00000000	0.0
52	0x00000000	0.0
53	0x00000000	0.0
54	0x00000000	0.0
55	0x00000000	0.0
56	0x00000000	0.0
57	0x00000000	0.0
58	0x00000000	0.0
59	0x00000000	0.0
60	0x00000000	0.0
61	0x00000000	0.0
62	0x00000000	0.0
63	0x00000000	0.0

base.mlp.fc_h.2.weight f4 [64]
0	0x3f800000	1.0
1	0x3f800000	1.0
2	0x3f800000	1.0
3	0x3f800000	1.0
4	0x3f800000	1.0
5	0x3f800000	1.0
6	0x3f800000	1.0
7	0x3f800000	1.0
8	0x3f800000	1.0
9	0x3f800000	1.0
10	0x3f800000	1.0
11	0x3f800000	1.0
12	0x3f800000	1.0
13	0x3f800000	1.0
14	0x3f800000	1.0
15	0x3f800000	1.0
16	0x3f800000	1.0
17	0x3f800000	1.0
18	0x3f800000	1.0
19	0x3f800000	1.0
20	0x3f800000	1.0
21	0x3f800000	1.0
22	0x3f800000	1.0
23	0x3f800000	1.0
24	0x3f800000	1.0
25	0x3f800000	1.0
26	0x3f800000	1.0
27	0x3f800000	1.0
28	0x3f800000	1.0
29	0x3f800000	1.0
30	0x3f800000	1.0
31	0x3f800000	1.0
32	0x3f800000	1.0
33	0x3f800000	1.0
34	0x3f800000	1.0
35	0x3f800000	1.0
36	0x3f800000	1.0
37	0x3f800000	1.0
38	0x3f800000	1.0
39	0x3f800000	1.0
40	0x3f800000	1.0
41	0x3f800000	1.0
42	0x3f800000	1.0
43	0x3f800000	1.0
44	0x3f800000	1.0
45	0x3f800000	1.0
46	0x3f800000	1.0
47	0x3f800000	1.0
48	0x3f800000	1.0
49	0x3f800000	1.0
50	0x3f800000	1.0
51	0x3f800000	1.0
52	0x3f800000	1.0
53	0x3f800000	1.0
54	0x3f800000	1.0
55	0x3f800000	1.0
56	0x3f800000	1.0
57	0x3f800000	1.0
58	0x3f800000	1.0
59	0x3f800000	1.0
60	0x3f800000	1.0
61	0x3f800000	1.0
62	0x3f800000	1.0
63	0x3f800000	1.0

base.mlp.fc_h.2.bias f4 [64]
0	0x00000000	0.0
1	0x00000000	0.0
2	0x00000000	0.0
3	0x00000000	0.0
4	0x00000000	0.0
5	0x00000000	0.0
6	0x00000000	0.0
7	0x00000000	0.0
8	0x00000000	0.0
9	0x00000000	0.0
10	0x00000000	0.0
11	0x00000000	0.0
12	0x00000000	0.0
13	0x00000000	0.0
14	0x00000000	0.0
15	0x00000000	0.0
16	0x00000000	0.0
17	0x00000000	0.0
18	0x00000000	0.0
19	0x00000000	0.0
20	0x00000000	0.0
21	0x00000000	0.0
22	0x00000000	0.0
23	0x00000000	0.0
24	0x00000000	0.0
25	0x00000000	0.0
26	0x00000000	0.0
27	0x00000000	0.0
28	0x00000000	0.0
29	0x00000000	0.0
30	0x00000000	0.0
31	0x00000000	0.0
32	0x00000000	0.0
33	0x00000000	0.0
34	0x00000000	0.0
35	0x00000000	0.0
36	0x00000000	0.0
37	0x00000000	0.0
38	0x00000000	0.0
39	0x00000000	0.0
40	0x00000000	0.0
41	0x00000000	0.0
42	0x00000000	0.0
43	0x00000000	0.0
44	0x00000000	0.0
45	0x00000000	0.0
46	0x00000000	0.0
47	0x00000000	0.0
48	0x00000000	0.0
49	0x00000000	0.0
50	0x00000000	0.0
51	0x00000000	0.0
52	0x00000000	0.0
53	0x00000000	0.0
54	0x00000000	0.0
55	0x00000000	0.0
56	0x00000000	0.0
57	0x00000000	0.0
58	0x00000000	0.0
59	0x00000000	0.0
60	0x00000000	0.0
61	0x00000000	0.0
62	0x00000000	0.0
63	0x00000000	0.0

base.mlp.fc2.0.0.weight f4 [64, 64]
0	0xbe85c043	-0.26123247
1	0xbe32850d	-0.17433567
2	0xbce951a0	-0.028481305
3	0x3e07850c	0.13234347
4	0x3e59985d	0.21249528
5	0x3e3b6f32	0.18304136
6	0x3e908c06	0.2823183
7	0x3c0e332c	0.0086791925
8	0xbcd1d95e	-0.025616344
9	0x3dbead8f	0.093104474
10	0x3e9eeefb	0.31041703
11	0x3d0f1219	0.03492937
12	0x3d9134f6	0.070901796
13	0xbd664f51	-0.056227986
14	0xbe0894fc	-0.13338083
15	0xbd0e7373	-0.03477807
16	0x3d433913	0.047661852
17	0x3efa9cd8	0.48947787
18	0xbd3a7e01	-0.045530323
19	0x3e083468	0.13301241
20	0x3d74208f	0.059601363
21	0xbe4e5a7f	-0.20151709
22	0xbecc6df4	-0.39927638
23	0xbd861648	-0.065472186
24	0xbe1737c7	-0.14767371
25	0x3e44430e	0.19166204
26	0x3da9d1ab	0.08291944
27	0x3e004b1c	0.12528652
28	0xbe2f972b	-0.1714751
29	0x3dfc673e	0.123243794
30	0xbe237421	-0.15962268
31	0x3d709a11	0.05874068
32	0x3dff624c	0.124699205
33	0xbca61eb0	-0.020278305
34	0xbcb0943d	-0.02155506
35	0xbe7062bd	-0.23475166
36	0xbe11100e	-0.1416628
37	0xbd799703	-0.06093503
38	0x3d2c86d1	0.04212076
39	0xbe88db63	-0.2672988
40	0xbe8ec269	-0.27882698
41	0xbde4795e	-0.111559615
42	0x3d72a549	0.05923966
43	0xbed30164	-0.41211998
44	0xbed0eefb	-0.40807328
45	0xbda6a4fd	-0.08136938
46	0x3dcd95fb	0.10038372
47	0xbd53a98c	-0.051675364
48	0x3d6ba880	0.05753374
49	0x3e02e3a7	0.12782155
50	0xbe73432f	-0.23756097
51	0x3e009ca0	0.12559748
52	0x3d56810e	0.05236917
53	0xbe240b23	-0.16019873
54	0xbe5475b4	-0.20748025
55	0x3dcdee4e	0.10055219
56	0xbe7f3af3	-0.24924831
57	0xbe593940	-0.21213245
58	0x3d59c042	0.053161867
59	0xbd91d6fb	-0.071210824
60	0xbe57f2a2	-0.21088651
61	0xbd2b4a33	-0.04181881
62	0x3d2683f9	0.040653203
63	0xbde3d404	-0.11124423
64	0xbe44d603	-0.19222264
65	0xbca4e5c4	-0.020129092
66	0xbc8e9aa3	-0.01740772
67	0xbd8602fd	-0.06543539
68	0xbcea354c	-0.028589867
69	0xbea22568	-0.31669164
70	0x3d9a44a8	0.075326264
71	0x3d7d4183	0.061830055
72	0xbe585ef2	-0.21129969
73	0x3e9f5169	0.311168
74	0x3e34dade	0.17661616
75	0xbdbab417	-0.09116381
76	0xbdb89086	-0.09011941
77	0xbd972b63	-0.07381322
78	0xbe8389d8	-0.25691104
79	0x3cdea097	0.027176185
80	0x3dcbac79	0.09945006
81	0xbdb233f1	-0.08701313
82	0xbcd02711	-0.025409253
83	0x3e232547	0.15932189
84	0x3d1df5f7	0.03856465
85	0x3d536854	0.051613167
86	0xbe534d3c	-0.20634931
87	0xbd93edba	-0.07223077
88	0xbda2b42a	-0.0794452
89	0x3b828498	0.0039830916
90	0x3e8827bc	0.26592815
91	0xbd05ca4a	-0.03266362
92	0xbcbab4e0	-0.022791326
93	0xbd32a342	-0.043612726
94	0x3e82afb6	0.25524682
95	0x3e78cfbb	0.24297993
96	0xbd9fbc13	-0.07799544
97	0x3e560785	0.20901306
98	0xbe591fba	-0.21203509
99	0x3e808b3d	0.2510623
100	0x3e201d1c	0.15636104
101	0x3e653692	0.22384098
102	0xbdab0056	-0.083496734
103	0xbccf5458	-0.025308773
104	0xbdfcba6b	-0.12340244
105	0x3e6772fe	0.2260246
106	0x3e869c68	0.26291203
107	0xbe0c9845	-0.13729961
108	0x3e657d24	0.22411019
109	0xbdd27ae7	-0.10277348
110	0x3e939a0c	0.28828466
111	0xbe56106c	-0.20904702
112	0xbe266091	-0.16247775
113	0xbef34b85	-0.47518554
114	0x3e1c9e1d	0.1529469
115	0x3cf5497c	0.029942267
116	0xbd26c456	-0.040714584
117	0xbb6838fb	-0.0035434354
118	0xbda6fc75	-0.08153621
119	0xbc864b22	-0.016393248
120	0x3dd486f6	0.10377304
121	0xbc447384	-0.011990432
122	0x3defbdbc	0.11706111
123	0x3ec72d89	0.38901928
124	0xbe4fb133	-0.2028244
125	0xbe2132cc	-0.15742034
126	0x3d11b05f	0.03556859
127	0x3ec9ff64	0.3945266
128	0x3d291f08	0.04128936
129	0xbea992c5	-0.3311979
130	0x3e1cf69c	0.15328449
131	0xbe1e17b4	-0.1543873
132	0xbe4b3d79	-0.19847669
133	0x3ee85492	0.45377022
134	0xbe27a8fe	-0.16373059
135	0xbdf790de	-0.12088178
136	0xbdedea19	-0.11616916
137	0x3e071ecb	0.1319534
138	0x3e6dc86a	0.23220983
139	0xbd9e2e76	-0.077237055
140	0xbdb00582	-0.085948005
141	0x3e1619ec	0.14658326
142	0xbde9d40e	-0.11417399
143	0x3cfb336d	0.03066417
144	0xbe09bbb1	-0.13450505
145	0x3eddc078	0.43310905
146	0xbdac3c21	-0.08409906
147	0x3e5b1ccd	0.21397705
148	0x3e29866b	0.16555183
149	0x3eaa896e	0.33307976
150	0xbe2d1203	-0.16901402
151	0xbe3915fc	-0.18074793
152	0xbc5a406a	-0.013321022
153	0xbe121eef	-0.14269613
154	0xbde5a103	-0.11212351
155	0xbdb17dc1	-0.08666564
156	0x3e696e17	0.22795902
157	0xbceeed2d	-0.029165829
158	0x3c0aac65	0.008463954
159	0xbd6a40cf	-0.057190713
160	0xbe1d3821	-0.15353443
161	0x3dd2a7ed	0.102859356
162	0x3d9b633c	0.07587287
163	0xbdd0eb8d	-0.10201178
164	0x3ea34d37	0.31894848
165	0xbdce611f	-0.10077118
166	0x3d9fc5f0	0.078014255
167	0x3d5fb30c	0.05461411
168	0x3e1a9c95	0.15098794
169	0x3d1a9f7d	0.037749756
170	0x3d70503f	0.05867028
171	0x3d4b05d6	0.049566112
172	0x3e5cb6d5	0.2155412
173	0x3e49453c	0.19655317
174	0x3e8b5a56	0.27217358
175	0x3e853481	0.2601662
176	0xbe093193	-0.13397817
177	0x3d95276b	0.07282909
178	0xbb39a16f	-0.0028324982
179	0x3e490368	0.19630206
180	0x3e10a54f	0.1412556
181	0x3e458f03	0.19292836
182	0x3e171584	0.14754301
183	0x3e770240	0.24121952
184	0x3da50545	0.08057646
185	0xbe4c2adf	-0.19938229
186	0xbed66ced	-0.4187998
187	0x3dd3f3f5	0.103492655
188	0x3e82bd5b	0.25535092
189	0xbc5b1e11	-0.013373868
190	0xbd0dafa0	-0.034591317
191	0x3c91af37	0.017783744
192	0x3e5ed877	0.21762262
193	0xbd2873ca	-0.04112605
194	0xbeb22bc1	-0.34799007
195	0xbd8e66a4	-0.06953171
196	0xbe8b4fa5	-0.272092
197	0xbe0a9b5b	-0.13535826
198	0xbb815a7a	-0.003947553
199	0x3de7697f	0.11299419
200	0x3d6df9e1	0.05809963
201	0xbe410a64	-0.1885162
202	0x3db83261	0.08993984
203	0x3ea368be	0.3191585
204	0xbd29952a	-0.04140202
205	0x3dc1ad7e	0.09456919
206	0xbe2d2307	-0.16907893
207	0x3c7b21ba	0.015327865
208	0xbd967809	-0.07347114
209	0x3e6267ab	0.22109859
210	0x3e90c705	0.2827684
211	0x3d99e47f	0.07514285
212	0x3d38add4	0.04508765
213	0xbea4e1f0	-0.32203627
214	0xbe40c15a	-0.18823758
215	0xbd4cceec	-0.050002024
216	0xbd46166b	-0.048361223
217	0x3d930f2d	0.07180629
218	0x3e6bc47e	0.23024175
219	0xbe60fb21	-0.21970798
220	0x3ce4bfda	0.027923513
221	0x3cb9296b	0.022602757
222	0x3e3e1b3f	0.18565081
223	0xbdca9544	-0.098917514
224	0x3c74c69d	0.014939931
225	0x3d82df30	0.06390226
226	0xbea99921	-0.3312464
227	0xbe2b1e18	-0.16710699
228	0xbe0bfd7d	-0.13670917
229	0xbe6d8ab3	-0.23197441
230	0xbdc08246	-0.09399848
231	0xbc290daa	-0.010318199
232	0x3e4923ba	0.19642535
233	0xbe86cb36	-0.26326913
234	0x3d0f5437	0.034992423
235	0xbe35b158	-0.17743433
236	0x3e5d5668	0.21614993
237	0x3e9ed612	0.31022698
238	0xbe13b180	-0.1442318
239	0xbe169700	-0.1470604
240	0x3e0a10c7	0.13482963
241	0x3d3793b8	0.04481861
242	0x3e772b90	0.24137712
243	0x3dee44c5	0.116342105
244	0xbdddc7cf	-0.10829126
245	0xbe49f748	-0.19723237
246	0x3d50a366	0.05093708
247	0x3ebf2a0c	0.37336767
248	0x3eb23c64	0.348117
249	0x3e853127	0.26014063
250	0xbd7f6dc0	-0.062360525
251	0x3ca67806	0.020320904
252	0xbdb57748	-0.08860642
253	0x3dfa1f50	0.12213004
254	0xbd4296bd	-0.047507036
255	0xbca611bb	-0.020272126

base.mlp.fc2.0.0.bias f4 [64]
0	0xbb494335	-0.0030710225
1	0xbb8b9f12	-0.004260906
2	0xbca2bc18	-0.01986508
3	0xbc08a08b	-0.008339058
4	0x3a9c1dea	0.001191077
5	0x3ae3e014	0.0017385506
6	0xbb2a0020	-0.0025940016
7	0x3b480e81	0.0030526223
8	0x3abf5e59	0.0014600261
9	0xbb7fe484	-0.0039046118
10	0x3a5ba2ed	0.0008378465
11	0x3c916120	0.017746508
12	0x3b114b6e	0.0022170204
13	0x3b8b36f2	0.0042484934
14	0x3a28a787	0.0006433655
15	0xbbaa9b0a	-0.0052064704
16	0x3c896efa	0.01677655
17	0xbc5612b2	-0.013065981
18	0x3aa5b742	0.0012643116
19	0xbc43bad4	-0.011946399
20	0x3b17dcc5	0.002317236
21	0x3a1e5d69	0.0006041141
22	0xbb05b7f6	-0.0020403839
23	0x3c4bfd83	0.012450579
24	0x3aa47c2e	0.0012549215
25	0x3c412015	0.011787434
26	0x3c3f33ee	0.011670096
27	0xbc374c68	-0.01118765
28	0xbbea3fa3	-0.0071486994
29	0x3c018bc5	0.007906859
30	0x3b7843e7	0.003788227
31	0xbb83f8da	-0.004027468
32	0xbb841c5d	-0.0040317015
33	0xbc164f9d	-0.009174255
34	0x39c5e14b	0.00037742624
35	0xbb71e288	-0.0036908705
36	0xbbb5e29e	-0.0055506965
37	0x3b0be1d4	0.002134432
38	0x3be89112	0.007097372
39	0x3a81c778	0.0009901365
40	0xbaa33a65	-0.0012453316
41	0xb9a3b861	-0.00031227156
42	0xbc033660	-0.0080085695
43	0xbb5df732	-0.0033869264
44	0xbac972a4	-0.0015369249
45	0x3b62ff54	0.003463705
46	0x3bd14181	0.0063859825
47	0xba39004e	-0.00070572353
48	0x3a01a103	0.0004944952
49	0x3b677b83	0.0035321421
50	0x3b720141	0.0036927017
51	0xbb21a85a	-0.0024666996
52	0x39aac614	0.00032572506
53	0x3a4206dd	0.00074015354
54	0x3ab36a1d	0.001368824
55	0xbb3e88d3	-0.0029073253
56	0x3b0fa638	0.0021919142
57	0x3ad25571	0.0016047192
58	0x3999f000	0.00029361248
59	0x3ad50bea	0.0016254161
60	0x3b85fa55	0.00408868
61	0x3aa38b10	0.0012477357
62	0xbbe2b831	-0.00691893
63	0x3ca24a4c	0.019810818

base.mlp.fc2.0.2.weight f4 [64]
0	0x3f7fbe7f	0.9990005
1	0x3f7e16fd	0.9925383
2	0x3f7febd0	0.99969196
3	0x3f7f0dd2	0.99630463
4	0x3f7f8837	0.9981722
5	0x3f805778	1.0026693
6	0x3f7e74e6	0.9939712
7	0x3f808775	1.0041338
8	0x3f7ddfe1	0.9916974
9	0x3f7eb3b5	0.9949296
10	0x3f8041f0	1.0020123
11	0x3f7f5e03	0.99752825
12	0x3f804c23	1.0023235
13	0x3f7f4552	0.9971515
14	0x3f8067dd	1.0031697
15	0x3f800cbe	1.0003889
16	0x3f808bec	1.0042701
17	0x3f7e224f	0.992711
18	0x3f7e7cd6	0.99409235
19	0x3f7e976e	0.99449813
20	0x3f8070f9	1.0034477
21	0x3f7fdf6b	0.99950284
22	0x3f7e598d	0.99355394
23	0x3f8063f4	1.0030503
24	0x3f8070f1	1.0034467
25	0x3f808983	1.0041965
26	0x3f7fd145	0.99928695
27	0x3f7eb115	0.99488956
28	0x3f7e1a64	0.9925902
29	0x3f800486	1.000138
30	0x3f804046	1.0019615
31	0x3f801a01	1.0007936
32	0x3f7fc1a2	0.99904835
33	0x3f7e6395	0.993707
34	0x3f7eb8f0	0.9950094
35	0x3f7f41f7	0.9971003
36	0x3f7ed411	0.9954234
37	0x3f7e4beb	0.9933459
38	0x3f805aa1	1.0027658
39	0x3f80469f	1.0021552
40	0x3f7ed4b5	0.99543315
41	0x3f7ec90b	0.9952552
42	0x3f7f09db	0.99624413
43	0x3f7ebb15	0.99504215
44	0x3f7ea56f	0.9947118
45	0x3f8038fe	1.0017393
46	0x3f7f8d5e	0.99825084
47	0x3f8067f3	1.0031723
48	0x3f807b1f	1.0037574
49	0x3f8084c9	1.0040523
50	0x3f804ef0	1.002409
51	0x3f7e22c7	0.99271816
52	0x3f7fcf0e	0.99925315
53	0x3f80518c	1.0024886
54	0x3f7fed1f	0.99971193
55	0x3f7edb55	0.99553424
56	0x3f7f2ca7	0.9967751
57	0x3f807982	1.0037081
58	0x3f7e77db	0.99401635
59	0x3f7fd5fc	0.9993589
60	0x3f8016b0	1.0006924
61	0x3f7f479d	0.9971865
62	0x3f7f6295	0.997598
63	0x3f7b6134	0.98195195

base.mlp.fc2.0.2.bias f4 [64]
0	0x3a872baf	0.0010312701
1	0xba6aa118	-0.00089503964
2	0xba2841b0	-0.00064184796
3	0xba4f8933	-0.00079168676
4	0xba8b3ede	-0.0010623594
5	0xba92deb9	-0.0011205293
6	0x3a6a170d	0.00089298264
7	0xba83303b	-0.0010008881
8	0xbac3285e	-0.001488935
9	0xba0de2a3	-0.00054124946
10	0x3a8a884f	0.0010569188
11	0x388d66b6	6.742535e-05
12	0x3a6ea08d	0.00091029034
13	0xba444094	-0.00074864295
14	0xba8259df	-0.0009944997
15	0xba37b1d0	-0.0007007392
16	0x3a28d2d1	0.00064401055
17	0xba72c372	-0.0009260691
18	0xba8548c3	-0.0010168779
19	0x3b62abee	0.0034587341
20	0xba6b4014	-0.0008974087
21	0xba8b9574	-0.0010649399
22	0xbad076dc	-0.0015904563
23	0x3a7bab5e	0.0009600426
24	0xba4e021d	-0.0007858591
25	0x3a9013e0	0.0010992251
26	0x3a923427	0.0011154459
27	0xba76dff1	-0.0009417525
28	0xba8283e2	-0.0009957517
29	0x3a9260f8	0.0011167815
30	0xbaabf3ac	-0.0013118885
31	0xba3310ff	-0.0006830841
32	0x3a924458	0.0011159284
33	0xba771fc9	-0.00094270386
34	0xba6d9f92	-0.00090646103
35	0xba61fbe8	-0.0008620606
36	0xba01fb4f	-0.00049584074
37	0xba845269	-0.0010095361
38	0x3a87de4c	0.0010365932
39	0x3a7e27aa	0.00096952415
40	0x3a767338	0.0009401324
41	0xb976fb69	-0.00023554046
42	0xba357db1	-0.00069233315
43	0x3a696217	0.0008902861
44	0x3a65d992	0.0008768077
45	0x3abb6d3c	0.0014299522
46	0x3a860648	0.0010225261
47	0x3a6e58a8	0.00090921903
48	0xba4c254e	-0.0007787541
49	0xba79a33a	-0.0009522919
50	0xba80deb3	-0.0009831995
51	0x3a7b9eb9	0.00095985417
52	0x3b021ece	0.0019854787
53	0x3a9b5842	0.0011851864
54	0xbaa30a63	-0.0012439009
55	0x3a88926d	0.0010419615
56	0x3a924175	0.0011158424
57	0xba8053e9	-0.0009790632
58	0x3a53e072	0.0008082456
59	0x3a76f5fb	0.0009420809
60	0xbaae995f	-0.0013320855
61	0x3a63ba55	0.00086871284
62	0xba2de9ab	-0.00066342455
63	0xbb814fc6	-0.0039462773

v_out.weight f4 [1, 64]
0	0x3e2ed5d5	0.17073758
1	0xbdb1f5d5	-0.08689467
2	0xbd591ee0	-0.05300796
3	0xbde41f44	-0.11138776
4	0xbdaeb525	-0.08530644
5	0xbd8fdbd6	-0.07024352
6	0x3e79b703	0.2438622
7	0xbe02d1ef	-0.12775396
8	0xbcdc6c92	-0.02690724
9	0xbd3dadab	-0.0463082
10	0x3dcf6111	0.10125936
11	0x3c905fa2	0.017623726
12	0x3d4e57c8	0.050376683
13	0xbdf16a23	-0.11787822
14	0xbdda7b91	-0.106681
15	0xbd8c8867	-0.06861954
16	0x3d09d405	0.033649463
17	0xbe44ff8a	-0.19238105
18	0xbe43f973	-0.19138126
19	0xbb07cf2a	-0.0020722845
20	0xbcb92811	-0.022602113
21	0xbe3f826e	-0.18702099
22	0xbbe6b5f7	-0.007040735
23	0x3d678c6b	0.056530397
24	0xbcb03014	-0.0215073
25	0x3ce4c5ce	0.027926352
26	0x3db84d1b	0.08999082
27	0xbd9d13c5	-0.07669786
28	0xbd9c5d41	-0.07634974
29	0x3dbe0876	0.092789575
30	0xbc330c77	-0.010928265
31	0xbd672233	-0.0564291
32	0x3dbd2bd3	0.092368744
33	0xbde4cef8	-0.11172289
34	0xbdeea9b2	-0.116534606
35	0xbe7ffec0	-0.24999523
36	0xbd181774	-0.03713174
37	0xbe210d17	-0.1572765
38	0x3e42406f	0.18969892
39	0x3e5875af	0.21138643
40	0x3eb25831	0.3483291
41	0xbcfcaadc	-0.03084319
42	0xbd905ec8	-0.07049328
43	0x3e09b223	0.1344686
44	0x3e8f8cb4	0.28037035
45	0x3d1a5011	0.037674014
46	0x3da5eb1c	0.08101484
47	0x3e6c0cec	0.23051804
48	0xbdadeb7c	-0.08492181
49	0xbe0c35f9	-0.13692464
50	0xbd9d13ec	-0.076698154
51	0x3e360828	0.17776549
52	0x3c68ddfc	0.014213081
53	0x3d902905	0.07039074
54	0xbd006048	-0.03134182
55	0x3e48e70b	0.19619386
56	0x3d81de3c	0.06341216
57	0xbd5c1718	-0.05373296
58	0x3d64df38	0.05587694
59	0x3dd0707d	0.101777054
60	0xbc9d8659	-0.019229101
61	0x3e118033	0.1420906
62	0xbd7b8576	-0.061406575
63	0x3b129438	0.0022366177
