light_mappo-main/results/MyEnv/MyEnv/mappo/check/run33/models/actor.pt (torch, 46581 bytes, 16 tensors)

base.feature_norm.weight f4 [15]
00000000: 7f8d 913f 096c 7e3f 8baa 843f 92c3 803f
00000010: f497 773f 1514 773f 098a 7a3f 7b99 843f
00000020: 7ab9 7f3f d48e 6c3f faa9 623f d1eb 733f
00000030: d0b0 833f d8d5 863f b177 8b3f
1.1371306 0.993836 1.0364546 1.0059683 0.9671624 0.9651502 0.97866875 1.0359339
0.9989239 0.9240544 0.88540614 0.952817 1.0288334 1.053401 1.0895902

base.feature_norm.bias f4 [15]
00000000: 09f5 743d e95c 5dbd c1bd 9bbd b591 3abc
00000010: a452 aabc 955f 45bb 8ced 96bc fb9e 723c
00000020: 1d3f 19bc 7187 093d 12f0 48bd e153 413d
00000030: a320 0f3d 85d3 1c3d 1be3 bb3a
0.059803996 -0.054043684 -0.07604552 -0.011387278 -0.02079136 -0.0030116786 -0.018423818 0.014808412
-0.009353426 0.033576433 -0.049057074 0.047199134 0.034943234 0.03828766 0.001433465

base.mlp.fc1.0.weight f4 [64, 15]
00000000: 6d2b 963d 7550 36be e19a 14bd fe14 d63c
00000010: 39aa 10be bb90 97bc 087b 453e 3d10 0bbe
00000020: e31a 2dbe 41e8 12be d56f 9fbe d319 2c3d
00000030: c7ed a6bd fdc8 32be 1d24 9e3e 001b febd
00000040: bf6f b5bd 46fc d7be f343 a93d e8f0 a73e
00000050: b96a 073e d34b 97be b671 ccbd 84e9 8dbe
00000060: c819 c83c 8ef9 e43d a425 dc3d 3619 95bd
00000070: f732 32be b5b2 083e c8e3 dabe 7c7f c7bd
00000080: f922 4b3e ecbd 29bd 8bd8 2abd 082d 7d3e
00000090: 9d72 883e 8737 b2be bb51 aabc 4df9 6a3e
000000a0: 3d5a c7bd 4e18 8fbb 1b16 d1bc 006a 523e
000000b0: 646f d4ba a574 90bb 772e c53c 43d5 20be
000000c0: 6255 da3d f657 5dbe db1b 3e3d 11a0 63bd
000000d0: 800e 583e b80d 8ebe 3ab1 b83e eb4a 693e
000000e0: 7a78 94bd 40db 7ebd d663 283d c8ec 46be
000000f0: 094c a3bd 8b6e 8ebe 0e61 1d3e 68eb d93d
00000100: 4d08 de3d 1a1a 49be ab99 bebd 325f c4be
00000110: b5d6 bfbd af4c 7ebe 6894 a53e c3ee 33be
00000120: 5dd1 5b3d cac1 a73c 3e5c a63e 6610 0cbd
00000130: 8cdb 123c aeb8 d5bd f778 603e 9bba a13c
00000140: a7a9 293e b261 adbe 4bfa 95be 715a 9d3e
00000150: eb2a 083e 1e52 a93e 61c7 5c3c 2b84 5fbe
00000160: 4156 b83d 7485 f63c 67a8 fbbc a784 653b
00000170: ca38 c63e 80ae df3d c44a cbbc e4b6 54bd
00000180: 20a3 4d3e a50c 13be 7b1e fd3d 4339 4d3e
00000190: 622d 9f3c 939f fa3d e7f6 f6bd ec6e 39be
000001a0: b190 a13e 2937 8ebe 8869 dabe e811 a6bc
000001b0: 02c7 b93d 5f56 56be f044 d73c 8f1b e23d
000001c0: 1680 b7be 4ca3 acbe c3c4 49bc 25cc 51bd
000001d0: b8fc 90bb 4033 8f3e f0a5 173e ceab 9dbd
000001e0: 9208 1ebe a927 d53d 5150 183e 77e1 903e
000001f0: 9c1e c1bb 4ee3 813e 6f18 5e3e 770c 49be
00000200: 95b1 2d3e 9428 45bd ab3d 013d ebe0 093e
00000210: a078 acbc b2ea 313d 0959 0c3e 366c 1abe
00000220: f7b8 173b c1a8 c4bd ed5a e4bc 703a 3a3e
00000230: a1d2 9a3e 117a 28bd a4bb 283e a2d5 09be
00000240: 2661 f3bc e73c 333d f507 55be 4b54 b93d
00000250: 260d 793d 00d2 b23e c2d5 9bbc 7bca 3abd
00000260: b77c 07be e289 c53d 69b3 233e 43b2 efbd
00000270: 09e0 9c3c b590 4dbd 9d96 6bbe ed3c a0bd
00000280: cdf6 9dbe 7693 0ebe c4c9 59be 4f6b 7a3e
00000290: 898e 9d3e 3579 eebd dd2d dbbe 016d edbd
000002a0: e8a9 1a3e ece2 863e 7bb3 9ebc a0c2 efbd
000002b0: a594 8ebe ebe9 223e 8a6a 733d 5701 6fbe
000002c0: e061 383e ac66 543e 44d2 443e a988 a23a
000002d0: a3dd 663e f63c 883d fa88 733b af19 173d
000002e0: bd4e 613e fc8b 8a3e 3f31 85be b575 23be
000002f0: 31ce a43c c115 d2bd bb00 2cbe a39c 86be
00000300: fc7a 283d d852 bb3c 66a4 1bbe 4c3d 8dbd
00000310: 81a4 d5bd 2a3f 173e 2926 6d3e 6460 0d3d
00000320: b2b4 efbe 4a8d 843e f836 c03d 03b7 c13d
00000330: 5eff cc3d 4e34 803d 55e8 11be 09aa 70be
00000340: 78d1 3bbe 65ac 683d 4748 77bd d8d3 663e
00000350: f0ec fbbd 4d8c 0d3e adcc 843d c014 babc
00000360: 33fc 55be 0a02 dbbd 454d 37be 5bd8 483e
00000370: 0eb9 5c3e 2919 013e 7cc2 45be 2f85 91be
00000380: bda9 6fbd cb2b 0abe e492 a93e 807b 6cbe
00000390: 2309 89be eda3 c0bd 1b66 f2bd f819 4c3e
000003a0: 43cd 18bc 3ca3 28bd 97ee 45be 7b3b 0cbe
000003b0: 2a81 a6be e809 fe3d bf0a 863d 69d7 923e
000003c0: 9e74 dd3e 7bcd 5aba 4f76 4c3e 9235 8fbd
000003d0: 8580 173c c0d3 8a3e 2235 e53c 7148 1c3e
000003e0: 1c63 0abf 2f78 7ebd 5935 6c3e 9703 ba3e
000003f0: e27b 333d bc65 573d 1301 0dbe 13fb fe3d
0.073325016 -0.1780413 -0.036280517 0.026133057 -0.14127435 -0.01850163 0.19285214 -0.13580413
-0.16904788 -0.1434641 -0.3114001 0.042016815 -0.08150821 -0.17459483 0.30886927 -0.124074936
-0.088592045 -0.42184657 0.082649134 0.32800984 0.13224305 -0.29550037 -0.09982626 -0.2771722
0.024426356 0.11180411 0.10749367 -0.07280199 -0.17402254 0.13349421 -0.42751908 -0.097411126
0.1983756 -0.04144089 -0.041710418 0.2472421 0.26649943 -0.3480799 -0.020790925 0.22946663
-0.097340085 -0.004366911 -0.025523236 0.20548248 -0.0016207513 -0.0044084364 0.024070008 -0.15706353
0.10660817 -0.21615586 0.046413284 -0.055572573 0.21099281 -0.27744842 0.36072713 0.22782485
-0.072495416 -0.06222081 0.041110836 -0.19426262 -0.07973487 -0.27818713 0.15369055 0.10640603
0.10841427 -0.19638863 -0.093066536 -0.38353878 -0.09367124 -0.2483394 0.32339787 -0.17571549
0.05366646 0.020478148 0.3249225 -0.034195326 0.008963477 -0.104356155 0.21921144 0.0197423
0.16568623 -0.33863598 -0.2929252 0.30733064 0.13297622 0.33070463 0.01347527 -0.21827762
0.090008266 0.030092932 -0.030719949 0.0035021694 0.38715202 0.10921955 -0.024815924 -0.05193223
0.20081758 -0.14360292 0.12359329 0.20041375 0.01943082 0.122374676 -0.12058812 -0.1810872
0.31555703 -0.2777646 -0.4265864 -0.02027221 0.09071161 -0.20931385 0.02627799 0.11040413
-0.3583991 -0.33718336 -0.012314978 -0.051220078 -0.0044246577 0.27968788 0.14809394 -0.07698785
-0.15432957 0.10407955 0.14874388 0.28297016 -0.0058935415 0.25368732 0.21689008 -0.19633661
0.16962273 -0.0481344 0.03155295 0.13464706 -0.021053612 0.043436714 0.13705839 -0.15080342
0.002315102 -0.096025 -0.027875388 0.18186355 0.30238822 -0.041132037 0.16477829 -0.134604
-0.02970941 0.043759253 -0.20803817 0.09049281 0.060803555 0.34925842 -0.019022826 -0.045603257
-0.13231169 0.0964544 0.15986408 -0.117039226 0.019149797 -0.05018683 -0.23006673 -0.07824121
-0.30852357 -0.1392344 -0.21268374 0.24454997 0.30772808 -0.11644212 -0.42808428 -0.115930565
0.15103877 0.26345003 -0.019372692 -0.11707044 -0.27847782 0.15909545 0.059427775 -0.23340355
0.18006086 0.20742291 0.19220835 0.0012400347 0.22545485 0.066522524 0.0037160502 0.03688973
0.22002693 0.27059925 -0.26014134 -0.1596287 0.020117851 -0.102580555 -0.16797154 -0.2629138
0.041132912 0.022866651 -0.15199432 -0.06896457 -0.10431767 0.14770189 0.23159088 0.034515753
-0.46817547 0.25889045 0.093854845 0.09458735 0.10009645 0.06259976 -0.14248784 -0.23502363
-0.18341625 0.056805033 -0.060371663 0.2254175 -0.123010516 0.13823052 0.06484351 -0.022714972
-0.20896988 -0.10693748 -0.1790057 0.19613783 0.21554968 0.12607254 -0.19312471 -0.28421924
-0.058511484 -0.13493268 0.3311988 -0.23093987 -0.26764783 -0.09406266 -0.11835881 0.19931781
-0.009326282 -0.041171297 -0.19329296 -0.13694565 -0.3252042 0.12404233 0.065450184 0.2867997
0.43253034 -0.0008346659 0.19967006 -0.069926396 0.00924695 0.27114677 0.027979437 0.15262009
-0.5405748 -0.062126335 0.23067226 0.36330864 0.043819316 0.052587256 -0.13769941 0.12450232

base.mlp.fc1.0.bias f4 [64]
00000000: 7298 373c c88a 343d d708 b83c 0f91 f83d
00000010: af79 18bd e1c0 17bd 7061 73bd 1964 c63b
00000020: 83e1 d2bc f3ce 19bc f881 2ebc 0241 713d
00000030: c8b6 22bd 652f 37bd 8bdb 8dbb 9b4b 653c
00000040: 7644 a2bc 3420 523d 285f c93c 8346 b0bb
00000050: 1f5c 5b3d 29c4 80bc 1547 28bd bf4a 69bd
00000060: cc59 b33b f007 9d3c a924 03bd 67b7 55bd
00000070: 27a7 9abd 0a88 9cbd 3eb3 d83d b570 823d
00000080: bb13 783d 6e0a 23bd 123e 06bd 1e7c 2dbd
00000090: 81de 2cbc 4778 47bb c74c 633c c427 5b3c
000000a0: 8a80 8c3b d704 5fbd 3870 243d 8419 90bd
000000b0: 1495 85bd 5e3a a5bc 3b2f 833d 953c 8bbd
000000c0: c4dd c73b 151e a0bc 266b c13c 3dd8 e93c
000000d0: 4c03 073d dbf3 c8bd dbdd a43c b18c 6a3d
000000e0: 2b3b 8ebc 9acc 893d 470d 04bd 39ac b2bd
000000f0: 11ae 05bd 4c47 273c ea31 c0bd 39a2 073c
0.011205779 0.044077665 0.022465153 0.12137043 -0.03722542 -0.037049178 -0.059419096 0.006054413
-0.025742298 -0.009387719 -0.010651104 0.058899887 -0.039725095 -0.044722933 -0.00432915 0.0139950765
-0.019808035 0.051300243 0.024581507 -0.0053794994 0.05355465 -0.015718536 -0.041083414 -0.05695605
0.005473351 0.019168824 -0.032017384 -0.05217686 -0.07551413 -0.07643135 0.10581063 0.063691534
0.06056569 -0.03980487 -0.03277404 -0.042354695 -0.010551096 -0.003043668 0.013873286 0.01337618
0.004287784 -0.054447975 0.040146083 -0.07036117 -0.06522575 -0.020169433 0.06405493 -0.067986645
0.0060994346 -0.019545594 0.023610663 0.028545493 0.03296213 -0.09812137 0.02012532 0.05726308
-0.017362198 0.06728478 -0.032239225 -0.08724255 -0.032636706 0.01020987 -0.0938452 0.008278423

base.mlp.fc1.2.weight f4 [64]
00000000: 4a83 7d3f d63a 813f 76e4 893f 5b7d 893f
00000010: 84d2 793f 0a5e 603f ca99 853f d930 6f3f
00000020: a64f 713f ba79 833f 843e 7a3f f40a 763f
00000030: b0c8 833f 597b 803f 91bc 7f3f ea23 863f
00000040: 1b06 813f 290b 6f3f bfec 6e3f 6863 813f
00000050: 7a50 793f f079 763f fc00 883f 528e 703f
00000060: 377b 733f 3cce 803f d5cb 823f 3969 823f
00000070: 39c9 813f d545 863f 86dc 8b3f 613a 863f
00000080: 0ab4 8a3f 9fab 833f 5ed9 873f 17b3 6c3f
00000090: 4ed9 823f 9921 743f 272b 843f 1321 793f
000000a0: a676 883f 0a22 813f c315 753f ca3f 793f
000000b0: ae6c 743f 0cbf 833f 1a77 853f 7f36 7d3f
000000c0: 3f67 7f3f 929c 823f e768 833f 4aab 8c3f
000000d0: ce93 8c3f e696 7e3f 6d2a 6d3f c6cb 843f
000000e0: 0514 793f 5447 8e3f f1b9 803f 4718 7c3f
000000f0: 1238 6d3f c63c 723f d2cb 7e3f b02f 693f
0.99028456 1.009608 1.0772846 1.074138 0.97586846 0.8764349 1.0437558 0.9343391
0.9426216 1.0271523 0.9775164 0.96110463 1.029562 1.0037643 0.99897105 1.047971
1.0079988 0.93376404 0.93329996 1.0108461 0.9738842 0.9627981 1.06253 0.93967164
0.95109886 1.0062938 1.0218455 1.0188361 1.0139533 1.0490061 1.0926673 1.0486566
1.0836194 1.028675 1.061321 0.9246077 1.0222566 0.95363766 1.0325669 0.9731609
1.0661209 1.0088513 0.9573633 0.9736296 0.9547833 1.0292678 1.0426972 0.9891128
0.99766916 1.0204031 1.0266389 1.0989773 1.0982606 0.99449 0.9264286 1.0374687
0.9729617 1.1115518 1.0056745 0.98474544 0.9266368 0.9462398 0.99529755 0.9108839

base.mlp.fc1.2.bias f4 [64]
00000000: 8384 9f3a d944 123d 53db c03b cd75 413d
00000010: 2723 5f3b 1899 9ebc cacc 06bd 3eb3 b23d
00000020: 331b 043c 3f40 40bd ba02 d8bb ec62 453d
00000030: 7bd8 b6bd b4a0 5bbc 60fc fe3c 652f d5bd
00000040: 2eac c1bb 1829 bc3d de91 f3bc 400c afbc
00000050: 5c4d 283d b447 ffbb d5b3 05be 484b a6bd
00000060: 030d ff3b b5d5 3a3d d713 51bb 4564 08bd
00000070: c070 8ebd 2a8b 71bd 72c4 983b a7d2 053e
00000080: 503b 483d 207a 08bd 18dd 69bd 590f 673d
00000090: 5095 44bd 3511 ebbc 36de a43d 65ef 183d
000000a0: 6ece 30bc d66e 3bbd 5fd7 613d e881 0cbc
000000b0: 7bfe bebd 6cbb 8a3c bd2c 64bd e2c9 38bd
000000c0: eced db3c ecfc d83c 9910 093d 4149 31bd
000000d0: 6179 4ebc 52ba 32bd 8f70 9139 5d50 573c
000000e0: a26b 423b 5ec0 57bc bd6a 2539 f00c e83c
000000f0: c09a 25bb d4af d23d 5992 a0bd 56f3 273d
0.0012170229 0.03571019 0.0058855205 0.047231484 0.0034048052 -0.01936011 -0.032910146 0.08725594
0.008063125 -0.04693627 -0.006592122 0.048190042 -0.08928009 -0.013405014 0.031126201 -0.104094304
-0.005910418 0.091875255 -0.02973264 -0.021368146 0.0410894 -0.00779053 -0.13056882 -0.081198275
0.0077835335 0.045613963 -0.0031902695 -0.03329875 -0.06955099 -0.058970608 0.00466209 0.13068639
0.04888469 -0.033319592 -0.057095617 0.05641112 -0.047993958 -0.028694728 0.08050196 0.03733768
-0.010791404 -0.04576 0.055137035 -0.008575894 -0.09325882 0.016935073 -0.05570673 -0.045114405
0.026846848 0.02648779 0.033463094 -0.04328275 -0.012602181 -0.04363472 0.00027740418 0.013141719
0.0029666205 -0.0131684225 0.0001577539 0.028326482 -0.002526924 0.10287443 -0.078404136 0.041003548

base.mlp.fc_h.0.weight f4 [64, 64]
00000000: 5d0a 0f3e e4f8 813e 8cfb a53d 6672 8f3e
00000010: 9921 24be 86af 823e 696e 14be 0377 efbd
00000020: cd16 97be b492 95be 1376 85be 33a5 823d
00000030: 5115 04be d9e2 713d 8197 22be ba38 9f3e
00000040: f0c9 0c3a c1a5 df3d 02b3 3b3e ef1e 48be
00000050: 18b2 e53d 796a d1be 93c3 c73c 55f3 87be
00000060: 5a59 ccbd 1403 8cbd 4b97 b6bb a5fe 82be
00000070: 12d2 943d a0b9 adbb e317 ed3d bc5e 9ebe
00000080: 9c0b 7dbd b51b 97bd 85e0 f63c fad1 d6be
00000090: 4951 203e acfd d1bd 14bd 8e3e a784 a0be
000000a0: 62db 89bd 1a28 a63d 6bc9 dc3d cf62 2abd
000000b0: 9fef 0b3c fcb6 dcbd 35e3 78bd 7b28 05be
000000c0: 38ee 693e dced 2bbe 87d5 303e 7e29 853e
000000d0: 8536 60be e247 a23d ce68 88bd a69d 053c
000000e0: 90db 23bc 2ce5 efbc 6a6f 71be f3c4 d33d
000000f0: 7b17 413d 8e85 073e 7a7f 693d 6c16 c23d
00000100: ad7a ee3d 7fa3 85bc 3561 843c 8490 1d3e
00000110: f0c1 1fbe b9e4 2c3e 63ca 0f3e 7a0f 043e
00000120: 13bd 763d cc59 13be e142 933d 67e2 24be
00000130: 293e a03b 5e10 8d3e 208e ffbd e68c 3ebe
00000140: 07e1 303e e87e 3cbe 244a 5abe f34e 05be
00000150: fd3f 363e 374e 033e cd10 223e a112 4c3e
00000160: bb24 e4bd 7a77 05bd b6d1 efbc 2c9e cebd
00000170: ccb6 b13e 1f58 c6bd 7e3e e43e 05e5 34be
00000180: 8cb5 8cbd d2b9 a53d bce0 813d 5d27 e8bc
00000190: 70d0 bc3d f308 d93d 8887 01bd 4949 093d
000001a0: ac1a 853e cd60 4d3e bb31 32be 44fa cfbd
000001b0: 4ad1 a53e 29d3 13bc f813 5cbe 9d6d 763e
000001c0: 4743 aabe 1e9b 843e 562e 143e 6c41 ac3d
000001d0: c813 19be 10fc ce3e ff36 17be 28aa 69bd
000001e0: 9fd3 94bd 7d70 96be 42a3 923e c573 bfbd
000001f0: 9d1f f23d eb8d 113b d908 58be eadf fdbd
00000200: ef6e 94be 3440 71be fa00 093e 1a32 443e
00000210: 1de7 92be bfe0 52be 3cce 3bbe 8d4f debd
00000220: 2937 3a3e d6a1 93bd f548 84be aa4c a1bc
00000230: 550f c43d 0629 49be d971 45bd 236f 83be
00000240: c934 cfbd df80 a73e c207 033e d18e aabc
00000250: 20df 0abd 31e5 a13e 239b 1bbe ff9a b83b
00000260: bbe0 16be 4883 843d d88b 77be 06df 133e
00000270: a8f9 8a3d 98c0 50bd 73a5 99bd 4952 4b3d
00000280: bfbc f13c 19d1 12be 54f3 c73c 2a0d debc
00000290: 2658 27be 8d2c 403e 48f7 8a3e a3cd 203b
000002a0: 5ddd e43e a3a3 4f3e c4aa f83d ca6b a0be
000002b0: 1d8c 403e 5eca 7fbe 87c9 06be 6537 b33d
000002c0: 3f40 9a3d 86f3 febd 70d0 983c 66b1 78be
000002d0: 9be2 5cbe 90ae 37bd cea2 8fbe 0181 7e3e
000002e0: 3cf3 523d d7fb 123e 30a0 79bd e71d 853e
000002f0: 75c8 253d de23 dabc 9ea1 f43c 72a7 3a3e
00000300: 5a0d ce3d e434 53bd 2872 583e d912 8e3d
00000310: 97a9 64be c09b 4a3d 296b 2bbd 6309 093d
00000320: 210f 413e 1437 7e3e 3561 23be 6a16 fa3d
00000330: d46f 253e 69af 80bd 0807 23be d6a4 d4be
00000340: 608e 223e e3d8 5c3e 3878 a53e 8243 83bd
00000350: 44cf 47be 7cdb 9abd 2b8c 71be 7476 8b3d
00000360: b48e a23e bc59 4abd 01c0 273e 0188 88be
00000370: 53b5 ccbd 452b 48be a7c3 ae3d 8895 5b3e
00000380: 100b 813d c87b 0d3e 74b3 22be 2d47 40be
00000390: 5abd e53d 47cb f1bd 8a2e eb3d 4e07 afbd
000003a0: db43 93be 989f 513c 8e8b 3ebe 626e 63bd
000003b0: 5b3b abbd 10d7 92be 6a60 853e 661b 013e
000003c0: 7c13 a4bd 8e76 0f3c d98b bfbd f146 c13d
000003d0: 51de 7d3e 39e8 613e c8d0 bfbc a283 65bd
000003e0: a5f3 a2bd c533 afbe 7022 853e 5628 dd3d
000003f0: 3e76 afbe 85ab ad3c b8ce 5e3e 6ca7 af3b
0.13968797 0.253852 0.081046194 0.28016967 -0.16028441 0.2552454 -0.14495243 -0.116926216
-0.29509583 -0.29213488 -0.26066646 0.063791655 -0.12898757 0.05905423 -0.15878107 0.31097966
0.0005370667 0.10920287 0.18330005 -0.1954305 0.11215609 -0.40901545 0.02438525 -0.26552835
-0.0997798 -0.068365246 -0.0055722347 -0.25584903 0.0726663 -0.0053016692 0.11576822 -0.30931652
-0.06177865 -0.073783316 0.030136356 -0.41957074 0.15656008 -0.10253462 0.2787863 -0.31351206
-0.06731297 0.081131175 0.10780605 -0.041598137 0.008541017 -0.10777089 -0.060763557 -0.13003723
0.2284478 -0.16789955 0.17268954 0.2600822 -0.21895798 0.07923867 -0.06660615 0.008155262
-0.010001078 -0.029284082 -0.23577657 0.103402995 0.047141533 0.13234541 0.057006337 0.09476933
0.11644492 -0.016313313 0.016159633 0.1538716 -0.15601325 0.16884126 0.14042048 0.12896529
0.06023891 -0.14389724 0.071904905 -0.1610199 0.0048902226 0.2755155 -0.1247828 -0.18608436
0.17273341 -0.18407786 -0.21317345 -0.13018398 0.17797847 0.12822805 0.15826721 0.19928981
-0.11139818 -0.032584645 -0.029274803 -0.10088763 0.34709775 -0.096847765 0.44578928 -0.17665489
-0.06870565 0.08092083 0.06341693 -0.028339082 0.09219444 0.1059741 -0.031623393 0.033517156
0.25996912 0.20056458 -0.17401783 -0.10155156 0.32386237 -0.0090225125 -0.21491992 0.24065252
-0.33254454 0.25899595 0.14470801 0.08410916 -0.14948952 0.40426683 -0.14767073 -0.05704704
-0.07266926 -0.29382697 0.2864018 -0.09348253 0.11822436 0.0022209834 -0.21097125 -0.12396224
-0.28990886 -0.23559648 0.13379279 0.19159737 -0.2869195 -0.20593546 -0.18340391 -0.10855017
0.18185104 -0.07208602 -0.25836912 -0.019689877 0.09573237 -0.19644555 -0.048204277 -0.25670728
-0.1011749 0.32715508 0.12795928 -0.020820053 -0.033904195 0.31620172 -0.15195899 0.0056337113
-0.14734165 0.064703524 -0.2417444 0.14440545 0.067858994 -0.05096492 -0.0750226 0.04963902
0.029508946 -0.14337577 0.02440802 -0.027105886 -0.1634222 0.18766995 0.27141786 0.0024536632
0.44700137 0.20277266 0.12141946 -0.31332237 0.18803449 -0.2497954 -0.13162814 0.087508
0.07531785 -0.12448792 0.018654078 -0.24286422 -0.21570818 -0.04484421 -0.28053898 0.24853899
0.051501498 0.14353882 -0.060943782 0.25999376 0.040474374 -0.026628431 0.029862221 0.18227938
0.1006114 -0.051564112 0.21137297 0.06937189 -0.22330318 0.04946494 -0.041850243 0.033456217
0.18853427 0.24825698 -0.1595505 0.122113064 0.1615594 -0.06283457 -0.15920651 -0.4153201
0.15874624 0.2156711 0.32318282 -0.064093605 -0.1951266 -0.075613946 -0.23588626 0.068097025
0.317495 -0.049401984 0.16381837 -0.26666263 -0.09995522 -0.19547756 0.085334115 0.2144376
0.06300938 0.1381675 -0.15888768 -0.18777151 0.112177566 -0.1180635 0.11483486 -0.08546315
-0.28762707 0.012794398 -0.18607923 -0.05552519 -0.083609305 -0.28679705 0.2605012 0.12608108
-0.08011529 0.008756293 -0.09352846 0.09437359 0.24791838 0.22061242 -0.023414984 -0.056033738
-0.07956628 -0.34219185 0.26002836 0.10798709 -0.342699 0.021199951 0.21758544 0.0053605344

base.mlp.fc_h.0.bias f4 [64]
00000000: 0000 0000 0000 0000 0000 0000 0000 0000
00000010: 0000 0000 0000 0000 0000 0000 0000 0000
00000020: 0000 0000 0000 0000 0000 0000 0000 0000
00000030: 0000 0000 0000 0000 0000 0000 0000 0000
00000040: 0000 0000 0000 0000 0000 0000 0000 0000
00000050: 0000 0000 0000 0000 0000 0000 0000 0000
00000060: 0000 0000 0000 0000 0000 0000 0000 0000
00000070: 0000 0000 0000 0000 0000 0000 0000 0000
00000080: 0000 0000 0000 0000 0000 0000 0000 0000
00000090: 0000 0000 0000 0000 0000 0000 0000 0000
000000a0: 0000 0000 0000 0000 0000 0000 0000 0000
000000b0: 0000 0000 0000 0000 0000 0000 0000 0000
000000c0: 0000 0000 0000 0000 0000 0000 0000 0000
000000d0: 0000 0000 0000 0000 0000 0000 0000 0000
000000e0: 0000 0000 0000 0000 0000 0000 0000 0000
000000f0: 0000 0000 0000 0000 0000 0000 0000 0000
0.0 0.0 0.0 0.0 0.0 0.0 0.0 0.0
0.0 0.0 0.0 0.0 0.0 0.0 0.0 0.0
0.0 0.0 0.0 0.0 0.0 0.0 0.0 0.0
0.0 0.0 0.0 0.0 0.0 0.0 0.0 0.0
0.0 0.0 0.0 0.0 0.0 0.0 0.0 0.0
0.0 0.0 0.0 0.0 0.0 0.0 0.0 0.0
0.0 0.0 0.0 0.0 0.0 0.0 0.0 0.0
0.0 0.0 0.0 0.0 0.0 0.0 0.0 0.0

base.mlp.fc_h.2.weight f4 [64]
00000000: 0000 803f 0000 803f 0000 803f 0000 803f
00000010: 0000 803f 0000 803f 0000 803f 0000 803f
00000020: 0000 803f 0000 803f 0000 803f 0000 803f
00000030: 0000 803f 0000 803f 0000 803f 0000 803f
00000040: 0000 803f 0000 803f 0000 803f 0000 803f
00000050: 0000 803f 0000 803f 0000 803f 0000 803f
00000060: 0000 803f 0000 803f 0000 803f 0000 803f
00000070: 0000 803f 0000 803f 0000 803f 0000 803f
00000080: 0000 803f 0000 803f 0000 803f 0000 803f
00000090: 0000 803f 0000 803f 0000 803f 0000 803f
000000a0: 0000 803f 0000 803f 0000 803f 0000 803f
000000b0: 0000 803f 0000 803f 0000 803f 0000 803f
000000c0: 0000 803f 0000 803f 0000 803f 0000 803f
000000d0: 0000 803f 0000 803f 0000 803f 0000 803f
000000e0: 0000 803f 0000 803f 0000 803f 0000 803f
000000f0: 0000 803f 0000 803f 0000 803f 0000 803f
1.0 1.0 1.0 1.0 1.0 1.0 1.0 1.0
1.0 1.0 1.0 1.0 1.0 1.0 1.0 1.0
1.0 1.0 1.0 1.0 1.0 1.0 1.0 1.0
1.0 1.0 1.0 1.0 1.0 1.0 1.0 1.0
1.0 1.0 1.0 1.0 1.0 1.0 1.0 1.0
1.0 1.0 1.0 1.0 1.0 1.0 1.0 1.0
1.0 1.0 1.0 1.0 1.0 1.0 1.0 1.0
1.0 1.0 1.0 1.0 1.0 1.0 1.0 1.0

base.mlp.fc_h.2.bias f4 [64]
00000000: 0000 0000 0000 0000 0000 0000 0000 0000
00000010: 0000 0000 0000 0000 0000 0000 0000 0000
00000020: 0000 0000 0000 0000 0000 0000 0000 0000
00000030: 0000 0000 0000 0000 0000 0000 0000 0000
00000040: 0000 0000 0000 0000 0000 0000 0000 0000
00000050: 0000 0000 0000 0000 0000 0000 0000 0000
00000060: 0000 0000 0000 0000 0000 0000 0000 0000
00000070: 0000 0000 0000 0000 0000 0000 0000 0000
00000080: 0000 0000 0000 0000 0000 0000 0000 0000
00000090: 0000 0000 0000 0000 0000 0000 0000 0000
000000a0: 0000 0000 0000 0000 0000 0000 0000 0000
000000b0: 0000 0000 0000 0000 0000 0000 0000 0000
000000c0: 0000 0000 0000 0000 0000 0000 0000 0000
000000d0: 0000 0000 0000 0000 0000 0000 0000 0000
000000e0: 0000 0000 0000 0000 0000 0000 0000 0000
000000f0: 0000 0000 0000 0000 0000 0000 0000 0000
0.0 0.0 0.0 0.0 0.0 0.0 0.0 0.0
0.0 0.0 0.0 0.0 0.0 0.0 0.0 0.0
0.0 0.0 0.0 0.0 0.0 0.0 0.0 0.0
0.0 0.0 0.0 0.0 0.0 0.0 0.0 0.0
0.0 0.0 0.0 0.0 0.0 0.0 0.0 0.0
0.0 0.0 0.0 0.0 0.0 0.0 0.0 0.0
0.0 0.0 0.0 0.0 0.0 0.0 0.0 0.0
0.0 0.0 0.0 0.0 0.0 0.0 0.0 0.0

base.mlp.fc2.0.0.weight f4 [64, 64]
00000000: e20b cf3d 3d38 763e c4ee ff3d f46a a13e
00000010: 53c0 30be b5ad a73e 31af c5bd f166 d9bd
00000020: 4922 83be 0fe5 b1be e724 7fbe 8401 bb3d
00000030: 813d 3cbe b681 db3d 9b1c c0bd fb85 9e3e
00000040: aa63 0a3d 69f7 643d 5463 e23d b664 16be
00000050: 8710 503e 8933 c7be d4df 343d 61f9 80be
00000060: 8ee1 71bd 32e4 12be bcd5 45bd 1932 aebe
00000070: ab69 e2bb de79 b13d 24ba 193e 6bab 88be
00000080: bf83 a5bd e552 6fbd ae5d 92bd 5a2c ebbe
00000090: ce2c 283e cd62 b1bd 8452 673e 662b 9bbe
000000a0: f188 93bd 9203 d43d 01f7 203e c553 353c
000000b0: 1091 f6bc 3c84 5dbd 0801 433c 979b 13be
000000c0: 6bed 083e 0315 25be b985 0e3e b007 8d3e
000000d0: 65a5 b0be e6aa cd3c a273 6bbd 8297 b33d
000000e0: c60e d2bd 8102 eebd 933f 92be c029 013e
000000f0: 8f6b 1abc 4058 313e 30b3 f43d 0022 8e3d
00000100: 8759 113e a164 d3bc 613a 0bbe b7dc 1c3e
00000110: ae9f 4fbe 7cfa 003e 31c1 e53d b522 8e3d
00000120: 963e d13c cfca a4bd e31e 903d ad5a 0ebe
00000130: 0a55 903c 54fb 653e 6329 46be a2e3 0fbe
00000140: 43ac 533e 6ed7 23be 32bd f0bd 5d0a 5fbe
00000150: 8c8b 583e b963 f13d 599e 103e ccda 013e
00000160: 5bd8 fcbd ac84 51bd 8e27 bb3d bd57 fdbc
00000170: fa89 c83e b177 cabd ab05 fb3e c284 a9bd
00000180: f34f f1bc 49d3 e63d bf36 463d dd14 673d
00000190: bb22 fe3d c090 973d e2ab 433d ac13 05bd
000001a0: 0510 853e 1ab9 043e fdf9 f7bd 20d1 d9bd
000001b0: 1868 a53e 6c13 2a3b b401 2abe a18d 523e
000001c0: 40d0 90be 1c1d 4f3e 8810 913d f570 b73c
000001d0: 249b e7bd e1d9 ce3e 4e8f d5bd e415 9ebd
000001e0: 8870 273d 6e7d 3ebe 8602 7b3e 1355 5ebc
000001f0: fd5b e63d 9d1e c23d e2d3 7abe afc5 35be
00000200: 4480 96be 91b8 87bd d44f c53d 67d6 1f3e
00000210: 1e40 84be 970f edbd c6b6 59be 7c42 b2bd
00000220: efc2 393e 552b 5ebd 713a 7bbe cfbb fa3b
00000230: 172c e83d 9796 92be 34e3 063d aa67 a6be
00000240: 3ba5 173c f868 ac3e f69a bd3c 4bdc cdbd
00000250: eb19 91bd 13c1 bf3e 87e2 83be 95c1 523d
00000260: 3dc8 31be 2a88 913d d89e 8bbe e470 983d
00000270: 1fbf d33d 4e6b cebd c21a a3bd feca ec3d
00000280: b95e 813d f50c 4bbe d9b5 543d a6b0 18bd
00000290: eb93 0fbe 955e 853e 89f9 193e 23b8 8cbd
000002a0: 8098 ba3e 0908 7a3e 7964 b53d 8996 97be
000002b0: ff4a 123e b9ca b6be 18f5 1ebe c2ed e93d
000002c0: ab86 2d3e fbe0 bdbd 389b 543b 7660 87be
000002d0: 3a2c 6bbe e53b 73bd 1739 79be 2813 b73e
000002e0: 211c 183b 975c 1e3e 03cb 02bd a12e 753e
000002f0: b71f 0cbd 7508 88bd 2851 0ebc ac0e 1e3e
00000300: f48c 0f3e b9e9 0fbe e97e 243e 616b a73c
00000310: ac80 77be 7a4c 993c f045 ecbd 9a96 a5bd
00000320: b536 103e f2cf 163e df42 31be a611 853d
00000330: 83f4 423e 0429 ffbd 7e65 56be e4d0 c4be
00000340: 9a40 593e 855e d33d b0f3 9e3e 9fa1 0cbd
00000350: 4755 7bbe 2c33 1cbe 6cd9 20be d7d6 c63d
00000360: f600 9f3e 0359 0ebc 563d 6d3e 8a4c f5bd
00000370: b472 67bc 6e99 6fbe ef9f ae3d ff64 8e3e
00000380: f036 133e 9cbc 023e 26e9 18be b11b 19be
00000390: 31e6 df3d ac97 eabd 1515 b53d adce 04be
000003a0: 3f5a 95be f2c9 5fbd a84f 73be 3516 a4bd
000003b0: 64b9 ddbc d3f8 6dbe cd10 923e 814f 6e3e
000003c0: b9a1 4ebd e589 2ebc a1f9 5abd 49aa ed3d
000003d0: 2175 cd3e 650d 463e 7393 afbc a0bb bb3d
000003e0: d43b 33be 1792 c0be 4c02 8e3e 3b76 fc3d
000003f0: b826 b1be 3c64 7cbd cbe6 933e 2797 1abd
0.10109688 0.2404489 0.12496713 0.3152691 -0.17260866 0.32749715 -0.09652556 -0.10615338
-0.25612095 -0.3474507 -0.24916421 0.091311485 -0.18382837 0.107181 -0.09380456 0.30961594
0.033786453 0.05590001 0.110541016 -0.14686856 0.20318805 -0.38906506 0.04415877 -0.2519026
-0.059052996 -0.14344862 -0.048299536 -0.34022596 -0.0069095693 0.086658224 0.15012413 -0.26693282
-0.08081769 -0.058428664 -0.07146774 -0.45932275 0.16423342 -0.08661423 0.22590071 -0.30306548
-0.07203854 0.103522435 0.15719225 0.0110673355 -0.030098468 -0.054081187 0.011902101 -0.14414822
0.13371818 -0.16121297 0.13918199 0.27544928 -0.34501186 0.025105905 -0.057483323 0.08769132
-0.10256724 -0.11621571 -0.28564128 0.12613583 -0.009425058 0.17318821 0.1194824 0.06940079
0.14194308 -0.02580482 -0.13596489 0.15318571 -0.20275757 0.12595552 0.11218489 0.069402136
0.025542539 -0.08046495 0.07037141 -0.13901778 0.017618675 0.22459155 -0.19351725 -0.14051679
0.20671181 -0.16000149 -0.11754836 -0.21781297 0.21146983 0.11786599 0.14122905 0.1268112
-0.12345954 -0.051151916 0.09138404 -0.030925626 0.39167768 -0.098861106 0.49027762 -0.08277275
-0.029457068 0.11270768 0.048392054 0.05641638 0.12408968 0.07400656 0.047771342 -0.032489464
0.25988784 0.12961236 -0.12108228 -0.106355906 0.3230598 0.0025951518 -0.16602212 0.2056184
-0.28283882 0.20225948 0.07083231 0.02239273 -0.113088876 0.40400603 -0.10427724 -0.07719019
0.040878803 -0.18602535 0.24512681 -0.013570088 0.11248014 0.09478495 -0.2449489 -0.17751192
-0.29394734 -0.06627 0.09634367 0.15609132 -0.25830168 -0.11575239 -0.21261129 -0.08704087
0.18140768 -0.054240543 -0.24534012 0.007651783 0.113365345 -0.28630516 0.03293152 -0.32500964
0.009255703 0.33673835 0.02314518 -0.10051783 -0.070850216 0.3745199 -0.25758764 0.051454145
-0.17361541 0.07106049 -0.27269626 0.07443407 0.10339188 -0.100790605 -0.07964088 0.11562155
0.06316895 -0.19829161 0.051931236 -0.03727784 -0.1402127 0.26048723 0.15036596 -0.06871059
0.36444473 0.24417128 0.08857054 -0.29607037 0.14286421 -0.3570154 -0.15523183 0.11422302
0.16945903 -0.09271427 0.003244115 -0.2644078 -0.2296609 -0.05938329 -0.24338184 0.35756803
0.0023210126 0.15465008 -0.03193189 0.23943569 -0.034209933 -0.06642238 -0.008686341 0.15435284
0.14018613 -0.14054002 0.16064037 0.020436944 -0.24170178 0.018713225 -0.11536777 -0.080853656
0.14083369 0.14727762 -0.17310666 0.06497507 0.19038586 -0.12458995 -0.20937154 -0.3844062
0.2121605 0.103207625 0.31045294 -0.03433382 -0.2454425 -0.15253896 -0.1570794 0.09708946
0.3105542 -0.008688214 0.23167929 -0.11977489 -0.014126468 -0.23398373 0.08526599 0.2781143
0.14376426 0.12767261 -0.14932689 -0.1495197 0.109325774 -0.1145471 0.08841912 -0.12969466
-0.29170415 -0.05463595 -0.23760855 -0.08012048 -0.02706594 -0.2323945 0.28528443 0.23272516
-0.0504472 -0.010652994 -0.05346072 0.11604745 0.40128425 0.19341047 -0.021432614 0.09166646
-0.17503291 -0.37611458 0.27736127 0.12327238 -0.34599853 -0.06161903 0.2888702 -0.037741806

base.mlp.fc2.0.0.bias f4 [64]
00000000: 78c0 a43c c8ec 9fbd c084 723d c643 0a3d
00000010: e215 e9bb a884 503d 4880 a3bd 3a2d e83a
00000020: 910e 87bd 96ed 87ba 1113 803c 01f1 a93c
00000030: b047 743d 74c5 d6bc a250 0d3d 2aa8 ab3b
00000040: 156a 12bc 8640 f23c 0bc7 a5bd 1205 d6bc
00000050: a834 693d 9a2b 8abd 5226 7fbc 6250 3c3c
00000060: b349 9b3b 3801 81bc 4062 2a3c d1e1 7a3c
00000070: 46cc bdbd 66f5 193d 20bb 063d 98e4 82bd
00000080: cf99 a0bd b792 2fbb 4a87 9cbb db31 383b
00000090: 338d 19bc a012 003d bc4d 3abd 384c a1bd
000000a0: 87e4 333b 8a5c 46bd 6ec3 a3bd e6e2 38bd
000000b0: 8b2a 00bd 8edb 84bd 2511 2fbd 9573 6d3d
000000c0: e998 e0bd 9ff4 983c abc3 91bd 559e 813c
000000d0: 2995 a1bc 18d8 7e3c 7eca 9ebd 2e07 9e3c
000000e0: 3c57 20bd 6852 ccbd def8 80bc 1a29 e2bc
000000f0: a402 0bbd 56f0 1dbb f36e fcbd 9289 d23d
0.020111308 -0.07808834 0.05920863 0.03375604 -0.0071132043 0.05090776 -0.07983452 0.0017713674
-0.06594575 -0.0010370489 0.015634092 0.020744802 0.05963868 -0.0262172 0.034500726 0.0052385526
-0.008936425 0.029571783 -0.08094605 -0.026125465 0.056934983 -0.067465976 -0.015573101 0.011493774
0.0047390102 -0.015747651 0.010399401 0.015312628 -0.09267478 0.037587546 0.0328933 -0.06391257
-0.07841837 -0.002679033 -0.00477687 0.0028105888 -0.009372043 0.031267762 -0.04548429 -0.07875866
0.0027449445 -0.048428096 -0.0799626 -0.045138262 -0.031290572 -0.06487189 -0.04274096 0.057971556
-0.10966665 0.018671332 -0.07117399 0.015822569 -0.019724445 0.01555445 -0.07753466 0.019290533
-0.039145693 -0.09976655 -0.01574367 -0.02760749 -0.033938065 -0.002409955 -0.123258494 0.10280146

base.mlp.fc2.0.2.weight f4 [64]
00000000: d01b 873f 215b 7b3f 3231 863f b6bf 863f
00000010: c350 993f e8fe 983f a137 883f 6d36 893f
00000020: c258 8e3f cc40 943f 9ae7 943f 0875 953f
00000030: 17d1 933f cf04 893f 7006 8b3f 2b41 8e3f
00000040: 6e72 943f 46cf 923f 12b8 843f 1f1d 783f
00000050: 41da 8b3f 492b 823f 30af 873f 2e1c 913f
00000060: 9261 8c3f dfe4 883f 1aa3 8d3f ec90 943f
00000070: c26a 833f 8552 873f e9de 913f fbc1 853f
00000080: 5802 863f 491d 843f 2b6b 833f b86e 8c3f
00000090: 9a54 9e3f fff0 943f aa77 823f 0fe4 833f
000000a0: de66 923f 8884 7d3f b14b 823f 7aef 833f
000000b0: 9965 973f ff6f 853f f7d6 833f b85f 973f
000000c0: ba6a 863f 4c3e 8f3f 42f1 843f 381d 8a3f
000000d0: 9a7e 853f a997 863f 5bc9 903f bb77 873f
000000e0: b7f9 863f f156 8d3f d90a 8e3f 931a 903f
000000f0: de18 853f f7ba 8c3f 621c 893f ec9e 8c3f
1.0555363 0.98185927 1.0483763 1.0527256 1.1977772 1.1952791 1.0641977 1.0719734
1.1120837 1.1582274 1.1633179 1.167634 1.1548184 1.0704592 1.086134 1.1113638
1.1597421 1.1469505 1.0368674 0.96919435 1.0925981 1.016946 1.0600338 1.1336725
1.0967276 1.0694846 1.10654 1.1606727 1.0266955 1.0572058 1.1396152 1.0449823
1.0469465 1.0321437 1.026708 1.0971289 1.2369568 1.1636046 1.0192769 1.0303973
1.1437643 0.9903035 1.0179349 1.0307457 1.182788 1.0424803 1.0299977 1.1826086
1.050132 1.1190886 1.0386126 1.0790167 1.0429261 1.0515033 1.1311449 1.0583414
1.0544957 1.1042157 1.109706 1.125811 1.0398214 1.0994557 1.0711787 1.0985999

base.mlp.fc2.0.2.bias f4 [64]
00000000: 35d8 ba3d 25c3 0d3c b443 c13d ae5e 12bd
00000010: 36d1 23bd 8199 2a3d d3c6 87bd 3ebc 18bd
00000020: 0df9 febd 28d6 b9bd c479 9f39 719e 093d
00000030: 62a4 263d 1087 993d 5b9f 223d 8405 1cbd
00000040: c370 64bd d45f 423d b599 e6bc f200 b43c
00000050: 2e6d 50bd 4900 85bc a3a5 bb3c e6c7 7b3d
00000060: 3bad 013e 48b6 f13c 9901 9bbc b828 c93c
00000070: 72db a6bc 8011 9d3b 48a5 02bd 602c c9bd
00000080: 839a 3d3d c98e 983d 2941 4f3d ce3b a03b
00000090: 2f47 90bd 2554 173d 3a05 18bd 8ac6 0abd
000000a0: 87ad ad3a 36a2 d73c b643 43bd c7d7 5b3d
000000b0: 726c babd 2c28 733b d1c7 153c 0af6 75bd
000000c0: 4d95 43bd e580 023d d287 c7bc 90b3 ad3d
000000d0: 56b9 0b3c f27f bb3c 2a93 45bd fcb5 fe3c
000000e0: a1ac 113c fee5 e93a e892 733b 51a8 86bd
000000f0: ab3b 4bbd 011f 153d 8875 92bc 7617 c33d
0.091232695 0.008652483 0.094367415 -0.035734825 -0.03999444 0.0416503 -0.066297196 -0.037288897
-0.124498464 -0.0907405 0.00030417566 0.033598367 0.04068411 0.07496464 0.039702754 -0.038091198
-0.0557716 0.04745467 -0.028149465 0.021973107 -0.050885372 -0.016235488 0.02290613 0.061469935
0.12663738 0.029505864 -0.01892166 0.024555549 -0.020368312 0.004793346 -0.031895906 -0.09822917
0.046289932 0.07449109 0.05059925 0.004889942 -0.07044827 0.03694548 -0.03711436 -0.033880748
0.0013250568 0.026322465 -0.047671996 0.05367258 -0.091027156 0.0037102802 0.009141878 -0.060049094
-0.047749806 0.031861205 -0.024356756 0.084815145 0.008528074 0.022888158 -0.04823605 0.031092636
0.008891256 0.0017845032 0.003716642 -0.065750726 -0.04961745 0.03640652 -0.017878309 0.09525959

act.action_out.linear.weight f4 [10, 64]
00000000: a177 813d 11d8 a93c b959 61bd 8df6 81bd
00000010: 70c2 c73b 247d e13c fb28 fdbc bb3c 62bd
00000020: e064 923c ed6c 1dbc 03d8 de3c 140b ff3d
00000030: dd6b 813d 0fcb a33d edc6 7bbd 2374 84bc
00000040: 5aa4 02be 0333 90bd babc 53bd a2be 53bd
00000050: d842 d338 d6cc a2bd 615e 063d fe42 9d3c
00000060: 9629 ffbd 565f 7e3d b079 4cbc 9cee 2d3d
00000070: e9a0 65bd 5b83 6e3c 53ab 26be 0e34 bd3a
00000080: 9222 1bbc e360 ce3d 4e7f c13c 78c5 9cbd
00000090: d496 4e3e 4bae 14bd 3b8c 13bc 6eb3 923c
000000a0: 651f dcbd 0e27 3e3d 3100 833d 90ce 183d
000000b0: af77 35bc 3101 083d 6822 a4bc e614 b63c
000000c0: 9cfa 0c3d 37c4 913d 2627 613d f9a8 163d
000000d0: f212 7dbd 9c04 433b 0c65 cd3d f129 ec3c
000000e0: e6ff e8bc 8049 25bd 0e8e 013e 9897 3cbd
000000f0: 8342 f73b 0ae8 8cbd 0282 a53d d87e 053c
00000100: f07c afbd e3d0 a43b f4e3 d03c 4155 c23c
00000110: 5d60 f03c 5d87 1dbd 0546 cabc b611 803c
00000120: eb32 993d c49d f03d 67e3 ec3c de7a 85bd
00000130: 5583 febc b918 dbbd 4536 0f3d 6984 863d
00000140: 2a90 283d bb7e 13bd fd1d 293d 6daf e5bc
00000150: 4510 363d d5d4 b9bb 2adf 8ebd 2097 2fbc
00000160: 6cde c4bc 5744 37bd c0d1 5bbd 55c1 4e3d
00000170: bbe5 e13c c4b9 b0bc 124b dbbc 0769 063d
00000180: edcc 433d 1d8e f83c d112 fd3c f645 f53d
00000190: 004f 3f3c 60ea d9bd 3174 14bb 1434 e93c
000001a0: 711a 65bd 77f0 0fbd de38 d7bc a9db adbc
000001b0: e01d a93d 4c85 853c 8650 76bd ea72 2aba
000001c0: 902e 183d effa 833c 8f42 c33c c448 d6bc
000001d0: 18dc 20bd cce4 81bc 0054 823a b111 6d3d
000001e0: a401 243d 2e28 74bc b3ce 0d3d 2253 623d
000001f0: 660a 4abd 823e 913d 0d59 2b3d e2fd 20be
00000200: 2594 5dbc ed98 73bc 035c cc3d 9cde 003d
00000210: 1220 73bd 3a57 d4bd 0f90 2ebd 0fbb 213c
00000220: b08d dfbd c9ab 6ebd 1eee 1c3e 46d1 0e3e
00000230: b4f3 1e3c c5eb 4fbc a2a1 103e 6836 18be
00000240: 42c3 76bd e869 6d3b 139f 38bc 6f2f 2ebc
00000250: 538b ac3d a2e1 29bc 19d2 dcbc ac92 823d
00000260: 61a7 e03d 8fe3 0bbd 5c3c 923b 1063 8b3d
00000270: 1c7a 22bc d799 c4bd 6683 04bd f2a5 c2bd
00000280: 5832 48bd a510 b8bc 447b ad3d 9a04 7a3d
00000290: 658b d2bd 9ad1 973c 1f97 43bd 3385 db3d
000002a0: a500 a73d 50d4 3dbc a74d 0dbd 453d 233d
000002b0: 3fb4 30be 733b 90bd 8f27 f23b d8a9 4abd
000002c0: 3632 463d 3189 7cbc fa13 39bd 5b8c c43d
000002d0: 0d55 843d 1c5d e53c c3e9 eebd fab3 e7bc
000002e0: b5f6 ac3d 0687 c13d 3bda c3bc a06c 28be
000002f0: a80e 583c 2626 b3bd 58e3 af3c 8e8c e73c
00000300: c3a0 dcba 2596 24bc 2e2f dd3c dfb3 123d
00000310: e9f9 e5bd b6b4 bbbc f9ce 093c a4e0 143d
00000320: b678 5b3d 2cbf 033b 9e46 35be 5595 423c
00000330: 0548 cdbc 7ba4 323d ecc6 d43c 9bf7 8fbb
00000340: 0d62 073e 1a35 933d 0e89 933d 70b2 6a3c
00000350: 0f3c 893d 9f86 57bb 1e5c 8bbd ddce a8bd
00000360: 051d 033d 74b7 993d d1d4 7c3d 0063 8bbd
00000370: 604d 5c3c 3843 0cbb 4915 a8bd 4918 433d
00000380: 630e 4b3d ec38 8cbb 8e96 a6bc 07ea ce3c
00000390: c3c5 77bd 5fb1 45bc 23cf 81bd 4684 34bd
000003a0: cb48 ff3d 87b3 e2bc 1615 8abb 4223 5bbd
000003b0: e8ce 93bd 5be3 f93c 93cc 8dbc 3415 a1bd
000003c0: 44d2 90bd 2d80 5fbd 025d d0bb f851 d73c
000003d0: 5c00 87bd b4df 6f3d f984 943c 75a3 e83b
000003e0: 6f31 a6bd b8fb 983d 7ff1 4f3c 371c 923c
000003f0: 2534 f23b 260a 323b fdcf 553d c742 913d
0.063216455 0.020732911 -0.055017207 -0.06345854 0.006096177 0.027525492 -0.03090333 -0.0552337
0.017870367 -0.009608489 0.027202612 0.12453285 0.063194014 0.07997715 -0.061469007 -0.01616866
-0.12758008 -0.0704098 -0.051693656 -0.051695473 0.00010073715 -0.079492256 0.03280485 0.019196983
-0.12459104 0.06210264 -0.012480184 0.042463884 -0.05606166 0.014557685 -0.16276293 0.0014435069
-0.009468691 0.100770734 0.023620274 -0.07654852 0.20174724 -0.03629903 -0.0090056015 0.017907824
-0.107481755 0.046423964 0.06396521 0.03730637 -0.011075898 0.03320426 -0.020035937 0.022226762
0.034418687 0.07117503 0.054968975 0.03678224 -0.061785646 0.0029757386 0.10029039 0.028828593
-0.028442334 -0.0403533 0.12651846 -0.04604301 0.0075457706 -0.068801954 0.08081438 0.008147918
-0.08568752 0.005029784 0.025499322 0.023722293 0.029342825 -0.03845917 -0.024691591 0.015633445
0.07480415 0.117488414 0.028917028 -0.06517576 -0.031068483 -0.10698075 0.034963865 0.06568224
0.04115311 -0.03600953 0.041288365 -0.028037751 0.04444911 -0.0056711235 -0.06976159 -0.010717183
-0.02403184 -0.04474291 -0.05366683 0.050477345 0.027575364 -0.021572955 -0.026769195 0.032815006
0.047802854 0.030341202 0.030892761 0.119762346 0.01167655 -0.106404066 -0.0022652263 0.028467216
-0.05593342 -0.035141435 -0.026272234 -0.021222906 0.08257651 0.016298912 -0.060135387 -0.0006502109
0.03715378 0.016110865 0.023835449 -0.026157744 -0.039272398 -0.01585617 0.0009943247 0.0578782
0.040040627 -0.014902158 0.03462095 0.055255063 -0.049326323 0.070920005 0.041832972 -0.15721849
-0.01352409 -0.014868003 0.09978487 0.031462297 -0.059356757 -0.103682 -0.042617854 0.009871258
-0.109156966 -0.058269296 0.1532521 0.13947019 0.009701658 -0.012690489 0.14124158 -0.14864504
-0.060244806 0.0036226455 -0.011268395 -0.010631426 0.084250115 -0.010368736 -0.026955651 0.06375632
0.10969425 -0.034152564 0.004462762 0.06806004 -0.009916808 -0.09599655 -0.032351874 -0.09504308
-0.048876137 -0.022468874 0.08470777 0.061039545 -0.10280494 0.018532563 -0.047751542 0.10718765
0.0815442 -0.011586264 -0.034497883 0.039853353 -0.17256258 -0.07042589 0.0073899697 -0.049478382
0.04838773 -0.015413568 -0.045185067 0.09597083 0.06461535 0.0279985 -0.1166568 -0.028284062
0.08445493 0.09449582 -0.023907771 -0.16447687 0.013187088 -0.087475106 0.02147071 0.028265264
-0.0016832579 -0.010045563 0.027000036 0.03581607 -0.11229307 -0.022913318 0.0084111625 0.036347046
0.053581916 0.002010296 -0.1770272 0.011876424 -0.025058756 0.043613892 0.02597376 -0.0043935305
0.13220997 0.07187863 0.072038755 0.014324769 0.067009084 -0.0032886637 -0.06804679 -0.08242581
0.032010097 0.07505694 0.061726395 -0.06805992 0.013446182 -0.002140237 -0.08207185 0.047630582
0.049574267 -0.0042792466 -0.020335462 0.025258077 -0.060491335 -0.012066214 -0.06338336 -0.04407146
0.12465056 -0.027673496 -0.0042139394 -0.05350042 -0.072171986 0.03050392 -0.017309463 -0.07865372
-0.07071355 -0.054565597 -0.0063587436 0.026284203 -0.065918654 0.05856295 0.018129813 0.0070995637
-0.081148975 0.074698865 0.0126918545 0.01783572 0.00739147 0.0027166693 0.052200306 0.07092815

act.action_out.linear.bias f4 [10]
00000000: e3cd 0abc 2e7b 8dbd 185d 543d 9afd 903c
00000010: 5625 d8bc 5549 613b ff85 1abd 485f 47bd
00000020: 6173 9a3c a56f 8e3d
-0.008471939 -0.0690826 0.051846594 0.017699052 -0.02638499 0.0034375985 -0.037725445 -0.04867485
0.018853845 0.06954888
