light_mappo-main/results/MyEnv/MyEnv/mappo/check/run33/models/critic.pt (torch, 52149 bytes, 15 tensors)

base.feature_norm.weight f4 [45]
00000000: e6a0 823f 3faf 8b3f a2e6 853f 640a 793f
00000010: c2a3 823f b291 763f 0b36 7f3f ff8f 743f
00000020: c5a6 813f 051c 7e3f 2ac7 823f 92e4 8c3f
00000030: 7162 843f ed9c 753f c32f 843f 91d7 7c3f
00000040: a53e 763f 484b 863f ec3e 773f 83c8 6d3f
00000050: 3df6 813f 9ae9 833f 7847 783f 142b 863f
00000060: afb5 753f 774f 783f 7c1a 823f fb82 743f
00000070: 3470 7b3f cad2 693f 49bb 723f b6b5 883f
00000080: a0b9 703f e9c6 803f 7d97 733f 64e7 853f
00000090: 3f8e 793f 77e3 823f 49a5 863f ba61 7a3f
000000a0: a2e1 7e3f 9194 783f 06f6 7b3f d4a3 7a3f
000000b0: 0b2f 813f
1.0205352 1.0912856 1.0461009 0.9728148 1.0206225 0.96316063 0.9969184 0.9553222
1.0129019 0.99261504 1.021703 1.1007254 1.0342542 0.95942575 1.0327076 0.9876643
0.9618934 1.0491724 0.96580386 0.9288408 1.0153271 1.0305665 0.9698405 1.0481896
0.9598035 0.96996254 1.0164332 0.9551236 0.98218083 0.91337264 0.94817024 1.0680454
0.9403324 1.0060703 0.9515303 1.046124 0.97482675 1.0225667 1.0519191 0.9780537
0.9956304 0.97101694 0.98422277 0.9790623 1.0092481

base.feature_norm.bias f4 [45]
00000000: 1f7c b3bc 89f3 3dbc a63f 4ebd ed1d 1abd
00000010: 14dd 9cbc 591f bc3c 200a 823b 74a2 d63c
00000020: ad12 fcbc 7f05 48bd 2bbb bc3c 3a2a 55bd
00000030: 65ed 95bb 399b 46bd 047f 12bd 19f5 f4bc
00000040: f36f f9bc 317b 3cbd 9e42 c73c 01ef a0bc
00000050: 14dc 0fbd a1fd 08bd 1a2f ca3c 6ded 0c3b
00000060: 73e3 80bc e91a bdbc ac77 10bd 0c57 8e3d
00000070: 5552 f5bb fba6 25bb e045 c03c 70c1 67bd
00000080: 3332 82bd 8bf4 17bc 1d1f e9bc f1ef f6ba
00000090: fe1f 8f3c 9e5c 89bc bf35 babd 7ffc 133d
000000a0: acb2 72bd 3048 a8bd ea18 663b 74ad 30bd
000000b0: 9d83 03bd
-0.021909771 -0.011593708 -0.05035367 -0.037626196 -0.019148387 0.022964166 0.003968492 0.02620051
-0.030770624 -0.048833366 0.023038467 -0.052042224 -0.004575419 -0.048487876 -0.035765663 -0.029902028
-0.03044889 -0.046015922 0.024323758 -0.019645216 -0.035121992 -0.033445004 0.024680663 0.0021503821
-0.015733456 -0.02308412 -0.035270378 0.069501966 -0.0074866214 -0.002527653 0.023470819 -0.05658096
-0.06357231 -0.009274612 -0.028457219 -0.0018839819 0.01747131 -0.016767796 -0.090922825 0.03612947
-0.059252426 -0.08216894 0.0035110065 -0.043134168 -0.032107938

base.mlp.fc1.0.weight f4 [64, 45]
00000000: 260b 9ebe 6102 413d 7a08 2dbe 1002 65bd
00000010: 083e 763e 3f1f 57be c385 05bd 268a 67be
00000020: 1ef0 523d db0b a3bb a815 40bd d2b2 fdbd
00000030: adae 23be 5b3d 5bbe 5eb6 9abc d4c4 8ebc
00000040: 844e a43e 181e ca3d 824c 6cbe 6013 933e
00000050: fe52 ad3c 82db b83d c7c2 23be a0e4 633e
00000060: a160 14be 9812 04bb a6b5 7bbe 5cbf 1ebe
00000070: 1ee7 5ebd 7cf2 0bbe 612d 2a3e 6820 04bd
00000080: 2fd4 efbd 4f3c 0bbd a466 10bd 7290 adbd
00000090: 39a7 513c 3fa9 043c 9078 433d 93e4 253e
000000a0: bb2c 5bbe 43dc 12be 53a8 be3d bc63 423e
000000b0: 0fd0 563e 5aa4 783d 3c14 663c 9b7d 5bbe
000000c0: 6056 9b3d a17e 443d 581b 66bb 0fa5 c43d
000000d0: 1381 6dbd 5237 92bd 158d 9fbd b952 b43d
000000e0: 5669 323e 1070 2f3d 016d d3bd 29bb 2cbe
000000f0: f252 893e c434 94bd fbda 10be 40f7 ecbe
00000100: e4a2 873e 16c2 d23c 3116 f0be 3c7c b43c
00000110: 2832 ecbc ae41 04be ebba 6e3d 3a70 fa3d
00000120: b015 05bc fa68 7bbe ee8e 873d e5c5 f9bc
00000130: ae06 0d3e c662 c63d 850c 8b3e 772b 22be
00000140: 2b60 bb3e f695 0f3e 2e2c f63d f9d2 083e
00000150: 0956 1dbd afdb 87bc 6b84 c8be 2559 6b3e
00000160: 0075 8dbc 7838 f03d 1158 dabd 61f7 d73d
00000170: 1090 853e 6e46 343d 1f4a b9bd eb26 a9be
00000180: 74b8 6cbe 6aa4 c33e ddae 8d3d f875 10bd
00000190: 4bca fabe d565 8bbe 3432 0c3e ee48 82be
000001a0: 9774 813e f5b1 6dbd c0d4 283d 6bac 393e
000001b0: 6b1a 01be 55f4 95be f3b6 493e 5152 863c
000001c0: afb9 d43e c105 6bbe b180 953d b9f8 ad3c
000001d0: 8a0b 1abe 5387 093e 0c9c 153e e147 9cba
000001e0: fa26 b1bd 915d c7be 18d6 14bc 43f4 6ebd
000001f0: c4c3 88be 0f14 4dbe 6e50 803e d75a e2bd
00000200: d0c4 a43d 9ed9 893e 5b3a 7b3d 9348 25be
00000210: 1a56 1e3d 04e7 243c 399b 27be 5408 24bc
00000220: c60d 5fbd 51aa b63d 0407 03bd a5d5 b5bd
00000230: 0f98 a93c 0e9e f73d dfe0 b03b 7fdd 0d3e
00000240: ed7c bfbc d418 11bd e71e 9ebe f8af 6b3b
00000250: 8dab e43c 5cfc 2abe 4950 673e f9a0 a7be
00000260: 6efe 893c b803 3e3d b5c4 bdbd 1f90 9d3e
00000270: d6af dd3e 39e1 12be ef2b 603e a5cf 233e
00000280: 0e63 a2bd 6d85 6b3d f745 2bbc 5cf4 cbbd
00000290: 9d91 6abe 6dfc d03c 2793 403e 6e40 84be
000002a0: 5711 943e e760 02be 8650 123d 93b8 80bd
000002b0: 496a b13e e31a 88be 6ce8 303d 95d8 99bd
000002c0: db1e 3e3d e32f 81be 1cce 393e 0883 c93e
000002d0: 2716 ae3d 3ea3 cb3d a9dd 9cbe ec53 e03d
000002e0: 352d d1bc 6545 16be c9bd 6a3e b06d 74bc
000002f0: c94c 83be 9996 823d 5a1b 89ba cf7a 01be
00000300: ce44 a73a 8e90 f3bd edcf d23e 856b 463e
00000310: 0710 edbc d9bd c7be d04a d83e 20aa 323e
00000320: 8c89 61bd 56b1 13be 1260 03be 21e5 43be
00000330: 841d f73d e405 8abe 638c a6be ed9d 45be
00000340: d35a 7abe 339a 8abc d040 883c ef6f 443e
00000350: 2ac0 df3d 3185 0f3e 2ed8 253d a3a5 5bbd
00000360: 7a31 273d e98c 883c 9ecd 053d 41a5 12be
00000370: 7b5c fbbd ae92 883c d6e3 ab3e bf85 75be
00000380: bb8d 953d bd64 29be 8243 d23d 521b 54be
00000390: 713a ce3c 0096 06be 3877 063b 6df6 dfbb
000003a0: e1db 173e 0551 213e 5fab 9fbe eb21 8e3c
000003b0: e51c 57be 7e6f 68be 02b9 963d 5b83 5ebe
000003c0: 074e 12bc 5052 4cbe 54d9 e93d 289c 34be
000003d0: e9bc 2abe bf11 ce3e ba8a 4dbd 7a37 c33d
000003e0: de01 7ebb adf0 a1bd b7f2 26be 532c 9a3d
000003f0: 9266 953d 22fe 84bb 761d 543e 352a ff3d
-0.3086788 0.04712141 -0.16897765 -0.05591017 0.240471 -0.21008013 -0.03259827 -0.22611293
0.051498525 -0.0049757785 -0.046895653 -0.12387623 -0.15984602 -0.21410124 -0.018885788 -0.01742784
0.32091153 0.09869021 -0.2307606 0.2872572 0.021157738 0.09026243 -0.1599227 0.22255182
-0.14489986 -0.0020152684 -0.24581012 -0.15502685 -0.05441963 -0.13666719 0.16618873 -0.032257468
-0.11710393 -0.03399306 -0.035254136 -0.084748164 0.012796217 0.008096992 0.0477224 0.16200475
-0.21403782 -0.14341836 0.09309449 0.18983358 0.20977806 0.060703613 0.01404291 -0.21434633
0.07584834 0.047972325 -0.0035111513 0.09601795 -0.057984423 -0.07139458 -0.07790581 0.088048406
0.17422995 0.04283148 -0.10323525 -0.16868271 0.26821095 -0.07236627 -0.14146034 -0.46282387
0.26491463 0.025727313 -0.4689193 0.022031896 -0.02883251 -0.1291568 0.058283728 0.12228437
-0.0081228465 -0.24551764 0.066190585 -0.030489871 0.1377208 0.09686808 0.2715799 -0.15836893
0.36596808 0.1402205 0.12020145 0.1336173 -0.038412128 -0.016584245 -0.39163527 0.22983225
-0.017267704 0.117295206 -0.106613286 0.10545231 0.26086473 0.04401248 -0.090473406 -0.33037505
-0.23117238 0.38211375 0.06918118 -0.035268754 -0.48982462 -0.2722613 0.13691026 -0.25446266
0.25284263 -0.05803104 0.04121852 0.18132178 -0.12607734 -0.29287973 0.19698696 0.016396673
0.41547915 -0.22951414 0.072999366 0.021236764 -0.15043464 0.13430528 0.14610308 -0.0011923277
-0.08650012 -0.38938573 -0.009084247 -0.058338415 -0.26711857 -0.20027183 0.25061363 -0.110524826
0.080453515 0.2692384 0.06133495 -0.16140966 0.03865633 0.010064844 -0.16367806 -0.010011751
-0.054456495 0.08919204 -0.031989112 -0.0887864 0.02070239 0.120906934 0.0053979005 0.13854025
-0.023374999 -0.03542407 -0.30882952 0.003596304 0.027913833 -0.1669783 0.2258922 -0.3274
0.016844954 0.046390265 -0.092660345 0.30774018 0.43298215 -0.14343728 0.2189176 0.15997179
-0.079290494 0.05750029 -0.010453693 -0.09958717 -0.2290711 0.025510991 0.18806134 -0.25830406
0.2891948 -0.12732278 0.035721324 -0.06285205 0.34651402 -0.26583013 0.043190405 -0.07512013
0.046416145 -0.25231847 0.1814503 0.3935778 0.08500319 0.09943245 -0.30637863 0.10953507
-0.025534252 -0.1467491 0.2292396 -0.01491873 -0.2564452 0.063763805 -0.0010460422 -0.12644504
0.0012761594 -0.11892806 0.4117426 0.19376953 -0.028938306 -0.3901203 0.42244577 0.1744771
-0.055062816 -0.14423117 -0.12829617 -0.19130374 0.120661765 -0.2695762 -0.32528982 -0.19298525
-0.24448709 -0.016919231 0.016632468 0.19183324 0.10925324 0.14015652 0.04048937 -0.05362476
0.04081867 0.016668754 0.032666795 -0.14320852 -0.122734986 0.016671505 0.33572263 -0.23976801
0.073024236 -0.16542335 0.10266782 -0.20713547 0.025174351 -0.13143158 0.0020517837 -0.006834796
0.14829971 0.15753563 -0.31185433 0.017350158 -0.21007116 -0.22698781 0.07359506 -0.21729796
-0.008929736 -0.19953275 0.11418405 -0.17637694 -0.16673626 0.40247914 -0.050181128 0.09532066
-0.0038758437 -0.079072334 -0.16303526 0.075279854 0.07294954 -0.0040586153 0.20714363 0.12459222

base.mlp.fc1.0.bias f4 [64]
00000000: d606 03bd 1a99 35bc 5f50 4c3d a2f5 1dbc
00000010: bfd0 ba3c 530f f73b ef2b 0abd fa9f b0bc
00000020: b744 6dbd 1f45 053d cd99 293d 91eb 943c
00000030: ca50 4c3d c413 32bd 5403 33bd 3cad 98bc
00000040: e5d8 17bd 4032 bf3c 456e 843d 7ea4 a1bc
00000050: 6e2e 9dbc e354 f6bc 3024 123c 9e28 ccbc
00000060: d40e 3fbd f235 1a3d 5869 bb3c 7db5 0a3d
00000070: 1ab3 46bd 1f96 00bd 7e14 b73d 1061 6d3d
00000080: 9f91 59bd 1d0f 24bd 0f5a 19bd 672b 053d
00000090: 7acc e73c 5cf4 05bd fe91 4f3d f539 dd3c
000000a0: 128b 423d a18a d43d 71fb 1b3c eabc 6b3d
000000b0: c101 acbd e11c a63d 12a9 933d e535 a23d
000000c0: df08 a83c a94d fcbc 021d b43d ed59 02bc
000000d0: b307 20bd 51e2 ee3c b073 dc3c 6a3d 12bd
000000e0: 67e4 21bd 9cb3 b3bc 2007 963b e164 703d
000000f0: a2a9 183c a059 89bd e505 c53c 430b 203d
-0.03198894 -0.011083866 0.049881335 -0.009641083 0.022804616 0.0075396686 -0.033733305 -0.021560658
-0.05792686 0.032536622 0.04140644 0.018178733 0.049881734 -0.04347588 -0.043704346 -0.018637292
-0.03707208 0.02333939 0.06466345 -0.019731756 -0.019187178 -0.030069774 0.008919761 -0.024921712
-0.046645 0.037649103 0.02287738 0.033864487 -0.04851065 -0.031393167 0.089394554 0.057953894
-0.05311739 -0.040053476 -0.037439402 0.032512095 0.028295744 -0.032703742 0.05067634 0.027005175
0.04749591 0.10378004 0.0095203975 0.05755321 -0.08398772 0.08110977 0.07209982 0.07920436
0.020512043 -0.03079875 0.08794595 -0.00795601 -0.039069843 0.02916065 0.026910633 -0.0357031
-0.039524462 -0.02193623 0.004578486 0.058689956 0.009317787 -0.06706548 0.024050662 0.03907324

base.mlp.fc1.2.weight f4 [64]
00000000: 1686 753f cbc7 823f ff72 843f fdb3 813f
00000010: cce3 853f 8bf6 753f 180f 743f d779 833f
00000020: 615d 873f e384 743f 96a2 853f c91e 743f
00000030: a0bb 783f 609a 873f 0932 833f bace 833f
00000040: f962 853f 6a61 803f 3c7a 833f 0215 863f
00000050: 1421 753f 39a8 753f 205c 7b3f 533e 763f
00000060: ffcd 873f 364e 7e3f 6c34 823f c6af 853f
00000070: ae84 683f a422 793f fa4f 7f3f 8611 773f
00000080: 6c89 843f 7c2f 753f c723 753f ba4d 7d3f
00000090: 5f80 843f be7b 823f 9b4a 783f 489c 743f
000000a0: 296f 7a3f 5ed2 853f d903 803f 6516 7a3f
000000b0: d873 7a3f cd45 803f 7c6c 813f 7c43 803f
000000c0: e227 793f 242f 853f 215a 853f 9d20 6f3f
000000d0: 6ec5 793f 26a9 853f 59a3 6d3f 6927 783f
000000e0: 3709 6f3f 89c9 813f f536 833f ce06 803f
000000f0: f713 793f 5310 873f dc4a 7a3f 7811 723f
0.95907724 1.0217222 1.0347594 1.0133053 1.0460143 0.9607932 0.9533553 1.0271558
1.0575372 0.9551527 1.0440242 0.95359474 0.97161293 1.0593987 1.0249645 1.0297463
1.0420829 1.0029728 1.0271678 1.0475161 0.957536 0.9595981 0.98187447 0.9618885
1.060974 0.9933809 1.0172248 1.0444267 0.90827453 0.9731848 0.9973141 0.96511114
1.0354438 0.9577558 0.95757717 0.98946726 1.0351676 1.0194013 0.9698884 0.95550966
0.97825867 1.0454824 1.0001174 0.9769042 0.97833014 1.0021302 1.0111232 1.0020595
0.9732648 1.0405011 1.041813 0.9340914 0.9756688 1.0442245 0.92827374 0.96935135
0.93373436 1.0139629 1.0251147 1.0002077 0.9729609 1.0551857 0.97770476 0.94557905

base.mlp.fc1.2.bias f4 [64]
00000000: 113d 16bd f4b0 62bc eaf5 323d def7 acbb
00000010: 7295 783c 7eaa 233c 2ae5 b5bc 0652 d1bc
00000020: 84db 92bd a932 0a3d e3d4 183d 8cc1 bc3c
00000030: b2e2 363d 2cfd 78bd e717 61bd 49ee 94bc
00000040: 5e28 36bd e787 523c b37e 663d 245d dcbc
00000050: fb8f 85bc 318b 1cbd 8abc 4b3b d4ce dbbc
00000060: 7d40 84bd d7da c83c f307 993c c041 613d
00000070: b715 4abd d660 2fbd a902 5c3d 3ef1 443d
00000080: c4a5 a8bd a514 60bd 2581 21bd 5424 d93c
00000090: 51eb 883c eee1 01bd c17a 2d3d 9803 f73c
000000a0: d0c7 183d 9bad b33d c7f5 ab3c dfbf 253d
000000b0: 1696 afbd bba0 883d 7e3c 5c3d bf6c 303d
000000c0: c774 943c f2a6 75bd 711a 543d fd21 673d
000000d0: 93cf 17bd 779b c13c b859 bd3c b7f5 0dbd
000000e0: ce19 20bd b581 7fbc e789 f93b 5d1a 7f3d
000000f0: dc66 133c 6049 51bd cb75 ea3c 72f7 1d3d
-0.03667933 -0.013836134 0.043691553 -0.0052785715 0.015172349 0.009989379 -0.022204 -0.025551807
-0.071707755 0.03373972 0.0373124 0.02304151 0.044649787 -0.06078832 -0.054954436 -0.01818003
-0.04447209 0.012849784 0.056273174 -0.026899882 -0.016304007 -0.03821868 0.003108772 -0.026832022
-0.06457613 0.024518413 0.018680548 0.054994345 -0.049337115 -0.04281696 0.053713474 0.04808163
-0.08234742 -0.05470719 -0.039429802 0.02650658 0.01671377 -0.031709604 0.042353395 0.03015308
0.03729993 0.08773347 0.02099122 0.040466186 -0.085735485 0.06671282 0.053768627 0.04307246
0.01812209 -0.059973665 0.05178303 0.056428898 -0.037063193 0.023633702 0.02311407 -0.03465816
-0.03908711 -0.015594889 0.007615316 0.062281 0.008996692 -0.051095366 0.028620621 0.03856606

base.mlp.fc_h.0.weight f4 [64, 64]
00000000: 2acc d93e b304 9e3e 9b57 83be cdcd 223d
00000010: 05b9 afbd efa1 823c 96d2 fa3d 6b5d 473e
00000020: 42d1 343e 531f 99bd cae9 afbd 65a9 8bbe
00000030: c11f c63c 96b1 523e 05c3 b0bd b114 c5bd
00000040: c387 adbc 46c6 4d3e 80d0 803d cc8a bc3d
00000050: 5100 993d 37ed bb3e 9373 0dbd 9041 8239
00000060: 2803 143e 5f9a 543e 1a96 64bd f316 50bd
00000070: 8661 5abe 36e9 593e c775 b4bd 135c 83be
00000080: b10f 0b3e 06fe e4be a710 11bd b160 e0bd
00000090: ba40 9ebd 56b4 ebbc 2d19 a4be e341 e03d
000000a0: b145 a0bd 51f3 e43c 80bd aa3e ae8f 33be
000000b0: 751a 733e e7fb 2c3d bcc6 48bd 4782 91be
000000c0: a47b 08be 1b72 373e 1286 92bc 39a5 d2bd
000000d0: dcc6 62bc 75e8 2e3e c41b 5bbe 5b59 79ba
000000e0: 8ed8 493e 08bd 97bd dd26 663e 88c3 793e
000000f0: f2bc d83d c4cb 253e 119c bb3d afa0 c6bd
00000100: aef7 26be 7885 c33d a4c7 f53d 2c3e 883d
00000110: 75b1 223e 435b cfbd 1044 5b3e e1b6 963e
00000120: 44de 793e d52e 013e ceaa 27be 7ace 133e
00000130: 65ba c73d e727 14be 5de5 723d 286e 863d
00000140: 738b d03d c943 65be a918 46be dc1e 963e
00000150: da67 90be 535e b03e 667c f13e dd38 8e3d
00000160: 17eb 063e 153e df3d 817f d5bc d046 d03d
00000170: 53b4 0c3e 345a d5bd 5cb1 ebbd eead b13c
00000180: fd6d 9a3d 625c 363e 5f50 433e df82 1fbd
00000190: 2043 a4bd 07df 323d 08a8 5bbe f9a4 e8bd
000001a0: f3fe 88bd 0afa 8fbd 4b5b ec3d 0129 a23e
000001b0: 8d01 89bc 175e 513e 8711 1d3e 3719 2dbe
000001c0: 271b 62be 76fe b03e 990a 7e3e e984 223d
000001d0: d0de 8a3e 18b5 09be c845 993d 1cb4 ae3d
000001e0: 46c2 f7bd 9b2a 28bc 7121 a7b9 1165 9dbe
000001f0: 4d55 953e c907 d23c f4c1 37be 01a6 48bc
00000200: b136 e9bd d66c 163d 5f1d c5bd 0682 173e
00000210: 2b15 9d3c 9d47 e6bd 1e02 f3be 2b02 e2bd
00000220: 16f9 76bd b80c 563d 5333 aa3e 3d90 4abe
00000230: 5054 18be b264 9fbe fe0f 193e 6a7f c4bb
00000240: a1f9 353e 563f 4d3e c9d6 af3e fe95 5a3e
00000250: d24a 9fbd 1216 cc3d 054e 9e3d 625e 743e
00000260: daea c63d 74aa b2bd c6da 91be 3e42 2dbe
00000270: ccd5 953e d913 0d3e 7a09 1c3e e5ab 8bbe
00000280: 3fb1 a13d a79c 7dbe 422c eb3d a99e b2bd
00000290: e85f a8be 09be 28be 4ee8 a5bd 096b 9bbe
000002a0: 92db 33be d25e cf3d c10d ca3c 4328 c13d
000002b0: db9e 763d 7fbe 3abd 6917 cc3e a39b 303e
000002c0: 5ea8 19bd 14c8 47bc 443a 683c ad8b dabd
000002d0: d1c4 6cbe 1100 833c 6999 073d 9605 533e
000002e0: 9410 0fbe 3c40 2b3e 10e1 12be 201d 60bd
000002f0: 04cb a0bd 133e 3dbd 7b7f 083d 3741 933d
00000300: a52f 0f3c ad9c 783d c7b1 613e 58c4 253c
00000310: c13f 313e 5e7c 23be 5434 3a3e 80a5 f43d
00000320: 5f0c 13be 853f bb3e c984 093e de36 f7bd
00000330: db69 8d3d 67d1 0d3c 4684 bfbd 07be 8cbe
00000340: 0d85 0bbd e2be 7bb9 575d a43e 83b3 803e
00000350: 6077 ddbd 7433 edbd 3f2d cfbd 6543 6cbe
00000360: 599b 81bd 6bf1 603e ca90 5a3e dd05 7c3d
00000370: f0b7 5e3e 76f1 38bd 3e30 d53e a13b b5bd
00000380: 58da 1bbe b339 b63d 76d4 5c3e 84d9 1c3e
00000390: b1fe babd fd85 b03e a735 4ebe 0ff1 8b3d
000003a0: ea7d 913c 2723 643d ea30 9f3d a800 dbbd
000003b0: a547 523d 372d cc3d 2a15 293e c4f3 0f3e
000003c0: d60e 833e 9b56 f73d a52d 57bd 182b 193e
000003d0: b759 b83d f81b b33d 197a 9d3c d15f 72be
000003e0: 7b0e 783e e205 133e 4d71 c53e 0863 933d
000003f0: f6d6 03be ae57 dbbe 579f 5dbb fbe7 00be
0.42538577 0.3086296 -0.25652775 0.03974705 -0.085802115 0.015946357 0.12247197 0.1946923
0.1765795 -0.07476678 -0.085895136 -0.27277675 0.024185063 0.20575556 -0.08630947 -0.09623087
-0.0211829 0.20095167 0.06289768 0.09206161 0.074707635 0.36704418 -0.03453405 0.0002484438
0.14454329 0.20762013 -0.05580721 -0.050803136 -0.21326265 0.21280369 -0.08811527 -0.25656185
0.13580205 -0.44725055 -0.03541627 -0.109559424 -0.07727189 -0.028772514 -0.32050458 0.10950067
-0.078257926 0.027948054 0.33347702 -0.17535278 0.23740561 0.04223242 -0.049017653 -0.28419706
-0.13328415 0.17914622 -0.017886195 -0.1028542 -0.013841357 0.17080863 -0.2139731 -0.0009511911
0.19711515 -0.07409102 0.22475763 0.24390996 0.105829135 0.16191012 0.09160627 -0.09698617
-0.1630542 0.095469415 0.12000969 0.06652483 0.15888007 -0.10124829 0.21412683 0.294364
0.24401194 0.12615521 -0.1637375 0.14434233 0.09752349 -0.14468347 0.05930077 0.065639794
0.10182848 -0.22389139 -0.19345345 0.2932042 -0.28204232 0.34446964 0.4716522 0.069444396
0.13175617 0.10900513 -0.026061775 0.101697564 0.13740663 -0.104175955 -0.11508438 0.021689381
0.0754051 0.17808679 0.19073628 -0.038943168 -0.080206156 0.043669727 -0.21450818 -0.11359591
-0.06689253 -0.07030113 0.1154085 0.31671908 -0.016724372 0.20446049 0.15338717 -0.1690415
-0.2208067 0.34569138 0.2480873 0.039677534 0.27123117 -0.13447988 0.07484013 0.08530447
-0.120976016 -0.010264064 -0.00031877638 -0.3074117 0.29166642 0.025638478 -0.17945081 -0.01224661
-0.11387385 0.036724888 -0.09624743 0.14795694 0.019175133 -0.11244128 -0.47462553 -0.1103557
-0.06029614 0.052258223 0.33242282 -0.19781585 -0.14875913 -0.31131512 0.14947507 -0.0059966343
0.17771007 0.20043692 0.34343556 0.2134628 -0.07777943 0.09965147 0.07729725 0.23864129
0.09712763 -0.087239176 -0.28487223 -0.169198 0.29264677 0.13777103 0.1523799 -0.27279583
0.07895135 -0.2476679 0.11483051 -0.08721668 -0.3288567 -0.16478743 -0.08100949 -0.303551
-0.17564228 0.101255074 0.024664761 0.094315074 0.06021009 -0.045591827 0.3986161 0.1724687
-0.037514083 -0.012193698 0.014174048 -0.10671172 -0.23121955 0.015991243 0.033105288 0.206076
-0.13971168 0.16723722 -0.14343667 -0.054715276 -0.07851222 -0.046201777 0.0333247 0.07190173
0.008739387 0.060696293 0.22040473 0.010117613 0.17309476 -0.15965411 0.18184024 0.11945629
-0.14360188 0.365719 0.1342956 -0.12071012 0.06904956 0.008655882 -0.09351401 -0.2748873
-0.034062434 -0.00024008335 0.32102463 0.25136957 -0.108137846 -0.115820795 -0.10116052 -0.23072584
-0.06328458 0.21967094 0.21344295 0.06152903 0.21749854 -0.04515215 0.41638368 -0.08849264
-0.1522001 0.08897724 0.21565422 0.1531735 -0.0913061 0.34477225 -0.20137654 0.06833088
0.017760236 0.055697586 0.077730015 -0.106934845 0.051337857 0.099695615 0.1651198 0.14057833
0.25597256 0.120770656 -0.052533764 0.14957845 0.09001487 0.08745569 0.01922326 -0.23669364
0.24224274 0.14357713 0.38563004 0.07196623 -0.1287497 -0.42840332 -0.0033816898 -0.12588494

base.mlp.fc_h.0.bias f4 [64]
00000000: 0000 0000 0000 0000 0000 0000 0000 0000
00000010: 0000 0000 0000 0000 0000 0000 0000 0000
00000020: 0000 0000 0000 0000 0000 0000 0000 0000
00000030: 0000 0000 0000 0000 0000 0000 0000 0000
00000040: 0000 0000 0000 0000 0000 0000 0000 0000
00000050: 0000 0000 0000 0000 0000 0000 0000 0000
00000060: 0000 0000 0000 0000 0000 0000 0000 0000
00000070: 0000 0000 0000 0000 0000 0000 0000 0000
00000080: 0000 0000 0000 0000 0000 0000 0000 0000
00000090: 0000 0000 0000 0000 0000 0000 0000 0000
000000a0: 0000 0000 0000 0000 0000 0000 0000 0000
000000b0: 0000 0000 0000 0000 0000 0000 0000 0000
000000c0: 0000 0000 0000 0000 0000 0000 0000 0000
000000d0: 0000 0000 0000 0000 0000 0000 0000 0000
000000e0: 0000 0000 0000 0000 0000 0000 0000 0000
000000f0: 0000 0000 0000 0000 0000 0000 0000 0000
0.0 0.0 0.0 0.0 0.0 0.0 0.0 0.0
0.0 0.0 0.0 0.0 0.0 0.0 0.0 0.0
0.0 0.0 0.0 0.0 0.0 0.0 0.0 0.0
0.0 0.0 0.0 0.0 0.0 0.0 0.0 0.0
0.0 0.0 0.0 0.0 0.0 0.0 0.0 0.0
0.0 0.0 0.0 0.0 0.0 0.0 0.0 0.0
0.0 0.0 0.0 0.0 0.0 0.0 0.0 0.0
0.0 0.0 0.0 0.0 0.0 0.0 0.0 0.0

base.mlp.fc_h.2.weight f4 [64]
00000000: 0000 803f 0000 803f 0000 803f 0000 803f
00000010: 0000 803f 0000 803f 0000 803f 0000 803f
00000020: 0000 803f 0000 803f 0000 803f 0000 803f
00000030: 0000 803f 0000 803f 0000 803f 0000 803f
00000040: 0000 803f 0000 803f 0000 803f 0000 803f
00000050: 0000 803f 0000 803f 0000 803f 0000 803f
00000060: 0000 803f 0000 803f 0000 803f 0000 803f
00000070: 0000 803f 0000 803f 0000 803f 0000 803f
00000080: 0000 803f 0000 803f 0000 803f 0000 803f
00000090: 0000 803f 0000 803f 0000 803f 0000 803f
000000a0: 0000 803f 0000 803f 0000 803f 0000 803f
000000b0: 0000 803f 0000 803f 0000 803f 0000 803f
000000c0: 0000 803f 0000 803f 0000 803f 0000 803f
000000d0: 0000 803f 0000 803f 0000 803f 0000 803f
000000e0: 0000 803f 0000 803f 0000 803f 0000 803f
000000f0: 0000 803f 0000 803f 0000 803f 0000 803f
1.0 1.0 1.0 1.0 1.0 1.0 1.0 1.0
1.0 1.0 1.0 1.0 1.0 1.0 1.0 1.0
1.0 1.0 1.0 1.0 1.0 1.0 1.0 1.0
1.0 1.0 1.0 1.0 1.0 1.0 1.0 1.0
1.0 1.0 1.0 1.0 1.0 1.0 1.0 1.0
1.0 1.0 1.0 1.0 1.0 1.0 1.0 1.0
1.0 1.0 1.0 1.0 1.0 1.0 1.0 1.0
1.0 1.0 1.0 1.0 1.0 1.0 1.0 1.0

base.mlp.fc_h.2.bias f4 [64]
00000000: 0000 0000 0000 0000 0000 0000 0000 0000
00000010: 0000 0000 0000 0000 0000 0000 0000 0000
00000020: 0000 0000 0000 0000 0000 0000 0000 0000
00000030: 0000 0000 0000 0000 0000 0000 0000 0000
00000040: 0000 0000 0000 0000 0000 0000 0000 0000
00000050: 0000 0000 0000 0000 0000 0000 0000 0000
00000060: 0000 0000 0000 0000 0000 0000 0000 0000
00000070: 0000 0000 0000 0000 0000 0000 0000 0000
00000080: 0000 0000 0000 0000 0000 0000 0000 0000
00000090: 0000 0000 0000 0000 0000 0000 0000 0000
000000a0: 0000 0000 0000 0000 0000 0000 0000 0000
000000b0: 0000 0000 0000 0000 0000 0000 0000 0000
000000c0: 0000 0000 0000 0000 0000 0000 0000 0000
000000d0: 0000 0000 0000 0000 0000 0000 0000 0000
000000e0: 0000 0000 0000 0000 0000 0000 0000 0000
000000f0: 0000 0000 0000 0000 0000 0000 0000 0000
0.0 0.0 0.0 0.0 0.0 0.0 0.0 0.0
0.0 0.0 0.0 0.0 0.0 0.0 0.0 0.0
0.0 0.0 0.0 0.0 0.0 0.0 0.0 0.0
0.0 0.0 0.0 0.0 0.0 0.0 0.0 0.0
0.0 0.0 0.0 0.0 0.0 0.0 0.0 0.0
0.0 0.0 0.0 0.0 0.0 0.0 0.0 0.0
0.0 0.0 0.0 0.0 0.0 0.0 0.0 0.0
0.0 0.0 0.0 0.0 0.0 0.0 0.0 0.0

base.mlp.fc2.0.0.weight f4 [64, 64]
00000000: 2f2c be3e a160 833e 09d8 51be 203d 0d3d
00000010: 06f2 48bd 3dd8 9b3c a732 913d d422 0b3e
00000020: fdde f23d 0730 13bd 1ff4 25bd 57d9 5ebe
00000030: 838b f1bb 3bcd 1f3e 6668 6fbd 16ce 82bd
00000040: 5f57 5dbb 6871 423e 07e4 cb3b 1f3d a33d
00000050: 71eb e53c fd4e a43e 344b d23c e076 483c
00000060: 5ce8 343e 9cc6 1a3e f81d 8bbc b458 f0bb
00000070: 76f9 3dbe 9f00 143e 8466 51bd a0da 63be
00000080: 4299 033e ec54 cebe beec 543a d6a5 a3bd
00000090: 4905 53bd 6d88 52bd 16b6 8cbe b5c3 033e
000000a0: 8d30 6ebd 10ef e8bc 092e 913e aced 0abe
000000b0: 7073 383e 58cb 9e3b 2ddb 50bc 36cf 6cbe
000000c0: d6f7 a4bd f6ff 083e 8d37 353d 78c2 fbbd
000000d0: 82a2 5abc b36c 203e beb2 1ebe 1798 dd3b
000000e0: 717c 1a3e 5564 55bd eb68 263e 9c8b 573e
000000f0: 1b08 173e 524a 003e f6d7 d53d 79c6 5fbd
00000100: 18d8 f5bd d437 693d 5a14 b03d 5a93 b93d
00000110: e304 e73d 17bb 7abd f018 203e 19b0 893e
00000120: 342f 673e 8bad dd3d 663c f5bd b3d8 353e
00000130: 4368 b73d 51bf d7bd 9491 983d 021a ce3d
00000140: 04b4 ab3d 2d16 2cbe 0b3b 00be 1041 873e
00000150: ee20 86be a2f6 973e 4787 d33e e03c 9b3c
00000160: eeed cd3d f28b 083d 5690 c63c 54e8 0b3d
00000170: 5101 de3d 665f 7abd 08cd bebd d992 babc
00000180: 5a59 063e d695 043e 736f 573e cbd9 10bd
00000190: 7f81 adbc efef 8abb 74ae 39be ce42 67bd
000001a0: 9b2b d9bc e745 cabd 6227 043e 66ba 923e
000001b0: 0a00 f53c bea0 233e 0f1b e33d c9a7 0abe
000001c0: 781c 2fbe 36dd 983e 8c22 493e 02d6 623c
000001d0: 8146 653e 1314 a0bd 33f6 7d3d 6c99 d43d
000001e0: d683 a6bd 686b 4abd 4508 41bc 240a 7ebe
000001f0: 1e0b 7a3e b473 493d d111 debd d4f0 03bc
00000200: 787d e3bd ef63 833c 69ba 85bd 67e8 0b3e
00000210: 5d71 4e3d 3ba4 94bd e6ec ecbe fe1d cebd
00000220: 3466 febc 98a3 cd3d c6a6 ab3e 0817 15be
00000230: 509d dfbd 8756 93be 55af b63d c938 563c
00000240: 3f19 0e3e 210c 143e ada8 aa3e aca4 333e
00000250: 9faa 0cbe 4067 693d 618e f63d 7201 2d3e
00000260: 65f8 8a3d 5a0f 0dbd 0640 71be 08fa 21be
00000270: 142d 653e 8692 d73d edb9 f73d d1c4 84be
00000280: 0496 963c cd21 6cbe 785a d33d e29b 7cbd
00000290: 29d7 8bbe a7f0 66be 5e64 13bd b051 87be
000002a0: 1a2f 26be 6901 993d 900e 363d 477f a93d
000002b0: 275c 7e3d 03ff fdbc b437 c23e 3419 1a3e
000002c0: 0405 b4bc c66c adbb 3a4e ca3c 0163 03be
000002d0: f21d 79be 8a82 af3d a676 703d ec74 0b3e
000002e0: 339d febd 540a 033e 72a8 17be 5db3 52bd
000002f0: 0a78 52bd c5de 9ebc a749 b73d 807b 823d
00000300: 6a2c 6abc 431b 9e3d ac97 833e 1bd2 5abd
00000310: 4570 493e eb7f 63be 448a 793e 58ac b53d
00000320: d1fe 48be f9a6 cc3e baa1 163e bafb 3bbe
00000330: b9df a33d 9855 54bd 794b 1fbe ba1a abbe
00000340: 9c88 5ebc 10ae 0fbd afa8 c43e 2758 9a3e
00000350: 9f8e fcbd a94d 05be 9992 1ebe 8c35 93be
00000360: 4150 66bd acd9 873e ca8e 4d3e cb89 883d
00000370: 05a2 923e 4920 64bd eedc f93e 4043 00be
00000380: c420 56be db7f a23d 9acd 6b3e c3a4 ae3d
00000390: 94e9 31be e77e cd3e d77e 8cbe 9aee da3c
000003a0: f79a 1abd a493 ee3d 79ef 263d 30f1 2dbe
000003b0: b8fd 073c c03f 103e 6430 183e 6a05 373e
000003c0: 2380 a53e 0f11 883d a4be 13bc 860d 523e
000003d0: c186 0a3e 016e 083e 8349 c0bc 1773 8abe
000003e0: c879 9b3e e287 493e b680 e43e 1f77 093e
000003f0: 253f 3abe 1313 f7be cea1 59bd 587c 33be
0.37143084 0.2565966 -0.20492567 0.03448212 -0.049058937 0.019024009 0.07089739 0.13587505
0.11858938 -0.035934474 -0.040516015 -0.21762596 -0.0073713674 0.15605633 -0.05844917 -0.06386964
-0.0033774 0.18988574 0.0062222513 0.07970642 0.028066369 0.32091513 0.025670625 0.012235373
0.17666763 0.15114826 -0.016982064 -0.007334793 -0.18552193 0.14453362 -0.051123157 -0.22251368
0.12851432 -0.40299165 0.00081224355 -0.07990615 -0.051518712 -0.051399637 -0.2748267 0.12867625
-0.05815177 -0.028434306 0.28355435 -0.13567227 0.18012786 0.004846018 -0.012747568 -0.2312592
-0.080550835 0.13378891 0.04424243 -0.12292951 -0.013344409 0.15666465 -0.15497872 0.0067625153
0.15086533 -0.052097637 0.1625096 0.2104935 0.14749186 0.12528351 0.10441582 -0.054632638
-0.12004107 0.056938007 0.08597632 0.09061308 0.11280229 -0.06121358 0.15634513 0.26892164
0.225766 0.10824116 -0.11974411 0.17758445 0.08955433 -0.105345376 0.07449642 0.10063554
0.08383945 -0.16805334 -0.12522523 0.26416826 -0.26196998 0.29680353 0.41314146 0.018949926
0.10055147 0.033336587 0.024238747 0.034157112 0.10840095 -0.061126135 -0.0931645 -0.0227751
0.13120022 0.12947783 0.21038608 -0.035363954 -0.021179913 -0.004240028 -0.18132955 -0.056460194
-0.02651005 -0.09876614 0.12905648 0.28657836 0.029907245 0.15979287 0.110891454 -0.13540567
-0.17100704 0.2985627 0.19642085 0.013844969 0.22390176 -0.07816329 0.062002372 0.103808254
-0.081306145 -0.049418837 -0.011781757 -0.24808556 0.24418303 0.04918261 -0.10843242 -0.008053023
-0.11107916 0.016038863 -0.065296955 0.13662873 0.05040108 -0.07257887 -0.4627449 -0.10064314
-0.031054594 0.10040969 0.33525676 -0.14559567 -0.10918677 -0.28776953 0.08920161 0.013075062
0.13876818 0.14457752 0.33331814 0.17543286 -0.13736962 0.056983232 0.12038875 0.16895083
0.06785659 -0.03443847 -0.23559579 -0.15818036 0.22380477 0.10525994 0.120960094 -0.2593141
0.01838208 -0.23059769 0.1031999 -0.0616721 -0.27312592 -0.22552739 -0.03598439 -0.2642951
-0.16228905 0.07470972 0.04444748 0.08276229 0.062099602 -0.031005388 0.37933123 0.15048677
-0.021975048 -0.005292508 0.024695504 -0.12830736 -0.2432783 0.0856982 0.058706902 0.13618821
-0.12432327 0.12796909 -0.1481035 -0.051440585 -0.05138401 -0.019393334 0.08949595 0.06371212
-0.014292816 0.077200435 0.25701654 -0.05342303 0.19671734 -0.22216766 0.2436915 0.088707626
-0.19628455 0.3997114 0.14710131 -0.18357745 0.08001656 -0.05183944 -0.15556134 -0.33418828
-0.013582375 -0.03507811 0.38409945 0.3014538 -0.1233189 -0.13017906 -0.1548561 -0.2875179
-0.05622888 0.26533258 0.20074001 0.06666907 0.28639236 -0.055694852 0.48801368 -0.12525654
-0.20910937 0.07934543 0.2302765 0.085275196 -0.17374259 0.4013588 -0.2744052 0.026725102
-0.037745442 0.11649254 0.040755723 -0.16986537 0.008300237 0.14086819 0.1486221 0.17873159
0.32324323 0.06643879 -0.00901762 0.20512971 0.13527967 0.13323213 -0.023472553 -0.27040932
0.3036635 0.19680741 0.4462945 0.13424347 -0.1818815 -0.4825674 -0.053132825 -0.17527902

base.mlp.fc2.0.0.bias f4 [64]
00000000: aa98 29bd 2152 33bd af6b a9bc 83c0 6a3d
00000010: f235 1b3e 0dba 243d de91 2a3d 6f29 353d
00000020: a219 5b3d df4f 423d 51e1 16bd 3992 e33c
00000030: 98bf 673d d3cb 3abc 8141 ddbc 3ce0 e23d
00000040: 524a 6ebc 16e4 f33c a0da 2abd 7ddb 3b3d
00000050: 2369 243d 05ab 513d 007c eabc 5173 cf3c
00000060: 7ba3 223d cfac b73c a5ec 0f3e e6f9 243d
00000070: d4bf 06bd 9280 373d d522 febc 2f59 023c
00000080: e331 b0bc b71a 0c3e df38 fdbc 9397 00bd
00000090: 38ea 353d e7f8 16bd e328 16bd 073c 523d
000000a0: 6b87 fc3c b8b6 253d 197a a5bc 130a 7cbc
000000b0: db3b eb3c fe86 00bd 10dc b23d df32 e6bc
000000c0: dc8a a1bc 356e 3abd 2a5c b1bc c2e0 2d3d
000000d0: f54f 453d 6fa2 233d c856 963d d33b 2fbd
000000e0: 9c19 e03c 06e0 2bbd ecaa 0cbd 0398 473d
000000f0: 6397 16bc 58d3 01bd 5de9 813d 227d 173d
-0.041405357 -0.043779496 -0.02068123 0.0573125 0.15157297 0.040216494 0.041643016 0.044228967
0.053491242 0.047439452 -0.036835972 0.027779685 0.056579202 -0.011401135 -0.027008774 0.110779256
-0.0145440865 0.029771846 -0.041712403 0.045863617 0.04013933 0.051188488 -0.028623581 0.025323542
0.03970669 0.022421269 0.14055116 0.040277384 -0.032897785 0.04480035 -0.031022469 0.007955833
-0.021508163 0.13682066 -0.030910907 -0.031394552 0.04441282 -0.036858466 -0.036660086 0.051326778
0.030826291 0.040457457 -0.020199822 -0.015383261 0.028715065 -0.03137874 0.0873338 -0.02810043
-0.019719534 -0.045515258 -0.021650393 0.042450674 0.048171956 0.03994983 0.07340771 -0.042781662
0.027355962 -0.041961692 -0.03434269 0.048728954 -0.009191367 -0.031695694 0.06343339 0.03698457

base.mlp.fc2.0.2.weight f4 [64]
00000000: b1b9 643f cdee 673f 4595 713f 558a 7e3f
00000010: 91b7 803f 6856 6c3f b1bc 6e3f 21e0 713f
00000020: e709 783f 807a 753f bfe7 6b3f 3912 5c3f
00000030: b8bd 7b3f 6919 783f 4386 693f 3ff2 823f
00000040: d332 733f 4882 693f 2ab7 773f e618 783f
00000050: abab 6a3f 14b1 773f 201a 703f f387 623f
00000060: 6da0 6c3f c5df 5e3f ffe7 803f b0b9 703f
00000070: 04d3 663f 4cdc 703f 1c8e 693f 4b3d 763f
00000080: ce1b 753f 56f7 803f 0af2 643f af9c 6c3f
00000090: 36be 6f3f 8773 6b3f 787c 6b3f e735 753f
000000a0: 8419 653f 77d9 6e3f 8300 753f d1b9 713f
000000b0: e7b1 643f 7579 6e3f 8a09 7e3f 9efb 723f
000000c0: 43d0 723f 6d23 6b3f 7162 6e3f c57f 6e3f
000000d0: 14c1 763f e3b9 6d3f 5e6e 7e3f 62fa 623f
000000e0: 9f72 603f aad6 6f3f 4486 623f f55b 763f
000000f0: 7f51 773f 97fb 7c3f 7d0e 7e3f 9e73 6d3f
0.8934584 0.90598756 0.9436839 0.9942983 1.005602 0.92319345 0.9325667 0.9448262
0.9689011 0.95890045 0.9215049 0.85965306 0.9833636 0.9691377 0.9122049 1.0230178
0.94999427 0.9121442 0.9676386 0.9691299 0.91668195 0.96754575 0.93789864 0.8848869
0.9243229 0.87060195 1.00708 0.94033337 0.90165734 0.94086146 0.91232467 0.96187276
0.9574555 1.0075481 0.8943182 0.9242658 0.93649614 0.91973156 0.919868 0.95785373
0.8949206 0.93300575 0.95703906 0.9442416 0.8933396 0.9315408 0.99233305 0.9491519
0.9484903 0.9185093 0.9311896 0.9316371 0.96388364 0.92861766 0.99387157 0.88663304
0.876749 0.93686926 0.88486123 0.96234065 0.9660873 0.98821396 0.9924086 0.9275454

base.mlp.fc2.0.2.bias f4 [64]
00000000: 9bf3 01bd d71d 04bd faa8 f6bc f13b 1a3d
00000010: 0db4 f23c 13b3 fe3c 1205 fe3c fd26 043d
00000020: 69d1 0a3d 1449 053d 995a 03bd 4683 f93c
00000030: b841 f23c a68c f9bc 1969 fabc 98a7 5e3d
00000040: abfd f0bc fd83 f23c e584 0fbd 314b ff3c
00000050: 0a6f 003d 391c 063d 525a f3bc 6f92 f73c
00000060: 85f9 023d dd84 fa3c e9e6 6e3d 8658 033d
00000070: efa8 03bd ff66 083d f4c9 f3bc 2cdb acbc
00000080: 2513 efbc 2dae a03c a178 fabc b69f 01bd
00000090: 0096 003d b1ba f8bc 7ab2 04bd dd53 0d3d
000000a0: 6317 fe3c 3638 ff3c 6490 fdbc 1604 f5bc
000000b0: a573 f83c 56bb f2bc 5fe1 11bb d11a fdbc
000000c0: 0982 f0bc 019b 05bd ccf3 f9bc 514b fc3c
000000d0: bba4 fe3c f7ae fb3c 3445 2d3d 449f 00bd
000000e0: 6dd0 fb3c 2f24 06bd 59b9 fbbc 4c61 0a3d
000000f0: 61cd cebc 35e4 1cbd ddb6 063d 824c f33c
-0.03172646 -0.03225502 -0.030109871 0.03765482 0.02962687 0.031091249 0.031008277 0.032263745
0.033891115 0.032540396 -0.032068823 0.030458104 0.029572353 -0.030462574 -0.030567693 0.05435905
-0.029417833 0.029603953 -0.035038847 0.031163784 0.031355895 0.03274176 -0.029706154 0.030221192
0.03197624 0.030580932 0.05832568 0.032066844 -0.03214353 0.03330135 -0.029759385 -0.021100603
-0.029183934 0.019614303 -0.030575098 -0.031646453 0.03139305 -0.030362459 -0.03239677 0.034503806
0.031017011 0.031154733 -0.03095264 -0.029909175 0.030328581 -0.029630344 -0.0022259576 -0.030896576
-0.02935888 -0.032618526 -0.03051176 0.030797632 0.031084409 0.030723078 0.042302325 -0.031401888
0.030739034 -0.03274935 -0.03072803 0.033784196 -0.025244417 -0.038303573 0.032889236 0.029699568

v_out.weight f4 [1, 64]
00000000: ece9 a9bd 6925 46bd 7c4c 29bb e476 c43c
00000010: e6d4 893c 7e46 d13c b6bd f83c 34dd 023d
00000020: a5c0 b53c 20b6 a73c bd74 40bd 101e 853d
00000030: 6d7a b53c a632 183c ed62 58bc 4fda ae3c
00000040: d596 21bc ffbf 083d ffdf 12bd 6893 c33c
00000050: ec41 023d be7a c23c 453d f1bb e378 883d
00000060: 4667 f33c e161 d63d 6468 b43c 14fc e23c
00000070: 883f 5dbd 560d f03c 0083 09bc 2040 113c
00000080: 9e89 e7ba 7e6a a43c 7074 20bd 9d8c 94bc
00000090: e80a 8c3c 326e 87bc efe2 38bd 0a1f eb3c
000000a0: 0f50 1a3d b91b e43c 1156 bcba 670a 26bc
000000b0: bb88 223d 0616 15bc 7015 973c e235 9ebb
000000c0: 3be3 dc3b 59b4 f1bd ebcc 87bb d0d1 e83c
000000d0: 867a a63c 7229 e63c fa9b c03c 07e9 79bd
000000e0: c076 553d e678 d6bc a3f3 82bd 0fd7 9c3c
000000f0: 9c14 8d39 bb35 01bc 823d 913c 79b4 d23c
-0.0829657 -0.04837552 -0.0025832942 0.023982473 0.01682515 0.025546309 0.030363899 0.031949237
0.022186587 0.020472586 -0.04698633 0.064998746 0.022153104 0.009289419 -0.0132071795 0.021344332
-0.009862621 0.033386227 -0.03585815 0.023874 0.03180115 0.023740169 -0.00736204 0.06663682
0.02971233 0.10467888 0.022022434 0.02770809 -0.054015666 0.029303234 -0.008393049 0.008865386
-0.0017664914 0.02007031 -0.039173543 -0.018133456 0.017095044 -0.016532037 -0.045138296 0.028701324
0.037674006 0.02784525 -0.0014368912 -0.010134316 0.039681178 -0.009099489 0.01844284 -0.0048282007
0.006740955 -0.11801977 -0.004144301 0.028420359 0.020322096 0.028095935 0.023511875 -0.061013248
0.052115202 -0.026180696 -0.06394126 0.019145517 0.0002690897 -0.0078863455 0.017729525 0.025720822
