light_mappo-main/results/MyEnv/MyEnv/mappo/check/run44/models/actor.pt (torch, 46581 bytes, 16 tensors)

base.feature_norm.weight f4 [15]
000000 42 10 88 3f 4d 06 86 3f 3e 7b 86 3f 3f 86 88 3f
       1.0629961 1.0470673 1.050636 1.0665969
000010 a0 d5 81 3f 36 3d 88 3f 73 f8 73 3f 6d e6 79 3f
       1.0143318 1.064368 0.9530098 0.97617227
000020 ad a6 7e 3f 7f bf 85 3f 13 fa 65 3f 1e 3f 84 3f
       0.9947308 1.0449065 0.8983471 1.0331762
000030 4c 2e 7d 3f b7 bf 6d 3f 16 fa 7c 3f
       0.9889877 0.9287066 0.988191

base.feature_norm.bias f4 [15]
000000 78 22 09 bd 1e c3 cc bc bd c3 51 3d ce 20 8a bb
       -0.033480138 -0.024995383 0.05121206 -0.0042153364
000010 9f bb ff bc 67 ab 8a bc 37 9d 7a 3d 9b 76 11 3c
       -0.031217394 -0.016927434 0.061185088 0.008878375
000020 9b db 17 bd 4c c8 45 bd ec 14 b1 3b 05 db 5a bc
       -0.037074666 -0.04828672 0.0054041054 -0.013357882
000030 67 5e 0b bc cc 59 c8 3c e0 26 46 3d
       -0.008506394 0.024456881 0.048376918

base.mlp.fc1.0.weight f4 [64, 15]
000000 c7 0b 64 3e 64 70 a3 be f1 e8 ef 3c d9 fb 34 bc
       0.22270118 -0.31921685 0.02928588 -0.011046373
000010 fd 5e 8e 3d 17 36 34 be 99 a3 02 3e 2d 18 a6 bc
       0.06951711 -0.17598759 0.1275772 -0.0202752
000020 09 ac 63 be fa 9f 45 be 67 ec 54 be 79 97 f9 3d
       -0.22233595 -0.19299307 -0.20793305 0.12187094
000030 e5 cf 0c be bd d1 45 be c6 74 19 3e 6a f6 be bd
       -0.1375118 -0.1931829 0.14985952 -0.093243435
000040 16 74 21 be dd e9 be be 63 f4 12 bd 0c 79 b7 3e
       -0.1576694 -0.372878 -0.035877597 0.3583454
000050 54 5b 7b 3e 82 4a 70 be 57 75 ae bd 20 ad 4c be
       0.24546558 -0.23465922 -0.085184745 -0.19987917
000060 a7 87 b4 bd 76 22 fe 3c 84 a0 fb 3d c0 91 e1 3d
       -0.08814936 0.031022292 0.12286475 0.11014128
000070 ba 8c 4f be a7 09 2c 3d 5e da ae be 8f c8 aa 3c
       -0.20268527 0.042001393 -0.34150976 0.020847587
000080 3e f6 56 3e c8 5b f8 bd 48 32 fc bc f8 c2 8b 3e
       0.20992371 -0.12126881 -0.030785695 0.27297187
000090 8d 92 6a 3e a3 88 8a be 74 41 8f bd 5c 4e 34 3e
       0.22907467 -0.2705737 -0.06994906 0.17608017
0000a0 2a 28 aa bd c8 73 cc 3d d5 8e aa bd f2 24 23 bc
       -0.08308442 0.09983021 -0.08328024 -0.009957539
0000b0 e7 01 a1 3d 03 5d d6 bd bc 73 1a bd 5b 2e c0 bd
       0.07861691 -0.10466959 -0.03770803 -0.093838416
0000c0 a1 8c ba 3d e3 c6 fe bc e5 af a5 3d 98 cf 6b bc
       0.09108854 -0.031100696 0.0809019 -0.014392756
0000d0 48 4f 6b 3e a4 55 c5 be 4d c6 a1 3e 45 8a a5 3c
       0.22979462 -0.385419 0.31596604 0.020207534
0000e0 9c 31 d0 bd a4 c6 0b 3b 89 e0 42 3d d3 64 f3 bd
       -0.10165712 0.0021328116 0.047577415 -0.11884465
0000f0 fd f9 69 bd 5b 28 9c be cf c8 0b 3e fc b9 81 3d
       -0.057123173 -0.3049954 0.13650821 0.06334302
000100 cb 0f 1a bd 2c d9 9e be c0 9f bd bd 76 bc 6c be
       -0.037612718 -0.31025064 -0.092589855 -0.23118767
000110 87 9d 01 be 43 33 86 be b8 0b e0 3e b9 3c d9 bd
       -0.12657748 -0.26210985 0.4375894 -0.10607285
000120 ad 01 cb 3c 11 0e b5 3d bb cb 8d 3e ab 6a 9a 3c
       0.024781073 0.088405736 0.27694497 0.018849691
000130 dc 66 97 bd f1 3a 2a be 8c 0d a6 3e 63 0b 38 3d
       -0.07392666 -0.16624047 0.3243221 0.044932734
000140 98 29 de 3d ce f6 ae be ff 75 6e be cf 7e 6b 3e
       0.10847777 -0.34172672 -0.232872 0.22997592
000150 64 df 29 3e 22 bd e4 3e 9e 8b 22 3e 32 f5 87 be
       0.16589123 0.44675547 0.15873572 -0.26554257
000160 ad 18 88 3d 55 62 9c bd 6d b8 d1 3b f6 cf 82 bc
       0.066453315 -0.07635943 0.006400159 -0.015968304
000170 ec b3 bd 3e 4c 06 bb bd 21 33 93 bd c5 97 c7 3c
       0.37051332 -0.091320604 -0.071874864 0.024364362
000180 4d 95 52 3e e3 35 31 be fd 0e 4e 3e 06 4c 5e 3e
       0.20564766 -0.17305712 0.20122905 0.21708688
000190 30 73 36 3d 7a d6 b4 3d dd 94 9c 3d b9 d3 5c be
       0.044543445 0.08829971 0.07645581 -0.21565141
0001a0 b5 97 86 3e 37 88 e6 be e9 63 ba be cc 0c cb bd
       0.26287618 -0.450258 -0.3640435 -0.0991455
0001b0 b3 82 8b 3c 3b e8 6a bd 19 f5 84 3d 44 4c fb 3d
       0.017030096 -0.05735038 0.06492061 0.12270406
0001c0 82 c9 a3 be 7a ba ab be 2d 0a 99 bd 76 6d ab bc
       -0.31989676 -0.33540708 -0.07472644 -0.020926218
0001d0 65 8d 94 3d 0f a4 de 3d 18 14 31 3d 8c f3 0a bd
       0.07253531 0.108711354 0.043232054 -0.03392367
0001e0 14 46 88 be 4f b1 2c 3e 9c e2 ae 3d a0 56 82 3e
       -0.26615965 0.16864513 0.08539316 0.25456715
0001f0 77 28 ab bb ae f1 ce 3e 68 d6 fe 3d 7b 11 ee bc
       -0.0052233296 0.40418762 0.124432385 -0.02906107
000200 61 ca 24 3e 15 37 9c 3d d5 ad fd 3c 5c 47 bd 3d
       0.16092826 0.076276936 0.030966679 0.09242126
000210 0a 62 af bd 49 4b 62 3d c6 51 61 3d f0 1b 39 be
       -0.08563621 0.05524758 0.055009626 -0.18077064
000220 db ae 88 bd 4a c1 0c be 1e 5c b3 bd b6 75 1f 3e
       -0.06673976 -0.13745609 -0.08757804 0.15572247
000230 76 c1 ad 3e 41 cd 06 3e 7d 27 61 3e 89 7d 5a be
       0.3393666 0.13164236 0.2198772 -0.2133695
000240 a8 f9 43 bd e8 49 5f 3d b9 ee 71 be 6a 67 8d 3d
       -0.047845513 0.054513842 -0.23626222 0.0690449
000250 b0 98 99 3e 4d 55 80 3e 8b 0e b8 3c 18 d7 b2 bc
       0.29999304 0.2506508 0.022467872 -0.02183108
000260 56 74 52 bc a1 c8 6d bd 8c 5b 89 3b 6c 4f dd 3d
       -0.012845119 -0.058052663 0.0041918214 0.10806164
000270 5f 59 89 3d fc 68 a3 bd df 6f 84 be 0e 02 0f be
       0.06706499 -0.079790086 -0.258666 -0.13965628
000280 72 b2 ad be b3 96 2b 3b cf 0c 73 be a8 ef de 3d
       -0.33925205 0.0026182353 -0.23735355 0.108855546
000290 30 5f 9c 3e d2 ac e8 bc 72 d7 bf be e2 f7 11 3d
       0.30541372 -0.02840272 -0.3746906 0.03563679
0002a0 66 ca a1 3d c3 64 95 3e 9d 33 2d be 0a c9 86 3b
       0.078999326 0.29178438 -0.1691422 0.004113321
0002b0 f0 f0 84 be e7 07 04 3d af 20 a4 bc 29 b3 6d be
       -0.2596507 0.0322341 -0.020035116 -0.23212875
0002c0 08 d8 78 3e 6a 30 a8 3e 70 61 e8 bc 78 d7 8a 3c
       0.2430116 0.32849437 -0.028366774 0.016948447
0002d0 58 8d 73 3e 6b f7 2c bd 44 7d ad 3d f2 27 8e 3d
       0.23784387 -0.042228144 0.08471158 0.06941213
0002e0 b7 5d 70 3e c5 84 54 3d 42 2a 82 be f7 e0 09 be
       0.2347325 0.05188443 -0.25422865 -0.13464724
0002f0 17 96 40 3e c0 88 59 be 1e dd 00 be ec df 62 be
       0.18807255 -0.21243572 -0.1258435 -0.22155732
000300 50 6c 51 bd 40 a2 9e 3d cc 8b 25 be 69 21 4f bd
       -0.051128685 0.077457905 -0.1616661 -0.05056897
000310 09 85 ae 3c e3 f2 85 3d c8 f0 23 3e c5 be 1c 3e
       0.02130367 0.065404676 0.1600982 0.15307148
000320 4a ea fb be eb ef 1c 3e 03 94 3c 3c 9b 2b 86 3d
       -0.49202186 0.15325896 0.011509898 0.06551286
000330 e3 96 90 3e 47 a1 7c 3e d2 fd 39 be 61 d5 81 be
       0.28240117 0.24670897 -0.18163231 -0.25358108
000340 2e 41 92 be 0d a8 b8 bd d1 10 75 bd c8 e2 70 3d
       -0.28565353 -0.09016428 -0.05983049 0.058810025
000350 f4 a4 a0 bd 45 5b 42 3e 70 5d 3f 3e 22 e5 34 bc
       -0.07843962 0.18980129 0.18687987 -0.011040958
000360 82 1c 23 be 90 89 44 3e de 23 b5 be 88 b0 46 3e
       -0.15928844 0.19193101 -0.35378927 0.19403279
000370 53 7d 95 3d f9 95 b9 3d 71 62 b9 bd 1e 2a 72 be
       0.07299294 0.09061808 -0.09051979 -0.23648879
000380 dd ee ae bd 6f 47 35 be 7a d5 83 3e 63 a0 7d be
       -0.08541653 -0.17703031 0.25748807 -0.24768214
000390 0d 52 52 be 36 a0 6c bd a9 27 8b be 9e af ce 3d
       -0.20539112 -0.057769977 -0.27178696 0.1009209
0003a0 56 6c c4 bd 79 91 46 bc 14 de 38 be 0d 4b bf bc
       -0.09590976 -0.012119644 -0.18053466 -0.023351217
0003b0 3a 33 84 be 7f d6 c9 3d 36 36 0b 3e 0d 86 cc 3e
       -0.25820333 0.09855365 0.13594899 0.39946023
0003c0 f4 43 8c 3e 6c 31 e3 bc 68 a8 26 3e 54 0e 10 3d
       0.27395594 -0.027733527 0.1627518 0.035169914
0003d0 23 be b5 3d fb 9b 8c 3e 0c d8 d2 3d 4a 64 8f 3e
       0.08874156 0.27462754 0.10295114 0.28006202
0003e0 e5 bf 14 bf b1 6f 16 bd 69 90 34 3e 0e 66 c6 3e
       -0.5810531 -0.03672761 0.17633213 0.38749737
0003f0 5d df f9 3d 7d ce aa bc 21 a7 24 be 71 e8 ab 3e
       0.12200806 -0.020850414 -0.1607938 0.33575776

base.mlp.fc1.0.bias f4 [64]
000000 ae 1e e9 3d 11 86 28 bd 7b a5 25 bc e7 fb 5b 3c
       0.11382805 -0.04114348 -0.010110254 0.013426757
000010 a2 05 ae 3d be fe 18 bd 5e ce 5c 3c 9e f3 d0 bc
       0.08497168 -0.037352316 0.013476936 -0.02550679
000020 b1 49 ed 3c a9 14 9b 3d 42 a0 f4 bc eb 79 c5 3c
       0.028965803 0.075723 -0.029861573 0.024105987
000030 dd ef b0 bc ad 91 b4 bc d7 dd 61 bc 39 59 32 bc
       -0.02159875 -0.02204212 -0.013785801 -0.01088553
000040 48 57 b8 3c 61 4a 9d 3d 92 5d 81 ba 25 45 b8 bc
       0.022502556 0.07680202 -0.0009869805 -0.022493908
000050 24 24 58 3d 49 24 4e 3c 04 38 ab 3d d4 ff b9 3c
       0.05276884 0.012581893 0.083602935 0.022704996
000060 43 2c ee 3d f4 11 5d ba 92 8f 67 bc 10 b4 1c bc
       0.11629536 -0.0008433156 -0.014133351 -0.009564415
000070 3f 29 8a bc 08 c2 b1 3b fc 28 9d bc 03 53 30 3c
       -0.01686537 0.0054247417 -0.019184582 0.010761979
000080 f3 46 bd bd 22 0b 10 3b 5b a7 2e bd 5d 9f da bb
       -0.09242048 0.0021979292 -0.04264007 -0.0066718296
000090 32 8b 24 bd ed 1d b6 bc 8d 65 2b bd 4d be 40 bd
       -0.04017181 -0.022231067 -0.041844893 -0.047056485
0000a0 bd 01 bc b8 88 8c 10 3d c7 e2 cf bc c4 c1 09 3c
       -8.964862e-05 0.03529027 -0.02537669 0.008408014
0000b0 18 23 c4 bd ed 3b 30 3b 3f 1a 6f bc 2c 9a 47 3c
       -0.09577006 0.0026891187 -0.01459366 0.0121827535
0000c0 54 12 6a ba 71 d9 9f 3d e0 5b 58 3d 5c 99 30 3d
       -0.00089291227 0.078051455 0.052821994 0.043115005
0000d0 0e c8 86 bd 82 d8 30 3a fd 70 7d bc e0 0b 95 3d
       -0.06581126 0.00067461294 -0.015468833 0.072776556
0000e0 6a b2 cd ba 2f a8 99 3a 8f f9 93 3d 58 46 84 bd
       -0.001569343 0.0011723096 0.07225334 -0.064587295
0000f0 1d 1d bd 3c 26 43 ae bc 6c af d4 3b 70 ea 21 3c
       0.023085171 -0.021272253 0.0064906385 0.009882554

base.mlp.fc1.2.weight f4 [64]
000000 69 a1 83 3f 7c 3e 7b 3f 43 69 6c 3f 1a 31 87 3f
       1.0283633 0.9814222 0.92348117 1.056186
000010 9f bc 76 3f f1 f9 81 3f e0 53 83 3f 48 d3 77 3f
       0.9638156 1.0154401 1.0259972 0.96806765
000020 cd bf 81 3f 04 52 8b 3f 72 b2 6a 3f 1e 4b 7b 3f
       1.0136658 1.0884404 0.91678536 0.98161495
000030 0f 5f 83 3f 76 85 86 3f bc 05 80 3f c1 41 7f 3f
       1.0263385 1.0509479 1.000175 0.9970971
000040 38 5a 80 3f 0d 98 7c 3f f1 45 77 3f 61 5c 76 3f
       1.0027533 0.9866951 0.965911 0.9623471
000050 c4 68 87 3f 1f da 8c 3f bd 38 79 3f 1c a9 82 3f
       1.0578847 1.1004065 0.973522 1.0207858
000060 d2 ec 8d 3f 8b 01 75 3f 12 99 84 3f 02 d9 70 3f
       1.1087897 0.9570548 1.0359213 0.9408113
000070 e2 bc 7c 3f df 85 86 3f 7a 35 82 3f e4 c0 85 3f
       0.9872571 1.0509604 1.017257 1.044949
000080 d5 8d 6b 3f 8c b8 87 3f 1c 4d 7e 3f cc 0e 80 3f
       0.92013294 1.0603194 0.9933641 1.0004516
000090 06 f8 82 3f 32 76 79 3f be 1d 73 3f 2f 1d 6f 3f
       1.0231941 0.97445977 0.9496726 0.93403906
0000a0 44 1b 87 3f ec 7f 84 3f 82 3a 67 3f 70 db 85 3f
       1.0555196 1.0351539 0.9032365 1.0457592
0000b0 21 2e 69 3f b6 fa 8a 3f 83 94 6d 3f 23 32 6d 3f
       0.9108601 1.0857761 0.92804736 0.9265463
0000c0 cb 49 74 3f 1d 3d 7b 3f 4f 31 7d 3f 96 96 84 3f
       0.954251 0.98140126 0.98903364 1.0358455
0000d0 62 91 7f 3f c0 18 85 3f eb 73 73 3f 49 d6 82 3f
       0.9983121 1.0398178 0.9509875 1.0221645
0000e0 55 bb 88 3f 70 8b 7a 3f e4 30 83 3f b9 7c 68 3f
       1.0682169 0.97869015 1.0249295 0.9081531
0000f0 49 ed 84 3f a6 ff 5e 3f cd 4e 87 3f 46 f4 82 3f
       1.0384914 0.8710884 1.0570923 1.0230796

base.mlp.fc1.2.bias f4 [64]
000000 ce 1b 79 3d 73 d7 d1 3c 5b b2 77 3c f5 35 52 bd
       0.060817532 0.02561543 0.015118207 -0.05132099
000010 77 fa ee 3d 95 e8 e6 bb b9 16 60 bb cb b0 af bc
       0.11668866 -0.007046769 -0.0034193231 -0.021446606
000020 e9 f5 0d bd 2c 11 7e 3d af 72 85 3c 28 81 21 3d
       -0.034658346 0.062028095 0.016290037 0.039429814
000030 c0 d6 a9 bd 40 b8 49 3c ea e7 73 3c cc 8a 01 3c
       -0.082929134 0.012311995 0.014886836 0.007906627
000040 e9 2a 36 3c 42 09 c6 3b ec cf 25 3d 0e 99 2b 3d
       0.011118629 0.006043584 0.040481493 0.04189401
000050 19 22 f4 bb c1 c0 1f 3d d0 35 e9 b9 b1 47 5f bd
       -0.007450354 0.039002184 -0.00044481317 -0.05451173
000060 c9 55 be 3d 8d 9d d7 bc 22 98 7c 3d 17 34 77 3c
       0.09293706 -0.026320243 0.061668523 0.015088103
000070 b1 2b ea 3c 11 44 a6 3c 81 74 8b 3c 74 44 35 3d
       0.028585287 0.020296128 0.017023327 0.044254735
000080 4c 25 10 be d1 15 0e bd 66 86 6a bd 47 0d 01 bd
       -0.14076728 -0.034688774 -0.05725708 -0.031506803
000090 1f bf 38 bd 3f 5e 8c bd 0e 50 75 3c d1 af ae 3c
       -0.045104142 -0.068539135 0.0149727 0.02132407
0000a0 99 7a 40 bd 7a 0e 13 bd 4f 59 a7 3b a7 c3 a0 bc
       -0.04699192 -0.035902478 0.005107082 -0.019624544
0000b0 f9 11 bf bc 5d 9b 46 bc 8d 73 82 3d a3 d6 98 3d
       -0.023324 -0.012122002 0.06369696 0.07462814
0000c0 64 a9 99 3c a4 1b 10 3d c5 06 d1 bb df d2 6f bd
       0.01875753 0.03518261 -0.006378981 -0.05855071
0000d0 eb ad 10 3d 96 4f 92 bc 0f 6c 11 3c cc 87 99 3d
       0.03532211 -0.017860215 0.008875861 0.07496604
0000e0 f3 c4 06 bd f9 d5 ea bc 29 03 c7 3d c0 38 10 3c
       -0.03290267 -0.028666483 0.097173996 0.008802593
0000f0 62 a4 f3 bc 81 27 8b 3c 69 ce 2b bd e1 00 9d 3d
       -0.02974147 0.01698661 -0.041944895 0.07666183

base.mlp.fc_h.0.weight f4 [64, 64]
000000 5d 0a 0f 3e e4 f8 81 3e 8c fb a5 3d 66 72 8f 3e
       0.13968797 0.253852 0.081046194 0.28016967
000010 99 21 24 be 86 af 82 3e 69 6e 14 be 03 77 ef bd
       -0.16028441 0.2552454 -0.14495243 -0.116926216
000020 cd 16 97 be b4 92 95 be 13 76 85 be 33 a5 82 3d
       -0.29509583 -0.29213488 -0.26066646 0.063791655
000030 51 15 04 be d9 e2 71 3d 81 97 22 be ba 38 9f 3e
       -0.12898757 0.05905423 -0.15878107 0.31097966
000040 f0 c9 0c 3a c1 a5 df 3d 02 b3 3b 3e ef 1e 48 be
       0.0005370667 0.10920287 0.18330005 -0.1954305
000050 18 b2 e5 3d 79 6a d1 be 93 c3 c7 3c 55 f3 87 be
       0.11215609 -0.40901545 0.02438525 -0.26552835
000060 5a 59 cc bd 14 03 8c bd 4b 97 b6 bb a5 fe 82 be
       -0.0997798 -0.068365246 -0.0055722347 -0.25584903
000070 12 d2 94 3d a0 b9 ad bb e3 17 ed 3d bc 5e 9e be
       0.0726663 -0.0053016692 0.11576822 -0.30931652
000080 9c 0b 7d bd b5 1b 97 bd 85 e0 f6 3c fa d1 d6 be
       -0.06177865 -0.073783316 0.030136356 -0.41957074
000090 49 51 20 3e ac fd d1 bd 14 bd 8e 3e a7 84 a0 be
       0.15656008 -0.10253462 0.2787863 -0.31351206
0000a0 62 db 89 bd 1a 28 a6 3d 6b c9 dc 3d cf 62 2a bd
       -0.06731297 0.081131175 0.10780605 -0.041598137
0000b0 9f ef 0b 3c fc b6 dc bd 35 e3 78 bd 7b 28 05 be
       0.008541017 -0.10777089 -0.060763557 -0.13003723
0000c0 38 ee 69 3e dc ed 2b be 87 d5 30 3e 7e 29 85 3e
       0.2284478 -0.16789955 0.17268954 0.2600822
0000d0 85 36 60 be e2 47 a2 3d ce 68 88 bd a6 9d 05 3c
       -0.21895798 0.07923867 -0.06660615 0.008155262
0000e0 90 db 23 bc 2c e5 ef bc 6a 6f 71 be f3 c4 d3 3d
       -0.010001078 -0.029284082 -0.23577657 0.103402995
0000f0 7b 17 41 3d 8e 85 07 3e 7a 7f 69 3d 6c 16 c2 3d
       0.047141533 0.13234541 0.057006337 0.09476933
000100 ad 7a ee 3d 7f a3 85 bc 35 61 84 3c 84 90 1d 3e
       0.11644492 -0.016313313 0.016159633 0.1538716
000110 f0 c1 1f be b9 e4 2c 3e 63 ca 0f 3e 7a 0f 04 3e
       -0.15601325 0.16884126 0.14042048 0.12896529
000120 13 bd 76 3d cc 59 13 be e1 42 93 3d 67 e2 24 be
       0.06023891 -0.14389724 0.071904905 -0.1610199
000130 29 3e a0 3b 5e 10 8d 3e 20 8e ff bd e6 8c 3e be
       0.0048902226 0.2755155 -0.1247828 -0.18608436
000140 07 e1 30 3e e8 7e 3c be 24 4a 5a be f3 4e 05 be
       0.17273341 -0.18407786 -0.21317345 -0.13018398
000150 fd 3f 36 3e 37 4e 03 3e cd 10 22 3e a1 12 4c 3e
       0.17797847 0.12822805 0.15826721 0.19928981
000160 bb 24 e4 bd 7a 77 05 bd b6 d1 ef bc 2c 9e ce bd
       -0.11139818 -0.032584645 -0.029274803 -0.10088763
000170 cc b6 b1 3e 1f 58 c6 bd 7e 3e e4 3e 05 e5 34 be
       0.34709775 -0.096847765 0.44578928 -0.17665489
000180 8c b5 8c bd d2 b9 a5 3d bc e0 81 3d 5d 27 e8 bc
       -0.06870565 0.08092083 0.06341693 -0.028339082
000190 70 d0 bc 3d f3 08 d9 3d 88 87 01 bd 49 49 09 3d
       0.09219444 0.1059741 -0.031623393 0.033517156
0001a0 ac 1a 85 3e cd 60 4d 3e bb 31 32 be 44 fa cf bd
       0.25996912 0.20056458 -0.17401783 -0.10155156
0001b0 4a d1 a5 3e 29 d3 13 bc f8 13 5c be 9d 6d 76 3e
       0.32386237 -0.0090225125 -0.21491992 0.24065252
0001c0 47 43 aa be 1e 9b 84 3e 56 2e 14 3e 6c 41 ac 3d
       -0.33254454 0.25899595 0.14470801 0.08410916
0001d0 c8 13 19 be 10 fc ce 3e ff 36 17 be 28 aa 69 bd
       -0.14948952 0.40426683 -0.14767073 -0.05704704
0001e0 9f d3 94 bd 7d 70 96 be 42 a3 92 3e c5 73 bf bd
       -0.07266926 -0.29382697 0.2864018 -0.09348253
0001f0 9d 1f f2 3d eb 8d 11 3b d9 08 58 be ea df fd bd
       0.11822436 0.0022209834 -0.21097125 -0.12396224
000200 ef 6e 94 be 34 40 71 be fa 00 09 3e 1a 32 44 3e
       -0.28990886 -0.23559648 0.13379279 0.19159737
000210 1d e7 92 be bf e0 52 be 3c ce 3b be 8d 4f de bd
       -0.2869195 -0.20593546 -0.18340391 -0.10855017
000220 29 37 3a 3e d6 a1 93 bd f5 48 84 be aa 4c a1 bc
       0.18185104 -0.07208602 -0.25836912 -0.019689877
000230 55 0f c4 3d 06 29 49 be d9 71 45 bd 23 6f 83 be
       0.09573237 -0.19644555 -0.048204277 -0.25670728
000240 c9 34 cf bd df 80 a7 3e c2 07 03 3e d1 8e aa bc
       -0.1011749 0.32715508 0.12795928 -0.020820053
000250 20 df 0a bd 31 e5 a1 3e 23 9b 1b be ff 9a b8 3b
       -0.033904195 0.31620172 -0.15195899 0.0056337113
000260 bb e0 16 be 48 83 84 3d d8 8b 77 be 06 df 13 3e
       -0.14734165 0.064703524 -0.2417444 0.14440545
000270 a8 f9 8a 3d 98 c0 50 bd 73 a5 99 bd 49 52 4b 3d
       0.067858994 -0.05096492 -0.0750226 0.04963902
000280 bf bc f1 3c 19 d1 12 be 54 f3 c7 3c 2a 0d de bc
       0.029508946 -0.14337577 0.02440802 -0.027105886
000290 26 58 27 be 8d 2c 40 3e 48 f7 8a 3e a3 cd 20 3b
       -0.1634222 0.18766995 0.27141786 0.0024536632
0002a0 5d dd e4 3e a3 a3 4f 3e c4 aa f8 3d ca 6b a0 be
       0.44700137 0.20277266 0.12141946 -0.31332237
0002b0 1d 8c 40 3e 5e ca 7f be 87 c9 06 be 65 37 b3 3d
       0.18803449 -0.2497954 -0.13162814 0.087508
0002c0 3f 40 9a 3d 86 f3 fe bd 70 d0 98 3c 66 b1 78 be
       0.07531785 -0.12448792 0.018654078 -0.24286422
0002d0 9b e2 5c be 90 ae 37 bd ce a2 8f be 01 81 7e 3e
       -0.21570818 -0.04484421 -0.28053898 0.24853899
0002e0 3c f3 52 3d d7 fb 12 3e 30 a0 79 bd e7 1d 85 3e
       0.051501498 0.14353882 -0.060943782 0.25999376
0002f0 75 c8 25 3d de 23 da bc 9e a1 f4 3c 72 a7 3a 3e
       0.040474374 -0.026628431 0.029862221 0.18227938
000300 5a 0d ce 3d e4 34 53 bd 28 72 58 3e d9 12 8e 3d
       0.1006114 -0.051564112 0.21137297 0.06937189
000310 97 a9 64 be c0 9b 4a 3d 29 6b 2b bd 63 09 09 3d
       -0.22330318 0.04946494 -0.041850243 0.033456217
000320 21 0f 41 3e 14 37 7e 3e 35 61 23 be 6a 16 fa 3d
       0.18853427 0.24825698 -0.1595505 0.122113064
000330 d4 6f 25 3e 69 af 80 bd 08 07 23 be d6 a4 d4 be
       0.1615594 -0.06283457 -0.15920651 -0.4153201
000340 60 8e 22 3e e3 d8 5c 3e 38 78 a5 3e 82 43 83 bd
       0.15874624 0.2156711 0.32318282 -0.064093605
000350 44 cf 47 be 7c db 9a bd 2b 8c 71 be 74 76 8b 3d
       -0.1951266 -0.075613946 -0.23588626 0.068097025
000360 b4 8e a2 3e bc 59 4a bd 01 c0 27 3e 01 88 88 be
       0.317495 -0.049401984 0.16381837 -0.26666263
000370 53 b5 cc bd 45 2b 48 be a7 c3 ae 3d 88 95 5b 3e
       -0.09995522 -0.19547756 0.085334115 0.2144376
000380 10 0b 81 3d c8 7b 0d 3e 74 b3 22 be 2d 47 40 be
       0.06300938 0.1381675 -0.15888768 -0.18777151
000390 5a bd e5 3d 47 cb f1 bd 8a 2e eb 3d 4e 07 af bd
       0.112177566 -0.1180635 0.11483486 -0.08546315
0003a0 db 43 93 be 98 9f 51 3c 8e 8b 3e be 62 6e 63 bd
       -0.28762707 0.012794398 -0.18607923 -0.05552519
0003b0 5b 3b ab bd 10 d7 92 be 6a 60 85 3e 66 1b 01 3e
       -0.083609305 -0.28679705 0.2605012 0.12608108
0003c0 7c 13 a4 bd 8e 76 0f 3c d9 8b bf bd f1 46 c1 3d
       -0.08011529 0.008756293 -0.09352846 0.09437359
0003d0 51 de 7d 3e 39 e8 61 3e c8 d0 bf bc a2 83 65 bd
       0.24791838 0.22061242 -0.023414984 -0.056033738
0003e0 a5 f3 a2 bd c5 33 af be 70 22 85 3e 56 28 dd 3d
       -0.07956628 -0.34219185 0.26002836 0.10798709
0003f0 3e 76 af be 85 ab ad 3c b8 ce 5e 3e 6c a7 af 3b
       -0.342699 0.021199951 0.21758544 0.0053605344

base.mlp.fc_h.0.bias f4 [64]
000000 00 00 00 00 00 00 00 00 00 00 00 00 00 00 00 00
       0.0 0.0 0.0 0.0
000010 00 00 00 00 00 00 00 00 00 00 00 00 00 00 00 00
       0.0 0.0 0.0 0.0
000020 00 00 00 00 00 00 00 00 00 00 00 00 00 00 00 00
       0.0 0.0 0.0 0.0
000030 00 00 00 00 00 00 00 00 00 00 00 00 00 00 00 00
       0.0 0.0 0.0 0.0
000040 00 00 00 00 00 00 00 00 00 00 00 00 00 00 00 00
       0.0 0.0 0.0 0.0
000050 00 00 00 00 00 00 00 00 00 00 00 00 00 00 00 00
       0.0 0.0 0.0 0.0
000060 00 00 00 00 00 00 00 00 00 00 00 00 00 00 00 00
       0.0 0.0 0.0 0.0
000070 00 00 00 00 00 00 00 00 00 00 00 00 00 00 00 00
       0.0 0.0 0.0 0.0
000080 00 00 00 00 00 00 00 00 00 00 00 00 00 00 00 00
       0.0 0.0 0.0 0.0
000090 00 00 00 00 00 00 00 00 00 00 00 00 00 00 00 00
       0.0 0.0 0.0 0.0
0000a0 00 00 00 00 00 00 00 00 00 00 00 00 00 00 00 00
       0.0 0.0 0.0 0.0
0000b0 00 00 00 00 00 00 00 00 00 00 00 00 00 00 00 00
       0.0 0.0 0.0 0.0
0000c0 00 00 00 00 00 00 00 00 00 00 00 00 00 00 00 00
       0.0 0.0 0.0 0.0
0000d0 00 00 00 00 00 00 00 00 00 00 00 00 00 00 00 00
       0.0 0.0 0.0 0.0
0000e0 00 00 00 00 00 00 00 00 00 00 00 00 00 00 00 00
       0.0 0.0 0.0 0.0
0000f0 00 00 00 00 00 00 00 00 00 00 00 00 00 00 00 00
       0.0 0.0 0.0 0.0

base.mlp.fc_h.2.weight f4 [64]
000000 00 00 80 3f 00 00 80 3f 00 00 80 3f 00 00 80 3f
       1.0 1.0 1.0 1.0
000010 00 00 80 3f 00 00 80 3f 00 00 80 3f 00 00 80 3f
       1.0 1.0 1.0 1.0
000020 00 00 80 3f 00 00 80 3f 00 00 80 3f 00 00 80 3f
       1.0 1.0 1.0 1.0
000030 00 00 80 3f 00 00 80 3f 00 00 80 3f 00 00 80 3f
       1.0 1.0 1.0 1.0
000040 00 00 80 3f 00 00 80 3f 00 00 80 3f 00 00 80 3f
       1.0 1.0 1.0 1.0
000050 00 00 80 3f 00 00 80 3f 00 00 80 3f 00 00 80 3f
       1.0 1.0 1.0 1.0
000060 00 00 80 3f 00 00 80 3f 00 00 80 3f 00 00 80 3f
       1.0 1.0 1.0 1.0
000070 00 00 80 3f 00 00 80 3f 00 00 80 3f 00 00 80 3f
       1.0 1.0 1.0 1.0
000080 00 00 80 3f 00 00 80 3f 00 00 80 3f 00 00 80 3f
       1.0 1.0 1.0 1.0
000090 00 00 80 3f 00 00 80 3f 00 00 80 3f 00 00 80 3f
       1.0 1.0 1.0 1.0
0000a0 00 00 80 3f 00 00 80 3f 00 00 80 3f 00 00 80 3f
       1.0 1.0 1.0 1.0
0000b0 00 00 80 3f 00 00 80 3f 00 00 80 3f 00 00 80 3f
       1.0 1.0 1.0 1.0
0000c0 00 00 80 3f 00 00 80 3f 00 00 80 3f 00 00 80 3f
       1.0 1.0 1.0 1.0
0000d0 00 00 80 3f 00 00 80 3f 00 00 80 3f 00 00 80 3f
       1.0 1.0 1.0 1.0
0000e0 00 00 80 3f 00 00 80 3f 00 00 80 3f 00 00 80 3f
       1.0 1.0 1.0 1.0
0000f0 00 00 80 3f 00 00 80 3f 00 00 80 3f 00 00 80 3f
       1.0 1.0 1.0 1.0

base.mlp.fc_h.2.bias f4 [64]
000000 00 00 00 00 00 00 00 00 00 00 00 00 00 00 00 00
       0.0 0.0 0.0 0.0
000010 00 00 00 00 00 00 00 00 00 00 00 00 00 00 00 00
       0.0 0.0 0.0 0.0
000020 00 00 00 00 00 00 00 00 00 00 00 00 00 00 00 00
       0.0 0.0 0.0 0.0
000030 00 00 00 00 00 00 00 00 00 00 00 00 00 00 00 00
       0.0 0.0 0.0 0.0
000040 00 00 00 00 00 00 00 00 00 00 00 00 00 00 00 00
       0.0 0.0 0.0 0.0
000050 00 00 00 00 00 00 00 00 00 00 00 00 00 00 00 00
       0.0 0.0 0.0 0.0
000060 00 00 00 00 00 00 00 00 00 00 00 00 00 00 00 00
       0.0 0.0 0.0 0.0
000070 00 00 00 00 00 00 00 00 00 00 00 00 00 00 00 00
       0.0 0.0 0.0 0.0
000080 00 00 00 00 00 00 00 00 00 00 00 00 00 00 00 00
       0.0 0.0 0.0 0.0
000090 00 00 00 00 00 00 00 00 00 00 00 00 00 00 00 00
       0.0 0.0 0.0 0.0
0000a0 00 00 00 00 00 00 00 00 00 00 00 00 00 00 00 00
       0.0 0.0 0.0 0.0
0000b0 00 00 00 00 00 00 00 00 00 00 00 00 00 00 00 00
       0.0 0.0 0.0 0.0
0000c0 00 00 00 00 00 00 00 00 00 00 00 00 00 00 00 00
       0.0 0.0 0.0 0.0
0000d0 00 00 00 00 00 00 00 00 00 00 00 00 00 00 00 00
       0.0 0.0 0.0 0.0
0000e0 00 00 00 00 00 00 00 00 00 00 00 00 00 00 00 00
       0.0 0.0 0.0 0.0
0000f0 00 00 00 00 00 00 00 00 00 00 00 00 00 00 00 00
       0.0 0.0 0.0 0.0

base.mlp.fc2.0.0.weight f4 [64, 64]
000000 51 c2 49 3e 96 b3 8a 3e 3c 9b a3 3d 03 9b 9a 3e
       0.19703032 0.27090138 0.07988593 0.3019639
000010 4d 80 17 be 13 9d b1 3e b8 9e d9 bd 62 55 6a be
       -0.14795037 0.3469015 -0.10625976 -0.22884133
000020 9f 52 76 be 1d 4c ab be a8 fe 69 be a6 37 92 3d
       -0.24054955 -0.33456507 -0.2285105 0.0713952
000030 ba 5e e6 bd 2e 4b 66 3e 18 b6 a8 3c 13 45 55 3e
       -0.112485364 0.22489616 0.020594642 0.20827131
000040 dc d1 8b 3c 0e 63 cb 3d 31 b2 07 3e b8 e7 38 be
       0.017067842 0.099310026 0.13251568 -0.18057144
000050 4f 5f 63 3e 42 90 8c be 30 cc ba bd c9 7e 01 be
       0.22204326 -0.2745381 -0.09120977 -0.12646021
000060 67 fc 21 be bb 9e 3b be 9b f6 a4 bd f3 e0 82 be
       -0.1581894 -0.1832227 -0.08054849 -0.25562248
000070 44 a6 96 3d 23 31 0f bd 1d e8 a5 3d 16 dc 94 be
       0.073559314 -0.03495897 0.08100913 -0.29074162
000080 3c dd 64 bc 2d b7 67 be 8d a7 29 bd 3c 13 ed be
       -0.013968762 -0.2262847 -0.041419555 -0.46303737
000090 a4 b9 5a 3e 47 0e 57 3d d4 95 60 3e fb 69 2f be
       0.21359879 0.05250385 0.21932155 -0.17130272
0000a0 e5 fb d0 bd ad 74 a9 3d 4c c4 12 3e 55 f2 12 3d
       -0.10204295 0.08274207 0.14332694 0.035875637
0000b0 0c d3 bd bd d8 96 1a be 3f 60 34 be 41 ee 18 be
       -0.092687696 -0.15096605 -0.1761484 -0.14934637
0000c0 b8 45 88 3e a8 25 99 bd 05 97 29 3e 74 92 41 3e
       0.2661569 -0.074778855 0.16561516 0.18903524
0000d0 67 a4 97 be d2 1c 8c 3d 89 f7 e2 bd ad dd b1 bc
       -0.29617617 0.068414345 -0.1108237 -0.021712149
0000e0 4e 86 40 bd 66 71 5c bd dc 1c 3c be 5d b0 00 3d
       -0.047003083 -0.053819083 -0.18370384 0.031418193
0000f0 4e 2b be 3d ab 78 cd 3d a4 c7 e5 3c 0d 3f 74 3c
       0.092856035 0.10032781 0.028049298 0.014907611
000100 0e 67 1a 3a 29 3f 34 bd 1d 3e b8 bd c8 19 32 3e
       0.000588999 -0.044005547 -0.08996222 0.17392647
000110 9e 3d c3 bd fa 73 d1 3d 02 b1 04 3e 3b b3 cc 3d
       -0.09533237 0.10227199 0.12958148 0.09995123
000120 5b 94 fa bc 28 b8 d4 bd 81 1e f7 bc f2 76 3d be
       -0.03058832 -0.103866875 -0.030165913 -0.18502405
000130 13 63 fc bd ab 1a 8b 3e b2 ff c1 bd 3f 0b ef bd
       -0.123235844 0.27168784 -0.09472598 -0.11672067
000140 a3 58 3f 3e ff bd 32 be 1d 6c ca bd e6 42 ce bd
       0.18686156 -0.1745529 -0.09883902 -0.100713536
000150 f0 b4 92 3d ec 40 43 3e 69 31 4a 3e 1f b1 6f 3e
       0.07163417 0.19067734 0.19745411 0.2340741
000160 55 ba 10 be c3 7c 8f 3d 29 c8 97 3d 76 e3 96 bd
       -0.1413358 0.07006218 0.074112244 -0.073676035
000170 47 75 ae 3e 15 52 46 be 74 d3 d3 3e 26 d5 20 be
       0.3407385 -0.1936725 0.41372263 -0.1570631
000180 99 19 ab bd 37 b1 00 3e de 30 98 bc 27 c5 25 3d
       -0.08354492 0.12567602 -0.01857799 0.040471222
000190 f3 40 db 3d 07 e0 00 3d 27 5a 82 bd a5 51 e0 3d
       0.107057475 0.03146365 -0.063648514 0.109530725
0001a0 d1 78 c1 3e 9e 85 02 3e 5d cd 5e be a7 a3 95 be
       0.37787488 0.12746283 -0.21758027 -0.2922642
0001b0 fd 37 ac 3e 1a b2 86 bd 12 34 5d be de 96 63 3e
       0.33636466 -0.06576939 -0.21601894 0.2222552
0001c0 31 d4 aa be e4 3e ae 3d 3f d4 4f 3e 47 6e e7 3c
       -0.33365014 0.08508089 0.20295809 0.028250827
0001d0 ec 6e a2 bd e1 df f5 3e ed 99 11 be 50 72 ac 3d
       -0.07931313 0.4802237 -0.14218874 0.08420241
0001e0 49 e9 f2 bc dc dd 8f be 88 96 a5 3e 7f c0 9a bd
       -0.029652255 -0.28098953 0.3234141 -0.07556247
0001f0 39 9d 88 3d ef c8 d3 3d 81 da 27 be 5e 50 b1 bd
       0.06670613 0.103410594 -0.16391946 -0.08657907
000200 35 47 89 be ca 25 76 be 34 3d 9f 3d d5 72 62 3e
       -0.2681214 -0.24037853 0.077753454 0.22114117
000210 08 2f 94 be 7c 1e 2e be 47 89 57 be b7 40 b9 bd
       -0.28942132 -0.17003816 -0.21048461 -0.090455465
000220 02 6a 16 3e 82 24 17 be 6d ea 92 be 2e 4a f2 bb
       0.14688876 -0.1476002 -0.28694478 -0.007394097
000230 a8 92 23 3e 0b 8d 27 bd 11 6e 17 3d 33 9d 83 be
       0.15973914 -0.040905993 0.036970202 -0.2570587
000240 1e a7 91 bd 6a 65 87 3e 33 20 ba 3d 0f 8b 94 bc
       -0.07111953 0.2644456 0.09088173 -0.018132715
000250 7d ab aa 3d 42 b4 b3 3e 8a 10 bf bd 90 cf 32 bd
       0.0833349 0.35098463 -0.093293265 -0.04365498
000260 20 eb 94 be 24 cd db 3c 1f 7c c0 be c4 31 4a 3d
       -0.29085636 0.026831217 -0.37594697 0.049363866
000270 52 f2 1c 3d 55 a7 de bd e2 30 d3 bc 11 70 14 3e
       0.038317032 -0.1087176 -0.025780145 0.14495875
000280 c1 86 b8 bc 67 c6 f8 bd 84 14 8d 3c 92 97 14 bd
       -0.022525193 -0.12147217 0.017221697 -0.03627736
000290 83 96 67 be 8d e2 7e 3e 55 ab 67 3e 77 d6 f4 bc
       -0.2261601 0.2489111 0.22623952 -0.029887421
0002a0 a2 7d 0c 3f 3e 9d 15 3e 53 dd 41 3e 70 7e 3d be
       0.548792 0.14610764 0.18932085 -0.18505263
0002b0 c5 14 52 3e 3e 85 a6 be a1 3c cb 3b ba 1c a5 3d
       0.20515735 -0.3252353 0.006202296 0.0806212
0002c0 63 3c 23 3d 77 61 1b be 9a 11 13 3d 5e df 70 be
       0.03985251 -0.15173899 0.035905458 -0.23522708
0002d0 96 b5 7b be 11 c1 26 bd 70 e2 8b be 4e 50 21 3e
       -0.24580988 -0.040711466 -0.27321196 0.1575329
0002e0 7f db bb 3c d0 17 04 3e b4 ee 69 bd a2 ab aa 3e
       0.022931812 0.12899709 -0.05711241 0.3333407
0002f0 09 0a 9c 3d da b8 9e bd 3e 26 08 bd 1c fb f2 3d
       0.076191016 -0.077501014 -0.033239596 0.118643016
000300 e2 5d c0 3d 4d 76 88 bc 01 26 45 3e 23 6e 42 3d
       0.09392907 -0.016657973 0.19252779 0.047468316
000310 78 eb 3c be 8a 9d db 3d 11 c1 03 bd ae a3 99 3d
       -0.18449199 0.107234076 -0.032166544 0.075019225
000320 a5 02 87 3e 97 27 36 3e 3a be e0 bd 1e 0e 03 3e
       0.26369205 0.1778854 -0.10973783 0.12798354
000330 29 33 10 3e da 47 57 bd 3b 00 6c bd fd 56 06 bf
       0.14082016 -0.052558757 -0.057617407 -0.52476484
000340 23 e7 72 3e 36 f0 62 3e 99 6e aa 3e 05 8f 7d bd
       0.23720984 0.22161946 0.33287504 -0.061903972
000350 bc e1 c7 be a7 a0 c7 bd 71 2e b0 be 94 27 0b 3e
       -0.3903941 -0.09747439 -0.34410432 0.13589317
000360 05 ed c0 3e 0d 36 52 3c 73 64 93 3e 1b 4a 89 be
       0.37680832 0.0128302695 0.28787574 -0.2681435
000370 7f 65 ad bd 45 42 29 be 1a e6 4b bd f2 7c 2a 3e
       -0.084666245 -0.16529186 -0.04977999 0.16649225
000380 93 2c 12 3e f8 c3 e6 bb f2 da 85 be d8 a6 a5 bd
       0.14274816 -0.0070424043 -0.26143605 -0.080884635
000390 b5 24 1a 3e 8d cb 63 3c dc c5 f3 3d b6 44 da bb
       0.15053065 0.013903511 0.11902973 -0.006661023
0003a0 bf ef 8f be 83 60 f7 3c 9b cb b0 be b7 f3 ed bd
       -0.281126 0.030197388 -0.3453034 -0.116187505
0003b0 6f 2f 17 be d3 05 b2 be 74 8e 1b 3e 01 a1 0a 3e
       -0.14764188 -0.3477007 0.1519106 0.1353798
0003c0 3e 21 44 bd 17 c1 6b bc d4 cb a8 bc 0a 45 5e bd
       -0.047883265 -0.014389298 -0.020605005 -0.05426506
0003d0 66 ea 6b 3e 14 cf 85 3e 03 58 53 bd 02 6d ca bc
       0.23038635 0.2613455 -0.051597606 -0.024710182
0003e0 4a 05 57 bd 77 d7 ad be c7 7b 8c 3e a3 b5 59 3c
       -0.05249528 -0.3395345 0.27438185 0.0132879345
0003f0 43 88 a5 be 92 db 19 3d c6 4b 91 3e fc 66 c6 bd
       -0.32330522 0.037562914 0.28378123 -0.096876115

base.mlp.fc2.0.0.bias f4 [64]
000000 26 be 41 bd f1 fd 20 bd dd ad 75 bd 72 21 84 3d
       -0.04730048 -0.039304677 -0.059980262 0.06451692
000010 07 81 9a 3b 81 81 10 bd d2 55 1f 3d 40 76 49 3d
       0.0047150883 -0.035279755 0.038900204 0.049185038
000020 aa f3 42 bc 56 ae 89 bc 2d 2f 4c bd 18 3e 60 bc
       -0.011898914 -0.016806763 -0.049849678 -0.013686679
000030 62 41 5b bc e7 9f be bc 96 70 27 bc eb 60 05 3c
       -0.013382288 -0.023269607 -0.010219714 0.008140783
000040 bf 98 a4 bd 1d 88 8c bc 11 c7 31 3d 37 7f 08 3c
       -0.080369465 -0.017154748 0.043402735 0.008331112
000050 7e dd 8a 3c e0 7f 38 bb 19 80 a2 bd ca c9 00 bd
       0.016951319 -0.0028152391 -0.07934589 -0.03144244
000060 78 d5 63 bb 08 df ac bc 6c 00 bd bc 52 fb fa 3c
       -0.0034764688 -0.021102443 -0.02307149 0.030637417
000070 c5 74 93 bd cc 78 c2 ba d5 27 ab bd 45 6b 0c 3d
       -0.072000064 -0.0014837026 -0.08357207 0.034281988
000080 cd df b9 3c dd ba 69 bd f3 6a 9b bd 3a ff 64 3d
       0.022689724 -0.057062972 -0.07588758 0.055907466
000090 2b c0 81 3d 88 a5 10 bc 3d 32 6c bd 09 42 2f 3d
       0.06335481 -0.008828528 -0.0576651 0.042787585
0000a0 7f 53 be bc 56 5b b6 bc e6 be 18 bd f5 f8 19 bd
       -0.023233173 -0.02226035 -0.03729143 -0.03759094
0000b0 68 1b 95 bd 7c e0 45 bd 91 ef 40 3d ea 88 33 3d
       -0.07280618 -0.048309788 0.04710347 0.043831743
0000c0 d7 1f c2 bb b1 af 9b bc 24 fe 5f 3d a3 bb 9c 3c
       -0.0059242058 -0.019004675 0.054685727 0.01913244
0000d0 46 d6 bb bb d4 7f 37 bd 4c 8e 97 bc f7 43 84 bd
       -0.0057323305 -0.04479964 -0.01850047 -0.06458276
0000e0 04 08 7c 3c bd 57 1c bd 1a b9 36 bd 5e bb 43 3d
       0.01538277 -0.03816961 -0.04461012 0.04778611
0000f0 9d cb 78 3d 8e 09 e6 bc 43 b3 cf 3c d5 41 a7 3d
       0.060741056 -0.028080728 0.025354033 0.08166853

base.mlp.fc2.0.2.weight f4 [64]
000000 bf 12 89 3f 60 4a 8e 3f fb 8f 91 3f 79 9b 9a 3f
       1.0708846 1.1116447 1.1372064 1.2078696
000010 ba cc 8c 3f c2 fb 8a 3f fa 14 90 3f a5 6c 89 3f
       1.0999978 1.085808 1.1256402 1.0736281
000020 4e 32 92 3f f1 85 80 3f 6a bd 8a 3f 99 1d 8c 3f
       1.1421602 1.0040876 1.0839055 1.0946532
000030 57 fa 8c 3f b9 3f 89 3f ab d4 88 3f 83 6c 90 3f
       1.1013898 1.0722572 1.0689901 1.1283115
000040 d8 d9 7e 3f b9 65 8a 3f b6 d0 94 3f 92 90 8f 3f
       0.99551153 1.0812293 1.1626194 1.1215994
000050 84 c2 95 3f 22 78 84 3f 56 b6 87 3f 34 6c 78 3f
       1.1699986 1.0349162 1.060252 0.97040105
000060 01 a2 8d 3f f5 cf 8d 3f ad 72 8c 3f ac f1 86 3f
       1.1065065 1.1079088 1.0972496 1.0542502
000070 96 17 87 3f 9d 1f 8a 3f c2 d9 81 3f 6c e5 8f 3f
       1.0554073 1.0790898 1.014458 1.1241889
000080 46 91 92 3f 31 35 78 3f c1 f5 7e 3f 73 c9 89 3f
       1.1450584 0.96956164 0.9959374 1.0764602
000090 ec 3f 92 3f 4e 4a 99 3f 7f f1 7d 3f 3d 13 95 3f
       1.1425757 1.1975801 0.9919662 1.1646496
0000a0 1e b6 91 3f e9 e7 8f 3f 32 0e 8a 3f c2 b4 91 3f
       1.1383703 1.1242648 1.0785582 1.1383288
0000b0 d3 0b 86 3f e5 cf 87 3f 08 6f 88 3f e6 8d 89 3f
       1.0472358 1.0610319 1.0658884 1.0746429
0000c0 7f 13 85 3f c4 cf 91 3f 12 cc 85 3f f9 59 8d 3f
       1.0396575 1.139153 1.0452902 1.1043082
0000d0 db 97 8b 3f 46 9c 92 3f 92 36 8c 3f 2d 93 90 3f
       1.0905718 1.1453941 1.0954154 1.1294914
0000e0 d3 e4 99 3f bb a1 91 3f 14 90 93 3f 05 c7 91 3f
       1.2022957 1.1377481 1.1528344 1.1388861
0000f0 cf bc 9b 3f 31 1d 85 3f 48 c9 9a 3f 85 ec 9d 3f
       1.2166995 1.0399534 1.2092676 1.2337805

base.mlp.fc2.0.2.bias f4 [64]
000000 8a 21 c1 3c 14 c4 16 3d 7c 2e e0 bc 9e 7e 71 bd
       0.023575563 0.03680809 -0.027365915 -0.058958642
000010 de 4f 8f 3c 90 b2 61 bd 19 52 8e 3d 73 eb 26 3d
       0.017494138 -0.05510193 0.06949253 0.040751886
000020 d9 cc 35 3c 8f ce c5 3c ef fe 44 3d bb cb c5 bc
       0.011096203 0.024146346 0.048094686 -0.024144998
000030 ed 0a 3b 3d 11 35 4d 3d 92 3b 06 bd 2d b9 19 ba
       0.045664717 0.050099436 -0.032771654 -0.000586408
000040 d7 0c 5f 3c 93 47 94 3b 58 cd 37 bd ea 25 de bc
       0.013613901 0.004525134 -0.044873565 -0.027117688
000050 09 15 18 bd ec 4f 6c bd c4 24 db 3b b0 7d 4b 3d
       -0.037129436 -0.057693407 0.0066877324 0.04968041
000060 59 d7 97 bb 1a 0c a0 bd 17 d8 e8 3c 92 9d 97 3d
       -0.0046338257 -0.07814808 0.028423352 0.07403101
000070 53 a1 a2 bd 78 61 1e 3d 6d 18 fa bc 88 75 a5 bc
       -0.079409264 0.038667172 -0.030529225 -0.020197645
000080 c9 e6 5f bd 37 33 17 3d d2 a0 26 3d ad b3 2a bc
       -0.054663453 0.036914077 0.040680714 -0.010418815
000090 85 a7 73 3c af c1 8c bd 9c be 17 bd 24 be 73 bd
       0.014871483 -0.0687288 -0.037047014 -0.059507504
0000a0 e6 51 4d 3c 1a 5b c8 3d 19 ac 5d bd 5e 43 7f 3c
       0.012531733 0.09783001 -0.054119203 0.015580026
0000b0 3f c7 1e 3b 58 12 45 bc 79 2b 80 3d 7d 3b 0c 3d
       0.0024227647 -0.012028299 0.06258292 0.03423642
0000c0 2b e0 9a bc 2a 34 4f 3d 65 42 5e 3d fc 07 98 3c
       -0.01890572 0.050586857 0.054262538 0.018558495
0000d0 a2 0a bd 3a d8 0b 63 bd c7 60 86 bc 6a 10 f6 3c
       0.0014422724 -0.055431217 -0.016403569 0.030037124
0000e0 80 c6 5a 3d bd 5f cc ba 20 08 a1 bc 5c 23 c0 3c
       0.05341196 -0.0015592497 -0.019657195 0.02345436
0000f0 94 b6 50 3d 99 66 58 3d 17 8d 15 bc 7b fa 8c 3d
       0.05095537 0.05283222 -0.009127877 0.06883713

act.action_out.linear.weight f4 [10, 64]
000000 f8 b7 0a 3d fb 88 8b bd 01 a5 0a 3d 01 48 aa bd
       0.033866853 -0.06813236 0.033848766 -0.08314515
000010 51 5d 9c bc d8 9c 99 3d 37 09 79 bd 64 ca 85 bd
       -0.019087465 0.07500619 -0.060799804 -0.065327436
000020 c3 77 d4 3c e9 de 20 bc 6e 59 98 3d 2a b9 86 3d
       0.025936013 -0.009818771 0.07438932 0.06578286
000030 7d dd a3 3d 15 c4 94 bc 52 69 27 3d fd d8 ab bd
       0.0800123 -0.018159905 0.040871926 -0.083909966
000040 d0 3e d0 bc f2 64 83 bd 83 86 8c bd 15 ac c7 bc
       -0.025420576 -0.06415738 -0.068615936 -0.024374047
000050 ad b7 35 3c 89 9a 3c bc bd c5 89 3d 52 67 57 bc
       0.011091155 -0.011511453 0.06727169 -0.013147192
000060 3b d7 ae bc 26 da 94 3c 34 c9 94 bd 87 46 4c bc
       -0.021342864 0.018170428 -0.07264939 -0.012467987
000070 c1 44 5f bd fd 55 cd bc 8f 0e 08 3c a3 f3 b1 3d
       -0.05450893 -0.025065416 0.008304252 0.08689048
000080 3a 96 43 bd 5a 14 34 bd f3 cf c3 bc 85 68 7c bd
       -0.04775069 -0.04396472 -0.023902869 -0.061623115
000090 3c 85 04 bd cc 38 4b 3c 4a dc 2b 3d 57 f1 29 3d
       -0.032353625 0.012403678 0.04195813 0.041489925
0000a0 70 06 68 bd 53 22 df 3b 51 2a a8 3c 40 a0 99 bd
       -0.056646764 0.0068095117 0.02052799 -0.075012684
0000b0 84 31 be 3c 6b 65 27 3d 02 d5 99 bd 60 d5 c8 bb
       0.02321697 0.040868204 -0.07511331 -0.006128952
0000c0 30 49 52 3d 5b 0e af 3d da 77 41 3c d1 2c bb 3d
       0.05133933 0.0854766 0.01180836 0.091394074
0000d0 5e a5 cc bc b1 cf a1 3d d2 64 12 3d cb b3 ae 3d
       -0.024981197 0.07900942 0.03574068 0.085303865
0000e0 dd 90 64 bd 6a bc 54 3d 26 4c ab bd 3e e9 13 3e
       -0.055802215 0.0519375 -0.083641335 0.14444444
0000f0 f2 9b 34 3d 13 83 a1 3b 72 c1 8d bd d0 2e e9 3d
       0.044094034 0.0049289553 -0.069216624 0.11385882
000100 7d 22 2a bc 2c 43 cd ba 9b 88 84 3b a6 bc 61 bd
       -0.010384199 -0.0015660278 0.004044605 -0.05511155
000110 92 09 93 3c c1 e1 45 bd 01 22 b3 3d 53 d1 47 ba
       0.0179489 -0.048311 0.0874672 -0.00076224393
000120 9a 71 b0 bd ca 0d e3 3c 29 84 e5 bc c0 fc 57 bd
       -0.08615418 0.027716536 -0.02801712 -0.052731276
000130 24 b5 b7 3d 75 d5 91 3c c0 2c 7b 3b 8c 68 42 bd
       0.08970097 0.01780198 0.0038326234 -0.047462985
000140 1c fb 1e ba f5 5f 37 3c 94 05 9f bc 81 8c bd bd
       -0.000606464 0.0111923115 -0.01941184 -0.092553146
000150 33 43 7e bd 13 46 4a 3d 6d 97 fb bc bc ba a2 bb
       -0.062075805 0.049383234 -0.030711854 -0.004966108
000160 49 91 f3 3c 78 27 96 bc a2 3d db ba ad ea d5 3d
       0.029732363 -0.018329367 -0.0016726742 0.104451515
000170 7a 45 63 bd 7d 65 65 3d f9 a4 91 bc c4 8f bc bc
       -0.05548618 0.05600499 -0.01777886 -0.023017772
000180 20 e0 70 bc f5 94 eb 3c c8 37 2e 3d 06 eb fa bc
       -0.014701873 0.028757552 0.042533666 -0.030629646
000190 c0 74 e1 3d 68 40 55 3c d6 0a 42 bd f4 6d 7e bd
       0.110085964 0.013015844 -0.047373615 -0.06211658
0001a0 dd f8 b1 3c 1d 77 5f bd ec 39 d4 bd 76 54 b6 3d
       0.021725113 -0.054556955 -0.1036261 0.089028284
0001b0 ca a5 12 3c 6c ea cf bd ed 95 4b 3d f7 02 1e bd
       0.00895066 -0.10152134 0.049703527 -0.038577046
0001c0 23 50 f2 bc e0 b3 e3 3d 5f fc fe 3b 04 77 98 3d
       -0.029579228 0.11118293 0.00778155 0.074445754
0001d0 50 42 5b bc cd 44 3c bd 2e 51 b7 3d aa e8 7d bd
       -0.013382509 -0.04596405 0.08951031 -0.061989464
0001e0 28 fd f9 3c e4 c7 eb bd 2e ec 0b bd b6 e4 a0 3d
       0.030516222 -0.115127355 -0.034160785 0.07856123
0001f0 b9 47 0e 3e d8 bc 38 bd f0 4e 11 be f3 55 32 3d
       0.13894548 -0.04510197 -0.14190269 0.043539
000200 9e 89 78 bd a1 5c 3c bc 19 7c ad bd 3e 3a 61 3d
       -0.060678117 -0.011496694 -0.084709354 0.054987185
000210 2e 28 bc bd 86 1c aa 3c af 25 3d bd f7 4a 81 bd
       -0.09187351 0.020765554 -0.046178516 -0.063131265
000220 7c 5d 9d bb b6 1f ed 3c 3e de 64 3d dd 8b eb bb
       -0.004802404 0.028945785 0.05587601 -0.007188304
000230 ba 37 bc 3c 4d 93 bf 3d 4e 0e 27 3d 98 a1 7d 3d
       0.022975791 0.09354267 0.040785126 0.061921686
000240 74 81 d8 3c 15 7c 7c bd 64 33 8e 3d 09 ec 3e bb
       0.026428916 -0.06164177 0.06943396 -0.0029132387
000250 4c 08 bb 3d 58 96 c7 3c d8 8a 36 3b a3 61 99 3b
       0.09132442 0.024363682 0.0027853753 0.0046808287
000260 b7 b4 ae 3d db d6 89 3d 6a 4a 1c 3d 5d c7 c0 bb
       0.08530562 0.067304336 0.038156904 -0.005883141
000270 1c 39 4b 3d 7e 84 8b bd f6 13 14 3c 24 78 b8 3d
       0.04961501 -0.0681238 0.009037962 0.0900729
000280 cc 05 de bc 82 ba a7 bb 96 86 25 3d 22 cf 47 3d
       -0.027102374 -0.005118669 0.040411554 0.04878152
000290 98 92 82 bd 52 14 35 bd cc 0a f7 3c 27 21 b1 3d
       -0.06375617 -0.044208832 0.030156516 0.086489014
0002a0 b3 1d 4d bc 7d b8 82 bd 8e d8 13 ba 53 7f 77 bd
       -0.012519288 -0.063828446 -0.0005639874 -0.06042416
0002b0 c0 3f a4 bc 6c e0 5f 3d 43 30 40 bd d5 40 6d bd
       -0.02004993 0.054657385 -0.046921026 -0.057923157
0002c0 eb 67 65 3d ef 26 dd bc 26 b1 f0 3c cc fc 98 bd
       0.056007307 -0.026996104 0.029381346 -0.07470092
0002d0 7d bf 5b 3d c0 7f 0b bd 53 1d e4 3c af 2d 16 bd
       0.053649414 -0.03405738 0.027846014 -0.03666466
0002e0 e1 a2 13 be 47 dc 99 bd 0f a4 6b 3d 1f db 5c 3c
       -0.14417602 -0.07512718 0.057529505 0.013479977
0002f0 83 30 52 3c c8 8e 25 bc cf 8c 07 bd f0 12 11 bd
       0.012828949 -0.0101048425 -0.03309327 -0.03541845
000300 55 50 f7 bb 2f ce 25 3d b7 24 be 3d 2d 90 13 be
       -0.007547418 0.040479835 0.092843466 -0.14410467
000310 9c ab a9 ba 6a 32 c1 bd ca 66 a2 bc d4 ce a5 bc
       -0.001294482 -0.09433444 -0.019824404 -0.020240225
000320 2e fe e5 3c 21 61 9b 3b 2f 30 1c bd 82 ef ac 3c
       0.028075304 0.0047418033 -0.03813189 0.0211103
000330 fb 04 1f 3c e3 77 80 bd 80 3e 86 3c 4c 2a 21 bd
       0.009705777 -0.062728666 0.016387224 -0.039346978
000340 55 9c b2 3b 4f 11 35 bd b1 fc d2 bd e3 24 86 3d
       0.005450765 -0.04420596 -0.10302103 0.06550004
000350 d9 00 94 3d 0b 35 6a bd d0 7d 71 3d 04 81 3e bd
       0.07226724 -0.057179492 0.058957875 -0.046509758
000360 9d 12 3f bd 55 d6 97 3b af 31 35 3d a7 81 5d bd
       -0.04664861 0.0046337047 0.044236835 -0.054078724
000370 97 75 27 3c 69 8f 8c bd fb a0 61 bd b6 d6 a5 bd
       0.010220907 -0.06863291 -0.055085164 -0.080975935
000380 e4 9a 69 3d 55 a1 31 3c f7 61 d1 3b 97 50 9e 3a
       0.05703248 0.010841687 0.006389852 0.0012078461
000390 53 95 f5 bc c9 b0 a1 3d 96 5b 25 bc 73 0c b0 bd
       -0.02997843 0.07895047 -0.010092637 -0.085961245
0003a0 3d fe db bb e3 5a ce 3d c8 b1 4f 3c 87 ff 86 3d
       -0.006713657 0.10075929 0.012676664 0.06591707
0003b0 e9 ac 8b 3d 11 55 2f 3d 1f f1 87 3d a6 2f 80 3c
       0.06820089 0.042805735 0.06637787 0.01564772
0003c0 44 66 4a bd f5 80 35 3d 90 7f b5 b9 d0 ec 91 bc
       -0.049413934 0.044312436 -0.00034618052 -0.017813116
0003d0 e1 2c 45 3d 85 30 d9 3d bd 94 be 3c d6 e6 2b bd
       0.048138503 0.106049575 0.023264283 -0.04196819
0003e0 0f 19 11 3e 6c 0a b3 3d 2a 16 cc bd dc 6a b6 bd
       0.14169715 0.08742222 -0.09965165 -0.089071006
0003f0 70 bc 29 bd 7c 2c 8a bd 1b 44 15 3e 8a 98 e1 bd
       -0.041439474 -0.06746766 0.14576761 -0.11015423

act.action_out.linear.bias f4 [10]
000000 f1 aa 51 bc a9 db c3 3c de 59 61 bd b9 78 f5 bc
       -0.012797103 0.023908453 -0.055017345 -0.029964792
000010 25 6d 2b 3d 5e 20 c6 3c 5e ba 7c 3d 44 5f 7c bd
       0.041852135 0.024185356 0.06170117 -0.06161429
000020 d8 bf 03 3c c0 1a 02 bd
       0.008041345 -0.031763792
