light_mappo-main/results/MyEnv/MyEnv/mappo/check/run37/models/actor.pt (torch, 46581 bytes, 16 tensors)

base.feature_norm.weight f4 [15]
1.027612 1.0360844 1.0132567 0.9927885 0.9852318 0.97857034 1.0311493 1.0098531
0.9905933 1.0009847 0.9660872 0.97544014 1.0023293 1.013266 1.0213227
00000000: ca88 833f 6a9e 843f 65b2 813f 6327 7e3f
00000010: 2738 7c3f 9683 7a3f b3fc 833f de42 813f
00000020: 8697 7d3f 4420 803f 7e51 773f 72b6 793f
00000030: 544c 803f b3b2 813f b4ba 823f

base.feature_norm.bias f4 [15]
0.0068589374 0.0077292663 0.008528861 -0.022796348 -0.01104369 -0.03542934 -0.013385339 -0.025977211
-0.035813473 0.0020978283 -0.008850598 0.024607556 0.046193443 -0.0338517 0.0021754638
00000000: f0c0 e03b c945 fd3b a3bc 0b3c 68bf babc
00000010: 98f0 34bc 5b1e 11bd 2e4e 5bbc 29ce d4bc
00000020: 26b1 12bd b87b 093b 1902 11bc c995 c93c
00000030: 5635 3d3d 15a8 0abd 3a92 0e3b

base.mlp.fc1.0.weight f4 [64, 15]
0.15451884 -0.18637992 -0.024684288 -0.06750384 -0.032836113 -0.16042535 0.13714013 -0.06448794
-0.2113049 -0.17715113 -0.2774796 0.060158227 -0.09970504 -0.122919135 0.26892912 -0.10255147
-0.099317424 -0.36286533 -0.007899614 0.36154366 0.199721 -0.3379561 -0.088118285 -0.19150034
-0.016045097 0.09954258 0.12323255 0.0065520406 -0.22414324 0.07646783 -0.39478764 -0.07953617
0.14930548 -0.052088425 -0.07617123 0.22044283 0.21689068 -0.2897972 -0.057306416 0.22967409
-0.032069176 0.06846804 -0.06347304 0.17533676 0.026011335 0.030663587 0.03679921 -0.07775725
0.0997496 -0.18052974 0.08120661 0.0074649034 0.19028553 -0.3416198 0.3347381 0.07255901
-0.052875727 -0.07754205 -0.027227223 -0.14414395 -0.09694788 -0.30865213 0.115723245 0.111824684
0.044841725 -0.27343506 -0.16660939 -0.24499698 -0.07848351 -0.21069029 0.42763522 -0.18748905
0.063062355 0.04459851 0.2893164 -0.037400175 -0.049198274 -0.07984323 0.27295578 -0.00047857512
0.13419683 -0.33832192 -0.25180244 0.26648226 0.14393792 0.399638 0.0045321127 -0.19844483
0.14077076 -0.0678503 -0.01262214 0.003926723 0.35856852 -0.00048974185 -0.010340271 -0.0368614
0.17196342 -0.109682746 0.111217365 0.23584878 0.07124646 0.10192931 -0.06364724 -0.16105267
0.26449695 -0.3491491 -0.36698845 -0.1592084 0.037973676 -0.15596414 0.06159181 0.10101193
-0.35789472 -0.25728682 0.03837212 -0.07521006 0.009140085 0.2622063 0.18895504 -0.11993493
-0.20509031 0.18812768 0.113490015 0.32488674 -0.00013209984 0.33366928 0.11613168 -0.104387
0.15948766 -0.00065785093 0.041347437 0.05211369 -0.058910638 0.021655345 0.1405356 -0.13031724
0.049195122 -0.10652162 -0.07258059 0.1657903 0.3094298 -0.03065301 0.046542503 -0.07783212
0.029014548 0.04638709 -0.1852465 0.06682181 0.18990171 0.28446087 -0.0038823439 -0.031564865
-0.10029237 0.029467959 0.060234692 0.057731573 0.03730887 -0.022133186 -0.21162407 -0.12843196
-0.30528903 -0.09191748 -0.28473487 0.19478013 0.3339011 -0.10855274 -0.38621256 -0.099770606
0.061236657 0.22877336 -0.078061864 -0.08286525 -0.24990174 0.14763288 0.093512125 -0.2147997
0.19034663 0.23518156 0.14775896 0.0076337256 0.2228979 -0.030418508 0.07064449 0.068634436
0.18816881 0.20290166 -0.25688633 -0.21038121 0.107522845 -0.10152037 -0.15211084 -0.24587834
-0.0069767945 0.09663044 -0.20341274 -0.04726917 -0.039262895 0.057643294 0.14317289 0.06561886
-0.43770772 0.25769654 0.11881012 0.08018427 0.16247176 0.1264685 -0.095084384 -0.23401402
-0.24651001 -0.04586483 -0.09149819 0.17718652 -0.073540755 0.034598302 0.1469628 0.04303345
-0.23135653 0.026675228 -0.2967625 0.120923854 0.14203869 0.13635589 -0.15793476 -0.18491928
-0.039942823 -0.10136219 0.30985904 -0.14473774 -0.24751571 -0.041974995 -0.18003152 0.14973864
-0.09117327 0.07365891 -0.34842083 -0.09733577 -0.3123608 0.06631255 0.09263077 0.33340213
0.39599764 0.018511819 0.13444476 0.02523395 0.1344462 0.25042337 0.050788008 0.14074045
-0.5369552 -0.1161419 0.2722796 0.3022938 0.0071722097 0.012641859 -0.0933316 0.17753352
00000000: 303a 1e3e 61da 3ebe b436 cabc 743f 8abd
00000010: 297f 06bd 8b46 24be 766e 0c3e 4112 84bd
00000020: 5060 58be 1b67 35be ce11 8ebe 7968 763d
00000030: 2832 ccbd 07bd fbbd 14b1 893e 8106 d2bd
00000040: ef66 cbbd 7cc9 b9be 626d 01bc 401c b93e
00000050: a983 4c3e 9508 adbe 5c77 b4bd aa18 44be
00000060: 0271 83bc fbdc cb3d 5961 fc3d 80b2 d63b
00000070: ce85 65be 2a9b 9c3d 9b21 cabe dce3 a2bd
00000080: 89e3 183e ac5a 55bd a9ff 9bbd c4bb 613e
00000090: 9718 5e3e 4c60 94be 22ba 6abd af2f 6b3e
000000a0: f85a 03bd f938 8c3d 27fe 81bd 7b8b 333e
000000b0: b915 d53c 3432 fb3c c5ba 163d 313f 9fbd
000000c0: 8549 cc3d cadc 38be a74f a63d 269c f43b
000000d0: 36da 423e cae8 aebe cb62 ab3e d199 943d
000000e0: 3894 58bd 5ece 9ebd a00b dfbc 799a 13be
000000f0: 9c8c c6bd a707 9ebe 4f00 ed3d 5704 e53d
00000100: f5ab 373d aeff 8bbe a79b 2abe 7de0 7abe
00000110: f6bb a0bd 32bf 57be 01f3 da3e 21fd 3fbe
00000120: d626 813d edac 363d 4721 943e ed30 19bd
00000130: 2184 49bd d984 a3bd dcc0 8b3e 44e9 fab9
00000140: e56a 093e 8838 adbe 40ec 80be 5d70 883e
00000150: 7664 133e 5a9d cc3e 1e82 943b 1f35 4bbe
00000160: 3626 103e 19f5 8abd 18cd 4ebc bdab 803b
00000170: 4b96 b73e 0562 00ba 3d6a 29bc fbfb 16bd
00000180: 2e17 303e 59a1 e0bd eec5 e33d 5882 713e
00000190: aae9 913d 50c0 d03d 7c59 82bd feea 24be
000001a0: 256c 873e acc3 b2be e9e5 bbbe 8707 23be
000001b0: 498a 1b3d 10b5 1fbe b247 7c3d 58df ce3d
000001c0: fa3d b7be 19bb 83be 162c 1d3d bb07 9abd
000001d0: 4cc0 153c e73f 863e 6e7d 413e 72a0 f5bd
000001e0: 3203 52be 8ba4 403e 746d e83d 8e57 a63e
000001f0: 4884 0ab9 b3d6 aa3e 72d6 ed3d dac8 d5bd
00000200: bc50 233e a173 2cba ee5b 293d 2a75 553d
00000210: 484c 71bd 8d66 b13c 90e8 0f3e e271 05be
00000220: d380 493d 0228 dabd 22a5 94bd efc4 293e
00000230: 956d 9e3e 051c fbbc 5aa3 3e3d 7266 9fbd
00000240: ebaf ed3c 6400 3e3d 42b1 3dbe e0d9 883d
00000250: 9875 423e dba4 913e ec6e 7ebb 294a 01bd
00000260: 1666 cdbd ca66 f13c a7b8 763d f177 6c3d
00000270: 30d1 183d a850 b5bc fbb3 58be ab83 03be
00000280: d84e 9cbe 3b3f bcbd c5c8 91be 7174 473e
00000290: 16f5 aa3e e650 debd a7bd c5be 8854 ccbd
000002a0: 4ad3 7a3d 9043 6a3e e6de 9fbd 42b5 a9bd
000002b0: 3ee6 7fbe 132d 173e 4983 bf3d 74f4 5bbe
000002c0: 3aea 423e 6fd3 703e 204e 173e 5524 fa3b
000002d0: 593f 643e 3c30 f9bc 0fae 903d 3690 8c3d
000002e0: 53af 403e 74c5 4f3e 9b86 83be 2c6e 57be
000002f0: f034 dc3d e9e9 cfbd f2c2 1bbe 88c7 7bbe
00000300: 989d e4bb 2ee6 c53d 6e4b 50be 519d 41bd
00000310: 21d2 20bd 601b 6c3d ea9b 123e 2e63 863d
00000320: 3a1b e0be cdf0 833e b852 f33d a737 a43d
00000330: ff5e 263e f580 013e 9abb c2bd 5fa1 6fbe
00000340: 1f6d 7cbe c3dc 3bbd 6763 bbbd 6270 353e
00000350: 899c 96bd f3b6 0d3d 6b7d 163e d843 303d
00000360: bae8 6cbe 0286 da3c 41f1 97be eda6 f73d
00000370: 9772 113e e1a0 0b3e a6b9 21be 7b5b 3dbe
00000380: 169b 23bd fb96 cfbd d8a5 9e3e 2136 14be
00000390: c274 7dbe f9ed 2bbd 2f5a 38be 1655 193e
000003a0: 0db9 babd 7cda 963d 3764 b2be fa57 c7bd
000003b0: c1ed 9fbe e0ce 873d 33b5 bd3d afb3 aa3e
000003c0: 34c0 ca3e 19a6 973c e3ab 093e 6eb7 ce3c
000003d0: 44ac 093e 7e37 803e 1607 503d 441e 103e
000003e0: e575 09bf cedb edbd 3b68 8b3e 41c6 9a3e
000003f0: db04 eb3b cd1f 4f3c a324 bfbd 59cb 353e

base.mlp.fc1.0.bias f4 [64]
0.029196292 0.035653397 0.027187929 0.025609815 0.0084796995 -0.060829476 -0.03530952 -0.0036210339
0.00848206 -0.039021835 -0.02359572 0.0020215046 -0.012975847 -0.0031194333 0.00880272 0.027558247
-0.030332271 -0.00669422 0.029683072 -0.016333641 -0.020881299 -0.020069726 0.010066191 -0.00043650335
0.019846063 -0.0015614104 0.038747713 0.0024267323 -0.028374378 -0.017550858 0.031903084 0.026381053
-0.031979125 -0.008853126 -0.03265746 -0.015066388 0.0077202795 0.036906227 -0.024417782 0.048286904
0.002413554 -0.013021061 -0.019885875 -0.00070250273 0.040881995 -0.05233388 0.0163762 0.027683826
-0.011566578 -0.01275914 0.019780526 -0.019514589 -0.00209989 -0.014491769 0.011087093 0.02315374
-0.02643521 0.02185147 0.054884173 -0.05113778 -0.023344921 0.0073152455 -0.0015861975 0.03803527
00000000: 102d ef3c 4c09 123d 38b9 de3c adcb d13c
00000010: 70ee 0a3c 5428 79bd b7a0 10bd de4e 6dbb
00000020: 57f8 0a3c 5cd5 1fbd d04b c1bc 387b 043b
00000030: a698 54bc 686f 4cbb 4939 103c d5c1 e13c
00000040: 627b f8bc 305b dbbb ea29 f33c 21ce 85bc
00000050: 420f abbc 4469 a4bc aaec 243c 7dda e4b9
00000060: 3694 a23c 3da8 ccba ecb5 1e3d d009 1f3b
00000070: 6271 e8bc d1c6 8fbc cfac 023d 141d d83c
00000080: 8bfc 02bd b40c 11bc d4c3 05bd 03d9 76bc
00000090: 66fa fc3b fc2a 173d cd07 c8bc 7dc8 453d
000000a0: b72c 1e3b 4a56 55bc b4e7 a2bc 2928 38ba
000000b0: e173 273d 0d5c 56bd 6127 863c 31c9 e23c
000000c0: bf81 3dbc b60b 51bc c50a a23c 0fdd 9fbc
000000d0: 4f9e 09bb e26e 6dbc a3a6 353c eaac bd3c
000000e0: a78e d8bc db01 b33c 3ace 603d d975 51bd
000000f0: d93d bfbc bab4 ef3b f5e7 cfba dfca 1b3d

base.mlp.fc1.2.weight f4 [64]
0.96576333 1.0330569 1.009222 1.0211695 1.029358 0.98108363 0.9883717 1.014948
1.0211962 0.9874792 1.0011466 0.991296 1.0328386 1.0002371 0.96451324 1.0407046
0.9883977 0.9847414 0.9966173 1.0171887 0.9824905 1.0046861 1.0172915 1.020317
0.9614216 0.95987844 0.9863881 1.0309168 1.006638 1.0153649 1.0293536 0.9923535
0.9991433 0.98000157 0.98461205 0.9371753 1.0052965 0.97821534 0.99980444 0.99998224
1.011516 0.98267794 1.0054635 1.0077493 1.005874 0.93089145 1.0185037 1.0310334
0.9909218 1.0388077 0.99420506 0.9879698 1.0156577 0.98625135 0.9990927 1.0130267
1.0057815 1.0516409 1.0405034 0.97911865 0.9732185 1.0124938 0.9939929 0.9859195
00000000: 443c 773f 353b 843f 302e 813f afb5 823f
00000010: 01c2 833f 4c28 7b3f ed05 7d3f d1e9 813f
00000020: 8fb6 823f 70cb 7c3f 9225 803f 93c5 7d3f
00000030: 0e34 843f c507 803f 57ea 763f cf35 853f
00000040: a207 7d3f 0318 7c3f 5022 7f3f 3d33 823f
00000050: 7f84 7b3f 8e99 803f 9c36 823f bf99 823f
00000060: ba1f 763f 98ba 753f ee83 7c3f 15f5 833f
00000070: 84d9 803f 7af7 813f dcc1 833f e10a 7e3f
00000080: dbc7 7f3f 62e1 7a3f 890f 7c3f b8ea 6f3f
00000090: 8ead 803f 526c 7a3f 2ff3 7f3f d6fe 7f3f
000000a0: 5b79 813f c890 7b3f 07b3 803f eefd 803f
000000b0: 7bc0 803f e74e 6e3f 545e 823f e7f8 833f
000000c0: 0dad 7d3f a7f7 843f 3984 7e3f 97eb 7c3f
000000d0: 1201 823f f87a 7c3f 8ac4 7f3f dcaa 813f
000000e0: 73bd 803f 2b9c 863f 372f 853f 85a7 7a3f
000000f0: d924 793f 6699 813f 5276 7e3f 3865 7c3f

base.mlp.fc1.2.bias f4 [64]
0.043725155 0.022024818 0.023662401 0.011164068 -0.006552006 -0.043967634 -0.0046028406 0.032629985
-0.03221911 -0.008197184 -0.013433737 0.0045198286 -0.025879707 -0.0061195605 0.03377527 0.009358673
-0.0004115971 -0.01750026 0.005353249 -0.03177466 -0.008166043 -0.023472397 -0.017789133 -0.03446655
0.028884636 0.021832572 0.048271906 -0.0020877654 -0.025012335 0.009659985 0.020857243 0.04991352
-0.0033002587 0.013483852 -0.010225074 0.02819751 0.017856492 0.044562746 0.004057088 0.00088922784
-0.00822866 -0.04304219 -0.03492477 0.00948121 0.046587948 -0.0131805325 -0.018843517 -0.0038054085
-0.0071666655 -0.006532391 0.022107601 -0.03518528 -0.0021203128 -0.02643211 0.012416932 0.041643843
-0.013539764 -0.042184167 0.044324525 0.029465564 0.00839083 -0.000674449 -0.012663305 0.029035043
00000000: 2619 333d 646d b43c a7d7 c13c 7fe9 363c
00000010: 36b2 d6bb 6817 34bd 6dd3 96bb 05a7 053d
00000020: 2ff8 03bd 7b4d 06bc 2d19 5cbc 121b 943b
00000030: ae01 d4bc 9886 c8bb f057 0a3d 1f55 193c
00000040: a1cb d7b9 b55c 8fbc 4f6a af3b 2526 02bd
00000050: deca 05bc 2f49 c0bc 84ba 91bc cc2c 0dbd
00000060: 799f ec3c 39da b23c c3b8 453d e4d2 08bb
00000070: abe6 ccbc ea44 1e3c cfdc aa3c 1f72 4c3d
00000080: 2749 58bb 60eb 5c3c 1287 27bc 77fe e63c
00000090: c747 923c 6d87 363d 52f1 843b 121b 693a
000000a0: 80d1 06bc 024d 30bd 470d 0fbd 1457 1b3c
000000b0: 01d3 3e3d 29f3 57bc b85d 9abc 2964 79bb
000000c0: 59d6 eabb ab0d d6bb 001b b53c 711e 10bd
000000d0: f2f4 0abb 2788 d8bc 6370 4b3c bc92 2a3d
000000e0: e3d5 5dbc 4ec9 2cbd a28d 353d c461 f13c
000000f0: b179 093c 82cd 30ba c079 4fbc e6da ed3c

base.mlp.fc_h.0.weight f4 [64, 64]
0.13968797 0.253852 0.081046194 0.28016967 -0.16028441 0.2552454 -0.14495243 -0.116926216
-0.29509583 -0.29213488 -0.26066646 0.063791655 -0.12898757 0.05905423 -0.15878107 0.31097966
0.0005370667 0.10920287 0.18330005 -0.1954305 0.11215609 -0.40901545 0.02438525 -0.26552835
-0.0997798 -0.068365246 -0.0055722347 -0.25584903 0.0726663 -0.0053016692 0.11576822 -0.30931652
-0.06177865 -0.073783316 0.030136356 -0.41957074 0.15656008 -0.10253462 0.2787863 -0.31351206
-0.06731297 0.081131175 0.10780605 -0.041598137 0.008541017 -0.10777089 -0.060763557 -0.13003723
0.2284478 -0.16789955 0.17268954 0.2600822 -0.21895798 0.07923867 -0.06660615 0.008155262
-0.010001078 -0.029284082 -0.23577657 0.103402995 0.047141533 0.13234541 0.057006337 0.09476933
0.11644492 -0.016313313 0.016159633 0.1538716 -0.15601325 0.16884126 0.14042048 0.12896529
0.06023891 -0.14389724 0.071904905 -0.1610199 0.0048902226 0.2755155 -0.1247828 -0.18608436
0.17273341 -0.18407786 -0.21317345 -0.13018398 0.17797847 0.12822805 0.15826721 0.19928981
-0.11139818 -0.032584645 -0.029274803 -0.10088763 0.34709775 -0.096847765 0.44578928 -0.17665489
-0.06870565 0.08092083 0.06341693 -0.028339082 0.09219444 0.1059741 -0.031623393 0.033517156
0.25996912 0.20056458 -0.17401783 -0.10155156 0.32386237 -0.0090225125 -0.21491992 0.24065252
-0.33254454 0.25899595 0.14470801 0.08410916 -0.14948952 0.40426683 -0.14767073 -0.05704704
-0.07266926 -0.29382697 0.2864018 -0.09348253 0.11822436 0.0022209834 -0.21097125 -0.12396224
-0.28990886 -0.23559648 0.13379279 0.19159737 -0.2869195 -0.20593546 -0.18340391 -0.10855017
0.18185104 -0.07208602 -0.25836912 -0.019689877 0.09573237 -0.19644555 -0.048204277 -0.25670728
-0.1011749 0.32715508 0.12795928 -0.020820053 -0.033904195 0.31620172 -0.15195899 0.0056337113
-0.14734165 0.064703524 -0.2417444 0.14440545 0.067858994 -0.05096492 -0.0750226 0.04963902
0.029508946 -0.14337577 0.02440802 -0.027105886 -0.1634222 0.18766995 0.27141786 0.0024536632
0.44700137 0.20277266 0.12141946 -0.31332237 0.18803449 -0.2497954 -0.13162814 0.087508
0.07531785 -0.12448792 0.018654078 -0.24286422 -0.21570818 -0.04484421 -0.28053898 0.24853899
0.051501498 0.14353882 -0.060943782 0.25999376 0.040474374 -0.026628431 0.029862221 0.18227938
0.1006114 -0.051564112 0.21137297 0.06937189 -0.22330318 0.04946494 -0.041850243 0.033456217
0.18853427 0.24825698 -0.1595505 0.122113064 0.1615594 -0.06283457 -0.15920651 -0.4153201
0.15874624 0.2156711 0.32318282 -0.064093605 -0.1951266 -0.075613946 -0.23588626 0.068097025
0.317495 -0.049401984 0.16381837 -0.26666263 -0.09995522 -0.19547756 0.085334115 0.2144376
0.06300938 0.1381675 -0.15888768 -0.18777151 0.112177566 -0.1180635 0.11483486 -0.08546315
-0.28762707 0.012794398 -0.18607923 -0.05552519 -0.083609305 -0.28679705 0.2605012 0.12608108
-0.08011529 0.008756293 -0.09352846 0.09437359 0.24791838 0.22061242 -0.023414984 -0.056033738
-0.07956628 -0.34219185 0.26002836 0.10798709 -0.342699 0.021199951 0.21758544 0.0053605344
00000000: 5d0a 0f3e e4f8 813e 8cfb a53d 6672 8f3e
00000010: 9921 24be 86af 823e 696e 14be 0377 efbd
00000020: cd16 97be b492 95be 1376 85be 33a5 823d
00000030: 5115 04be d9e2 713d 8197 22be ba38 9f3e
00000040: f0c9 0c3a c1a5 df3d 02b3 3b3e ef1e 48be
00000050: 18b2 e53d 796a d1be 93c3 c73c 55f3 87be
00000060: 5a59 ccbd 1403 8cbd 4b97 b6bb a5fe 82be
00000070: 12d2 943d a0b9 adbb e317 ed3d bc5e 9ebe
00000080: 9c0b 7dbd b51b 97bd 85e0 f63c fad1 d6be
00000090: 4951 203e acfd d1bd 14bd 8e3e a784 a0be
000000a0: 62db 89bd 1a28 a63d 6bc9 dc3d cf62 2abd
000000b0: 9fef 0b3c fcb6 dcbd 35e3 78bd 7b28 05be
000000c0: 38ee 693e dced 2bbe 87d5 303e 7e29 853e
000000d0: 8536 60be e247 a23d ce68 88bd a69d 053c
000000e0: 90db 23bc 2ce5 efbc 6a6f 71be f3c4 d33d
000000f0: 7b17 413d 8e85 073e 7a7f 693d 6c16 c23d
00000100: ad7a ee3d 7fa3 85bc 3561 843c 8490 1d3e
00000110: f0c1 1fbe b9e4 2c3e 63ca 0f3e 7a0f 043e
00000120: 13bd 763d cc59 13be e142 933d 67e2 24be
00000130: 293e a03b 5e10 8d3e 208e ffbd e68c 3ebe
00000140: 07e1 303e e87e 3cbe 244a 5abe f34e 05be
00000150: fd3f 363e 374e 033e cd10 223e a112 4c3e
00000160: bb24 e4bd 7a77 05bd b6d1 efbc 2c9e cebd
00000170: ccb6 b13e 1f58 c6bd 7e3e e43e 05e5 34be
00000180: 8cb5 8cbd d2b9 a53d bce0 813d 5d27 e8bc
00000190: 70d0 bc3d f308 d93d 8887 01bd 4949 093d
000001a0: ac1a 853e cd60 4d3e bb31 32be 44fa cfbd
000001b0: 4ad1 a53e 29d3 13bc f813 5cbe 9d6d 763e
000001c0: 4743 aabe 1e9b 843e 562e 143e 6c41 ac3d
000001d0: c813 19be 10fc ce3e ff36 17be 28aa 69bd
000001e0: 9fd3 94bd 7d70 96be 42a3 923e c573 bfbd
000001f0: 9d1f f23d eb8d 113b d908 58be eadf fdbd
00000200: ef6e 94be 3440 71be fa00 093e 1a32 443e
00000210: 1de7 92be bfe0 52be 3cce 3bbe 8d4f debd
00000220: 2937 3a3e d6a1 93bd f548 84be aa4c a1bc
00000230: 550f c43d 0629 49be d971 45bd 236f 83be
00000240: c934 cfbd df80 a73e c207 033e d18e aabc
00000250: 20df 0abd 31e5 a13e 239b 1bbe ff9a b83b
00000260: bbe0 16be 4883 843d d88b 77be 06df 133e
00000270: a8f9 8a3d 98c0 50bd 73a5 99bd 4952 4b3d
00000280: bfbc f13c 19d1 12be 54f3 c73c 2a0d debc
00000290: 2658 27be 8d2c 403e 48f7 8a3e a3cd 203b
000002a0: 5ddd e43e a3a3 4f3e c4aa f83d ca6b a0be
000002b0: 1d8c 403e 5eca 7fbe 87c9 06be 6537 b33d
000002c0: 3f40 9a3d 86f3 febd 70d0 983c 66b1 78be
000002d0: 9be2 5cbe 90ae 37bd cea2 8fbe 0181 7e3e
000002e0: 3cf3 523d d7fb 123e 30a0 79bd e71d 853e
000002f0: 75c8 253d de23 dabc 9ea1 f43c 72a7 3a3e
00000300: 5a0d ce3d e434 53bd 2872 583e d912 8e3d
00000310: 97a9 64be c09b 4a3d 296b 2bbd 6309 093d
00000320: 210f 413e 1437 7e3e 3561 23be 6a16 fa3d
00000330: d46f 253e 69af 80bd 0807 23be d6a4 d4be
00000340: 608e 223e e3d8 5c3e 3878 a53e 8243 83bd
00000350: 44cf 47be 7cdb 9abd 2b8c 71be 7476 8b3d
00000360: b48e a23e bc59 4abd 01c0 273e 0188 88be
00000370: 53b5 ccbd 452b 48be a7c3 ae3d 8895 5b3e
00000380: 100b 813d c87b 0d3e 74b3 22be 2d47 40be
00000390: 5abd e53d 47cb f1bd 8a2e eb3d 4e07 afbd
000003a0: db43 93be 989f 513c 8e8b 3ebe 626e 63bd
000003b0: 5b3b abbd 10d7 92be 6a60 853e 661b 013e
000003c0: 7c13 a4bd 8e76 0f3c d98b bfbd f146 c13d
000003d0: 51de 7d3e 39e8 613e c8d0 bfbc a283 65bd
000003e0: a5f3 a2bd c533 afbe 7022 853e 5628 dd3d
000003f0: 3e76 afbe 85ab ad3c b8ce 5e3e 6ca7 af3b

base.mlp.fc_h.0.bias f4 [64]
0.0 0.0 0.0 0.0 0.0 0.0 0.0 0.0
0.0 0.0 0.0 0.0 0.0 0.0 0.0 0.0
0.0 0.0 0.0 0.0 0.0 0.0 0.0 0.0
0.0 0.0 0.0 0.0 0.0 0.0 0.0 0.0
0.0 0.0 0.0 0.0 0.0 0.0 0.0 0.0
0.0 0.0 0.0 0.0 0.0 0.0 0.0 0.0
0.0 0.0 0.0 0.0 0.0 0.0 0.0 0.0
0.0 0.0 0.0 0.0 0.0 0.0 0.0 0.0
00000000: 0000 0000 0000 0000 0000 0000 0000 0000
00000010: 0000 0000 0000 0000 0000 0000 0000 0000
00000020: 0000 0000 0000 0000 0000 0000 0000 0000
00000030: 0000 0000 0000 0000 0000 0000 0000 0000
00000040: 0000 0000 0000 0000 0000 0000 0000 0000
00000050: 0000 0000 0000 0000 0000 0000 0000 0000
00000060: 0000 0000 0000 0000 0000 0000 0000 0000
00000070: 0000 0000 0000 0000 0000 0000 0000 0000
00000080: 0000 0000 0000 0000 0000 0000 0000 0000
00000090: 0000 0000 0000 0000 0000 0000 0000 0000
000000a0: 0000 0000 0000 0000 0000 0000 0000 0000
000000b0: 0000 0000 0000 0000 0000 0000 0000 0000
000000c0: 0000 0000 0000 0000 0000 0000 0000 0000
000000d0: 0000 0000 0000 0000 0000 0000 0000 0000
000000e0: 0000 0000 0000 0000 0000 0000 0000 0000
000000f0: 0000 0000 0000 0000 0000 0000 0000 0000

base.mlp.fc_h.2.weight f4 [64]
1.0 1.0 1.0 1.0 1.0 1.0 1.0 1.0
1.0 1.0 1.0 1.0 1.0 1.0 1.0 1.0
1.0 1.0 1.0 1.0 1.0 1.0 1.0 1.0
1.0 1.0 1.0 1.0 1.0 1.0 1.0 1.0
1.0 1.0 1.0 1.0 1.0 1.0 1.0 1.0
1.0 1.0 1.0 1.0 1.0 1.0 1.0 1.0
1.0 1.0 1.0 1.0 1.0 1.0 1.0 1.0
1.0 1.0 1.0 1.0 1.0 1.0 1.0 1.0
00000000: 0000 803f 0000 803f 0000 803f 0000 803f
00000010: 0000 803f 0000 803f 0000 803f 0000 803f
00000020: 0000 803f 0000 803f 0000 803f 0000 803f
00000030: 0000 803f 0000 803f 0000 803f 0000 803f
00000040: 0000 803f 0000 803f 0000 803f 0000 803f
00000050: 0000 803f 0000 803f 0000 803f 0000 803f
00000060: 0000 803f 0000 803f 0000 803f 0000 803f
00000070: 0000 803f 0000 803f 0000 803f 0000 803f
00000080: 0000 803f 0000 803f 0000 803f 0000 803f
00000090: 0000 803f 0000 803f 0000 803f 0000 803f
000000a0: 0000 803f 0000 803f 0000 803f 0000 803f
000000b0: 0000 803f 0000 803f 0000 803f 0000 803f
000000c0: 0000 803f 0000 803f 0000 803f 0000 803f
000000d0: 0000 803f 0000 803f 0000 803f 0000 803f
000000e0: 0000 803f 0000 803f 0000 803f 0000 803f
000000f0: 0000 803f 0000 803f 0000 803f 0000 803f

base.mlp.fc_h.2.bias f4 [64]
0.0 0.0 0.0 0.0 0.0 0.0 0.0 0.0
0.0 0.0 0.0 0.0 0.0 0.0 0.0 0.0
0.0 0.0 0.0 0.0 0.0 0.0 0.0 0.0
0.0 0.0 0.0 0.0 0.0 0.0 0.0 0.0
0.0 0.0 0.0 0.0 0.0 0.0 0.0 0.0
0.0 0.0 0.0 0.0 0.0 0.0 0.0 0.0
0.0 0.0 0.0 0.0 0.0 0.0 0.0 0.0
0.0 0.0 0.0 0.0 0.0 0.0 0.0 0.0
00000000: 0000 0000 0000 0000 0000 0000 0000 0000
00000010: 0000 0000 0000 0000 0000 0000 0000 0000
00000020: 0000 0000 0000 0000 0000 0000 0000 0000
00000030: 0000 0000 0000 0000 0000 0000 0000 0000
00000040: 0000 0000 0000 0000 0000 0000 0000 0000
00000050: 0000 0000 0000 0000 0000 0000 0000 0000
00000060: 0000 0000 0000 0000 0000 0000 0000 0000
00000070: 0000 0000 0000 0000 0000 0000 0000 0000
00000080: 0000 0000 0000 0000 0000 0000 0000 0000
00000090: 0000 0000 0000 0000 0000 0000 0000 0000
000000a0: 0000 0000 0000 0000 0000 0000 0000 0000
000000b0: 0000 0000 0000 0000 0000 0000 0000 0000
000000c0: 0000 0000 0000 0000 0000 0000 0000 0000
000000d0: 0000 0000 0000 0000 0000 0000 0000 0000
000000e0: 0000 0000 0000 0000 0000 0000 0000 0000
000000f0: 0000 0000 0000 0000 0000 0000 0000 0000

base.mlp.fc2.0.0.weight f4 [64, 64]
0.13356835 0.2624726 0.08533511 0.30509883 -0.1725603 0.23867716 -0.15159053 -0.101098
-0.27709055 -0.25762853 -0.2544146 0.027413767 -0.16118783 0.0488006 -0.12599245 0.36666572
0.007005521 0.08384242 0.17981142 -0.20597583 0.09916621 -0.3787548 0.004640449 -0.27054283
-0.09383694 -0.095115855 0.024921872 -0.28664643 0.05447483 0.021524567 0.097001776 -0.25865558
-0.057232313 -0.04469408 0.011053363 -0.40676257 0.1515925 -0.13128905 0.2610324 -0.3399382
-0.03953788 0.09461527 0.14228223 -0.040896844 -0.0033808586 -0.09186366 -0.09279066 -0.15329623
0.21368328 -0.1650425 0.13365944 0.27145448 -0.27684197 0.0979727 -0.07030326 0.04682974
0.035347693 -0.030397946 -0.2552683 0.09731687 0.05103875 0.16283175 0.047179826 0.10607996
0.117374435 -0.022576826 -0.02721925 0.12809548 -0.12887043 0.1659159 0.16913825 0.09017283
0.051389262 -0.16549088 0.05433569 -0.17405695 0.027135566 0.27299243 -0.13052547 -0.17481294
0.2173765 -0.17479114 -0.18658663 -0.14053753 0.17287742 0.11281287 0.13106191 0.23223013
-0.13715486 -0.04129304 -0.0024432936 -0.0965652 0.33620194 -0.113234736 0.42529556 -0.1605552
-0.05060302 0.13522576 0.044695772 -0.030240089 0.08186591 0.10680753 0.0160343 0.069708526
0.3056327 0.1465161 -0.16186585 -0.122949146 0.33401293 -0.023729846 -0.20914662 0.24568242
-0.32225323 0.2390125 0.13401848 0.05628126 -0.13940935 0.40979847 -0.17801443 -0.052369516
-0.035324834 -0.30044797 0.31404838 -0.09144157 0.12988007 -0.0011499928 -0.20596856 -0.099508755
-0.31138077 -0.23227216 0.1450737 0.19412738 -0.2925324 -0.20065819 -0.1678396 -0.0949438
0.2174123 -0.08714671 -0.25235382 -0.028772479 0.09251795 -0.19478019 -0.026318291 -0.26031107
-0.08031225 0.32019266 0.07691509 -0.043855213 -0.06802353 0.35286736 -0.17888828 0.018360516
-0.1625672 0.0627441 -0.25491703 0.10591857 0.054461095 -0.030540202 -0.08678886 0.03473933
0.0366143 -0.17851985 0.028226933 -0.019434312 -0.1443383 0.17849897 0.24653602 -0.011815167
0.41746673 0.23503995 0.08716293 -0.29832795 0.20715983 -0.25497946 -0.14410833 0.09321432
0.086682536 -0.09466698 0.002758145 -0.24383822 -0.23211138 -0.026684746 -0.2809882 0.2654169
0.03830644 0.15378675 -0.05120119 0.25462008 0.048632596 -0.021318203 0.016447231 0.17517042
0.12062667 -0.062441483 0.20551829 0.06254853 -0.23402931 0.07274372 -0.050181963 0.016124468
0.19090201 0.2144923 -0.18968494 0.12448349 0.16174106 -0.067568846 -0.1712588 -0.4079749
0.15908621 0.22189286 0.30622444 -0.052471243 -0.18113391 -0.09743344 -0.20799173 0.11080582
0.261827 -0.010004307 0.1911051 -0.19191054 -0.060500786 -0.2342871 0.091885366 0.22232172
0.05573336 0.15070662 -0.1259683 -0.18921562 0.09872847 -0.14314236 0.11528254 -0.107184194
-0.2946822 -0.02385922 -0.19391447 -0.031505544 -0.04646227 -0.32028183 0.25190374 0.14875042
-0.10845752 -0.013616019 -0.07099245 0.09457677 0.3188357 0.21999681 -0.047004204 -0.005449629
-0.099979736 -0.36525548 0.283045 0.08370357 -0.3446752 0.01732289 0.23268813 0.0001306276
00000000: 24c6 083e cf62 863e 2dc4 ae3d ea35 9c3e
00000010: a6b3 30be c967 743e 8c3a 1bbe 780c cfbd
00000020: d0de 8dbe e3e7 83be a142 82be d692 e03c
00000030: 6c0e 25be 23e3 473d 2a04 01be 9cbb bb3e
00000040: 928e e53b 93b5 ab3d 7c20 383e 54eb 52be
00000050: a717 cb3d 26ec c1be e80e 983b 9784 8abe
00000060: 952d c0bd 1acc c2bd f428 cc3c 52c3 92be
00000070: 0021 5f3d 4a54 b03c dea8 c63d 816e 84be
00000080: 6e6c 6abd 2411 37bd 2a19 353c 2f43 d0be
00000090: 103b 1b3e a370 06be 0aa6 853e 610c aebe
000000a0: 79f2 21bd a7c5 c13d 6fb2 113e 7383 27bd
000000b0: 6591 5dbb 0423 bcbd 0809 bebd b0f9 1cbe
000000c0: cacf 5a3e e700 29be 05de 083e 15fc 8a3e
000000d0: 3bbe 8dbe e9a5 c83d 28fb 8fbd 8bd0 3f3d
000000e0: bec8 103d 1d05 f9bc 87b2 82be 114e c73d
000000f0: 020e 513d 5ebd 263e a23f 413d 7340 d93d
00000100: 0262 f03d 09f3 b8bc e8fa debc 762b 033e
00000110: 9cf6 03be dce5 293e 9432 2d3e 88ac b83d
00000120: 8c7d 523d 7176 29be 1a8f 5e3d fc3b 32be
00000130: 684b de3c aac5 8b3e 78a8 05be 2a02 33be
00000140: f297 5e3e 73fc 32be 9110 3fbe 12e9 0fbe
00000150: c706 313e 6f0a e73d 1835 063e bccd 6d3e
00000160: 5372 0cbe e422 29bd aa1f 20bb fac3 c5bd
00000170: a922 ac3e 9de7 e7bd 57c0 d93e 9568 24be
00000180: 1d45 4fbd 9f78 0a3e ea12 373d 10ba f7bc
00000190: 50a9 a73d e8bd da3d 5d5a 833c 58c3 8e3d
000001a0: e47b 9c3e 5108 163e 29c0 25be c3cc fbbd
000001b0: be03 ab3e 1865 c2bc 882a 56be 2c94 7b3e
000001c0: 60fe a4be b1bf 743e 243c 093e 2e87 663d
000001d0: 53c1 0ebe 1bd1 d13e 6a49 36be 6b81 56bd
000001e0: c6b0 10bd 51d4 99be f3ca a03e b845 bbbd
000001f0: 48ff 043e 5bbb 96ba 6ce9 52be 3fcb cbbd
00000200: 4d6d 9fbe c1d8 6dbe 338e 143e 54c9 463e
00000210: cfc6 95be 5779 4dbe 25de 2bbe e571 c2bd
00000220: 54a1 5e3e f979 b2bd 8534 81be 43b4 ebbc
00000230: 0d7a bd3d 7574 47be 7599 d7bc 7e47 85be
00000240: c07a a4bd 4bf0 a33e a985 9d3d 86a1 33bd
00000250: ec4f 8bbd 08ab b43e 7d2e 37be cb68 963c
00000260: 0478 26be fb7f 803d 7c84 82be d6eb d83d
00000270: 9912 5f3d 722f fabc 5cbe b1bd d44a 0e3d
00000280: e0f8 153d e8cd 36be 2b3c e73c b534 9fbc
00000290: 6bcd 13be 6fc8 363e f073 7c3e 6794 41bc
000002a0: 33be d53e 50ae 703e 7a82 b23d 71be 98be
000002b0: b521 543e ab8c 82be 2291 13be 26e7 be3d
000002c0: 9d86 b13d c3e0 c1bd ffc1 343b bab0 79be
000002d0: 9bae 6dbe f899 dabc afdd 8fbe b9e4 873e
000002e0: 37e7 1c3d 467a 1d3e 57b8 51bd 905d 823e
000002f0: f932 473d 83a3 aebc 58bc 863c e05f 333e
00000300: 1e0b f73d a4c2 7fbd 6373 523e 7219 803d
00000310: 61a5 6fbe a9fa 943d 9a8b 4dbd 7617 843c
00000320: d17b 433e dfa3 5b3e c53c 42be 33f1 fe3d
00000330: 739f 253e 8961 8abd 785e 2fbe 16e2 d0be
00000340: 7fe7 223e e237 633e 73c9 9c3e 16ec 56bd
00000350: 2b7b 39be 2f8b c7bd c9fb 54be 29ee e23d
00000360: 300e 863e 1be9 23bc 0eb1 433e 3284 44be
00000370: accf 77bd f5e8 6fbe 652e bc3d 4ea8 633e
00000380: aa48 643d d652 1a3e d6fd 00be bdc1 41be
00000390: 2732 ca3d e993 12be 4119 ec3d 6383 dbbd
000003a0: 96e0 96be 6974 c3bc 8491 46be f50b 01bd
000003b0: 394f 3ebd fbfb a3be 87f9 803e 0852 183e
000003c0: fa1e debd b915 5fbc 7d64 91bd 77b1 c13d
000003d0: 6f3e a33e d846 613e 7b87 40bd cd92 b2bb
000003e0: 2dc2 ccbd c402 bbbe 46eb 903e c76c ab3d
000003f0: 4579 b0be bce8 8d3c cc45 6e3e 14f9 0839

base.mlp.fc2.0.0.bias f4 [64]
0.0013694797 0.0042211255 0.0005793143 0.027912123 0.024394039 0.029690705 -0.017096646 0.012852202
-0.0031331289 -0.008392318 -0.024342585 -0.038607646 0.02432698 0.02733543 -0.020223184 0.046815302
-0.009887561 0.020453695 -0.020935193 -0.030586354 -0.017195912 0.004479298 -0.064025246 0.0019221366
-0.004251982 0.0038511145 0.0001592438 0.016281536 -3.0777771e-06 -0.0008357129 0.02180047 -0.0341992
-0.0030349211 -0.03892398 0.004479211 0.024487577 0.040806893 0.0053040823 -0.021490034 -0.04251106
0.028118396 0.014582352 0.0030780819 -0.038011517 -0.007854817 -0.011495313 -0.009798431 0.007626994
-0.04707794 0.0018522637 0.03432563 0.0063104355 0.0068353834 -0.022648675 0.0027538503 0.013766398
-0.03377789 -0.04408393 -0.026503436 -0.005648351 0.008243096 0.014978449 -0.048432697 -0.035957955
00000000: 1d80 b33a 5e51 8a3b 20dd 173a f7a7 e43c
00000010: 02d6 c73c ec39 f33c 440e 8cbc 0b92 523c
00000020: 2e55 4dbb ef7f 09bc 1a6a c7bc 0d23 1ebd
00000030: 6049 c73c 8dee df3c 17ab a5bc 67c1 3f3d
00000040: 70ff 21bc 828e a73c 4880 abbc 3c90 fabc
00000050: 71de 8cbc 13c7 923b ab1f 83bd 34f0 fb3a
00000060: 3654 8bbb fb62 7c3b affa 2639 db60 853c
00000070: cf8b 4eb6 be13 5bba e696 b23c 7614 0cbd
00000080: 87e5 46bb c06e 1fbd 58c6 923b 2c9a c83c
00000090: 2125 273d decd ad3b de0b b0bc 1420 2ebd
000000a0: 8d58 e63c d1ea 6e3c a5b9 493b f7b1 1bbd
000000b0: 7eb1 00bc d656 3cbc 9989 20bc ddeb f93b
000000c0: ccd4 40bd a8c7 f23a 0899 0c3d c5c7 ce3b
000000d0: 5afb df3b b789 b9bc f179 343b 758c 613c
000000e0: af5a 0abd 5a91 34bd bc1d d9bc cd15 b9bb
000000f0: 0d0e 073c 2b68 753c 5d61 46bd a648 13bd

base.mlp.fc2.0.2.weight f4 [64]
1.0145183 1.0257686 1.0295485 1.033332 1.0295733 1.0325903 1.0678756 1.0290353
1.0424461 1.0167022 1.0310131 1.0174112 1.0701145 1.0351479 1.0095714 1.0603157
1.038468 1.0574181 1.0353963 0.9970993 1.0172193 1.0354289 1.0376313 1.0356835
1.0373178 1.0563918 1.0717207 1.0482948 1.0315577 1.0143757 1.0530777 1.0183095
1.0395846 0.99120796 1.0222211 1.0525894 1.046697 1.0377092 1.0034527 0.986482
1.0254623 1.0263944 1.0077313 1.0219673 1.0276198 1.0349851 1.0318918 1.013673
1.0218581 1.0358542 1.0094025 1.0709451 1.0206065 1.0138687 1.0364827 1.0390881
1.0137316 1.0207049 1.0266267 1.0285317 1.0306207 1.0313447 1.0426937 1.0328625
00000000: bcdb 813f 634c 833f 3fc8 833f 3944 843f
00000010: 0fc9 833f eb2b 843f 26b0 883f 6eb7 833f
00000020: e06e 853f 4c23 823f 3df8 833f 883a 823f
00000030: 83f9 883f ba7f 843f a339 813f 6db8 873f
00000040: 85ec 843f 7a59 873f de87 843f e641 7f3f
00000050: 3e34 823f ef88 843f 1ad1 843f 4791 843f
00000060: d4c6 843f d937 873f 252e 893f 862e 863f
00000070: 150a 843f 10d7 813f 40cb 863f f757 823f
00000080: 1c11 853f cebf 7d3f 24d8 823f 40bb 863f
00000090: 2bfa 853f a8d3 843f 2371 803f 168a 7c3f
000000a0: 5942 833f e460 833f 57fd 803f d3cf 823f
000000b0: 0c89 833f 647a 843f 0815 843f 09c0 813f
000000c0: 3fcc 823f df96 843f 1a34 813f bb14 893f
000000d0: 3ca3 823f 73c6 813f 77ab 843f d700 853f
000000e0: f5c1 813f 75a6 823f 8168 833f eda6 833f
000000f0: 61eb 833f 1a03 843f fd76 853f d734 843f

base.mlp.fc2.0.2.bias f4 [64]
0.022818979 0.010415631 0.009939665 -0.011056643 -0.014214314 0.01647827 -0.0138531 -0.0077443724
-0.010300682 -0.024891729 -0.020670673 -0.033548355 0.031910576 0.03924462 -0.023068765 0.03490933
-0.00016072798 0.01536366 -0.009150687 -0.026134068 -0.04112782 0.00420843 -0.021801015 0.011772754
0.012231434 -0.02313979 -0.032498788 0.028559538 -0.025496608 0.028506337 -0.0009127089 -0.020332875
0.029356994 0.013711506 0.024677942 -0.0044255005 0.03168565 0.034244195 -0.027764253 -0.022570593
0.0027215707 0.0063076676 0.014176085 0.02775558 -0.014816017 0.0026947483 0.0091922665 -0.01915682
-0.020537194 -0.009611933 0.035692386 0.0024307629 -0.020809025 -0.0024676025 0.0077213035 0.0003408527
-0.014768035 -0.025538998 -0.01800949 0.014677277 -0.0063178376 0.034788147 -0.036153674 -0.022697141
00000000: deee ba3c 53a6 2a3c fad9 223c ec26 35bc
00000010: 27e3 68bc 70fd 863c 1df8 62bc 81c4 fdbb
00000020: 31c4 28bc bde9 cbbc 8b55 a9bc 006a 09bd
00000030: aab4 023d f7be 203d b5fa bcbc 16fd 0e3d
00000040: 1789 28b9 dcb7 7b3c c3ec 15bc 1d17 d6bc
00000050: a575 28bd dfe6 893b 0b98 b2bc 82e2 403c
00000060: 5a66 483c a88f bdbc 731d 05bd b1f5 e93c
00000070: 43de d0bc 1f86 e93c dc42 6fba 2191 a6bc
00000080: 147e f03c 39a6 603c 6529 ca3c ca03 91bb
00000090: d0c8 013d a443 0c3d dc71 e3bc f7e5 b8bc
000000a0: 615c 323b 8db0 ce3b cf42 683c ac5f e33c
000000b0: e1be 72bc 609a 303b 299b 163c c3ee 9cbc
000000c0: 9e3d a8bc 5e7b 1dbc 2e32 123d 6f4d 1f3b
000000d0: b077 aabc 80b7 21bb fd02 fd3b 7ab4 b239
000000e0: a1f5 71bc 2937 d1bc a388 93bc f678 703c
000000f0: dd05 cfbb 047e 0e3d e015 14bd 5bef b9bc

act.action_out.linear.weight f4 [10, 64]
0.014376438 -0.013893918 0.025312232 -0.045018766 0.0022066988 0.015810758 -0.060931165 0.005344138
-0.0052585257 -0.0033608493 0.021950474 0.05688707 0.045157876 0.018859252 0.012361006 -0.023809507
-0.05046031 -0.04302384 -0.03963554 -0.015935773 0.020513702 -0.021966934 0.016401539 -0.04310313
0.0089606475 0.07354314 -0.042169034 0.018681068 -0.022551356 -0.007174957 -0.059188817 -0.013403387
0.0068437895 0.025579508 0.032224298 0.0010715999 0.005322206 -0.034315895 0.016209973 0.031054487
-0.029937774 -0.0070186043 0.0069555845 0.02739781 0.008733932 -0.0052256864 -0.004460935 -0.008633333
0.0026648042 0.041912276 0.032219406 0.036038373 -0.037295595 0.012119437 0.059895545 0.0646146
0.019050824 0.035550836 0.023748804 -0.021362888 -0.0097254785 -0.03852986 0.04524424 0.0031430556
-0.002870559 -0.027737463 -0.012903126 0.020934248 -0.0008466284 -0.016177142 -0.005476089 -0.039193846
0.008136059 0.026170593 0.0059798094 -0.010839961 0.04364233 -0.028670628 -0.00062459585 0.04024853
0.037570223 -0.035853047 -0.029100236 -0.004124957 -0.0003971004 0.02432521 -0.0042585176 -0.0009579618
-0.01829634 0.015615793 -0.059462745 0.029003654 0.013828428 0.0077868043 -0.012765064 0.0020014616
0.0145382555 0.011459954 0.017366722 0.08222333 0.012177279 -0.019282019 -0.004116333 -0.0050848373
-0.025077187 -0.03326183 -0.015540601 0.006183916 0.018928353 -0.026360575 -0.014143968 0.006509191
0.0016455668 0.01361641 -0.0030390122 0.016796278 -0.005665898 0.01731467 -0.0046404744 0.0051991274
-0.048651915 -0.025806189 0.024791272 0.009655013 0.011653421 0.022567714 -0.026105665 -0.030586978
-0.01516247 0.02555386 -0.01877777 0.0063788407 -0.0030040462 -0.004571024 -0.0139088025 0.011335973
-0.03929851 -0.02569771 0.055155456 0.0027605852 0.023547752 -0.009484445 0.03127956 -0.05680551
-0.029537397 -0.0007309535 0.024865115 -0.0101301 0.014690548 0.007643016 -0.011817344 0.030310992
0.026703283 0.01346896 0.02610868 0.009720644 0.001893056 -0.03880598 -0.027647959 -0.0050655752
0.018457638 -0.008872383 0.026088597 0.03301665 -0.01799369 0.014451726 -0.0035273484 -0.0057358597
-0.020127362 -0.045203667 -0.02650887 0.04907743 -0.028933693 -0.030704988 -0.0027412698 -0.0061474005
0.0040280065 0.013121714 -0.0129917385 0.033703044 -0.009291153 -0.016399642 0.004872687 -0.04629085
0.024444133 0.026512042 0.01440907 -0.039127942 0.01698087 0.009942039 0.0016477238 0.02042098
0.030842295 -0.038373172 0.018666131 0.012263102 -0.029819973 -0.019119192 0.013594651 0.016237415
-0.00483118 0.00095885166 -0.04022714 0.025640208 -0.022647157 -0.031168297 -0.019323686 -0.017230276
0.0043677674 0.045256607 -0.014302933 0.026767965 0.037413497 -0.05203477 0.0110968 -7.946251e-05
0.00897301 0.045504205 -0.0074665677 -0.0036835212 0.027931884 -0.023293965 -0.030416526 0.010856354
-0.0073164087 0.015822075 0.0052346964 0.025812 -0.021418475 -0.0059711114 0.00060408603 -0.010982663
0.032903407 0.0010303054 0.026380705 -0.03281514 -0.040011022 0.040765755 -0.01695056 -0.0073967245
1.6267242e-05 -0.014125106 -0.018068913 0.04377787 0.003207603 0.026156241 -0.00572165 0.02667005
-0.004747524 0.01297434 -0.0018661919 -0.020345282 -0.03883884 -0.05521939 0.06638979 0.054148056
00000000: 278b 6b3c 51a3 63bc 995b cf3c 9965 38bd
00000010: 439e 103b 9085 813c f592 79bd e11d af3b
00000020: b64f acbb b241 5cbb 7bd1 b33c 6b02 693d
00000030: 77f7 383d b87e 9a3c d185 4a3c 280c c3bc
00000040: 78af 4ebd c439 30bd e058 22bd bd8b 82bc
00000050: 5a0c a83c 00f4 b3bc 855c 863c e88c 30bd
00000060: aecf 123c c99d 963d 70b9 2cbd 0a09 993c
00000070: 9fbd b8bc e71b ebbb f96f 72bd e199 5bbc
00000080: de41 e03b 1e8c d13c a0fd 033d ed74 8c3a
00000090: e665 ae3b d38e 0cbd c7ca 843c fb65 fe3c
000000a0: 1040 f5bc 52fc e5bb aceb e33b 5f71 e03c
000000b0: c418 0f3c 3c3c abbb 092d 92bb d372 0dbc
000000c0: ffa3 2e3b 35ac 2b3d 7ff8 033d f99c 133d
000000d0: 44c3 18bd 9a90 463c 0855 753d a954 843d
000000e0: 7910 9c3c c19d 113d da8c c23c 3901 afbc
000000f0: 9d57 1fbc 7dd1 1dbd 0652 393d b9fb 4d3b
00000100: fd1f 3cbb ad39 e3bc a267 53bc 4d7e ab3c
00000110: 45f0 5dba ed85 84bc c470 b3bb ba89 20bd
00000120: 1b4d 053c b663 d63c 47f2 c33b 179a 31bc
00000130: 4dc2 323d aade eabc ebbb 23ba a5db 243d
00000140: 3ce3 193d a5da 12bd 9e63 eebc a62a 87bb
00000150: ea31 d0b9 aa45 c73c 098b 8bbb ba1f 7bba
00000160: 35e2 95bc 62d9 7f3c 358f 73bd 1299 ed3c
00000170: a290 623c 7328 ff3b 8f24 51bc f42a 033b
00000180: dd31 6e3c 88c2 3b3c a844 8e3c b564 a83d
00000190: 3683 473c 53f5 9dbc 4ee2 86bb b59e a6bb
000001a0: ac6e cdbc 8f3d 08bd 019e 7ebc 72a2 ca3b
000001b0: a20f 9b3c 22f2 d7bc 1abc 67bc 0d4b d53b
000001c0: 0fb0 d73a 5d17 5f3c 2a2a 47bb 5998 893c
000001d0: ffa8 b9bb 7fd7 8d3c 1f0f 98bb 715d aa3b
000001e0: 3b47 47bd 8067 d3bc 1117 cb3c 0f30 1e3c
000001f0: feed 3e3c eddf b83c 8cdb d5bc 8b91 fabc
00000200: 026c 78bc 5456 d13c d7d3 99bc 9805 d13b
00000210: 88df 44bb 87c8 95bb bfe1 63bc 84ba 393c
00000220: 79f7 20bd 0184 d2bc b0ea 613d efea 343b
00000230: 37e7 c03c a564 1bbc ff1e 003d e5ac 68bd
00000240: 69f8 f1bc 769d 3fba edb1 cb3c b8f8 25bc
00000250: a0b0 703c 4472 fa3b 899d 41bc c24e f83c
00000260: d8c0 da3c eaac 5c3c dfe1 d53c 5643 1f3c
00000270: 6b20 f83a 05f3 1ebd f97d e2bc 20fd a5bb
00000280: 7934 973c 795d 11bc c1b7 d53c 773c 073d
00000290: 8167 93bc efc6 6c3c 162b 67bb e1f3 bbbb
000002a0: 23e2 a4bc 7b27 39bd 2129 d9bc 6a05 493d
000002b0: 5a06 edbc 0789 fbbc e0a6 33bb 2270 c9bb
000002c0: 5efd 833b 75fc 563c 4ddb 54bc 340c 0a3d
000002d0: ec39 18bc 8b58 86bc 10ab 9f3b 799b 3dbd
000002e0: 103f c83c c82f d93c 0514 6c3c 9f44 20bd
000002f0: 771b 8b3c efe3 223c 70f8 d73a e649 a73c
00000300: fba8 fc3c 302d 1dbd b7e9 983c 2eeb 483c
00000310: 0449 f4bc da9f 9cbc 19bc 5e3c 5404 853c
00000320: e04e 9ebb 725b 7b3a 37c5 24bd 6a0b d23c
00000330: 8886 b9bc a854 ffbc b54c 9ebc 8226 8dbc
00000340: 7d1f 8f3b fe5e 393d d956 6abc 7e48 db3c
00000350: e53e 193d 6922 55bd 5acf 353c 1ca5 a6b8
00000360: 8803 133c 9e62 3a3d 1caa f4bb 3b67 71bb
00000370: 68d1 e43c fcd2 bebc 142c f9bc d9de 313c
00000380: 7cbe efbb 4c9d 813c d187 ab3b b073 d33c
00000390: cc75 afbc 50a9 c3bb 875b 1e3a a1f0 33bc
000003a0: b9c5 063d 500b 873a 591c d83c 2b69 06bd
000003b0: 99e2 23bd fef9 263d e7db 8abc 3960 f2bb
000003c0: a375 8837 fd6c 67bc 4205 94bc 6c50 333d
000003d0: a636 523b 9d45 d63c ae7c bbbb 267b da3c
000003e0: 1e91 9bbb 5392 543c 029b f4ba 26ab a6bc
000003f0: 7a15 1fbd ba2d 62bd 5ff7 873d 5aca 5d3d

act.action_out.linear.bias f4 [10]
0.012287648 -0.019293217 0.0069778427 -0.0062259524 0.007151467 -0.011494468 -0.03294464 -0.0012660522
0.0034685833 0.025699666
00000000: 2252 493c cf0c 9ebc 63a6 e43b 1303 ccbb
00000010: da56 ea3b 4b53 3cbc f5f0 06bd aaf1 a5ba
00000020: 2c51 633b 1b88 d23c
