light_mappo-main/results/MyEnv/MyEnv/mappo/check/run37/models/critic.pt (torch, 52149 bytes, 15 tensors)

base.feature_norm.weight f4 [45]
00000000: 41be 823f ace9 843f 4484 833f 19e4 7a3f
00000010: 33da 823f 0e45 763f 3ca7 7d3f 088b 773f
00000020: 3e4c 823f 1249 823f a9a6 823f 7626 833f
00000030: 666a 813f 9059 7a3f 0e75 833f dc3e 7b3f
00000040: fc0d 783f ba65 843f 6702 773f 8920 763f
00000050: 4bc2 813f 6d31 833f 42b5 783f fb1b 843f
00000060: 39b4 7b3f 167b 793f 7c65 813f b1fb 7a3f
00000070: d10b 7c3f f1e8 773f dca5 793f be10 853f
00000080: d51e 783f f5b6 7f3f e5c4 783f 2f43 823f
00000090: 9278 803f 3f0c 833f 318d 853f f81d 7b3f
000000a0: 65ad 7e3f d6b2 7a3f e1e5 7d3f 8ed7 7d3f
000000b0: d6c0 823f
1.0214311 1.0383811 1.0274739 0.980043 1.0222839 0.9619912 0.99083304 0.9669652
1.0179517 1.0178549 1.0207111 1.0246112 1.0110595 0.9779291 1.0270097 0.9814279
0.9689634 1.0343544 0.9648804 0.96143395 1.0137419 1.0249459 0.9715158 1.0321039
0.9832187 0.9745344 1.0109096 0.980403 0.9845553 0.96839815 0.97518706 1.0395734
0.96922046 0.99888545 0.9717544 1.0176753 1.0036795 1.0238112 1.0433713 0.98092604
0.9948333 0.9792913 0.9917889 0.99157035 1.0215099

base.feature_norm.bias f4 [45]
00000000: f745 b3bc 6c33 b7bc aed2 2abd 40ce 09bd
00000010: e1b0 bbbc 694e d43c ea88 3b3a 981a d63c
00000020: dc8b e8bc 0f36 b5bc b076 cb3c 685b 18bd
00000030: 7c3d 4fbc 8b62 10bd 5976 f8bc 997f e0bc
00000040: 44df e3bc 1c1e 98bc c12c b23c 6407 afbc
00000050: 8855 dcbc 377c dbbc b4af 723c 3809 9c3c
00000060: 9084 c0bc 22f7 9dbc 7dec 1dbd 1bb3 2d3d
00000070: e163 323b df42 3dbc 7d67 ba3c d006 afbc
00000080: c134 2ebd 9470 8bbb 5fea c9bc 5d81 e83c
00000090: bb8f 8a3c 02a8 1d39 7b86 46bd 1ede 063d
000000a0: 1fb5 1cbd d508 20bd ce2d 3b3c b763 15bd
000000b0: 05ce b1bc
-0.021883948 -0.022363387 -0.041704826 -0.03364396 -0.02291149 0.025916295 0.00071538857 0.026135728
-0.028387003 -0.022120504 0.024836868 -0.037196547 -0.012648936 -0.035250228 -0.03032987 -0.027404593
-0.027816422 -0.018569045 0.021749856 -0.021365829 -0.026896253 -0.026792629 0.014812399 0.019047365
-0.02350071 -0.019282881 -0.03855561 0.042407136 0.0027220177 -0.011551588 0.022754425 -0.021365553
-0.04253078 -0.0042553637 -0.02464789 0.028381998 0.01691424 0.00015035275 -0.048468094 0.03292667
-0.038258668 -0.039070923 0.011424495 -0.03647205 -0.021704683

base.mlp.fc1.0.weight f4 [64, 45]
00000000: d85e 9fbe 4b44 863d d1f2 32be 9dd1 62bd
00000010: 49c4 813e edbf 51be a793 16bd 290c 6ebe
00000020: f1ff 233d ad69 35bc 70ff 33bd 8839 f3bd
00000030: 3197 38be 6b5a 44be 8fa8 abbc 8a11 d2bc
00000040: 878e a93e 4d61 d43d 195a 6ebe c484 933e
00000050: 4be6 963c e196 c03d e27c 2cbe 9fed 6a3e
00000060: 0979 1bbe 41d5 63bb 89e1 6abe 5347 1ebe
00000070: d308 9fbd e7df 24be b5e6 393e 8ba4 39bd
00000080: d619 ffbd eb5c c1bc 326e 57bc 5bb7 d9bd
00000090: 3140 8d3b 3ffc 293c ed72 583d 3cec 2b3e
000000a0: 2f78 55be c549 1abe 7349 de3d 2a8d 363e
000000b0: 6fd7 5e3e 6743 603d 71ab 683c 0fb2 4cbe
000000c0: 4498 993d df9e 403d bb64 06bc 430e d83d
000000d0: c4ee 81bd 5fd3 8cbd 4147 c3bd 0606 723d
000000e0: 69cc 293e ad14 873d f03c d6bd 40ae 3dbe
000000f0: 90e1 873e 6601 83bd 2042 e7bd 7bde edbe
00000100: d195 843e 605e 5e3d a504 e6be 8e28 d63c
00000110: 2c03 c5bc f830 29be 927a 493d defb c43d
00000120: 3e18 c4bb 91c9 85be a2e5 ca3d 9cb2 64bd
00000130: c037 093e dc78 163e d786 863e a37d 22be
00000140: 90a4 bb3e d2dc f63d 2b07 e73d dff0 133e
00000150: e0cd 58bd 1d81 66bc 5f67 cabe e50d 5e3e
00000160: 86b3 ebbb ce2f 203e 35fa dabd 5d2d d23d
00000170: 4ed8 823e e9c4 123d 8af0 b1bd d97e a7be
00000180: 3b7c 51be 9cea cb3e 3fc3 203d e78b 7fbd
00000190: 0ad5 f0be 494d 84be c93b 133e 461c 8ebe
000001a0: 933e 793e 768f 79bd 9dcd ec3c 4424 263e
000001b0: caa8 ebbd 9c37 7fbe 61c4 433e 3df9 c43c
000001c0: 9e8b bf3e eb84 45be 5bf1 a33d 7369 063c
000001d0: d9a5 15be 2602 143e 8fcd 0c3e 990a e13c
000001e0: 0ece bfbd 9af5 bfbe 8e4d a3bc 83be 22bd
000001f0: d83a 82be e9e3 35be bda2 693e 6173 debd
00000200: 9d02 a43d 0792 873e 3f2a 213d 2e35 21be
00000210: bd98 9e3c 4ce9 153c dbc4 26be 5541 36bc
00000220: 58f1 a5bd 6f16 833d 8352 84bc 4f3d e9bd
00000230: 4b98 cc3c 8681 e53d d5eb 243c 5742 273e
00000240: 346f af3a 4c54 8bbd bf49 9bbe 20d9 713c
00000250: f0ce d93c 78f1 2ebe 6558 673e a19c afbe
00000260: a0f1 ee3c 38a4 0f3d 0ef6 f9bd 9b9b 973e
00000270: 5747 e33e 26be f0bd b9f0 603e ff29 1b3e
00000280: 9cec 89bd 79af 5d3d 8434 d1bc 6395 e0bd
00000290: 9d26 6ebe fd11 613c a530 473e c938 67be
000002a0: bd8c 9f3e 7f4a 0fbe 70ac 0e3d e948 8abd
000002b0: a40d b53e 1c53 8ebe 1418 033d 83a5 8cbd
000002c0: 7fe5 243d e16f 82be 6569 333e c34a ca3e
000002d0: a16e 9d3d 4bb3 ab3d 2291 99be b603 f73d
000002e0: 0c66 f3bb d0e4 00be 217a 773e 32d6 4f3c
000002f0: 3cca 8abe 1c5b 213d 936e 46bc 0db2 05be
00000300: 6c4a 203d 76e8 19be de57 cf3e 5896 543e
00000310: 7a68 22bd 2b37 c9be 8acd d33e 60d8 2f3e
00000320: bf34 67bd 26f9 12be 99a1 b9bd aafe 4cbe
00000330: 8b4a fd3d d035 81be a619 a8be 65ac 44be
00000340: bd10 6ebe bc01 c0bc cd3e 523c dcd8 423e
00000350: c27c d23d 5199 1a3e f436 dc3c ca9a 1ebd
00000360: 201c d63d 69b8 853c 8196 983c 3462 08be
00000370: 6cfc 0cbe 28ba d03c 213b a63e b30a 81be
00000380: 5a6d 2a3d 6848 04be a0c4 b53d 715a 55be
00000390: c3d4 943c 425e 0dbe 13f1 4a3b 951a 60bc
000003a0: 288e 153e 43a1 3e3e 00ab a3be db92 6d3c
000003b0: e260 66be 90d2 82be 40f1 a63d 8d6a 5abe
000003c0: fc37 98bb fd90 4fbe e335 eb3d 2921 36be
000003d0: eab7 3abe f160 ce3e 4bb2 7bbd 2131 d13d
000003e0: fa0e 19bc 93e6 a9bd 0870 26be 1530 cc3d
000003f0: 3189 a43d 6077 bfbc 6392 453e c836 203e
-0.31127048 0.065559946 -0.1747544 -0.055375684 0.25345066 -0.2048337 -0.036761906 -0.23246826
0.040039007 -0.011072558 -0.043944776 -0.118762076 -0.18026425 -0.19175117 -0.020954398 -0.025643129
0.33116552 0.10370121 -0.23276557 0.2881223 0.01842036 0.09403778 -0.16844514 0.22942208
-0.1518289 -0.003476456 -0.22937597 -0.15456896 -0.07765355 -0.16101037 0.18154414 -0.045322936
-0.124561 -0.023603877 -0.013148831 -0.106306754 0.0043106307 0.010375082 0.052843977 0.16789335
-0.20846628 -0.15067203 0.10853853 0.17827287 0.21761869 0.05475178 0.014201031 -0.19989799
0.074997455 0.04702651 -0.008202727 0.10549595 -0.06344369 -0.06876253 -0.09535075 0.059087776
0.16581883 0.065957405 -0.10460842 -0.18523502 0.26539278 -0.06396751 -0.11291909 -0.46458802
0.2589555 0.05428922 -0.44925418 0.026142385 -0.024049364 -0.16522586 0.049189158 0.09618352
-0.005984335 -0.26130345 0.0990708 -0.055834398 0.13400173 0.14694542 0.2627475 -0.15868239
0.3664899 0.12053837 0.11280664 0.14447354 -0.052930713 -0.014068869 -0.3953199 0.21684988
-0.0071930317 0.15643236 -0.106922545 0.102625586 0.25555652 0.03583232 -0.08688457 -0.32713965
-0.20457546 0.3982743 0.0392487 -0.06238928 -0.47037536 -0.25840214 0.14378275 -0.27755946
0.24340276 -0.06092783 0.028906638 0.16224772 -0.11506803 -0.24923557 0.19117881 0.024044627
0.37411207 -0.19288985 0.08005019 0.008203852 -0.14614047 0.14453945 0.1375029 0.027470874
-0.09365474 -0.37492067 -0.019934442 -0.039732467 -0.2543552 -0.17762722 0.22815986 -0.108618505
0.08008311 0.26478598 0.03934693 -0.15742943 0.01935994 0.009149861 -0.16286032 -0.011123975
-0.08102673 0.06400763 -0.016152626 -0.11388647 0.024974963 0.11206345 0.010065992 0.163339
0.0013384582 -0.06803188 -0.303297 0.014761239 0.026587933 -0.170843 0.22592314 -0.34299186
0.02916795 0.03506872 -0.12205134 0.29610905 0.44390365 -0.11755018 0.21966828 0.15152739
-0.06734583 0.054122422 -0.025537737 -0.10965993 -0.23256917 0.013737199 0.1945215 -0.22580256
0.31162062 -0.13993262 0.034832418 -0.06752188 0.3536197 -0.27797782 0.032005385 -0.06867506
0.040257927 -0.25475982 0.17520674 0.39510164 0.076871164 0.08383807 -0.2999354 0.12061255
-0.0074279364 -0.12587285 0.24167682 0.0126853455 -0.27107418 0.03939353 -0.012111324 -0.13056202
0.039133474 -0.15030083 0.40496725 0.20760477 -0.039650418 -0.39299902 0.4136775 0.17172384
-0.056446787 -0.14352855 -0.090640254 -0.20019022 0.123677336 -0.25236368 -0.32832068 -0.19206388
-0.23248573 -0.023438327 0.012832356 0.19028038 0.10277702 0.15097548 0.026881672 -0.038721837
0.10454583 0.016323285 0.018626453 -0.13318712 -0.13768166 0.025479391 0.32466987 -0.25203475
0.041608192 -0.12918246 0.08875394 -0.20835282 0.018167859 -0.13805488 0.0030966445 -0.013678213
0.1460501 0.18616204 -0.319664 0.014500345 -0.22497895 -0.2555127 0.081514835 -0.21329708
-0.0046453457 -0.20270152 0.114848875 -0.17786087 -0.1823422 0.40308335 -0.06144933 0.10214449
-0.00934195 -0.08295932 -0.16253674 0.099701084 0.0803398 -0.023372352 0.19294123 0.15645897

base.mlp.fc1.0.bias f4 [64]
00000000: 16eb e7bc 5beb 2fbc 54cd 113d 0fd7 fe3b
00000010: 1788 9e3c 6aeb 4f3c 374d fcbc 500f b1bc
00000020: e58c 12bd 1eec ee3c b2ad 063d 9f1f 993c
00000030: bb01 203d 21d0 02bd 756b 03bd dc31 d4bc
00000040: 5fd8 edbc 6c7d c13c ac3f 3c3d f7a1 b4bc
00000050: 9f54 99bc 1a63 d5bc 0f63 c43c 7280 b0bc
00000060: 3c13 dabc 7568 0f3d b2b0 ad3c 8585 cfba
00000070: aea4 17bd 0b7b a2bc 53e0 653d a283 353d
00000080: ab5b 25bd 435c f7bc 1db1 03bd 877d e83c
00000090: 1b31 f03c 2e13 f7bc e2f3 123d 095c bc3c
000000a0: 9588 fc3c 687e 3b3d 45f3 dabc 08e8 353d
000000b0: da78 66bd 1e50 423d f631 2d3d 9786 093d
000000c0: 3469 823c 6d33 5f3c 271f 273d 5cbb 68bc
000000d0: beee 0cbd 1e42 a33c d31a e33c e4f3 01bd
000000e0: 8d6c 00bd 4b23 cabc 625d b1bb 7fa1 393d
000000f0: 67f4 593c 68fd 3dbd 8ffc aa3c 0296 0e3d
-0.02831034 -0.010737265 0.035596207 0.007777102 0.019352002 0.012690404 -0.030798538 -0.021613747
-0.0357789 0.029165324 0.032880493 0.018691836 0.03906415 -0.03193677 -0.0320849 -0.025902681
-0.029033838 0.023619376 0.04595916 -0.022049887 -0.018717108 -0.026048232 0.023973016 -0.021545622
-0.0266205 0.035011727 0.021202419 -0.0015832639 -0.037022285 -0.019834062 0.056122135 0.044314988
-0.040370625 -0.030195361 -0.03215133 0.028380169 0.02932029 -0.030160513 0.035877116 0.022993105
0.030826846 0.045774847 -0.026727328 0.044410735 -0.056267597 0.047439687 0.042283975 0.03357562
0.015919305 0.013623101 0.040801194 -0.014204826 -0.03440737 0.019928988 0.027722752 -0.031726733
-0.031353522 -0.024675032 -0.0054127434 0.04532003 0.013302899 -0.046384245 0.020872382 0.034811027

base.mlp.fc1.2.weight f4 [64]
00000000: f8e2 763f b16b 823f e081 813f e6cd 833f
00000010: ed3c 813f 1fdf 783f 0b52 7a3f b04c 843f
00000020: b336 853f 4f3e 793f 3c5a 833f 3108 793f
00000030: 879f 793f 8aa2 813f 8982 823f 1e91 833f
00000040: 1f0b 843f a377 7c3f 6eee 7c3f f283 843f
00000050: c994 7b3f 9041 773f c7c0 823f eada 7e3f
00000060: 996e 853f 13a8 7b3f fc5a 803f 0580 843f
00000070: 5aea 743f 92f0 783f f27d 7c3f 65e0 7a3f
00000080: 909d 803f 4188 793f 393a 7a3f 167b 7a3f
00000090: 17f2 833f 6a27 823f 2e23 783f ab9b 773f
000000a0: ce39 7a3f 5e7f 843f af87 833f a912 7b3f
000000b0: 5391 7a3f 4f35 7d3f a6f7 7f3f 030b 7e3f
000000c0: ca4f 793f 6b4b 843f 452a 843f 1dec 753f
000000d0: f20e 7c3f b0ff 833f 7fec 763f 9f95 7b3f
000000e0: 9aab 753f 2a01 823f 18e1 7f3f 8351 823f
000000f0: 8e95 793f ec93 823f 7e97 783f 9a97 763f
0.96440077 1.0189115 1.011776 1.029721 1.0096718 0.97215456 0.9778144 1.0335903
1.0407318 0.973607 1.0261912 0.97278124 0.97509044 1.0127728 1.0196086 1.0278661
1.0315894 0.9862005 0.98801315 1.0352767 0.98273903 0.96584415 1.0215081 0.99552786
1.0424377 0.98303336 1.0027766 1.0351568 0.9567009 0.9724208 0.9862968 0.9799865
1.0048084 0.9747353 0.9774509 0.97844064 1.0308255 1.0168278 0.9692868 0.96721905
0.9774445 1.0351369 1.0275782 0.9807535 0.97878 0.9890947 0.99987257 0.9923555
0.97387373 1.0335516 1.03254 0.96063405 0.98460305 1.0312405 0.96454614 0.9827518
0.9596497 1.0156605 0.9995284 1.0181125 0.9749383 1.0201392 0.9710616 0.96325076

base.mlp.fc1.2.bias f4 [64]
00000000: 967f f5bc 8208 28bc 1f45 0a3d 751f 9e3c
00000010: eef4 903c ed3d 623c 9f31 a7bc 3b23 c6bc
00000020: 82e8 31bd 08be 013d b408 013d a5e7 be3c
00000030: 2abc 163d 49b0 0fbd 60a6 23bd e6a5 bdbc
00000040: f852 0ebd 6cb6 a13c 6d49 313d 8d7b cbbc
00000050: 7302 8ebc 6902 f7bc 08fd 4e3c 8c98 c7bc
00000060: 09d0 18bd 987e ca3c c067 983c 924f eb3b
00000070: 0c32 18bd a910 623b 9b91 103d 8533 1e3d
00000080: 6a71 60bd c25b 1abd c323 ffbc 5340 c83c
00000090: 0ac5 bd3c 9630 e9bc 822f 093d 9d7f dc3c
000000a0: 2549 e43c 376e f73c b4a3 6bbc 6829 083d
000000b0: 8154 47bd f0ba 323d 56dd 143d 55d3 c33c
000000c0: 76fa a23c 55e0 223b cb73 843c 5b70 b03c
000000d0: edc1 febc e3e6 9c3c 33d7 b63c a42b f7bc
000000e0: 5923 01bd 6ac4 91bc f3ea 3b39 2f34 443d
000000f0: c394 803c 9f71 a6bc 8d85 e23c f808 083d
-0.029968064 -0.010255935 0.033757325 0.01930211 0.017694917 0.01380871 -0.020409403 -0.024186721
-0.043434627 0.03167537 0.03150244 0.023303816 0.03680054 -0.035080228 -0.03995359 -0.023150396
-0.034747094 0.019740306 0.043282915 -0.024839187 -0.017335152 -0.030152516 0.01263357 -0.024364732
-0.037307773 0.024718568 0.01860416 0.0071811164 -0.037157103 0.0034494794 0.03529511 0.03862335
-0.05479566 -0.037685163 -0.031144982 0.024444735 0.023165245 -0.02846555 0.033492573 0.02691632
0.02786691 0.030203922 -0.014382292 0.033242613 -0.048664574 0.04363531 0.036343895 0.023904482
0.01989482 0.002485295 0.016168496 0.02153795 -0.03109833 0.019153064 0.022319412 -0.030172177
-0.03152785 -0.017793853 0.00017921235 0.04790133 0.015695935 -0.02031785 0.027651573 0.03321168

base.mlp.fc_h.0.weight f4 [64, 64]
00000000: 2acc d93e b304 9e3e 9b57 83be cdcd 223d
00000010: 05b9 afbd efa1 823c 96d2 fa3d 6b5d 473e
00000020: 42d1 343e 531f 99bd cae9 afbd 65a9 8bbe
00000030: c11f c63c 96b1 523e 05c3 b0bd b114 c5bd
00000040: c387 adbc 46c6 4d3e 80d0 803d cc8a bc3d
00000050: 5100 993d 37ed bb3e 9373 0dbd 9041 8239
00000060: 2803 143e 5f9a 543e 1a96 64bd f316 50bd
00000070: 8661 5abe 36e9 593e c775 b4bd 135c 83be
00000080: b10f 0b3e 06fe e4be a710 11bd b160 e0bd
00000090: ba40 9ebd 56b4 ebbc 2d19 a4be e341 e03d
000000a0: b145 a0bd 51f3 e43c 80bd aa3e ae8f 33be
000000b0: 751a 733e e7fb 2c3d bcc6 48bd 4782 91be
000000c0: a47b 08be 1b72 373e 1286 92bc 39a5 d2bd
000000d0: dcc6 62bc 75e8 2e3e c41b 5bbe 5b59 79ba
000000e0: 8ed8 493e 08bd 97bd dd26 663e 88c3 793e
000000f0: f2bc d83d c4cb 253e 119c bb3d afa0 c6bd
00000100: aef7 26be 7885 c33d a4c7 f53d 2c3e 883d
00000110: 75b1 223e 435b cfbd 1044 5b3e e1b6 963e
00000120: 44de 793e d52e 013e ceaa 27be 7ace 133e
00000130: 65ba c73d e727 14be 5de5 723d 286e 863d
00000140: 738b d03d c943 65be a918 46be dc1e 963e
00000150: da67 90be 535e b03e 667c f13e dd38 8e3d
00000160: 17eb 063e 153e df3d 817f d5bc d046 d03d
00000170: 53b4 0c3e 345a d5bd 5cb1 ebbd eead b13c
00000180: fd6d 9a3d 625c 363e 5f50 433e df82 1fbd
00000190: 2043 a4bd 07df 323d 08a8 5bbe f9a4 e8bd
000001a0: f3fe 88bd 0afa 8fbd 4b5b ec3d 0129 a23e
000001b0: 8d01 89bc 175e 513e 8711 1d3e 3719 2dbe
000001c0: 271b 62be 76fe b03e 990a 7e3e e984 223d
000001d0: d0de 8a3e 18b5 09be c845 993d 1cb4 ae3d
000001e0: 46c2 f7bd 9b2a 28bc 7121 a7b9 1165 9dbe
000001f0: 4d55 953e c907 d23c f4c1 37be 01a6 48bc
00000200: b136 e9bd d66c 163d 5f1d c5bd 0682 173e
00000210: 2b15 9d3c 9d47 e6bd 1e02 f3be 2b02 e2bd
00000220: 16f9 76bd b80c 563d 5333 aa3e 3d90 4abe
00000230: 5054 18be b264 9fbe fe0f 193e 6a7f c4bb
00000240: a1f9 353e 563f 4d3e c9d6 af3e fe95 5a3e
00000250: d24a 9fbd 1216 cc3d 054e 9e3d 625e 743e
00000260: daea c63d 74aa b2bd c6da 91be 3e42 2dbe
00000270: ccd5 953e d913 0d3e 7a09 1c3e e5ab 8bbe
00000280: 3fb1 a13d a79c 7dbe 422c eb3d a99e b2bd
00000290: e85f a8be 09be 28be 4ee8 a5bd 096b 9bbe
000002a0: 92db 33be d25e cf3d c10d ca3c 4328 c13d
000002b0: db9e 763d 7fbe 3abd 6917 cc3e a39b 303e
000002c0: 5ea8 19bd 14c8 47bc 443a 683c ad8b dabd
000002d0: d1c4 6cbe 1100 833c 6999 073d 9605 533e
000002e0: 9410 0fbe 3c40 2b3e 10e1 12be 201d 60bd
000002f0: 04cb a0bd 133e 3dbd 7b7f 083d 3741 933d
00000300: a52f 0f3c ad9c 783d c7b1 613e 58c4 253c
00000310: c13f 313e 5e7c 23be 5434 3a3e 80a5 f43d
00000320: 5f0c 13be 853f bb3e c984 093e de36 f7bd
00000330: db69 8d3d 67d1 0d3c 4684 bfbd 07be 8cbe
00000340: 0d85 0bbd e2be 7bb9 575d a43e 83b3 803e
00000350: 6077 ddbd 7433 edbd 3f2d cfbd 6543 6cbe
00000360: 599b 81bd 6bf1 603e ca90 5a3e dd05 7c3d
00000370: f0b7 5e3e 76f1 38bd 3e30 d53e a13b b5bd
00000380: 58da 1bbe b339 b63d 76d4 5c3e 84d9 1c3e
00000390: b1fe babd fd85 b03e a735 4ebe 0ff1 8b3d
000003a0: ea7d 913c 2723 643d ea30 9f3d a800 dbbd
000003b0: a547 523d 372d cc3d 2a15 293e c4f3 0f3e
000003c0: d60e 833e 9b56 f73d a52d 57bd 182b 193e
000003d0: b759 b83d f81b b33d 197a 9d3c d15f 72be
000003e0: 7b0e 783e e205 133e 4d71 c53e 0863 933d
000003f0: f6d6 03be ae57 dbbe 579f 5dbb fbe7 00be
0.42538577 0.3086296 -0.25652775 0.03974705 -0.085802115 0.015946357 0.12247197 0.1946923
0.1765795 -0.07476678 -0.085895136 -0.27277675 0.024185063 0.20575556 -0.08630947 -0.09623087
-0.0211829 0.20095167 0.06289768 0.09206161 0.074707635 0.36704418 -0.03453405 0.0002484438
0.14454329 0.20762013 -0.05580721 -0.050803136 -0.21326265 0.21280369 -0.08811527 -0.25656185
0.13580205 -0.44725055 -0.03541627 -0.109559424 -0.07727189 -0.028772514 -0.32050458 0.10950067
-0.078257926 0.027948054 0.33347702 -0.17535278 0.23740561 0.04223242 -0.049017653 -0.28419706
-0.13328415 0.17914622 -0.017886195 -0.1028542 -0.013841357 0.17080863 -0.2139731 -0.0009511911
0.19711515 -0.07409102 0.22475763 0.24390996 0.105829135 0.16191012 0.09160627 -0.09698617
-0.1630542 0.095469415 0.12000969 0.06652483 0.15888007 -0.10124829 0.21412683 0.294364
0.24401194 0.12615521 -0.1637375 0.14434233 0.09752349 -0.14468347 0.05930077 0.065639794
0.10182848 -0.22389139 -0.19345345 0.2932042 -0.28204232 0.34446964 0.4716522 0.069444396
0.13175617 0.10900513 -0.026061775 0.101697564 0.13740663 -0.104175955 -0.11508438 0.021689381
0.0754051 0.17808679 0.19073628 -0.038943168 -0.080206156 0.043669727 -0.21450818 -0.11359591
-0.06689253 -0.07030113 0.1154085 0.31671908 -0.016724372 0.20446049 0.15338717 -0.1690415
-0.2208067 0.34569138 0.2480873 0.039677534 0.27123117 -0.13447988 0.07484013 0.08530447
-0.120976016 -0.010264064 -0.00031877638 -0.3074117 0.29166642 0.025638478 -0.17945081 -0.01224661
-0.11387385 0.036724888 -0.09624743 0.14795694 0.019175133 -0.11244128 -0.47462553 -0.1103557
-0.06029614 0.052258223 0.33242282 -0.19781585 -0.14875913 -0.31131512 0.14947507 -0.0059966343
0.17771007 0.20043692 0.34343556 0.2134628 -0.07777943 0.09965147 0.07729725 0.23864129
0.09712763 -0.087239176 -0.28487223 -0.169198 0.29264677 0.13777103 0.1523799 -0.27279583
0.07895135 -0.2476679 0.11483051 -0.08721668 -0.3288567 -0.16478743 -0.08100949 -0.303551
-0.17564228 0.101255074 0.024664761 0.094315074 0.06021009 -0.045591827 0.3986161 0.1724687
-0.037514083 -0.012193698 0.014174048 -0.10671172 -0.23121955 0.015991243 0.033105288 0.206076
-0.13971168 0.16723722 -0.14343667 -0.054715276 -0.07851222 -0.046201777 0.0333247 0.07190173
0.008739387 0.060696293 0.22040473 0.010117613 0.17309476 -0.15965411 0.18184024 0.11945629
-0.14360188 0.365719 0.1342956 -0.12071012 0.06904956 0.008655882 -0.09351401 -0.2748873
-0.034062434 -0.00024008335 0.32102463 0.25136957 -0.108137846 -0.115820795 -0.10116052 -0.23072584
-0.06328458 0.21967094 0.21344295 0.06152903 0.21749854 -0.04515215 0.41638368 -0.08849264
-0.1522001 0.08897724 0.21565422 0.1531735 -0.0913061 0.34477225 -0.20137654 0.06833088
0.017760236 0.055697586 0.077730015 -0.106934845 0.051337857 0.099695615 0.1651198 0.14057833
0.25597256 0.120770656 -0.052533764 0.14957845 0.09001487 0.08745569 0.01922326 -0.23669364
0.24224274 0.14357713 0.38563004 0.07196623 -0.1287497 -0.42840332 -0.0033816898 -0.12588494

base.mlp.fc_h.0.bias f4 [64]
00000000: 0000 0000 0000 0000 0000 0000 0000 0000
00000010: 0000 0000 0000 0000 0000 0000 0000 0000
00000020: 0000 0000 0000 0000 0000 0000 0000 0000
00000030: 0000 0000 0000 0000 0000 0000 0000 0000
00000040: 0000 0000 0000 0000 0000 0000 0000 0000
00000050: 0000 0000 0000 0000 0000 0000 0000 0000
00000060: 0000 0000 0000 0000 0000 0000 0000 0000
00000070: 0000 0000 0000 0000 0000 0000 0000 0000
00000080: 0000 0000 0000 0000 0000 0000 0000 0000
00000090: 0000 0000 0000 0000 0000 0000 0000 0000
000000a0: 0000 0000 0000 0000 0000 0000 0000 0000
000000b0: 0000 0000 0000 0000 0000 0000 0000 0000
000000c0: 0000 0000 0000 0000 0000 0000 0000 0000
000000d0: 0000 0000 0000 0000 0000 0000 0000 0000
000000e0: 0000 0000 0000 0000 0000 0000 0000 0000
000000f0: 0000 0000 0000 0000 0000 0000 0000 0000
0.0 0.0 0.0 0.0 0.0 0.0 0.0 0.0
0.0 0.0 0.0 0.0 0.0 0.0 0.0 0.0
0.0 0.0 0.0 0.0 0.0 0.0 0.0 0.0
0.0 0.0 0.0 0.0 0.0 0.0 0.0 0.0
0.0 0.0 0.0 0.0 0.0 0.0 0.0 0.0
0.0 0.0 0.0 0.0 0.0 0.0 0.0 0.0
0.0 0.0 0.0 0.0 0.0 0.0 0.0 0.0
0.0 0.0 0.0 0.0 0.0 0.0 0.0 0.0

base.mlp.fc_h.2.weight f4 [64]
00000000: 0000 803f 0000 803f 0000 803f 0000 803f
00000010: 0000 803f 0000 803f 0000 803f 0000 803f
00000020: 0000 803f 0000 803f 0000 803f 0000 803f
00000030: 0000 803f 0000 803f 0000 803f 0000 803f
00000040: 0000 803f 0000 803f 0000 803f 0000 803f
00000050: 0000 803f 0000 803f 0000 803f 0000 803f
00000060: 0000 803f 0000 803f 0000 803f 0000 803f
00000070: 0000 803f 0000 803f 0000 803f 0000 803f
00000080: 0000 803f 0000 803f 0000 803f 0000 803f
00000090: 0000 803f 0000 803f 0000 803f 0000 803f
000000a0: 0000 803f 0000 803f 0000 803f 0000 803f
000000b0: 0000 803f 0000 803f 0000 803f 0000 803f
000000c0: 0000 803f 0000 803f 0000 803f 0000 803f
000000d0: 0000 803f 0000 803f 0000 803f 0000 803f
000000e0: 0000 803f 0000 803f 0000 803f 0000 803f
000000f0: 0000 803f 0000 803f 0000 803f 0000 803f
1.0 1.0 1.0 1.0 1.0 1.0 1.0 1.0
1.0 1.0 1.0 1.0 1.0 1.0 1.0 1.0
1.0 1.0 1.0 1.0 1.0 1.0 1.0 1.0
1.0 1.0 1.0 1.0 1.0 1.0 1.0 1.0
1.0 1.0 1.0 1.0 1.0 1.0 1.0 1.0
1.0 1.0 1.0 1.0 1.0 1.0 1.0 1.0
1.0 1.0 1.0 1.0 1.0 1.0 1.0 1.0
1.0 1.0 1.0 1.0 1.0 1.0 1.0 1.0

base.mlp.fc_h.2.bias f4 [64]
00000000: 0000 0000 0000 0000 0000 0000 0000 0000
00000010: 0000 0000 0000 0000 0000 0000 0000 0000
00000020: 0000 0000 0000 0000 0000 0000 0000 0000
00000030: 0000 0000 0000 0000 0000 0000 0000 0000
00000040: 0000 0000 0000 0000 0000 0000 0000 0000
00000050: 0000 0000 0000 0000 0000 0000 0000 0000
00000060: 0000 0000 0000 0000 0000 0000 0000 0000
00000070: 0000 0000 0000 0000 0000 0000 0000 0000
00000080: 0000 0000 0000 0000 0000 0000 0000 0000
00000090: 0000 0000 0000 0000 0000 0000 0000 0000
000000a0: 0000 0000 0000 0000 0000 0000 0000 0000
000000b0: 0000 0000 0000 0000 0000 0000 0000 0000
000000c0: 0000 0000 0000 0000 0000 0000 0000 0000
000000d0: 0000 0000 0000 0000 0000 0000 0000 0000
000000e0: 0000 0000 0000 0000 0000 0000 0000 0000
000000f0: 0000 0000 0000 0000 0000 0000 0000 0000
0.0 0.0 0.0 0.0 0.0 0.0 0.0 0.0
0.0 0.0 0.0 0.0 0.0 0.0 0.0 0.0
0.0 0.0 0.0 0.0 0.0 0.0 0.0 0.0
0.0 0.0 0.0 0.0 0.0 0.0 0.0 0.0
0.0 0.0 0.0 0.0 0.0 0.0 0.0 0.0
0.0 0.0 0.0 0.0 0.0 0.0 0.0 0.0
0.0 0.0 0.0 0.0 0.0 0.0 0.0 0.0
0.0 0.0 0.0 0.0 0.0 0.0 0.0 0.0

base.mlp.fc2.0.0.weight f4 [64, 64]
00000000: c707 c73e b921 8d3e 5f85 61be e00a c13c
00000010: f38c 99bd 14c4 dc3c 64b5 ba3d 37e2 2c3e
00000020: 7d48 113e 268e 6bbd 66c1 63bd 008f 73be
00000030: 9fca ab3b 46b4 333e 6a78 86bd 4472 84bd
00000040: 000e 553c fdf2 393e 8802 003d ba9c 973d
00000050: 689d 293d 3dbf ab3e 0ef7 83bb bbc2 163c
00000060: b80a 413e 37f8 2d3e e2f0 cdbc f318 87bc
00000070: 4a0e 45be 4c68 2d3e 3875 88bd 0a33 74be
00000080: de4d f83d dca1 d2be 5187 07bc b476 c1bd
00000090: bdda a4bd 5074 5fbd 2962 94be beba dc3d
000000a0: 454f 6dbd b00c 81bb 07c1 a13e a34c 15be
000000b0: f29e 4c3e 5ee2 ba3b 3dda cfbc d303 83be
000000c0: 7910 c5bd fec7 143e c636 653c bcf2 e9bd
000000d0: dfdb 0fbc 073d 143e d73a 34be 894d e8bb
000000e0: 3bcb 2a3e a185 89bd 33cd 3f3e 2be6 603e
000000f0: 792e 0c3e 71cb 183e e878 e43d 1881 87bd
00000100: 8425 0bbe cec0 6e3d 27e6 fd3d 8b44 ae3d
00000110: 589c 063e 4eea 8bbd c15a 353e a025 913e
00000120: d79c 633e 95cc ed3d 40d1 09be 46c8 2f3e
00000130: 4673 ae3d 13a4 e5bd ac3a 933d dde4 bc3d
00000140: def5 b83d 17c3 3dbe 6974 1ebe 0363 863e
00000150: 4efc 89be 874d 9d3e b54b e13e 88e1 5c3d
00000160: 24e3 003e 2a1d 793d f821 903c 3d67 9b3d
00000170: 0b05 e53d c4fb 92bd 8887 d0bd 6e35 a5bc
00000180: 52c3 e93d 8cc2 1e3e bdcb 5d3e 843d b9bc
00000190: a8c9 4bbd 8bf7 053c cc62 46be 21e4 9ebd
000001a0: f4dc 2bbd 8e65 c2bd f832 e63d 45be 9a3e
000001b0: d20e 4c3c 018b 243e 3608 e63d f11c 1abe
000001c0: 6c56 41be dc3a a03e 0eb8 623e 951d 8a3c
000001d0: 26ad 753e 0506 cbbd 9ea2 6d3d 4f6d c13d
000001e0: e76b c9bd 0e1b 2ebd 4f76 8bbc bcb6 89be
000001f0: ea50 893e 8daa 433d 233b 0bbe 85f0 bfbc
00000200: ab35 c2bd 8ead 6b3c b871 8fbd 5bba 053e
00000210: a832 a33c 2d83 98bd 816d eabe 7b62 b5bd
00000220: 1f36 bcbc f61c 813d 05bc a23e 9d56 23be
00000230: 0668 f5bd 47ee 93be b294 f93d 0242 923c
00000240: ebbf 183e 9c96 1e3e 0f69 a43e b44d 333e
00000250: 33d3 e6bd 6cff 903d dd12 f13d 8af1 4a3e
00000260: 50fd a73d ebf6 66bd 8008 7cbe 6ef7 18be
00000270: a2b3 7e3e 7912 e73d b54c f43d c435 89be
00000280: cb03 343d 334f 5fbe e173 043e a11b 58bd
00000290: 0013 94be a70d 43be b62c 93bd 2f46 8abe
000002a0: 3561 21be 3335 993d 3700 3e3d b4ac 933d
000002b0: a888 8b3d 3f6b 85bd 1fba bb3e be49 193e
000002c0: 7906 03bd b68d 53bc b603 a53c 774b f7bd
000002d0: b2ff 65be 4a13 0e3d f925 3b3d 86d8 243e
000002e0: 9d03 d7bd f92b 083e 7623 0dbe 3327 7abd
000002f0: f50b 83bd 86d1 8ebc b2a9 4a3d fa66 523d
00000300: 1dc8 673b 7b37 873d 00ae 703e 91a6 06bd
00000310: 0e59 463e e2a7 4fbe e544 5f3e ae14 c63d
00000320: d373 39be 5cc3 c43e 322e 003e 523b 21be
00000330: dde1 b73d 51ba d4bc 72d7 09be 9495 a0be
00000340: 0b98 09bd 439e f3bc e8f7 b63e e969 943e
00000350: 6327 f0bd 81e7 ecbd 3459 0cbe 00ce 88be
00000360: b847 8ebd dcaa 803e f4e4 523e bf01 8d3d
00000370: a098 873e c459 5fbd a045 ea3e 13c7 e7bd
00000380: 90bc 43be 4211 903d 45ee 5f3e 1e4d e83d
00000390: 7137 06be 4143 c53e b164 79be a2e6 753d
000003a0: de0b 0dbc 941d a33d 7363 413d 0ba0 17be
000003b0: 592a aa3c c9e8 103e ba03 213e c636 343e
000003c0: ac13 953e 0f52 cd3d 7a0b adbc 0b40 3d3e
000003d0: 63da f13d 6d96 ea3d 4ef6 3fbc ad8b 86be
000003e0: 3a1a 8e3e 78f9 373e 8b5b d83e 9026 d63d
000003f0: 0d98 19be 2b4b f0be 34bf 23bd 9021 1ebe
0.3887312 0.2756479 -0.22023533 0.023564756 -0.07497587 0.026948966 0.09116629 0.16883169
0.14187808 -0.05750861 -0.05560436 -0.23785019 0.00524266 0.17549238 -0.06565936 -0.06467107
0.013003826 0.18159099 0.031252414 0.0740294 0.04140988 0.3354434 -0.004027254 0.009201701
0.18851745 0.16989218 -0.025139276 -0.016491389 -0.19243732 0.16934317 -0.06662983 -0.23847595
0.12124227 -0.41139114 -0.008272008 -0.09446469 -0.080495335 -0.054554284 -0.2898114 0.10777806
-0.057936925 -0.00393828 0.3159258 -0.14580016 0.19982508 0.0057032546 -0.025372619 -0.25588855
-0.096222825 0.14529416 0.01399011 -0.11423251 -0.008780449 0.14476405 -0.1760057 -0.007089321
0.16679089 -0.06714941 0.18730621 0.21962802 0.13689603 0.14921357 0.111558735 -0.066164196
-0.1358853 0.05828934 0.12397414 0.08509167 0.13145578 -0.068317994 0.17710401 0.28349018
0.22227798 0.116112866 -0.13458729 0.17166242 0.085180804 -0.11212935 0.07188925 0.0922334
0.090312704 -0.18531452 -0.15474094 0.26247415 -0.26950306 0.3072321 0.44003072 0.05392602
0.12586647 0.06081883 0.017594323 0.075880505 0.111826025 -0.07176927 -0.101821005 -0.020167079
0.114142075 0.15503901 0.21659751 -0.02261234 -0.04975286 0.008176695 -0.19373626 -0.07758356
-0.041958764 -0.09492026 0.1124019 0.3022329 0.012454705 0.16068651 0.11232035 -0.15050103
-0.18880624 0.31294906 0.22140524 0.016859809 0.23991832 -0.099132575 0.058016412 0.09444677
-0.09835034 -0.04250627 -0.017024187 -0.26897228 0.26819545 0.04777007 -0.13596778 -0.023430118
-0.094828926 0.01438464 -0.07004112 0.1305937 0.019921616 -0.07446895 -0.4578667 -0.08856674
-0.022975026 0.06304352 0.31784073 -0.15951009 -0.119827315 -0.2889273 0.121865645 0.01785374
0.14916961 0.1548714 0.32111403 0.1751011 -0.11270752 0.07079968 0.11771176 0.19818702
0.082026124 -0.056387823 -0.24612617 -0.14938137 0.24873212 0.1128282 0.11928693 -0.26798832
0.04394893 -0.21807556 0.1293483 -0.052760724 -0.28920746 -0.19048177 -0.07186262 -0.2700667
-0.15759738 0.0748085 0.046386924 0.07210675 0.068131745 -0.06514596 0.36665437 0.14969537
-0.031988595 -0.0129122045 0.020143371 -0.12074941 -0.22460821 0.034686364 0.04569051 0.16098222
-0.10498736 0.13298024 -0.13783059 -0.06107254 -0.06398765 -0.017433893 0.04947824 0.051367737
0.003536708 0.06602379 0.23503876 -0.032873694 0.19369909 -0.20278886 0.21803625 0.09671913
-0.1811059 0.38430297 0.12517622 -0.15745285 0.08978627 -0.025967749 -0.13461092 -0.3136412
-0.033592265 -0.029738551 0.35736012 0.28987053 -0.117262624 -0.11567593 -0.13705903 -0.26719666
-0.06947273 0.25130355 0.20595151 0.06885099 0.2648363 -0.054528967 0.45756245 -0.11317267
-0.191149 0.07034542 0.21868236 0.11342834 -0.13107087 0.38527873 -0.24354817 0.0600344
-0.008608786 0.07964626 0.047213983 -0.14807145 0.020772146 0.141513 0.15724078 0.1759902
0.2911657 0.10025417 -0.021123637 0.18481462 0.11809232 0.11454473 -0.011716438 -0.2627844
0.27754384 0.17966259 0.42257342 0.10456574 -0.14999409 -0.4693235 -0.039977267 -0.1544249

base.mlp.fc2.0.0.bias f4 [64]
00000000: 8705 05bd be01 0dbd 6956 b6bc a030 273d
00000010: b2fe 343d 9d63 083d f5d8 0c3d f6f5 143d
00000020: 8a42 183d ace1 143d b78c 04bd 2370 ba3c
00000030: 7065 0a3d 88f5 a8bc 65db d0bc fcdf 663d
00000040: 227c 9fbc 4ad7 cc3c ca36 01bd 0a10 113d
00000050: 7045 0d3d 471e 173d 0311 f7bc 487d b83c
00000060: 6de8 0b3d 4e50 b63c b435 663d ca58 043d
00000070: de6f d6bc 502d 183d 61e5 f0bc 6267 3bbc
00000080: e6ff cfbc 9fe8 443d 17b9 e9bc 297f fcbc
00000090: 4fec 0f3d a5c2 0dbd 0613 0bbd 37f3 203d
000000a0: 145c d23c f8ab 053d 6871 b0bc b4b1 9dbc
000000b0: 7d26 cd3c 56c2 febc 5637 823c acff f7bc
000000c0: 813b b9bc 36f5 0ebd 9a63 b9bc b8a6 0e3d
000000d0: 785f 123d d0af 093d c814 393d 1281 11bd
000000e0: aa46 b53c faa4 14bd 178e f7bc 5822 1b3d
000000f0: 25ac 95bc 7979 efbc c1e5 0c3d 0bc7 053d
-0.032475974 -0.03442549 -0.022258 0.040817857 0.04418821 0.033298124 0.034386594 0.03636738
0.03717283 0.03634803 -0.03236076 0.02275855 0.033788145 -0.02062489 -0.02549524 0.056365952
-0.01946837 0.025005002 -0.03154639 0.035415687 0.03449005 0.03689411 -0.030159479 0.022520676
0.034157205 0.02225509 0.05620356 0.03231124 -0.02617639 0.03715259 -0.029406251 -0.011438223
-0.025390577 0.048073407 -0.02853064 -0.030822353 0.03513747 -0.034609456 -0.03395369 0.039294448
0.025678672 0.032634705 -0.021538451 -0.019249775 0.025042767 -0.031098526 0.015895527 -0.030273281
-0.022611381 -0.03490182 -0.022630502 0.034826964 0.035735577 0.033614933 0.045185834 -0.03552348
0.022128422 -0.036290146 -0.03021912 0.03787455 -0.018270561 -0.029232727 0.034398798 0.032660525

base.mlp.fc2.0.2.weight f4 [64]
00000000: 1904 7d3f c827 803f df88 7a3f 0083 843f
00000010: 32a2 823f 35f0 793f 66fb 7a3f 1f5c 7d3f
00000020: efdb 803f 02db 7d3f e9ef 7f3f 3f37 743f
00000030: 5ccd 7d3f f73c 7e3f f34c 793f 77fd 863f
00000040: 0c52 7b3f 53e1 753f 704d 833f a088 803f
00000050: 0205 7b3f 4d48 803f dc89 793f 9c82 743f
00000060: f01d 7c3f 22ab 743f c95f 843f 197a 7e3f
00000070: 16a3 803f 266e 813f c436 763f d563 793f
00000080: 4342 7a3f 8f45 823f 2a41 783f d369 7c3f
00000090: e703 7a3f 12fe 783f 19ed 7f3f baed 823f
000000a0: 1de4 793f 1ea1 7a3f e71e 7f3f f992 7a3f
000000b0: c3c4 763f cb85 793f cc7b 7f3f c9b7 7b3f
000000c0: 8bfd 773f c104 813f c44b 7b3f c748 7a3f
000000d0: 3888 7d3f 33dd 783f 13ee 833f e883 7b3f
000000e0: 7cbb 773f 8bef 803f 49f0 773f b749 803f
000000f0: 9796 783f 1739 843f 70b9 813f 3b90 783f
0.9883438 1.001214 0.978651 1.0352478 1.0205748 0.9763215 0.98039854 0.9896869
1.0067118 0.99162304 0.9997545 0.953968 0.9914148 0.99311775 0.9738304 1.0546101
0.9817207 0.9604694 1.0258007 1.0041695 0.98054516 1.0022064 0.9747598 0.95511794
0.9848318 0.9557363 1.0341731 0.99405056 1.004977 1.011174 0.96177316 0.97417957
0.9775736 1.0177478 0.9697443 0.98598975 0.97662205 0.9726268 0.9997116 1.0228798
0.976137 0.97902095 0.9965653 0.9788051 0.96393985 0.97469777 0.99798274 0.9832731
0.9687125 1.0079576 0.98162484 0.977673 0.9903598 0.97212523 1.030703 0.9824815
0.96770453 1.0073103 0.9685102 1.0022496 0.9710478 1.0329922 1.0134716 0.9709508

base.mlp.fc2.0.2.bias f4 [64]
00000000: e6e8 fcbc 67cf 00bd 95bc f2bc 3d76 143d
00000010: b166 ca3c 99c6 f83c b76e f73c d78c 003d
00000020: 0889 053d 37e3 003d ed50 00bd 3f0d f43c
00000030: 5e41 e93c 641f f1bc c746 f6bc e40b 533d
00000040: 69a7 ecbc 87e9 ed3c 4e71 0bbd 5da1 f63c
00000050: 1bb8 fa3c 2046 023d 412a efbc 1ed3 f13c
00000060: 1c4b fe3c b4da f33c 9d0d 5d3d d3d4 ff3c
00000070: 788b 00bd 2a00 053d fa0a f0bc 6ea7 aebc
00000080: 14ff eabc 70d6 813c 9e68 f5bc f7be fdbc
00000090: 8d0b fa3c 40c2 f4bc 1556 01bd 7b36 093d
000000a0: ca46 f83c d644 f93c 15b7 f9bc 472f f0bc
000000b0: 6366 f33c 0e34 efbc 468b 83bb ecfc f8bc
000000c0: b48e eabc 3e2d 01bd dcaa f4bc 1655 f63c
000000d0: d07e f83c 2c3e f63c 0eea 243d d30f fbbc
000000e0: 4f2e f63c 2598 03bd c9f2 f5bc 0b8d 063d
000000f0: ce70 cebc b969 19bd 7a96 fa3c 2e8e ee3c
-0.030872773 -0.031447794 -0.029630939 0.036245573 0.02470717 0.030368136 0.03020416 0.031384315
0.032601386 0.03146669 -0.031327177 0.029791472 0.028473552 -0.029433914 -0.030063046 0.05152501
-0.028888421 0.029042019 -0.034043603 0.03010624 0.030605366 0.031805158 -0.029194953 0.029519614
0.031041674 0.029767372 0.05396806 0.031229412 -0.031383008 0.03247086 -0.029302109 -0.021320071
-0.028686084 0.015849322 -0.029957112 -0.030974848 0.030523086 -0.029877782 -0.031576235 0.033499222
0.030307192 0.030428331 -0.030482808 -0.029319419 0.029711908 -0.029199626 -0.0040144054 -0.03039404
-0.0286325 -0.031537287 -0.029866628 0.030069869 0.030333906 0.030058943 0.040262274 -0.030647194
0.030051379 -0.03212752 -0.030022996 0.032849353 -0.025200274 -0.03745434 0.030589331 0.029120531

v_out.weight f4 [1, 64]
00000000: 3b81 4fbe 77fa 2ebe 63dc 8abd 7c0e 883d
00000010: 136c ab3c a335 d43d 0ffe bf3d cf55 bc3d
00000020: fc07 713d 0b6c 753d 6062 18be e12e 573e
00000030: cbd9 e43c d6c9 f2bc 0890 f9bd e14a 1d3d
00000040: c86f 8abd 361f f63d 755f cdbd ca77 8b3d
00000050: 1943 013e 4164 733d e2c5 a6bd 261d 363e
00000060: 6a91 e63d 09bc 673e 7fcd 123d e1b8 ba3d
00000070: 40c3 3ebe eb98 fa3d 524a d7bd aa77 3bbc
00000080: 75a2 41bd d087 d33c 11bb 26be 1dfb e2bd
00000090: d8c0 9e3d 1e68 e7bd a624 16be afab d13d
000000a0: 6e11 203e 7560 c83d 1add 92bd e516 9abd
000000b0: be8b 213e fae7 c1bd 0c12 a73c 3d65 86bd
000000c0: 766e 38bd bfe3 5ebe d2cb aabd 3442 d13d
000000d0: 842c 563d 7e98 cb3d 8369 393d 560e 45be
000000e0: 2b5a 423e 7f30 f6bd db14 43be 29d0 873d
000000f0: d2ba 9fbc 7b62 6abd bc9f fc3c 4e13 d23d
-0.20264141 -0.17087732 -0.06780317 0.06643388 0.020925557 0.10361793 0.0937463 0.09196054
0.058845505 0.05991749 -0.14881277 0.21013977 0.027935883 -0.029637258 -0.12185675 0.03840149
-0.06759602 0.12017672 -0.100279726 0.06809957 0.12623252 0.05942178 -0.08143212 0.17784557
0.11258204 0.22630323 0.035840508 0.09117294 -0.1862917 0.12236198 -0.10512222 -0.011442104
-0.04727407 0.025821596 -0.16282298 -0.11083052 0.07751626 -0.11299156 -0.14662418 0.10237824
0.15631649 0.09784023 -0.07171078 -0.07523898 0.15775964 -0.09468074 0.020394348 -0.065622784
-0.04502722 -0.21766566 -0.08339657 0.10217705 0.052288547 0.09941195 0.04526664 -0.1924375
0.18979709 -0.12020969 -0.19050924 0.066315 -0.019498263 -0.057222825 0.030837886 0.10257588
