light_mappo-main/results/MyEnv/MyEnv/mappo/check/run41/models/actor.pt (torch, 46581 bytes, 16 tensors)

base.feature_norm.weight f4 [15]
0	0x3f8119ed	1.0086037
1	0x3f827d22	1.0194438
2	0x3f82313d	1.0171276
3	0x3f8110a4	1.0083203
4	0x3f7ae747	0.9800915
5	0x3f7fb9d1	0.9989291
6	0x3f815c9a	1.0106385
7	0x3f7e8e37	0.9943575
8	0x3f7c21f6	0.9848932
9	0x3f810ba7	1.0081681
10	0x3f7c144d	0.98468477
11	0x3f7dbfe2	0.99120915
12	0x3f7ca32a	0.9868647
13	0x3f7b32f1	0.98124605
14	0x3f80d20b	1.00641

base.feature_norm.bias f4 [15]
0	0x3b758fc7	0.0037469731
1	0x3ca919e2	0.020642225
2	0x3b4d0fed	0.003129001
3	0x3cb48bb1	0.022039266
4	0x3b7aa6ba	0.003824635
5	0x3b5bb9eb	0.0033527564
6	0x3ca9ec6a	0.020742614
7	0xbc81c84e	-0.015842583
8	0x3c0ce6c7	0.0085999435
9	0xbc2d2921	-0.010568888
10	0xbc08dca7	-0.008353389
11	0xbcc019ce	-0.023449805
12	0x3cc3a730	0.023883432
13	0x3bb13471	0.005407863
14	0x3c434b84	0.01191986

base.mlp.fc1.0.weight f4 [64, 15]
0	0x3e3e31b5	0.18573649
1	0xbe590c26	-0.2119604
2	0x3bebd86a	0.0071974294
3	0xbda1fdee	-0.07909761
4	0xbc97f0c4	-0.018547423
5	0xbe1ae722	-0.15127233
6	0x3e254baf	0.16142152
7	0xbde89457	-0.113564186
8	0xbe620ff1	-0.22076394
9	0xbe0f6dc9	-0.14006723
10	0xbe99b916	-0.30024022
11	0x3d44c59b	0.048040014
12	0xbdcfa60d	-0.101390935
13	0xbdc37c32	-0.09545173
14	0x3e5ba033	0.2144783
15	0xbdb0e392	-0.086371556
16	0xbdd592fc	-0.10428426
17	0xbebcb824	-0.36859238
18	0xbc8f1bad	-0.017469252
19	0x3eb01f1b	0.34398732
20	0x3e4a9ed9	0.19787158
21	0xbe81046e	-0.25198692
22	0xbdb3eeba	-0.08785768
23	0xbe4f0473	-0.20216541
24	0xbd1af639	-0.037832472
25	0x3dd8f82c	0.1059421
26	0x3dfec696	0.12440221
27	0x3d741f1f	0.059599992
28	0xbe64d7b7	-0.22347914
29	0x3cb02d31	0.021505924
30	0xbea7a04a	-0.32739478
31	0xbccedd93	-0.02525214
32	0x3e5122d6	0.20423445
33	0xbdd77681	-0.1052065
34	0xbd97e56c	-0.074168056
35	0x3e4a6545	0.19765194
36	0x3e58436e	0.21119472
37	0xbe9a94c9	-0.3019164
38	0xbd68a6f3	-0.05679984
39	0x3e6d3214	0.23163635
40	0xbd93db6c	-0.07219586
41	0x3d638d41	0.055554632
42	0xbd9251fa	-0.07144542
43	0x3e210916	0.15726122
44	0x3d1e2d05	0.038617153
45	0x3c8db7b9	0.01729952
46	0xbb57b26a	-0.003291274
47	0xbd881794	-0.06645122
48	0x3dde48d7	0.10853737
49	0xbe0e1457	-0.13874947
50	0x3dbb6d46	0.09151702
51	0x3cabd43c	0.020975225
52	0x3e504399	0.20338286
53	0xbec7414e	-0.3891701
54	0x3e986ac4	0.29768956
55	0x3d9d379e	0.07676624
56	0xbcdf6d20	-0.027273715
57	0xbd895963	-0.06706502
58	0xbd05adf7	-0.03263661
59	0xbdc81e6d	-0.09771428
60	0xbd0b1cff	-0.0339632
61	0xbe9db4ac	-0.30801904
62	0x3dc01e6e	0.09380804
63	0x3dc1766b	0.094464146
64	0x3d910baa	0.07082303
65	0xbe96f881	-0.29486468
66	0xbe2167a6	-0.15762195
67	0xbe7c9950	-0.24667859
68	0xbdbd0eaf	-0.09231316
69	0xbe56e49f	-0.2098565
70	0x3ece097f	0.4024162
71	0xbe0bd933	-0.13657074
72	0x3c4fb0e2	0.0126764495
73	0x3d8386a1	0.06422163
74	0x3e966f96	0.29382008
75	0x3bcc3aa3	0.006232576
76	0xbdd6547e	-0.10465334
77	0xbdb1cadd	-0.08681271
78	0x3e90830b	0.28224978
79	0xbcc1f5af	-0.023676721
80	0x3e22e63d	0.15908141
81	0xbeb7f17f	-0.35926434
82	0xbe87d619	-0.2653053
83	0x3e95ff9b	0.29296574
84	0x3e0ddc1d	0.13853498
85	0x3ede1732	0.43377072
86	0x3d8f1c26	0.06987791
87	0xbe59189c	-0.21200794
88	0x3e078a94	0.13236457
89	0xbdc31ca3	-0.095269464
90	0xbcd52e1a	-0.02602296
91	0x3c214810	0.009843841
92	0x3eb1809d	0.34668437
93	0x3bf0b4e2	0.0073457817
94	0xbc28fd47	-0.010314292
95	0xbd0c3f75	-0.034240205
96	0x3e24d851	0.16098143
97	0xbe16050c	-0.14650363
98	0x3d9a7cff	0.07543372
99	0x3e6dd1ed	0.23224612
100	0x3d8dcd09	0.06923873
101	0x3e1391fc	0.14411157
102	0xbd253511	-0.04033381
103	0xbe473558	-0.19453943
104	0x3e98065a	0.29692346
105	0xbeb32e4d	-0.34996262
106	0xbeb74425	-0.35794178
107	0xbe052148	-0.13000977
108	0x3d210e7a	0.039320447
109	0xbe2146d5	-0.15749677
110	0x3db15252	0.086582795
111	0x3d7a9c8c	0.06118445
112	0xbebdc240	-0.37062263
113	0xbe5e195a	-0.21689358
114	0xb90c242b	-0.00013364914
115	0xbda0a899	-0.078446575
116	0x3c82e6a4	0.015979119
117	0x3e54abfc	0.20768732
118	0x3e2a83cd	0.1665184
119	0xbe1ec444	-0.15504557
120	0xbe701e73	-0.23449115
121	0x3e5fc6a4	0.21853119
122	0x3de927bf	0.11384534
123	0x3e9e3309	0.30898312
124	0xbc195257	-0.00935801
125	0x3e8f2433	0.27957305
126	0x3e446f37	0.1918305
127	0xbd91ec6c	-0.07125172
128	0x3e147e2b	0.14501254
129	0x3c3a87e9	0.011384943
130	0x3d96f968	0.07371789
131	0x3cade50c	0.021227382
132	0xbdab1a50	-0.08354628
133	0x3d0bda14	0.034143522
134	0x3dae905b	0.08523627
135	0xbe050c88	-0.12993062
136	0x3d735ecf	0.05941659
137	0xbe0ac553	-0.13551836
138	0xbdd77aec	-0.10521492
139	0x3e060e51	0.13091399
140	0x3ea3917e	0.3194694
141	0xbd09d064	-0.033646002
142	0x3d9a843f	0.07544755
143	0xbdb6398a	-0.088976935
144	0x3d4b4c72	0.04963345
145	0x3d84efdf	0.06491064
146	0xbe44db28	-0.19224226
147	0x3d9d904d	0.07693539
148	0x3e58f9a6	0.21188983
149	0x3e8c0ae5	0.27352062
150	0xbd52f876	-0.051506482
151	0xbcc91e80	-0.024550676
152	0xbd78cc8c	-0.060741946
153	0xbc7c5bdb	-0.015402759
154	0x3d9c6d60	0.07638049
155	0x3d8dce45	0.069241084
156	0x3d7b5fd8	0.0613707
157	0xbd5b037b	-0.053470116
158	0xbe3c0754	-0.1836217
159	0xbde4595d	-0.11149857
160	0xbea2deba	-0.31810552
161	0xbdd53504	-0.104105026
162	0xbe8b24b8	-0.27176452
163	0x3e235f7b	0.15954392
164	0x3ea97678	0.33098197
165	0xbdc2907a	-0.09500213
166	0xbeaf1705	-0.3419725
167	0xbdbd213b	-0.09234854
168	0x3d66961d	0.056295503
169	0x3e58b031	0.21160962
170	0xbdb86b83	-0.09004881
171	0xbdcf6a50	-0.101276994
172	0xbe902f61	-0.28161147
173	0x3e2517fd	0.16122432
174	0x3dabc95f	0.08388018
175	0xbe626e2b	-0.22112338
176	0x3e3e5b01	0.18589403
177	0x3e9b92e8	0.30385518
178	0x3df2fa93	0.118641995
179	0xbb8d0b36	-0.004304315
180	0x3e529444	0.20564371
181	0xbd465e6b	-0.048429888
182	0x3d97630f	0.07391941
183	0x3d5ef840	0.05443597
184	0x3e5cc155	0.21558125
185	0x3e55bad7	0.20872055
186	0xbe5feb85	-0.21867187
187	0xbe28a45a	-0.16468945
188	0x3d9c6447	0.07636314
189	0xbe03589f	-0.12826775
190	0xbe26813c	-0.16260237
191	0xbe8f0ad6	-0.27937955
192	0xbca66184	-0.020310171
193	0x3dd443e3	0.10364511
194	0xbe46f377	-0.19428812
195	0xbdaf3ed5	-0.08556906
196	0xbd8e4689	-0.06947047
197	0x3ca36eb7	0.019950254
198	0x3e1af1de	0.15131328
199	0x3e112590	0.14174485
200	0xbee47240	-0.44618416
201	0x3e768eb1	0.2407787
202	0x3df525b2	0.119700804
203	0x3d978394	0.073981434
204	0x3e3e21ae	0.18567535
205	0x3e158020	0.14599657
206	0xbdcfb827	-0.10142546
207	0xbe4e7773	-0.20162754
208	0xbe92fe7f	-0.2870979
209	0xbd9fc088	-0.07800394
210	0xbdbefd33	-0.09325638
211	0x3e1359aa	0.14389673
212	0xbdb8dd4e	-0.090265855
213	0x3dec683c	0.11543319
214	0x3dd27bd6	0.10277526
215	0x3d37e0ef	0.044892248
216	0xbe543880	-0.20724678
217	0x3d58f4ef	0.052967962
218	0xbe9d84ef	-0.30765483
219	0x3e325673	0.1741579
220	0x3e149f2c	0.14513844
221	0x3decd334	0.11563721
222	0xbe0fcee3	-0.14043765
223	0xbe47efe5	-0.19525106
224	0xbcda46cf	-0.026645092
225	0xbe1dca03	-0.15409093
226	0x3e9f3aa0	0.31099415
227	0xbe3142c4	-0.17310625
228	0xbe63e027	-0.22253476
229	0xbced7608	-0.028986946
230	0xbe61a2f8	-0.22034824
231	0x3dc78286	0.09741692
232	0xbdad70b1	-0.0846876
233	0x3c06bbf6	0.008223524
234	0xbe9800de	-0.29688162
235	0xbde9c479	-0.11414427
236	0xbe81f06d	-0.25378743
237	0x3dbb9d6a	0.09160884
238	0x3dc30cde	0.095239386
239	0x3eae874b	0.34087595
240	0x3ea23ae2	0.3168555
241	0x3cd51b6e	0.026014056
242	0x3deee937	0.11665576
243	0xba5e4219	-0.0008478477
244	0x3dc43c13	0.09581771
245	0x3e84ab1b	0.25911793
246	0x3db5f991	0.08885492
247	0x3e315c2c	0.17320317
248	0xbf12dfcb	-0.5737273
249	0xbdca1e81	-0.098690994
250	0x3e80e3bb	0.25173745
251	0x3e987bd7	0.29781982
252	0x3d5310b0	0.051529586
253	0x3d9ca8e4	0.07649401
254	0xbdd84452	-0.10559906
255	0x3e693f7c	0.22778124

base.mlp.fc1.0.bias f4 [64]
0	0x3ca65e02	0.020308498
1	0x3c10ebe1	0.0088453
2	0xbc671c20	-0.014105827
3	0xbb03acdd	-0.0020092048
4	0xbbadda6e	-0.00530558
5	0x3c56e989	0.013117203
6	0x3bf46ffd	0.007459639
7	0xbc84926a	-0.016183097
8	0x3c63bb0d	0.013899577
9	0xb9cbba46	-0.00038857962
10	0x3bcbda48	0.0062210895
11	0xbba78436	-0.0051121963
12	0x3c62c3a4	0.01384059
13	0xbbdbc9cb	-0.006707405
14	0xbc8414b1	-0.016123148
15	0xbbce12bc	-0.0062888544
16	0xbcb6ddff	-0.022322653
17	0x3c8a18e6	0.016857576
18	0xbb606218	-0.0034238156
19	0x3b953849	0.004553829
20	0xbbe200b2	-0.0068970555
21	0xbbde1280	-0.0067771077
22	0x3cad3e88	0.021147981
23	0xbb9a679c	-0.004712058
24	0xbc2f12d6	-0.010685643
25	0x3cb6a08e	0.022293355
26	0xbb5c84d6	-0.0033648512
27	0x3bc98e98	0.0061510317
28	0xbc69f15f	-0.014278739
29	0xbc2e40ed	-0.010635597
30	0x3cbc9f71	0.023025246
31	0xbbbb8cc5	-0.005723568
32	0x3a034ec7	0.0005008992
33	0x3c79fb9c	0.015257742
34	0xbc927945	-0.017880091
35	0xba7db364	-0.00096779154
36	0xbc379518	-0.01120498
37	0xbcac7cf1	-0.02105567
38	0xbc414bda	-0.01179787
39	0x3aa5993f	0.0012634172
40	0x3b982930	0.004643582
41	0xbc475774	-0.012166847
42	0x3bc3b3ce	0.005972362
43	0x3cac4c75	0.021032551
44	0xbc18defb	-0.009330506
45	0xbcabb533	-0.020960426
46	0x3b40094f	0.0029302423
47	0x3c8b938b	0.017038127
48	0x3cc4b8dc	0.02401393
49	0xbb594002	-0.0033149724
50	0x3b906dc1	0.004407615
51	0xbbb82dc1	-0.0056206887
52	0xbc4f976e	-0.012670381
53	0x3cb57464	0.022150226
54	0xbbfc8822	-0.007706658
55	0xbc0a954b	-0.008458446
56	0x3c6a5de1	0.014304609
57	0xbc74869d	-0.014924672
58	0x3ca663e6	0.020311307
59	0xbc397f17	-0.0113218045
60	0xbc7328eb	-0.014841299
61	0x3bb17cd3	0.0054164915
62	0xbc521c72	-0.012824165
63	0xbbe31ee9	-0.006931175

base.mlp.fc1.2.weight f4 [64]
0	0x3f827b77	1.0193928
1	0x3f7d919d	0.99050313
2	0x3f7ff1e9	0.999785
3	0x3f8041c8	1.0020075
4	0x3f7e981f	0.9945087
5	0x3f82af9b	1.020984
6	0x3f80aeb5	1.0053316
7	0x3f808338	1.0040045
8	0x3f816c97	1.0111264
9	0x3f814d02	1.0101626
10	0x3f7c7aef	0.9862508
11	0x3f7d1fc6	0.9887661
12	0x3f7e3e8a	0.9931418
13	0x3f814810	1.0100117
14	0x3f7f4f75	0.99730617
15	0x3f7c34a1	0.98517805
16	0x3f7ecb76	0.99529207
17	0x3f80f13a	1.0073617
18	0x3f7badeb	0.9831225
19	0x3f7a1ab5	0.97697
20	0x3f7c5f21	0.98582655
21	0x3f7abdc1	0.9794579
22	0x3f824d79	1.0179893
23	0x3f7ba726	0.98301923
24	0x3f7dcb28	0.99138117
25	0x3f813b15	1.0096155
26	0x3f7c8276	0.9863657
27	0x3f80d751	1.0065709
28	0x3f7c0fe6	0.9846176
29	0x3f81b1ff	1.0132445
30	0x3f81b2d1	1.0132695
31	0x3f8156b1	1.0104581
32	0x3f8033c9	1.0015804
33	0x3f81a27a	1.0127709
34	0x3f7f595c	0.99745727
35	0x3f8052ef	1.0025309
36	0x3f7e4b55	0.993337
37	0x3f7be678	0.9839854
38	0x3f81844c	1.0118499
39	0x3f7cd8f1	0.98768526
40	0x3f7f50d2	0.99732697
41	0x3f7ff032	0.99975884
42	0x3f81f0d2	1.0151618
43	0x3f7fc929	0.9991632
44	0x3f7d3abb	0.9891774
45	0x3f808684	1.0041051
46	0x3f7c40b2	0.9853622
47	0x3f80c38c	1.0059676
48	0x3f7dcba7	0.99138874
49	0x3f7e4db3	0.9933731
50	0x3f819283	1.0122837
51	0x3f7e6aea	0.9938189
52	0x3f816057	1.0107526
53	0x3f82e8cf	1.0227298
54	0x3f7dcb80	0.9913864
55	0x3f7c33ef	0.98516744
56	0x3f828a3a	1.0198433
57	0x3f7bd20b	0.98367375
58	0x3f7dc492	0.9912807
59	0x3f7b7bfd	0.98236066
60	0x3f7d6278	0.98978376
61	0x3f81780b	1.0114759
62	0x3f7e3b55	0.99309283
63	0x3f8009fc	1.0003047

base.mlp.fc1.2.bias f4 [64]
0	0x3c230ca1	0.009951741
1	0x3ba4cad8	0.0050290637
2	0xbcbd9943	-0.02314437
3	0xbb8d7b32	-0.0043176645
4	0xbc28bfa2	-0.010299595
5	0x3bf37778	0.0074300133
6	0x3bd77726	0.006575483
7	0xbc8c967f	-0.017161606
8	0x3bed6c4c	0.007245576
9	0xbaba6119	-0.0014219611
10	0x384b18b4	4.8421978e-05
11	0xba3a37c6	-0.0007103648
12	0x3c1b280d	0.009469998
13	0xbb6dbaae	-0.00362746
14	0xbc9dc8a0	-0.019260705
15	0x3c00b076	0.007854572
16	0xbc91704c	-0.017753743
17	0x3beb84f5	0.0071874806
18	0x3bd1fbb5	0.0064081796
19	0x3c93d460	0.018045604
20	0xb8c1d314	-9.2422735e-05
21	0x3be87949	0.0070945364
22	0x3baa4806	0.005196574
23	0x3ad973e6	0.0016590327
24	0xbc3863ec	-0.011254292
25	0x3c0d0316	0.008606693
26	0x3b003210	0.001956109
27	0x3b76a1c9	0.0037633053
28	0xbcbc5175	-0.02298806
29	0xbb33bdec	-0.0027426435
30	0x3b9c8736	0.0047768606
31	0xbb2fc5aa	-0.0026820698
32	0x3a8fe9e3	0.0010979738
33	0x3ba4a7b0	0.0050248727
34	0xbc4aa99a	-0.012369538
35	0x3b5066cb	0.003179955
36	0xbbad1373	-0.0052818595
37	0xbc7551d8	-0.014973126
38	0xbb975497	-0.004618238
39	0xbaa4fbb2	-0.0012587218
40	0x3bb29340	0.0054496825
41	0xbc86aafd	-0.016438955
42	0x3a09c92d	0.0005256113
43	0xbb01b09a	-0.00197891
44	0xbbabe16c	-0.0052453782
45	0xbc20e4f3	-0.009820211
46	0x3c2a6232	0.010399388
47	0x3c971a46	0.018445145
48	0x3c35ea22	0.011103185
49	0xbc31d019	-0.010852837
50	0xbbee8750	-0.007279314
51	0xbc2afc7e	-0.010436175
52	0xbc413348	-0.011792012
53	0x3cad8224	0.02118022
54	0xbba76e75	-0.005109603
55	0x3b918bd5	0.004441718
56	0x398b7f56	0.0002660702
57	0xbbb819b5	-0.005618299
58	0x3badc4d5	0.005303005
59	0xbc30b6b0	-0.010785744
60	0xbc82132d	-0.015878284
61	0x3b97d38d	0.004633373
62	0x3c0333fd	0.008008
63	0xbbcbf2ff	-0.0062240358

base.mlp.fc_h.0.weight f4 [64, 64]
0	0x3e0f0a5d	0.13968797
1	0x3e81f8e4	0.253852
2	0x3da5fb8c	0.081046194
3	0x3e8f7266	0.28016967
4	0xbe242199	-0.16028441
5	0x3e82af86	0.2552454
6	0xbe146e69	-0.14495243
7	0xbdef7703	-0.116926216
8	0xbe9716cd	-0.29509583
9	0xbe9592b4	-0.29213488
10	0xbe857613	-0.26066646
11	0x3d82a533	0.063791655
12	0xbe041551	-0.12898757
13	0x3d71e2d9	0.05905423
14	0xbe229781	-0.15878107
15	0x3e9f38ba	0.31097966
16	0x3a0cc9f0	0.0005370667
17	0x3ddfa5c1	0.10920287
18	0x3e3bb302	0.18330005
19	0xbe481eef	-0.1954305
20	0x3de5b218	0.11215609
21	0xbed16a79	-0.40901545
22	0x3cc7c393	0.02438525
23	0xbe87f355	-0.26552835
24	0xbdcc595a	-0.0997798
25	0xbd8c0314	-0.068365246
26	0xbbb6974b	-0.0055722347
27	0xbe82fea5	-0.25584903
28	0x3d94d212	0.0726663
29	0xbbadb9a0	-0.0053016692
30	0x3ded17e3	0.11576822
31	0xbe9e5ebc	-0.30931652
32	0xbd7d0b9c	-0.06177865
33	0xbd971bb5	-0.073783316
34	0x3cf6e085	0.030136356
35	0xbed6d1fa	-0.41957074
36	0x3e205149	0.15656008
37	0xbdd1fdac	-0.10253462
38	0x3e8ebd14	0.2787863
39	0xbea084a7	-0.31351206
40	0xbd89db62	-0.06731297
41	0x3da6281a	0.081131175
42	0x3ddcc96b	0.10780605
43	0xbd2a62cf	-0.041598137
44	0x3c0bef9f	0.008541017
45	0xbddcb6fc	-0.10777089
46	0xbd78e335	-0.060763557
47	0xbe05287b	-0.13003723
48	0x3e69ee38	0.2284478
49	0xbe2beddc	-0.16789955
50	0x3e30d587	0.17268954
51	0x3e85297e	0.2600822
52	0xbe603685	-0.21895798
53	0x3da247e2	0.07923867
54	0xbd8868ce	-0.06660615
55	0x3c059da6	0.008155262
56	0xbc23db90	-0.010001078
57	0xbcefe52c	-0.029284082
58	0xbe716f6a	-0.23577657
59	0x3dd3c4f3	0.103402995
60	0x3d41177b	0.047141533
61	0x3e07858e	0.13234541
62	0x3d697f7a	0.057006337
63	0x3dc2166c	0.09476933
64	0x3dee7aad	0.11644492
65	0xbc85a37f	-0.016313313
66	0x3c846135	0.016159633
67	0x3e1d9084	0.1538716
68	0xbe1fc1f0	-0.15601325
69	0x3e2ce4b9	0.16884126
70	0x3e0fca63	0.14042048
71	0x3e040f7a	0.12896529
72	0x3d76bd13	0.06023891
73	0xbe1359cc	-0.14389724
74	0x3d9342e1	0.071904905
75	0xbe24e267	-0.1610199
76	0x3ba03e29	0.0048902226
77	0x3e8d105e	0.2755155
78	0xbdff8e20	-0.1247828
79	0xbe3e8ce6	-0.18608436
80	0x3e30e107	0.17273341
81	0xbe3c7ee8	-0.18407786
82	0xbe5a4a24	-0.21317345
83	0xbe054ef3	-0.13018398
84	0x3e363ffd	0.17797847
85	0x3e034e37	0.12822805
86	0x3e2210cd	0.15826721
87	0x3e4c12a1	0.19928981
88	0xbde424bb	-0.11139818
89	0xbd05777a	-0.032584645
90	0xbcefd1b6	-0.029274803
91	0xbdce9e2c	-0.10088763
92	0x3eb1b6cc	0.34709775
93	0xbdc6581f	-0.096847765
94	0x3ee43e7e	0.44578928
95	0xbe34e505	-0.17665489
96	0xbd8cb58c	-0.06870565
97	0x3da5b9d2	0.08092083
98	0x3d81e0bc	0.06341693
99	0xbce8275d	-0.028339082
100	0x3dbcd070	0.09219444
101	0x3dd908f3	0.1059741
102	0xbd018788	-0.031623393
103	0x3d094949	0.033517156
104	0x3e851aac	0.25996912
105	0x3e4d60cd	0.20056458
106	0xbe3231bb	-0.17401783
107	0xbdcffa44	-0.10155156
108	0x3ea5d14a	0.32386237
109	0xbc13d329	-0.0090225125
110	0xbe5c13f8	-0.21491992
111	0x3e766d9d	0.24065252
112	0xbeaa4347	-0.33254454
113	0x3e849b1e	0.25899595
114	0x3e142e56	0.14470801
115	0x3dac416c	0.08410916
116	0xbe1913c8	-0.14948952
117	0x3ecefc10	0.40426683
118	0xbe1736ff	-0.14767073
119	0xbd69aa28	-0.05704704
120	0xbd94d39f	-0.07266926
121	0xbe96707d	-0.29382697
122	0x3e92a342	0.2864018
123	0xbdbf73c5	-0.09348253
124	0x3df21f9d	0.11822436
125	0x3b118deb	0.0022209834
126	0xbe5808d9	-0.21097125
127	0xbdfddfea	-0.12396224
128	0xbe946eef	-0.28990886
129	0xbe714034	-0.23559648
130	0x3e0900fa	0.13379279
131	0x3e44321a	0.19159737
132	0xbe92e71d	-0.2869195
133	0xbe52e0bf	-0.20593546
134	0xbe3bce3c	-0.18340391
135	0xbdde4f8d	-0.10855017
136	0x3e3a3729	0.18185104
137	0xbd93a1d6	-0.07208602
138	0xbe8448f5	-0.25836912
139	0xbca14caa	-0.019689877
140	0x3dc40f55	0.09573237
141	0xbe492906	-0.19644555
142	0xbd4571d9	-0.048204277
143	0xbe836f23	-0.25670728
144	0xbdcf34c9	-0.1011749
145	0x3ea780df	0.32715508
146	0x3e0307c2	0.12795928
147	0xbcaa8ed1	-0.020820053
148	0xbd0adf20	-0.033904195
149	0x3ea1e531	0.31620172
150	0xbe1b9b23	-0.15195899
151	0x3bb89aff	0.0056337113
152	0xbe16e0bb	-0.14734165
153	0x3d848348	0.064703524
154	0xbe778bd8	-0.2417444
155	0x3e13df06	0.14440545
156	0x3d8af9a8	0.067858994
157	0xbd50c098	-0.05096492
158	0xbd99a573	-0.0750226
159	0x3d4b5249	0.04963902
160	0x3cf1bcbf	0.029508946
161	0xbe12d119	-0.14337577
162	0x3cc7f354	0.02440802
163	0xbcde0d2a	-0.027105886
164	0xbe275826	-0.1634222
165	0x3e402c8d	0.18766995
166	0x3e8af748	0.27141786
167	0x3b20cda3	0.0024536632
168	0x3ee4dd5d	0.44700137
169	0x3e4fa3a3	0.20277266
170	0x3df8aac4	0.12141946
171	0xbea06bca	-0.31332237
172	0x3e408c1d	0.18803449
173	0xbe7fca5e	-0.2497954
174	0xbe06c987	-0.13162814
175	0x3db33765	0.087508
176	0x3d9a403f	0.07531785
177	0xbdfef386	-0.12448792
178	0x3c98d070	0.018654078
179	0xbe78b166	-0.24286422
180	0xbe5ce29b	-0.21570818
181	0xbd37ae90	-0.04484421
182	0xbe8fa2ce	-0.28053898
183	0x3e7e8101	0.24853899
184	0x3d52f33c	0.051501498
185	0x3e12fbd7	0.14353882
186	0xbd79a030	-0.060943782
187	0x3e851de7	0.25999376
188	0x3d25c875	0.040474374
189	0xbcda23de	-0.026628431
190	0x3cf4a19e	0.029862221
191	0x3e3aa772	0.18227938
192	0x3dce0d5a	0.1006114
193	0xbd5334e4	-0.051564112
194	0x3e587228	0.21137297
195	0x3d8e12d9	0.06937189
196	0xbe64a997	-0.22330318
197	0x3d4a9bc0	0.04946494
198	0xbd2b6b29	-0.041850243
199	0x3d090963	0.033456217
200	0x3e410f21	0.18853427
201	0x3e7e3714	0.24825698
202	0xbe236135	-0.1595505
203	0x3dfa166a	0.122113064
204	0x3e256fd4	0.1615594
205	0xbd80af69	-0.06283457
206	0xbe230708	-0.15920651
207	0xbed4a4d6	-0.4153201
208	0x3e228e60	0.15874624
209	0x3e5cd8e3	0.2156711
210	0x3ea57838	0.32318282
211	0xbd834382	-0.064093605
212	0xbe47cf44	-0.1951266
213	0xbd9adb7c	-0.075613946
214	0xbe718c2b	-0.23588626
215	0x3d8b7674	0.068097025
216	0x3ea28eb4	0.317495
217	0xbd4a59bc	-0.049401984
218	0x3e27c001	0.16381837
219	0xbe888801	-0.26666263
220	0xbdccb553	-0.09995522
221	0xbe482b45	-0.19547756
222	0x3daec3a7	0.085334115
223	0x3e5b9588	0.2144376
224	0x3d810b10	0.06300938
225	0x3e0d7bc8	0.1381675
226	0xbe22b374	-0.15888768
227	0xbe40472d	-0.18777151
228	0x3de5bd5a	0.112177566
229	0xbdf1cb47	-0.1180635
230	0x3deb2e8a	0.11483486
231	0xbdaf074e	-0.08546315
232	0xbe9343db	-0.28762707
233	0x3c519f98	0.012794398
234	0xbe3e8b8e	-0.18607923
235	0xbd636e62	-0.05552519
236	0xbdab3b5b	-0.083609305
237	0xbe92d710	-0.28679705
238	0x3e85606a	0.2605012
239	0x3e011b66	0.12608108
240	0xbda4137c	-0.08011529
241	0x3c0f768e	0.008756293
242	0xbdbf8bd9	-0.09352846
243	0x3dc146f1	0.09437359
244	0x3e7dde51	0.24791838
245	0x3e61e839	0.22061242
246	0xbcbfd0c8	-0.023414984
247	0xbd6583a2	-0.056033738
248	0xbda2f3a5	-0.07956628
249	0xbeaf33c5	-0.34219185
250	0x3e852270	0.26002836
251	0x3ddd2856	0.10798709
252	0xbeaf763e	-0.342699
253	0x3cadab85	0.021199951
254	0x3e5eceb8	0.21758544
255	0x3bafa76c	0.0053605344

base.mlp.fc_h.0.bias f4 [64]
0	0x00000000	0.0
1	0x00000000	0.0
2	0x00000000	0.0
3	0x00000000	0.0
4	0x00000000	0.0
5	0x00000000	0.0
6	0x00000000	0.0
7	0x00000000	0.0
8	0x00000000	0.0
9	0x00000000	0.0
10	0x00000000	0.0
11	0x00000000	0.0
12	0x00000000	0.0
13	0x00000000	0.0
14	0x00000000	0.0
15	0x00000000	0.0
16	0x00000000	0.0
17	0x00000000	0.0
18	0x00000000	0.0
19	0x00000000	0.0
20	0x00000000	0.0
21	0x00000000	0.0
22	0x00000000	0.0
23	0x00000000	0.0
24	0x00000000	0.0
25	0x00000000	0.0
26	0x00000000	0.0
27	0x00000000	0.0
28	0x00000000	0.0
29	0x00000000	0.0
30	0x00000000	0.0
31	0x00000000	0.0
32	0x00000000	0.0
33	0x00000000	0.0
34	0x00000000	0.0
35	0x00000000	0.0
36	0x00000000	0.0
37	0x00000000	0.0
38	0x00000000	0.0
39	0x00000000	0.0
40	0x00000000	0.0
41	0x00000000	0.0
42	0x00000000	0.0
43	0x00000000	0.0
44	0x00000000	0.0
45	0x00000000	0.0
46	0x00000000	0.0
47	0x00000000	0.0
48	0x00000000	0.0
49	0x00000000	0.0
50	0x00000000	0.0
51	0x00000000	0.0
52	0x00000000	0.0
53	0x00000000	0.0
54	0x00000000	0.0
55	0x00000000	0.0
56	0x00000000	0.0
57	0x00000000	0.0
58	0x00000000	0.0
59	0x00000000	0.0
60	0x00000000	0.0
61	0x00000000	0.0
62	0x00000000	0.0
63	0x00000000	0.0

base.mlp.fc_h.2.weight f4 [64]
0	0x3f800000	1.0
1	0x3f800000	1.0
2	0x3f800000	1.0
3	0x3f800000	1.0
4	0x3f800000	1.0
5	0x3f800000	1.0
6	0x3f800000	1.0
7	0x3f800000	1.0
8	0x3f800000	1.0
9	0x3f800000	1.0
10	0x3f800000	1.0
11	0x3f800000	1.0
12	0x3f800000	1.0
13	0x3f800000	1.0
14	0x3f800000	1.0
15	0x3f800000	1.0
16	0x3f800000	1.0
17	0x3f800000	1.0
18	0x3f800000	1.0
19	0x3f800000	1.0
20	0x3f800000	1.0
21	0x3f800000	1.0
22	0x3f800000	1.0
23	0x3f800000	1.0
24	0x3f800000	1.0
25	0x3f800000	1.0
26	0x3f800000	1.0
27	0x3f800000	1.0
28	0x3f800000	1.0
29	0x3f800000	1.0
30	0x3f800000	1.0
31	0x3f800000	1.0
32	0x3f800000	1.0
33	0x3f800000	1.0
34	0x3f800000	1.0
35	0x3f800000	1.0
36	0x3f800000	1.0
37	0x3f800000	1.0
38	0x3f800000	1.0
39	0x3f800000	1.0
40	0x3f800000	1.0
41	0x3f800000	1.0
42	0x3f800000	1.0
43	0x3f800000	1.0
44	0x3f800000	1.0
45	0x3f800000	1.0
46	0x3f800000	1.0
47	0x3f800000	1.0
48	0x3f800000	1.0
49	0x3f800000	1.0
50	0x3f800000	1.0
51	0x3f800000	1.0
52	0x3f800000	1.0
53	0x3f800000	1.0
54	0x3f800000	1.0
55	0x3f800000	1.0
56	0x3f800000	1.0
57	0x3f800000	1.0
58	0x3f800000	1.0
59	0x3f800000	1.0
60	0x3f800000	1.0
61	0x3f800000	1.0
62	0x3f800000	1.0
63	0x3f800000	1.0

base.mlp.fc_h.2.bias f4 [64]
0	0x00000000	0.0
1	0x00000000	0.0
2	0x00000000	0.0
3	0x00000000	0.0
4	0x00000000	0.0
5	0x00000000	0.0
6	0x00000000	0.0
7	0x00000000	0.0
8	0x00000000	0.0
9	0x00000000	0.0
10	0x00000000	0.0
11	0x00000000	0.0
12	0x00000000	0.0
13	0x00000000	0.0
14	0x00000000	0.0
15	0x00000000	0.0
16	0x00000000	0.0
17	0x00000000	0.0
18	0x00000000	0.0
19	0x00000000	0.0
20	0x00000000	0.0
21	0x00000000	0.0
22	0x00000000	0.0
23	0x00000000	0.0
24	0x00000000	0.0
25	0x00000000	0.0
26	0x00000000	0.0
27	0x00000000	0.0
28	0x00000000	0.0
29	0x00000000	0.0
30	0x00000000	0.0
31	0x00000000	0.0
32	0x00000000	0.0
33	0x00000000	0.0
34	0x00000000	0.0
35	0x00000000	0.0
36	0x00000000	0.0
37	0x00000000	0.0
38	0x00000000	0.0
39	0x00000000	0.0
40	0x00000000	0.0
41	0x00000000	0.0
42	0x00000000	0.0
43	0x00000000	0.0
44	0x00000000	0.0
45	0x00000000	0.0
46	0x00000000	0.0
47	0x00000000	0.0
48	0x00000000	0.0
49	0x00000000	0.0
50	0x00000000	0.0
51	0x00000000	0.0
52	0x00000000	0.0
53	0x00000000	0.0
54	0x00000000	0.0
55	0x00000000	0.0
56	0x00000000	0.0
57	0x00000000	0.0
58	0x00000000	0.0
59	0x00000000	0.0
60	0x00000000	0.0
61	0x00000000	0.0
62	0x00000000	0.0
63	0x00000000	0.0

base.mlp.fc2.0.0.weight f4 [64, 64]
0	0x3e1d0f32	0.15337828
1	0x3e89dde1	0.26927093
2	0x3d768273	0.060183
3	0x3e995681	0.2994881
4	0xbe2511a0	-0.16120005
5	0x3e712fa4	0.2355333
6	0xbe22e018	-0.15905797
7	0xbe0336fd	-0.12813945
8	0xbe9e2cc8	-0.3089354
9	0xbe926187	-0.28590032
10	0xbe806034	-0.25073397
11	0x3d38f6eb	0.045157354
12	0xbe0d7b26	-0.13816509
13	0x3d6d1ef5	0.05789085
14	0xbe0fa55b	-0.14027922
15	0x3e9cdc8c	0.30637014
16	0x3cd02fc6	0.025413405
17	0x3dcfe497	0.10151022
18	0x3e3b3419	0.18281592
19	0xbe5ac005	-0.21362312
20	0x3dd15c8b	0.10222729
21	0xbecf4823	-0.40484723
22	0x3ccfc1e2	0.025361005
23	0xbe7db42e	-0.24775764
24	0xbdc85962	-0.097826734
25	0xbd9fa948	-0.0779596
26	0x3c890311	0.016725095
27	0xbe84f034	-0.2596451
28	0x3d8c6c72	0.06856622
29	0xbb3e067f	-0.0028995571
30	0x3df145dd	0.117809035
31	0xbe9e942e	-0.30972427
32	0xbd80a4af	-0.06281411
33	0xbd826445	-0.06366781
34	0x3c9ff9c6	0.019528281
35	0xbed38150	-0.41309595
36	0x3e203b1b	0.15647547
37	0xbdd0deeb	-0.10198768
38	0x3e85bf5d	0.2612256
39	0xbe9a9a50	-0.30195856
40	0xbd597e71	-0.0530991
41	0x3dabf54d	0.08396397
42	0x3df84e15	0.12124268
43	0xbcf57fbb	-0.029968133
44	0xbc206cba	-0.009791547
45	0xbdff12d5	-0.12454764
46	0xbd97a337	-0.07404178
47	0xbe089714	-0.13338882
48	0x3e6e2d30	0.23259425
49	0xbe1871df	-0.14887188
50	0x3e1e4e78	0.15459621
51	0x3e86cc0d	0.26327553
52	0xbe5dad9b	-0.21648256
53	0x3db771c5	0.08957247
54	0xbd87b137	-0.06625598
55	0x3c8d74b0	0.017267555
56	0xbc3e14f9	-0.01160168
57	0xbd21e1ce	-0.039521985
58	0xbe5ca639	-0.21547784
59	0x3dd3a0aa	0.103333786
60	0x3d48d3cf	0.04903012
61	0x3e10c39b	0.14137118
62	0x3d29e590	0.041478693
63	0x3dc9a111	0.09845174
64	0x3e008fab	0.12554805
65	0xbcb370b8	-0.021904334
66	0x3c6d6bcb	0.014491032
67	0x3e0fedd3	0.14055566
68	0xbe2d64da	-0.16933003
69	0x3e152637	0.14565359
70	0x3e1b98dd	0.15195031
71	0x3df2d3d2	0.11856808
72	0x3d965d5f	0.07342028
73	0xbe1eff69	-0.15527119
74	0x3dad56c0	0.08463812
75	0xbe3a666f	-0.18203138
76	0x3c93a4a5	0.018022845
77	0x3e968101	0.29395297
78	0xbde64c36	-0.11245005
79	0xbe2f8848	-0.17141831
80	0x3e2a7004	0.16644293
81	0xbe369a78	-0.17832363
82	0xbe5b2e71	-0.21404435
83	0xbe164adb	-0.14676993
84	0x3e2bc881	0.16775705
85	0x3de9e64a	0.11420877
86	0x3e2b4456	0.16725287
87	0x3e503004	0.20330817
88	0xbdc73af1	-0.09728039
89	0xbc62a21d	-0.013832596
90	0xbc648d1b	-0.013949658
91	0xbdaf3f30	-0.08556974
92	0x3ea6cf4f	0.3258004
93	0xbde7057f	-0.11280345
94	0x3edce3bb	0.43142495
95	0xbe44c997	-0.19217525
96	0xbd788f34	-0.060683444
97	0x3d827ca1	0.06371427
98	0x3d831d27	0.06402045
99	0xbccbfa24	-0.02489955
100	0x3db2e10a	0.08734329
101	0x3dd788b9	0.10524125
102	0xbc28c351	-0.010300473
103	0x3d659895	0.056053717
104	0x3e87e2d1	0.26540235
105	0x3e390ef1	0.18072106
106	0xbe3f85a8	-0.1870333
107	0xbdf8b7be	-0.12144421
108	0x3eacd82c	0.33758676
109	0xbc925a0f	-0.017865209
110	0xbe6d71b8	-0.23187912
111	0x3e83f3f4	0.2577206
112	0xbea42343	-0.32058153
113	0x3e869cf6	0.26291627
114	0x3e172155	0.14758809
115	0x3dad33ae	0.08457123
116	0xbe090c40	-0.13383579
117	0x3ed2979f	0.41131303
118	0xbe2bd93a	-0.16782084
119	0xbd4a3faa	-0.04937712
120	0xbd740387	-0.059573676
121	0xbe8c461f	-0.27397248
122	0x3e9ab734	0.30217898
123	0xbdd0d709	-0.10197265
124	0x3e06d446	0.13166913
125	0x3c8a8d66	0.016913127
126	0xbe417fd5	-0.1889642
127	0xbe10113a	-0.14069071
128	0xbe96666a	-0.2937501
129	0xbe653d3f	-0.22386645
130	0x3e0dd6cf	0.13851474
131	0x3e5941d0	0.21216512
132	0xbe8ea078	-0.27856803
133	0xbe4bd074	-0.19903737
134	0xbe414b42	-0.18876365
135	0xbdb35eb3	-0.08758297
136	0x3e458130	0.19287562
137	0xbdac3251	-0.084080346
138	0xbe8f5596	-0.27994984
139	0xbaf130ff	-0.0018401443
140	0x3dc475d7	0.09592789
141	0xbe4a3dbe	-0.19750115
142	0xbd107e3b	-0.035276633
143	0xbe84315e	-0.25818914
144	0xbda407a7	-0.08009272
145	0x3ea4bb98	0.32174373
146	0x3e0bf028	0.13665831
147	0xbcca86a5	-0.024722407
148	0xbd28ea77	-0.041239228
149	0x3e9f837e	0.31155008
150	0xbe1ff18d	-0.15619488
151	0xb9c451c7	-0.00037444962
152	0xbe29f3cf	-0.16596912
153	0x3d8f6756	0.07002132
154	0xbe7f4057	-0.24926887
155	0x3e0d08c9	0.13772883
156	0x3da45aa9	0.080251046
157	0xbd319e55	-0.043363888
158	0xbdbbaca6	-0.091637895
159	0x3d899346	0.06717543
160	0x3c5ba1df	0.013405292
161	0xbe2187ba	-0.15774432
162	0x3d441259	0.04786906
163	0xbc456922	-0.012048991
164	0xbe2acd05	-0.16679771
165	0x3e4b5b08	0.19858944
166	0x3e89c30b	0.26906618
167	0xbc654246	-0.013992852
168	0x3edfac50	0.43686152
169	0x3e58a729	0.21157517
170	0x3dea5cf9	0.114435144
171	0xbea05eef	-0.3132243
172	0x3e3d99e8	0.18515742
173	0xbe835003	-0.25646982
174	0xbe058131	-0.13037564
175	0x3d9456e2	0.07243134
176	0x3db50c45	0.08840231
177	0xbdf3945b	-0.11893531
178	0x3c99e9dc	0.01878827
179	0xbe8085f9	-0.25102213
180	0xbe5bdacd	-0.21470185
181	0xbd46b44f	-0.0485118
182	0xbe869635	-0.26286474
183	0x3e7d5b01	0.24741746
184	0x3d47d649	0.048788343
185	0x3e19e360	0.15028143
186	0xbd896a51	-0.06709731
187	0x3e840e30	0.25792074
188	0x3ce824ae	0.028337803
189	0xbd14395d	-0.03618752
190	0x3c41a120	0.0118182
191	0x3e2df3be	0.16987512
192	0x3dca5ebb	0.0988135
193	0xbd775e02	-0.060392387
194	0x3e4e0861	0.20120384
195	0x3d6d52c5	0.057940263
196	0xbe507178	-0.20355785
197	0x3d1df649	0.038564954
198	0xbd097ca8	-0.033566147
199	0x3d32a98d	0.043618727
200	0x3e310fed	0.17291231
201	0x3e73530e	0.23762152
202	0xbe2b9924	-0.16757637
203	0x3e04d5bf	0.12972163
204	0x3e1a26a3	0.15053801
205	0xbd9d08f6	-0.07667725
206	0xbe2a58c6	-0.16635427
207	0xbedbb21d	-0.42909327
208	0x3e35bf6b	0.17748801
209	0x3e46a5f8	0.1939925
210	0x3ea4ca1b	0.32185444
211	0xbd77d15f	-0.060502406
212	0xbe4724f9	-0.19447698
213	0xbd95fbd2	-0.073234215
214	0xbe5c8457	-0.21534859
215	0x3d97b83b	0.07408186
216	0x3e9f74c0	0.3114376
217	0xbd2f591e	-0.0428096
218	0x3e2a7576	0.1664637
219	0xbe859877	-0.26092884
220	0xbdbb3ea1	-0.09142805
221	0xbe51492f	-0.20438074
222	0x3dd8977c	0.10575768
223	0x3e71408f	0.23559783
224	0x3d77ed94	0.060529307
225	0x3e10ee3c	0.14153379
226	0xbe1f8434	-0.15577775
227	0xbe437ecf	-0.19091342
228	0x3defd99b	0.11711427
229	0xbde0f969	-0.10985071
230	0x3e040384	0.12891966
231	0xbdd1dd04	-0.102472335
232	0xbe9294a2	-0.28629023
233	0x3ce52f56	0.027976673
234	0xbe4e638d	-0.20155163
235	0xbd17b0e0	-0.037033916
236	0xbd8f3081	-0.06991673
237	0xbe9b6d95	-0.30357042
238	0x3e8a1d5a	0.26975518
239	0x3e0d9c23	0.13829093
240	0xbd9ec417	-0.07752245
241	0xbc4d580c	-0.012533199
242	0xbdb23c21	-0.08702875
243	0x3d9e2c0f	0.07723247
244	0x3e85fe2f	0.2617049
245	0x3e594759	0.21218623
246	0xbc1517ef	-0.0090999445
247	0xbd2100e7	-0.0393075
248	0xbdc8ae7c	-0.09798905
249	0xbeb78c69	-0.35849312
250	0x3e80131f	0.25014588
251	0x3dd7a4cc	0.105294794
252	0xbeb1e215	-0.347428
253	0x3ad1fc09	0.0016020547
254	0x3e757e72	0.23974016
255	0xbba984ea	-0.0051733153

base.mlp.fc2.0.0.bias f4 [64]
0	0xbb1cdc78	-0.002393512
1	0xbbd52471	-0.0065045883
2	0x3b6a2f67	0.003573382
3	0x3c582460	0.013192266
4	0x3b3d7e4c	0.002891439
5	0xbc21fd62	-0.009887071
6	0x3c32b4b3	0.01090734
7	0xbb9aa035	-0.004718805
8	0x3c059e31	0.008155392
9	0xbca4dbb7	-0.0201243
10	0xbc62adc0	-0.013835371
11	0xbb008eeb	-0.0019616436
12	0xbbc1ccac	-0.0059142914
13	0xbc7ddfed	-0.015495283
14	0xbb76127d	-0.003754764
15	0xbc849ec5	-0.016188988
16	0xb9999563	-0.00029293736
17	0x3c0a4710	0.008439794
18	0xbcb99f79	-0.02265905
19	0x3c44483a	0.011980111
20	0xbbd10ae1	-0.0063794707
21	0xba9ad8b8	-0.0011813855
22	0x3c98df3c	0.018661134
23	0xbb77768c	-0.0037759868
24	0xbbb8da28	-0.0056412406
25	0x3caec93e	0.021336194
26	0x3c38ecd1	0.01128693
27	0x3b68d0f0	0.0035524927
28	0xbb50cafd	-0.0031859272
29	0xbb805079	-0.003915843
30	0xbc899bef	-0.016797988
31	0xbbdde528	-0.0067717023
32	0xbbcc5ccf	-0.0062366496
33	0xbc86d51f	-0.016459046
34	0xbbd06602	-0.0063598165
35	0xbc60470b	-0.013688813
36	0xbc2e7d47	-0.010649986
37	0xbab43e0e	-0.0013751404
38	0xbb09ca2d	-0.0021025047
39	0x3a1d38f0	0.0005997559
40	0xbc513585	-0.012769108
41	0xbc4fd3b9	-0.012684756
42	0x3c1251d3	0.008930641
43	0x3ba2c6ef	0.0049675624
44	0x3c25ebdc	0.010127034
45	0x3ba5eb45	0.0050634467
46	0x3caf9c78	0.021436915
47	0xbc39559e	-0.011311917
48	0xbb4c8cf4	-0.0031211944
49	0x3c65135d	0.013981667
50	0x3b451ea4	0.0030078078
51	0xbaf23636	-0.0018479291
52	0x3c85ca49	0.016331809
53	0xbc1addfb	-0.009452338
54	0xbc531e28	-0.012885608
55	0xbbd67dc9	-0.0065457565
56	0x3a3504a4	0.00069052936
57	0x3b9c2db2	0.0047661895
58	0xbb79aa78	-0.0038095992
59	0x3c67564d	0.014119697
60	0xbb681470	-0.0035412572
61	0xbca4d1b8	-0.020119533
62	0x3cb042d4	0.021516241
63	0xbb87b33a	-0.0041412385

base.mlp.fc2.0.2.weight f4 [64]
0	0x3f806d6e	1.0033395
1	0x3f81fd6f	1.0155467
2	0x3f82ab3c	1.0208507
3	0x3f82d50a	1.0221264
4	0x3f81af86	1.013169
5	0x3f81d05c	1.0141711
6	0x3f822d0e	1.017
7	0x3f81d967	1.0144471
8	0x3f82a0fe	1.0205381
9	0x3f7f4fa1	0.9973088
10	0x3f82d130	1.0220089
11	0x3f82a89d	1.0207707
12	0x3f8170e6	1.0112579
13	0x3f7fbf24	0.9990103
14	0x3f81e517	1.0148038
15	0x3f8064be	1.0030744
16	0x3f82a714	1.0207238
17	0x3f8264ff	1.0187072
18	0x3f824d02	1.0179751
19	0x3f81b15c	1.0132251
20	0x3f818ad8	1.0120497
21	0x3f82d135	1.0220095
22	0x3f828bb3	1.0198883
23	0x3f80f7bf	1.0075606
24	0x3f814725	1.0099837
25	0x3f830edc	1.023891
26	0x3f82e7fc	1.0227046
27	0x3f8083c5	1.0040213
28	0x3f8057fd	1.0026852
29	0x3f829758	1.0202436
30	0x3f82763e	1.0192335
31	0x3f829e7c	1.0204616
32	0x3f81d6a2	1.0143626
33	0x3f821155	1.0161539
34	0x3f80ae62	1.0053217
35	0x3f81b653	1.0133766
36	0x3f81fb5a	1.0154831
37	0x3f804448	1.0020838
38	0x3f82a0d7	1.0205334
39	0x3f8211d0	1.0161686
40	0x3f81ae3b	1.0131296
41	0x3f818646	1.0119102
42	0x3f819e6f	1.0126475
43	0x3f81f78d	1.0153672
44	0x3f829c01	1.0203859
45	0x3f805fc3	1.0029224
46	0x3f82e3f9	1.0225822
47	0x3f800e48	1.0004358
48	0x3f811855	1.008555
49	0x3f81520b	1.0103163
50	0x3f825c95	1.0184504
51	0x3f829331	1.0201169
52	0x3f8232e7	1.0171784
53	0x3f82da34	1.022284
54	0x3f81c614	1.0138574
55	0x3f8174e9	1.0113803
56	0x3f81bf71	1.0136548
57	0x3f8192a2	1.0122874
58	0x3f8244a6	1.01772
59	0x3f82c986	1.021775
60	0x3f8260e4	1.0185819
61	0x3f819831	1.012457
62	0x3f829223	1.0200847
63	0x3f82b08d	1.0210129

base.mlp.fc2.0.2.bias f4 [64]
0	0x3c255cb7	0.010092906
1	0xbc4518ae	-0.01202981
2	0xbbf5ebef	-0.007504932
3	0xbc70d069	-0.014698126
4	0x3b45fe69	0.0030211455
5	0xbbdd29db	-0.0067493743
6	0x3a8f8b6a	0.0010951583
7	0xbb48a0e8	-0.0030613486
8	0xbbc5ec02	-0.006040097
9	0xbca9cbfe	-0.020727154
10	0xbc5ceb82	-0.013483884
11	0x3c8c277e	0.017108675
12	0x3c3ad19d	0.011402515
13	0x3c3aeadd	0.011408535
14	0xbbf10482	-0.0073552737
15	0xbbd1c48f	-0.0064016054
16	0xbc0ff4c4	-0.008786384
17	0x3b6b47ee	0.0035901028
18	0xbca0b4a5	-0.019617388
19	0x3c849b48	0.016187325
20	0xbc16aa11	-0.00919582
21	0x3b187a52	0.0023266268
22	0x3ca46b5e	0.020070728
23	0x3a4aa185	0.0007729757
24	0xbb30d3ae	-0.002698164
25	0x3c0d513c	0.008625325
26	0xbb4be312	-0.0031110686
27	0x3c7f5331	0.015583799
28	0x3c013e01	0.007888318
29	0xbbc0743f	-0.0058732326
30	0xbc4b39d5	-0.012403925
31	0xbc64b994	-0.013960261
32	0xbc74199e	-0.014898686
33	0x3b3bfd92	0.0028685075
34	0x3c41590b	0.011801015
35	0xbc937956	-0.018002193
36	0xbbf9656b	-0.007610967
37	0x3c1b76c6	0.009488767
38	0xbc442f73	-0.011974203
39	0xbc1670cb	-0.009182165
40	0xbc0e3385	-0.008679275
41	0xbb1131e6	-0.0022154986
42	0xbc710d74	-0.01471268
43	0x3bf376d5	0.0074299374
44	0x3c068717	0.008210919
45	0x3c8efd24	0.017454691
46	0x3b8f5f5c	0.0043753814
47	0x3b006fcb	0.0019597884
48	0xbaa6c63f	-0.0012723877
49	0xba9e68fa	-0.0012085729
50	0xbaf48cb2	-0.0018657653
51	0xbc795a96	-0.015219351
52	0x3c4f2cad	0.012644929
53	0xbc7e4821	-0.015520127
54	0xbc381ca0	-0.0112372935
55	0x3c8b1bb1	0.016980978
56	0x3ab2b215	0.0013633395
57	0x3c203c4b	0.00978
58	0xbc8e8226	-0.017396044
59	0xbad250a6	-0.0016045764
60	0xbb69f99e	-0.0035701762
61	0x3a5f996e	0.00085296377
62	0x3cb0495c	0.021519355
63	0xbc900718	-0.017581508

act.action_out.linear.weight f4 [10, 64]
0	0xbbc85ee9	-0.00611483
1	0xbcb8d894	-0.02256421
2	0x3ca8aaa8	0.020589188
3	0xbca6806c	-0.020324908
4	0x3b1ac91f	0.0023618413
5	0x3aeeaaf5	0.0018208908
6	0x3c88dc4d	0.01670661
7	0x3c37588f	0.011190548
8	0xbb1d93fb	-0.0024044502
9	0xbc2ec1fd	-0.010666368
10	0x3cb00224	0.021485396
11	0x3c9633c6	0.018335234
12	0x3cad29d9	0.021138119
13	0xbb2e74c2	-0.0026619886
14	0x3cb4ae47	0.022055758
15	0xbc45a7d7	-0.012063942
16	0xbc8773d6	-0.016534727
17	0xbc871141	-0.01648772
18	0x3a1cb3bd	0.0005977711
19	0xbcc2029a	-0.023682881
20	0x3c8aa1e4	0.016922899
21	0x3c0fddc8	0.008780904
22	0x3ca5a270	0.020219058
23	0xbcc3d85d	-0.023906881
24	0xbbe07e09	-0.006850962
25	0x3ca9072b	0.0206333
26	0xbca731e2	-0.020409528
27	0x3c2e38a0	0.010633618
28	0xbc394447	-0.0113077825
29	0x3be45c2d	0.006968996
30	0x3ca63419	0.020288514
31	0x3c6b6a74	0.014368642
32	0x3b709cbf	0.0036714522
33	0xbca72952	-0.020405445
34	0xbc2ee027	-0.010673559
35	0x3c129d83	0.0089486865
36	0xbc0428f3	-0.008066404
37	0xbc0fafce	-0.008769942
38	0x3c69d72e	0.014272494
39	0x3c8c1ebd	0.0171045
40	0xbaaa0b81	-0.0012973399
41	0x3a019b72	0.00049441226
42	0x3c863e1f	0.016387044
43	0xbc8c3b5f	-0.017118154
44	0x3c882ce5	0.01662297
45	0xbc3c4dfc	-0.011493202
46	0xbc1987d6	-0.009370765
47	0xbb67d059	-0.0035371988
48	0x3c27cdd7	0.010241947
49	0x3ca46b54	0.02007071
50	0x3c45551e	0.012044219
51	0x3c884cd5	0.016638199
52	0xbb84bd69	-0.0040508998
53	0x3c3e1a79	0.011602991
54	0x3c7f18f8	0.015569918
55	0x3c1a9d86	0.009436971
56	0x3a618b79	0.0008603852
57	0x3bdf0b4c	0.0068067666
58	0xbbfa2736	-0.007634069
59	0x3cac7359	0.021051096
60	0x3c0b94df	0.00851938
61	0x3cbc9786	0.02302147
62	0xbb6cb712	-0.003611986
63	0x3caff157	0.021477384
64	0x3c0b6bbc	0.008509573
65	0xbc4f8d64	-0.0126679875
66	0x3c8fea2b	0.017567715
67	0xbc8f7941	-0.017513873
68	0x3c9c74d8	0.019098684
69	0xbb510bd3	-0.0031897917
70	0xbc045203	-0.008076194
71	0xbc49744f	-0.012295797
72	0xbca30209	-0.019898431
73	0x3b8a4358	0.004219454
74	0xbcbbf3e2	-0.02294344
75	0xb9e08e47	-0.00042830614
76	0x3ca56ea7	0.020194365
77	0x3baabd42	0.0052105496
78	0xb8467e2f	-4.7324396e-05
79	0x3c166da7	0.009181417
80	0xbc4a0fbe	-0.012332855
81	0xbc9625ca	-0.018328566
82	0xbc9f8a02	-0.019474987
83	0x3bc89ece	0.0061224466
84	0xbc9ce28c	-0.019150995
85	0x3b94835c	0.004532261
86	0x3c70ecab	0.014704864
87	0x3a66e856	0.00088084245
88	0x3c5f155b	0.013615931
89	0x3cc7bc46	0.024381768
90	0xbcd12ab3	-0.025533056
91	0x3bdbedd8	0.006711703
92	0x3b442de1	0.0029934573
93	0x3c96e153	0.01841799
94	0xbca4e2c9	-0.02012767
95	0x3c5463c7	0.012963242
96	0xbca94042	-0.020660523
97	0x39b17da9	0.00033853695
98	0x3c82ea8b	0.01598098
99	0xbc011c41	-0.007880271
100	0x39079f06	0.00012933844
101	0x3c9a54bd	0.018839234
102	0xbc2d2f06	-0.010570293
103	0xbc8fd87f	-0.017559288
104	0xbc048ea5	-0.00809065
105	0xbc023210	-0.007946506
106	0xbc931b65	-0.017957399
107	0x3c9b65f8	0.01896952
108	0x3bf431b3	0.0074522137
109	0x3a2b7aee	0.000654145
110	0xbbed93ef	-0.007250301
111	0x3c257366	0.010098314
112	0xbcb01f34	-0.021499254
113	0x3c185c2f	0.009299322
114	0x3c1369e1	0.0089974115
115	0xbc7fa8c8	-0.015604205
116	0x3c935be0	0.017988145
117	0x3cb7740a	0.022394199
118	0xbc2509f6	-0.010073176
119	0x3c93999e	0.018017586
120	0x3c980b99	0.018560218
121	0xbbd5727d	-0.006513892
122	0x3be8745d	0.0070939497
123	0x3c6fc1e6	0.014633631
124	0x3c2b5005	0.01045609
125	0xbcc68e16	-0.024237674
126	0xbcbdbac3	-0.023160344
127	0xbc4b1835	-0.012395908
128	0xbb65d0b5	-0.0035067026
129	0xbb849444	-0.004045995
130	0xb9967667	-0.00028698446
131	0x3cd08241	0.025452735
132	0xbc8dde66	-0.017317962
133	0x3ca8dccc	0.020613097
134	0xbc1d1fc6	-0.009590095
135	0x3c5bda5c	0.01341876
136	0xbca5556a	-0.02018233
137	0xbb8404b8	-0.004028883
138	0x3c936fed	0.017997706
139	0x3c8b6b5a	0.017018963
140	0x3ac4fccc	0.0015028953
141	0x3c0412dd	0.008061138
142	0x3c305855	0.0107632475
143	0x3b82938d	0.0039848746
144	0x3b84c0da	0.00405131
145	0xbc8b0438	-0.016969785
146	0x3cdfb221	0.027306618
147	0x3abbd497	0.0014330324
148	0x3bc28b74	0.0059370343
149	0xbbea3279	-0.00714713
150	0x3b53bd26	0.0032308786
151	0x3c608a31	0.013704822
152	0x3c93e652	0.018054161
153	0xbc272623	-0.010201964
154	0x3a7a8090	0.00095559005
155	0x3c8c18ce	0.017101672
156	0x3b64a429	0.0034887886
157	0x3c039156	0.008030256
158	0x3c8242af	0.015900938
159	0x3cb85c23	0.022504872
160	0xbcaee44e	-0.021349099
161	0xbae55897	-0.0017497715
162	0x3ba4b542	0.0050264904
163	0x3c76b41f	0.015057593
164	0x3c16558b	0.0091756685
165	0xbc478139	-0.012176805
166	0x3cc2c383	0.023774868
167	0x3cd4a2ef	0.025956599
168	0xbbd3d282	-0.0064643035
169	0xbbb01c3b	-0.005374459
170	0xbcaa02d1	-0.020753296
171	0xbc9d22ab	-0.01918157
172	0xbca3eca4	-0.0200103
173	0xba4a97b9	-0.0007728297
174	0xbcb048a7	-0.021519018
175	0x38ebdac7	0.00011246424
176	0x3b9909cb	0.004670357
177	0x3c11dc9f	0.008902698
178	0xbc867003	-0.016410833
179	0xbbe9a5d1	-0.0071303626
180	0xbbc18768	-0.0059060343
181	0x39f2d642	0.0004631747
182	0x3c75390f	0.014967217
183	0xbc8055a4	-0.015665837
184	0xbc6dffcf	-0.014526322
185	0xbaca3c02	-0.0015429261
186	0x3c9d682f	0.019214718
187	0x3c1133fd	0.008862493
188	0xbbbca5f7	-0.0057570892
189	0xbc5460e6	-0.0129625555
190	0xbc69fe1d	-0.014281777
191	0xb9cd7a25	-0.00039191652
192	0xbbea6022	-0.007152573
193	0x3c1ae3ac	0.009453695
194	0x3cab108c	0.020881914
195	0xbc55e58e	-0.013055218
196	0x3c1863f9	0.009301179
197	0xbc691fb7	-0.014228753
198	0xbcbf313d	-0.023338908
199	0xbc4112eb	-0.011784296
200	0x3b93e106	0.004512909
201	0xbc71cd83	-0.0147584705
202	0xbc78d3a9	-0.015187182
203	0xbc5080c5	-0.012726014
204	0x3b430ceb	0.0029762338
205	0x3c419dcf	0.01181741
206	0x3c7dd08c	0.015491616
207	0x3b6c1768	0.0036024693
208	0x3c84c1bf	0.016205667
209	0xbc3e925c	-0.0116315745
210	0x3c03d25e	0.008045761
211	0xbb51e462	-0.0032026996
212	0x3cb316a9	0.021861391
213	0xbca14a2c	-0.019688688
214	0x3cbefbba	0.023313392
215	0xbc5ae341	-0.013359846
216	0x3cdadf68	0.026717857
217	0x3ca66b00	0.020314693
218	0x3bd17076	0.00639158
219	0xbb3813e5	-0.002808803
220	0xbab25f1c	-0.0013608667
221	0xbbcfa1c8	-0.0063364245
222	0xbcb6cd56	-0.022314709
223	0xbc994a1c	-0.018712096
224	0xbc3a0798	-0.01135435
225	0xbc66bebd	-0.0140835615
226	0xbb402e9f	-0.0029324663
227	0x3b9adfdc	0.004726393
228	0xbc9dfbc1	-0.019285085
229	0x3b286999	0.0025697707
230	0xbc611125	-0.013736998
231	0x3bad0cc8	0.0052810647
232	0xbcb0adb5	-0.021567205
233	0x3c402dda	0.011729682
234	0xbc8f35d1	-0.017481716
235	0xbc364481	-0.011124731
236	0x3c86a307	0.01643516
237	0x3b7a37f0	0.0038180314
238	0x3c2cba00	0.010542393
239	0x3c0f58e3	0.00874922
240	0xbc874908	-0.016514316
241	0x3ca65876	0.020305853
242	0x3c959508	0.01825954
243	0xbc5bbef3	-0.013412225
244	0x3afc63b7	0.0019255792
245	0x3c91c320	0.017793238
246	0xbbd79541	-0.0065790717
247	0x3b90bf18	0.0044173114
248	0x3c84bf3f	0.016204474
249	0x3ce02ba4	0.02736456
250	0xbc431d45	-0.011908834
251	0xbcaa90d0	-0.020821005
252	0xbc42eeed	-0.011897785
253	0x3b8c00f0	0.0042725727
254	0x3c87260d	0.016497636
255	0xbc1a809f	-0.00943008

act.action_out.linear.bias f4 [10]
0	0xbc3a9fd9	-0.01139065
1	0x3c9dd2dd	0.019265587
2	0xbc718ba6	-0.014742767
3	0xbb9aff40	-0.004730135
4	0x3c1421e6	0.009041285
5	0xbc079667	-0.008275605
6	0x3c893c99	0.016752528
7	0xbc4d4c14	-0.0125303455
8	0xbcafde0b	-0.021468183
9	0x3bcd2bc4	0.006261321
