light_mappo-main/results/MyEnv/MyEnv/mappo/check/run41/models/critic.pt (torch, 52149 bytes, 15 tensors)

base.feature_norm.weight f4 [45]
000000 c8 50 81 3f 45 82 7d 3f 47 ca 81 3f f8 18 7f 3f
       1.0102777 0.990269 1.0139855 0.99647474
000010 f4 7b 80 3f e9 24 7d 3f 0f 80 80 3f 60 4c 7d 3f
       1.0037827 0.98884445 1.003908 0.98944664
000020 c9 04 82 3f e6 a5 7f 3f cd 39 7f 3f 7e ab 80 3f
       1.015771 0.99862516 0.9969757 1.0052335
000030 00 d9 7f 3f ac 50 81 3f 85 dd 81 3f 45 f2 7e 3f
       0.9994049 1.0102744 1.0145727 0.99588424
000040 ee c9 7e 3f 5c 55 81 3f 3f d5 7e 3f 90 b2 7b 3f
       0.9952687 1.0104175 0.9954414 0.9831934
000050 b0 77 81 3f 8e 2a 82 3f da 00 80 3f 9e 28 80 3f
       1.0114651 1.0169237 1.000026 1.0012395
000060 a1 8f 80 3f 9a 79 7d 3f 6d 8f 80 3f cb 71 81 3f
       1.0043832 0.99013674 1.004377 1.0112852
000070 b8 54 7f 3f 2c a9 80 3f c4 e8 7c 3f ab f4 81 3f
       0.99738646 1.0051627 0.9879267 1.0152792
000080 ff 0f 80 3f 96 09 80 3f 1f 9b 7d 3f 71 d5 80 3f
       1.0004882 1.0002925 0.9906482 1.0065137
000090 32 d3 81 3f fd b2 81 3f df 08 7f 3f 01 0c 7c 3f
       1.0142577 1.0132748 0.9962291 0.98455817
0000a0 88 3e 81 3f fc 9e 7e 3f ce 16 7f 3f d5 38 7c 3f
       1.0097208 0.9946134 0.9964417 0.9852422
0000b0 76 54 81 3f
       1.01039

base.feature_norm.bias f4 [45]
000000 68 42 eb ba 98 c0 60 bc f3 c0 81 bc 50 79 76 bc
       -0.0017948868 -0.013717793 -0.015839076 -0.015043572
000010 87 21 7a bc 91 6e 5d 3c cd ac 35 3b c9 2e 6f 3c
       -0.015266783 0.013515131 0.0027721405 0.014598557
000020 ab c8 62 bc 83 62 ef 3b fc 6d 5d 3c 3c c5 1c bc
       -0.013841788 0.0073054447 0.013514992 -0.009568509
000030 75 94 84 bb eb 06 24 bc 19 de 07 bc 8e 2c 74 bc
       -0.004046018 -0.010011415 -0.008292698 -0.014903201
000040 95 4c 7e bc 4d a6 41 bb d4 98 3d 3b 10 92 e7 bb
       -0.015521188 -0.0029548586 0.0028930204 -0.0070669726
000050 52 43 3b bc 63 06 29 bc 78 1e 17 3b da 2b f9 3b
       -0.011429625 -0.010316464 0.0023058932 0.0076041045
000060 a1 ae 05 bc 25 5e 18 bc 06 77 3a bc 5a c9 ee 3b
       -0.008159311 -0.00929979 -0.011380916 0.0072871866
000070 eb 29 54 3c 79 75 58 bb ed 46 d1 3b 35 0d c9 3b
       0.012949447 -0.0033029004 0.006386629 0.0061356076
000080 9d 70 82 bc 53 55 42 bc 10 40 71 bb b5 03 6b 3c
       -0.015922839 -0.011861163 -0.0036811866 0.014344146
000090 57 3b d2 bb 5c 29 26 bc 33 8e 3c 3b 26 7f 81 3c
       -0.0064157653 -0.010141697 0.002877128 0.0158077
0000a0 5a 1a 32 bc 72 e9 56 ba 58 ce e7 3b 01 3f 98 3a
       -0.0108705405 -0.0008198238 0.0070741586 0.0011615456
0000b0 ea f5 e6 bb
       -0.007048358

base.mlp.fc1.0.weight f4 [64, 45]
000000 42 5f a9 be 09 78 a3 3d 78 ab 33 be 7b 0f 30 bd
       -0.33080488 0.07981879 -0.17545879 -0.042983513
000010 a4 2b 86 3e ba 17 67 be 4f 2c 69 bc 11 ce 80 be
       0.2620517 -0.22567645 -0.014231755 -0.25157216
000020 5e 63 15 3d 52 9f b3 b9 11 10 d1 bc 26 f2 10 be
       0.036471717 -0.00034260243 -0.025520356 -0.14154872
000030 c6 8f 48 be 94 59 53 be c1 26 f9 bc 1d ce 6f bc
       -0.19586095 -0.2063964 -0.030413987 -0.014636544
000040 70 3b b4 3e e2 19 18 3e f8 f5 7a be 1c 64 99 3e
       0.35201597 0.14853624 -0.24507892 0.2995919
000050 bf 44 47 3d bd a5 8f 3d e3 ec 3e be 49 75 79 3e
       0.048649546 0.07014034 -0.18645053 0.24361147
000060 75 3e 42 be b0 ef b9 3b da 54 81 be ef 1c 14 be
       -0.18969138 0.005674325 -0.2526005 -0.14464162
000070 d3 3c d8 bd 7d 61 3b be 7b 55 3f 3e 0d f8 16 bd
       -0.10558476 -0.18298908 0.18684952 -0.036857653
000080 ce 33 08 be 10 13 41 bd 30 96 a7 3b f8 fd 02 be
       -0.13301012 -0.04713732 0.0051143393 -0.12792194
000090 a4 7d 98 3b 08 23 e8 3c 44 6a 80 3d 65 ac 43 3e
       0.0046536494 0.028337017 0.062702686 0.19108732
0000a0 20 75 6f be fb 02 26 be be 97 dd 3d ad 8a 41 3e
       -0.23384523 -0.16212074 0.10819958 0.18900557
0000b0 7c 15 6d 3e 9b 19 d2 3c 42 ab a4 3c be 49 17 be
       0.23152727 0.025646975 0.020101193 -0.14774224
0000c0 3f 5b 87 3d 71 62 38 3d 76 43 04 bd 70 13 f6 3d
       0.06609201 0.045015756 -0.0322909 0.12015426
0000d0 af 37 30 bd 1b 4f ae bd 93 48 da bd 7e dd 9d 3d
       -0.043021854 -0.08511182 -0.10658374 0.07708262
0000e0 2d 9a 18 3e 56 8c d2 3d 81 e7 02 be 4e f1 5d be
       0.14902563 0.10280673 -0.12783624 -0.21674082
0000f0 c8 d5 87 3e 79 23 70 bd 25 26 9f bd 50 5b f4 be
       0.2653029 -0.05862758 -0.07770947 -0.47725916
000100 fd d6 5b 3e 71 99 96 3d ae 61 d9 be 00 37 5d 3d
       0.2146873 0.073534854 -0.42457336 0.05400753
000110 f0 8a 49 bc 6d 6d 2a be 83 b5 cd 3c 6d b0 9c 3d
       -0.012301192 -0.16643305 0.025110966 0.07650838
000120 3c b8 28 bd 53 e6 89 be f3 8a f2 3d 76 b8 b5 bd
       -0.041191325 -0.26933536 0.11842909 -0.08873074
000130 d7 2f 0d 3e 98 b6 19 3e 9f 68 8b 3e d4 a0 09 be
       0.1378778 0.1501106 0.27228257 -0.13440257
000140 4f 32 c3 3e e7 bc df 3d 5a a6 c2 3d 64 7a fe 3d
       0.3812432 0.10924702 0.09504385 0.12425688
000150 61 dd 9d bd 7c 65 45 3c 1f 59 cf be dd 21 5a 3e
       -0.0770824 0.012048122 -0.40497681 0.2130198
000160 1c 5a 8a 3c 29 c8 3d 3e 26 61 03 be 9b 93 a6 3d
       0.01688867 0.18533386 -0.12830028 0.08133622
000170 d7 28 70 3e db 14 c7 3a 63 47 9c bd f8 3b 97 be
       0.23453079 0.001518871 -0.076308034 -0.2953794
000180 f9 ae 37 be 66 e6 c9 3e 48 a9 ee bb 16 a6 c9 bd
       -0.1793784 0.39433593 -0.0072833635 -0.098461315
000190 e5 f2 ed be 46 af 6b be 4d 44 0d 3e f3 31 8c be
       -0.46474376 -0.2301608 0.13795586 -0.27381858
0001a0 7c 28 61 3e 0f 5f 4b bd be 5f 5d 3c e7 ad 0b 3e
       0.219881 -0.0496512 0.013511596 0.13640557
0001b0 77 0b b1 bd ec 86 59 be d2 88 3b 3e 3d 10 46 3d
       -0.08644765 -0.21242875 0.18313912 0.04835533
0001c0 23 bb c1 3e 78 f7 19 be b9 99 9e 3d a0 a2 9a bc
       0.37838086 -0.15035808 0.07744164 -0.018876374
0001d0 ce 73 e9 bd c4 9e 06 3e 01 2b d9 3d 95 89 13 3c
       -0.11399041 0.13146502 0.106039055 0.00900497
0001e0 93 ec a5 bd f1 91 b6 be 62 e0 9f bc 92 1f 8b bc
       -0.081017636 -0.3565822 -0.019516174 -0.016982827
0001f0 95 60 62 be 04 73 33 be 5c b1 49 3e 71 6c ab bd
       -0.22107156 -0.17524344 0.19696563 -0.08370293
000200 41 56 81 3d ea cf 81 3e 40 e7 90 3d bd 2c 21 be
       0.0631528 0.25353938 0.070753574 -0.15739723
000210 3f 13 c0 3c 7f 69 25 bb 4c ec 0c be 65 b4 c2 bc
       0.023446677 -0.0025239883 -0.13762015 -0.02376766
000220 9f cd c2 bd f9 ba 73 3d 79 2f 42 bd 8b 96 07 be
       -0.09511875 0.059504483 -0.047408555 -0.13241021
000230 3b 4f c4 3c 3c c3 09 3e 22 57 9e 3c 84 64 1b 3e
       0.023963561 0.13453382 0.019328658 0.15175062
000240 7b 1b 20 3d 20 af 80 bd 38 49 93 be 13 64 0a 3d
       0.039088707 -0.062834024 -0.287668 0.033786844
000250 0a 0d ce 3c 98 c9 1d be 7e e1 74 3e f1 17 c4 be
       0.025152702 -0.15408933 0.23914143 -0.38299516
000260 ea 86 8b 3c 3e 08 1e 3c 10 86 ee bd fd f0 a2 3e
       0.017032105 0.00964552 -0.11646664 0.31824484
000270 ff 4a eb 3e 6c e0 f7 bd 9e 3b 3b 3e 8e a2 d2 3d
       0.45955655 -0.12103352 0.18284461 0.10284911
000280 42 0d 7a bd 8f 91 fa 3c b9 13 07 bd d5 96 d0 bd
       -0.0610478 0.030586986 -0.032977793 -0.10185019
000290 f6 c6 64 be 32 dc 02 3d 86 83 4e 3e b1 1a 69 be
       -0.22341523 0.031948276 0.2016736 -0.22764088
0002a0 89 8a 9d 3e 54 19 e4 bd 7f dd a7 3c 21 8b 79 bd
       0.30769756 -0.111376435 0.02049136 -0.0609237
0002b0 4d f9 ab 3e 49 a4 85 be 0d 26 88 3c 4b 41 ae bd
       0.3358864 -0.26101902 0.016619707 -0.085085474
0002c0 c2 b5 71 3d d2 1c 6e be 49 c9 57 3e b0 d1 ca 3e
       0.05901123 -0.23253182 0.21072878 0.39613104
0002d0 86 36 ab 3d a6 f8 8f 3d 4b 7c 94 be e0 4b 07 3e
       0.08360009 0.07029848 -0.29001078 0.13212538
0002e0 7d 61 02 bc 37 0c b9 bd 29 d1 6e 3e b4 b6 29 3d
       -0.007957813 -0.09035533 0.23321976 0.041434005
0002f0 ec 8a 8f be 1f c8 6a 3c 69 5f 15 bd de 74 cf bd
       -0.28035676 0.014329939 -0.036467943 -0.101297125
000300 22 f9 1b 3d 33 be 46 be 2d 3b c4 3e 46 3e 37 3e
       0.03807939 -0.19408493 0.38326398 0.17894849
000310 96 6f 6e bd 3c ba c4 be 51 2f cd 3e a0 ab 0f 3e
       -0.058211885 -0.38423336 0.40075162 0.14030313
000320 e2 f8 85 bc 84 fe f6 bd c6 f2 90 bd 8b 7c 27 be
       -0.016354028 -0.12060264 -0.07077555 -0.16356103
000330 28 35 06 3e 54 38 70 be 4c 64 a1 be cd dc 31 be
       0.13106215 -0.23458987 -0.31521833 -0.17369385
000340 04 e5 66 be 0b dc 48 bc db 0c db 3c 68 07 52 3e
       -0.225483 -0.012259494 0.026739528 0.20510638
000350 c8 f0 8d 3d b1 7a 2e 3e 96 6e 61 3c 10 ac 03 bd
       0.06930691 0.1703899 0.013759276 -0.032146513
000360 b7 c6 e6 3d e6 76 e3 3c 67 22 f9 3b 8e 0e ef bd
       0.112683706 0.027766656 0.007602978 -0.11672698
000370 f5 5b 1b be ea f8 9d 3c 50 5f a8 3e 27 18 6a be
       -0.15171798 0.01928373 0.32885218 -0.22860776
000380 e6 5a 2a 3c d0 10 13 be b1 c4 85 3d 7c c6 84 be
       0.010397648 -0.14361882 0.065316565 -0.25932682
000390 04 81 f4 3c 39 cb 0a be 6d d4 a5 3b d9 61 8a 3c
       0.029846676 -0.13554086 0.0050607235 0.01689236
0003a0 8c 62 1b 3e 45 94 54 3e e1 5b 98 be b0 03 fd 3c
       0.15174311 0.20759685 -0.29757598 0.030885547
0003b0 f0 11 5d be b1 af 86 be 27 70 8f 3d e3 05 54 be
       -0.21588874 -0.26305917 0.07003813 -0.2070537
0003c0 7b f4 54 3b 27 7e 51 be 75 2b c3 3d e5 b2 2f be
       0.0032494355 -0.2045828 0.09529773 -0.17158087
0003d0 f0 fa 32 be b1 31 ca 3e fd 1a b5 bd b6 f3 e2 3d
       -0.17478538 0.39491037 -0.08843038 0.110816404
0003e0 84 eb 14 bd e6 0b 76 bd f7 b5 33 be 16 10 f5 3d
       -0.036357418 -0.06006994 -0.17549883 0.11965959
0003f0 06 bc e1 3d 72 ed 3c bd e6 5a 30 3e a6 4f 29 3e
       0.11022191 -0.046124883 0.17222175 0.1653429

base.mlp.fc1.0.bias f4 [64]
000000 6b 08 53 bc 47 50 7e bb 52 3b 27 3b ba 9e cb 3a
       -0.012880425 -0.0038805173 0.0025517535 0.0015534975
000010 69 94 3c 3b a8 91 fe 3b f1 cf 85 bc cf 48 d5 bb
       0.0028774983 0.0077688284 -0.016334506 -0.0065089236
000020 de ed 3b bb 76 2b 69 3c 96 7a 8e 3b e4 90 f5 3b
       -0.0028675715 0.014231553 0.0043481095 0.007494079
000030 68 c0 72 3c b8 b0 3b bc b6 d8 0e bc d4 f1 ff bb
       0.014816381 -0.011455707 -0.00871866 -0.0078108106
000040 91 ac 62 bc 76 5f 17 3c 0d bd 75 3c 87 37 a6 bb
       -0.013835088 0.009239068 0.0149986865 -0.0050725373
000050 5e b6 4e bb 48 79 67 bc ba e7 87 3c df a0 5d bb
       -0.0031541805 -0.014128037 0.016589988 -0.003381781
000060 68 08 c2 bb 97 cc ac 3b e5 2b 58 3c 8d 19 63 ba
       -0.0059214123 0.0052734124 0.013194059 -0.000866317
000070 b0 4d 8d bb 1f f9 24 bb 35 90 e0 bb 68 af 70 3c
       -0.0043122396 -0.0025172902 -0.0068531283 0.014690258
000080 63 7e 63 bc d2 f6 84 bb b2 94 03 3c 75 34 d4 3b
       -0.013885113 -0.0040577436 0.008031057 0.00647598
000090 8e 55 1c 3c e4 32 de bb 9f 4d 5f 3c d9 f7 b0 3b
       0.009541882 -0.006780969 0.013629346 0.0054006395
0000a0 9a 2a 20 3b a5 cc 93 bb 64 83 83 3c dc 3e b3 3b
       0.0024439455 -0.0045104795 0.016053863 0.00547014
0000b0 ce eb bb bb c0 48 7b 3c 73 c5 5f 3c 49 16 06 3b
       -0.005734897 0.015337169 0.013657915 0.002046006
0000c0 4b 0e cb 39 23 3c 8b b9 2b 71 1b 3c c6 22 75 bc
       0.00038729826 -0.0002655695 0.009487431 -0.014961904
0000d0 98 f7 5e bc 96 88 95 3b ae 2d 71 3c 03 b5 82 bc
       -0.013608836 0.0045634015 0.014720364 -0.015955454
0000e0 5b a5 57 bc cc 50 80 bc 66 c8 56 bc 43 3e 55 3c
       -0.013161982 -0.015663527 -0.013109302 0.013015333
0000f0 b0 5f 99 3b 6b da a2 bb 46 6c 07 3c 11 62 e8 3a
       0.0046805963 -0.004969885 0.0082655605 0.0017729421

base.mlp.fc1.2.weight f4 [64]
000000 69 db 7d 3f 9e 14 81 3f 0e c7 7e 3f 3e ae 81 3f
       0.9916292 1.0084417 0.99522483 1.01313
000010 db 46 7f 3f 1a 88 7d 3f 85 8e 7d 3f 29 02 81 3f
       0.9971749 0.990358 0.9904559 1.0078784
000020 48 0a 82 3f 2b 7d 7f 3f 5b e1 7f 3f 06 d9 7d 3f
       1.0159388 0.99800366 0.9995324 0.99159276
000030 e6 88 7f 3f 27 3a 81 3f 7b 80 81 3f ea cb 81 3f
       0.99818265 1.0095872 1.0117334 1.0140355
000040 17 81 80 3f 6d d1 7f 3f de 64 81 3f a7 b7 81 3f
       1.0039395 0.99928933 1.0108907 1.0134171
000050 c3 af 7e 3f 8f 98 7d 3f 1a 99 80 3f 3b a5 80 3f
       0.9948694 0.9906091 1.0046723 1.0050424
000060 5a b7 81 3f 64 b8 7e 3f 4e eb 7f 3f 00 e6 80 3f
       1.013408 0.9950011 0.9996842 1.007019
000070 5a 89 80 3f 8c 99 7e 3f 5e 38 80 3f e5 a2 7f 3f
       1.0041916 0.99453044 1.0017202 0.9985793
000080 5b 1f 81 3f d8 6a 80 3f 40 b8 7e 3f 68 43 7e 3f
       1.0087694 1.0032606 0.99499893 0.99321604
000090 27 a4 81 3f db f5 7f 3f 52 46 80 3f 2f 40 7c 3f
       1.012822 0.9998452 1.002146 0.98535436
0000a0 88 a7 7d 3f 89 bd 81 3f a2 ee 80 3f 55 e5 7f 3f
       0.9908376 1.0135967 1.0072825 0.9995931
0000b0 ff 59 80 3f 3d 0b 80 3f 4b 0b 81 3f f7 5f 7e 3f
       1.0027465 1.000343 1.0081571 0.9936518
0000c0 9a 56 80 3f 26 f0 81 3f 7c 03 82 3f 64 29 7c 3f
       1.0026429 1.0151412 1.0157313 0.9850066
0000d0 c0 34 7f 3f 41 fd 7f 3f 76 63 80 3f a0 03 7f 3f
       0.99689865 0.9999581 1.0030353 0.99614906
0000e0 a7 2b 80 3f 0f 3a 80 3f 1f fa 80 3f a0 df 81 3f
       1.0013322 1.0017718 1.0076331 1.014637
0000f0 35 e6 7b 3f 57 6c 81 3f 08 49 7d 3f 44 3b 7d 3f
       0.98398143 1.0111188 0.9893956 0.9891856

base.mlp.fc1.2.bias f4 [64]
000000 ee eb 5a bc 8f 15 70 bc ea 3c 51 3b 4f 56 8d 3c
       -0.013361914 -0.0146535775 0.0031927177 0.01725307
000010 19 51 39 3b 15 30 14 3c a2 fb d4 bb 9a cf 4f bc
       0.0028277098 0.009044667 -0.0064997235 -0.012683773
000020 0b 4c 5a bc c4 42 63 3c 91 4e 66 3c c6 e9 69 3c
       -0.013323794 0.013870899 0.014056818 0.014276927
000030 cc f5 72 3c 6e b9 30 bc 24 7b 3b bc e7 62 0e bc
       0.01482911 -0.010786397 -0.011442933 -0.008690572
000040 e0 b6 54 bc 52 75 fb 3b 03 20 74 3c a2 7e 3f bc
       -0.012983054 0.007673898 0.01490021 -0.011687906
000050 68 5f 26 bb 43 f3 6e bc 03 8b 6c 3c 98 c5 f5 bb
       -0.0025386456 -0.014584365 0.01443744 -0.0075003617
000060 da 8c 46 bc 72 10 88 3b fa 3a cd 3b 42 b4 ee bb
       -0.012118543 0.004152351 0.006263134 -0.007284672
000070 f4 bc 13 bc 2a c2 14 3a 5a bf a8 3b 85 6c 6c 3c
       -0.009017218 0.00056746847 0.005149764 0.01443017
000080 ed 1d 70 bc 28 2c 82 bc 74 b1 56 3c 33 5a b5 3b
       -0.014655572 -0.015890196 0.013103832 0.005534434
000090 b7 9c 8d 3b 12 53 b5 bb 8b 2e 64 3c 1d 20 1e 3c
       0.0043216604 -0.0055335844 0.013927112 0.009651211
0000a0 6d 9b 85 3b 1b 21 94 3b b1 d2 41 3b 64 8c 25 3c
       0.004077366 0.004520548 0.0029575045 0.0101042725
0000b0 bf 5f 49 bc 09 3a 27 3c d7 14 3b 3c 45 4b 69 3b
       -0.012290894 0.010206708 0.011418543 0.0035597843
0000c0 18 93 de 3b ef 5d 04 3b b2 1d 54 bb 3c 4c 0b bc
       0.0067924373 0.002019759 -0.0032366333 -0.008502062
0000d0 03 40 ec bb 15 47 a9 3b 56 af dc 3b 4b 52 72 bc
       -0.007209779 0.0051659443 0.006734769 -0.014790128
0000e0 bf 41 5f bc 93 d6 a2 bb 7b 7b 02 bc 11 67 48 3c
       -0.013626515 -0.004969427 -0.00796401 0.012231604
0000f0 b6 6a ae 3b 60 23 9c ba a3 2f 6d 3c ed 42 4f 3b
       0.0053227795 -0.0011912398 0.0144766895 0.0031625584

base.mlp.fc_h.0.weight f4 [64, 64]
000000 2a cc d9 3e b3 04 9e 3e 9b 57 83 be cd cd 22 3d
       0.42538577 0.3086296 -0.25652775 0.03974705
000010 05 b9 af bd ef a1 82 3c 96 d2 fa 3d 6b 5d 47 3e
       -0.085802115 0.015946357 0.12247197 0.1946923
000020 42 d1 34 3e 53 1f 99 bd ca e9 af bd 65 a9 8b be
       0.1765795 -0.07476678 -0.085895136 -0.27277675
000030 c1 1f c6 3c 96 b1 52 3e 05 c3 b0 bd b1 14 c5 bd
       0.024185063 0.20575556 -0.08630947 -0.09623087
000040 c3 87 ad bc 46 c6 4d 3e 80 d0 80 3d cc 8a bc 3d
       -0.0211829 0.20095167 0.06289768 0.09206161
000050 51 00 99 3d 37 ed bb 3e 93 73 0d bd 90 41 82 39
       0.074707635 0.36704418 -0.03453405 0.0002484438
000060 28 03 14 3e 5f 9a 54 3e 1a 96 64 bd f3 16 50 bd
       0.14454329 0.20762013 -0.05580721 -0.050803136
000070 86 61 5a be 36 e9 59 3e c7 75 b4 bd 13 5c 83 be
       -0.21326265 0.21280369 -0.08811527 -0.25656185
000080 b1 0f 0b 3e 06 fe e4 be a7 10 11 bd b1 60 e0 bd
       0.13580205 -0.44725055 -0.03541627 -0.109559424
000090 ba 40 9e bd 56 b4 eb bc 2d 19 a4 be e3 41 e0 3d
       -0.07727189 -0.028772514 -0.32050458 0.10950067
0000a0 b1 45 a0 bd 51 f3 e4 3c 80 bd aa 3e ae 8f 33 be
       -0.078257926 0.027948054 0.33347702 -0.17535278
0000b0 75 1a 73 3e e7 fb 2c 3d bc c6 48 bd 47 82 91 be
       0.23740561 0.04223242 -0.049017653 -0.28419706
0000c0 a4 7b 08 be 1b 72 37 3e 12 86 92 bc 39 a5 d2 bd
       -0.13328415 0.17914622 -0.017886195 -0.1028542
0000d0 dc c6 62 bc 75 e8 2e 3e c4 1b 5b be 5b 59 79 ba
       -0.013841357 0.17080863 -0.2139731 -0.0009511911
0000e0 8e d8 49 3e 08 bd 97 bd dd 26 66 3e 88 c3 79 3e
       0.19711515 -0.07409102 0.22475763 0.24390996
0000f0 f2 bc d8 3d c4 cb 25 3e 11 9c bb 3d af a0 c6 bd
       0.105829135 0.16191012 0.09160627 -0.09698617
000100 ae f7 26 be 78 85 c3 3d a4 c7 f5 3d 2c 3e 88 3d
       -0.1630542 0.095469415 0.12000969 0.06652483
000110 75 b1 22 3e 43 5b cf bd 10 44 5b 3e e1 b6 96 3e
       0.15888007 -0.10124829 0.21412683 0.294364
000120 44 de 79 3e d5 2e 01 3e ce aa 27 be 7a ce 13 3e
       0.24401194 0.12615521 -0.1637375 0.14434233
000130 65 ba c7 3d e7 27 14 be 5d e5 72 3d 28 6e 86 3d
       0.09752349 -0.14468347 0.05930077 0.065639794
000140 73 8b d0 3d c9 43 65 be a9 18 46 be dc 1e 96 3e
       0.10182848 -0.22389139 -0.19345345 0.2932042
000150 da 67 90 be 53 5e b0 3e 66 7c f1 3e dd 38 8e 3d
       -0.28204232 0.34446964 0.4716522 0.069444396
000160 17 eb 06 3e 15 3e df 3d 81 7f d5 bc d0 46 d0 3d
       0.13175617 0.10900513 -0.026061775 0.101697564
000170 53 b4 0c 3e 34 5a d5 bd 5c b1 eb bd ee ad b1 3c
       0.13740663 -0.104175955 -0.11508438 0.021689381
000180 fd 6d 9a 3d 62 5c 36 3e 5f 50 43 3e df 82 1f bd
       0.0754051 0.17808679 0.19073628 -0.038943168
000190 20 43 a4 bd 07 df 32 3d 08 a8 5b be f9 a4 e8 bd
       -0.080206156 0.043669727 -0.21450818 -0.11359591
0001a0 f3 fe 88 bd 0a fa 8f bd 4b 5b ec 3d 01 29 a2 3e
       -0.06689253 -0.07030113 0.1154085 0.31671908
0001b0 8d 01 89 bc 17 5e 51 3e 87 11 1d 3e 37 19 2d be
       -0.016724372 0.20446049 0.15338717 -0.1690415
0001c0 27 1b 62 be 76 fe b0 3e 99 0a 7e 3e e9 84 22 3d
       -0.2208067 0.34569138 0.2480873 0.039677534
0001d0 d0 de 8a 3e 18 b5 09 be c8 45 99 3d 1c b4 ae 3d
       0.27123117 -0.13447988 0.07484013 0.08530447
0001e0 46 c2 f7 bd 9b 2a 28 bc 71 21 a7 b9 11 65 9d be
       -0.120976016 -0.010264064 -0.00031877638 -0.3074117
0001f0 4d 55 95 3e c9 07 d2 3c f4 c1 37 be 01 a6 48 bc
       0.29166642 0.025638478 -0.17945081 -0.01224661
000200 b1 36 e9 bd d6 6c 16 3d 5f 1d c5 bd 06 82 17 3e
       -0.11387385 0.036724888 -0.09624743 0.14795694
000210 2b 15 9d 3c 9d 47 e6 bd 1e 02 f3 be 2b 02 e2 bd
       0.019175133 -0.11244128 -0.47462553 -0.1103557
000220 16 f9 76 bd b8 0c 56 3d 53 33 aa 3e 3d 90 4a be
       -0.06029614 0.052258223 0.33242282 -0.19781585
000230 50 54 18 be b2 64 9f be fe 0f 19 3e 6a 7f c4 bb
       -0.14875913 -0.31131512 0.14947507 -0.0059966343
000240 a1 f9 35 3e 56 3f 4d 3e c9 d6 af 3e fe 95 5a 3e
       0.17771007 0.20043692 0.34343556 0.2134628
000250 d2 4a 9f bd 12 16 cc 3d 05 4e 9e 3d 62 5e 74 3e
       -0.07777943 0.09965147 0.07729725 0.23864129
000260 da ea c6 3d 74 aa b2 bd c6 da 91 be 3e 42 2d be
       0.09712763 -0.087239176 -0.28487223 -0.169198
000270 cc d5 95 3e d9 13 0d 3e 7a 09 1c 3e e5 ab 8b be
       0.29264677 0.13777103 0.1523799 -0.27279583
000280 3f b1 a1 3d a7 9c 7d be 42 2c eb 3d a9 9e b2 bd
       0.07895135 -0.2476679 0.11483051 -0.08721668
000290 e8 5f a8 be 09 be 28 be 4e e8 a5 bd 09 6b 9b be
       -0.3288567 -0.16478743 -0.08100949 -0.303551
0002a0 92 db 33 be d2 5e cf 3d c1 0d ca 3c 43 28 c1 3d
       -0.17564228 0.101255074 0.024664761 0.094315074
0002b0 db 9e 76 3d 7f be 3a bd 69 17 cc 3e a3 9b 30 3e
       0.06021009 -0.045591827 0.3986161 0.1724687
0002c0 5e a8 19 bd 14 c8 47 bc 44 3a 68 3c ad 8b da bd
       -0.037514083 -0.012193698 0.014174048 -0.10671172
0002d0 d1 c4 6c be 11 00 83 3c 69 99 07 3d 96 05 53 3e
       -0.23121955 0.015991243 0.033105288 0.206076
0002e0 94 10 0f be 3c 40 2b 3e 10 e1 12 be 20 1d 60 bd
       -0.13971168 0.16723722 -0.14343667 -0.054715276
0002f0 04 cb a0 bd 13 3e 3d bd 7b 7f 08 3d 37 41 93 3d
       -0.07851222 -0.046201777 0.0333247 0.07190173
000300 a5 2f 0f 3c ad 9c 78 3d c7 b1 61 3e 58 c4 25 3c
       0.008739387 0.060696293 0.22040473 0.010117613
000310 c1 3f 31 3e 5e 7c 23 be 54 34 3a 3e 80 a5 f4 3d
       0.17309476 -0.15965411 0.18184024 0.11945629
000320 5f 0c 13 be 85 3f bb 3e c9 84 09 3e de 36 f7 bd
       -0.14360188 0.365719 0.1342956 -0.12071012
000330 db 69 8d 3d 67 d1 0d 3c 46 84 bf bd 07 be 8c be
       0.06904956 0.008655882 -0.09351401 -0.2748873
000340 0d 85 0b bd e2 be 7b b9 57 5d a4 3e 83 b3 80 3e
       -0.034062434 -0.00024008335 0.32102463 0.25136957
000350 60 77 dd bd 74 33 ed bd 3f 2d cf bd 65 43 6c be
       -0.108137846 -0.115820795 -0.10116052 -0.23072584
000360 59 9b 81 bd 6b f1 60 3e ca 90 5a 3e dd 05 7c 3d
       -0.06328458 0.21967094 0.21344295 0.06152903
000370 f0 b7 5e 3e 76 f1 38 bd 3e 30 d5 3e a1 3b b5 bd
       0.21749854 -0.04515215 0.41638368 -0.08849264
000380 58 da 1b be b3 39 b6 3d 76 d4 5c 3e 84 d9 1c 3e
       -0.1522001 0.08897724 0.21565422 0.1531735
000390 b1 fe ba bd fd 85 b0 3e a7 35 4e be 0f f1 8b 3d
       -0.0913061 0.34477225 -0.20137654 0.06833088
0003a0 ea 7d 91 3c 27 23 64 3d ea 30 9f 3d a8 00 db bd
       0.017760236 0.055697586 0.077730015 -0.106934845
0003b0 a5 47 52 3d 37 2d cc 3d 2a 15 29 3e c4 f3 0f 3e
       0.051337857 0.099695615 0.1651198 0.14057833
0003c0 d6 0e 83 3e 9b 56 f7 3d a5 2d 57 bd 18 2b 19 3e
       0.25597256 0.120770656 -0.052533764 0.14957845
0003d0 b7 59 b8 3d f8 1b b3 3d 19 7a 9d 3c d1 5f 72 be
       0.09001487 0.08745569 0.01922326 -0.23669364
0003e0 7b 0e 78 3e e2 05 13 3e 4d 71 c5 3e 08 63 93 3d
       0.24224274 0.14357713 0.38563004 0.07196623
0003f0 f6 d6 03 be ae 57 db be 57 9f 5d bb fb e7 00 be
       -0.1287497 -0.42840332 -0.0033816898 -0.12588494

base.mlp.fc_h.0.bias f4 [64]
000000 00 00 00 00 00 00 00 00 00 00 00 00 00 00 00 00
       0.0 0.0 0.0 0.0
000010 00 00 00 00 00 00 00 00 00 00 00 00 00 00 00 00
       0.0 0.0 0.0 0.0
000020 00 00 00 00 00 00 00 00 00 00 00 00 00 00 00 00
       0.0 0.0 0.0 0.0
000030 00 00 00 00 00 00 00 00 00 00 00 00 00 00 00 00
       0.0 0.0 0.0 0.0
000040 00 00 00 00 00 00 00 00 00 00 00 00 00 00 00 00
       0.0 0.0 0.0 0.0
000050 00 00 00 00 00 00 00 00 00 00 00 00 00 00 00 00
       0.0 0.0 0.0 0.0
000060 00 00 00 00 00 00 00 00 00 00 00 00 00 00 00 00
       0.0 0.0 0.0 0.0
000070 00 00 00 00 00 00 00 00 00 00 00 00 00 00 00 00
       0.0 0.0 0.0 0.0
000080 00 00 00 00 00 00 00 00 00 00 00 00 00 00 00 00
       0.0 0.0 0.0 0.0
000090 00 00 00 00 00 00 00 00 00 00 00 00 00 00 00 00
       0.0 0.0 0.0 0.0
0000a0 00 00 00 00 00 00 00 00 00 00 00 00 00 00 00 00
       0.0 0.0 0.0 0.0
0000b0 00 00 00 00 00 00 00 00 00 00 00 00 00 00 00 00
       0.0 0.0 0.0 0.0
0000c0 00 00 00 00 00 00 00 00 00 00 00 00 00 00 00 00
       0.0 0.0 0.0 0.0
0000d0 00 00 00 00 00 00 00 00 00 00 00 00 00 00 00 00
       0.0 0.0 0.0 0.0
0000e0 00 00 00 00 00 00 00 00 00 00 00 00 00 00 00 00
       0.0 0.0 0.0 0.0
0000f0 00 00 00 00 00 00 00 00 00 00 00 00 00 00 00 00
       0.0 0.0 0.0 0.0

base.mlp.fc_h.2.weight f4 [64]
000000 00 00 80 3f 00 00 80 3f 00 00 80 3f 00 00 80 3f
       1.0 1.0 1.0 1.0
000010 00 00 80 3f 00 00 80 3f 00 00 80 3f 00 00 80 3f
       1.0 1.0 1.0 1.0
000020 00 00 80 3f 00 00 80 3f 00 00 80 3f 00 00 80 3f
       1.0 1.0 1.0 1.0
000030 00 00 80 3f 00 00 80 3f 00 00 80 3f 00 00 80 3f
       1.0 1.0 1.0 1.0
000040 00 00 80 3f 00 00 80 3f 00 00 80 3f 00 00 80 3f
       1.0 1.0 1.0 1.0
000050 00 00 80 3f 00 00 80 3f 00 00 80 3f 00 00 80 3f
       1.0 1.0 1.0 1.0
000060 00 00 80 3f 00 00 80 3f 00 00 80 3f 00 00 80 3f
       1.0 1.0 1.0 1.0
000070 00 00 80 3f 00 00 80 3f 00 00 80 3f 00 00 80 3f
       1.0 1.0 1.0 1.0
000080 00 00 80 3f 00 00 80 3f 00 00 80 3f 00 00 80 3f
       1.0 1.0 1.0 1.0
000090 00 00 80 3f 00 00 80 3f 00 00 80 3f 00 00 80 3f
       1.0 1.0 1.0 1.0
0000a0 00 00 80 3f 00 00 80 3f 00 00 80 3f 00 00 80 3f
       1.0 1.0 1.0 1.0
0000b0 00 00 80 3f 00 00 80 3f 00 00 80 3f 00 00 80 3f
       1.0 1.0 1.0 1.0
0000c0 00 00 80 3f 00 00 80 3f 00 00 80 3f 00 00 80 3f
       1.0 1.0 1.0 1.0
0000d0 00 00 80 3f 00 00 80 3f 00 00 80 3f 00 00 80 3f
       1.0 1.0 1.0 1.0
0000e0 00 00 80 3f 00 00 80 3f 00 00 80 3f 00 00 80 3f
       1.0 1.0 1.0 1.0
0000f0 00 00 80 3f 00 00 80 3f 00 00 80 3f 00 00 80 3f
       1.0 1.0 1.0 1.0

base.mlp.fc_h.2.bias f4 [64]
000000 00 00 00 00 00 00 00 00 00 00 00 00 00 00 00 00
       0.0 0.0 0.0 0.0
000010 00 00 00 00 00 00 00 00 00 00 00 00 00 00 00 00
       0.0 0.0 0.0 0.0
000020 00 00 00 00 00 00 00 00 00 00 00 00 00 00 00 00
       0.0 0.0 0.0 0.0
000030 00 00 00 00 00 00 00 00 00 00 00 00 00 00 00 00
       0.0 0.0 0.0 0.0
000040 00 00 00 00 00 00 00 00 00 00 00 00 00 00 00 00
       0.0 0.0 0.0 0.0
000050 00 00 00 00 00 00 00 00 00 00 00 00 00 00 00 00
       0.0 0.0 0.0 0.0
000060 00 00 00 00 00 00 00 00 00 00 00 00 00 00 00 00
       0.0 0.0 0.0 0.0
000070 00 00 00 00 00 00 00 00 00 00 00 00 00 00 00 00
       0.0 0.0 0.0 0.0
000080 00 00 00 00 00 00 00 00 00 00 00 00 00 00 00 00
       0.0 0.0 0.0 0.0
000090 00 00 00 00 00 00 00 00 00 00 00 00 00 00 00 00
       0.0 0.0 0.0 0.0
0000a0 00 00 00 00 00 00 00 00 00 00 00 00 00 00 00 00
       0.0 0.0 0.0 0.0
0000b0 00 00 00 00 00 00 00 00 00 00 00 00 00 00 00 00
       0.0 0.0 0.0 0.0
0000c0 00 00 00 00 00 00 00 00 00 00 00 00 00 00 00 00
       0.0 0.0 0.0 0.0
0000d0 00 00 00 00 00 00 00 00 00 00 00 00 00 00 00 00
       0.0 0.0 0.0 0.0
0000e0 00 00 00 00 00 00 00 00 00 00 00 00 00 00 00 00
       0.0 0.0 0.0 0.0
0000f0 00 00 00 00 00 00 00 00 00 00 00 00 00 00 00 00
       0.0 0.0 0.0 0.0

base.mlp.fc2.0.0.weight f4 [64, 64]
000000 c0 0f d4 3e 81 b9 9c 3e 88 04 79 be a5 73 23 3d
       0.41418266 0.30610278 -0.24318135 0.03990521
000010 a7 35 9b bd fd aa b1 3c 47 7f e2 3d 73 fa 43 3e
       -0.07578593 0.021687979 0.110594325 0.19138508
000020 ca 86 34 3e 78 6c 83 bd b9 4a 9b bd e1 75 84 be
       0.17629543 -0.06417173 -0.075826116 -0.25871184
000030 7e 00 01 3d dd 05 4d 3e 2c f7 ae bd da fc bc bd
       0.03149461 0.20021768 -0.08543238 -0.09227915
000040 e4 e5 f5 bc 86 21 4c 3e ff 48 5d 3d 08 83 a2 3d
       -0.030016847 0.19934663 0.054024693 0.079351485
000050 38 ee 77 3d c5 84 b6 3e fc 89 03 bd 5f 99 ce 3b
       0.060529917 0.3564817 -0.032114014 0.0063049044
000060 0c 95 10 3e f6 12 53 3e 01 66 55 bd 1a 61 1b bd
       0.14119357 0.20612702 -0.05209923 -0.0379344
000070 da 6a 5d be f7 f8 51 3e 27 34 bf bd bf bb 81 be
       -0.21622792 0.20505129 -0.09336119 -0.2533855
000080 5f 6f 05 3e f0 9b e1 be f5 63 d1 bc e2 46 c9 bd
       0.13030766 -0.44064283 -0.025560359 -0.09827973
000090 80 fa a3 bd 02 06 1f bd fd d7 9c be 43 05 e1 3d
       -0.080067635 -0.03882409 -0.30633536 0.10987332
0000a0 bf 77 9d bd 21 4f 83 3c ab a1 a8 3e d9 fe 29 be
       -0.076888554 0.016028943 0.32935843 -0.16601123
0000b0 c1 fa 72 3e f2 02 cd 3c fb c0 1f bd f9 ee 8d be
       0.23728468 0.025025818 -0.0390024 -0.27721384
0000c0 95 09 07 be 5b ff 36 3e 6a 77 d5 bb af 29 e2 bd
       -0.13187249 0.17870848 -0.0065144794 -0.11043107
0000d0 1e 2b 25 bc 4c a7 29 3e d3 7a 59 be cd 6e ec bb
       -0.010081081 0.16567725 -0.2123826 -0.007215357
0000e0 14 0c 3a 3e f6 e8 96 bd 35 3c 53 3e a2 e9 79 3e
       0.1816867 -0.073686525 0.20628436 0.2440553
0000f0 50 2a ef 3d 9c 82 26 3e 90 04 d2 3d 32 79 af bd
       0.11677992 0.16260761 0.102547765 -0.08568038
000100 fc 1b 1e be 0b 70 bf 3d 78 f8 fa 3d d1 53 88 3d
       -0.15440363 0.093475424 0.12254423 0.06656612
000110 2e cc 24 3e 6c d7 ba bd 9c 1f 4d 3e e6 a4 98 3e
       0.16093513 -0.0912312 0.2003159 0.29813308
000120 fa da 77 3e f9 eb 02 3e 15 72 18 be e3 ca 1e 3e
       0.24204627 0.12785329 -0.14887269 0.15507083
000130 d0 71 c9 3d 43 a8 0b be d3 22 51 3d 4f 81 81 3d
       0.09836161 -0.13638406 0.0510586 0.06323492
000140 6d e0 d0 3d d4 04 62 be 18 17 45 be 8e af 90 3e
       0.10199056 -0.22072154 -0.19247091 0.28258938
000150 c8 b8 8e be 72 72 a8 3e 67 ef e9 3e b9 c3 9c 3d
       -0.27875352 0.32899815 0.45690462 0.07654519
000160 16 6e 10 3e 2c 94 d6 3d e3 65 9a bc df 16 dd 3d
       0.14104494 0.1047748 -0.018847411 0.10795378
000170 64 cc 08 3e 62 c9 b9 bd b6 ff e3 bd 4d 37 10 3c
       0.13359219 -0.09071614 -0.11132757 0.008802247
000180 fb ab c0 3d c6 fd 34 3e f4 84 40 3e ae 07 10 bd
       0.09407803 0.17674932 0.18800718 -0.035163574
000190 01 34 9e bd 1d b4 f2 3c e6 37 5a be dc c1 d0 bd
       -0.07724763 0.0296269 -0.21310386 -0.10193226
0001a0 8e ee 62 bd 4d ac a4 bd 6f d1 eb 3d 24 70 9f 3e
       -0.055403285 -0.08040676 0.11514556 0.31140244
0001b0 28 5b 7f bc 9e b3 4d 3e 63 7b 16 3e 0c 48 1f be
       -0.015585698 0.2008805 0.14695506 -0.15554827
0001c0 7b 22 53 be 44 ce af 3e 14 17 7b 3e 58 eb d0 3c
       -0.20618622 0.34337056 0.24520522 0.025502846
0001d0 f1 04 88 3e 52 b0 fc bd 1b 59 98 3d 3d 85 9d 3d
       0.2656627 -0.12338318 0.074388705 0.07691429
0001e0 49 31 f9 bd 79 5e b8 bc 76 df 93 bb e8 41 9d be
       -0.121676035 -0.022505986 -0.0045127226 -0.30714345
0001f0 5e f7 93 3e d2 71 1a 3d a3 3e 2c be fa e8 17 bc
       0.28899664 0.037706204 -0.16820769 -0.009271855
000200 c5 ba e2 bd ad 91 de 3c 54 b4 b7 bd 89 47 09 3e
       -0.1107078 0.027169073 -0.08969942 0.13406195
000210 32 8b c4 3c 06 d4 d2 bd 91 0e ef be d1 fe c1 bd
       0.023992155 -0.102943465 -0.466908 -0.094724305
000220 5f 50 3c bd 7e d6 68 3d 06 b7 ab 3e 92 f3 41 be
       -0.045975085 0.05684518 0.33538073 -0.18940571
000230 3d b1 16 be d2 35 9d be cf 4d 13 3e d0 9e 81 bb
       -0.14716049 -0.30705124 0.1438515 -0.0039556995
000240 f5 da 29 3e 52 38 3f 3e e1 ce a9 3e ac 3e 4b 3e
       0.16587432 0.18673828 0.3316565 0.19848126
000250 9a f5 bb bd 3e 55 b1 3d b1 f9 a7 3d a1 ef 66 3e
       -0.09177704 0.08658837 0.08201922 0.22552349
000260 15 07 d0 3d c9 a6 bf bd 21 44 88 be ab da 29 be
       0.10157601 -0.093579836 -0.26614478 -0.16587321
000270 4b 90 97 3e 43 d0 04 3e bc a8 0e 3e 6f a4 8a be
       0.29602274 0.1297007 0.13931555 -0.27078578
000280 1a 46 91 3d dd 8f 78 be 55 29 f7 3d 4b cd 98 bd
       0.07093449 -0.2427363 0.1206843 -0.074610315
000290 78 5d a7 be a2 52 31 be 6c 52 a2 bd 2f a5 93 be
       -0.32688498 -0.17316678 -0.07925877 -0.28836963
0002a0 3e 57 38 be 2b 75 b6 3d c8 21 1e 3d b8 52 a3 3d
       -0.1800203 0.08909067 0.038606435 0.07974762
0002b0 d1 b3 9a 3d bb 7d 78 bd a1 f3 c9 3e 2c 54 26 3e
       0.075538285 -0.06066678 0.39443687 0.16243047
0002c0 a8 13 fc bc 3c 0b 01 3b 0d 50 09 bb ee 11 f5 bd
       -0.030771092 0.0019690534 -0.0020952255 -0.119663104
0002d0 4d 33 6a be 57 6a 72 3c 96 18 dc 3c 9d 20 44 3e
       -0.22871132 0.014795861 0.026867192 0.19153066
0002e0 00 14 11 be 8a 0e 1e 3e 1b 31 16 be f6 b7 57 bd
       -0.14167786 0.15435234 -0.1466717 -0.052665673
0002f0 d0 ac 9d bd c4 12 38 bd a4 c1 33 3d 07 2b 95 3d
       -0.07698977 -0.04493977 0.043885842 0.072835974
000300 ce 0d 8a 3c a9 57 54 3d fd 77 6d 3e c0 8f 6d 3c
       0.016852286 0.05184141 0.23190303 0.014499605
000310 f7 e5 2c 3e ea 12 2f be 55 30 48 3e 27 bb d4 3d
       0.168846 -0.17097059 0.19549687 0.10387259
000320 b9 fb 17 be 1d ee be 3e f8 8c 08 3e b2 67 06 be
       -0.14842118 0.3729104 0.13335025 -0.13125494
000330 a2 62 71 3d 03 9f 41 3b 0a 31 d1 bd 62 a8 93 be
       0.058931954 0.0029544241 -0.102144316 -0.28839403
000340 6d a9 d1 bc 7a 8d 93 ba ab e8 a9 3e f2 cc 87 3e
       -0.025593484 -0.0011257373 0.33185324 0.26523548
000350 2c 2a c9 bd 6a 11 f6 bd dc 77 e3 bd ed 93 7b be
       -0.09822497 -0.1201504 -0.11106846 -0.24568148
000360 37 8f 66 bd b0 47 69 3e ec d3 52 3e dd 42 42 3d
       -0.056288924 0.22781253 0.20588654 0.047427047
000370 66 fd 63 3e 87 65 35 bd 2a 8b db 3e 74 62 c5 bd
       0.22264633 -0.044286277 0.4287961 -0.09637919
000380 62 6c 2b be 7f 92 af 3d 80 a0 63 3e ae 5f 11 3e
       -0.16740564 0.08572864 0.22229195 0.14196655
000390 96 0d bd bd 01 75 b6 3e 93 f9 5b be f0 7b 72 3d
       -0.09231107 0.35636142 -0.21481924 0.059200227
0003a0 d3 2a 80 3c fe be 82 3d 76 28 86 3d d5 20 f7 bd
       0.01564542 0.06384085 0.06550686 -0.12066809
0003b0 d6 60 26 3d 39 b6 ea 3d 0b 50 19 3e 57 c7 14 3e
       0.040619694 0.114605375 0.1497194 0.14529167
0003c0 03 4e 84 3e 4c 9a e8 3d 7a bb 58 bd 8b 95 27 3e
       0.25840768 0.11357555 -0.052913167 0.1636564
0003d0 05 e0 da 3d 53 63 c3 3d 30 8f 5f 3c 01 80 74 be
       0.106872596 0.09540429 0.013644978 -0.23876955
0003e0 f4 4a 83 3e bb a7 1e 3e 82 5c cd 3e 52 11 9c 3d
       0.25643122 0.15493672 0.4010964 0.07620491
0003f0 8c f1 08 be 10 97 df be 6b 42 65 bc 6e cf 0d be
       -0.13373393 -0.4366994 -0.013992886 -0.1384866

base.mlp.fc2.0.0.bias f4 [64]
000000 4c e4 65 bc 4a b1 24 bc b4 97 a5 bb d2 fa 65 3c
       -0.014031481 -0.010052035 -0.005053485 0.014036851
000010 d6 a4 b1 3a 41 b2 c7 3b 03 aa 05 3c d1 7d 0b 3c
       0.0013553153 0.0060942476 0.00815821 0.008513884
000020 37 6a 7e 3c 01 c2 5c 3c ef aa 77 bc c6 5f aa 3b
       0.015528253 0.0134739885 -0.015116437 0.0051994054
000030 82 cb 74 3c 16 84 8f bb 73 be 47 bc 74 b0 7d 3c
       0.014941098 -0.0043797595 -0.012191403 0.015483964
000040 0a a1 e3 bb ac 9d 93 3b c4 fd 4d bb 16 cd 77 3c
       -0.0069466876 0.00450488 -0.0031431774 0.01512458
000050 dd ff c7 3b fe c1 7a 3c fe 8f 65 bc 21 1e e4 3b
       0.0061034993 0.01530504 -0.014011381 0.0069615995
000060 43 a7 61 3b 80 1c c3 3b 55 dd 0c bb c0 fc 76 3c
       0.003443197 0.005954325 -0.002149423 0.015074909
000070 fb ea ab bb 18 45 75 3c 20 2a 77 bc 03 a8 6c bb
       -0.0052465177 0.0149700865 -0.015085727 -0.0036110885
000080 78 34 7d bb 01 88 c1 3b d5 4f 66 bc 2b 6b ab bb
       -0.003863601 0.0059061055 -0.014057119 -0.0052312813
000090 f2 4a 65 3c b4 af 68 bc 31 32 76 bc 93 46 6b 3c
       0.013994919 -0.014202047 -0.015026615 0.014360088
0000a0 a6 1c c0 3b 8c aa 9f 3b 84 fd 26 bc 32 59 fa bb
       0.00586279 0.0048726257 -0.010192279 -0.0076400274
0000b0 09 d0 9a 3b bf a9 78 bc d0 f4 5a bb 05 72 62 bc
       0.0047245068 -0.015177189 -0.003341008 -0.01382113
0000c0 f0 9f 87 bb 1a 2a aa bb 83 91 0e bc a2 be 76 3c
       -0.004138939 -0.005193007 -0.008701685 0.015060099
0000d0 d0 38 7c 3c e7 d4 bf 3b ee 1c 80 3c fb 4d 68 bc
       0.0153944045 0.0058542374 0.015638795 -0.014178748
0000e0 70 7a 74 3b 28 55 6e bc f1 4f b1 bb f4 c4 57 3c
       0.0037304424 -0.01454667 -0.005411141 0.013169516
0000f0 a7 80 18 bc 7d a1 af bb 2f 9b 47 3c 6c da 11 3c
       -0.009308017 -0.005359827 0.012182995 0.0089021735

base.mlp.fc2.0.2.weight f4 [64]
000000 0a 77 7d 3f 9d 02 7e 3f 13 b5 7c 3f 39 1f 80 3f
       0.99009764 0.9922274 0.987138 1.0009528
000010 4e bb 7f 3f bb 5b 7e 3f e2 be 7c 3f 98 38 7f 3f
       0.9989518 0.9935872 0.98728764 0.9969573
000020 2e 93 7e 3f 37 ba 7e 3f be ce 7e 3f 3f 0b 7c 3f
       0.9944333 0.9950289 0.99534214 0.9845466
000030 19 ee 7d 3f 3c 14 80 3f fd e2 7b 3f 39 10 82 3f
       0.99191433 1.0006175 0.9839323 1.0161201
000040 19 a8 7c 3f 6c e8 7b 3f db 37 80 3f 85 e9 80 3f
       0.98693997 0.9840152 1.0017046 1.0071265
000050 59 ea 7d 3f 85 7f 7f 3f 60 99 7d 3f 7c dd 7c 3f
       0.9918571 0.99803954 0.99062157 0.9877546
000060 13 f1 7f 3f 28 8a 7c 3f 09 f8 80 3f 45 25 7e 3f
       0.99977225 0.9864831 1.0075694 0.9927562
000070 8f fe 80 3f 62 c1 7e 3f 73 64 7d 3f 5e 17 7e 3f
       1.0077685 0.9951383 0.989814 0.99254405
000080 aa 4a 7d 3f ac cc 7d 3f 7c 91 7c 3f 28 0b 7f 3f
       0.98942053 0.9914043 0.9865949 0.996264
000090 df e0 7d 3f c4 74 7d 3f cc 1b 7d 3f 1c 0d 81 3f
       0.9917125 0.99006295 0.9887054 1.0082126
0000a0 bf a8 7d 3f 30 97 7d 3f 7b 0e 7f 3f aa 61 7c 3f
       0.9908561 0.9905882 0.9963147 0.98586524
0000b0 14 77 7c 3f 4a 11 7d 3f 80 f4 7d 3f d2 96 7d 3f
       0.986192 0.98854506 0.992012 0.9905826
0000c0 b0 4f 7d 3f 9b ae 7f 3f 8d 16 7c 3f 65 be 7c 3f
       0.9894972 0.998758 0.9847191 0.9872802
0000d0 1c d9 7c 3f bc 44 7e 3f c6 1a 81 3f 53 a4 7d 3f
       0.9876878 0.9932363 1.0086296 0.99078864
0000e0 c0 ea 7c 3f a1 b8 7e 3f cf 19 7d 3f 51 15 7d 3f
       0.987957 0.9950047 0.98867506 0.9886065
0000f0 8e e8 7d 3f b9 16 81 3f 86 d6 7d 3f a7 2e 7d 3f
       0.99182975 1.008506 0.9915546 0.9889931

base.mlp.fc2.0.2.bias f4 [64]
000000 2f a1 48 bc 54 3d 48 bc 6f 93 46 bc af a0 45 3c
       -0.01224546 -0.012221653 -0.012120112 0.012062236
000010 64 80 58 bc 40 dd 49 3c a0 8a 47 3c 84 58 4a 3c
       -0.013214204 0.0123208165 0.012179047 0.012350205
000020 fa 12 47 3c a0 db 45 3c 83 04 4a bc 2e 76 48 3c
       0.01215052 0.012076288 -0.012330177 0.0122352075
000030 05 25 46 3c 32 1e 4a bc b3 9e 47 bc 1a 4a 5a 3c
       0.012093787 -0.012336301 -0.012183833 0.013323331
000040 b0 b9 46 bc e9 12 48 3c 6f 56 4a bc 58 dc 4b 3c
       -0.012129232 0.01221154 -0.012349709 0.012442671
000050 ce ac 49 3c e6 8a 4a 3c 5f 85 47 bc 23 66 48 3c
       0.012309266 0.0123622175 -0.012177794 0.012231383
000060 09 7e 4a 3c ee 98 48 3c 4b f2 57 bc d0 e1 46 3c
       0.012359151 0.0122434925 -0.013180326 0.012138799
000070 a4 f3 49 bc f7 10 48 3c 8e fe 47 bc 47 4e 48 bc
       -0.012326155 0.012211076 -0.012206687 -0.012225694
000080 ab fe 45 bc c1 ea 35 bc 1b 34 48 bc ea 37 49 bc
       -0.012084643 -0.011103333 -0.012219454 -0.012281397
000090 a2 d5 46 3c 01 1c 48 bc 58 24 48 bc 35 48 4b 3c
       0.012135895 -0.012213708 -0.012215696 0.012407352
0000a0 d6 18 49 3c c4 ef 47 3c 67 2d 49 bc c5 7a 46 bc
       0.012273988 0.012203161 -0.012278891 -0.0121142315
0000b0 6c 82 48 3c 13 9e 48 bc 46 aa 46 bc 05 3e 48 bc
       0.012238126 -0.012244719 -0.012125557 -0.012221818
0000c0 87 fd 47 bc 54 7b 49 bc 91 94 47 bc 9a 7b 47 3c
       -0.012206442 -0.01229747 -0.012181417 0.012175465
0000d0 c7 4a 45 3c de a9 49 3c 0b 1a 4c 3c dc df 48 bc
       0.012041754 0.012308566 0.012457381 -0.0122604035
0000e0 e9 99 48 3c c6 91 48 bc c1 8e 48 bc bf 4d 45 3c
       0.012243726 -0.012241786 -0.012241066 0.012042462
0000f0 82 c2 49 bc ca cb 4f bc 52 27 33 3c d1 e3 47 3c
       -0.012314441 -0.012682864 0.010934668 0.012200312

v_out.weight f4 [1, 64]
000000 58 b4 4c be 4e 8d 21 be 15 1e 8f bd 35 fe 0a 3d
       -0.1999067 -0.1577656 -0.069881596 0.033933837
000010 c5 d5 c8 bb 0a 71 eb 3d 99 a0 bd 3d 8c 39 c0 3d
       -0.006128999 0.1149617 0.09259147 0.09385976
000020 28 3f 30 3d 4f ed 69 3d c9 5c 10 be 5a 6c 76 3e
       0.04302898 0.05711108 -0.14097895 0.2406477
000030 e6 15 c5 3c 7c 24 ef bc d5 85 02 be b5 ab 94 3c
       0.024058294 -0.029192202 -0.12746365 0.018148283
000040 ca 1c 8a bd aa bf 12 3e 5b 30 9d bd f6 19 89 3d
       -0.06743772 0.14330927 -0.07675239 0.06694405
000050 48 9d 07 3e 1e d3 4b 3d 06 32 c3 bd 45 d7 58 3e
       0.13243592 0.049761884 -0.095310256 0.21175869
000060 d7 18 f2 3d 6e ea 83 3e 14 9b 79 bc 75 1d a4 3d
       0.11821144 0.25764793 -0.015234727 0.08013431
000070 da d3 3d be 4e a1 d3 3d 70 27 05 be 87 b0 d5 bc
       -0.18537846 0.10333501 -0.13003325 -0.026085151
000080 be 25 69 bd 88 e4 5a bb 80 9e 35 be 77 de e9 bd
       -0.05692076 -0.0033400375 -0.17736244 -0.11419385
000090 47 6e ad 3d d6 95 03 be 91 4b 05 be 74 47 b0 3d
       0.08468299 -0.12850127 -0.13017108 0.086073786
0000a0 8b 29 2a 3e c0 b0 d6 3d 57 dd 89 bd 26 de a2 bd
       0.1661741 0.10482931 -0.0673167 -0.07952528
0000b0 4f 6c 37 3e 91 9b db bd f6 d1 59 bc 54 85 8a bd
       0.1791241 -0.10723031 -0.0132946875 -0.067637116
0000c0 6d fa 7f bd a5 5b 53 be 92 ca 9b bd ae 43 dd 3d
       -0.062494684 -0.20640428 -0.076069966 0.108039245
0000d0 eb a6 36 3d b6 47 f0 3d d7 d0 e7 3c 25 82 49 be
       0.04459278 0.11732428 0.028297825 -0.19678552
0000e0 6c 24 55 3e 7e b0 d5 bd 98 49 56 be 22 7c 44 3d
       0.20814675 -0.10434054 -0.20926511 0.047969945
0000f0 2f 47 37 bd 81 e1 0b bd 7b ab ab 3b 3f e9 f3 3d
       -0.04474562 -0.034150604 0.005238948 0.119097225
