light_mappo-main/results/MyEnv/MyEnv/mappo/check/run39/models/actor.pt (torch, 46581 bytes, 16 tensors)

base.feature_norm.weight f4 [15]
000000 ca b9 80 3f d5 c8 80 3f 16 9e 7f 3f ff 4f 80 3f
       1.0056698 1.0061289 0.99850595 1.0024413
000010 21 bf 80 3f 7f 48 7e 3f 23 e4 80 3f b2 e8 7e 3f
       1.0058328 0.9932937 1.0069622 0.99573815
000020 e1 0c 80 3f c9 b6 7e 3f 1a f6 7e 3f 14 1d 7e 3f
       1.000393 0.9949766 0.9959427 0.9926312
000030 bd e2 80 3f f3 8e 80 3f e7 1b 80 3f
       1.0069195 1.0043625 1.0008515

base.feature_norm.bias f4 [15]
000000 fa 6c ec 3b cb 64 c0 3b 79 9d 24 bb 7f de 85 ba
       0.0072151395 0.0058713905 -0.0025118275 -0.0010213404
000010 7c c0 2d 3b 2a b6 a0 39 d3 95 80 3b ba 0f ea bb
       0.0026512435 0.000306533 0.0039241104 -0.007142988
000020 9d 28 d1 3b c0 69 3a bb 76 b3 d9 3b 0f 73 bf bb
       0.0063830153 -0.002844438 0.006643708 -0.0058425735
000030 d4 15 67 3b 6c 74 d9 bb 9d c6 ed bb
       0.0035260813 -0.006636193 -0.0072563426

base.mlp.fc1.0.weight f4 [64, 15]
000000 6f f0 34 3e 97 c8 41 be 52 f7 27 bc 4d bf 91 bd
       0.17669843 -0.18924175 -0.010251837 -0.07116566
000010 0f 3b a8 3a e8 60 1f be c1 66 13 3e 04 9d ef bd
       0.0012834984 -0.1556431 0.14394666 -0.1169987
000020 6a 8c 45 be d1 9c 23 be 23 c3 9f be 74 18 49 3d
       -0.19291845 -0.1597779 -0.31203565 0.049095586
000030 50 48 b0 bd 4f 3a e4 bd 09 90 61 3e 83 ab 90 bd
       -0.086075425 -0.11143934 0.22027601 -0.07063963
000040 b8 c8 c6 bd 3a 63 b7 be 0f 3f d2 bc 86 23 b8 3e
       -0.09706253 -0.3581789 -0.025664834 0.35964602
000050 22 76 50 3e 80 0d 8a be 35 6e a4 bd 81 81 63 be
       0.20357564 -0.26963425 -0.08028833 -0.2221737
000060 f8 47 05 bd f3 56 f3 3d fe 81 ff 3d db 16 5d 3d
       -0.032539338 0.118818186 0.12475966 0.053976875
000070 bd 21 62 be 9a 22 5a 3c 61 da ac be 9c 25 36 bd
       -0.22083183 0.013313914 -0.3376036 -0.04446946
000080 35 4c 54 3e 66 21 e6 bd 2b 35 b0 bd ec fd 66 3e
       0.20732196 -0.11236839 -0.08603891 0.22557801
000090 c1 36 4d 3e 25 f4 93 be 4e 9d 4a bd 87 51 6c 3e
       0.20040418 -0.28897205 -0.049466424 0.23077975
0000a0 8f ff 56 bd 60 a0 5a 3d 53 08 b5 bd 1f 38 27 3e
       -0.052489813 0.0533756 -0.08839478 0.16330002
0000b0 89 12 48 3d 27 0e da ba 32 a6 c3 bb 39 70 84 bd
       0.0488458 -0.0016636298 -0.0059707398 -0.06466717
0000c0 3d 15 f0 3d 93 15 16 be 1c 2e cc 3d 75 c8 1a 3c
       0.11722801 -0.14656667 0.09969732 0.009447207
0000d0 56 36 4d 3e a7 4e bb be 48 b3 92 3e f6 60 d0 3d
       0.20040259 -0.36583444 0.28652406 0.10174744
0000e0 e1 01 23 bd 2d d1 95 bd f2 d6 de bc b7 04 f1 bd
       -0.039796714 -0.07315288 -0.027202103 -0.117684774
0000f0 53 aa 23 bd 8b 25 8f be d0 a3 aa 3d 2b 02 d6 3d
       -0.039957356 -0.2795833 0.08332026 0.10449632
000100 54 8b 8f 3d a6 c9 9d be 36 b2 31 be bc e7 78 be
       0.070089966 -0.30817908 -0.17353138 -0.2430715
000110 cd 84 a4 bd a8 75 4d be 49 36 da 3e 6b c9 13 be
       -0.08033142 -0.20064414 0.4261954 -0.14432304
000120 28 72 53 3c 15 9f 77 3d 67 a3 93 3e e8 78 25 bc
       0.012905635 0.060454447 0.28835604 -0.010099627
000130 b0 2f c4 bd 16 d4 a0 bd cc ea 8c 3e 81 8e c6 bc
       -0.09579408 -0.07852952 0.27522886 -0.024237873
000140 70 4d 12 3e 27 a2 ae be 06 3d 86 be 6c 3d 99 3e
       0.14287353 -0.34108087 -0.26218432 0.29929674
000150 61 ce fe 3d 94 13 db 3e ab 75 7a 3d 82 21 4f be
       0.124417074 0.42788374 0.061147373 -0.20227626
000160 7a 47 01 3e 06 fb b4 bd 26 44 80 bc 09 1c 56 bc
       0.12624922 -0.088369414 -0.015657496 -0.013068208
000170 67 95 b7 3e 40 49 97 3c 22 65 41 bc e5 27 f6 bc
       0.35856172 0.018467546 -0.011803897 -0.03004832
000180 9f 09 23 3e 4b 6b 0a be 99 31 b8 3d 19 ef 61 3e
       0.15921639 -0.13517492 0.08993835 0.22063865
000190 5a ee a5 3d a6 1f 0f 3e 1d 4a 2d bd 3b c7 34 be
       0.081021026 0.13976917 -0.042307008 -0.17654125
0001a0 4d 61 8f 3e 81 53 bb be eb 84 ba be 86 6e 07 be
       0.28003922 -0.36587146 -0.36429533 -0.13225755
0001b0 cd 98 b8 3c 92 f7 21 be 01 c8 c6 3d 11 c8 8a 3d
       0.022533799 -0.15817097 0.097061165 0.06776441
0001c0 08 b6 b7 be 68 06 5e be 7e b1 a1 bb 28 6a 9c bd
       -0.35881066 -0.21682131 -0.004934489 -0.07637435
0001d0 f3 66 bd 3c 1d b8 72 3e 13 be 24 3e bc 7b 1c be
       0.02312038 0.23703046 0.16088133 -0.15281576
0001e0 0d e6 6a be 18 9a 5f 3e e1 e8 fb 3d 6a e6 9e 3e
       -0.2293932 0.21836126 0.123002775 0.31035167
0001f0 24 be 35 3c 7e 4d 8d 3e 84 d9 3a 3e 6c 51 98 bd
       0.011092696 0.27598184 0.18247038 -0.07437405
000200 33 3e 0b 3e b4 89 dd 3b ec 51 88 3d 43 da 14 3c
       0.13597946 0.0067608003 0.0665625 0.009085241
000210 6f 86 a8 bd 34 d3 5a 3d ca 4b c6 3d 19 9f e7 bd
       -0.08228766 0.053424075 0.09682424 -0.11309642
000220 72 76 5d 3d 23 39 00 be 6b 93 c1 bd 4b da 09 3e
       0.054068036 -0.12521796 -0.09451946 0.13462178
000230 82 de a7 3e e6 52 20 bd 4b 4b b2 3d 36 3c d5 bd
       0.32786947 -0.039141558 0.08705767 -0.10411875
000240 0d 12 25 3d 2b 7a 31 3d 7c d0 3d be c6 6c a0 3d
       0.040300418 0.0433294 -0.18536562 0.07833247
000250 8d 87 58 3e 8b cc 82 3e 89 bf 44 bd 59 b8 06 bd
       0.21145459 0.2554668 -0.048034225 -0.03289065
000260 0f 41 91 bd cd fb 8f bc da 73 b1 3d c8 e7 a0 3d
       -0.07092487 -0.017576123 0.08664675 0.07856709
000270 bb 7b 2c 3d 7a 65 d7 bc 3e b0 46 be ee 8e 08 be
       0.042110186 -0.026293505 -0.19403169 -0.13335773
000280 a3 1a 9d be 84 e5 c4 bd 9e f2 8f be e2 8b 3e 3e
       -0.30684385 -0.09614089 -0.2811479 0.18608049
000290 78 e6 a9 3e 8f 51 a2 bd b3 dc b6 be 21 52 d0 bd
       0.33183646 -0.07925712 -0.35715255 -0.10171915
0002a0 ed 79 23 3d b6 04 58 3e 21 72 7a bd 70 d6 ae bd
       0.0399112 0.21095547 -0.061143998 -0.085369945
0002b0 a0 c0 94 be 3c 3c 35 3e 15 1a b5 3d 83 56 7b be
       -0.2905321 0.17698759 0.088428654 -0.2454472
0002c0 5b 6b 32 3e 35 4d 92 3e 6f 62 f3 3d 90 db 34 3c
       0.17423765 0.2857453 0.11884009 0.011038676
0002d0 2b 34 58 3e 3f d0 05 bd cc c5 5b 3d 1e 3b 84 3d
       0.2111365 -0.032669302 0.05365543 0.06456588
0002e0 f5 cd 4b 3e 2b 81 64 3e 7c ab 77 be f5 ce 38 be
       0.19902785 0.22314899 -0.2418651 -0.18047698
0002f0 aa 96 97 3d 43 3d 03 be df 0f 1b be 1f 09 86 be
       0.07401784 -0.12816338 -0.15142773 -0.26178834
000300 1e a9 a0 bc 34 55 bd 3d 28 99 39 be 0c 8f 99 bd
       -0.019611891 0.09244767 -0.1812483 -0.07497987
000310 34 3e a1 bd 15 00 95 3c 2d 2e 01 3e 4a 22 03 3e
       -0.078731924 0.018188516 0.12615271 0.12806049
000320 aa 37 d9 be 81 65 74 3e a6 95 06 3e b8 67 b6 3d
       -0.4242528 0.23866846 0.13143024 0.089065015
000330 99 00 4b 3e 23 a9 10 3e 50 c1 f1 bd df ca 6c be
       0.19824447 0.1412702 -0.118044496 -0.23124264
000340 fb 6d 8d be d5 22 80 bd 77 99 e3 bd fa 25 21 3e
       -0.2762297 -0.06256644 -0.111132555 0.15737143
000350 62 1c 92 bd f6 0b cc 3d ac b9 e4 3d ec 36 6d 3d
       -0.0713432 0.09963219 0.111682266 0.057913706
000360 af 6f 41 be 9f 5c 71 3d f6 57 a0 be 3f 1a 1a 3e
       -0.1889026 0.05892622 -0.3131711 0.15049075
000370 72 2e 1d 3e 2a fe 01 3e 95 6b 2a be d1 0b 37 be
       0.15349749 0.12694612 -0.16642602 -0.17875601
000380 6f 7c 5f bd ad 03 04 be b6 04 96 3e 8e 75 35 be
       -0.05456203 -0.12892027 0.2930047 -0.17720625
000390 93 82 75 be c6 24 ce bc 93 20 59 be 5e 97 01 3e
       -0.23975591 -0.02516402 -0.21203832 0.12655398
0003a0 43 4f c7 bd ff b8 08 3d 75 a6 a0 be e4 bd 02 be
       -0.09731915 0.03337955 -0.31376997 -0.1276775
0003b0 c4 17 83 be 60 0b df 3d 81 fc cb 3d fd 5f a7 3e
       -0.2560407 0.108908415 0.09960271 0.3269042
0003c0 54 51 b0 3e 6f ba 51 3d e6 3b d3 3d 35 a9 aa b9
       0.34437048 0.051203188 0.10314159 -0.00032550996
0003d0 5d fb af 3d 2d 1d 71 3e 4a 4d 8c 3d 95 55 25 3e
       0.085928656 0.23546286 0.06850679 0.16145928
0003e0 be f3 15 bf 14 8c b9 bd 7e db 7e 3e 5c 38 a3 3e
       -0.58575046 -0.09059921 0.24888417 0.31878936
0003f0 19 81 4c 3d 52 0b a0 3d 6a 6a ce bd d2 2c 52 3e
       0.049927805 0.07814659 -0.100788906 0.2052491

base.mlp.fc1.0.bias f4 [64]
000000 aa 73 b5 3b 36 e9 d0 3b 96 a1 8f bb 5d d2 8e bb
       0.00553747 0.006375457 -0.004383276 -0.0043585734
000010 79 a8 6c ba 54 9d 48 bb f0 fd 3c 3b bd a9 06 bb
       -0.000902779 -0.0030611353 0.0028837882 -0.002054795
000020 c8 b4 e4 3b 81 66 c5 bb d7 1d df bb 87 de b2 bb
       0.0069795586 -0.0060241823 -0.006808977 -0.005458656
000030 7d f8 e4 3b 49 50 be ba 0d 38 a5 bb a0 53 62 bb
       0.00698763 -0.0014519776 -0.005042082 -0.0034534708
000040 64 0e aa bb 61 71 ae ba 5d 70 bf bb c5 98 85 3b
       -0.005189704 -0.0013308936 -0.005842252 0.0040770494
000050 62 ce c4 3b a4 11 b9 3b e3 7c cf 3b 0a cc d7 3b
       0.006006048 0.005647855 0.0063320263 0.0065856026
000060 32 80 70 bb f5 7a c8 bb 99 12 b9 3b ce a5 d3 3b
       -0.0036697504 -0.0061181732 0.005647969 0.0064589744
000070 96 57 e6 3b c6 28 db bb af c8 11 3b d4 e7 a9 3b
       0.007029484 -0.00668821 0.002224486 0.005185107
000080 92 41 b8 bb 14 ba 81 bb fe eb 14 ba 18 16 ce bb
       -0.005623051 -0.00395895 -0.00056809175 -0.006289255
000090 a0 f3 47 bb fe e5 d9 ba 23 46 cf b9 02 0d 75 bb
       -0.0030510202 -0.0016624329 -0.00039534373 -0.0037391786
0000a0 57 2e b8 3b 8b f0 07 ba 8c f6 67 3b 0e 68 87 bb
       0.0056207585 -0.0005185685 0.0035394756 -0.0041322773
0000b0 54 1f fe 3a 09 c1 9b bb f9 22 db 3b 78 16 ac 3b
       0.0019387999 -0.004753236 0.0066875187 0.005251702
0000c0 95 f4 bc 3b 42 10 dd bb 23 d5 5c ba 86 01 78 bb
       0.005766461 -0.006746323 -0.0008424094 -0.0037842705
0000d0 dc a5 db 3b e7 52 c6 3b 4e df da bb 41 93 94 bb
       0.0067031216 0.006052363 -0.006679452 -0.0045341556
0000e0 6c 05 f0 bb 69 8b cb 3b e3 1a c7 3b c5 2d e0 ba
       -0.007324865 0.0062116873 0.006076203 -0.0017103484
0000f0 63 51 79 3b cf e6 c8 3b 53 b5 a9 3a e1 79 e6 3a
       0.0038042895 0.00613103 0.0012947716 0.001758393

base.mlp.fc1.2.weight f4 [64]
000000 22 0a 7f 3f 50 a6 80 3f e4 d5 80 3f 64 a1 7e 3f
       0.99624836 1.0050755 1.0065274 0.9946501
000010 2b f7 7e 3f 3a df 7e 3f bb ae 80 3f 41 ba 80 3f
       0.995959 0.99559367 1.0053324 1.005684
000020 21 ca 80 3f b5 99 7e 3f 61 8e 80 3f 7e a7 80 3f
       1.0061685 0.9945329 1.004345 1.0051115
000030 e0 9d 80 3f 10 e1 80 3f e3 cc 80 3f bd 7c 80 3f
       1.004818 1.0068684 1.0062526 1.0038067
000040 97 85 7f 3f 17 be 80 3f 6b 1b 80 3f 92 77 80 3f
       0.99813217 1.0058011 1.0008367 1.003649
000050 d5 96 80 3f c6 7c 7e 3f 0e d0 80 3f de cb 80 3f
       1.004603 0.9940914 1.0063493 1.0062215
000060 9e 8d 7f 3f 5b 54 7e 3f 2a 07 80 3f 99 e1 7f 3f
       0.99825466 0.99347466 1.0002186 0.9995361
000070 4d ee 7e 3f 5f 56 7f 3f d4 73 80 3f 0d 90 80 3f
       0.9958237 0.99741167 1.0035348 1.0043961
000080 9f 1d 80 3f 19 98 80 3f 49 4f 7e 3f d1 41 7e 3f
       1.000904 1.0046417 0.9933973 0.9931918
000090 c7 57 7e 3f c8 b2 80 3f fc a3 7e 3f 35 c0 7e 3f
       0.9935269 1.005456 0.9946897 0.99512035
0000a0 a6 af 7e 3f b6 22 7f 3f 63 80 7e 3f d3 d9 7f 3f
       0.9948677 0.9966234 0.9941465 0.9994175
0000b0 bc ad 80 3f 6a 45 7f 3f 89 12 80 3f 46 27 7f 3f
       1.005302 0.9971529 1.0005656 0.996693
0000c0 da 88 7e 3f f9 a3 80 3f d8 a9 80 3f 6e 98 7e 3f
       0.9942757 1.005004 1.0051832 0.9945134
0000d0 89 c3 80 3f 1b ba 80 3f b6 54 80 3f a2 b6 80 3f
       1.0059673 1.0056795 1.0025852 1.0055735
0000e0 27 29 7e 3f 36 12 80 3f 96 56 7e 3f 04 d8 7f 3f
       0.99281543 1.0005558 0.9935087 0.9993899
0000f0 f9 e9 7e 3f 77 b4 80 3f ff c8 7f 3f bb 16 80 3f
       0.99575764 1.0055073 0.9991607 1.0006937

base.mlp.fc1.2.bias f4 [64]
000000 76 a1 e2 3b ee 54 d2 3b 8a 6f 80 3b 19 8b da ba
       0.0069162203 0.006418816 0.0039195465 -0.0016673534
000010 e7 66 c6 3b bf 1f e5 ba 7c 31 bc bb 5b 0a 8e ba
       0.0060547474 -0.0017480775 -0.0057432037 -0.0010836826
000020 f4 8c ac 3b 0f 86 1c 3b 79 7e a0 bb 5e 54 c1 bb
       0.0052658264 0.0023883616 -0.004897889 -0.00589995
000030 3f cc 63 3a 1d 83 ab bb 77 bf c4 bb 4d d0 88 bb
       0.0008689798 -0.005234136 -0.0060042697 -0.004175222
000040 31 28 ab bb 6d 6d 8a bb 19 7f cc 3a fb 79 1a ba
       -0.005223297 -0.0042244704 0.0015601843 -0.00058928103
000050 59 72 c0 3b 86 bf a2 3a 3e 80 a0 38 8f b4 95 bb
       0.0058730063 0.0012416698 7.6532815e-05 -0.0045686434
000060 70 1e 83 bb e1 3e 6b bb 9d 02 d7 3b b2 26 b6 3b
       -0.004001431 -0.0035895633 0.006561591 0.005558812
000070 b4 eb de 3b 11 8e bc bb e1 47 f9 ba 84 ee dd 3b
       0.0068030003 -0.0057542403 -0.0019018614 0.006772818
000080 6c 8b d5 bb 26 49 d0 3b ef 63 d4 3b 78 4c 9f 3b
       -0.0065168645 0.006356376 0.0064816396 0.0048614107
000090 69 50 b6 3b f1 d5 56 bb 5c 3e aa 3b a4 12 a0 bb
       0.005563785 -0.0032781328 0.005195422 -0.0048850346
0000a0 7b f9 c5 3b e1 03 70 bb 01 8d ca ba 4f 82 61 bb
       0.0060417033 -0.0036623406 -0.0015453399 -0.0034409945
0000b0 2e 26 ab 3b 68 7b f2 3a e1 b8 b3 bb ac 1b d2 3b
       0.005223057 0.0018499913 -0.005484686 0.00641199
0000c0 de 6c d1 3b 80 01 d8 bb 13 99 19 bb 1a c5 58 3b
       0.006391152 -0.0065919757 -0.0023437187 0.0033076466
0000d0 ce 90 b8 3b 1b a0 d1 3b e0 04 c5 bb 1c 2a 64 bb
       0.0056324964 0.00639726 -0.006012544 -0.0034815138
0000e0 f3 13 e2 bb 6a fa d0 3b 7a d1 b5 3b 16 1d 98 3b
       -0.006899351 0.006377508 0.005548653 0.004642139
0000f0 2f 74 90 3b 12 e2 e6 ba ce d6 a5 3b e5 fc 19 ba
       0.0044083814 -0.0017614982 0.005061007 -0.0005874171

base.mlp.fc_h.0.weight f4 [64, 64]
000000 5d 0a 0f 3e e4 f8 81 3e 8c fb a5 3d 66 72 8f 3e
       0.13968797 0.253852 0.081046194 0.28016967
000010 99 21 24 be 86 af 82 3e 69 6e 14 be 03 77 ef bd
       -0.16028441 0.2552454 -0.14495243 -0.116926216
000020 cd 16 97 be b4 92 95 be 13 76 85 be 33 a5 82 3d
       -0.29509583 -0.29213488 -0.26066646 0.063791655
000030 51 15 04 be d9 e2 71 3d 81 97 22 be ba 38 9f 3e
       -0.12898757 0.05905423 -0.15878107 0.31097966
000040 f0 c9 0c 3a c1 a5 df 3d 02 b3 3b 3e ef 1e 48 be
       0.0005370667 0.10920287 0.18330005 -0.1954305
000050 18 b2 e5 3d 79 6a d1 be 93 c3 c7 3c 55 f3 87 be
       0.11215609 -0.40901545 0.02438525 -0.26552835
000060 5a 59 cc bd 14 03 8c bd 4b 97 b6 bb a5 fe 82 be
       -0.0997798 -0.068365246 -0.0055722347 -0.25584903
000070 12 d2 94 3d a0 b9 ad bb e3 17 ed 3d bc 5e 9e be
       0.0726663 -0.0053016692 0.11576822 -0.30931652
000080 9c 0b 7d bd b5 1b 97 bd 85 e0 f6 3c fa d1 d6 be
       -0.06177865 -0.073783316 0.030136356 -0.41957074
000090 49 51 20 3e ac fd d1 bd 14 bd 8e 3e a7 84 a0 be
       0.15656008 -0.10253462 0.2787863 -0.31351206
0000a0 62 db 89 bd 1a 28 a6 3d 6b c9 dc 3d cf 62 2a bd
       -0.06731297 0.081131175 0.10780605 -0.041598137
0000b0 9f ef 0b 3c fc b6 dc bd 35 e3 78 bd 7b 28 05 be
       0.008541017 -0.10777089 -0.060763557 -0.13003723
0000c0 38 ee 69 3e dc ed 2b be 87 d5 30 3e 7e 29 85 3e
       0.2284478 -0.16789955 0.17268954 0.2600822
0000d0 85 36 60 be e2 47 a2 3d ce 68 88 bd a6 9d 05 3c
       -0.21895798 0.07923867 -0.06660615 0.008155262
0000e0 90 db 23 bc 2c e5 ef bc 6a 6f 71 be f3 c4 d3 3d
       -0.010001078 -0.029284082 -0.23577657 0.103402995
0000f0 7b 17 41 3d 8e 85 07 3e 7a 7f 69 3d 6c 16 c2 3d
       0.047141533 0.13234541 0.057006337 0.09476933
000100 ad 7a ee 3d 7f a3 85 bc 35 61 84 3c 84 90 1d 3e
       0.11644492 -0.016313313 0.016159633 0.1538716
000110 f0 c1 1f be b9 e4 2c 3e 63 ca 0f 3e 7a 0f 04 3e
       -0.15601325 0.16884126 0.14042048 0.12896529
000120 13 bd 76 3d cc 59 13 be e1 42 93 3d 67 e2 24 be
       0.06023891 -0.14389724 0.071904905 -0.1610199
000130 29 3e a0 3b 5e 10 8d 3e 20 8e ff bd e6 8c 3e be
       0.0048902226 0.2755155 -0.1247828 -0.18608436
000140 07 e1 30 3e e8 7e 3c be 24 4a 5a be f3 4e 05 be
       0.17273341 -0.18407786 -0.21317345 -0.13018398
000150 fd 3f 36 3e 37 4e 03 3e cd 10 22 3e a1 12 4c 3e
       0.17797847 0.12822805 0.15826721 0.19928981
000160 bb 24 e4 bd 7a 77 05 bd b6 d1 ef bc 2c 9e ce bd
       -0.11139818 -0.032584645 -0.029274803 -0.10088763
000170 cc b6 b1 3e 1f 58 c6 bd 7e 3e e4 3e 05 e5 34 be
       0.34709775 -0.096847765 0.44578928 -0.17665489
000180 8c b5 8c bd d2 b9 a5 3d bc e0 81 3d 5d 27 e8 bc
       -0.06870565 0.08092083 0.06341693 -0.028339082
000190 70 d0 bc 3d f3 08 d9 3d 88 87 01 bd 49 49 09 3d
       0.09219444 0.1059741 -0.031623393 0.033517156
0001a0 ac 1a 85 3e cd 60 4d 3e bb 31 32 be 44 fa cf bd
       0.25996912 0.20056458 -0.17401783 -0.10155156
0001b0 4a d1 a5 3e 29 d3 13 bc f8 13 5c be 9d 6d 76 3e
       0.32386237 -0.0090225125 -0.21491992 0.24065252
0001c0 47 43 aa be 1e 9b 84 3e 56 2e 14 3e 6c 41 ac 3d
       -0.33254454 0.25899595 0.14470801 0.08410916
0001d0 c8 13 19 be 10 fc ce 3e ff 36 17 be 28 aa 69 bd
       -0.14948952 0.40426683 -0.14767073 -0.05704704
0001e0 9f d3 94 bd 7d 70 96 be 42 a3 92 3e c5 73 bf bd
       -0.07266926 -0.29382697 0.2864018 -0.09348253
0001f0 9d 1f f2 3d eb 8d 11 3b d9 08 58 be ea df fd bd
       0.11822436 0.0022209834 -0.21097125 -0.12396224
000200 ef 6e 94 be 34 40 71 be fa 00 09 3e 1a 32 44 3e
       -0.28990886 -0.23559648 0.13379279 0.19159737
000210 1d e7 92 be bf e0 52 be 3c ce 3b be 8d 4f de bd
       -0.2869195 -0.20593546 -0.18340391 -0.10855017
000220 29 37 3a 3e d6 a1 93 bd f5 48 84 be aa 4c a1 bc
       0.18185104 -0.07208602 -0.25836912 -0.019689877
000230 55 0f c4 3d 06 29 49 be d9 71 45 bd 23 6f 83 be
       0.09573237 -0.19644555 -0.048204277 -0.25670728
000240 c9 34 cf bd df 80 a7 3e c2 07 03 3e d1 8e aa bc
       -0.1011749 0.32715508 0.12795928 -0.020820053
000250 20 df 0a bd 31 e5 a1 3e 23 9b 1b be ff 9a b8 3b
       -0.033904195 0.31620172 -0.15195899 0.0056337113
000260 bb e0 16 be 48 83 84 3d d8 8b 77 be 06 df 13 3e
       -0.14734165 0.064703524 -0.2417444 0.14440545
000270 a8 f9 8a 3d 98 c0 50 bd 73 a5 99 bd 49 52 4b 3d
       0.067858994 -0.05096492 -0.0750226 0.04963902
000280 bf bc f1 3c 19 d1 12 be 54 f3 c7 3c 2a 0d de bc
       0.029508946 -0.14337577 0.02440802 -0.027105886
000290 26 58 27 be 8d 2c 40 3e 48 f7 8a 3e a3 cd 20 3b
       -0.1634222 0.18766995 0.27141786 0.0024536632
0002a0 5d dd e4 3e a3 a3 4f 3e c4 aa f8 3d ca 6b a0 be
       0.44700137 0.20277266 0.12141946 -0.31332237
0002b0 1d 8c 40 3e 5e ca 7f be 87 c9 06 be 65 37 b3 3d
       0.18803449 -0.2497954 -0.13162814 0.087508
0002c0 3f 40 9a 3d 86 f3 fe bd 70 d0 98 3c 66 b1 78 be
       0.07531785 -0.12448792 0.018654078 -0.24286422
0002d0 9b e2 5c be 90 ae 37 bd ce a2 8f be 01 81 7e 3e
       -0.21570818 -0.04484421 -0.28053898 0.24853899
0002e0 3c f3 52 3d d7 fb 12 3e 30 a0 79 bd e7 1d 85 3e
       0.051501498 0.14353882 -0.060943782 0.25999376
0002f0 75 c8 25 3d de 23 da bc 9e a1 f4 3c 72 a7 3a 3e
       0.040474374 -0.026628431 0.029862221 0.18227938
000300 5a 0d ce 3d e4 34 53 bd 28 72 58 3e d9 12 8e 3d
       0.1006114 -0.051564112 0.21137297 0.06937189
000310 97 a9 64 be c0 9b 4a 3d 29 6b 2b bd 63 09 09 3d
       -0.22330318 0.04946494 -0.041850243 0.033456217
000320 21 0f 41 3e 14 37 7e 3e 35 61 23 be 6a 16 fa 3d
       0.18853427 0.24825698 -0.1595505 0.122113064
000330 d4 6f 25 3e 69 af 80 bd 08 07 23 be d6 a4 d4 be
       0.1615594 -0.06283457 -0.15920651 -0.4153201
000340 60 8e 22 3e e3 d8 5c 3e 38 78 a5 3e 82 43 83 bd
       0.15874624 0.2156711 0.32318282 -0.064093605
000350 44 cf 47 be 7c db 9a bd 2b 8c 71 be 74 76 8b 3d
       -0.1951266 -0.075613946 -0.23588626 0.068097025
000360 b4 8e a2 3e bc 59 4a bd 01 c0 27 3e 01 88 88 be
       0.317495 -0.049401984 0.16381837 -0.26666263
000370 53 b5 cc bd 45 2b 48 be a7 c3 ae 3d 88 95 5b 3e
       -0.09995522 -0.19547756 0.085334115 0.2144376
000380 10 0b 81 3d c8 7b 0d 3e 74 b3 22 be 2d 47 40 be
       0.06300938 0.1381675 -0.15888768 -0.18777151
000390 5a bd e5 3d 47 cb f1 bd 8a 2e eb 3d 4e 07 af bd
       0.112177566 -0.1180635 0.11483486 -0.08546315
0003a0 db 43 93 be 98 9f 51 3c 8e 8b 3e be 62 6e 63 bd
       -0.28762707 0.012794398 -0.18607923 -0.05552519
0003b0 5b 3b ab bd 10 d7 92 be 6a 60 85 3e 66 1b 01 3e
       -0.083609305 -0.28679705 0.2605012 0.12608108
0003c0 7c 13 a4 bd 8e 76 0f 3c d9 8b bf bd f1 46 c1 3d
       -0.08011529 0.008756293 -0.09352846 0.09437359
0003d0 51 de 7d 3e 39 e8 61 3e c8 d0 bf bc a2 83 65 bd
       0.24791838 0.22061242 -0.023414984 -0.056033738
0003e0 a5 f3 a2 bd c5 33 af be 70 22 85 3e 56 28 dd 3d
       -0.07956628 -0.34219185 0.26002836 0.10798709
0003f0 3e 76 af be 85 ab ad 3c b8 ce 5e 3e 6c a7 af 3b
       -0.342699 0.021199951 0.21758544 0.0053605344

base.mlp.fc_h.0.bias f4 [64]
000000 00 00 00 00 00 00 00 00 00 00 00 00 00 00 00 00
       0.0 0.0 0.0 0.0
000010 00 00 00 00 00 00 00 00 00 00 00 00 00 00 00 00
       0.0 0.0 0.0 0.0
000020 00 00 00 00 00 00 00 00 00 00 00 00 00 00 00 00
       0.0 0.0 0.0 0.0
000030 00 00 00 00 00 00 00 00 00 00 00 00 00 00 00 00
       0.0 0.0 0.0 0.0
000040 00 00 00 00 00 00 00 00 00 00 00 00 00 00 00 00
       0.0 0.0 0.0 0.0
000050 00 00 00 00 00 00 00 00 00 00 00 00 00 00 00 00
       0.0 0.0 0.0 0.0
000060 00 00 00 00 00 00 00 00 00 00 00 00 00 00 00 00
       0.0 0.0 0.0 0.0
000070 00 00 00 00 00 00 00 00 00 00 00 00 00 00 00 00
       0.0 0.0 0.0 0.0
000080 00 00 00 00 00 00 00 00 00 00 00 00 00 00 00 00
       0.0 0.0 0.0 0.0
000090 00 00 00 00 00 00 00 00 00 00 00 00 00 00 00 00
       0.0 0.0 0.0 0.0
0000a0 00 00 00 00 00 00 00 00 00 00 00 00 00 00 00 00
       0.0 0.0 0.0 0.0
0000b0 00 00 00 00 00 00 00 00 00 00 00 00 00 00 00 00
       0.0 0.0 0.0 0.0
0000c0 00 00 00 00 00 00 00 00 00 00 00 00 00 00 00 00
       0.0 0.0 0.0 0.0
0000d0 00 00 00 00 00 00 00 00 00 00 00 00 00 00 00 00
       0.0 0.0 0.0 0.0
0000e0 00 00 00 00 00 00 00 00 00 00 00 00 00 00 00 00
       0.0 0.0 0.0 0.0
0000f0 00 00 00 00 00 00 00 00 00 00 00 00 00 00 00 00
       0.0 0.0 0.0 0.0

base.mlp.fc_h.2.weight f4 [64]
000000 00 00 80 3f 00 00 80 3f 00 00 80 3f 00 00 80 3f
       1.0 1.0 1.0 1.0
000010 00 00 80 3f 00 00 80 3f 00 00 80 3f 00 00 80 3f
       1.0 1.0 1.0 1.0
000020 00 00 80 3f 00 00 80 3f 00 00 80 3f 00 00 80 3f
       1.0 1.0 1.0 1.0
000030 00 00 80 3f 00 00 80 3f 00 00 80 3f 00 00 80 3f
       1.0 1.0 1.0 1.0
000040 00 00 80 3f 00 00 80 3f 00 00 80 3f 00 00 80 3f
       1.0 1.0 1.0 1.0
000050 00 00 80 3f 00 00 80 3f 00 00 80 3f 00 00 80 3f
       1.0 1.0 1.0 1.0
000060 00 00 80 3f 00 00 80 3f 00 00 80 3f 00 00 80 3f
       1.0 1.0 1.0 1.0
000070 00 00 80 3f 00 00 80 3f 00 00 80 3f 00 00 80 3f
       1.0 1.0 1.0 1.0
000080 00 00 80 3f 00 00 80 3f 00 00 80 3f 00 00 80 3f
       1.0 1.0 1.0 1.0
000090 00 00 80 3f 00 00 80 3f 00 00 80 3f 00 00 80 3f
       1.0 1.0 1.0 1.0
0000a0 00 00 80 3f 00 00 80 3f 00 00 80 3f 00 00 80 3f
       1.0 1.0 1.0 1.0
0000b0 00 00 80 3f 00 00 80 3f 00 00 80 3f 00 00 80 3f
       1.0 1.0 1.0 1.0
0000c0 00 00 80 3f 00 00 80 3f 00 00 80 3f 00 00 80 3f
       1.0 1.0 1.0 1.0
0000d0 00 00 80 3f 00 00 80 3f 00 00 80 3f 00 00 80 3f
       1.0 1.0 1.0 1.0
0000e0 00 00 80 3f 00 00 80 3f 00 00 80 3f 00 00 80 3f
       1.0 1.0 1.0 1.0
0000f0 00 00 80 3f 00 00 80 3f 00 00 80 3f 00 00 80 3f
       1.0 1.0 1.0 1.0

base.mlp.fc_h.2.bias f4 [64]
000000 00 00 00 00 00 00 00 00 00 00 00 00 00 00 00 00
       0.0 0.0 0.0 0.0
000010 00 00 00 00 00 00 00 00 00 00 00 00 00 00 00 00
       0.0 0.0 0.0 0.0
000020 00 00 00 00 00 00 00 00 00 00 00 00 00 00 00 00
       0.0 0.0 0.0 0.0
000030 00 00 00 00 00 00 00 00 00 00 00 00 00 00 00 00
       0.0 0.0 0.0 0.0
000040 00 00 00 00 00 00 00 00 00 00 00 00 00 00 00 00
       0.0 0.0 0.0 0.0
000050 00 00 00 00 00 00 00 00 00 00 00 00 00 00 00 00
       0.0 0.0 0.0 0.0
000060 00 00 00 00 00 00 00 00 00 00 00 00 00 00 00 00
       0.0 0.0 0.0 0.0
000070 00 00 00 00 00 00 00 00 00 00 00 00 00 00 00 00
       0.0 0.0 0.0 0.0
000080 00 00 00 00 00 00 00 00 00 00 00 00 00 00 00 00
       0.0 0.0 0.0 0.0
000090 00 00 00 00 00 00 00 00 00 00 00 00 00 00 00 00
       0.0 0.0 0.0 0.0
0000a0 00 00 00 00 00 00 00 00 00 00 00 00 00 00 00 00
       0.0 0.0 0.0 0.0
0000b0 00 00 00 00 00 00 00 00 00 00 00 00 00 00 00 00
       0.0 0.0 0.0 0.0
0000c0 00 00 00 00 00 00 00 00 00 00 00 00 00 00 00 00
       0.0 0.0 0.0 0.0
0000d0 00 00 00 00 00 00 00 00 00 00 00 00 00 00 00 00
       0.0 0.0 0.0 0.0
0000e0 00 00 00 00 00 00 00 00 00 00 00 00 00 00 00 00
       0.0 0.0 0.0 0.0
0000f0 00 00 00 00 00 00 00 00 00 00 00 00 00 00 00 00
       0.0 0.0 0.0 0.0

base.mlp.fc2.0.0.weight f4 [64, 64]
000000 83 d4 14 3e 67 07 80 3e 30 3f a8 3d bc 0c 91 3e
       0.14534192 0.25005648 0.08215177 0.28330028
000010 76 a5 1f be c2 21 7f 3e ff b7 12 be 33 56 e6 bd
       -0.15590462 0.24915221 -0.14328001 -0.1124691
000020 af 23 99 be f7 4b 95 be 17 a5 85 be d3 08 82 3d
       -0.29910037 -0.2915952 -0.26102516 0.06349339
000030 c2 f0 0a be de cc 7d 3d 58 11 27 be c2 6e a1 3e
       -0.13568404 0.061962955 -0.1631521 0.31529814
000040 be ea 61 bb 82 cf d4 3d c4 8b 40 3e 2a 26 4d be
       -0.0034472193 0.103911415 0.18803316 -0.2003409
000050 09 0f ee 3d 34 e9 d0 be 76 1e ab 3c db 19 8b be
       0.116239615 -0.4080292 0.020888548 -0.27168164
000060 58 f5 c3 bd e9 8a 98 bd 97 e6 87 38 0a 49 83 be
       -0.0956828 -0.0744837 6.480252e-05 -0.25641662
000070 5c 00 92 3d 44 76 ba 38 49 bc f9 3d 93 56 9b be
       0.07128975 8.8912e-05 0.12194116 -0.30339488
000080 9a b1 6d bd cc 06 8d bd 04 24 c8 3c cb f3 d8 be
       -0.058030702 -0.06886062 0.024431236 -0.423735
000090 16 ab 23 3e 55 43 d1 bd 10 81 91 3e c0 d3 9f be
       0.15983233 -0.10217921 0.2841878 -0.3121624
0000a0 b7 76 95 bd 8b 5d ac 3d ee 25 e7 3d 48 4f 19 bd
       -0.07298034 0.084162794 0.112865314 -0.037429124
0000b0 f6 86 a6 3b 01 73 e4 bd 1d c9 71 bd a3 73 09 be
       0.0050820066 -0.11154748 -0.059029687 -0.13423018
0000c0 32 5a 6c 3e 74 83 2c be d1 1d 2d 3e 0f 86 82 3e
       0.23081282 -0.1684702 0.16905905 0.25492904
0000d0 c1 6e 5c be 4e bd 9a 3d 96 b6 79 bd 62 7c 7c 3b
       -0.21526624 0.07555638 -0.060965143 0.0038526286
0000e0 36 f7 7c bb 50 2d 04 bd 7a 3d 74 be 4d 0e d5 3d
       -0.0038599498 -0.032269776 -0.23851576 0.10403118
0000f0 ec 4b 2b 3d d2 35 06 3e d0 31 76 3d 7c f1 cc 3d
       0.04182045 0.13106468 0.0601061 0.10006997
000100 da 7b e1 3d 98 a4 6a bc 50 74 5a 3c 18 85 18 3e
       0.11009951 -0.014321469 0.013333395 0.14894521
000110 9c 71 19 be d2 65 33 3e 86 09 11 3e dd 24 07 3e
       -0.14984745 0.1751931 0.14163789 0.13197656
000120 e9 dd 81 3d ea 54 19 be 07 d1 85 3d c5 da 1e be
       0.06341154 -0.14973798 0.065340094 -0.15513141
000130 4f d4 c6 3b 6d d1 8f 3e cf f5 04 be 8a 80 44 be
       0.0060677896 0.28089467 -0.12984394 -0.19189659
000140 24 45 2f 3e 2f 54 39 be 4c b7 56 be 72 21 01 be
       0.17116219 -0.1809852 -0.2096836 -0.12610415
000150 62 82 39 3e 82 9a 04 3e ef 12 1f 3e 13 2a 51 3e
       0.18116143 0.12949565 0.15534566 0.20426206
000160 5d 76 f1 bd 54 f9 16 bd bf 92 0d bd 27 02 d5 bd
       -0.11790154 -0.03685887 -0.034563776 -0.10400801
000170 a4 c6 b4 3e 09 90 c4 bd 4a 9a e3 3e 46 da 2f be
       0.353078 -0.09597785 0.4445365 -0.17173108
000180 da b6 96 bd c0 ee a3 3d 4b 8d 8d 3d 89 93 d3 bc
       -0.07359095 0.08004522 0.06911715 -0.025827186
000190 ad 7a b3 3d 79 63 e6 3d 86 39 f9 bc de 61 0f 3d
       0.08763633 0.11249442 -0.030422937 0.035005443
0001a0 e1 90 86 3e d2 9f 47 3e 0d 16 2c be fc 80 c8 bd
       0.2628241 0.1949456 -0.16805287 -0.09790227
0001b0 e5 8b a7 3e d3 5e 06 bc 5c 23 60 be db ce 71 3e
       0.3272392 -0.008201319 -0.21888489 0.23614065
0001c0 fa e5 a7 be c3 b3 81 3e dc fa 13 3e 72 67 9f 3d
       -0.32792646 0.2533246 0.14451164 0.077834025
0001d0 d5 df 16 be 47 fe ce 3e ae b4 12 be 25 c9 73 bd
       -0.14733823 0.40428373 -0.14326736 -0.059518
0001e0 c6 af 9e bd 21 76 95 be 20 38 91 3e ad e8 cb bd
       -0.0774837 -0.29191688 0.28363132 -0.09956489
0001f0 49 d7 fb 3d c8 65 3e bb dd ae 5a be 70 ef f8 bd
       0.12296922 -0.0029052366 -0.21355768 -0.12155044
000200 2c c4 97 be ec 51 6a be 31 1d 0f 3e 30 be 49 3e
       -0.29641855 -0.22882813 0.1397598 0.19701457
000210 0b 86 8f be 08 0e 4c be 8f 27 37 be 57 60 d4 bd
       -0.28031954 -0.19927227 -0.17886184 -0.10369938
000220 5e cc 3f 3e 2c 3f 8f bd 4d c8 86 be e3 30 d0 bc
       0.18730304 -0.06994471 -0.26324692 -0.025413936
000230 40 f7 be 3d 6a ee 4f be f9 16 2a bd 3a f4 86 be
       0.09324503 -0.20305791 -0.041525815 -0.26358205
000240 bb b7 c7 bd 22 b3 aa 3e d1 72 f9 3d df 05 cc bc
       -0.09751841 0.33339792 0.121801026 -0.024905143
000250 6e 22 26 bd 55 e6 a1 3e d6 92 1e be 52 08 52 3c
       -0.04056018 0.31621042 -0.15485701 0.0128193665
000260 8c 6e 19 be 01 90 71 3d d3 00 73 be a0 2a 0f 3e
       -0.14983577 0.058975223 -0.23730783 0.13981104
000270 9a 9a 7c 3d 64 a7 50 bd a7 4a a5 bd 86 a3 2e 3d
       0.061670877 -0.050940886 -0.080708794 0.042636417
000280 3f ea 0b 3d 1d b4 0e be 7e 77 98 3c d9 24 07 bd
       0.03415894 -0.13935895 0.018611666 -0.032994125
000290 65 a5 2d be 57 49 39 3e 25 29 88 3e 55 78 3f bb
       -0.16957624 0.18094383 0.2659389 -0.002921601
0002a0 af c7 e1 3e b9 da 55 3e f4 03 ec 3d 62 5d 9d be
       0.4409766 0.20884217 0.115241915 -0.30735308
0002b0 5a a7 46 3e 1b ac 80 be 9a dc 0a be 4d bd bb 3d
       0.19399777 -0.25131306 -0.13560715 0.09166966
0002c0 01 2c 98 3d 11 c8 f3 bd ea 71 69 3c fa eb 7d be
       0.07430268 -0.11903394 0.014248351 -0.24797049
0002d0 c4 c6 63 be db 84 3c bd 5b 68 90 be 23 b6 82 3e
       -0.22243792 -0.04602514 -0.28204617 0.25529584
0002e0 f4 21 6c 3d ce 32 18 3e 2a ba 5f bd 04 ca 83 3e
       0.057649568 0.1486313 -0.0546209 0.25740063
0002f0 2e 3b 1c 3d 9a 79 a2 bc e5 ec fe 3c 78 98 41 3e
       0.038142376 -0.019833375 0.03111882 0.18905818
000300 6c a0 d7 3d 2c f0 46 bd 1c 05 56 3e 48 53 97 3d
       0.10528645 -0.04856889 0.20900387 0.073889315
000310 2d 6d 63 be aa d5 5f 3d d2 82 38 bd 39 63 ff 3c
       -0.22209616 0.054647125 -0.045046635 0.031175243
000320 91 22 44 3e a0 58 80 3e 9a f3 24 be 28 0c f3 3d
       0.19153811 0.25067616 -0.16108552 0.11867553
000330 d3 47 28 3e 24 70 8c bd a6 10 1e be 84 00 d6 be
       0.16433649 -0.068573266 -0.15436038 -0.41797268
000340 ec 07 26 3e 47 a8 5f 3e 52 39 a3 3e 19 67 8c bd
       0.1621396 0.21841536 0.3187967 -0.06855602
000350 e1 53 4d be d7 9b a4 bd c1 89 77 be c6 23 99 3d
       -0.20051529 -0.080375366 -0.24173643 0.07477526
000360 f9 67 a0 3e 26 4d 45 bd 08 23 2c 3e 01 4d 86 be
       0.31329325 -0.048169278 0.16810238 -0.26230624
000370 08 59 d7 bd f8 2d 44 be ba 17 a8 3d 5f a3 58 3e
       -0.10515028 -0.1915816 0.082076505 0.21156071
000380 57 10 79 3d 01 5e 0d 3e 86 e0 1e be 7e 46 41 be
       0.0608066 0.13805391 -0.15515336 -0.18874547
000390 61 5f e0 3d 8e 41 fb bd 54 20 e0 3d b1 60 b8 bd
       0.10955692 -0.12268363 0.10943666 -0.090028174
0003a0 b6 cc 95 be 66 05 51 3c 1e 3b 44 be ff 3d 71 bd
       -0.29257745 0.012757635 -0.19163176 -0.058897015
0003b0 34 19 b8 bd d3 5c 95 be 3b 35 83 3e 00 62 05 3e
       -0.08989182 -0.29172382 0.2562655 0.13025665
0003c0 d3 27 a6 bd 0e 83 61 3c d8 cb c3 bd eb 00 ca 3d
       -0.081130646 0.013764156 -0.095603645 0.09863456
0003d0 13 5c 7c 3e 69 db 63 3e 32 e6 ed bc 90 53 4c bd
       0.24644499 0.22251667 -0.02904043 -0.04988438
0003e0 94 08 9b bd 76 94 ad be 2c 2f 87 3e bb 4e d8 3d
       -0.075699955 -0.3390233 0.26403177 0.10561892
0003f0 76 b4 ad be 1c ef d5 3c 6f 96 5c 3e 90 32 31 3c
       -0.33926743 0.026114993 0.21541761 0.010815278

base.mlp.fc2.0.0.bias f4 [64]
000000 4b 11 65 3b a9 af a9 3b 81 8a 8f 3b 4a e6 72 3b
       0.0034952934 0.005178411 0.0043805246 0.0037063533
000010 49 14 bf bb 88 0b 99 bb 16 5d fb 3a 8f fb b0 3b
       -0.0058312756 -0.004670564 0.0019177522 0.005401082
000020 44 45 91 bb 7a 7b bc bb d1 9f 99 bb 11 1e 2b ba
       -0.004433306 -0.0057520242 -0.004688241 -0.00065276126
000030 bb 5b 30 bb 31 76 b6 bb 4c ba c4 3b 70 e6 c2 3b
       -0.0026910144 -0.0055682887 0.0060036536 0.0059478804
000040 5b 64 b3 3b 96 c1 02 3b df ba 2f ba 88 ab ad bb
       0.00547461 0.0019951812 -0.0006703566 -0.005299989
000050 ab bc 84 3b 42 14 d6 bb 00 ce a9 bb 8f 4e 97 bb
       0.0040508113 -0.0065331766 -0.005182028 -0.004617519
000060 70 cd a6 3b 4b 2a 02 ba 83 3b 5c bb db 86 d8 3b
       0.005090408 -0.00049654086 -0.0033604808 0.006607873
000070 0e 15 2b bb df e2 98 bb a2 fa c9 bb 51 45 31 3b
       -0.002610508 -0.004665717 -0.006163911 0.0027049372
000080 7a 14 c0 3b 95 9b 3e 3a 09 1f af 3b d2 9d b0 bb
       0.005861816 0.00072711083 0.005344276 -0.0053899074
000090 57 e2 cf 3b 52 a5 85 3a bb d2 be 3b 79 68 9a bb
       0.0063441205 0.0010196364 0.005823461 -0.004712161
0000a0 d3 fe c7 3b fb 1c d0 bb 2d 9a b1 3b 7d 17 12 39
       0.0061033755 -0.006351111 0.0054199905 0.00013932395
0000b0 6c ce c8 bb 1e d8 7f b9 6d 84 b0 3b 99 3b c9 3b
       -0.006128123 -0.00024399205 0.00538688 0.006141138
0000c0 e8 36 98 ba e7 66 52 3b a6 27 c1 3b aa c5 aa bb
       -0.0011613043 0.0032104792 0.005894619 -0.0052115517
0000d0 9b e9 5d 39 3b 9e 02 b9 c3 1e 5d bb c6 c5 7b 39
       0.00021163227 -0.00012456712 -0.003374026 0.00024010902
0000e0 05 59 93 3b 07 2a da 3b 2b 48 c6 ba 9d d3 95 3b
       0.004496696 0.006657842 -0.0015127709 0.0045723454
0000f0 b4 fc 85 3b f6 51 ac bb ee 56 0e 3b 9e 25 ce bb
       0.0040889625 -0.005258794 0.0021719295 -0.0062911054

base.mlp.fc2.0.2.weight f4 [64]
000000 f4 ad 80 3f fb af 80 3f aa e5 80 3f 18 cc 80 3f
       1.0053086 1.0053705 1.0070088 1.0062284
000010 57 d1 80 3f 08 89 80 3f 4d b9 80 3f 80 c5 80 3f
       1.0063885 1.0041819 1.0056549 1.0060272
000020 63 95 80 3f 27 c0 80 3f 45 c9 80 3f d4 6d 80 3f
       1.0045589 1.005864 1.0061423 1.0033517
000030 c8 ac 80 3f 90 62 80 3f 29 e3 80 3f c3 cf 80 3f
       1.0052729 1.0030079 1.0069324 1.0063404
000040 f4 da 80 3f f2 ab 80 3f 01 dd 80 3f 9d c4 80 3f
       1.0066819 1.0052474 1.0067445 1.0060002
000050 9d a4 80 3f b2 26 80 3f e2 a7 80 3f a2 a3 80 3f
       1.0050236 1.0011809 1.0051234 1.0049937
000060 4e da 80 3f 68 86 80 3f 4a cb 80 3f 71 ea 80 3f
       1.0066621 1.0041018 1.0062039 1.0071546
000070 f0 99 80 3f eb d8 80 3f 42 dd 80 3f d1 c9 80 3f
       1.0046978 1.0066198 1.0067523 1.006159
000080 7d e0 80 3f 2c c8 80 3f db cb 80 3f 2e c0 80 3f
       1.0068508 1.0061088 1.0062212 1.0058649
000090 82 da 80 3f 38 cb 80 3f 1a ca 80 3f 69 8a 80 3f
       1.0066683 1.0062017 1.0061677 1.004224
0000a0 c7 d0 80 3f cc d8 80 3f 2e cb 80 3f 67 d9 80 3f
       1.0063714 1.0066161 1.0062006 1.0066346
0000b0 33 6a 80 3f 70 ae 80 3f 1d e3 80 3f c2 d2 80 3f
       1.003241 1.0053234 1.006931 1.0064318
0000c0 78 dd 80 3f 29 d6 80 3f 97 d6 80 3f d8 c4 80 3f
       1.0067587 1.0065356 1.0065488 1.0060072
0000d0 89 de 80 3f fd 7e 80 3f 43 b0 80 3f f3 d1 80 3f
       1.0067912 1.0038754 1.0053791 1.0064071
0000e0 1a df 80 3f a7 d6 80 3f 0a c8 80 3f c0 b1 80 3f
       1.0068085 1.0065507 1.0061047 1.0054245
0000f0 2e cd 80 3f 14 86 80 3f 39 86 80 3f 86 65 80 3f
       1.0062616 1.0040917 1.0040962 1.0030982

base.mlp.fc2.0.2.bias f4 [64]
000000 cf 83 80 3b ab 51 c0 3b a9 62 c6 bb de 46 58 bb
       0.003921963 0.0058691106 -0.0060542417 -0.0033001225
000010 1a 66 ca bb 72 40 b4 bb 19 28 aa 3a 8d f4 af 3b
       -0.0061767222 -0.0055008465 0.0012981921 0.005369729
000020 b9 c2 e2 b9 11 f5 76 bb 4a 59 d3 bb 3c e6 56 ba
       -0.0004325116 -0.0037682692 -0.006449853 -0.000819776
000030 bc 8c 9c 3b 46 2c b2 3b a6 55 a1 bb 2b 5c cb 3b
       0.004777519 0.0054374067 -0.00492354 0.0062060556
000040 71 35 bf 3b db 02 cf 3b 71 87 b5 3a b1 9b a2 bb
       0.005835228 0.006317479 0.0013849569 -0.0049624075
000050 2e f4 26 bb 3b fd bc bb d7 ff b6 3a b9 5f 99 bb
       -0.0025475132 -0.005767492 0.0013961744 -0.0046806005
000060 b4 c7 36 3b fb 92 8e 3b 10 6a e8 ba 2f ac d0 3b
       0.0027890028 0.0043510175 -0.0017731804 0.006368182
000070 ba 31 bb ba b6 bb 68 3a cf a5 bb bb e3 11 55 ba
       -0.0014281787 0.0008878069 -0.005726553 -0.00081279705
000080 19 7c 9d 3b 25 42 b8 3b f3 c3 49 3b 82 12 89 bb
       0.0048060534 0.0056231194 0.003078696 -0.0041831145
000090 f1 70 54 3b a5 18 b4 3b fa cb 86 3b 09 56 cc bb
       0.003241595 0.005496102 0.0041136714 -0.006235842
0000a0 c0 0e ce 3b 27 3f cc bb 42 8d 08 3b 70 87 8b 3b
       0.0062883794 -0.0062331143 0.002083615 0.004258089
0000b0 3f 80 c1 bb 30 62 5f bb 16 75 8b 3b 2f b3 6d bb
       -0.0059051807 -0.0034085624 0.004255901 -0.0036270132
0000c0 7b 60 87 bb 75 b4 a5 bb f8 ad d6 3b d7 e3 55 3b
       -0.0041313744 -0.0050569125 0.0065515004 0.0032637024
0000d0 5f 30 c5 bb f4 a6 a9 39 fc 25 9c bb c8 38 c9 3b
       -0.006017729 0.00032358582 -0.0047652703 0.006140802
0000e0 23 af c4 3b 55 a1 bf 3b 0f 5c c8 3b eb 0a c1 bb
       0.0060023232 0.0058480897 0.00611449 -0.005891194
0000f0 f1 b0 ac bb 00 2b 2b ba 2f 59 26 3b 47 d9 b3 bb
       -0.0052701165 -0.000652954 0.0025382747 -0.005488548

act.action_out.linear.weight f4 [10, 64]
000000 4d c8 e8 3b 3a 29 0b 3c 05 4e 01 3c d9 e9 ec 3b
       0.007103956 0.008493716 0.007892136 0.0072300253
000010 fb 70 dd 3b fe 46 c7 bb 11 73 08 bc 46 7b 02 bc
       0.006757853 -0.006081461 -0.008328215 -0.007963961
000020 54 21 15 3c e2 00 e6 bb be 7b ed 3b 46 d9 7f 3b
       0.009102184 -0.007019148 0.0072474172 0.0039039417
000030 2a d6 f4 3b e0 88 06 3c 6e 1e f5 3b fb f3 18 3c
       0.0074718194 0.0082113445 0.007480434 0.009335513
000040 ca 85 e6 bb a4 85 e3 3b 96 14 03 3c a3 aa 27 bc
       -0.007034992 0.0069434214 0.008000514 -0.010233554
000050 68 c0 a5 bb 32 f5 ce bb 4b 87 d0 3b 8b 46 fd bb
       -0.005058337 -0.0063158507 0.0063637844 -0.0077293566
000060 b9 5b c5 bb a0 d4 08 3c 72 f2 06 bc 13 c0 1d 3c
       -0.006022897 0.008351475 -0.008236514 0.009628314
000070 77 c1 fb bb 73 7d fa bb 36 9f f4 bb e6 b7 f9 bb
       -0.007682975 -0.0076443492 -0.0074652685 -0.0076207994
000080 e6 8c 26 3c d1 01 d3 bb 28 15 0c 3c bd 1e d6 bb
       0.010165429 -0.0064394255 0.008549966 -0.006534426
000090 8d 63 0d bc 47 5a 0e bc 6e 1d d4 bb 0a 5e 04 3c
       -0.008629692 -0.008688516 -0.006473235 0.008079061
0000a0 c8 2c 12 3c 4a 71 13 bc 4c 47 18 3c b5 b6 0a 3c
       0.0089218095 -0.008999178 0.009294342 0.008466412
0000b0 8d 38 ca 3b 75 c9 b0 3b 9b 81 a9 3b 3e 97 1b bc
       0.006171292 0.0053951093 0.005172921 -0.009496508
0000c0 6d 9d 1f bc 61 3f 04 3c 44 15 0f 3c 3d 3b db 3b
       -0.009742123 0.008071751 0.008733097 0.0066904114
0000d0 e3 cd f4 3b bf 56 10 3c 5d 0e e6 3b 58 56 15 3c
       0.0074708327 0.008809744 0.007020755 0.009114824
0000e0 c6 95 eb 3b 01 51 bf 3b 66 60 18 3c 95 ea f7 bb
       0.0071894852 0.005838514 0.009300327 -0.007565806
0000f0 02 79 e7 bb a7 db d4 bb 36 64 d6 3b 3b d4 e1 3b
       -0.007063986 -0.006495911 0.006542708 0.006891755
000100 0d ff 03 bc 49 fb de 3b 6d b1 27 bc 53 49 e5 bb
       -0.008056414 0.006804858 -0.010235173 -0.0069972663
000110 62 28 00 bc eb 12 0c bc c5 d2 d5 bb 79 d7 00 bc
       -0.007822128 -0.008549432 -0.00652537 -0.007863873
000120 29 f8 d0 3b b8 d0 de 3b 0e 58 12 3c bf 21 aa bb
       0.0063772392 0.0067997836 0.008932127 -0.005192011
000130 f6 bd 0a 3c 73 48 f5 bb 21 39 15 bc 05 64 f9 3b
       0.008468142 -0.0074854433 -0.009107859 0.0076108
000140 f3 e3 11 b8 84 40 de bb 8a cb 12 bc 87 56 13 3c
       -3.478299e-05 -0.006782593 -0.00895966 0.008992798
000150 92 ce 93 3b c3 9a c0 3b 4c 0c ae bb 79 85 0e bc
       0.004510709 0.005877824 -0.0053115245 -0.008698815
000160 db 9c 01 3c 4f 38 e7 3b 95 b6 03 bc b3 d5 da bb
       0.007910932 0.007056273 -0.008039136 -0.006678307
000170 2d 67 df 3b 83 20 ea 3b b7 08 c8 bb a9 eb e7 3b
       0.0068177194 0.007144989 -0.0061045545 0.0070776534
000180 00 03 17 3c 40 37 fc 3b 19 20 00 3c e1 e1 e0 3b
       0.009217024 0.007697016 0.007820153 0.0068628644
000190 d2 3d 0f 3c 49 6a 1d bc 15 98 e0 bb b3 42 bc bb
       0.008742766 -0.00960786 -0.006854067 -0.005745256
0001a0 15 f9 cf bb a0 cc b0 bb 82 f6 1b bc 04 60 df 3b
       -0.0063468316 -0.005395487 -0.009519221 0.006816866
0001b0 69 da 04 3c e6 ca 51 3b c9 c8 02 3c be 57 e3 3b
       0.008108714 0.0032011806 0.007982441 0.00693795
0001c0 92 6b 38 bc f2 59 ec 3b eb 3a c7 bb d2 cc fc bb
       -0.0112561155 0.0072128708 -0.0060800216 -0.007714846
0001d0 47 7e 1a bc 9c f2 e7 bb 6d 8f ca bb e9 4a eb 3b
       -0.009429521 -0.007078482 -0.0061816485 0.007180561
0001e0 b5 a5 ea 3b e9 b3 ad 3b 61 84 e7 3b f5 ab f2 3b
       0.007160867 0.005300988 0.0070653413 0.007405753
0001f0 03 e9 02 3c e8 d2 da 3b f2 dd f7 3b a7 27 b8 bb
       0.007990125 0.006677974 0.0075642997 -0.0056199613
000200 cb ca f5 3b f6 7e 00 3c 46 a8 d9 3b 92 56 f9 3b
       0.0075009814 0.00784277 0.006642374 0.007609197
000210 aa e0 1e bc 09 0e 01 bc 1b 62 c8 bb 6b ae a0 3b
       -0.009697119 -0.007876881 -0.0061152107 0.0049036047
000220 d1 c8 ed bb f8 5d 07 bc 03 9c bb 3b b4 22 02 3c
       -0.007256605 -0.00826215 0.005725385 0.007942844
000230 7f 05 e6 3b 51 10 27 bc 8f 7d 0e 3c 12 20 f1 bb
       0.007019698 -0.010196761 0.008696928 -0.0073585594
000240 1d bb 07 bc 91 f5 1f 3c aa 29 2b 3c 03 65 c0 3b
       -0.008284357 0.009763137 0.010446945 0.0058714165
000250 ac a8 c3 3b d7 cd d7 bb 77 3f d0 3b 93 31 b1 3b
       0.005971035 -0.0065858173 0.006355222 0.005407521
000260 9c 6a cf 3b db b6 15 bc da 45 09 3c 78 6f 06 bc
       0.0063298475 -0.009137834 0.00837847 -0.008205287
000270 a0 68 e0 3b 99 67 0e bc 0b b0 12 3c 61 bd 00 bc
       0.00684841 -0.008691692 0.008953105 -0.007857651
000280 d8 16 a1 3b d9 ae c3 bb 02 a4 e7 3b 2c 22 02 3c
       0.0049160533 -0.005971771 0.007069112 0.0079427175
000290 c1 4a ed bb c6 20 b4 3b ed 67 04 3c 1d 63 f9 3b
       -0.0072415774 0.005497071 0.008081418 0.007610692
0002a0 8b 5b 02 bc ca 41 04 bc 30 5c f9 bb 94 70 ec 3b
       -0.007956396 -0.008072326 -0.0076098666 0.007215569
0002b0 3a 52 0d bc 8c 6f f1 bb 70 b4 07 bc 80 ea 05 3c
       -0.008625561 -0.0073680338 -0.008282766 0.008173585
0002c0 32 a0 e7 bb 22 e7 e0 3b d4 eb f5 bb 76 d5 bc 3b
       -0.0070686573 0.0068634907 -0.0075049195 0.005762751
0002d0 13 fc 28 bc 6b da 86 3b 44 69 dc 3b d7 a5 f5 bb
       -0.010314005 0.004115393 0.006726416 -0.0074965763
0002e0 a8 15 f9 3b 60 53 02 3c c7 77 a8 bb 58 0d 0c bc
       0.0076014586 0.007954448 -0.0051412317 -0.008548103
0002f0 99 e5 dc 3b 3c 6a da bb b1 c4 c3 3b 00 20 fb bb
       0.0067412374 -0.006665496 0.005974375 -0.007663727
000300 4f 33 ca bb f7 5d 20 3c 75 49 15 bc 58 8a f9 bb
       -0.0061706672 0.009788028 -0.009111752 -0.007615369
000310 bf fc f9 bb 01 b6 f3 bb 09 2f c2 3b f8 9c b6 3b
       -0.0076290066 -0.007437468 0.005926017 0.0055729114
000320 f7 a0 2e 3c e3 bb f2 3b bd 2f f6 bb ee 45 93 bb
       0.010658494 0.0074076517 -0.007513015 -0.0044944203
000330 50 13 d8 bb dc 73 17 bc d8 27 19 bc 3b b7 0d 3c
       -0.006594099 -0.009243932 -0.009347878 0.008649643
000340 87 d7 16 3c c5 b1 e1 3b ea b5 05 bc 7b 76 0c 3c
       0.009206659 0.006887647 -0.0081610475 0.00857317
000350 ff c9 06 3c 56 31 fb bb a3 69 bc 3b f8 71 00 bc
       0.008226871 -0.0076657934 0.0057498976 -0.007839672
000360 05 bf 02 3c 13 7a 0e 3c cd 93 18 3c c4 93 d5 bb
       0.007980113 0.008696097 0.009312582 -0.006517859
000370 2e 03 ac bb 15 8a d9 3b 6a a9 13 bc 1d 85 08 bc
       -0.0052494025 0.006638775 -0.009012559 -0.008332518
000380 41 1b bf 3b 7f 6e 05 3c 78 be e1 ba 2f 5c 1d 3c
       0.0058321063 0.00814402 -0.0017222902 0.009604498
000390 b5 c7 c8 bb 68 89 fc bb c7 7b 0f 3c 64 26 f2 bb
       -0.0061273226 -0.00770681 0.008757538 -0.0073898304
0003a0 71 cf 05 3c bb 64 00 bc 2d 70 e4 bb dd e3 01 3c
       0.008167134 -0.007836516 -0.00697138 0.007927862
0003b0 04 f7 c5 bb 92 39 0e bc 2b b1 eb 3b d5 5e 96 bb
       -0.0060414094 -0.008680718 0.007192751 -0.0045889416
0003c0 ed 7f 02 3c 1f ae ec bb 34 25 13 3c 6b 46 7a bb
       0.00796507 -0.0072229053 0.008981038 -0.0038188945
0003d0 68 2b 00 3c 35 8f e0 bb c6 90 cb bb f5 0c f9 3b
       0.007822849 -0.006853009 -0.0062123267 0.0076004216
0003e0 0f cd 22 3c 61 20 15 3c de 7a fd bb 00 44 c3 bb
       0.009936585 0.009101958 -0.007735594 -0.005959034
0003f0 9b 00 da 3b 33 a8 05 bc 1d 6a fe 3b 4c 5c 07 3c
       0.006652904 -0.008157778 0.0077641145 0.008261751

act.action_out.linear.bias f4 [10]
000000 5b 37 f5 3b b4 44 f2 bb d8 13 f5 3b 97 6d f4 3b
       0.0074834055 -0.007393444 0.007479172 0.007459353
000010 35 05 f6 3b 70 3e f6 bb 00 8c f4 bb fe 63 f2 bb
       0.007507945 -0.0075147673 -0.0074629784 -0.007397174
000020 46 2f f5 bb 66 69 f4 3b
       -0.007482442 0.0074588535
