light_mappo-main/results/MyEnv/MyEnv/mappo/check/run39/models/critic.pt (torch, 52149 bytes, 15 tensors)

base.feature_norm.weight f4 [45]
0	0x3f80260d	1.0011612
1	0x3f80e036	1.0068424
2	0x3f804c2e	1.0023248
3	0x3f80bb42	1.0057147
4	0x3f7f1893	0.9964687
5	0x3f7edc43	0.9955484
6	0x3f80a83f	1.0051345
7	0x3f7ed700	0.99546814
8	0x3f7e50ba	0.9934193
9	0x3f80bb73	1.0057205
10	0x3f80289b	1.0012392
11	0x3f80ac28	1.0052538
12	0x3f7fdddc	0.99947906
13	0x3f80be7d	1.0058132
14	0x3f7fa904	0.9986727
15	0x3f7f53ca	0.99737227
16	0x3f7e756a	0.9939791
17	0x3f80a990	1.0051746
18	0x3f804542	1.0021136
19	0x3f7ea30c	0.9946754
20	0x3f7e356a	0.99300253
21	0x3f801d78	1.0008993
22	0x3f80507d	1.0024563
23	0x3f807863	1.0036739
24	0x3f80a87f	1.0051421
25	0x3f7ea843	0.99475497
26	0x3f7e175c	0.99254394
27	0x3f80cc90	1.0062428
28	0x3f80ce0d	1.0062882
29	0x3f80822e	1.0039728
30	0x3f7e926c	0.9944217
31	0x3f80bd51	1.0057775
32	0x3f80844c	1.0040374
33	0x3f80d015	1.0063502
34	0x3f7fd785	0.9993823
35	0x3f7f64cb	0.9976317
36	0x3f80c31a	1.005954
37	0x3f80a44b	1.0050138
38	0x3f809913	1.0046715
39	0x3f80e192	1.0068839
40	0x3f80cccb	1.0062498
41	0x3f80b3c4	1.005486
42	0x3f7e84aa	0.9942118
43	0x3f7fc42c	0.9990871
44	0x3f8046ab	1.0021566

base.feature_norm.bias f4 [45]
0	0x3b275cf8	0.0025537591
1	0xbb65afb4	-0.0035047354
2	0xbb805ac0	-0.0039170682
3	0xbb9a0a7f	-0.0047009583
4	0xbafdfe80	-0.0019378215
5	0x3b6c5977	0.0036064067
6	0xbaf0a9a8	-0.0018361108
7	0x3b79d683	0.0038122244
8	0xbbb28668	-0.0054481514
9	0x3b14b935	0.00226934
10	0x3b9f50f5	0.0048619458
11	0xbb964594	-0.004585931
12	0x3bd00baa	0.0063490467
13	0xbbbc0545	-0.005737933
14	0xbba0b823	-0.0049047633
15	0xbb74a283	-0.003732831
16	0xbb99edb0	-0.004697524
17	0x3bd916f1	0.0066250493
18	0x3be05caa	0.006846984
19	0x39839f04	0.00025104743
20	0xba07a105	-0.0005173835
21	0xb98bd6b5	-0.00026672115
22	0xbba8ccb6	-0.0051513566
23	0xba8eb922	-0.0010888914
24	0xbbcb507a	-0.006204662
25	0x3b51ccce	0.0032012942
26	0xbb8636ee	-0.0040959036
27	0x3baa4266	0.0051959036
28	0xbbecb29b	-0.00722344
29	0x3b9bd7bc	0.004755942
30	0x3ac123ab	0.0014735361
31	0xbbae0209	-0.005310301
32	0xbbcde05f	-0.0062828506
33	0x3bf2da8a	0.007411306
34	0xbb64aabd	-0.0034891807
35	0x3be27a72	0.0069115693
36	0x3b5d8922	0.0033803661
37	0x3ba8ba60	0.0051491708
38	0xbbb90183	-0.005645932
39	0x3b9bb062	0.004751251
40	0xbbd9ef0b	-0.0066508106
41	0xbbbe54e1	-0.005808458
42	0xbba2a357	-0.0049633193
43	0xbb632863	-0.0034661524
44	0x3a5a51a6	0.00083282066

base.mlp.fc1.0.weight f4 [64, 45]
0	0xbeabf0be	-0.3358211
1	0x3db0c2bc	0.08630893
2	0xbe4add54	-0.19810992
3	0xbd09902c	-0.03358476
4	0x3e8a66ae	0.27031463
5	0xbe701ac4	-0.2344771
6	0xbc8fd8a3	-0.017559355
7	0xbe859326	-0.26088828
8	0x3d61feb9	0.055174563
9	0x3c42c8c4	0.011888687
10	0xbcb9a701	-0.022662641
11	0xbe0bdbdb	-0.13658087
12	0xbe557643	-0.20845895
13	0xbe4d6024	-0.20056206
14	0xbd27f664	-0.04100646
15	0xbc655ba6	-0.0139989015
16	0x3eb86354	0.3601328
17	0x3e0b8fbf	0.13629054
18	0xbe81245e	-0.25223058
19	0x3e9e1d71	0.30881837
20	0x3d3db87b	0.046318512
21	0x3d9f7a35	0.07786981
22	0xbe48bb85	-0.19602783
23	0x3e83c5ac	0.2573675
24	0xbe3add8a	-0.18248573
25	0x3bf21bbd	0.0073885606
26	0xbe8306f6	-0.25591248
27	0xbe0242fe	-0.12720868
28	0xbdcf6566	-0.10126762
29	0xbe403f3b	-0.1877412
30	0x3e46e363	0.19422679
31	0xbcc05ac2	-0.023480777
32	0xbe10f9d2	-0.14157799
33	0xbd2eb0bc	-0.042649016
34	0x3bc93f6a	0.0061415927
35	0xbe07eff4	-0.13275129
36	0xbaa5cbef	-0.0012649278
37	0x3d18d452	0.03731186
38	0x3d9a7787	0.07542329
39	0x3e49d71a	0.19710961
40	0xbe75cea4	-0.24004608
41	0xbe2f20a1	-0.1710229
42	0x3dd3f72e	0.1034988
43	0x3e42e87d	0.19034
44	0x3e6f3a6c	0.2336213
45	0x3cceab03	0.02522803
46	0x3c981c2e	0.018568125
47	0xbe2b6869	-0.16739048
48	0x3dadb25c	0.08481285
49	0x3d64b1b6	0.05583354
50	0xbd1befe9	-0.038070593
51	0x3e060d6a	0.13091055
52	0xbd2f82fc	-0.042849526
53	0xbdc2ceb0	-0.09512079
54	0xbdd02a39	-0.10164303
55	0x3d8c4533	0.06849136
56	0x3e1b5918	0.15170705
57	0x3dce016a	0.100588635
58	0xbded9c46	-0.116020724
59	0xbe570712	-0.20998791
60	0x3e8ed8e8	0.2789986
61	0xbd9361f4	-0.071964175
62	0xbd9faaa3	-0.07796218
63	0xbef405f2	-0.47660786
64	0x3e601f34	0.21886903
65	0x3d9909ad	0.07472549
66	0xbed1bcc8	-0.4096434
67	0x3d770972	0.060311742
68	0xbbf44bed	-0.00745534
69	0xbe2459e9	-0.16049923
70	0x3cdbdcaa	0.02683862
71	0x3d9f0a7b	0.07765671
72	0xbce2e8a1	-0.027698817
73	0xbe9301ab	-0.2871221
74	0x3de22e74	0.110440165
75	0xbda3b8bd	-0.079942204
76	0x3e0f931c	0.14020962
77	0x3e29dc24	0.16587883
78	0x3e8649b9	0.2622812
79	0xbe166cf0	-0.14689994
80	0x3ec6ce52	0.38829285
81	0x3db65373	0.089026354
82	0x3db3bfec	0.087768406
83	0x3e059250	0.13044095
84	0xbda0963f	-0.07841157
85	0x3c4cd8d8	0.012502871
86	0xbecdf1a3	-0.40223417
87	0x3e56186d	0.20907755
88	0x3c7ec9b1	0.015551017
89	0x3e369231	0.17829205
90	0xbdd9d15a	-0.10635634
91	0x3d9febea	0.07808669
92	0x3e68d496	0.22737345
93	0x3c0763df	0.008263557
94	0xbda69fbf	-0.08135938
95	0xbe969030	-0.2940688
96	0xbe31730c	-0.17329043
97	0x3ecaa772	0.39580876
98	0x3c7b9bb2	0.015356945
99	0xbdb1ab66	-0.0867527
100	0xbee819c2	-0.45332152
101	0xbe6b892d	-0.23001547
102	0x3e0d3c50	0.13792539
103	0xbe8459ea	-0.2584985
104	0x3e58dbd7	0.21177612
105	0xbd693b02	-0.05694104
106	0x3a28252f	0.0006414232
107	0x3e0b3f45	0.13598354
108	0xbda3366a	-0.07969363
109	0xbe6cb8ea	-0.23117414
110	0x3e2bd9f5	0.16782363
111	0x3d32b740	0.043631792
112	0x3ebcd9c1	0.36884883
113	0xbe293f2a	-0.16528001
114	0x3d78f152	0.060777016
115	0xbcbdfc94	-0.023191728
116	0xbdef2568	-0.116770566
117	0x3e00090d	0.12503453
118	0x3de42c08	0.11141211
119	0x3c4be123	0.0124438135
120	0xbda263de	-0.079292044
121	0xbeb271ff	-0.34852597
122	0x39ef6324	0.00045659498
123	0xbc36f19c	-0.011166003
124	0xbe63edca	-0.22258678
125	0xbe23a72d	-0.15981741
126	0x3e481558	0.19539392
127	0xbda2a522	-0.07941653
128	0x3d4fd079	0.050735924
129	0x3e7b08fd	0.24515148
130	0x3d819fa1	0.06329275
131	0xbe114baa	-0.1418902
132	0x3cb9c854	0.022678532
133	0x3c96c7ee	0.01840588
134	0xbe0f6e2e	-0.14006874
135	0xbcce793c	-0.025204293
136	0xbdcaf00e	-0.09909068
137	0x3d7fd013	0.062454294
138	0xbd218c4e	-0.039440446
139	0xbe090aaf	-0.13382982
140	0x3cb73d3c	0.022368066
141	0x3e060227	0.13086759
142	0x3d0e76e4	0.03478135
143	0x3e133d71	0.14378907
144	0x3cd89180	0.026436567
145	0xbd68f3fe	-0.056873314
146	0xbe8efe2d	-0.27928296
147	0x3d3bd583	0.045857918
148	0x3c179643	0.009252134
149	0xbe117e2d	-0.14208288
150	0x3e78715a	0.2426199
151	0xbebf0919	-0.37311628
152	0x3c578c10	0.013155952
153	0xbb3d6cc5	-0.0028903943
154	0xbde38a1b	-0.11110326
155	0x3ea419f3	0.32051048
156	0x3ee91e0a	0.4553073
157	0xbddb5ea9	-0.10711414
158	0x3e4ae30d	0.19813175
159	0x3df5a6df	0.11994719
160	0xbd4882c5	-0.048952837
161	0x3cf65f2d	0.03007468
162	0xbd433554	-0.04765828
163	0xbde8fff7	-0.113769464
164	0xbe74f3da	-0.23921147
165	0x3c8b2920	0.016987383
166	0x3e53b81c	0.20675701
167	0xbe5be25e	-0.21473071
168	0x3ea7effd	0.32800284
169	0xbdf066e3	-0.11738374
170	0x3bd87ce4	0.006606685
171	0xbda729e1	-0.08162285
172	0x3ea6ee90	0.32603884
173	0xbe7c105f	-0.2461562
174	0x3baed14e	0.0053350097
175	0xbdc0b38a	-0.09409244
176	0x3d617abd	0.055048693
177	0xbe58f98c	-0.21188945
178	0x3e4bc49c	0.1989922
179	0x3ec14613	0.37748775
180	0x3dc6544b	0.09684046
181	0x3d834898	0.064103305
182	0xbe9049ca	-0.28181297
183	0x3e15a981	0.14615442
184	0xbc4a0eef	-0.012332662
185	0xbdbedc17	-0.093193226
186	0x3e62b999	0.22141112
187	0x3cfd8a2e	0.030949678
188	0xbe86e367	-0.2634537
189	0x3b9ca3bd	0.0047802613
190	0xbd1a7870	-0.037712514
191	0xbdea5434	-0.11441842
192	0x3cdf48e3	0.027256435
193	0xbe391236	-0.18073353
194	0x3ebf8aaa	0.3741048
195	0x3e4bd9e1	0.19907333
196	0xbd8e3dad	-0.069453575
197	0xbec12d77	-0.3773
198	0x3ec7dd2e	0.39035934
199	0x3e11dbc7	0.14243995
200	0xbd0bb801	-0.034111027
201	0xbe020ba3	-0.12699752
202	0xbdb4f6b9	-0.08836121
203	0xbe324f71	-0.17413117
204	0x3df8693f	0.12129449
205	0xbe603a59	-0.21897258
206	0xbe9c3d8d	-0.3051571
207	0xbe2b380e	-0.16720602
208	0xbe55f324	-0.20893532
209	0xbc3d7334	-0.011563111
210	0x3d06b698	0.03288898
211	0x3e4869c8	0.19571602
212	0x3da09c88	0.07842356
213	0x3e35d403	0.17756657
214	0xba94bb1d	-0.0011347268
215	0xbccfb3ff	-0.025354384
216	0x3ddd5bf3	0.108085535
217	0x3d11ca7f	0.035593506
218	0xbbf9f0e3	-0.007627593
219	0xbde27d38	-0.1105904
220	0xbe0bf6f3	-0.13668422
221	0x3c928c08	0.017889038
222	0x3ea48e78	0.32139945
223	0xbe6c2b77	-0.23063456
224	0x3cd7f84e	0.026363518
225	0xbe1015a6	-0.14070758
226	0x3d62b791	0.055350844
227	0xbe7946d3	-0.24343424
228	0x3d286d94	0.041120127
229	0xbe005a41	-0.12534429
230	0x3b87af09	0.004140739
231	0xbac5bde6	-0.0015086501
232	0x3e14c0c7	0.14526664
233	0x3e3fb65d	0.1872191
234	0xbe98057d	-0.29691687
235	0x3d164e7b	0.03669594
236	0xbe62983a	-0.22128382
237	0xbe821575	-0.25406995
238	0x3d821538	0.063517034
239	0xbe44bf1a	-0.19213524
240	0xbc1a592c	-0.009420674
241	0xbe4ecbba	-0.20194903
242	0x3dc05096	0.093903705
243	0xbe33ecba	-0.17570773
244	0xbe39c55c	-0.18141693
245	0x3ec60424	0.38675034
246	0xbd99edd8	-0.07516068
247	0x3dded776	0.1088094
248	0xbd348b3f	-0.044078108
249	0xbd797c25	-0.06090941
250	0xbe389200	-0.18024445
251	0x3deea237	0.11652034
252	0x3dcd4e0b	0.10024651
253	0xbd52490a	-0.051339187
254	0x3e303e5a	0.17211285
255	0x3e223dc3	0.15843873

base.mlp.fc1.0.bias f4 [64]
0	0xbb4dac06	-0.0031383052
1	0x3bde59a8	0.00678559
2	0x3bc2ed4f	0.0059486995
3	0x3bedaf47	0.0072535607
4	0xbbb3f70a	-0.005492096
5	0xbb92ae05	-0.004476311
6	0xbbb533fa	-0.0055298777
7	0x3bda39c1	0.006659717
8	0xbae85e3e	-0.0017728282
9	0x3ae7c1cb	0.0017681656
10	0x3ba5bd6f	0.0050579826
11	0xbbb7a317	-0.0056041586
12	0x3bc4b2bd	0.0060027526
13	0xbbacd7d0	-0.0052747503
14	0x3754edcf	1.2691554e-05
15	0x3baf79c2	0.005355091
16	0x3ac0a995	0.0014698977
17	0x3bd65685	0.0065410757
18	0x3bc6efc4	0.0060710628
19	0xbaad1d03	-0.0013207499
20	0x3b3ecb2a	0.0029112794
21	0xbb06d173	-0.0020571619
22	0x3b9b5336	0.004740144
23	0x3b72819f	0.003700353
24	0x3bc6284c	0.006047284
25	0x3bd5eff1	0.0065288474
26	0xbb6d0ae8	-0.003616983
27	0x3b76e79a	0.0037674666
28	0xbbbc1411	-0.005739697
29	0x3b9c7f87	0.0047759446
30	0x3be6b429	0.0070405197
31	0x3bac13e9	0.005251397
32	0x39294be5	0.00016145369
33	0x3b64577b	0.0034842181
34	0x3ba841ea	0.0051348107
35	0x3b9693bb	0.0045952476
36	0xbb2e183f	-0.0026564745
37	0xbb65a680	-0.0035041869
38	0x3b9da525	0.0048109465
39	0xbb887446	-0.0041642515
40	0xbb9d74dc	-0.0048051905
41	0x3bb9326a	0.005651762
42	0x3bd31a1d	0.006442322
43	0x3be27d52	0.006911912
44	0xbbb8aa58	-0.005635541
45	0x3bbecc7d	0.0058227167
46	0x3b9d4090	0.004798956
47	0xbbaccd8c	-0.0052735265
48	0xbbd3889c	-0.006455494
49	0xbbd15e02	-0.0063893804
50	0x3bacc62b	0.005272647
51	0x3ab74be9	0.0013984415
52	0xbbb8bf40	-0.005638033
53	0xbbd301dc	-0.0064394306
54	0x3acb6d6e	0.0015520283
55	0xbb75fe86	-0.003753574
56	0xbb7ffe03	-0.0039061315
57	0x3973c35b	0.00023247061
58	0x3bd478f2	0.0064841444
59	0x3b5d9342	0.0033809696
60	0xbba5e8cd	-0.0050631524
61	0xbb2bc2f8	-0.002620874
62	0xbb876a76	-0.004132564
63	0x3bb1d20d	0.0054266513

base.mlp.fc1.2.weight f4 [64]
0	0x3f7e3a82	0.99308026
1	0x3f7f01ea	0.99612296
2	0x3f80d4a3	1.0064892
3	0x3f80c9e1	1.0061609
4	0x3f7ed452	0.99542725
5	0x3f7ea4da	0.99470294
6	0x3f7e7d65	0.99410087
7	0x3f80c2c4	1.0059438
8	0x3f80c99a	1.0061524
9	0x3f7eeb15	0.99577457
10	0x3f7efc7b	0.99604005
11	0x3f7ea061	0.9946347
12	0x3f80e110	1.0068684
13	0x3f80a395	1.0049921
14	0x3f80b892	1.0056326
15	0x3f807fc6	1.0038993
16	0x3f804b6d	1.0023018
17	0x3f80d26c	1.0064216
18	0x3f8089da	1.0042069
19	0x3f80e2ab	1.0069174
20	0x3f80dc01	1.006714
21	0x3f7fc685	0.9991229
22	0x3f80afa8	1.0053606
23	0x3f7e3828	0.9930444
24	0x3f80ce51	1.0062963
25	0x3f809bbf	1.004753
26	0x3f7ebdd4	0.99508405
27	0x3f806cd6	1.0033214
28	0x3f7ec43f	0.995182
29	0x3f805248	1.002511
30	0x3f80c5cc	1.0060363
31	0x3f80b035	1.0053774
32	0x3f80b1a3	1.005421
33	0x3f808b61	1.0042535
34	0x3f809988	1.0046854
35	0x3f7ee00b	0.9956061
36	0x3f808e59	1.0043441
37	0x3f7e7c9f	0.99408907
38	0x3f7f4542	0.99715054
39	0x3f7ebc44	0.9950602
40	0x3f80b4cd	1.0055176
41	0x3f8076d3	1.0036262
42	0x3f8079e8	1.0037203
43	0x3f80b42c	1.0054984
44	0x3f80c8cc	1.0061278
45	0x3f80cc60	1.006237
46	0x3f808869	1.0041629
47	0x3f8076c8	1.0036249
48	0x3f8097cd	1.0046326
49	0x3f80bdd3	1.005793
50	0x3f807368	1.0035219
51	0x3f7e5707	0.99351543
52	0x3f7e8797	0.99425644
53	0x3f80aaba	1.0052102
54	0x3f80c767	1.0060853
55	0x3f7ebd8b	0.9950797
56	0x3f7ea288	0.99466753
57	0x3f7e66ca	0.99375594
58	0x3f80d20a	1.0064099
59	0x3f8042d4	1.0020394
60	0x3f80ec74	1.007216
61	0x3f80cb85	1.0062109
62	0x3f7ef58e	0.99593437
63	0x3f7e5b14	0.99357724

base.mlp.fc1.2.bias f4 [64]
0	0xbb909aaf	-0.004412971
1	0x3be9d3b6	0.0071358336
2	0x3b97d057	0.0046329903
3	0x3a215754	0.00061546755
4	0xbbcbbfa1	-0.0062179123
5	0xbbbde7e3	-0.0057954653
6	0x3baa5c90	0.0051990226
7	0x3bd67571	0.006544762
8	0xbb8a9ced	-0.004230133
9	0x3b578458	0.003288528
10	0x3b9bc87b	0.0047541237
11	0xbabc5b12	-0.0014370403
12	0x3b9999ff	0.004687547
13	0xbb96d876	-0.004603441
14	0xbbf182d4	-0.0073703323
15	0x3bcf2e9e	0.006322696
16	0xbb6298a5	-0.0034575847
17	0xb9a7ddc0	-0.0003201794
18	0x3bd1fa4d	0.006408012
19	0xbb1c4a95	-0.0023848165
20	0x3b84cfc4	0.004053088
21	0xbbddc74d	-0.0067681433
22	0xbbb59438	-0.0055413507
23	0x3b010165	0.001968467
24	0x3909e934	0.00013152213
25	0xbb576c7c	-0.0032871058
26	0xbbbf2651	-0.005833425
27	0x3beb5354	0.0071815643
28	0xbbc34914	-0.0059596393
29	0x3b4e9d4e	0.0031526866
30	0xbb5e1621	-0.0033887702
31	0x3b826fd0	0.0039806142
32	0xbbad73eb	-0.0052933595
33	0x3ae7db3a	0.0017689236
34	0x3ba6031e	0.0050662896
35	0xba28ae5c	-0.0006434673
36	0xbbdf4449	-0.00681356
37	0xbb0863ed	-0.0020811514
38	0x3b729d1e	0.0037019919
39	0xb81409a0	-3.5294914e-05
40	0xbbc153c4	-0.005899878
41	0x3bc01be1	0.0058626984
42	0x3abcc0d6	0.0014400731
43	0x3aaa593c	0.0012996565
44	0xbbb93024	-0.0056514908
45	0x3bb5d977	0.0055496055
46	0x3ba6de1b	0.005092395
47	0xbb9c1f6f	-0.0047644894
48	0xbbc8949d	-0.0061212317
49	0xbbc6114e	-0.0060445433
50	0x3b8cf714	0.004301915
51	0x3be84aa5	0.0070889764
52	0xbad253c9	-0.0016046698
53	0xbbcbaec8	-0.006215904
54	0xbbb08fe3	-0.0053882464
55	0xbb3103fb	-0.002701043
56	0xbb80a4c9	-0.003925894
57	0x3bcf9f76	0.006336148
58	0x3bb02113	0.0053750365
59	0x3ba0ef97	0.004911374
60	0xbbc16fde	-0.005903228
61	0xbb9726f9	-0.0046128
62	0x3b2130aa	0.0024595656
63	0x3b6efb21	0.0036465602

base.mlp.fc_h.0.weight f4 [64, 64]
0	0x3ed9cc2a	0.42538577
1	0x3e9e04b3	0.3086296
2	0xbe83579b	-0.25652775
3	0x3d22cdcd	0.03974705
4	0xbdafb905	-0.085802115
5	0x3c82a1ef	0.015946357
6	0x3dfad296	0.12247197
7	0x3e475d6b	0.1946923
8	0x3e34d142	0.1765795
9	0xbd991f53	-0.07476678
10	0xbdafe9ca	-0.085895136
11	0xbe8ba965	-0.27277675
12	0x3cc61fc1	0.024185063
13	0x3e52b196	0.20575556
14	0xbdb0c305	-0.08630947
15	0xbdc514b1	-0.09623087
16	0xbcad87c3	-0.0211829
17	0x3e4dc646	0.20095167
18	0x3d80d080	0.06289768
19	0x3dbc8acc	0.09206161
20	0x3d990051	0.074707635
21	0x3ebbed37	0.36704418
22	0xbd0d7393	-0.03453405
23	0x39824190	0.0002484438
24	0x3e140328	0.14454329
25	0x3e549a5f	0.20762013
26	0xbd64961a	-0.05580721
27	0xbd5016f3	-0.050803136
28	0xbe5a6186	-0.21326265
29	0x3e59e936	0.21280369
30	0xbdb475c7	-0.08811527
31	0xbe835c13	-0.25656185
32	0x3e0b0fb1	0.13580205
33	0xbee4fe06	-0.44725055
34	0xbd1110a7	-0.03541627
35	0xbde060b1	-0.109559424
36	0xbd9e40ba	-0.07727189
37	0xbcebb456	-0.028772514
38	0xbea4192d	-0.32050458
39	0x3de041e3	0.10950067
40	0xbda045b1	-0.078257926
41	0x3ce4f351	0.027948054
42	0x3eaabd80	0.33347702
43	0xbe338fae	-0.17535278
44	0x3e731a75	0.23740561
45	0x3d2cfbe7	0.04223242
46	0xbd48c6bc	-0.049017653
47	0xbe918247	-0.28419706
48	0xbe087ba4	-0.13328415
49	0x3e37721b	0.17914622
50	0xbc928612	-0.017886195
51	0xbdd2a539	-0.1028542
52	0xbc62c6dc	-0.013841357
53	0x3e2ee875	0.17080863
54	0xbe5b1bc4	-0.2139731
55	0xba79595b	-0.0009511911
56	0x3e49d88e	0.19711515
57	0xbd97bd08	-0.07409102
58	0x3e6626dd	0.22475763
59	0x3e79c388	0.24390996
60	0x3dd8bcf2	0.105829135
61	0x3e25cbc4	0.16191012
62	0x3dbb9c11	0.09160627
63	0xbdc6a0af	-0.09698617
64	0xbe26f7ae	-0.1630542
65	0x3dc38578	0.095469415
66	0x3df5c7a4	0.12000969
67	0x3d883e2c	0.06652483
68	0x3e22b175	0.15888007
69	0xbdcf5b43	-0.10124829
70	0x3e5b4410	0.21412683
71	0x3e96b6e1	0.294364
72	0x3e79de44	0.24401194
73	0x3e012ed5	0.12615521
74	0xbe27aace	-0.1637375
75	0x3e13ce7a	0.14434233
76	0x3dc7ba65	0.09752349
77	0xbe1427e7	-0.14468347
78	0x3d72e55d	0.05930077
79	0x3d866e28	0.065639794
80	0x3dd08b73	0.10182848
81	0xbe6543c9	-0.22389139
82	0xbe4618a9	-0.19345345
83	0x3e961edc	0.2932042
84	0xbe9067da	-0.28204232
85	0x3eb05e53	0.34446964
86	0x3ef17c66	0.4716522
87	0x3d8e38dd	0.069444396
88	0x3e06eb17	0.13175617
89	0x3ddf3e15	0.10900513
90	0xbcd57f81	-0.026061775
91	0x3dd046d0	0.101697564
92	0x3e0cb453	0.13740663
93	0xbdd55a34	-0.104175955
94	0xbdebb15c	-0.11508438
95	0x3cb1adee	0.021689381
96	0x3d9a6dfd	0.0754051
97	0x3e365c62	0.17808679
98	0x3e43505f	0.19073628
99	0xbd1f82df	-0.038943168
100	0xbda44320	-0.080206156
101	0x3d32df07	0.043669727
102	0xbe5ba808	-0.21450818
103	0xbde8a4f9	-0.11359591
104	0xbd88fef3	-0.06689253
105	0xbd8ffa0a	-0.07030113
106	0x3dec5b4b	0.1154085
107	0x3ea22901	0.31671908
108	0xbc89018d	-0.016724372
109	0x3e515e17	0.20446049
110	0x3e1d1187	0.15338717
111	0xbe2d1937	-0.1690415
112	0xbe621b27	-0.2208067
113	0x3eb0fe76	0.34569138
114	0x3e7e0a99	0.2480873
115	0x3d2284e9	0.039677534
116	0x3e8aded0	0.27123117
117	0xbe09b518	-0.13447988
118	0x3d9945c8	0.07484013
119	0x3daeb41c	0.08530447
120	0xbdf7c246	-0.120976016
121	0xbc282a9b	-0.010264064
122	0xb9a72171	-0.00031877638
123	0xbe9d6511	-0.3074117
124	0x3e95554d	0.29166642
125	0x3cd207c9	0.025638478
126	0xbe37c1f4	-0.17945081
127	0xbc48a601	-0.01224661
128	0xbde936b1	-0.11387385
129	0x3d166cd6	0.036724888
130	0xbdc51d5f	-0.09624743
131	0x3e178206	0.14795694
132	0x3c9d152b	0.019175133
133	0xbde6479d	-0.11244128
134	0xbef3021e	-0.47462553
135	0xbde2022b	-0.1103557
136	0xbd76f916	-0.06029614
137	0x3d560cb8	0.052258223
138	0x3eaa3353	0.33242282
139	0xbe4a903d	-0.19781585
140	0xbe185450	-0.14875913
141	0xbe9f64b2	-0.31131512
142	0x3e190ffe	0.14947507
143	0xbbc47f6a	-0.0059966343
144	0x3e35f9a1	0.17771007
145	0x3e4d3f56	0.20043692
146	0x3eafd6c9	0.34343556
147	0x3e5a95fe	0.2134628
148	0xbd9f4ad2	-0.07777943
149	0x3dcc1612	0.09965147
150	0x3d9e4e05	0.07729725
151	0x3e745e62	0.23864129
152	0x3dc6eada	0.09712763
153	0xbdb2aa74	-0.087239176
154	0xbe91dac6	-0.28487223
155	0xbe2d423e	-0.169198
156	0x3e95d5cc	0.29264677
157	0x3e0d13d9	0.13777103
158	0x3e1c097a	0.1523799
159	0xbe8babe5	-0.27279583
160	0x3da1b13f	0.07895135
161	0xbe7d9ca7	-0.2476679
162	0x3deb2c42	0.11483051
163	0xbdb29ea9	-0.08721668
164	0xbea85fe8	-0.3288567
165	0xbe28be09	-0.16478743
166	0xbda5e84e	-0.08100949
167	0xbe9b6b09	-0.303551
168	0xbe33db92	-0.17564228
169	0x3dcf5ed2	0.101255074
170	0x3cca0dc1	0.024664761
171	0x3dc12843	0.094315074
172	0x3d769edb	0.06021009
173	0xbd3abe7f	-0.045591827
174	0x3ecc1769	0.3986161
175	0x3e309ba3	0.1724687
176	0xbd19a85e	-0.037514083
177	0xbc47c814	-0.012193698
178	0x3c683a44	0.014174048
179	0xbdda8bad	-0.10671172
180	0xbe6cc4d1	-0.23121955
181	0x3c830011	0.015991243
182	0x3d079969	0.033105288
183	0x3e530596	0.206076
184	0xbe0f1094	-0.13971168
185	0x3e2b403c	0.16723722
186	0xbe12e110	-0.14343667
187	0xbd601d20	-0.054715276
188	0xbda0cb04	-0.07851222
189	0xbd3d3e13	-0.046201777
190	0x3d087f7b	0.0333247
191	0x3d934137	0.07190173
192	0x3c0f2fa5	0.008739387
193	0x3d789cad	0.060696293
194	0x3e61b1c7	0.22040473
195	0x3c25c458	0.010117613
196	0x3e313fc1	0.17309476
197	0xbe237c5e	-0.15965411
198	0x3e3a3454	0.18184024
199	0x3df4a580	0.11945629
200	0xbe130c5f	-0.14360188
201	0x3ebb3f85	0.365719
202	0x3e0984c9	0.1342956
203	0xbdf736de	-0.12071012
204	0x3d8d69db	0.06904956
205	0x3c0dd167	0.008655882
206	0xbdbf8446	-0.09351401
207	0xbe8cbe07	-0.2748873
208	0xbd0b850d	-0.034062434
209	0xb97bbee2	-0.00024008335
210	0x3ea45d57	0.32102463
211	0x3e80b383	0.25136957
212	0xbddd7760	-0.108137846
213	0xbded3374	-0.115820795
214	0xbdcf2d3f	-0.10116052
215	0xbe6c4365	-0.23072584
216	0xbd819b59	-0.06328458
217	0x3e60f16b	0.21967094
218	0x3e5a90ca	0.21344295
219	0x3d7c05dd	0.06152903
220	0x3e5eb7f0	0.21749854
221	0xbd38f176	-0.04515215
222	0x3ed5303e	0.41638368
223	0xbdb53ba1	-0.08849264
224	0xbe1bda58	-0.1522001
225	0x3db639b3	0.08897724
226	0x3e5cd476	0.21565422
227	0x3e1cd984	0.1531735
228	0xbdbafeb1	-0.0913061
229	0x3eb085fd	0.34477225
230	0xbe4e35a7	-0.20137654
231	0x3d8bf10f	0.06833088
232	0x3c917dea	0.017760236
233	0x3d642327	0.055697586
234	0x3d9f30ea	0.077730015
235	0xbddb00a8	-0.106934845
236	0x3d5247a5	0.051337857
237	0x3dcc2d37	0.099695615
238	0x3e29152a	0.1651198
239	0x3e0ff3c4	0.14057833
240	0x3e830ed6	0.25597256
241	0x3df7569b	0.120770656
242	0xbd572da5	-0.052533764
243	0x3e192b18	0.14957845
244	0x3db859b7	0.09001487
245	0x3db31bf8	0.08745569
246	0x3c9d7a19	0.01922326
247	0xbe725fd1	-0.23669364
248	0x3e780e7b	0.24224274
249	0x3e1305e2	0.14357713
250	0x3ec5714d	0.38563004
251	0x3d936308	0.07196623
252	0xbe03d6f6	-0.1287497
253	0xbedb57ae	-0.42840332
254	0xbb5d9f57	-0.0033816898
255	0xbe00e7fb	-0.12588494

base.mlp.fc_h.0.bias f4 [64]
0	0x00000000	0.0
1	0x00000000	0.0
2	0x00000000	0.0
3	0x00000000	0.0
4	0x00000000	0.0
5	0x00000000	0.0
6	0x00000000	0.0
7	0x00000000	0.0
8	0x00000000	0.0
9	0x00000000	0.0
10	0x00000000	0.0
11	0x00000000	0.0
12	0x00000000	0.0
13	0x00000000	0.0
14	0x00000000	0.0
15	0x00000000	0.0
16	0x00000000	0.0
17	0x00000000	0.0
18	0x00000000	0.0
19	0x00000000	0.0
20	0x00000000	0.0
21	0x00000000	0.0
22	0x00000000	0.0
23	0x00000000	0.0
24	0x00000000	0.0
25	0x00000000	0.0
26	0x00000000	0.0
27	0x00000000	0.0
28	0x00000000	0.0
29	0x00000000	0.0
30	0x00000000	0.0
31	0x00000000	0.0
32	0x00000000	0.0
33	0x00000000	0.0
34	0x00000000	0.0
35	0x00000000	0.0
36	0x00000000	0.0
37	0x00000000	0.0
38	0x00000000	0.0
39	0x00000000	0.0
40	0x00000000	0.0
41	0x00000000	0.0
42	0x00000000	0.0
43	0x00000000	0.0
44	0x00000000	0.0
45	0x00000000	0.0
46	0x00000000	0.0
47	0x00000000	0.0
48	0x00000000	0.0
49	0x00000000	0.0
50	0x00000000	0.0
51	0x00000000	0.0
52	0x00000000	0.0
53	0x00000000	0.0
54	0x00000000	0.0
55	0x00000000	0.0
56	0x00000000	0.0
57	0x00000000	0.0
58	0x00000000	0.0
59	0x00000000	0.0
60	0x00000000	0.0
61	0x00000000	0.0
62	0x00000000	0.0
63	0x00000000	0.0

base.mlp.fc_h.2.weight f4 [64]
0	0x3f800000	1.0
1	0x3f800000	1.0
2	0x3f800000	1.0
3	0x3f800000	1.0
4	0x3f800000	1.0
5	0x3f800000	1.0
6	0x3f800000	1.0
7	0x3f800000	1.0
8	0x3f800000	1.0
9	0x3f800000	1.0
10	0x3f800000	1.0
11	0x3f800000	1.0
12	0x3f800000	1.0
13	0x3f800000	1.0
14	0x3f800000	1.0
15	0x3f800000	1.0
16	0x3f800000	1.0
17	0x3f800000	1.0
18	0x3f800000	1.0
19	0x3f800000	1.0
20	0x3f800000	1.0
21	0x3f800000	1.0
22	0x3f800000	1.0
23	0x3f800000	1.0
24	0x3f800000	1.0
25	0x3f800000	1.0
26	0x3f800000	1.0
27	0x3f800000	1.0
28	0x3f800000	1.0
29	0x3f800000	1.0
30	0x3f800000	1.0
31	0x3f800000	1.0
32	0x3f800000	1.0
33	0x3f800000	1.0
34	0x3f800000	1.0
35	0x3f800000	1.0
36	0x3f800000	1.0
37	0x3f800000	1.0
38	0x3f800000	1.0
39	0x3f800000	1.0
40	0x3f800000	1.0
41	0x3f800000	1.0
42	0x3f800000	1.0
43	0x3f800000	1.0
44	0x3f800000	1.0
45	0x3f800000	1.0
46	0x3f800000	1.0
47	0x3f800000	1.0
48	0x3f800000	1.0
49	0x3f800000	1.0
50	0x3f800000	1.0
51	0x3f800000	1.0
52	0x3f800000	1.0
53	0x3f800000	1.0
54	0x3f800000	1.0
55	0x3f800000	1.0
56	0x3f800000	1.0
57	0x3f800000	1.0
58	0x3f800000	1.0
59	0x3f800000	1.0
60	0x3f800000	1.0
61	0x3f800000	1.0
62	0x3f800000	1.0
63	0x3f800000	1.0

base.mlp.fc_h.2.bias f4 [64]
0	0x00000000	0.0
1	0x00000000	0.0
2	0x00000000	0.0
3	0x00000000	0.0
4	0x00000000	0.0
5	0x00000000	0.0
6	0x00000000	0.0
7	0x00000000	0.0
8	0x00000000	0.0
9	0x00000000	0.0
10	0x00000000	0.0
11	0x00000000	0.0
12	0x00000000	0.0
13	0x00000000	0.0
14	0x00000000	0.0
15	0x00000000	0.0
16	0x00000000	0.0
17	0x00000000	0.0
18	0x00000000	0.0
19	0x00000000	0.0
20	0x00000000	0.0
21	0x00000000	0.0
22	0x00000000	0.0
23	0x00000000	0.0
24	0x00000000	0.0
25	0x00000000	0.0
26	0x00000000	0.0
27	0x00000000	0.0
28	0x00000000	0.0
29	0x00000000	0.0
30	0x00000000	0.0
31	0x00000000	0.0
32	0x00000000	0.0
33	0x00000000	0.0
34	0x00000000	0.0
35	0x00000000	0.0
36	0x00000000	0.0
37	0x00000000	0.0
38	0x00000000	0.0
39	0x00000000	0.0
40	0x00000000	0.0
41	0x00000000	0.0
42	0x00000000	0.0
43	0x00000000	0.0
44	0x00000000	0.0
45	0x00000000	0.0
46	0x00000000	0.0
47	0x00000000	0.0
48	0x00000000	0.0
49	0x00000000	0.0
50	0x00000000	0.0
51	0x00000000	0.0
52	0x00000000	0.0
53	0x00000000	0.0
54	0x00000000	0.0
55	0x00000000	0.0
56	0x00000000	0.0
57	0x00000000	0.0
58	0x00000000	0.0
59	0x00000000	0.0
60	0x00000000	0.0
61	0x00000000	0.0
62	0x00000000	0.0
63	0x00000000	0.0

base.mlp.fc2.0.0.weight f4 [64, 64]
0	0x3ed7462d	0.42045727
1	0x3e9d807e	0.30762094
2	0xbe81b695	-0.25334612
3	0x3d3fcf31	0.046828452
4	0xbda36a70	-0.07979286
5	0x3cac7761	0.021053018
6	0x3defde8a	0.11712368
7	0x3e48c160	0.19605017
8	0x3e2ed50a	0.17073455
9	0xbd91c617	-0.07117861
10	0xbda3b39f	-0.079932444
11	0xbe89353a	-0.2679842
12	0x3cae1110	0.02124837
13	0x3e50f655	0.20406468
14	0xbdad3105	-0.08456615
15	0xbdb90377	-0.09033864
16	0xbc80e61e	-0.015734728
17	0x3e54e6fa	0.20791236
18	0x3d810b93	0.06301036
19	0x3db2fac7	0.08739238
20	0x3d8c5dc7	0.06853824
21	0x3eb989e1	0.36238006
22	0xbd24fb06	-0.040278457
23	0xbbe21e9f	-0.006900623
24	0x3e1bb454	0.15205508
25	0x3e5098dc	0.20370811
26	0xbd501095	-0.050797064
27	0xbd37d2dd	-0.04487883
28	0xbe5d16e0	-0.21590757
29	0x3e52b5c1	0.20577146
30	0xbdbf7f7a	-0.09350486
31	0xbe86411b	-0.26221547
32	0x3e0d5f88	0.13805974
33	0xbee41b00	-0.4455185
34	0xbd209e36	-0.03921338
35	0xbdd50888	-0.10402018
36	0xbd96f3ae	-0.07370697
37	0xbd0a6a55	-0.033792812
38	0xbea2bc29	-0.3178418
39	0x3deabcab	0.11461767
40	0xbd9108eb	-0.07081779
41	0x3cc07ce2	0.023497049
42	0x3ead67a9	0.3386815
43	0xbe3125d8	-0.17299592
44	0x3e6ee7e6	0.2333065
45	0x3d1448cd	0.03620224
46	0xbd3ac230	-0.045595348
47	0xbe8f6d97	-0.28013298
48	0xbe048133	-0.1293991
49	0x3e3073cd	0.17231674
50	0xbc60ef08	-0.0137288645
51	0xbdd8effc	-0.105926484
52	0xbca0badf	-0.019620357
53	0x3e2e4bb1	0.17021061
54	0xbe55282c	-0.20816106
55	0xbbc041ad	-0.005867204
56	0x3e440b1c	0.19144863
57	0xbda33189	-0.079684325
58	0x3e6115aa	0.2198092
59	0x3e7cecb1	0.24699666
60	0x3de162c5	0.11005167
61	0x3e2ad52b	0.1668288
62	0x3dc4e9e5	0.09614924
63	0xbdba1470	-0.090859294
64	0xbe2c1f92	-0.16808918
65	0x3db9d5f0	0.090740085
66	0x3e00853f	0.1255083
67	0x3d7614a8	0.060078293
68	0x3e2835ca	0.16426769
69	0xbdc32e10	-0.0953027
70	0x3e550265	0.20801695
71	0x3e99a4d1	0.30008557
72	0x3e74c393	0.2390273
73	0x3dfadaaa	0.12248738
74	0xbe21884b	-0.15774648
75	0x3e1956a4	0.14974457
76	0x3dcd8a31	0.100361235
77	0xbe0e8671	-0.13918473
78	0x3d846759	0.064650245
79	0x3d91a6b7	0.071118765
80	0x3dc40f6b	0.09573253
81	0xbe61cff3	-0.22051983
82	0xbe3ea796	-0.18618616
83	0x3e94b0b2	0.29041058
84	0xbe93ba16	-0.2885291
85	0x3ead70ad	0.33875027
86	0x3ef3cbf4	0.4761654
87	0x3d87f0af	0.066377036
88	0x3e066cb2	0.13127401
89	0x3dd621ff	0.10455703
90	0xbcac1866	-0.021007728
91	0x3dcd0cd5	0.10012213
92	0x3e09e7a3	0.13467269
93	0xbdcb53a6	-0.09928064
94	0xbdf69d27	-0.12041693
95	0x3c8e86b7	0.017398221
96	0x3da993ec	0.08280167
97	0x3e2ebe59	0.170648
98	0x3e434e81	0.19072916
99	0xbd093e77	-0.033506837
100	0xbdaeb89e	-0.08531307
101	0x3d219355	0.039447147
102	0xbe624ee1	-0.22100402
103	0xbdde3328	-0.10849601
104	0xbd777a92	-0.060419627
105	0xbd99a76c	-0.07502636
106	0x3de0ce30	0.10976827
107	0x3ea4ca06	0.32185382
108	0xbc97bc73	-0.018522477
109	0x3e4b13e6	0.1983181
110	0x3e1d9374	0.1538828
111	0xbe34d196	-0.17658076
112	0xbe63316e	-0.22186825
113	0x3eb0a054	0.3449732
114	0x3e819016	0.2530524
115	0x3d11f2e8	0.035632044
116	0x3e882bdb	0.2659596
117	0xbe09a5e0	-0.13442183
118	0x3d9102bd	0.070806004
119	0x3da32ca9	0.079675026
120	0xbe00fb75	-0.12595923
121	0xbc756194	-0.014976878
122	0xbb59e62d	-0.0033248768
123	0xbe9d3ec7	-0.30711958
124	0x3e986b65	0.29769436
125	0x3ca64611	0.020297082
126	0xbe33a887	-0.17544757
127	0xbbdad48d	-0.00667817
128	0xbdf118db	-0.11772319
129	0x3d2efdf1	0.042722646
130	0xbdbe2cc1	-0.0928588
131	0x3e1cac06	0.15299997
132	0x3ccfd1b5	0.02536855
133	0xbddb5a0a	-0.10710533
134	0xbef626cf	-0.48076484
135	0xbde67fc2	-0.112548366
136	0xbd5fde39	-0.054655287
137	0x3d65f9c2	0.05614639
138	0x3ead7b10	0.33882952
139	0xbe45afbd	-0.1930532
140	0xbe13b5dd	-0.14424844
141	0xbea2b056	-0.3177516
142	0x3e1ece0c	0.15508288
143	0xb9a607e6	-0.00031667872
144	0x3e2ea9e3	0.17056994
145	0x3e4676d5	0.19381268
146	0x3eb38ded	0.35069218
147	0x3e5669f0	0.2093885
148	0xbda6486e	-0.081192836
149	0x3dc2ec0b	0.09517678
150	0x3da85efc	0.08221242
151	0x3e6ee8e2	0.23331025
152	0x3dc20291	0.09473146
153	0xbdb18c7f	-0.08669376
154	0xbe8f5dbf	-0.2800121
155	0xbe3294f0	-0.17439628
156	0x3e936599	0.2878845
157	0x3e103157	0.14081322
158	0x3e1643db	0.14674322
159	0xbe8e98d2	-0.27850968
160	0x3d9d0403	0.07666781
161	0xbe7cf08d	-0.24701138
162	0x3dee8936	0.11647265
163	0xbda5c1c3	-0.08093598
164	0xbea85a27	-0.3288128
165	0xbe2ed7cf	-0.17074512
166	0xbda8297e	-0.08211039
167	0xbe988bd4	-0.2979418
168	0xbe2e7a46	-0.17038831
169	0x3dc40ca0	0.095727205
170	0x3c99d376	0.01877759
171	0x3dc9f1ae	0.0986055
172	0x3d671a84	0.05642177
173	0xbd5332f8	-0.05156228
174	0x3ecf83e3	0.4053031
175	0x3e367c14	0.1782077
176	0xbd011edf	-0.03152358
177	0xbc9f3e91	-0.019439014
178	0x3ca23d90	0.019804746
179	0xbde29126	-0.11062841
180	0xbe731c7a	-0.23741332
181	0x3c83d024	0.01609046
182	0x3d251711	0.0403052
183	0x3e4d5d0a	0.20055023
184	0xbe0d692e	-0.13809654
185	0x3e256033	0.16149978
186	0xbe171f45	-0.14758022
187	0xbd4761e4	-0.04867734
188	0xbd9419c6	-0.072314784
189	0xbd52f9b2	-0.05150766
190	0x3d1bab9a	0.03800545
191	0x3d9c8768	0.07643014
192	0x3c52e233	0.012871313
193	0x3d78ed03	0.060772907
194	0x3e618225	0.22022302
195	0x3bb2af71	0.005453043
196	0x3e2b8fa5	0.16754015
197	0xbe280929	-0.16409744
198	0x3e3fd12c	0.18732136
199	0x3de9b32d	0.11411128
200	0xbe132229	-0.143685
201	0x3eba20b2	0.3635307
202	0x3e041575	0.1289881
203	0xbe003012	-0.12518337
204	0x3d81e70b	0.06342896
205	0x3b9b6978	0.0047427975
206	0xbdcc0d71	-0.09963501
207	0xbe8fb721	-0.28069404
208	0xbd138a18	-0.03602037
209	0xbbc37f92	-0.0059661353
210	0x3ea61f62	0.32445818
211	0x3e83482f	0.2564101
212	0xbdecdc1b	-0.11565419
213	0xbde22297	-0.11041754
214	0xbdd59868	-0.1042946
215	0xbe6cfc28	-0.23143065
216	0xbd73057d	-0.059331406
217	0x3e65a1e2	0.22425035
218	0x3e5799a5	0.21054704
219	0x3d746c93	0.059673857
220	0x3e631c59	0.22178783
221	0xbd5310e6	-0.051529787
222	0x3ed7f938	0.42182326
223	0xbdc43163	-0.09579732
224	0xbe2261b8	-0.15857589
225	0x3dba12c5	0.09085611
226	0x3e5871bf	0.2113714
227	0x3e17cde4	0.14824635
228	0xbdc5e559	-0.09662885
229	0x3eb34b20	0.35018253
230	0xbe52d692	-0.20589665
231	0x3d801895	0.06254689
232	0x3c4df699	0.0125710005
233	0x3d6e7736	0.058219157
234	0x3d963f05	0.07336239
235	0xbde4788b	-0.11155804
236	0x3d61f4b8	0.055165023
237	0x3ddad0f5	0.10684387
238	0x3e226037	0.15857016
239	0x3e0d6a51	0.13810088
240	0x3e854ae0	0.26033688
241	0x3dec2b04	0.11531642
242	0xbd577ae2	-0.052607425
243	0x3e1e1d8d	0.1544096
244	0x3dc37c4c	0.09545192
245	0x3db4fc0a	0.08837135
246	0x3c75d7ae	0.015005035
247	0xbe73276f	-0.23745511
248	0x3e7cf8a5	0.24704225
249	0x3e18dc7f	0.14927863
250	0x3ec85273	0.39125404
251	0x3d9c895f	0.07643389
252	0xbe07fec8	-0.13280785
253	0xbedeb00d	-0.4349369
254	0xbc06c3f3	-0.008225429
255	0xbe0724fc	-0.13197702

base.mlp.fc2.0.0.bias f4 [64]
0	0xbb5b19ef	-0.0033432206
1	0xbb99fd9e	-0.004699423
2	0x3bd009bb	0.006348816
3	0x3bb4774d	0.005507386
4	0x3bc47d64	0.005996393
5	0x3b89d500	0.0042063
6	0x3bafd8c7	0.005366418
7	0x3bd9d719	0.006647956
8	0x3bb2cd69	0.0054566157
9	0x3bbb133a	0.005709079
10	0xbad605b4	-0.0016328604
11	0xbbbae312	-0.0057033384
12	0x3bb70790	0.0055856183
13	0x3bce4f3d	0.006296067
14	0x3b241ce1	0.0025041627
15	0x3bb86c11	0.005628117
16	0x3bd540fd	0.0065079913
17	0xbae2d025	-0.0017304464
18	0x3a955c28	0.0011395263
19	0x3bb8f42a	0.005644341
20	0x3ba18743	0.0049294545
21	0x3bccbaf7	0.006247874
22	0xbb6ba35d	-0.0035955526
23	0xbb9d5ec7	-0.004802558
24	0x3b9118fd	0.0044280277
25	0xbbb6e2d7	-0.0055812406
26	0x3bc54d8c	0.006021207
27	0x3b560b43	0.003266052
28	0x3b7d041c	0.0038607186
29	0x3bc117a0	0.005892709
30	0xba699333	-0.0008910179
31	0x3bc25791	0.005930849
32	0x3ae0ed2a	0.0017160524
33	0x3bc126c9	0.005894516
34	0xba44412d	-0.00074865186
35	0xb9d42608	-0.00040464127
36	0x3bbce5d3	0.005764702
37	0xbb9f696d	-0.0048648627
38	0xbb66ee30	-0.0035237186
39	0x3bc3154c	0.0059534665
40	0xbb61ed2f	-0.0034473648
41	0x3b743ef4	0.0037268968
42	0x3bce9361	0.00630419
43	0x3bd420c4	0.0064736325
44	0xbb5a42f7	-0.0033304074
45	0xbb6dc3b3	-0.0036279976
46	0x3bbdddf7	0.0057942825
47	0xbacfb58e	-0.0015846954
48	0x3b88f71f	0.0041798498
49	0xbb880aee	-0.0041516935
50	0x3ba8e561	0.005154297
51	0x3bb96d1a	0.005658758
52	0x3bc2f828	0.0059499927
53	0x3b986321	0.004650489
54	0x3bcec741	0.006310374
55	0xbb902717	-0.004399191
56	0xbbbe6473	-0.0058103143
57	0xbb992d4c	-0.0046745893
58	0xbb2474dc	-0.0025094068
59	0x3bc88be2	0.006120191
60	0x3bd70fcd	0.006563163
61	0x3bc4b306	0.0060027866
62	0x3bb89de7	0.005634058
63	0x3bbe434c	0.0058063623

base.mlp.fc2.0.2.weight f4 [64]
0	0x3f7e9e4c	0.9946029
1	0x3f7e4626	0.9932579
2	0x3f7ecf15	0.9953473
3	0x3f809856	1.0046489
4	0x3f7fe81d	0.9996355
5	0x3f7e7cc3	0.9940912
6	0x3f7e6332	0.9937011
7	0x3f7eb8c5	0.99500686
8	0x3f7ecd92	0.99532425
9	0x3f7eb749	0.9949842
10	0x3f7ecc43	0.9953043
11	0x3f7e6470	0.99372005
12	0x3f7eb8f1	0.9950095
13	0x3f7f77c7	0.9979214
14	0x3f7e8f5b	0.99437493
15	0x3f7f263f	0.99667734
16	0x3f801fd9	1.0009719
17	0x3f7e778b	0.9940116
18	0x3f7e8d37	0.99434227
19	0x3f80a994	1.0051751
20	0x3f7e67e9	0.99377304
21	0x3f7eea02	0.9957582
22	0x3f7e4190	0.9931879
23	0x3f7e87d5	0.99426013
24	0x3f7e36f7	0.9930262
25	0x3f7e74b1	0.99396807
26	0x3f7e96fd	0.9944914
27	0x3f7e6d1a	0.99385226
28	0x3f7fa82a	0.99865973
29	0x3f7f08c0	0.99622726
30	0x3f7e93c2	0.9944421
31	0x3f7eb56b	0.9949557
32	0x3f7eb5d1	0.9949618
33	0x3f7eb471	0.9949408
34	0x3f7e9c4a	0.9945723
35	0x3f7e9bb0	0.9945631
36	0x3f7ec873	0.9952461
37	0x3f7e92eb	0.9944293
38	0x3f7e50d0	0.9934206
39	0x3f7ed2a0	0.9954014
40	0x3f7e669e	0.9937533
41	0x3f7e6cf7	0.9938502
42	0x3f807834	1.0036683
43	0x3f7e79ae	0.9940442
44	0x3f7e77ef	0.99401754
45	0x3f7e9904	0.99452233
46	0x3f7e9546	0.99446523
47	0x3f7e7abb	0.9940602
48	0x3f7e7564	0.99397874
49	0x3f7e8ba2	0.9943181
50	0x3f7e7f54	0.9941304
51	0x3f7e632f	0.9937009
52	0x3f7e9e24	0.99460053
53	0x3f7e7862	0.9940244
54	0x3f7efb74	0.99602437
55	0x3f7e89c9	0.99428993
56	0x3f7e79b5	0.9940446
57	0x3f7eaac3	0.9947931
58	0x3f7e8138	0.9941592
59	0x3f7eab44	0.9948008
60	0x3f7eabfb	0.9948117
61	0x3f8059e9	1.0027438
62	0x3f80a158	1.0049238
63	0x3f7ee5da	0.99569476

base.mlp.fc2.0.2.bias f4 [64]
0	0xbafe2d33	-0.0019392133
1	0xbafe0e3b	-0.0019382903
2	0xbaff7e77	-0.0019492646
3	0x3af4e122	0.0018682817
4	0xbab7f96f	-0.0014036129
5	0x3afe6b2d	0.0019410603
6	0x3afe3d3d	0.0019396913
7	0x3aff11e1	0.0019460284
8	0x3b004ee1	0.0019578265
9	0x3affd501	0.0019518436
10	0xbafe9d4a	-0.0019425538
11	0x3afdf4cc	0.0019375323
12	0x3b00f688	0.0019678194
13	0xbb03dbd4	-0.0020120041
14	0xbafe5e8d	-0.001940684
15	0x3b0aaf86	0.002116175
16	0xbaf8130f	-0.0018926578
17	0x3afe425f	0.0019398442
18	0xbaff077f	-0.001945719
19	0x3af90c83	0.0019000921
20	0x3afe42ee	0.0019398609
21	0x3b0071bf	0.0019599048
22	0xbafe5333	-0.0019403457
23	0x3afe1946	0.0019386194
24	0x3afdde10	0.0019368548
25	0x3afdf598	0.0019375561
26	0xbb03cdb7	-0.002011163
27	0x3afe9ef7	0.0019426037
28	0xbafadcb9	-0.0019139267
29	0x3aff3c7a	0.001947298
30	0xbafe6cfc	-0.0019411142
31	0xbb00a304	-0.0019628415
32	0xbaff924e	-0.0019498558
33	0xbb043cc5	-0.0020177823
34	0xbafe4052	-0.0019397831
35	0xbafe9fb7	-0.0019426261
36	0x3aff2a26	0.0019467517
37	0xbafe704b	-0.0019412128
38	0xbafe2313	-0.0019389115
39	0x3aff8ada	0.0019496337
40	0x3afe198a	0.0019386273
41	0x3afe75aa	0.0019413729
42	0xbaf95846	-0.00190235
43	0xbafd3c4d	-0.0019320339
44	0x3afe2271	0.0019388926
45	0xbafea33f	-0.0019427313
46	0xbb01cbfd	-0.0019805424
47	0xbafef8c8	-0.0019452805
48	0xbafef4a1	-0.0019451567
49	0xbafe2165	-0.0019388614
50	0xbafef111	-0.0019450505
51	0x3afe63e6	0.0019408434
52	0x3affac77	0.0019506355
53	0x3afe730c	0.0019412949
54	0x3b036334	0.0020048143
55	0xbafe2725	-0.0019390328
56	0x3afe11e8	0.0019383999
57	0xbafec844	-0.0019438346
58	0xbafe12fa	-0.0019384318
59	0x3affebd0	0.0019525234
60	0xbb0015de	-0.0019544284
61	0xbaefb41a	-0.0018287927
62	0x3aeb6b24	0.0017961008
63	0x3afee0a2	0.0019445608

v_out.weight f4 [1, 64]
0	0xbe51113d	-0.20416732
1	0xbe2222c3	-0.15833573
2	0xbd9fa993	-0.077960156
3	0x3d1748be	0.036934607
4	0xbba07d38	-0.0048977397
5	0x3deb093d	0.114763714
6	0x3dcaa76d	0.09895215
7	0x3dbb33c7	0.09140735
8	0x3d31551a	0.04329405
9	0x3d688fbb	0.056777697
10	0xbe0fab34	-0.14030153
11	0x3e7fca6d	0.24979563
12	0x3cdaf094	0.026726045
13	0xbccd9642	-0.025096063
14	0xbe0d4231	-0.13794781
15	0xba341ca0	-0.00068707205
16	0xbda6c314	-0.08142677
17	0x3e1d023d	0.15332885
18	0xbd8d2973	-0.068926714
19	0x3d844493	0.06458392
20	0x3e0928bd	0.13394447
21	0x3d3cc44a	0.046085633
22	0xbdc806b7	-0.09766906
23	0x3e5f7008	0.2182008
24	0x3de376d8	0.11106652
25	0x3e87b84f	0.26507804
26	0x39cf1bb6	0.00039502763
27	0x3da5434b	0.08069476
28	0xbe343771	-0.17599274
29	0x3dd49646	0.10380225
30	0xbe09a99a	-0.13443604
31	0xbce6680d	-0.028125787
32	0xbd803461	-0.062599905
33	0xbbf7ce99	-0.00756247
34	0xbe3db67c	-0.18526644
35	0xbde51567	-0.11185723
36	0x3db36f1a	0.08761425
37	0xbe07ab44	-0.13248926
38	0xbe09da83	-0.13462262
39	0x3d959838	0.07304424
40	0x3e2c8af0	0.16849875
41	0x3ddce35d	0.107855536
42	0xbd9746b9	-0.07386536
43	0xbdb36a9c	-0.087605685
44	0x3e3f5d8f	0.18688034
45	0xbde755ae	-0.11295639
46	0xbc7389b2	-0.014864372
47	0xbd912c24	-0.07088497
48	0xbd87e7bf	-0.06635999
49	0xbe4e5480	-0.20149422
50	0xbdae5edb	-0.08514186
51	0x3de9888b	0.11402997
52	0x3d52eb45	0.0514939
53	0x3df0be06	0.11754994
54	0x3c7a5974	0.015280116
55	0xbe4c9336	-0.19978032
56	0x3e5aedae	0.2137973
57	0xbdd40232	-0.10351981
58	0xbe5bb1d7	-0.2145456
59	0x3d5b6874	0.05356641
60	0xbd4229e4	-0.04740323
61	0xbce90394	-0.028444089
62	0x3c960a10	0.018315345
63	0x3e008c09	0.12553419
