light_mappo-main/results/MyEnv/MyEnv/mappo/check/run21/models/critic.pt (torch, 48181 bytes, 15 tensors)

base.feature_norm.weight f4 [30]
00000000: 0868 743f a0e8 7b3f 2521 7d3f d57a 853f
00000010: 475a 7c3f 00b1 873f 45f2 843f c81e 7a3f
00000020: f69c 7d3f afc5 783f 4ac7 7d3f c96c 773f
00000030: 45ee 873f 115b 893f 2a2c 813f 37f5 823f
00000040: a2d0 743f bd16 823f 975d 7b3f 5347 753f
00000050: 664a 803f 1270 7d3f 4a9a 7d3f 7091 813f
00000060: 1323 7c3f cbff 813f 3670 7b3f 086b 8b3f
00000070: e013 853f de01 843f
0.9547124 0.9840183 0.988787 1.042811 0.9857525 1.0600891 1.0386435 0.9770322
0.9906763 0.9717664 0.99132216 0.9665037 1.0619589 1.0730916 1.0091603 1.0231084
0.9563085 1.0163189 0.9818968 0.9581196 1.0022705 0.9899913 0.9906355 1.0122509
0.9849102 1.0156187 0.98218095 1.0892038 1.039669 1.031307

base.feature_norm.bias f4 [30]
00000000: cb7e af3c 1f44 1c3d 9d56 d2bc 8a2f c03c
00000010: e2dc 2f3c 66a0 f43c 8fa1 99bd 1f3d 553c
00000020: 800c 9a3d f3cf 073d bd0d 42bc 9dc4 423b
00000030: c3e8 dc3b fb50 a63d be9f 01bd 45fe a2bc
00000040: e5ec 253d e044 71bc 4d71 b63c 9991 7a3d
00000050: 4151 2bbc 1e8a 81bc 72f8 b2bc a856 af3b
00000060: 60f1 f2bc 6f39 96bc 4e26 d7bc 7201 6bbc
00000070: 297b 66bd 4f45 90bc
0.021422764 0.038150903 -0.025676066 0.023460168 0.010733815 0.02986164 -0.07501518 0.013015061
0.075219154 0.0331573 -0.011844096 0.0029719241 0.0067416145 0.081209145 -0.031646483 -0.019896636
0.040509123 -0.014725894 0.022270823 0.06117401 -0.010456384 -0.01581293 -0.021846984 0.0053509064
-0.029656112 -0.018337933 -0.026263382 -0.014343606 -0.0562698 -0.017611174

base.mlp.fc1.0.weight f4 [64, 30]
00000000: 7fba 3dbe c4cb 9bbb ce55 093e 6288 853b
00000010: 8c78 5bbd 7f64 12be a763 ce3c 6d38 bdbd
00000020: da23 4b3e dbfa 043d f1a0 00be 6396 023e
00000030: 6b80 e3bd a565 dcbd d5ee 8fbe 7fa2 4f3d
00000040: 3370 5a3e 0a43 9ebd 9e9b cbbd 5b14 31bc
00000050: 5a97 6d3e 916f 1ebe c3b6 47bd 12d2 433e
00000060: 8587 973d e89c edbd 26a3 5b3c 65d0 b9bd
00000070: 9799 9b3e 87da 933d a436 c4be 72c5 9fbd
00000080: 500d 5abd 2a81 debd e2eb 203e 90ab 77be
00000090: 3f39 10bd 1e1e 3c3e 237c f1bc 3b12 1c3d
000000a0: daa9 6ebd 1715 783c e3f2 d73d 23c0 993d
000000b0: 0a52 063d c122 b33d fd01 873a 0213 30be
000000c0: 2921 de3d 7a66 1c3e 9a4c 153e ad9f b23c
000000d0: b55d c63e 9b03 7cbc e959 23be 76d2 a3bd
000000e0: 9138 74be cb64 f13c 3863 943d 0d17 823e
000000f0: cfe7 d1be 1666 4d3d ae49 2d3d b282 81bd
00000100: e232 883d 11e5 353e b260 f13d d5aa 79bd
00000110: 1835 e13d bde4 023d 7023 64be 84a1 963e
00000120: a467 613d 7867 99bd a3dd 8c3d 4316 4bbe
00000130: 0861 023e c95b 9d3d 9669 1cbe 5c98 c4bd
00000140: 5c68 07be 88b5 7abe 3953 743e d40e c0be
00000150: d828 a83d 7f6e 30bd ea5d 7f3e 125a 81be
00000160: 695f 6dbd 5236 c43d f4c0 15bd 3978 5dbb
00000170: a10b 82be 021e bebd e733 62be 8352 43be
00000180: 6f55 79be 2879 503e c93b c33e 6751 b33d
00000190: 28bd 1b3d 9d3d 113e fb08 103e ef84 5abe
000001a0: 8a32 e1bc 0bf4 5cbd 1e95 473e e141 a1be
000001b0: d50b c63d b6f6 493e 9768 bd3c bdb6 153e
000001c0: 85d2 dbbe 7be4 90be 3c05 fc3d 5de1 c53d
000001d0: 97e8 4a3d b606 b4be e76e a1bc d0ec 793e
000001e0: 10c2 a7be da57 0cbb 6cf0 0639 ebf9 193e
000001f0: 0386 413b 0d62 1ebe 8fc8 713e f446 dfbd
00000200: 162f a3be 57e6 233d b0ac f43d afb8 bcbe
00000210: 85d2 873d ed4a d53d c8ff a73d 6b41 fabd
00000220: b2fb 5c3e 7e74 46be eb19 efbd 4381 07be
00000230: 9127 893d 4566 a83d 04d9 db3d 3d7e c1bc
00000240: d42b 053e 2ae8 263d a701 ba3d 5afa 833d
00000250: 29d8 a63d 0957 49bc 3d14 29be 8618 37be
00000260: 795f e9bd f02d c63d 22ff 84be ee7d 35bd
00000270: 0e86 383e e7c3 f7bc 5446 f93b 14e1 3c3e
00000280: 5726 763e bc58 c03e 80b0 2ebe c9de 7d3e
00000290: 3b52 12be 9b62 11be 8041 db3c a717 963e
000002a0: a754 313d 4961 703d 167b 7e3e fc00 be3d
000002b0: fb80 8bbe ce49 cdbe 7bd1 63be 69b8 36bf
000002c0: e962 eabd 2e33 4f3e fda0 2f3e 35f4 dfbe
000002d0: 6ee3 31be f0fc e6bd 9e97 bd3d 0395 5a3e
000002e0: 8033 03bd e4af 113e 76ef 69be 2bcb a73e
000002f0: 9a31 1a3d be65 81be 54ca ac3e 35c3 fb3d
00000300: 7e2d 33be 0e1c 4ebe e7da aa3c 5a8f 373a
00000310: 0b3c 52bd fcde 8abe dccf e1be d0dd 56be
00000320: 1273 4dbd 12c8 58be e557 89bd 578b b13e
00000330: 0c54 953e 71c9 bbbd b09c cabd 2c6d a7bd
00000340: 8562 513e fe51 d63d 70d5 2fbd 2bdf 46be
00000350: 72ae 67be b9b3 2d3e 3771 8bbe 9f42 e7bc
00000360: 2f47 91be 8f44 203e 7208 88bd 89db ba3b
00000370: ef27 d03b 29ef 81be 8a92 1ebc ade6 4a3d
00000380: 3d44 793e ad19 cfbe 4a97 e13d 7ea7 59bd
00000390: a69f 7bbe e594 52bc e388 213e c6d1 593c
000003a0: 7763 1f3d c93e 18be eb3c e4bd 27ec 45bd
000003b0: c953 ab3e 2858 11be d6d1 333c 7000 b7bc
000003c0: 3339 09be 4f81 4ebd f947 16be 1c09 ea3d
000003d0: dd9f 2fbe e896 db3e 8d51 ecbe 0bc2 d4be
000003e0: 75d3 6abe 3de4 e5bd 1e4f 8b3e 25ab 01be
000003f0: bf63 e43d f58d 17bd cd98 83bd ba83 87be
-0.18528174 -0.0047545154 0.13411638 0.004075096 -0.05358176 -0.14296149 0.025194002 -0.09239278
0.19837895 0.032465797 -0.12561394 0.1275268 -0.11108478 -0.10761575 -0.28111902 0.050692078
0.21331863 -0.077276304 -0.09941791 -0.010808076 0.23202267 -0.15472247 -0.04875828 0.19123104
0.07398895 -0.11602193 0.013405597 -0.09072951 0.30390617 0.07219415 -0.38322937 -0.078013316
-0.053235352 -0.1086448 0.15714982 -0.2418654 -0.035210844 0.18370864 -0.029478138 0.038103323
-0.05826745 0.015141747 0.10544374 0.0750735 0.032793082 0.08746863 0.0010300275 -0.17194751
0.108461685 0.15273467 0.14580002 0.021804655 0.38743368 -0.015381719 -0.15952267 -0.079991266
-0.23849703 0.029467007 0.07245487 0.2540821 -0.40997168 0.050146185 0.042306595 -0.06323756
0.0665033 0.17763163 0.11786021 -0.060953934 0.10996455 0.031956423 -0.22279143 0.29420102
0.05503048 -0.07490438 0.06878211 -0.19832711 0.12732327 0.07683522 -0.15274653 -0.09599373
-0.13223404 -0.24483311 0.23859872 -0.37511313 0.08210915 -0.043074127 0.24938169 -0.2526403
-0.05795232 0.09580673 -0.036560968 -0.0033793582 -0.25399497 -0.09283067 -0.22090112 -0.19074444
-0.24348997 0.20358717 0.3813155 0.08755761 0.03802219 0.1418366 0.14065926 -0.21339773
-0.02748992 -0.053943675 0.19490477 -0.31495574 0.096702255 0.19723019 0.023121161 0.1462049
-0.4293405 -0.28299317 0.12305686 0.09662125 0.04953822 -0.3516137 -0.019706203 0.24406743
-0.32765245 -0.0021414668 0.000128688 0.15036742 0.002952934 -0.15467091 0.23611663 -0.10902205
-0.3187186 0.04001459 0.11947 -0.36859652 0.0663195 0.104146816 0.08203083 -0.12219509
0.21580389 -0.19380376 -0.11674865 -0.13232903 0.06697 0.08222631 0.10734752 -0.023619765
0.13005 0.040748753 0.090823464 0.06444235 0.08146698 -0.012288817 -0.16511627 -0.17880449
-0.11395163 0.09676731 -0.259759 -0.04430955 0.18019888 -0.03024478 0.0076072607 0.18445235
0.24038063 0.375677 -0.17059517 0.24792017 -0.14289181 -0.14197771 0.026764631 0.2931492
0.04329362 0.05868653 0.24851641 0.092775315 -0.27246842 -0.4009537 -0.22247879 -0.7137514
-0.11444647 0.20234367 0.17151256 -0.43741003 -0.17371914 -0.11278713 0.09257434 0.21345906
-0.032031536 0.14227253 -0.22845253 0.32772192 0.03764496 -0.25272936 0.33748114 0.12293092
-0.17497823 -0.2012789 0.020856334 0.0007002257 -0.051326793 -0.2712325 -0.44103897 -0.20983052
-0.050158568 -0.21170071 -0.06706218 0.3467662 0.29165685 -0.09169281 -0.09893167 -0.0817512
0.20447738 0.104648575 -0.04292816 -0.1942107 -0.2262514 0.1696309 -0.27234814 -0.02823001
-0.2837462 0.15651153 -0.06642236 0.00570244 0.0063524167 -0.25377777 -0.009678492 0.049536396
0.24342437 -0.40449277 0.11015184 -0.05313825 -0.2457262 -0.012852882 0.15774874 0.013294643
0.038913216 -0.148677 -0.11144432 -0.048320916 0.3346236 -0.14193785 0.010975322 -0.022339076
-0.13400726 -0.050416287 -0.14675893 0.11427519 -0.17150827 0.4288857 -0.46155968 -0.41554293
-0.22932227 -0.112251736 0.272088 -0.12662943 0.111518376 -0.037000615 -0.06425629 -0.26467687

base.mlp.fc1.0.bias f4 [64]
00000000: 8eea d1bb f869 8bbc 66c7 fc3b 4e62 53bc
00000010: 6c11 08bd 8255 213d 92d9 063d d837 bf3c
00000020: ab91 173d 19e5 f7bc ea31 1cbd 8bf9 4f3d
00000030: 273c ab3c 66c1 a1bb e6fe 273d d055 1f3c
00000040: c2e5 623c 3403 a4bc 8d19 e8bc c066 97bc
00000050: 6b6f 55ba 3986 1c3d 86e0 173d d017 083d
00000060: 9d18 a8bc d578 4ebd 8303 e4bc cd49 02bd
00000070: 13b0 5dbc ed9f 19bd c6f2 a9bc 52f2 083d
00000080: f03d 1c3d cf2a 45bd 1254 c1bc cd93 c6bc
00000090: c68b ffbc 7f1f 4c3c 9f4c 983c 92ce cf3c
000000a0: dccb 853d f637 f53b a5b4 863d 41a3 91bd
000000b0: 74e5 d83c 5d4a 13bd a279 353d 57d3 9d3c
000000c0: bed5 463d 0e54 2b3c 47ee 9a3d 59fe a43b
000000d0: 0112 e73c c79f 713c bb91 263d aaf4 693d
000000e0: f4a1 833d 983e 00bd ce66 363d 6029 c1bc
000000f0: 6d7b 533d 73e8 4cbc c65e dabc af09 b33c
-0.006406135 -0.017018303 0.0077142 -0.012901856 -0.03321974 0.039388187 0.032922335 0.023342058
0.037004154 -0.03026061 -0.03813354 0.050775092 0.020902706 -0.004936385 0.041014574 0.009725049
0.013848724 -0.020021059 -0.028332496 -0.018481612 -0.0008141908 0.038213942 0.037079357 0.033225834
-0.020519549 -0.050408203 -0.027833706 -0.031808663 -0.013530749 -0.037506033 -0.020745646 0.03343422
0.038145006 -0.04813653 -0.023599658 -0.024240399 -0.031194579 0.012458681 0.018591223 0.025367055
0.06533024 0.0074834777 0.06577424 -0.07111216 0.0264766 -0.03595959 0.04430545 0.019265814
0.048543684 0.010457052 0.07564979 0.0050352034 0.028206827 0.014747567 0.040666323 0.057118095
0.064273745 -0.031309694 0.044531636 -0.0235793 0.05163138 -0.012506592 -0.02665652 0.021855203

base.mlp.fc1.2.weight f4 [64]
00000000: 8b0d 813f cb1e 793f 49ff 7e3f 094a 7c3f
00000010: d4af 813f 72f5 8a3f 34e8 773f d894 813f
00000020: 6437 813f 96ba 843f 4e31 7f3f e20c 823f
00000030: 1f01 7f3f 7a1f 7e3f 8f4d 823f 1d18 7b3f
00000040: e493 833f ead9 833f a053 753f 1fc4 773f
00000050: 6b31 7f3f ebb3 793f d6fc 873f 6492 7f3f
00000060: f718 693f dcd5 833f 758c 743f 8675 703f
00000070: 2aa3 843f 6613 813f cce0 803f a890 8a3f
00000080: f9b8 803f 1e81 7a3f fc65 813f 39ca 723f
00000090: 7288 803f 6f87 753f cd27 773f dab9 7b3f
000000a0: a351 843f 1f67 843f 41d0 883f 1e5a 8b3f
000000b0: 042d 833f 13e4 7e3f 428a 783f 55eb 7c3f
000000c0: a6f1 803f 4ca6 843f d2ee 853f 0951 7d3f
000000d0: 72f8 773f 1231 773f 3c4a 893f d361 883f
000000e0: ace0 793f 1809 773f 8385 7f3f 83f2 823f
000000f0: 3b00 823f 5c01 853f bfd8 753f 25b6 7a3f
1.0082258 0.9731261 0.99608284 0.9855047 1.0131783 1.0856154 0.9683869 1.0123549
1.0095029 1.0369442 0.9968461 1.0160182 0.99611086 0.9926678 1.0179919 0.9808367
1.0279508 1.0300877 0.95830727 0.9678363 0.9968478 0.9754016 1.0624034 0.9983275
0.9105372 1.029964 0.9552682 0.93929327 1.0362294 1.0084045 1.0068603 1.0825396
1.0056449 0.9785327 1.0109248 0.9483982 1.004164 0.9590978 0.96545106 0.9833046
1.0337414 1.034397 1.0688554 1.0886877 1.0248113 0.99566764 0.97085965 0.9879659
1.0073745 1.036325 1.0463507 0.98951775 0.9686347 0.9655925 1.072578 1.0654854
0.9760845 0.9649825 0.998131 1.0230259 1.015632 1.039104 0.96033853 0.9793418

base.mlp.fc1.2.bias f4 [64]
00000000: f231 a9bc 6efa cebc 24f5 183c dc79 b2bc
00000010: b04e 14bd 287d df3c 162d 4c3d 12df b13c
00000020: 2c21 c73c d58a 09bd d8c1 82bd f644 4d3d
00000030: e524 a03c d0c1 c5bc d27e 223d 9288 343c
00000040: cd68 0b3c 6aaa fcbc 30c6 08bd 96b6 8ebc
00000050: 4426 a4bb 8368 c53c 2f54 8d3c 7aa7 ad3c
00000060: db7e 94bc 9604 acbd aa9d f7bc cb43 ddbc
00000070: 36c3 16bd 6701 09bd c707 afbc a660 e73c
00000080: 269e 163d 5050 95bd 4b5c f1bc 391a a0bc
00000090: ad84 f0bc 76ad b43c 1790 a23c 17d8 cf3c
000000a0: 327b 043d a0d0 e53a 3cc9 603d 9b1b bfbd
000000b0: 2c53 b13c 3096 dabc 6ae5 113d 8d59 ab3c
000000c0: c2c6 353d 1006 553b 119e 443c 0058 05b9
000000d0: 0d21 073d d4f1 df3c 0f24 903c c9a9 563d
000000e0: 6043 113d a505 d2bc 8f32 263d 9e7e 15bd
000000f0: 6654 373d ff8c f8bc dc48 c2bc ce71 a53c
-0.020653699 -0.025265899 0.00933579 -0.021786623 -0.036207855 0.027281359 0.049847685 0.021712814
0.02430781 -0.033579666 -0.06384629 0.050114594 0.019548843 -0.024140269 0.039671727 0.011018889
0.008508873 -0.030842979 -0.03339213 -0.017421048 -0.0050094444 0.024097687 0.017252056 0.021198023
-0.018126896 -0.08399312 -0.030226547 -0.027009865 -0.03680726 -0.033448603 -0.021366013 0.028244328
0.036771916 -0.07290709 -0.029462954 -0.019543754 -0.02936014 0.022055369 0.019844098 0.025371594
0.03234405 0.0017533489 0.054879412 -0.09331437 0.021646105 -0.026682943 0.035619177 0.020916725
0.044379003 0.0032504834 0.012000577 -0.00012716651 0.032990504 0.027336992 0.01759532 0.052408013
0.035464644 -0.025637457 0.04057556 -0.036497705 0.044758223 -0.03034067 -0.023716383 0.020195868

base.mlp.fc_h.0.weight f4 [64, 64]
00000000: 6c21 483c a1ee 6c3e f1b7 dfbd 1e19 5c3e
00000010: 5367 68be 1095 d6bc dcf8 01bf 0c8e 8e3e
00000020: e7fe 43be 1387 4ebe 8be4 f43d b736 83bd
00000030: a94b 5cbe 6e8b afbd 67d0 073e 2fc1 93bd
00000040: 10a2 09be 11f1 0e3e c456 4abc 3b4b 97be
00000050: 82fd b63d 3c67 13be ca8b af3e dad8 623e
00000060: c920 843c 57d6 573d 148b 20bc 2eff 8f3d
00000070: fd2c 8bbc a0f7 b13d 57ad aabd c51b a23d
00000080: 4c83 01be 9e82 ca3d e8d1 193e d841 9ebe
00000090: 9f39 c73d a7e6 d63d f70e 4dbd 7668 513c
000000a0: 9892 eb3d f33e 04be 0b4b 273e 2d62 c6bd
000000b0: fe20 07bf 7b0a 49be 8b2d cfbc 7679 8b3d
000000c0: dc90 7e3e e663 ae3d 9526 973d c29e 7cbe
000000d0: b907 b8bc 76b1 59be 7b20 5d3e d77a acbe
000000e0: 0bae 18be c1e4 e03d e311 0dba fa6f 883d
000000f0: dd6d fc3d b48c 9ebd d0c8 b6bd 6936 f7bd
00000100: cff6 cebe 7f8e bfbd 8ab4 7cbe 9041 15be
00000110: d482 65bc f804 58be 8d94 30be 6f29 143e
00000120: fa0c 74be a8b3 d33d 7e27 b5bd 1547 383e
00000130: 92ba 8e3e 8b4d 4dbd 7902 e9be cd71 2a3e
00000140: 8ce2 2cbd 27bc febc 3c37 9d3e a17d 7c3d
00000150: 456b 23be 3ec4 dabc 3ab0 043d 5284 67be
00000160: 1b66 9dbe 4994 98bd c849 edbc 1b1d 8dbe
00000170: 0927 8dbd f766 06bd 348b 6ebe bc67 cb3d
00000180: 1a98 a93d bea1 f8bd 72d7 08be 6a38 5d3e
00000190: 5d2b 35bd 4365 113e 1aa1 2ebe 7b81 82bd
000001a0: 556c 373d 2eb9 143e ed07 d4bd 1d3d 223d
000001b0: 0edd 21be 08e9 7ebe b66f 00bd 10ad 7fbe
000001c0: 93e0 253e 4690 1b3e 2761 7e3e 8e29 72bc
000001d0: e26c 5ebe 7045 9fbe d34e aabd b488 8b3d
000001e0: 210a 00be 6434 4cbe e8fb 96be 3021 f0bc
000001f0: d38f e3bd 4a9e fe3d 2cc3 35be 3477 94bd
00000200: ee75 863d 9194 87bd f291 773d cd14 053a
00000210: 0256 9d3d b49e 2ebe c900 e73d 6d01 8bbd
00000220: 7ef8 703d 5f36 0a3d f49e 533c 8e34 6a3d
00000230: a26f dcbd 3e3c 16bd 501c 703d e9d8 e23c
00000240: 17af c73b 470f 8a3e 078e efbd b016 083e
00000250: ec1f 933e 5f16 57be 41ba ad3e 1cc4 a63c
00000260: 0de6 1d3e 0d85 02be e857 c93c 8041 153e
00000270: 6fbf b4bd dc1b b63d 7bf6 223e 3466 403e
00000280: 6796 493d 2734 6a3e fbc0 103e 3c55 523e
00000290: cc0e b43c 828d cbbe e924 04bf c805 ffbd
000002a0: b64e cabd 8037 273d 4e06 86bd 5230 593e
000002b0: 7d0c 473c 72a1 aebe d5be 33bc 3d83 453d
000002c0: 205a 29bc 4c1e 6dbd e0ca a83c 825b 32bc
000002d0: e6d8 e1be 38bd a33e 9fde d8bd bbe6 01be
000002e0: d92a ba3e 8aba 7dbd 0369 9fbe 5254 c43d
000002f0: cc8f 5fbd 6e12 483c c8c3 acbe 55e1 13bd
00000300: 21df 903e 9173 ebbd 20d0 963c 5712 2abd
00000310: bf63 a1bd e007 223e 4c0b a43d 6f8d 74be
00000320: 0831 5cbd 825e 89bd 2ebf 5e3d 315b fbbc
00000330: b6e2 74be 7b92 edbd 4039 e5bd 1ab0 913e
00000340: bb96 b0be 0cbe 5d3d ad31 893e 1ab7 06bb
00000350: 41af 81be 2200 eebd f58c b13d bb85 9d3c
00000360: 11ab 01bf 006a 9cbd 1154 a6bd d728 32be
00000370: 8ee1 403e d2b0 50be f8cb e9bc 7f1f 15be
00000380: e8fd 703c 98a0 803e 4d6e 153e bb7b d7bd
00000390: 8a5b 2d3e 8b80 adbe 8e62 42bc 5112 413e
000003a0: e21c 143e a523 b03d a730 f0bd e109 41be
000003b0: 249e f93d 0e04 c73d 0bf9 b0bd 440f 9a3e
000003c0: ba73 5abe 57f2 92bd 7108 f8bd 98b6 f2be
000003d0: 2452 143e 3112 b83c f368 72bd 0335 8e3d
000003e0: bb4d 08be ec57 3ebe 2ecc 80be da03 65bd
000003f0: 1913 ac3d e24f b3bd c3e7 25be 1b6d 54bd
0.012215 0.23137905 -0.10923756 0.21493956 -0.22695665 -0.026194125 -0.50770354 0.27842748
-0.19140206 -0.20168714 0.119576536 -0.064069204 -0.21513237 -0.08571516 0.13263093 -0.07214581
-0.13440728 0.13959147 -0.012349788 -0.29549584 0.089350715 -0.1439485 0.34286338 0.22153035
0.016128914 0.052694645 -0.009798784 0.070310935 -0.016989226 0.08689809 -0.08333843 0.07915453
-0.12647742 0.098881945 0.15021479 -0.3090961 0.09727787 0.10493212 -0.0500631 0.012781253
0.1150257 -0.12914638 0.1633722 -0.09686694 -0.5278472 -0.19632904 -0.025290271 0.06810276
0.24859947 0.08515148 0.07380406 -0.24669936 -0.02246462 -0.21259102 0.21594422 -0.3368747
-0.14910142 0.10981131 -0.00053813885 0.06661983 0.12325642 -0.07741681 -0.08925021 -0.12070925
-0.40422675 -0.09353351 -0.24678245 -0.14575791 -0.014008243 -0.21095645 -0.17244168 0.1446893
-0.23833075 0.10337001 -0.08845423 0.17995866 0.27876717 -0.05012278 -0.455097 0.16644974
-0.04220824 -0.031095577 0.30706203 0.061643247 -0.15958889 -0.026704904 0.032394625 -0.2260907
-0.30741963 -0.07450158 -0.028965846 -0.27561268 -0.06892211 -0.03281304 -0.2329529 0.09931895
0.08280964 -0.12140225 -0.13363436 0.21603552 -0.044230808 0.14198785 -0.17053643 -0.06372353
0.044781048 0.14523765 -0.10353074 0.039609063 -0.15806982 -0.24893582 -0.031356536 -0.24968362
0.1619895 0.15191755 0.24841748 -0.014780415 -0.21721223 -0.31107664 -0.08315816 0.068131834
-0.12503864 -0.1994186 -0.29489064 -0.0293127 -0.11111417 0.12432535 -0.17750233 -0.07249299
0.06565462 -0.06620134 0.06044192 0.0005076647 0.0768242 -0.17052728 0.11279447 -0.06787381
0.05883073 0.03374326 0.012916315 0.057179026 -0.1076348 -0.036678545 0.05862075 0.027691321
0.0060938704 0.2696478 -0.116970114 0.13289905 0.28735292 -0.21004628 0.33931163 0.020357184
0.15419789 -0.12746067 0.02457805 0.14575768 -0.088255756 0.088920325 0.15914337 0.18788987
0.0492157 0.22871457 0.14136116 0.20540327 0.021979712 -0.397564 -0.5161882 -0.124522746
-0.09878294 0.040824413 -0.06544171 0.21209839 0.0121489735 -0.34107548 -0.010970791 0.04822086
-0.010336429 -0.05789022 0.02060455 -0.010886075 -0.44110793 0.319803 -0.105893366 -0.12685673
0.36360815 -0.061945476 -0.31134805 0.09586395 -0.054580495 0.012211425 -0.3374312 -0.036103565
0.28295234 -0.11496652 0.018409789 -0.041521396 -0.07880353 0.15823317 0.08009967 -0.23882078
-0.053757697 -0.06707479 0.054381542 -0.030683132 -0.23914608 -0.116002046 -0.1119256 0.28454667
-0.34489998 0.05413632 0.26795712 -0.0020555914 -0.2532902 -0.11621119 0.086694635 0.019228807
-0.5065165 -0.076374054 -0.08121503 -0.17398392 0.18836042 -0.20379952 -0.028539643 -0.14562796
0.0147089735 0.25122523 0.14592858 -0.105216466 0.1692945 -0.33887133 -0.011864318 0.18854643
0.14464143 0.08600549 -0.1172803 -0.18851425 0.12188366 0.0971757 -0.08641251 0.30089772
-0.21333209 -0.07175129 -0.12110985 -0.47404933 0.14484459 0.022469612 -0.05918212 0.06943705
-0.13310902 -0.18588227 -0.25155777 -0.055911876 0.0840208 -0.08755471 -0.16201691 -0.051861864

base.mlp.fc_h.0.bias f4 [64]
00000000: 0000 0000 0000 0000 0000 0000 0000 0000
00000010: 0000 0000 0000 0000 0000 0000 0000 0000
00000020: 0000 0000 0000 0000 0000 0000 0000 0000
00000030: 0000 0000 0000 0000 0000 0000 0000 0000
00000040: 0000 0000 0000 0000 0000 0000 0000 0000
00000050: 0000 0000 0000 0000 0000 0000 0000 0000
00000060: 0000 0000 0000 0000 0000 0000 0000 0000
00000070: 0000 0000 0000 0000 0000 0000 0000 0000
00000080: 0000 0000 0000 0000 0000 0000 0000 0000
00000090: 0000 0000 0000 0000 0000 0000 0000 0000
000000a0: 0000 0000 0000 0000 0000 0000 0000 0000
000000b0: 0000 0000 0000 0000 0000 0000 0000 0000
000000c0: 0000 0000 0000 0000 0000 0000 0000 0000
000000d0: 0000 0000 0000 0000 0000 0000 0000 0000
000000e0: 0000 0000 0000 0000 0000 0000 0000 0000
000000f0: 0000 0000 0000 0000 0000 0000 0000 0000
0.0 0.0 0.0 0.0 0.0 0.0 0.0 0.0
0.0 0.0 0.0 0.0 0.0 0.0 0.0 0.0
0.0 0.0 0.0 0.0 0.0 0.0 0.0 0.0
0.0 0.0 0.0 0.0 0.0 0.0 0.0 0.0
0.0 0.0 0.0 0.0 0.0 0.0 0.0 0.0
0.0 0.0 0.0 0.0 0.0 0.0 0.0 0.0
0.0 0.0 0.0 0.0 0.0 0.0 0.0 0.0
0.0 0.0 0.0 0.0 0.0 0.0 0.0 0.0

base.mlp.fc_h.2.weight f4 [64]
00000000: 0000 803f 0000 803f 0000 803f 0000 803f
00000010: 0000 803f 0000 803f 0000 803f 0000 803f
00000020: 0000 803f 0000 803f 0000 803f 0000 803f
00000030: 0000 803f 0000 803f 0000 803f 0000 803f
00000040: 0000 803f 0000 803f 0000 803f 0000 803f
00000050: 0000 803f 0000 803f 0000 803f 0000 803f
00000060: 0000 803f 0000 803f 0000 803f 0000 803f
00000070: 0000 803f 0000 803f 0000 803f 0000 803f
00000080: 0000 803f 0000 803f 0000 803f 0000 803f
00000090: 0000 803f 0000 803f 0000 803f 0000 803f
000000a0: 0000 803f 0000 803f 0000 803f 0000 803f
000000b0: 0000 803f 0000 803f 0000 803f 0000 803f
000000c0: 0000 803f 0000 803f 0000 803f 0000 803f
000000d0: 0000 803f 0000 803f 0000 803f 0000 803f
000000e0: 0000 803f 0000 803f 0000 803f 0000 803f
000000f0: 0000 803f 0000 803f 0000 803f 0000 803f
1.0 1.0 1.0 1.0 1.0 1.0 1.0 1.0
1.0 1.0 1.0 1.0 1.0 1.0 1.0 1.0
1.0 1.0 1.0 1.0 1.0 1.0 1.0 1.0
1.0 1.0 1.0 1.0 1.0 1.0 1.0 1.0
1.0 1.0 1.0 1.0 1.0 1.0 1.0 1.0
1.0 1.0 1.0 1.0 1.0 1.0 1.0 1.0
1.0 1.0 1.0 1.0 1.0 1.0 1.0 1.0
1.0 1.0 1.0 1.0 1.0 1.0 1.0 1.0

base.mlp.fc_h.2.bias f4 [64]
00000000: 0000 0000 0000 0000 0000 0000 0000 0000
00000010: 0000 0000 0000 0000 0000 0000 0000 0000
00000020: 0000 0000 0000 0000 0000 0000 0000 0000
00000030: 0000 0000 0000 0000 0000 0000 0000 0000
00000040: 0000 0000 0000 0000 0000 0000 0000 0000
00000050: 0000 0000 0000 0000 0000 0000 0000 0000
00000060: 0000 0000 0000 0000 0000 0000 0000 0000
00000070: 0000 0000 0000 0000 0000 0000 0000 0000
00000080: 0000 0000 0000 0000 0000 0000 0000 0000
00000090: 0000 0000 0000 0000 0000 0000 0000 0000
000000a0: 0000 0000 0000 0000 0000 0000 0000 0000
000000b0: 0000 0000 0000 0000 0000 0000 0000 0000
000000c0: 0000 0000 0000 0000 0000 0000 0000 0000
000000d0: 0000 0000 0000 0000 0000 0000 0000 0000
000000e0: 0000 0000 0000 0000 0000 0000 0000 0000
000000f0: 0000 0000 0000 0000 0000 0000 0000 0000
0.0 0.0 0.0 0.0 0.0 0.0 0.0 0.0
0.0 0.0 0.0 0.0 0.0 0.0 0.0 0.0
0.0 0.0 0.0 0.0 0.0 0.0 0.0 0.0
0.0 0.0 0.0 0.0 0.0 0.0 0.0 0.0
0.0 0.0 0.0 0.0 0.0 0.0 0.0 0.0
0.0 0.0 0.0 0.0 0.0 0.0 0.0 0.0
0.0 0.0 0.0 0.0 0.0 0.0 0.0 0.0
0.0 0.0 0.0 0.0 0.0 0.0 0.0 0.0

base.mlp.fc2.0.0.weight f4 [64, 64]
00000000: 4192 f93c 60af 2b3e 77ed 91bd 58ae 383e
00000010: 28c5 8bbe b103 21bc 43a0 f6be 988c a33e
00000020: 9d1d 35be 2496 29be a6d8 943d c60b 1b3d
00000030: 1859 22be 5cbe fbbd 9220 ff3d bb15 52bd
00000040: a182 e7bd df1c b43d bbe5 d1bb d3bf aabe
00000050: a598 843d 7c8b e9bd af37 a53e fba7 523e
00000060: de7a 01bd c922 433d de2b 92ba 579e 8a3c
00000070: e440 1fbd 0f27 603d 1abe 9abd fe43 1b3e
00000080: 4271 07be 8d2b 053d 5393 ad3d b921 85be
00000090: e802 763d 1e02 103e e1b3 c33b b0b9 3e3c
000000a0: aaaf 313e 38e3 1bbe 2f6b 103e 5a1c b1bd
000000b0: 38d2 fcbe 25a9 37be e519 d83c aab1 a13d
000000c0: 80d0 7d3e f605 d73d c8bf 823b 975b 50be
000000d0: 5ee7 85b8 18ef 49be e0d3 3b3e 7681 9dbe
000000e0: 442c f7bd fd60 ab3d b9cd e0bc 3267 013e
000000f0: 0d4b 043e 882d 10be cf5a e1bd 36ae 7abd
00000100: 895e d2be ca64 bdbd b765 9cbe 1734 27be
00000110: 8e1e 903c 1123 6abe d4ea 5ebe caad 003e
00000120: 2893 91be 382d ff3d a39d eabd d7db 423e
00000130: 3482 8c3e 02a5 e93b 324f fbbe 49e6 463e
00000140: b5da 8dbd e86a b6bc 1744 c53e 10ff c33d
00000150: 0ae8 05be 45c3 02bd 36b8 823c 877e 77be
00000160: b325 a8be 0a4d f0bd 8bba 77bd df61 96be
00000170: 4a6e bbbd e547 773a bf8b 80be a45e 623d
00000180: cd55 4f3d 184d 0ebe ab63 24be 7007 723e
00000190: 4fff a7bc 20f2 0f3e 8bfe 70be 9f87 9dbd
000001a0: 645f 9a3d a5fb 2e3e 09c5 aabd 1427 183c
000001b0: c033 34be 6f29 84be d680 b5bc dbca 99be
000001c0: fd32 2f3e 9163 2b3e 513b 913e 738f 93bc
000001d0: dce9 44be 92f8 acbe 35ff 38bd 379c 893d
000001e0: 0e54 46be a787 18be bc29 92be 1137 85bc
000001f0: 0e3b 18be 29bf 183e 8531 02be ac20 b3bd
00000200: 191c 983d 4da5 61bd db55 853d dd5c ea3c
00000210: c412 4e3d f36b 34be 29a9 a13d ca44 7cbc
00000220: ebf4 ea3c 49fb 373d 7cdb 16bd 607d c23d
00000230: 3571 92bd 1ce6 8dbd 5345 493d 427b 723d
00000240: 77a0 0f3d 2cd3 6b3e 6591 c2bd 4784 e43d
00000250: 20b9 893e fd8a 3cbe ee32 a23e 6a64 823a
00000260: d26c ea3d 3808 f6bd e023 0d3c 4f93 9e3d
00000270: c46d 76bd ef17 da3d 23a1 333e b030 533e
00000280: b68d f13c 3095 303e 63d5 c33d fa13 5a3e
00000290: 3a95 003b 2db3 b0be 6b0a eebe 0a8d c8bd
000002a0: d7e4 96bd 0732 6c3c b727 91bd 04ed 2a3e
000002b0: a330 b13d 913a a8be f671 0aba 7bad 773d
000002c0: 2894 39bd 747d 83bd 9a49 84bc 2349 633c
000002d0: e775 d3be 5bb5 903e 2242 01be 5114 e3bd
000002e0: 55c6 a83e dcaa b6bd 5aec 90be 5837 f53d
000002f0: 4e6a 55bd 21c2 e6bb e2cb a6be 92cf 993c
00000300: b610 363e f84d 30be a100 fd3d 598f 97bd
00000310: b4e5 88bd 5597 493e 5299 863c cc1e 09be
00000320: d1eb 87bb 5eab fbbd f5fb ff3c e67d 05be
00000330: 5062 2bbe 8c82 0bbe 8208 aabd 67ac 8c3e
00000340: 5714 b6be 4821 8bbc 0802 383e f7bb b6bd
00000350: cb18 a6be 6059 08bd bfa7 f73d 3c71 433d
00000360: 60d8 febe 257d c3bd 9664 29be 3a49 94be
00000370: 279b 1f3e 2d12 84be 6e2a 0abe b5d9 85bd
00000380: 5bd8 153d aa2a 3c3e bb36 3e3e 97f3 fe3c
00000390: 2d79 3a3d 5d9b 8ebe f615 ce3d a977 3f3e
000003a0: daf6 333e 3b84 543d da95 20be 5631 90be
000003b0: 1aa6 343e 9941 2abd cc75 20be 125d c63e
000003c0: c5b5 7dbe c39d 83bd 91f8 13be c5c4 e8be
000003d0: adff 473e f857 193e 09e5 dbbd 5e96 653d
000003e0: 6075 d1bd 35f5 8fbe a6cf 48be f871 35bd
000003f0: 2e3b 183e 5357 05be 4dbb 4fbe f171 7ebd
0.030465247 0.16766119 -0.07125371 0.18035257 -0.27298856 -0.00982754 -0.48169145 0.31943202
-0.17687078 -0.1656118 0.07267885 0.037853025 -0.15854299 -0.122921675 0.12457384 -0.051290255
-0.11304212 0.08794569 -0.00640556 -0.33349475 0.06474427 -0.11403558 0.32269046 0.20571892
-0.031611316 0.047640596 -0.001115199 0.016921205 -0.038880244 0.05472475 -0.0755579 0.15162656
-0.13226798 0.032512236 0.084753655 -0.2600229 0.060061365 0.14063308 0.005972371 0.011640951
0.17352167 -0.15223396 0.14103387 -0.08647986 -0.49379134 -0.17935617 0.026379535 0.07895215
0.24786568 0.10499184 0.0039901473 -0.20347439 -6.38503e-05 -0.19720113 0.18342543 -0.30762833
-0.1206899 0.083681084 -0.027441846 0.12637022 0.12919255 -0.14079869 -0.110036485 -0.061201297
-0.4108775 -0.092477396 -0.30546352 -0.16328464 0.017592695 -0.2286494 -0.21769267 0.12566295
-0.28432584 0.12459797 -0.11455848 0.19029175 0.27443087 0.007130266 -0.4908386 0.19423784
-0.06926481 -0.022267774 0.3852851 0.09570134 -0.13076797 -0.031924505 0.01595698 -0.2416936
-0.32841262 -0.11733444 -0.060480636 -0.29371545 -0.09151895 0.00094330154 -0.25106618 0.055266038
0.050618935 -0.13896596 -0.16053645 0.2363565 -0.020507483 0.14057207 -0.235346 -0.07691883
0.075377256 0.17088182 -0.08338363 0.009286661 -0.17597866 -0.2581286 -0.02215616 -0.3003758
0.17109294 0.167372 0.28365567 -0.018012738 -0.19229835 -0.33783394 -0.04516526 0.06719249
-0.19368002 -0.14895497 -0.28547466 -0.01626161 -0.14866278 0.14916672 -0.12714203 -0.08746466
0.07427234 -0.055089284 0.06510516 0.028608734 0.050310865 -0.17619304 0.07893593 -0.01539726
0.02868124 0.04491738 -0.03683041 0.0949657 -0.07150499 -0.069286555 0.04913838 0.05919958
0.03506514 0.23029774 -0.09500388 0.111580424 0.26899052 -0.18412395 0.3167948 0.0009948139
0.11446537 -0.12013286 0.00861451 0.07742941 -0.060163274 0.10649096 0.17541938 0.20624042
0.029486518 0.1724441 0.09562185 0.21296683 0.0019620196 -0.345117 -0.46492323 -0.09792526
-0.073678665 0.014416224 -0.07087653 0.16691977 0.08651855 -0.32857183 -0.0005281264 0.06046818
-0.04530731 -0.06420413 -0.016148377 0.013872418 -0.4130089 0.28263363 -0.12622884 -0.110878594
0.32963815 -0.089193076 -0.28305322 0.119734466 -0.052103333 -0.007042185 -0.32577425 0.018775735
0.17779812 -0.17217243 0.123536356 -0.07400388 -0.066844374 0.19686635 0.01643053 -0.13390654
-0.0041479846 -0.12288545 0.031248072 -0.13036308 -0.16736722 -0.13624018 -0.08302404 0.27475283
-0.35562393 -0.016983643 0.17969525 -0.0892257 -0.3244079 -0.03328836 0.12092542 0.04771541
-0.49774456 -0.09545354 -0.16542277 -0.28962117 0.1558653 -0.25795117 -0.13492748 -0.06535665
0.036583286 0.1837565 0.18575566 0.031122012 0.04552572 -0.27852908 0.100627825 0.1869799
0.17574635 0.051883917 -0.15682164 -0.2816264 0.17641488 -0.041566465 -0.15669936 0.38742882
-0.24776371 -0.06426575 -0.1445029 -0.45462623 0.19531126 0.14974964 -0.10737044 0.056051604
-0.10227466 -0.28116766 -0.19610462 -0.044298142 0.14866325 -0.13021593 -0.20286293 -0.06212038

base.mlp.fc2.0.0.bias f4 [64]
00000000: e3f6 89bc 547b cd3c 2c8d ecbc 02b7 ceb8
00000010: c2f6 333e 954c e8bc cf8b febb c20e a8bc
00000020: 85a9 e43c 29d9 523d 0042 a43b 9f42 9fbc
00000030: c804 443d eb8d 97bc a9dd 043d 012b cd3c
00000040: 2cc5 ecbc 2436 f3bc 3fa4 063d 13ad 963d
00000050: edb4 ee3d 42be 0cbd d3ee 0e3d 9a9a a83c
00000060: 725b cc3c 4ca5 97bc 9d0a b23c 94d6 003d
00000070: 9848 d2bc b919 debc 523c 183d 183b babc
00000080: 02c5 08bd c104 05bd 5f51 413d 7573 eabc
00000090: c0ce 9d3c e371 df3c 9a5d dd3c b40d 2c3e
000000a0: 4999 87bc 3ec8 a83d f8f1 293e 961f b3bc
000000b0: 06b4 443d 7513 403d 8c74 193d 40c7 c43c
000000c0: 29ad c73c 2cae 4e3d c381 043d c7c3 ba3c
000000d0: 5b05 0e3d 1f3d c23c 9ed5 07bd ec7b 1cbc
000000e0: af88 283d e6a2 c93c 952d 063d e834 06bc
000000f0: f09f 73bc ce01 bf3d 1409 b63d 03ea b1bc
-0.016841358 0.025083221 -0.02887591 -9.856933e-05 0.175746 -0.02835683 -0.0077681313 -0.02051485
0.027912864 0.05147663 0.0050127506 -0.019440947 0.047856122 -0.018500289 0.032437954 0.02504492
-0.028902613 -0.029688902 0.03287148 0.0735723 0.116556026 -0.03436113 0.03489573 0.020581532
0.024945948 -0.018511437 0.021733576 0.031454638 -0.025669381 -0.027111875 0.0371669 -0.022733256
-0.033391006 -0.032475237 0.047196742 -0.028619507 0.019263625 0.027275985 0.027022172 0.16802102
-0.016552584 0.08241318 0.1659621 -0.021865647 0.048023246 0.046893556 0.037464663 0.024020791
0.024374561 0.050459072 0.032350313 0.022798432 0.034673076 0.023710785 -0.033162706 -0.00955103
0.041145977 0.024613809 0.032758314 -0.008191325 -0.014869675 0.09326516 0.0888845 -0.02171803

base.mlp.fc2.0.2.weight f4 [64]
00000000: fabf 763f 5dde 753f 4bf1 6b3f 739f 813f
00000010: fcb4 7a3f 7f64 6a3f bd35 773f 78e1 6d3f
00000020: dabf 753f 5521 7b3f 59a4 7b3f 54bb 733f
00000030: ccf9 7e3f 58d4 6c3f fb3c 7d3f 07c7 633f
00000040: be80 743f cb82 693f 799b 773f 5e36 7b3f
00000050: 67de 7b3f fee8 6e3f 22c4 703f 9e81 5d3f
00000060: fda1 723f f882 703f fe96 6e3f 35bf 6d3f
00000070: ffad 7b3f f833 783f b132 733f 9dfc 7a3f
00000080: 97ce 693f 2662 6b3f dbfc 7f3f 9940 6a3f
00000090: 5fb6 673f 7284 7a3f 566c 733f 541e 7b3f
000000a0: f0d6 6c3f c439 7e3f 6eef 793f 0608 6e3f
000000b0: 566a 803f ce58 803f f39c 783f b5dc 673f
000000c0: 952a 773f b22e 7c3f 0bb0 743f 0e5a 6e3f
000000d0: 5e49 793f 7b26 733f f2e2 6b3f a7eb 773f
000000e0: afbc 7c3f 1bfd 663f ed4b 733f 0da1 793f
000000f0: 1aa0 6e3f 7432 7f3f cd1e 7e3f 33b3 663f
0.96386683 0.96042424 0.9216506 1.0126785 0.9793241 0.91559595 0.96566373 0.92922163
0.9599587 0.98097736 0.9829765 0.95207715 0.9959991 0.9251151 0.98921174 0.88975567
0.95508945 0.912152 0.9672161 0.9812983 0.98386234 0.9332427 0.94049275 0.86525905
0.94778425 0.9394984 0.93199146 0.92869884 0.9831237 0.969543 0.94999224 0.9804171
0.91330856 0.9194664 0.999952 0.9150482 0.9051265 0.97858346 0.9508718 0.9809315
0.9251547 0.99306893 0.97630966 0.9298099 1.0032451 1.0027101 0.97114486 0.9057115
0.9654935 0.9850875 0.9558112 0.9310616 0.97377574 0.9498059 0.92143166 0.9684395
0.9872541 0.9022996 0.9503773 0.9751137 0.93213046 0.9968636 0.9926575 0.90117186

base.mlp.fc2.0.2.bias f4 [64]
00000000: 6cf6 abbc e528 923c 4c2e 9fbc 2b9e c2bc
00000010: ed12 17bc ba1b 9dbc 7261 92bc 63f3 a1bc
00000020: c886 a93c 8f88 74bc f75d a1bc 5cc9 a9bc
00000030: 68b7 c23c 172c 9bbc f6b4 b9bc bed1 a03c
00000040: 0aee a3bc 9a96 9fbc 5065 a13c 1c9b d1bc
00000050: d4a8 13bc 4ce2 a1bc 072f a73c 65a0 9c3c
00000060: 2d81 9e3c 433e 9dbc 066c 9c3c 112c a23c
00000070: 52c1 a7bc 4b56 a5bc 6a33 ae3c d155 aabc
00000080: ef4b 9ebc 7e3f a0bc e9bd bc3c f02a a1bc
00000090: ab43 9d3c e1ef 873c 83f5 a13c a692 a7bb
000000a0: 504f 9ebc 4a02 123d 4e3a 18bc 05fb a3bc
000000b0: 5576 ad3c 1ae9 c53c 4bc8 a93c 322d 9c3c
000000c0: 7925 963c 40bc c83c 578f 963c 6ad8 9a3c
000000d0: 3f41 af3c 11a6 a03c f87c a1bc a2f6 a1bc
000000e0: f095 6fbc f41a a03c 4471 ab3c 22e5 cfbc
000000f0: 21a2 9abc b7c6 f23b b455 e13b cf7d 9dbc
-0.020991527 0.017841766 -0.019431256 -0.023757061 -0.009220821 -0.01917826 -0.017868731 -0.019769376
0.020694152 -0.014925136 -0.019698126 -0.020725898 0.023769096 -0.018941922 -0.022669297 0.019631263
-0.020010967 -0.019480992 0.01970163 -0.025586657 -0.00901242 -0.019761227 0.020408167 0.01911945
0.019348705 -0.019194728 0.019094478 0.019796403 -0.020477924 -0.02018275 0.02126475 -0.020792874
-0.019323317 -0.019561525 0.023039775 -0.019673795 0.019197306 0.016593875 0.01977039 -0.0051139174
-0.019324929 0.035646714 -0.009291245 -0.020017156 0.02117459 0.024159003 0.02072539 0.01906452
0.018328415 0.024503827 0.018378897 0.018902022 0.021393416 0.019610437 -0.01971291 -0.019770924
-0.01462315 0.019544102 0.020928033 -0.025377814 -0.018876137 0.0074089426 0.0068766717 -0.01922503

v_out.weight f4 [1, 64]
00000000: ca4a eebc 909d 2c3d aaa5 8ebd 3126 fabc
00000010: 311c 31bb 0213 babd 3463 d6bc a437 75bd
00000020: 3a98 fc3c 4dbe 023a 90c8 6fbc 6137 40bd
00000030: b1bc 993c 3307 73bd e65b c9bb 0479 ad3d
00000040: ba55 cebd dbdb cdbd bb4e 643c abf4 85ba
00000050: 0b77 5ebc 5ece b2bd 19c8 a93d bc3e 4c3e
00000060: 3b3e 8c3c c388 b1bc 2797 5a3d 9f2b 4b3d
00000070: d998 8cbd bb4f b6bd f729 df3c 79f2 1ebd
00000080: 890c e6bd c56d 0abe 47a2 c23c 82c3 9ebd
00000090: c1ce 863d bd8c ae3c 03b0 173d 4c22 cf3a
000000a0: 4986 1dbd a0ff ad3b 1a75 02bc e7be 7fbd
000000b0: 3d2c 8c3c a3a2 813c b360 5e3c 605b c13d
000000c0: 75bf d83c 42ca 013c dc89 ee3c e3df 3c3d
000000d0: da14 a53c cb44 b53c 92a0 a8bd 8991 bcbc
000000e0: e91b a7bc 3a8c 953d b118 c13c 1b5c a53b
000000f0: 2602 e1bc 899c 443c 9130 ff3b cf8f efbd
-0.029088397 0.04214245 -0.06965192 -0.03053579 -0.002702486 -0.09085657 -0.02617035 -0.059867516
0.030834306 0.00049874635 -0.01463522 -0.046927813 0.018766733 -0.059333038 -0.0061449884 0.084703475
-0.10074945 -0.100517 0.013934786 -0.0010220011 -0.013578187 -0.08730768 0.08290119 0.19945806
0.017119518 -0.021671658 0.053366806 0.049602147 -0.06865091 -0.08901926 0.02724169 -0.03880546
-0.1123286 -0.13518436 0.02375902 -0.07752134 0.06582404 0.021307344 0.037033092 0.0015803068
-0.038458142 0.005310014 -0.0079624895 -0.062437918 0.017110938 0.015824622 0.01357286 0.094412565
0.026458481 0.007921757 0.02911847 0.046111953 0.020151544 0.02212753 -0.08233751 -0.023018615
-0.02039905 0.07302137 0.023571344 0.00504638 -0.027466845 0.0120002115 0.007787772 -0.11697351
